FullOrderReconstruct/MLP-DeepONet/Checkpoint_SEED1024_LR0.001_HD64_HL2_MODEdeeponet_NETMLP_Epoch101_WithPhysics1_WithBatch1.pth (torch, 235618 bytes, 42 tensors)

branch.net.net.0.weight f4 [64, 2]
0	0x3ed123df	0.4084768
1	0x3ec5dd39	0.38645342
2	0xbec5a6ce	-0.38603824
3	0x3f7475b7	0.9549212
4	0x3eda8953	0.42682895
5	0x3f3a3ed8	0.7275214
6	0xbd258097	-0.040405836
7	0x3dc6914b	0.09695681
8	0xbd8d01cc	-0.06885108
9	0xbeb4f6a8	-0.35344434
10	0x3eba43ff	0.36380002
11	0xbf788cab	-0.9708964
12	0x3f092340	0.5356941
13	0xbef5231d	-0.47878352
14	0xbf48540e	-0.7825326
15	0x3e77e9f4	0.2421034
16	0xbe7992ee	-0.24372455
17	0x3f5fdddb	0.874479
18	0x3f0cd7b8	0.5501666
19	0x3f3df66f	0.7420415
20	0x3f114a5c	0.5675409
21	0xbedeabd2	-0.43490463
22	0xbe583a1f	-0.21115921
23	0x3f0e4881	0.5557938
24	0x3ead718f	0.338757
25	0xbf7f3900	-0.9969635
26	0xbec9c61f	-0.39408967
27	0x3f3fd314	0.74931455
28	0xbea6de2e	-0.32591385
29	0x3f755c47	0.9584393
30	0xbebe3577	-0.37150165
31	0xbf0217b6	-0.5081743
32	0xbe9ff357	-0.3124034
33	0x3f258629	0.6465784
34	0x3f2e23ed	0.6802357
35	0xbf25fc02	-0.6483766
36	0x3dc94f80	0.098296165
37	0xbf2c1029	-0.6721216
38	0x3eb36fc3	0.35046205
39	0xbf23fa63	-0.64053935
40	0x3f759776	0.95934236
41	0xbe5b282b	-0.21402042
42	0x3cdd8be0	0.027044237
43	0xbf821881	-1.0163728
44	0x3e2aa960	0.16666174
45	0xbf69b703	-0.9129488
46	0x3e060e22	0.13091329
47	0x3e19fb52	0.15037277
48	0xbef38a73	-0.47566566
49	0xbf1f6305	-0.62260467
50	0x3e959545	0.29215446
51	0xbed2c7d3	-0.4116808
52	0x3f2163ab	0.63042706
53	0x3f0f445d	0.5596369
54	0x4004d098	2.0752316
55	0x3f6625d7	0.8990149
56	0xbd4a9487	-0.049458053
57	0x3f1efe9b	0.6210725
58	0x3f1b2303	0.606003
59	0xbed2e6c9	-0.411917
60	0x3d135458	0.03596911
61	0xbf5c08e2	-0.85951054
62	0x3f2d3e61	0.6767331
63	0xbea951c2	-0.3307019
64	0xbea11e4f	-0.31468436
65	0xbe9a0483	-0.30081567
66	0xbf08a557	-0.5337729
67	0x3f0979b2	0.5370132
68	0xbf35b30c	-0.7097633
69	0x3eaed8bd	0.34149733
70	0xbe2f08b9	-0.17093171
71	0x3d99e9ee	0.07515322
72	0x3f2f41a8	0.6845956
73	0xbe6a26a3	-0.22866301
74	0x3f1a565a	0.6028801
75	0xbf4a16de	-0.7894114
76	0xbe2293b0	-0.15876651
77	0x3f5b084e	0.85559547
78	0x3e95478f	0.29156157
79	0xbf564de9	-0.8371263
80	0x3f7e9719	0.99449307
81	0xbe63a1ac	-0.22229642
82	0x3ed849e0	0.42243862
83	0xbf031aca	-0.5121275
84	0x3efb7603	0.49113473
85	0x3f57b6b0	0.84263134
86	0x3d2ebe8e	0.042662196
87	0x3f14ab66	0.58074033
88	0x3f94b3d6	1.1617382
89	0x3fa03a13	1.2517723
90	0xbec2248b	-0.37918505
91	0x3f48eedf	0.7848949
92	0x3f64f4fa	0.89436305
93	0x3eb345cc	0.35014188
94	0x3e82d081	0.255497
95	0xbe946ebc	-0.28990734
96	0xbec4b726	-0.3842098
97	0xbf45c038	-0.7724643
98	0x3e695e68	0.2278992
99	0x3f250f8a	0.64476836
100	0x3e6ee9e8	0.23331416
101	0x3f5a9b1f	0.85392946
102	0x3f03bc22	0.5145894
103	0xbee53091	-0.44763616
104	0x3e6efe2b	0.23339145
105	0xbecee8f0	-0.40412092
106	0x3c9e4d28	0.0193239
107	0xbd9f4ecf	-0.077787034
108	0xbf189437	-0.5960116
109	0xbf4c475e	-0.797964
110	0x3d14a6fb	0.036292057
111	0x3f82405c	1.0175891
112	0xbd970bea	-0.07375319
113	0xbf5dda8a	-0.8666159
114	0x3f492305	0.7856906
115	0xbf2721a6	-0.6528572
116	0xbec82d4f	-0.39097068
117	0x3f02a5f0	0.5103445
118	0x3ef07b94	0.46969283
119	0xbf108d1f	-0.56465334
120	0xbdbbb5ff	-0.091655724
121	0xbf5cb566	-0.8621429
122	0x3ecafb8d	0.39645043
123	0xbf84f1a7	-1.0386246
124	0xbc9f172b	-0.019420227
125	0xbe1009a8	-0.14066184
126	0x3f029c80	0.5102005
127	0xbf11063d	-0.56650144

branch.net.net.0.bias f4 [64]
0	0x3f2474ac	0.6424053
1	0x3ea07646	0.31340235
2	0xbf39a664	-0.72519517
3	0xbf349fcf	-0.7055635
4	0xbf49d896	-0.7884611
5	0xbf0ca4a6	-0.54938734
6	0x3db648e4	0.089006215
7	0xbf1f0b34	-0.6212647
8	0xbe6820ba	-0.22668734
9	0xbf0ec1d4	-0.5576451
10	0x3f3ae613	0.73007315
11	0x3f0cb289	0.54959923
12	0xbf35a7c1	-0.709591
13	0xbf1b1c94	-0.6059048
14	0x3f739d45	0.9516185
15	0x3f023d53	0.50874823
16	0x3f0f00a8	0.55860376
17	0xbe4de757	-0.2010778
18	0x3f4ea051	0.80713373
19	0x3f4e98e8	0.80702066
20	0x3f147fb0	0.58007336
21	0x3f5b8478	0.85749006
22	0xbf355bf4	-0.70843434
23	0x3e8756b6	0.26433343
24	0x3f6d158b	0.92610997
25	0xbf62c394	-0.8857968
26	0x3ef311af	0.4747443
27	0xbe08e6d8	-0.1336931
28	0xbf23a984	-0.63930535
29	0x3ee62772	0.4495197
30	0x3f28744c	0.65802455
31	0x3f2a9505	0.66633636
32	0x3f20a457	0.6275076
33	0xbe212872	-0.15738085
34	0xbf454f57	-0.7707419
35	0x3ee1b042	0.44079787
36	0xbe550ef7	-0.2080649
37	0xbbcdf507	-0.006285313
38	0xbf27ebc6	-0.65594137
39	0xbf1ee329	-0.6206537
40	0xbf191f93	-0.59813803
41	0x3f2d2c56	0.67645776
42	0xbed72a1d	-0.42024317
43	0x3e040ce7	0.12895547
44	0xbf3e9c37	-0.74457115
45	0x3e170708	0.14748776
46	0xbf23a484	-0.63922906
47	0xbf6cdafe	-0.92521656
48	0x3ead196f	0.33808467
49	0x3f0c02b6	0.54691637
50	0x3d9e1168	0.07718164
51	0xbe2f8feb	-0.17144744
52	0x3eab05fd	0.33403006
53	0x3f4e1a9c	0.8050935
54	0x3f3ae699	0.73008114
55	0x3f0ba071	0.5454169
56	0xbf1488f5	-0.5802148
57	0xbe7de178	-0.24793041
58	0x3e1c79f3	0.15280895
59	0x3f018ee7	0.50608677
60	0xbd7f613b	-0.062348586
61	0xbf36d80a	-0.714234
62	0xbf59b426	-0.8504051
63	0xbf26f0d9	-0.65211254

branch.net.net.2.weight f4 [64, 64]
0	0x3bd6a1fd	0.006550072
1	0xbd90768f	-0.07053863
2	0x3cbfe5d7	0.023425026
3	0xbe9823ea	-0.297149
4	0xbd86028f	-0.06543457
5	0x3c17d2cb	0.009266566
6	0x3d469164	0.0484785
7	0xbd8237bc	-0.06358287
8	0xbe1a1636	-0.15047535
9	0xbdcc38ff	-0.09971809
10	0x3d7f406e	0.062317304
11	0x3dc6559a	0.09684296
12	0xbd94e36d	-0.072699405
13	0x3c8d04c4	0.017214186
14	0x3e35e007	0.17761241
15	0xbd5103e6	-0.05102911
16	0x3e55d56d	0.20882197
17	0x3da676a7	0.081281
18	0x3c64426c	0.013931852
19	0x3dda83e5	0.10669688
20	0x3e11494f	0.14188121
21	0x3e0920a4	0.13391358
22	0xbe4aa6b9	-0.19790162
23	0x3e529fcb	0.20568769
24	0x3e12c3c9	0.14332499
25	0xbe4e50e9	-0.20148052
26	0x3e008ae1	0.12552978
27	0xbe5ebb1a	-0.21751061
28	0xbe21c5d0	-0.15798116
29	0x3e50df45	0.2039767
30	0x3e0ffbd0	0.14060903
31	0x3d2d2538	0.042271823
32	0x3da47ebe	0.08031987
33	0xbe1f3412	-0.15547207
34	0xbe6ce7e0	-0.23135328
35	0x3e4b2c24	0.19841057
36	0xbc21318f	-0.009838476
37	0xbd8b8958	-0.068133056
38	0xbdd639ea	-0.10460265
39	0xbc369e13	-0.011146086
40	0xbdff5d36	-0.124689505
41	0x3da223e4	0.07917002
42	0xbe24c905	-0.16092308
43	0x3d7049de	0.058664195
44	0x3dbcab43	0.09212353
45	0x3da1b997	0.078967266
46	0xbd9fe1ce	-0.07806741
47	0xbe8dbe55	-0.27684274
48	0x3e0be966	0.13663253
49	0x3de512ae	0.111852035
50	0xbe2a2450	-0.16615415
51	0xbd42f719	-0.047598932
52	0x3bd94f26	0.0066317497
53	0x3db530c1	0.0884719
54	0x3dbb5f35	0.09149019
55	0x3e39245b	0.18080275
56	0xbdd3c531	-0.10340346
57	0xbc5a5bae	-0.013327522
58	0x3c92e8b9	0.017933236
59	0x3d2f3ff1	0.04278559
60	0xbd2cfabf	-0.042231318
61	0xbded930c	-0.116003126
62	0xbe5cced2	-0.2156327
63	0xbe55479d	-0.208281
64	0x3d2a9122	0.041642316
65	0x3d14feb6	0.036375724
66	0xbd847a7b	-0.06468674
67	0xbe01a7f2	-0.12661722
68	0xbe3542c8	-0.17701256
69	0x3c9f21b9	0.01942526
70	0x3d041ef8	0.032256097
71	0xbe19713a	-0.14984599
72	0x3cd6fb95	0.02624301
73	0xbcbf3bc3	-0.023343926
74	0x3e3fee6c	0.18743294
75	0xbd096f40	-0.033553362
76	0xbd9968c7	-0.07490688
77	0xbe445e68	-0.19176638
78	0xbd3adbd7	-0.045619812
79	0x3d0af6d4	0.0339268
80	0x3e2470a9	0.16058601
81	0x3d3e4f34	0.046462253
82	0x3e84db30	0.25948477
83	0x3d7652bd	0.0601375
84	0x3ea31a99	0.3185623
85	0x3e7b98d8	0.24570024
86	0x3bc722bd	0.006077139
87	0x3d817627	0.06321364
88	0x3de1a0fa	0.11017032
89	0xbd2275c5	-0.039663095
90	0x3e0b9d30	0.13634181
91	0x3d991b27	0.07475882
92	0xbdcb3a46	-0.09923224
93	0x3e519659	0.2046751
94	0x3e84a0c6	0.2590391
95	0x3e507f9b	0.20361178
96	0x3da05f94	0.0783073
97	0xbd705ae2	-0.058680423
98	0xbe4cf423	-0.20015006
99	0xbd6e097d	-0.058114517
100	0x3da16d6d	0.078821994
101	0x3ce6f12a	0.028191168
102	0xbd534c82	-0.051586635
103	0x3d360bf8	0.044445008
104	0xbcd50793	-0.026004588
105	0x3e8921af	0.2678351
106	0xbd70d132	-0.058793254
107	0x3da83846	0.08213858
108	0xbd924795	-0.071425594
109	0x3ddb35c3	0.107036136
110	0xbd0b77eb	-0.03404991
111	0x3c5002ef	0.012696012
112	0x3d8582a1	0.06519056
113	0x3dceec4f	0.10103666
114	0xbc2092d4	-0.009800632
115	0xbcd0c3b6	-0.025483947
116	0x3e201f91	0.15637042
117	0x3d50d9f0	0.05098909
118	0x3d1f8298	0.038942903
119	0x3df176ee	0.11790262
120	0xbd9b80b2	-0.07592906
121	0xbe01718a	-0.12640968
122	0xbc936949	-0.01799454
123	0x3d82a631	0.06379355
124	0xbd9b2ccc	-0.07576904
125	0xbe4003e0	-0.18751478
126	0xbe463185	-0.19354828
127	0xbd67e3b5	-0.056613643
128	0xbd92fc4d	-0.07177029
129	0xbe08732c	-0.13325185
130	0xbd38d05a	-0.045120575
131	0xbe00eb97	-0.1258987
132	0xbd95d1c5	-0.07315401
133	0x3d8fd1f6	0.07022469
134	0x3ec5c247	0.38624784
135	0xbd9691ca	-0.07352026
136	0xbf29e215	-0.663606
137	0xbbfd1e7a	-0.0077245804
138	0x3e97753d	0.29581633
139	0xbdcfbc6a	-0.10143359
140	0xbd608fb0	-0.05482453
141	0xbea01b20	-0.31270695
142	0x3df76c19	0.12081165
143	0x3d130f98	0.035903543
144	0xbdab5f7c	-0.083678216
145	0x3e93b016	0.2884528
146	0x3e937a80	0.28804398
147	0x3ddddcc8	0.10833126
148	0x3d136457	0.035984363
149	0x3eb523dd	0.35378924
150	0xbd5071f6	-0.05088993
151	0x3d6c1f71	0.057647172
152	0x3b119f34	0.0022220137
153	0xbe12f44d	-0.14351006
154	0xbdd34ac7	-0.10316997
155	0xbcffa85b	-0.031208208
156	0xbe9a04b5	-0.30081716
157	0x3ee449f8	0.44587684
158	0x3e8bc8b3	0.2730156
159	0x3e0b6d08	0.13615811
160	0x3d8db428	0.06919128
161	0xbed03430	-0.40664816
162	0xbd6703ae	-0.056399994
163	0xbd4e5308	-0.050372154
164	0x3e684561	0.22682716
165	0x3eb48620	0.3525858
166	0xbeba01fd	-0.36329642
167	0xbd8eb527	-0.06968146
168	0x3e4d31eb	0.20038573
169	0x3eaccc03	0.337494
170	0xbe40fcb6	-0.18846402
171	0xbe345d00	-0.17613602
172	0xbe9c3a02	-0.30513006
173	0xbe953fd3	-0.29150257
174	0x3e25e987	0.16202365
175	0xbe06841f	-0.13136338
176	0x3e9c83be	0.3056926
177	0xbe2f188a	-0.17099205
178	0xbe150fe1	-0.14556839
179	0x3e002adf	0.12516354
180	0x3ec0f745	0.37688652
181	0x3deb9a02	0.11503984
182	0x3ddac04c	0.10681209
183	0xbe24491a	-0.16043511
184	0x3e30f8b9	0.1728238
185	0x3e65a6bb	0.22426884
186	0xbe947d7b	-0.29001984
187	0x3ec31664	0.3810302
188	0x3e801023	0.2501231
189	0x3ddf7c81	0.10912419
190	0xbd75a0f3	-0.059967946
191	0x3e095b96	0.13413844
192	0xbe8a9342	-0.27065474
193	0x3d87f122	0.06637789
194	0xbcd42c83	-0.025900131
195	0x3dd26df8	0.10274881
196	0x3e3a5f97	0.18200527
197	0x3d9dcb17	0.07704752
198	0xbde9f6ff	-0.11424064
199	0x3ea1957e	0.31559366
200	0x3d48605e	0.048920028
201	0xbdf8a672	-0.12141122
202	0xbd33a220	-0.043855786
203	0xbcd31ee8	-0.025771573
204	0x3dca6e4b	0.09884318
205	0x3d8eb412	0.069679394
206	0x3ddb372f	0.10703885
207	0xbdb34f4c	-0.08755359
208	0x3db2ccbc	0.08730456
209	0x3d9a7dd1	0.07543529
210	0xbc12bba9	-0.0089558745
211	0xbda70cb1	-0.081567176
212	0xbdb279dc	-0.08714649
213	0x3d9fe6b9	0.07807679
214	0x3d72de27	0.059293892
215	0xbec37949	-0.3817847
216	0xbe34d1cd	-0.17658158
217	0xbb8a73f0	-0.0042252466
218	0xbe222024	-0.15832573
219	0x3e0ac929	0.13553299
220	0xbdb0531c	-0.08609602
221	0xbe5df2b4	-0.21674615
222	0x3c9472df	0.018121181
223	0xbe497756	-0.1967443
224	0x3ce9ee89	0.028556125
225	0x3cb8fa85	0.022580395
226	0x3e7f1af8	0.24912632
227	0xbe595297	-0.21222912
228	0x3da144a8	0.07874423
229	0x3bcd6672	0.006268316
230	0xbe2634d0	-0.16231084
231	0x3d859490	0.06522477
232	0xbd277a9a	-0.040888406
233	0xbe09a3bc	-0.13441366
234	0xbd0c5217	-0.034257974
235	0x3d3dbf7b	0.046325188
236	0x3bcc07ef	0.0062265317
237	0x3dfc35a3	0.12314918
238	0x3d8c2e9d	0.06844828
239	0x3e14a573	0.14516239
240	0x3d5d0a7f	0.053965088
241	0xbe020fc5	-0.12701328
242	0xbcbe320a	-0.02321722
243	0xbdb7654a	-0.08954866
244	0xbd079e5a	-0.03311
245	0xbe67469b	-0.22585528
246	0xbddd9ccf	-0.108209245
247	0xbd7af8b7	-0.06127235
248	0x3cbf0e70	0.023322314
249	0x3d4cf2b6	0.050036155
250	0x3dcd8581	0.100352295
251	0x3da68ccc	0.081323236
252	0x3e0c9be3	0.13731341
253	0x3d9d7aa3	0.07689407
254	0x3d82bf26	0.06384115
255	0x3d8b47ba	0.0680079

branch.net.net.2.bias f4 [64]
0	0x3e048102	0.12939838
1	0x3dedf9fb	0.116199456
2	0x3df0e35e	0.11762117
3	0xbd82d1b3	-0.06387653
4	0x3e406723	0.18789344
5	0x3e447f84	0.19189268
6	0x3e1fd7af	0.1560962
7	0xbd22fae4	-0.03979005
8	0x3d853eb4	0.065061
9	0x3e034132	0.12817839
10	0x3ca7fab2	0.020505283
11	0x3e130d8d	0.14360638
12	0x3d9281b2	0.07153644
13	0xbdd37355	-0.10324732
14	0xbe48b706	-0.19601068
15	0xbe6a7834	-0.22897416
16	0x3e204afc	0.15653604
17	0x3e6afe93	0.22948675
18	0xbe71a1af	-0.23596834
19	0x3de0af39	0.10970921
20	0xbe258770	-0.16164947
21	0xbdaa8fe3	-0.083282255
22	0xbe82ba06	-0.2553255
23	0x3bccf7fd	0.0062551484
24	0xbe15c382	-0.14625362
25	0xbd8c831e	-0.06860946
26	0x3cc186e7	0.023623897
27	0xbde6eaa6	-0.112752244
28	0xbdcab022	-0.09896876
29	0xbd961e45	-0.07329992
30	0xbe629c4a	-0.22129932
31	0x3e8e46a9	0.27788284
32	0x3c4f90d6	0.012668809
33	0x3e5184ac	0.20460767
34	0x3d9051e2	0.07046868
35	0xbe362dff	-0.17790984
36	0x3e78c3ba	0.24293414
37	0xbe2128c3	-0.15738206
38	0xbd777b37	-0.06042024
39	0xbda9a104	-0.082826644
40	0xbe35d924	-0.17758614
41	0x3d0caaf2	0.034342714
42	0xbd1740ce	-0.036927037
43	0x3e62d451	0.22151305
44	0xbe98f2e4	-0.2987281
45	0xbeb584c2	-0.3545285
46	0xbe412093	-0.18860082
47	0xbe196330	-0.14979243
48	0xbe005d33	-0.12535553
49	0x3e08a068	0.1334244
50	0x3dddf580	0.10837841
51	0xbe329f44	-0.17443568
52	0x3d849d4b	0.06475314
53	0xbe35c8be	-0.17752358
54	0xbd206bce	-0.03916531
55	0xbb9206ba	-0.0044563683
56	0x3c9e5c6f	0.019331185
57	0x3dd12374	0.1021184
58	0x3c9e1f17	0.019301934
59	0xbe85da09	-0.2614291
60	0x3e52ddfc	0.20592493
61	0xbd459239	-0.048235152
62	0xbd616dc3	-0.055036318
63	0x3e1ab387	0.15107547

branch.net.net.4.weight f4 [64, 64]
0	0xbd7d4427	-0.061832573
1	0xbe5eff15	-0.21776994
2	0x3e945ba5	0.2897617
3	0xbda9b2be	-0.082860455
4	0x3cccc636	0.024996858
5	0xbe22214f	-0.15833019
6	0xbdbb9bc7	-0.091605715
7	0x3dae64a9	0.08515293
8	0x3db7ded5	0.08978049
9	0x3ce014a1	0.027353587
10	0x3cf81a00	0.030285835
11	0xbd5423c1	-0.05179191
12	0xbd83eadb	-0.064412795
13	0xbd2e44fa	-0.04254625
14	0xbde2c81e	-0.110733256
15	0x3e4a9eb5	0.19787104
16	0xbd62838a	-0.055301227
17	0xbe30515b	-0.17218535
18	0xbd835186	-0.06412034
19	0x3e1f8270	0.15577102
20	0x3e0ef9d6	0.13962492
21	0x3dc65c39	0.09685559
22	0x3bb9b2a6	0.0056670485
23	0x3de1b376	0.110205576
24	0x3d8018f6	0.06254761
25	0x3dbde1b6	0.092715666
26	0x3bfb280d	0.0076646865
27	0xbe14d3f5	-0.1453398
28	0xbdc74648	-0.09730202
29	0x3bdfcd5a	0.0068298997
30	0xbc80964f	-0.015696673
31	0x3d284eeb	0.041090887
32	0xbd8fdab9	-0.0702414
33	0xbe1fc08a	-0.15600792
34	0x3e2ff2ff	0.1718254
35	0x3e08f387	0.13374148
36	0xbd984a8e	-0.07436095
37	0x3dae4d03	0.085107826
38	0xbe82a30e	-0.25515026
39	0x3e38efb8	0.18060195
40	0x3d3c4eb2	0.045973487
41	0xbcf42266	-0.029801559
42	0xbd0bf0b6	-0.034165107
43	0xbe260613	-0.16213255
44	0x3e05f4db	0.13081686
45	0x3dcd532c	0.100256294
46	0xbd5b3ae9	-0.053522978
47	0x3d20d742	0.039267786
48	0xbe3c7518	-0.18404043
49	0x3dc72505	0.09723858
50	0xbde6081a	-0.11232014
51	0xbcb750a5	-0.022377321
52	0xbda0ca79	-0.078511186
53	0x3d3b7965	0.045770068
54	0x3e1d6b01	0.1537285
55	0xbb9c9a55	-0.00477914
56	0xbd34ef29	-0.044173393
57	0x3de9ca98	0.11415595
58	0xbe51cfa3	-0.20489363
59	0x3df86724	0.121290475
60	0x3cfa1a82	0.030530218
61	0x3ebc376e	0.3676104
62	0x3db5e69a	0.088818744
63	0x3c536559	0.012902581
64	0xbe8df148	-0.27723145
65	0x3e12f6aa	0.14351907
66	0x3e16f96d	0.14743586
67	0x3defeb9f	0.11714863
68	0xbd8d3116	-0.06894128
69	0xbd53de6a	-0.051725782
70	0xbbfa3a92	-0.0076363767
71	0x3e0981d7	0.13428436
72	0x3d2f3b75	0.042781312
73	0xbe23af89	-0.1598493
74	0x3c8ebf99	0.017425345
75	0x3d5858dc	0.052819118
76	0xbdf7e7c4	-0.12104753
77	0xbd834cd0	-0.06411135
78	0xbe19010c	-0.14941806
79	0x3e0ce287	0.13758288
80	0xbe5109c0	-0.20413876
81	0xbd886f64	-0.06661871
82	0x3d88e24b	0.06683787
83	0xbd3e542d	-0.046466995
84	0x3d2bb458	0.041920036
85	0x3e22c96a	0.15897146
86	0x3d014e5c	0.03156887
87	0xbd6c573e	-0.057700388
88	0x3e15d99b	0.14633791
89	0x3d8db2cc	0.069188684
90	0x3e61cc89	0.2205068
91	0xbe5fde88	-0.21862233
92	0xbe1dee54	-0.15422946
93	0xbe7e9dfb	-0.24864952
94	0x3e7e52ac	0.24836224
95	0xbe0f870a	-0.14016357
96	0x3e9c4071	0.30517915
97	0x3b094f97	0.002095198
98	0x3e2dd9ed	0.16977663
99	0x3daee7e2	0.08540322
100	0xbd9f457c	-0.07776925
101	0xbc3bd3de	-0.011464087
102	0xbd95673e	-0.072950825
103	0xbd80a7d1	-0.062820084
104	0xbd0c0b5a	-0.034190513
105	0xbc07a0d3	-0.00827809
106	0xbe884b64	-0.26620018
107	0xbde6283b	-0.11238142
108	0x3e7d61d5	0.24744351
109	0x3e192d49	0.14958681
110	0x3e8d680b	0.2761844
111	0x3dc30f5d	0.09524415
112	0xbe2da5b4	-0.16957742
113	0x3da76a38	0.081745565
114	0x3dad63ca	0.08466299
115	0x3e92521d	0.28578272
116	0x3d2e9bc3	0.042629015
117	0x3df36970	0.11885345
118	0x3db1a480	0.08673954
119	0x3e12334b	0.14277379
120	0x3e103161	0.14081337
121	0xbd8d4e81	-0.06899739
122	0xbdccf790	-0.10008156
123	0x3df60c0d	0.12014017
124	0x3e31b214	0.17353088
125	0xbe104c6b	-0.14091651
126	0xbe189042	-0.1489878
127	0x3d6dbef1	0.058043424
128	0x3d7bf008	0.06150821
129	0xbe54f977	-0.20798288
130	0x3ccd30a8	0.025047615
131	0xbdf58a6f	-0.11989295
132	0xbdceb456	-0.1009299
133	0xbcad717c	-0.021172278
134	0x3de8acd7	0.113610916
135	0xbd28331a	-0.04106436
136	0x3d85a679	0.06525893
137	0xbddd63ea	-0.10810073
138	0x3e1ac887	0.15115558
139	0x3d92fcf2	0.07177152
140	0xbcb8c495	-0.022554675
141	0x3e14e11c	0.14538997
142	0x3e2a1359	0.16608943
143	0xbe0d8145	-0.13818844
144	0xbe345258	-0.17609537
145	0x3e04b40a	0.12959304
146	0x3e4df692	0.2011359
147	0xbde2124e	-0.110386476
148	0xbd17a8de	-0.03702628
149	0x3d820497	0.06348532
150	0x3d0b270e	0.033972792
151	0xbd375a01	-0.04476357
152	0x3d225677	0.03963324
153	0xbc5049c6	-0.012712901
154	0xbe36c51e	-0.17848632
155	0xbd7789f8	-0.06043431
156	0x3d69e42d	0.05710237
157	0x3d845e4b	0.064632975
158	0xbe456239	-0.1927575
159	0x3daf69ce	0.085651025
160	0xbc850ede	-0.01624244
161	0xbe2b42ce	-0.16724703
162	0xbe3995e5	-0.18123586
163	0x3deff5bb	0.11716791
164	0xbe61c3b0	-0.22047305
165	0x3cfa412d	0.030548656
166	0x3d3f6bb1	0.046733562
167	0xbbd374c2	-0.0064531276
168	0x3d6fd5ed	0.058553625
169	0xbd7697d1	-0.060203377
170	0xbe06c995	-0.13162835
171	0x3db245fe	0.08704756
172	0x3e29d6f5	0.16585906
173	0x3d5bc339	0.053652976
174	0x3bdca9b5	0.006734098
175	0x3d9115bd	0.070842244
176	0x3d31c3ab	0.043399494
177	0xbd8e3495	-0.06943623
178	0x3da26945	0.07930235
179	0xbdbfa61f	-0.09357857
180	0x3cd37299	0.02581148
181	0xbd09bb2d	-0.03362577
182	0xbc3bed38	-0.011470132
183	0xbd2e8b12	-0.042613097
184	0xbd2f1058	-0.042740196
185	0x3dafc2a4	0.08582047
186	0xbba4c9b8	-0.0050289296
187	0xbe201178	-0.15631664
188	0xbb33107b	-0.0027323056
189	0x3d80e2ec	0.06293282
190	0x3d28c291	0.041201178
191	0x3d514809	0.05109409
192	0xbcb5f1d6	-0.022210043
193	0x3d72efcc	0.05931072
194	0x3eacb355	0.3373057
195	0x3ddab262	0.10678555
196	0xbd8f2bf2	-0.06990804
197	0xbe315f66	-0.17321548
198	0x3de9be17	0.1141321
199	0xbd7a7903	-0.061150562
200	0x3d5a09df	0.05323207
201	0x3d9d2bc5	0.07674364
202	0x3dcd2bbd	0.10018108
203	0x3cfa7a6d	0.030575955
204	0xbd81391e	-0.06309722
205	0x3d0e7f48	0.034789354
206	0x3b5ca6a8	0.003366867
207	0x3de0ed10	0.10982716
208	0xbe0c0a5e	-0.1367583
209	0xbc8ad166	-0.016945552
210	0x3e2d3240	0.169137
211	0x3e0e8d17	0.13921009
212	0x3e2b8762	0.16750863
213	0x3b7e38ad	0.0038791106
214	0x3e1051a1	0.14093639
215	0x3ccd47c5	0.025058636
216	0x3dd5bb62	0.10436131
217	0x3deb6d2c	0.11495432
218	0x3e4e6333	0.20155029
219	0xbe268336	-0.1626099
220	0xbd9cf253	-0.07663407
221	0xbe8e297d	-0.27766028
222	0x3da8280f	0.082107656
223	0x3d4cdf0a	0.050017394
224	0x3bdc99f2	0.006732219
225	0xbce2e2be	-0.02769601
226	0xbde71e14	-0.11285034
227	0xbc49a3bd	-0.012307105
228	0xbc9a3f14	-0.018828906
229	0x3e4c33f2	0.1994169
230	0x3d1b0315	0.037844736
231	0x3d8e540f	0.06949627
232	0xbb822e5b	-0.003972811
233	0x3db876a8	0.09007007
234	0xbbaef256	-0.0053389473
235	0xbcaf48ac	-0.021396957
236	0x3e05dfed	0.13073702
237	0x3e18c096	0.14917216
238	0xbe02d1c6	-0.12775335
239	0x3d09d2b6	0.033648215
240	0xbe13748f	-0.14399932
241	0xbe4e0738	-0.20119941
242	0x3e1d87eb	0.1538388
243	0x3d95f889	0.07322795
244	0x3e33840b	0.17530839
245	0xbd591163	-0.052995097
246	0x3dfef44c	0.1244894
247	0x3d14733d	0.036242712
248	0x3e1b409d	0.15161367
249	0x3d8054d8	0.06266183
250	0xbcfb7c8a	-0.030699033
251	0xbd19ab9a	-0.037517168
252	0x3e08b3a2	0.13349774
253	0xbee6a6e8	-0.45049214
254	0x3d87e190	0.066348195
255	0x3c75287e	0.014963267

branch.net.net.4.bias f4 [64]
0	0x3d11a1b8	0.035554618
1	0x3c9279d0	0.01788035
2	0x3d3fdf04	0.046843544
3	0xbd84fc9c	-0.06493494
4	0x3dbb8b7f	0.09157466
5	0xba2df129	-0.0006635362
6	0x3e5cc6d8	0.21560228
7	0x3e9f949c	0.31168067
8	0xbdb18a2e	-0.08668934
9	0xbc98ec66	-0.018667411
10	0xbd452cb1	-0.048138324
11	0x3e2f00e2	0.1709018
12	0x3d9dbafa	0.077016786
13	0xbe3252ab	-0.17414348
14	0x3db87901	0.09007455
15	0x3b0e2c67	0.0021693946
16	0xbd9c2abe	-0.0762534
17	0xbe0d7f42	-0.13818076
18	0x3dfcc1e0	0.12341666
19	0x3da2b723	0.07945087
20	0x3e57cff7	0.21075426
21	0xbe4e06b4	-0.20119745
22	0x3d9285b4	0.07154408
23	0x3e8ad662	0.27116686
24	0x3d0b1e98	0.033964723
25	0xbdcaeecf	-0.099088304
26	0x3e6cf07f	0.23138617
27	0xbe579897	-0.21054302
28	0x3db4af26	0.088224694
29	0x3bdf9e6b	0.006824305
30	0xbe42b602	-0.19014743
31	0x3dd42e9b	0.10360452
32	0x3e37155c	0.17879242
33	0xbe547d7c	-0.20750993
34	0x3e33e325	0.17567118
35	0xbd0d75eb	-0.034536283
36	0xbebea7b7	-0.3723733
37	0xbe2700d5	-0.16308911
38	0xbe1e1057	-0.1543592
39	0x3e0d8cdb	0.13823263
40	0xbe918e9d	-0.28429118
41	0x3df4aae7	0.119466595
42	0x3dcf92c5	0.10135416
43	0x3d36b82e	0.04460924
44	0xbe8ddc2a	-0.27707034
45	0xbdc7d090	-0.09756577
46	0xbe4113b9	-0.1885518
47	0x3e636197	0.22205196
48	0xbe1496a5	-0.14510591
49	0x39f025a8	0.00045804423
50	0x3da77fe1	0.08178688
51	0x3db73cc7	0.08947139
52	0x3e9661e7	0.2937157
53	0x3d9be203	0.07611468
54	0x3e1fc167	0.15601121
55	0x3e1a844a	0.15089527
56	0x3ddd5173	0.10806551
57	0xbde9f2f2	-0.11423291
58	0xbdcab764	-0.0989826
59	0x3db2a240	0.08722353
60	0xbd2ab651	-0.041677777
61	0x3e1314a5	0.14363344
62	0x3e77554f	0.24153636
63	0x3b93ec04	0.0045142192

trunk.net.0.weight f4 [64, 3]
0	0x3e16913e	0.14703843
1	0x3ff8c12d	1.9433953
2	0xc043a951	-3.0572093
3	0xbf6bb6c4	-0.92075753
4	0x3dad62dc	0.084661216
5	0xc023e10e	-2.5606112
6	0xbfa5a7cd	-1.2941834
7	0x400a37f8	2.159666
8	0x3fa64872	1.2990859
9	0xbeb9d63e	-0.36296266
10	0xbfab6bf4	-1.339232
11	0xbc1deb36	-0.009638598
12	0x3eb2668d	0.34843865
13	0x3de547d5	0.111953415
14	0x3f186843	0.5953409
15	0xbf599f9e	-0.8500918
16	0xbfcf81e0	-1.621151
17	0x3f8fc154	1.1230874
18	0xbc9ce086	-0.01915003
19	0xbf9d4702	-1.2287295
20	0x3f37aa2b	0.7174403
21	0xbed9623c	-0.4245776
22	0xbca92b94	-0.020650662
23	0xbfcfdbfd	-1.623901
24	0x3f5bd289	0.85868126
25	0xbeffe05a	-0.49975854
26	0xbdac89d9	-0.0842473
27	0x3f132c7d	0.5748976
28	0x3f3f8540	0.748127
29	0x3f0ca3f7	0.5493769
30	0x3fa70eb3	1.3051361
31	0x3f418cdb	0.75605553
32	0x3f8abb8a	1.0838482
33	0xbf3e1d0c	-0.7426307
34	0xc03d50f5	-2.9580662
35	0x3ffdf40c	1.9840102
36	0x3da21272	0.079136744
37	0xc00be913	-2.1861007
38	0x3faeb609	1.3649303
39	0x3f4c9d39	0.799274
40	0x3fe8ec0c	1.8197036
41	0xbf24a2db	-0.64311
42	0xbed9786d	-0.4247469
43	0x3e50b747	0.20382415
44	0x3eae836b	0.3408464
45	0x3d8baffe	0.06820677
46	0xbf977fae	-1.183584
47	0xbd8480fb	-0.064699136
48	0x3dabb83f	0.083847515
49	0xbf96c4b7	-1.1778783
50	0x3ff83292	1.9390433
51	0x3fc294e5	1.5201689
52	0xbf7ded48	-0.9919019
53	0x4068e639	3.6390517
54	0x3c8a4014	0.016876258
55	0xbf19d1a9	-0.6008554
56	0x3e3c901a	0.18414345
57	0x3db922ea	0.090398625
58	0xbf821e15	-1.016543
59	0xbfe467a3	-1.7844127
60	0xbecdbc25	-0.40182605
61	0xbef9e6e2	-0.48808962
62	0xbfbe0f42	-1.4848406
63	0x3ebf27e3	0.3733512
64	0xbf4b8237	-0.7949557
65	0xc0604f2b	-3.504832
66	0x3e5f0044	0.21777445
67	0x3f08abfa	0.53387415
68	0xbeb65dd0	-0.35618448
69	0xbbdef7f7	-0.006804462
70	0x3fcd8e0b	1.6058973
71	0x3f16123c	0.58621573
72	0xbf623a7b	-0.88370484
73	0x3fedfff4	1.8593736
74	0x3fbe8ab9	1.4886085
75	0x3f573c31	0.8407622
76	0xbf9a8ed0	-1.2074833
77	0xbeb585ae	-0.35453552
78	0x3f5918be	0.8480338
79	0x402394b2	2.5559506
80	0xbfdfba53	-1.7478737
81	0xbfcd8882	-1.6057284
82	0x4005ec94	2.0925646
83	0x3ff6847f	1.9259185
84	0xbea8ae7a	-0.32945615
85	0xc04b6082	-3.1777654
86	0x400159cf	2.0211065
87	0xbd8a99f0	-0.067676425
88	0xbff297c8	-1.895257
89	0x3f99f603	1.2028202
90	0x3fb2cc7d	1.3968655
91	0x3fede66b	1.8585943
92	0x3ead8bb2	0.33895642
93	0x3dd9ab5c	0.10628387
94	0xbfc38fa2	-1.5278208
95	0xc01d96aa	-2.4623208
96	0xbf896910	-1.0735188
97	0xbebcbd70	-0.3686328
98	0xc01444fc	-2.3167105
99	0x3eac2e23	0.3362895
100	0x3fb06d44	1.3783345
101	0xbfec0a37	-1.8440617
102	0xbf8c8647	-1.0978478
103	0x3ebd94a8	0.37027478
104	0xc0468091	-3.101597
105	0xbd8e7bac	-0.06957182
106	0xbe1a1629	-0.15047516
107	0xbfc5f474	-1.5465226
108	0x3f58d912	0.84706223
109	0x3f35a814	0.7095959
110	0xbe673a90	-0.22580934
111	0x3ef7c003	0.4838868
112	0xbfcd9d38	-1.6063604
113	0x3f7afab7	0.9803881
114	0xbd3671d9	-0.044542167
115	0x3f75da1c	0.96035933
116	0x3ece6245	0.4030935
117	0x3ea88e46	0.32921046
118	0xbee13226	-0.43983573
119	0x3f90080f	1.1252459
120	0xbf017f08	-0.5058446
121	0x3fc017bf	1.5007247
122	0xbfa3b8c2	-1.2790759
123	0xbf1030bc	-0.5632436
124	0x3f71598b	0.94277257
125	0x3fc388cf	1.5276126
126	0xbf259b16	-0.6468977
127	0xbdebe392	-0.11518015
128	0xc0005788	-2.0053425
129	0x3c038b08	0.008028753
130	0x3e0407e9	0.12893642
131	0xbecea3f3	-0.40359458
132	0x3fb1c0ee	1.3887002
133	0xbfed321c	-1.8530917
134	0xbf3ad54a	-0.72981703
135	0x3cc6d674	0.024272181
136	0x3f59a65f	0.8501949
137	0x3eb9e2c9	0.36305836
138	0x3d8515e0	0.06498313
139	0x3ff240c5	1.8926016
140	0xbf223f3d	-0.63377744
141	0x3f8db1a5	1.1069838
142	0x40237976	2.5542884
143	0x3f97657e	1.1827848
144	0x3d92e4ed	0.071725704
145	0x3fb39389	1.4029399
146	0x3fbc71a0	1.4722176
147	0xbf39ae26	-0.72531354
148	0xc0004e63	-2.0047843
149	0xc011d6c2	-2.2787328
150	0xbdbee7f5	-0.09321586
151	0x3fd92538	1.6964483
152	0x3f40193e	0.75038517
153	0xbd7c014a	-0.061524667
154	0x3fea1338	1.8287115
155	0xbf978b4f	-1.1839389
156	0xbf26539e	-0.6497134
157	0x3ff052f7	1.8775319
158	0x3fc28bc8	1.5198908
159	0xbdb429eb	-0.08797058
160	0x3ffcfb2c	1.9764152
161	0xbf9abb9c	-1.2088504
162	0xbd73b510	-0.059498847
163	0x3fc2e98e	1.5227525
164	0xbf65648e	-0.8960656
165	0x3cb08c0b	0.021551153
166	0xbd1a3073	-0.03764386
167	0xbf811abb	-1.0086282
168	0x3d2e4d5b	0.04255424
169	0xc00d80af	-2.2109792
170	0x3eb6c31d	0.35695735
171	0xbf2ba6e6	-0.6705154
172	0xc03d230a	-2.9552636
173	0x3ffa9152	1.9575598
174	0x3ea6d69a	0.32585603
175	0x3f7d696a	0.98988974
176	0xbf284a70	-0.6573858
177	0xbd07a678	-0.03311774
178	0x4029022b	2.6407573
179	0xbfd3c0a1	-1.6543161
180	0xbd549d44	-0.051907793
181	0x3fdb04be	1.7110822
182	0xbf731bbf	-0.9496421
183	0xbda51b11	-0.08061803
184	0x3fc6e4ba	1.5538552
185	0xbfe38751	-1.777567
186	0xbe9be69c	-0.30449378
187	0xc0064624	-2.098031
188	0x3f419f08	0.7563329
189	0x3f30d29c	0.69071364
190	0x404248a4	3.0356836
191	0xbffc95c9	-1.9733211

trunk.net.0.bias f4 [64]
0	0xbfaa6654	-1.3312478
1	0xbf5b252f	-0.8560361
2	0xbf5a0f91	-0.8518
3	0xbf118d54	-0.56856275
4	0xbf38d384	-0.7219775
5	0x3eb5b9f7	0.35493442
6	0xbf19b234	-0.6003754
7	0xbd2a498a	-0.04157404
8	0xbe24e8ca	-0.16104427
9	0x3f1757b3	0.59118193
10	0xbe117cdc	-0.14207786
11	0x3ea693e1	0.32534698
12	0xbe73c72d	-0.23806448
13	0x3ed38986	0.4131586
14	0x3e3e0f1a	0.18560448
15	0xbeec0b5a	-0.4610241
16	0x3f12a08d	0.5727623
17	0x3f7af130	0.9802427
18	0xbeb47ea3	-0.35252866
19	0xbfe03df7	-1.751891
20	0x3f7eb61c	0.99496627
21	0x401a538f	2.41135
22	0x3e9d559a	0.3072937
23	0xbe81bda6	-0.25340003
24	0xbfc6361e	-1.5485265
25	0xbf5ca9b4	-0.86196446
26	0xbec4cb9c	-0.38436592
27	0xbf9306f3	-1.1486496
28	0xbdb823a1	-0.08991171
29	0xbe3330f9	-0.1749915
30	0x3e67e251	0.22644927
31	0xc0168a8a	-2.3522058
32	0xbf34bd67	-0.70601505
33	0xbf26031a	-0.6484848
34	0x3de01b24	0.10942677
35	0xbf618dcf	-0.8810701
36	0x3e884b3c	0.266199
37	0xbec22617	-0.37919685
38	0xbefb8cc2	-0.49130827
39	0x3e6238a4	0.22091919
40	0x3e45fb6d	0.19334193
41	0x3f16c65c	0.5889642
42	0xbf1d97e9	-0.6155992
43	0xbf4c194c	-0.797261
44	0xbeda9489	-0.42691448
45	0xbd22ddef	-0.039762434
46	0xbf01afb0	-0.506587
47	0x3fc656e7	1.549527
48	0xbfe740ba	-1.8066628
49	0xbfec751f	-1.8473243
50	0xbf3b28fc	-0.7310941
51	0x3da2884f	0.07936155
52	0xbe29460d	-0.16530629
53	0x3e829b7e	0.25509256
54	0x3e8b4bbb	0.27206215
55	0xbee259aa	-0.44209033
56	0x3ed06001	0.40698245
57	0x3e94c7e5	0.29058757
58	0x3d7b72f0	0.06138891
59	0x3e0acb90	0.13554215
60	0xbe88dc5d	-0.26730624
61	0xbea1de29	-0.31614807
62	0xbf025b16	-0.50920236
63	0xbe8717ea	-0.26385432

trunk.net.2.weight f4 [64, 64]
0	0xbe2b0fac	-0.16705197
1	0xbe50f975	-0.2040766
2	0xbdc750b1	-0.097321875
3	0x3db54f3e	0.08853005
4	0x3e35ad2f	0.17741846
5	0xbbad66f9	-0.0052918163
6	0x3e33a2f5	0.17542632
7	0xbccb61cd	-0.024826908
8	0x3d5e1ebe	0.054228537
9	0x3bd08844	0.0063639004
10	0x3df8e92a	0.121538475
11	0x3d846a2b	0.064655624
12	0x3e05780e	0.13034078
13	0xbe460067	-0.19336091
14	0x3cb7ce20	0.022437155
15	0x3da510c8	0.080598414
16	0x3e7cc8f1	0.24686028
17	0x3e58474d	0.21120949
18	0x3c8c2fd5	0.017112652
19	0x3ce7378c	0.028224729
20	0xbe5320c1	-0.20617963
21	0xbd6983cd	-0.05701046
22	0xbda3c17f	-0.07995891
23	0xbe35de7b	-0.17760651
24	0x3d8137a5	0.063094415
25	0xbc37a350	-0.01120837
26	0xbe3c4689	-0.18386282
27	0x3b4d6f78	0.0031346958
28	0x3e5fa8dc	0.21841758
29	0x3e797ff1	0.24365212
30	0xbd030402	-0.031986244
31	0xbd9cfdad	-0.07665572
32	0xbd9171d6	-0.071017906
33	0xbdcf359c	-0.10117647
34	0xbca8980c	-0.020580314
35	0xbcae4887	-0.021274818
36	0x3c108d98	0.008822821
37	0x3e806c08	0.2508242
38	0xbd470be4	-0.048595324
39	0xbcb6e21c	-0.022324614
40	0xbe0304e0	-0.12794828
41	0xbd662c5b	-0.056194644
42	0xbe2863d3	-0.1644433
43	0xbcf69e65	-0.030104825
44	0x3db575be	0.08860348
45	0xbdd4ef7c	-0.103972405
46	0xbd8899cb	-0.06669959
47	0x3d8831e7	0.06650143
48	0x3e4caf0e	0.19988653
49	0x3c79063f	0.015199243
50	0xbc3cb524	-0.011517797
51	0xbd88a8d4	-0.066728264
52	0x3da40e46	0.08010535
53	0xbe6b7205	-0.22992714
54	0xbe199486	-0.14998063
55	0xbe30b96d	-0.17258234
56	0x3df1c036	0.118042395
57	0x3deb9c89	0.11504466
58	0xbd5d955f	-0.05409753
59	0xbdc9d325	-0.09854726
60	0xbd2c0324	-0.041995183
61	0xbd01198d	-0.031518508
62	0x3e08f491	0.13374545
63	0xbcf5f3d5	-0.030023495
64	0xbf02ed81	-0.5114365
65	0xbe121ca4	-0.14268738
66	0xbea95bd1	-0.33077863
67	0xbce1bbee	-0.027555432
68	0x3d6aa76a	0.057288565
69	0x3e82594b	0.2545875
70	0x3e5f30f3	0.21796016
71	0xbd94d106	-0.072664306
72	0xbda543c9	-0.080695696
73	0x3d491ec8	0.04910162
74	0xbdca1a14	-0.09868255
75	0x3f2c3fcf	0.67284864
76	0x3edafbd4	0.42770255
77	0xbe7ee752	-0.24892929
78	0x3caf63cf	0.021409897
79	0x3d6bcc60	0.057567954
80	0x3ecc2496	0.39871663
81	0x3eaa98ae	0.3331961
82	0xbc755de9	-0.014976003
83	0xbec50dcc	-0.3848709
84	0x3e8d0191	0.27540258
85	0x3e53b090	0.20672822
86	0xbe87dcaa	-0.2653554
87	0xbdb261cb	-0.08710059
88	0xbe6b109d	-0.22955556
89	0xbe7da366	-0.24769363
90	0xbf119e74	-0.56882405
91	0xbe8ff459	-0.2811611
92	0x3eed72fa	0.46376783
93	0x3ed3ce1a	0.4136818
94	0xbe054b3e	-0.13016984
95	0xbeaf09a3	-0.3418704
96	0xbe02bc77	-0.12767206
97	0xbee384c4	-0.4443723
98	0xbda5b107	-0.08090406
99	0xbe96a8c3	-0.2942563
100	0xbde19084	-0.11013892
101	0x3e8c38e2	0.27387148
102	0xbdd7ee50	-0.105435014
103	0x3dc44286	0.09583001
104	0xbe9d2c4f	-0.30697867
105	0x3e244ceb	0.16044967
106	0xbe0886e5	-0.13332708
107	0xbdbc6055	-0.091980614
108	0x3d8eaa5f	0.069660895
109	0x3d851e18	0.064998806
110	0xbec63cc0	-0.38718224
111	0x3e192141	0.14954092
112	0xbe5590fb	-0.20856087
113	0xbe07ad9b	-0.13249819
114	0xbdc7f3c6	-0.09763293
115	0xbe9a0432	-0.30081326
116	0xbe057e68	-0.13036501
117	0xbe878ff2	-0.2647701
118	0xbdf7db4d	-0.12102375
119	0xbe42fb62	-0.19041207
120	0x3ec2580d	0.37957802
121	0x3f2d3524	0.6765921
122	0xbea83b27	-0.3285763
123	0xbee81574	-0.45328867
124	0xbe746a63	-0.23868708
125	0xbea6af0a	-0.3255542
126	0x3e0ac91e	0.13553283
127	0xbed8c9b6	-0.42341393
128	0xbe8ba0bf	-0.27271077
129	0xbd9fd4b5	-0.078042425
130	0xbe93d8a4	-0.2887622
131	0xbe1094a0	-0.14119196
132	0xbd105041	-0.035232786
133	0x3ea30d02	0.31845862
134	0x3da53f7a	0.08068748
135	0xbe1a9e6c	-0.15099496
136	0x3ce7ecc1	0.028311135
137	0x3dc4b1b5	0.096042074
138	0x3d1f4f98	0.038894266
139	0x3e3532aa	0.17695108
140	0x3e9768a0	0.2957201
141	0xbd8f17f0	-0.069869876
142	0x3befe850	0.007321395
143	0xbe07187d	-0.13192935
144	0x3e849c5b	0.2590054
145	0x3e84c998	0.25935054
146	0x3d410702	0.047125824
147	0xbe8fd029	-0.280885
148	0x3ddd363b	0.10801359
149	0x3d94061f	0.0722773
150	0x3b1ac15e	0.002361379
151	0xbde16296	-0.11005132
152	0xbe4f279a	-0.2022995
153	0xbd067ee8	-0.03283587
154	0xbec623d2	-0.38699204
155	0xbe5fdade	-0.21860835
156	0x3e019129	0.1265303
157	0x3c79b530	0.015240952
158	0xbd15ed3b	-0.036603194
159	0xbe594dba	-0.21221057
160	0xbe1a9125	-0.1509443
161	0xbdf2fd71	-0.11864746
162	0xbc9713eb	-0.018442115
163	0xbd3192ce	-0.043352894
164	0x391a8d5f	0.0001473925
165	0x3d64f111	0.05589396
166	0xbdc697ff	-0.0969696
167	0x3e23a118	0.15979421
168	0x3a93d1ad	0.0011277698
169	0x3e031707	0.12801753
170	0xbe01b007	-0.12664805
171	0x3dd33b65	0.10314063
172	0x3d2f5189	0.042802367
173	0x3db2ebc5	0.08736376
174	0xbe04ad1f	-0.12956665
175	0x3e2b9925	0.16757639
176	0xbe3793f1	-0.17927529
177	0xbe46d244	-0.19416147
178	0xbd130ea3	-0.03590263
179	0xbdbe8298	-0.093022525
180	0xbdd8ca8a	-0.10585506
181	0x3d582f46	0.05277946
182	0xbe1191fb	-0.14215843
183	0xbe0c44cc	-0.13698119
184	0xbc5a3a1f	-0.013319521
185	0x3ebe3e38	0.37156844
186	0xbe410c25	-0.18852289
187	0xbe8846aa	-0.26616412
188	0xbe2beb63	-0.16789012
189	0xbe9956e6	-0.2994911
190	0x3d9115ab	0.07084211
191	0xbe85508c	-0.26038015
192	0xbd8c73ee	-0.06858049
193	0x3e13780f	0.14401267
194	0x3dc7d162	0.097567335
195	0x3cc15165	0.023598382
196	0x3d5da8c0	0.05411601
197	0x3dd52145	0.10406736
198	0xbd57c5dd	-0.05267893
199	0x3dae6d01	0.085168846
200	0x3e8059cb	0.25068507
201	0xbb811456	-0.003939192
202	0xbcef2270	-0.029191226
203	0x3ca331f2	0.019921277
204	0xbe42e94d	-0.1903431
205	0x3e16781c	0.14694256
206	0xbe0f3c9c	-0.13987964
207	0x3e291174	0.16510564
208	0xbcaef1ba	-0.021355499
209	0xbcc3703d	-0.02385723
210	0x3dcf4388	0.101203024
211	0xbd82ca55	-0.06386248
212	0x3e52942f	0.2056434
213	0x3e5f4ff0	0.21807837
214	0x3daeace1	0.08529068
215	0xbe3438d5	-0.17599805
216	0xbe14be80	-0.14525795
217	0x3e8cf2d4	0.27529013
218	0x3daaaf6b	0.083342396
219	0xbbe455d5	-0.00696824
220	0x3c9e8c54	0.019354023
221	0xbd856268	-0.0651291
222	0x3c816126	0.015793394
223	0xbb788478	-0.0037920754
224	0x3afeea49	0.0019448485
225	0x3e13751f	0.14400147
226	0x3dff5492	0.124673024
227	0xbd89252c	-0.06696543
228	0x3dcba653	0.09943833
229	0x3e2ccf5a	0.16875973
230	0xbd72addf	-0.059247848
231	0x3d008305	0.03137495
232	0x3caf5e98	0.02140741
233	0xbe3dee3d	-0.18547912
234	0x3da8cb0f	0.08241855
235	0x3dbdb3b7	0.092627935
236	0x3e077765	0.13229139
237	0xbe7e59b0	-0.248389
238	0x3d9a198b	0.07524403
239	0xbd81c223	-0.06335857
240	0x3cbc0371	0.02295086
241	0xbd054f6e	-0.032546453
242	0xbc2ef1de	-0.010677783
243	0xbd9d972b	-0.076948486
244	0xbdbdf144	-0.092745334
245	0xbd9157c5	-0.07096819
246	0xbd7aaf72	-0.061202474
247	0x3d1acbe5	0.037792105
248	0xbcffed9b	-0.031241229
249	0x3d80b7d6	0.06285064
250	0xbcf7ecfb	-0.030264368
251	0x3d9f6422	0.07782771
252	0x3d0a612f	0.033784088
253	0xbdc7e7d8	-0.097610176
254	0x3d343f5f	0.044005748
255	0x3dadc781	0.08485318

trunk.net.2.bias f4 [64]
0	0x3c90c549	0.017672198
1	0x3d66e73a	0.05637286
2	0x3d720659	0.059088085
3	0x3db6892d	0.08912883
4	0x3de21163	0.110384725
5	0x3dd653d9	0.104652114
6	0xbe0d50ca	-0.1380035
7	0x398edbd8	0.00027248147
8	0xbe1428fe	-0.14468762
9	0x3e201481	0.15632822
10	0x3dfe2069	0.124085255
11	0xbe7575d3	-0.23970728
12	0xbdb5894c	-0.08864078
13	0x3e2bf8f4	0.16794187
14	0xbd01cf62	-0.031691916
15	0x3d814c35	0.063133635
16	0xbe2bfd34	-0.16795808
17	0xbe1aad66	-0.15105209
18	0xbe0635fd	-0.13106532
19	0x3dc908af	0.098161094
20	0xbe2d393c	-0.16916364
21	0xbea2c3f2	-0.3179012
22	0xbe05c9a3	-0.130652
23	0x3d3cbd61	0.046079043
24	0xbc439421	-0.011937172
25	0x3db5cbbd	0.088767506
26	0xbe26a443	-0.16273598
27	0x3d6dbd6b	0.05804197
28	0x3e364bfd	0.17802425
29	0xbe10fed1	-0.14159705
30	0x3e4a490e	0.1975443
31	0xbe0d600f	-0.13806175
32	0xbdfb9684	-0.12284568
33	0xbd3e15eb	-0.04640762
34	0x3d97ead4	0.07417837
35	0xbe31f068	-0.17376864
36	0x3e3e0e95	0.1856025
37	0xbdca8b8a	-0.09889896
38	0xbd00db1c	-0.03145896
39	0xbc83740f	-0.016046552
40	0xbdb2085b	-0.08693
41	0x3d3a0927	0.045418885
42	0xbdd61b1a	-0.10454388
43	0xbdb2e1d9	-0.08734483
44	0x3e222fa9	0.15838493
45	0x3c7afca1	0.0153190205
46	0xbd0669fc	-0.03281592
47	0x3db6bbe0	0.08922553
48	0xbe858820	-0.26080418
49	0xbe0ca63f	-0.13735293
50	0x3dbd39b7	0.09239524
51	0x3de7fd6e	0.11327635
52	0x3df00c5a	0.11721106
53	0x3e48829a	0.1958107
54	0x3e144f80	0.14483452
55	0xbc931396	-0.017953675
56	0x3e0cf506	0.13765344
57	0xbda0a590	-0.078440785
58	0x3dc52aec	0.09627327
59	0xbd0f2226	-0.034944676
60	0xbca38224	-0.019959517
61	0xbbda565a	-0.006663126
62	0x3dee1f07	0.11627012
63	0xbd15c602	-0.036565788

trunk.net.4.weight f4 [64, 64]
0	0x3e067125	0.13129099
1	0x3e7c8454	0.24659854
2	0x3d3ce2c7	0.04611471
3	0x3b7f02c7	0.0038911568
4	0xbe3aa6dc	-0.18227714
5	0x3d649d66	0.05581417
6	0xbdbe9be3	-0.09307077
7	0xbd930ac4	-0.07179788
8	0x3a47620e	0.0007605859
9	0xbd6e9402	-0.05824662
10	0xbdac6dc2	-0.08419372
11	0x3c928cf7	0.017889483
12	0xbe08ca9f	-0.13358544
13	0xbda53317	-0.08066385
14	0xbe14b845	-0.14523418
15	0xbdc840fa	-0.09778018
16	0xbd7db596	-0.061940752
17	0xbe05ea7e	-0.13077733
18	0x3dd6f445	0.104958095
19	0xbea434fe	-0.3207168
20	0x3cbcb199	0.023033904
21	0x3d1b2762	0.037879355
22	0x3ccdf157	0.025139494
23	0xbe30c271	-0.17261674
24	0xbc37516e	-0.011188848
25	0x3d60400f	0.05474859
26	0xbe59e5fc	-0.21279138
27	0x3d31177a	0.04323528
28	0x3e25e2be	0.16199777
29	0x3e01c2e9	0.12672009
30	0xbdb58655	-0.088635124
31	0x3d7cebf4	0.06174846
32	0x39740db2	0.00023274755
33	0x3da28bae	0.07936798
34	0x3d9909f9	0.07472605
35	0xbdf4fa54	-0.11961809
36	0x3ddd994b	0.10820254
37	0x3de6a9e0	0.1126287
38	0xbcf38e1e	-0.029730853
39	0x3ab1ece3	0.0013574626
40	0x3dd54b39	0.10414738
41	0xbd8e4a0d	-0.06947718
42	0xbe18146f	-0.14851545
43	0xbd91f43c	-0.07126662
44	0x3c9814da	0.01856463
45	0x3e6cd8db	0.23129599
46	0xbd9c89e8	-0.07643491
47	0x3ca335ff	0.019923208
48	0xbe2ae442	-0.16688636
49	0xbd24b143	-0.040208112
50	0x3e15a1f3	0.1461256
51	0x3aad0ab2	0.001320204
52	0xbcb69952	-0.022289906
53	0xbe30cfe5	-0.17266805
54	0xbd18a4e4	-0.037266627
55	0xbd2d24d1	-0.04227144
56	0x3b9f737a	0.004866061
57	0xbd994bcb	-0.074851595
58	0xbdaf4217	-0.085575275
59	0x3cd7efd3	0.026359474
60	0x3e84ae7a	0.25914365
61	0xbdf05402	-0.11734773
62	0x3c9ef137	0.01940213
63	0xbe0cfe92	-0.13768986
64	0x3e1109a9	0.14163841
65	0x3d8206fc	0.063489884
66	0x3bee132c	0.007265469
67	0x3ca2aecc	0.01985874
68	0x3dc791a5	0.09744576
69	0x3d2fc62b	0.042913597
70	0xbe410fc7	-0.18853675
71	0x3dec15ac	0.11527571
72	0x3d9c78b5	0.076402105
73	0x3e02f3ba	0.12788287
74	0x3b64fab8	0.003493948
75	0xbd7f27b1	-0.062293712
76	0xbdc39f28	-0.09551841
77	0xbc764457	-0.015030942
78	0xbd58999d	-0.052880872
79	0x3d220272	0.039553113
80	0xbde7108c	-0.11282453
81	0x3c761999	0.015020751
82	0x3e70db55	0.23521169
83	0xbd5d45f4	-0.05402179
84	0x3d22acb0	0.03971547
85	0x3ebc4978	0.36774802
86	0xbd739f11	-0.05947787
87	0xbd91df57	-0.07122677
88	0xbd7f68d0	-0.062355816
89	0x3d4fafeb	0.050704878
90	0xbd2439e1	-0.04009426
91	0x3d8a85ed	0.067638256
92	0x3d4763b9	0.048679087
93	0xbcde2457	-0.027116938
94	0xbc672b21	-0.014109404
95	0xbdaa96ea	-0.08329566
96	0xbdf6e31e	-0.12055038
97	0xbd0ebf3d	-0.034850348
98	0xbe152b7d	-0.1456737
99	0xbd857c94	-0.06517902
100	0x3aa1e7ef	0.0012352447
101	0xbc4949cb	-0.01228566
102	0xbdfdeb73	-0.12398424
103	0xbdf3699d	-0.118853785
104	0x3e0733e4	0.13203388
105	0xbdc5b654	-0.09653917
106	0x3ba57b8d	0.005050129
107	0x3db0243f	0.086006634
108	0xbe2de0f2	-0.16980341
109	0xbdc282fc	-0.094976395
110	0xbe2ec379	-0.17066754
111	0x3d8b5471	0.06803215
112	0xba99f3b4	-0.0011745603
113	0xbd1bd374	-0.038043454
114	0x3da84897	0.082169704
115	0xbdddd5fc	-0.1083183
116	0xbdb8157c	-0.08988473
117	0x3da4f609	0.0805474
118	0x3dbea446	0.093086764
119	0xbd3c1aa7	-0.045923855
120	0x3db81729	0.089887924
121	0xbe2a2aa2	-0.16617826
122	0x3e212159	0.15735377
123	0x3ddad24e	0.10684644
124	0x3d1406cc	0.036139295
125	0xbd5cfcf9	-0.05395219
126	0x3e549613	0.20760374
127	0x3c908674	0.017642237
128	0x3c8a34fa	0.016870964
129	0xbd0c7abe	-0.034296744
130	0x3da72fba	0.081634
131	0x3e086c8e	0.1332266
132	0xbe6192b2	-0.22028616
133	0x3e1d28e8	0.15347636
134	0x3b8493a9	0.004045923
135	0xbde08c7f	-0.109642975
136	0xbb63e373	-0.0034773021
137	0x3c72814e	0.014801336
138	0xbde6a2ae	-0.112614974
139	0xbcdc5373	-0.02689526
140	0x3b0b7d07	0.002128424
141	0xbdcb9bad	-0.09941802
142	0x3d469bfb	0.0484886
143	0xbdbebda7	-0.09313517
144	0x3d5028a0	0.050819993
145	0x3d0c00b0	0.034180343
146	0xbd5f789f	-0.054558393
147	0xbdb126d3	-0.08649983
148	0xbe2e6dfe	-0.17034146
149	0xbdac7048	-0.084198534
150	0x3d1f562e	0.038900547
151	0xbd0d021a	-0.034425832
152	0x3bd6150d	0.006533271
153	0x3cb64034	0.022247411
154	0xbda26cdd	-0.0793092
155	0x3de6a72b	0.112623535
156	0xbdcf9ac6	-0.101369426
157	0xbe1d79fd	-0.15378566
158	0x3d908304	0.07056239
159	0xbdcd31ae	-0.10019241
160	0xbc4d58f7	-0.012533418
161	0xbcdf2e61	-0.027243795
162	0x3d81562c	0.06315264
163	0x3da6a80c	0.08137521
164	0x3e6bbdb7	0.23021589
165	0x3df65ce9	0.1202944
166	0xbdd8486c	-0.105606884
167	0xbddb0bdb	-0.106956206
168	0x3d52f876	0.051506482
169	0x3cc9f6ef	0.02465388
170	0x3c79b52f	0.015240951
171	0x3e21051f	0.1572461
172	0xbe0940dd	-0.1340365
173	0xbdb7ce59	-0.089749046
174	0xbe0f995e	-0.14023349
175	0xbe571432	-0.21003798
176	0xbe0dbc7b	-0.13841431
177	0xbcd1a81d	-0.025592858
178	0x3e18d3b2	0.14924505
179	0x3dc0d476	0.09415524
180	0xbcab2bea	-0.020894963
181	0x3e2ec74a	0.1706821
182	0x3e888ba7	0.26669046
183	0xbcb42e12	-0.021994624
184	0xbb5f734f	-0.003409583
185	0xbd948253	-0.0725142
186	0xbe37ac5b	-0.17936842
187	0x3c9f0a93	0.019414222
188	0x3deec4f1	0.11658657
189	0xbdfde3df	-0.123969786
190	0x3da1f2a1	0.07907606
191	0xbe2ffa41	-0.17185308
192	0x3e00c3d9	0.1257471
193	0xbe05fd07	-0.13084804
194	0xbdd272aa	-0.10275777
195	0x3ce1e477	0.02757476
196	0xbc7b8dfe	-0.015353678
197	0x3c4340dd	0.01191732
198	0xbe15a12d	-0.14612265
199	0xbe0f2515	-0.1397899
200	0x37cd1905	2.4449555e-05
201	0xbddc7074	-0.10763636
202	0xbd7e40e5	-0.062073607
203	0xbdb10209	-0.08642966
204	0xbc54e057	-0.01299294
205	0xbe0b37c1	-0.13595487
206	0xbdec5769	-0.1154011
207	0xbda55b25	-0.08074025
208	0xbdc3e04c	-0.095642656
209	0xbd836ee3	-0.06417634
210	0x3d7bc5ee	0.061468057
211	0xbea545ff	-0.32279965
212	0x3cf717b0	0.030162662
213	0x3e9e72ee	0.3094706
214	0xbe0228cd	-0.12710877
215	0x3c903331	0.017602535
216	0xbdd924ef	-0.10602748
217	0xbe103d48	-0.14085877
218	0xbd2a90a3	-0.041641843
219	0x3ddf7ed7	0.10912865
220	0x3dbc5a72	0.091969386
221	0x3cce9a4c	0.025220059
222	0xbdacaeae	-0.08431755
223	0xbddb369f	-0.107037775
224	0x3d658e2a	0.05604378
225	0x3d41f063	0.04734839
226	0x3d8383c9	0.064216204
227	0x3db75175	0.089510836
228	0x3e86c256	0.26320142
229	0x3dab4df5	0.083644785
230	0xbdffb853	-0.12486329
231	0x3dc12351	0.09430564
232	0x3dcb41dd	0.09924672
233	0xbca9fc65	-0.020750234
234	0x3e299d2d	0.16563864
235	0x3daabb29	0.08336479
236	0x3d9e3c7f	0.077263825
237	0x3d2d3968	0.042291075
238	0xbd64bac8	-0.05584219
239	0x3dad0bc4	0.0844951
240	0x3cb9d59c	0.022684865
241	0xbccd14ef	-0.025034396
242	0x3d9b171a	0.07572766
243	0x3de59226	0.11209516
244	0xbd0f16f1	-0.034933988
245	0x3d5d5cd2	0.0540436
246	0xbe17b905	-0.14816673
247	0xbd58962e	-0.052877598
248	0x3c6ad4cd	0.014332962
249	0xbe96b94f	-0.29438254
250	0x3db25911	0.08708394
251	0x3df638ec	0.12022576
252	0x3df6b538	0.120462835
253	0xbcce2463	-0.025163835
254	0xbd3ee1df	-0.046602126
255	0xbe07c0fb	-0.1325721

trunk.net.4.bias f4 [64]
0	0x3e2228a5	0.15835817
1	0xbdce369f	-0.10069012
2	0x3d02e742	0.031958826
3	0x3dd59493	0.10428729
4	0x3e4377e5	0.19088705
5	0x3ea245b8	0.31693816
6	0x3e232761	0.1593299
7	0xbd2b4877	-0.041817155
8	0x3df720e9	0.12066824
9	0xbd6cb56b	-0.0577902
10	0x3d60cd5b	0.054883342
11	0xbd9ae95f	-0.07564043
12	0xbdef962a	-0.116985634
13	0x3e65c5ce	0.22438738
14	0x3dd86edc	0.1056802
15	0x3d23ce8e	0.039991908
16	0x3d927005	0.07150272
17	0xbe8d6b31	-0.27620843
18	0xbdab9803	-0.08378603
19	0xbb9a0a34	-0.0047009233
20	0x3e10b646	0.14132032
21	0xbc7a0f3a	-0.015262419
22	0x3d9cfcfc	0.076654404
23	0xbd236265	-0.03988876
24	0x3d484484	0.048893467
25	0x3d6a85b1	0.057256404
26	0xbe585bb2	-0.21128729
27	0x3e8e2bda	0.2776783
28	0x3e153e88	0.14574635
29	0xbdf42d8d	-0.119227506
30	0xbdb3c50a	-0.087778166
31	0x3d379962	0.04482401
32	0x3e37fb3a	0.17966929
33	0x3de84f09	0.113432
34	0xbd4cafed	-0.049972463
35	0xbc0efd80	-0.008727431
36	0x3d899142	0.06717159
37	0x3dadd912	0.084886685
38	0xbd827509	-0.06369979
39	0x3ca61575	0.020273903
40	0x3e73d6b0	0.23812366
41	0x3e095cd4	0.13414317
42	0xbd9c0f95	-0.076201595
43	0x3e238c9d	0.15971608
44	0x3d17653a	0.03696177
45	0x3def9906	0.11699109
46	0xbe0b4529	-0.13600601
47	0x3dd4d8fb	0.10392948
48	0xbd623732	-0.05522842
49	0xbd217911	-0.0394221
50	0x3d3b3bd3	0.04571135
51	0x3d3894fd	0.04506396
52	0x3d5daf5b	0.05412231
53	0xbd55dfb0	-0.05221528
54	0x3dc9f9e9	0.0986212
55	0x3d633c7d	0.055477608
56	0x3dd0f5e8	0.10203153
57	0xbd9e7494	-0.07737079
58	0xbe91ce4e	-0.2847771
59	0x3e98cf4e	0.2984566
60	0xbdf71538	-0.12064594
61	0xbe894c8c	-0.26816213
62	0xbe2908da	-0.16507283
63	0x3d26653f	0.0406239
