FullOrder/FullOrderReconstruct/FullOrder_20251116_194447_MLP_deeponet_NoPhys_NoBatch_HD64_HL5_LR0.01_Sample0.3_checkpoint.pth (torch, 737770 bytes, 78 tensors)

branch.net.net.0.weight f4 [64, 2]
000000 a1 91 36 3f 81 17 3e 3f 88 58 71 3e 81 2b 1a bf
       0.7131596 0.74254614 0.23568928 -0.6022263
000010 40 94 92 3d 73 96 2e 3f 9c 0c 14 3e 22 ae 0e bf
       0.07157183 0.6819832 0.14457935 -0.55734456
000020 07 70 97 be 9a 81 04 3f 98 ea 9d be ee 91 fe be
       -0.29577658 0.51760256 -0.30843043 -0.4972071
000030 2b 77 7b bd 1e 9a 92 be 06 df 65 be 88 78 ca be
       -0.061392944 -0.28633207 -0.22448358 -0.39545083
000040 f4 44 84 be 21 e8 88 3e e2 13 09 3f 57 04 26 3f
       -0.25833857 0.267396 0.53545964 0.6485037
000050 1f 3d fe be c0 cd e6 3c af 5d d0 bc ac 50 f8 be
       -0.49656007 0.028174281 -0.025435297 -0.48499048
000060 e8 d7 47 3e 8b 82 52 3e 74 6a 3d 3f b1 12 c9 3e
       0.19515955 0.2055761 0.7399056 0.39272073
000070 9d 8a 72 3e 7e 90 bc be a4 b4 1b be 28 d0 0b be
       0.2368569 -0.3682899 -0.15205628 -0.13653624
000080 4b 98 09 3f e6 e7 e9 be 73 77 bf be 00 22 18 3f
       0.53748006 -0.45684737 -0.3739582 0.5942688
000090 75 a7 c2 3e ce ed f7 3e 04 36 2e bf b4 70 11 3e
       0.38018385 0.48423618 -0.6805117 0.14203149
0000a0 80 c9 58 3e 94 0b fc be b7 1b a7 be f0 1b be be
       0.21170616 -0.49227583 -0.32638332 -0.3713069
0000b0 4b 22 c1 3d 2f 8d 29 3f 5b 1e 45 3e 8d 93 26 3f
       0.09430369 0.66231054 0.19249861 0.65068895
0000c0 3b 04 0f 3f 1d 38 9d bd a4 42 0c be 69 ca c5 3d
       0.5586583 -0.076767184 -0.13697296 0.09657747
0000d0 3c bc 8f bd 51 91 04 3f 75 ad 56 bd b1 ee 96 bd
       -0.07018325 0.51784235 -0.052411515 -0.073697455
0000e0 54 c3 83 3e db b0 2e 3f a9 14 02 3d 6e e5 4f bd
       0.2573496 0.6823861 0.031757984 -0.05075591
0000f0 ef 82 eb bd a3 b4 d6 be 14 29 3e bf d2 70 54 be
       -0.11499583 -0.4193469 -0.7428143 -0.20746163
000100 84 ad d4 be b3 31 21 3f 3c ae a5 3e 62 61 d0 be
       -0.41538632 0.6296646 0.32359493 -0.40699297
000110 36 9f 24 bf 92 9c 20 3c fa 6b 15 bf 93 99 69 3e
       -0.64305437 0.009802954 -0.58367884 0.2281249
000120 25 63 d9 3d 0b e2 16 3f 57 40 8c 3e 54 55 b4 3d
       0.106146134 0.58938664 0.27392837 0.088053375
000130 d7 96 e9 be 6c fc 41 3d 6b 3e 09 bf c1 84 b9 be
       -0.45622894 0.04735987 -0.5361087 -0.36234096
000140 18 37 05 3f 4d ee 80 3e a6 38 b2 be cc 29 0a 3f
       0.5203719 0.2518181 -0.34808844 0.53970027
000150 71 16 3a bf 80 7f ba be a5 03 0c bf 7b 86 9b 3e
       -0.7269049 -0.364254 -0.5469306 0.30376038
000160 2f 98 40 3f fd cd fd 3e 7c 09 46 3e 92 5e 22 bf
       0.75232214 0.4957122 0.19339556 -0.6342555
000170 e2 86 13 bf 4b 7f f4 be a9 34 a3 3e 4a 19 06 3f
       -0.5762769 -0.47753367 0.31876114 0.5238234
000180 f8 2d 06 bf 4c a7 0a 3e d3 8a ed be c8 c4 94 bd
       -0.5241389 0.13540381 -0.46394977 -0.072640955
000190 37 d1 14 bf 5e 53 b6 3e 34 ad 03 3f 0a a9 8d be
       -0.58131737 0.3561048 0.5143616 -0.2766803
0001a0 69 58 7b 3e 03 7d de bc cd 52 0f bd 5a 9a fe be
       0.24545445 -0.02715922 -0.034991074 -0.49727136
0001b0 5d ae 01 bf b8 90 00 3f 26 cc 35 3e 3f 89 98 be
       -0.5065668 0.50220823 0.17753658 -0.2979221
0001c0 9a 6a cf be c1 82 1a 3f 60 b7 e9 3e de 38 14 bf
       -0.40511018 0.60355765 0.45647717 -0.5789927
0001d0 71 51 db be 2d 2e 19 3f 33 1c 37 3d 3f 2f 0d bf
       -0.42835572 0.59836084 0.044704627 -0.55150217
0001e0 2f 0c 11 3f ac 83 00 bf 5c df 04 3f db 27 de be
       0.56659216 -0.50200915 0.5190332 -0.43389782
0001f0 45 65 88 be f8 cf ff be 25 b9 0d be 0c 96 5f be
       -0.26639763 -0.49963355 -0.13840158 -0.21834582

branch.net.net.0.bias f4 [64]
000000 41 1c e4 bd 25 c5 c7 3e 02 70 ac 3e 92 ce e3 3e
       -0.111382015 0.39017597 0.33679205 0.44493538
000010 11 11 34 3f df 65 96 3e 9d d1 b6 bd 9d e1 08 3f
       0.7033854 0.29374596 -0.08926699 0.5346926
000020 84 60 79 be 92 ee 97 3e a5 cd 7f be 41 e6 2b bf
       -0.24353224 0.29674202 -0.24980791 -0.67148215
000030 ad 4c a2 be 66 c6 7a 3e 53 55 90 3d 60 45 a2 3e
       -0.31699124 0.24489745 0.07047524 0.31693554
000040 fd 6c 5e 3c e7 61 05 3f 54 6f c8 bc 1f a8 0c 3f
       0.0135757895 0.5210251 -0.024467148 0.5494403
000050 a1 48 1b 3d a0 78 f4 3d 3d c7 d2 3d e6 70 95 3d
       0.03791106 0.1193707 0.10291908 0.07296924
000060 ff a8 cb be e3 20 0f be c8 80 6e 3e 1e f4 c3 be
       -0.3977737 -0.13977389 0.23291314 -0.38272184
000070 63 5b 87 3e 18 5c f2 3e 27 05 d5 3d f9 85 ba be
       0.2643691 0.47335887 0.10401373 -0.36430338
000080 a5 97 c7 3e 48 30 c9 be 14 01 01 bf 52 9f c8 be
       0.38982883 -0.39294648 -0.5039227 -0.39184052
000090 18 e1 11 3f 4b 32 83 be d7 60 64 be 20 06 25 3e
       0.5698409 -0.25624308 -0.22302566 0.16115618
0000a0 b3 58 9e 3d a4 70 54 be 84 fb e1 3e d6 bb 36 bf
       0.07731762 -0.20746094 0.44137204 -0.71380365
0000b0 70 61 f7 3e d6 2b 93 be c3 ac 8a 3e 48 17 dc be
       0.48316526 -0.28744382 0.27084932 -0.42986512
0000c0 16 04 a6 3e d0 1d 97 be 37 9f 12 3f 60 ec e7 be
       0.32424992 -0.29514933 0.5727419 -0.45297527
0000d0 c6 4a 1e 3e 1b 77 70 3e 38 b9 17 bf 37 b1 24 3f
       0.15458211 0.23482935 -0.59266996 0.6433291
0000e0 36 9e 87 be 6c dc 1a 3f 23 5f 14 bf e5 e4 00 bf
       -0.26487893 0.6049259 -0.5795767 -0.50349265
0000f0 4e 02 ed 3e 4f ea 35 3f d4 59 c7 be 47 ab 7a 3e
       0.4629082 0.7106065 -0.3893572 0.244794

branch.net.net.2.weight f4 [64, 64]
000000 13 31 ab 3d 95 79 2e 3e 9c 61 9e 3d bf 5c 24 bd
       0.083589695 0.17038567 0.07733461 -0.040127512
000010 72 d5 ac bd cc 45 17 bd 56 59 6c 3d 65 31 45 be
       -0.08439149 -0.036931798 0.057702385 -0.19257124
000020 72 b9 2b be c4 df 03 3e da b7 ec bd 85 09 52 3c
       -0.1676996 0.12878329 -0.115585044 0.012819652
000030 06 a5 be 3d 26 4f 39 3c ab 30 34 bc 63 b1 a6 3b
       0.093088195 0.011310374 -0.0109979315 0.005087064
000040 e9 f0 06 3e a2 a8 69 bd 41 94 12 3d 2f 31 c8 bd
       0.13177837 -0.057045586 0.035785917 -0.09775006
000050 8f 37 30 bd 44 21 fc bd 39 92 d0 bc 3b 6d e5 bd
       -0.043021735 -0.123110324 -0.02546035 -0.11202475
000060 47 4e 38 3e 5d 98 0b be 70 56 86 bc c1 d0 88 3d
       0.1799861 -0.1363234 -0.016398638 0.06680442
000070 03 ca 03 3d 40 fb 25 be af 51 82 bd 28 b2 24 be
       0.032175075 -0.16209126 -0.06363236 -0.16083586
000080 e0 1a ab 3d d7 da 0e 3d 6c 76 8f 3c 0c 50 21 be
       0.083547354 0.03487667 0.017512523 -0.15753192
000090 2b 3f 80 bd 61 6c 3e 3e 71 b2 18 be 39 51 b2 bb
       -0.06262048 0.18596031 -0.1491182 -0.0054418114
0000a0 80 43 53 3e 0d 1e 26 be 5a 38 5e be d9 37 2e bc
       0.20631218 -0.16222401 -0.21701184 -0.010633432
0000b0 db cb 32 3e 0a ad 3e bd 21 14 75 bd d2 07 e5 3d
       0.17460577 -0.04655174 -0.05983365 0.11183132
0000c0 7a 17 d6 3c 49 4c 57 3b 68 f1 da bd df 54 1d 3d
       0.026134241 0.0032851866 -0.10690576 0.038411018
0000d0 0b e8 cb 3d 56 b8 23 3e 5f 6f e6 bc 02 8e 82 3d
       0.09956368 0.15988287 -0.028129278 0.06374742
0000e0 a6 56 b6 3c 92 a0 34 3e e6 40 39 be 6b 88 91 bd
       0.022258114 0.17639378 -0.18091163 -0.07106098
0000f0 89 e8 c0 3c e3 a3 99 3c a4 98 3d 3d 3f 2c 26 be
       0.023548381 0.018754905 0.046288148 -0.16227816
000100 db 02 e3 bd 3d 1b 58 3c 79 8e b8 3d 60 f3 e5 3c
       -0.11084529 0.013190088 0.090115495 0.028070152
000110 95 96 14 3e ee 77 05 be 53 a6 4a 3d 3b b4 d7 3c
       0.14510567 -0.13034031 0.049475025 0.026331058
000120 93 e8 81 3c 5e f3 d5 bd 38 31 e1 3d f5 9f 6f 3d
       0.01585797 -0.10446809 0.10995716 0.058502156
000130 1f ae 48 be 25 88 2a be a9 34 01 be d3 74 1c 3e
       -0.19597672 -0.16653498 -0.12617745 0.1527894
000140 83 39 4e bc 4a e2 f1 3d 0c bc fb bd 21 19 e3 3c
       -0.012586954 0.11810739 -0.122917265 0.027721943
000150 bc 54 c6 bc ef 0f 3c 3d 50 13 74 bd 2e 21 ad bc
       -0.024210326 0.045913633 -0.05958873 -0.021133985
000160 44 de a1 bc ce 48 08 bd 53 63 93 bd 89 e5 92 bd
       -0.019759305 -0.033272557 -0.07196679 -0.071726866
000170 c1 48 69 bd fd 9a fa bc 5d 91 1a 3d d9 19 0f bd
       -0.05695415 -0.030591482 0.037736285 -0.03493676
000180 d0 24 ab 3c 05 43 06 3c d6 30 f2 3d 87 86 23 3e
       0.020891577 0.00819469 0.11825721 0.15969287
000190 4d 0c 68 3d d1 4d 4d be bf 14 1e bb 50 92 7f bc
       0.056652356 -0.20049216 -0.0024121252 -0.015598848
0001a0 4c a2 29 be ea 92 94 3d 11 75 be 3d 97 3f 19 3e
       -0.16565818 0.07254584 0.092996724 0.14965664
0001b0 39 e1 fe bd 83 8c 23 be 69 9b c0 3d a5 9e 05 bb
       -0.124453016 -0.1597157 0.09404642 -0.002038875
0001c0 e8 99 44 bc ba 17 16 bd d2 7f 48 bd 60 64 e8 bd
       -0.011999585 -0.03664372 -0.048950024 -0.1134727
0001d0 39 77 28 be b3 61 d3 bd cf b4 ee 3d 73 64 0d be
       -0.1645173 -0.10321369 0.1165558 -0.1380785
0001e0 e3 f1 4f bd a6 88 96 bc 42 4f 16 3e 11 48 41 3d
       -0.05076779 -0.018375706 0.14678672 0.04718787
0001f0 d4 b4 76 bd f4 b0 f8 bd ee 33 53 bd 53 b6 66 3d
       -0.060231045 -0.12143126 -0.051563196 0.05632622
000200 b2 ae 15 bd 9e 76 ba 3d f1 53 1d be 88 d7 47 bd
       -0.036543556 0.09104656 -0.15364052 -0.04878953
000210 3b 8d 61 be 4a e7 c7 bd 13 fd e7 3d c5 b0 1b bd
       -0.22026531 -0.09760912 0.11327567 -0.038010377
000220 1b c4 a6 bd 05 2f 10 bd d3 a5 42 3d d3 d2 95 3e
       -0.08142873 -0.03520109 0.047521424 0.2926241
000230 9d bf 22 3c fe e5 57 be ec 2b 1e 3d a2 f5 41 be
       0.0099333795 -0.21083829 0.038616106 -0.18941358
000240 2f 12 4e 3d 6f c5 9a be 1c 42 fa bd 35 62 81 be
       0.05031031 -0.30228755 -0.122196406 -0.2527024
000250 f5 b6 19 3e c0 0e 82 3d 1b 26 09 be 0f 1f ca bd
       0.15011199 0.063504696 -0.13393442 -0.09869205
000260 1b 13 95 3e 49 7f ad bd 02 2b 22 be bb 07 65 3e
       0.2911614 -0.08471543 -0.15836719 0.2236623
000270 04 f1 62 be 3e 7e 5e 3d 1d 29 97 3b b7 7b ea 3d
       -0.22162253 0.054319613 0.0046130554 0.11449378
000280 90 4d 98 be da ca a6 3e 68 76 bb 3d ad 58 01 3d
       -0.29746675 0.32576638 0.091534436 0.03157871
000290 d6 16 bc be e4 5a a2 3c 16 ce b0 bd d3 ca 1d bd
       -0.36736172 0.01981873 -0.08633058 -0.038523506
0002a0 14 f1 4c 3b 6f 0e a7 bc 1c 86 b5 bc 34 eb 3f 3d
       0.0031271623 -0.020392625 -0.022158675 0.046855167
0002b0 a6 5d 7f be 85 29 a4 3e 4d 27 a2 3d 54 06 af bd
       -0.24938068 0.32062927 0.07917652 -0.08546129
0002c0 e0 ee b7 bd 69 e7 0e 3c ec 53 37 be b8 cb bc 3e
       -0.08981109 0.008722165 -0.17903107 0.36874175
0002d0 99 b9 05 bc 1a 09 b0 3d eb a4 95 bb a6 91 b8 bd
       -0.008161926 0.08595486 -0.004566779 -0.09012155
0002e0 b4 bb 2a bd 27 30 87 bd b8 ce 06 be df e3 cc 3e
       -0.041682914 -0.06600981 -0.13164794 0.40017602
0002f0 5c e4 a0 bd f6 8d a2 3d 72 29 70 3e 55 5a 9d 3c
       -0.07856056 0.07937233 0.2345331 0.019208113
000300 08 1b 3c 3e 93 3f 74 3a 54 00 13 3d 35 e4 33 bd
       0.18369687 0.00093173346 0.035888985 -0.043918807
000310 3f 90 d0 3d a3 09 1f 3d 88 c1 12 be f8 20 db bd
       0.10183763 0.03882755 -0.14331639 -0.10699648
000320 8e de d9 3d db 9e 1a 3e 8a 19 c2 bd 98 78 85 bd
       0.10638152 0.15099661 -0.094775274 -0.06517142
000330 63 38 98 3d 19 8a ab 3d ed 0d ca 3b a7 74 39 be
       0.0743263 0.083759494 0.006166211 -0.18110906
000340 55 bd f7 3c 7b df e7 3d be 64 a4 bb 11 c7 0d be
       0.030241648 0.113219224 -0.005016892 -0.13845469
000350 3c 97 95 bd 55 31 86 be 8a 71 af 3d 84 72 17 bd
       -0.07304236 -0.26209512 0.08566578 -0.036974445
000360 a7 e5 f5 3d 47 b4 8b 3c d2 4d 05 3c f2 d5 8e 39
       0.12006693 0.017053736 0.00813623 0.00027243752
000370 50 35 dc 3d ab 3b ae 3d 99 ff d5 bd c8 fe 7f 3a
       0.10752356 0.085074745 -0.10449142 0.00097654434
000380 f2 d1 8c bc 10 41 00 bb 34 22 7f 3d 73 b6 13 3d
       -0.017189953 -0.001957003 0.062288478 0.03606267
000390 87 b6 04 3e 9a f9 bc 3d 8f 65 f3 bc f1 cf 70 be
       0.12960254 0.09227295 -0.029711513 -0.23516823
0003a0 ea 01 24 3e b6 ea 7a 3d 98 63 de bd 7d 6b b8 bd
       0.16016355 0.061258994 -0.1085884 -0.09004877
0003b0 65 8b 26 3e 90 e4 85 bc 1b 92 ed bd 6b 13 14 3e
       0.16264112 -0.016344339 -0.11600133 0.14460532
0003c0 6e 76 b5 3b e1 55 a5 bd 86 b9 d2 bd 07 1e d0 3d
       0.0055377996 -0.08073021 -0.10289292 0.10161977
0003d0 b2 d4 d6 bd d8 d6 8e bb 5e 10 ca 3d ec 17 84 3d
       -0.10489787 -0.0043591075 0.09866403 0.06449875
0003e0 7d e3 92 3d 70 99 84 3c dc 59 55 bd b8 93 b5 3c
       0.07172296 0.016186446 -0.05208765 0.022165164
0003f0 ff ad eb 3d 63 51 e1 3d c9 f9 47 3d a6 0e 33 be
       0.115077965 0.110018514 0.048822198 -0.17486057

branch.net.net.2.bias f4 [64]
000000 11 f6 e4 b9 64 ea 52 bd c4 f2 2d be dd 90 87 3c
       -0.00043670883 -0.051493064 -0.16987139 0.016548568
000010 32 94 2f 3e b7 ff be 3d 57 80 55 3a 03 ac d2 3d
       0.17146376 0.093261175 0.00081444293 0.10286715
000020 f4 61 07 3e 5d 14 f8 bb 29 80 89 bc 3c ae fa bd
       0.1322096 -0.007570787 -0.016784744 -0.12240264
000030 33 21 d1 bd 4a 23 fc 3d ec 39 dd bc 70 68 f5 bd
       -0.102114104 0.12311418 -0.027005158 -0.119828105
000040 e4 34 3c be 77 22 56 3c d3 23 b1 bd 81 49 6f be
       -0.18379551 0.0130697405 -0.08649411 -0.23367883
000050 2e f0 58 3d 45 4f a0 bc 11 4f 8e bc cf 7f 2c 3e
       0.05296343 -0.019569049 -0.017371686 0.1684563
000060 20 53 18 3d f5 d1 85 3e 14 fa 3d 3a 3e d4 1d 3e
       0.03718865 0.26136747 0.00072470424 0.15412995
000070 cf 3a 2c 3d f0 47 d1 bd 1c 56 66 3e bf 01 1b 3e
       0.04204827 -0.10218799 0.22493786 0.15137385
000080 7d f3 86 bc 48 24 7d bd 83 11 25 3d 26 90 a0 bd
       -0.016473526 -0.06180218 0.040299904 -0.07839994
000090 69 e6 ed 3c 2d a5 b4 bd 70 1c 3d be 7e a3 1b bc
       0.029040532 -0.08820567 -0.1846788 -0.009499429
0000a0 0b 0c dd 3d eb 0d 3e 3d b5 01 b9 3d 47 da bb 3c
       0.10793313 0.046399992 0.09033529 0.022931231
0000b0 a2 86 49 bb 36 3a 00 be 67 8b d7 bc a1 f8 56 3d
       -0.0030750413 -0.12522206 -0.02631159 0.052483205
0000c0 01 5a 53 be 54 41 0b 3e 54 6f 6f bd 62 9f 9b bb
       -0.20639803 0.1359914 -0.05845578 -0.0047492245
0000d0 2d a7 ea 3d 90 73 3b 3e 27 f8 ea 3d 65 11 a4 ba
       0.114576675 0.18305802 0.114731126 -0.0012517391
0000e0 a0 41 f6 bd ba 20 97 bc a5 6a a6 bb 48 bb fa bc
       -0.12024236 -0.018448222 -0.005078631 -0.03060688
0000f0 2c ec ab 3d 28 a7 db 3d c4 b8 ca bd 40 d7 57 bd
       0.083946556 0.10725242 -0.098985225 -0.052695513

branch.net.net.4.weight f4 [64, 64]
000000 a4 5a 79 be 83 0d 20 3e 4c 87 4f be 85 1d 6d 3c
       -0.24350983 0.15630154 -0.20266455 0.01447237
000010 d1 74 6e 3c 23 b2 ac bd f1 51 49 bd 4c e3 c8 3d
       0.014554218 -0.084324144 -0.04915041 0.098089784
000020 dd 91 09 3c 20 ec 8a bd 95 a7 ef bb 73 11 d3 bc
       0.008396593 -0.067833185 -0.0073136785 -0.025765156
000030 c9 dd 74 bd 2e 5d ed 3d a9 27 1d 3d df 30 ab 3d
       -0.059781823 0.11590038 0.0383679 0.08358931
000040 0e 75 23 3d 62 af a3 bd 9c 2b 9a bd 2c f8 5a bd
       0.039906554 -0.07992436 -0.07527849 -0.05345933
000050 39 0c 4e 3d 67 d6 5e be f6 45 6a bd e1 12 ad bc
       0.050304625 -0.21761476 -0.057195626 -0.021127166
000060 e0 7d 60 be ba 74 e1 3d c0 95 d8 3d 25 64 8a bd
       -0.21923018 0.11008592 0.105754375 -0.06757382
000070 05 d8 02 3e 70 e7 23 3d 0e b9 6a bd d7 53 a2 bd
       0.12777717 0.040015638 -0.05730539 -0.079261474
000080 b3 22 a1 3c ee c2 14 3e f7 e2 e1 3d a6 d2 02 3e
       0.019669866 0.14527485 0.11029618 0.12775669
000090 97 32 73 3d 20 59 a9 bd ef e9 21 3d 8b 54 b0 3d
       0.059374418 -0.08268952 0.039529737 0.08609875
0000a0 07 27 9f 3d 6d 4e 76 be 29 77 1c bd b6 7a 4f bd
       0.07771116 -0.24053355 -0.038199577 -0.050654136
0000b0 12 58 51 bd 93 b2 40 bc 09 44 89 3c 50 48 2f bd
       -0.05110938 -0.011761325 0.016756075 -0.042793572
0000c0 24 4f a8 3c fc 77 2c 3c cb a3 ed bd dc 71 f3 3d
       0.02054555 0.010526653 -0.11603507 0.11886951
0000d0 0f 6c c6 3d 33 9e b1 bc ae 71 0d 3d ba db f9 bd
       0.09688579 -0.02168188 0.03453224 -0.12200113
0000e0 9d 3e 82 3d 49 75 36 3c 23 aa f1 bc 42 8e bf bb
       0.06359599 0.011136361 -0.029500073 -0.005845816
0000f0 68 17 54 3e 05 84 5d 3d ef 25 07 3d 2a 83 83 bd
       0.20712054 0.05408098 0.03299516 -0.06421502
000100 8c 45 f7 bd 14 a2 b4 3c 71 30 af bd f0 30 19 be
       -0.12073812 0.022049941 -0.08554161 -0.14960074
000110 b5 8e df 3c 5e 25 42 be 66 40 fd bd b1 15 e9 3c
       0.027289728 -0.18959567 -0.12365799 0.028452726
000120 48 e2 8f 3d 35 2d c0 bd e6 f7 b4 bd e1 35 b9 3b
       0.070255816 -0.093836226 -0.088363454 0.005652175
000130 d8 aa d0 bd 05 69 14 3d 3c 75 e3 3d 46 23 1b 3e
       -0.10188836 0.036232967 0.11106345 0.15150174
000140 40 a0 0f be 61 47 de bd 81 e6 78 3c bf ca fc 3d
       -0.14025974 -0.10853458 0.015191675 0.12343358
000150 ef 96 86 3a 70 30 77 be f8 1d 2a be fc c8 ad bd
       0.001026837 -0.24139571 -0.16612995 -0.084856
000160 f3 58 ef bd c1 07 51 3d 47 3f 95 3d 25 2b 52 bd
       -0.116868876 0.051032785 0.0728746 -0.051310677
000170 b4 36 24 3e 71 4f bd 3c 52 f0 58 3d fc 8b 9b be
       0.16036493 0.02310917 0.052963562 -0.30380237
000180 15 11 d1 3d 75 54 31 3e 55 1c ba 3d 4d ed dc bd
       0.10208336 0.17317374 0.09087435 -0.10787449
000190 73 8e f2 bd 31 3b 5a 3d e0 c5 e7 3d 97 3e be bd
       -0.11843576 0.053279106 0.113170385 -0.09289282
0001a0 fc 4b 9c bd a0 2a 3c be b0 ca 6c bd 8d 26 54 bd
       -0.0763168 -0.18375635 -0.057810485 -0.051794577
0001b0 6e a7 81 bd d0 7c 76 bd 3e 53 ae 3c 23 cc 06 3c
       -0.06330763 -0.060177624 0.021279927 0.008227381
0001c0 d2 fd e5 3d 47 f5 ed bc f8 ef 03 be 41 0a ac 3d
       0.11230053 -0.029047621 -0.1288451 0.08400393
0001d0 22 1c e2 3c 64 64 61 bd ac 1b 02 be c2 37 f4 bd
       0.027601305 -0.05502738 -0.12705868 -0.119246975
0001e0 3d 2d d5 bd ef 3e 4d bc 9e c8 9f bd 58 89 84 3c
       -0.10409019 -0.012527212 -0.078019366 0.016178772
0001f0 06 2d 1e 3e 65 b6 31 3d b1 e3 10 3d 95 b7 a5 3d
       0.15446863 0.043386836 0.035373393 0.08091656
000200 cd f8 1a be 1a db 9c 3d 3e f2 dc 3d b7 7c fc bd
       -0.15133972 0.07658978 0.107883915 -0.12328475
000210 63 36 c5 3d 31 26 83 be 12 e7 1a be 31 0e 98 3d
       0.09629514 -0.25615075 -0.15127209 0.07424582
000220 a0 4d 9e 3d d4 3a 85 bd 77 65 3a 3e e8 41 3b be
       0.077296495 -0.06505361 0.18202768 -0.1828686
000230 b3 8f 70 3d 92 43 0c 3e a9 ad 81 3c 8e ed bd 3d
       0.058730792 0.13697651 0.015829878 0.092738256
000240 b8 9d 93 be 2b 3f 42 bb c9 b2 c8 3c 41 c7 01 be
       -0.28831267 -0.0029639702 0.024499314 -0.12673666
000250 17 7c 2c be 8d 62 34 3e 2c ed 18 3e a5 3d b1 bd
       -0.16844212 0.17615719 0.14934224 -0.08654336
000260 e3 2c 93 3d e5 e3 2e 3e de 28 92 3e 9b 9b a0 3b
       0.07186296 0.17079122 0.28546804 0.004901362
000270 ca 4b a6 bc 90 00 c3 be cc 1b e9 3d 3f c2 34 be
       -0.02029981 -0.38086367 0.11382255 -0.17652224
000280 f3 cb 71 be 6f 2d 13 bd 66 1d 96 3d b3 90 22 bd
       -0.23612957 -0.035932 0.07329826 -0.039688777
000290 74 6d 9e bd 8c 7a 93 3e bc ba 79 3e 1e 3b fb 3b
       -0.0773572 0.28804433 0.2438764 0.0076669594
0002a0 dc 83 ef 3d 6f ff 9e bc 33 44 96 3d af d5 11 be
       0.11695072 -0.01940891 0.07337227 -0.1424167
0002b0 4e 5b 4b bd 00 70 37 be d1 99 38 be ba 73 68 3e
       -0.04964762 -0.17913818 -0.18027426 0.22700396
0002c0 6b 4e 59 3d 59 7b 06 3e 4e 47 25 bd c9 be 75 3c
       0.0530533 0.13132991 -0.040351205 0.0149991
0002d0 f6 b8 df bd a3 c5 bc 3d 39 02 c3 bc dd 31 e0 bd
       -0.109239504 0.09217384 -0.02380477 -0.10947011
0002e0 8c 43 88 3d 92 e7 ad 3e ad 34 23 3e 82 c2 35 3e
       0.066535085 0.33965737 0.15938063 0.1774998
0002f0 14 60 32 bd fc 97 58 3e 76 26 13 3e 54 ac 19 bd
       -0.04354866 0.21151727 0.1437014 -0.03751786
000300 cf 45 86 3d ed 65 80 bc e6 ef 2a be b9 36 1b 3e
       0.06556284 -0.015673602 -0.16693076 0.15157594
000310 4d e5 20 3e c9 2f f1 bd ef fc 6e bd ef 1b 5f 3d
       0.15712471 -0.117766924 -0.058346685 0.05447
000320 b8 59 f5 bd b3 72 64 3b 09 a8 83 bd a2 a4 82 3d
       -0.11980003 0.0034858405 -0.064285345 0.063790575
000330 89 b6 40 3d b0 5c c6 bd f0 09 f2 3c 83 88 cc 3c
       0.04704908 -0.096856475 0.029545754 0.024967438
000340 a0 54 9a 3c cf 9f f2 bd 06 fb 7e bc 61 3f 35 3d
       0.01883918 -0.11846887 -0.015562778 0.044249896
000350 a6 32 d5 3d de 33 7f be 1c 8e 99 bd 29 1e 17 3d
       0.10410051 -0.2492213 -0.07497808 0.036893997
000360 44 d6 35 be 08 a2 4e 3e 08 78 ca bd e7 e7 05 be
       -0.17757517 0.20178998 -0.098861754 -0.13076745
000370 08 07 27 3e 58 9c 0f 3d 92 46 b2 bd 4c 6a 60 be
       0.16311276 0.03506121 -0.087048665 -0.21915549
000380 5a 8d ed 3d fe f3 95 bc 15 33 89 3c 70 e0 87 3d
       0.11599226 -0.018304821 0.01674799 0.06634605
000390 df 33 ce 3d 92 46 0f 3d 70 c1 26 bd 83 63 2e bd
       0.100684874 0.03497941 -0.04071182 -0.04257537
0003a0 16 be 02 be 48 77 a2 bd 2f 77 2c 3c 2a 54 01 3e
       -0.12767825 -0.07932907 0.010526462 0.12629762
0003b0 a2 ed 9a bc 85 99 94 bd 31 5a 97 3d c5 1b b4 3c
       -0.01891214 -0.07255844 0.073902495 0.021985898
0003c0 11 e1 65 3e ee 68 06 3e 8b dc 14 bd d3 b0 33 3e
       0.22449137 0.13125965 -0.03634314 0.17547922
0003d0 c0 08 94 3d 80 0f 0e bd 5a 1f 73 be b0 01 77 be
       0.072282314 -0.03468275 -0.23742428 -0.24121737
0003e0 67 53 ce bd 32 0f be bc a8 25 0c be 9d bc 3e bd
       -0.100745015 -0.023200605 -0.1368624 -0.046566594
0003f0 57 32 60 bc 42 27 83 3d b3 06 3a be a4 9a d3 bd
       -0.013683877 0.06403972 -0.18166618 -0.1033223

branch.net.net.4.bias f4 [64]
000000 f0 9a 25 3d eb 8a 94 bd cd 5d cb bc 7d b2 1a 3e
       0.040430963 -0.07253059 -0.024825001 0.1510715
000010 8a da f8 3b a4 a7 2b 3c 6a 4f 57 3e 84 eb 9a 3d
       0.0075944113 0.01047698 0.21026388 0.07564452
000020 de f0 d7 bd 5e 33 67 3e 75 0b 6d bc 52 17 5e 3e
       -0.10543989 0.22578189 -0.014468064 0.21688583
000030 40 fb c0 3d 80 cd 9a bc 56 74 02 3d 53 e2 16 3d
       0.09422922 -0.018896818 0.031849228 0.036836933
000040 8c 4e ae 3d cc 06 2f 3d 30 1a b3 3d 32 01 33 be
       0.085110754 0.04273109 0.08745229 -0.17480925
000050 dc e7 9a bd c9 78 bb 3d e5 2a 2f be 8a 2e 88 bc
       -0.07563755 0.09153897 -0.17106207 -0.016623754
000060 7b 87 94 bd 02 01 08 3d b5 fa 1e bd 1f 86 e6 bd
       -0.07252403 0.033204086 -0.03881331 -0.1125605
000070 d4 79 a2 3e fa 43 d3 3d 31 1d f6 3d f1 51 1d 3e
       0.31733572 0.103157 0.120172866 0.1536329
000080 ed f3 70 be 8c 6e eb bd fc 8b 21 be 76 d1 c1 bb
       -0.2353055 -0.114956945 -0.15776056 -0.0059148623
000090 0b 9d 15 be cc db 5c 3e 3b bb 18 3d a7 c9 e2 3a
       -0.14610688 0.21568221 0.037287932 0.0017302529
0000a0 54 d9 81 3d 0f 14 40 3d 04 0a 37 3e 0b 72 af 3d
       0.0634028 0.04689413 0.17874914 0.08566674
0000b0 f5 76 a2 3d e9 bb 97 3e ed 2b 7c 3e 7f b2 cd 3d
       0.079328455 0.29635552 0.24626131 0.10043811
0000c0 f9 bb 55 bd 69 03 22 3e da d8 20 bd cf bf 0d bc
       -0.052181218 0.15821613 -0.039269306 -0.008651688
0000d0 3d c2 51 3d 97 65 b7 3d 1c 40 36 bd 52 4f 5e bc
       0.05121063 0.089549236 -0.044494733 -0.013568716
0000e0 64 bf d0 bd 24 15 c5 3c e6 6e 87 3d 28 ea 02 be
       -0.10192755 0.024057932 0.06612949 -0.12784636
0000f0 78 02 c3 3d e8 2b 21 3c 36 c1 1b be 8a a2 3d 3e
       0.09521955 0.009837128 -0.15210423 0.18519035

branch.net.net.6.weight f4 [64, 64]
000000 55 f0 2c 3e 37 cb 67 3e 31 4b 7a be ff ec 29 3e
       0.16888554 0.22636114 -0.24442746 0.16594313
000010 25 e6 4b be 2f fb cb bc 9c e9 69 3b 96 bc c8 bc
       -0.19912012 -0.024900047 0.003569222 -0.024503987
000020 ff 33 ea 3d c5 c4 38 be d8 2b e8 bc 03 3f 38 3e
       0.11435699 -0.18043812 -0.028341219 0.17992787
000030 eb 27 23 3c cf f7 8d 3c 0d 2c 58 3e c9 3c 7f bc
       0.009958248 0.017330078 0.21110554 -0.015578457
000040 0a 0d 08 be 8e b3 1d bd a5 4c 7d bd 11 75 90 bc
       -0.13286224 -0.038501315 -0.061840672 -0.017633947
000050 78 ee a4 bd c4 31 6f 3e 07 c4 15 3e ce 8f 27 3d
       -0.08053297 0.23358828 0.1462556 0.040908627
000060 aa aa 76 be 15 ba 57 3e e1 82 66 bc 72 cc 23 bd
       -0.2408854 0.21067078 -0.01406929 -0.039989896
000070 58 31 39 bd b0 9c 48 bd 53 6b b5 bc b5 c1 a5 3d
       -0.045213073 -0.048977554 -0.022145903 0.08093587
000080 2a 64 72 bd 86 fd 2f be 46 69 53 be 7e 09 67 bd
       -0.059177555 -0.17186555 -0.20645627 -0.056405537
000090 bc 8a c4 bd de 4c 94 be 80 e1 8b be 5e e6 11 3d
       -0.09596774 -0.28964895 -0.2732048 0.035620086
0000a0 c2 33 21 3e 97 96 98 3d bd bb 29 3e fc de 4b 3e
       0.157424 0.07450598 0.16575523 0.1990928
0000b0 8b d4 63 bc 33 4c 1d bd c5 d1 96 3d 7c 3e 37 be
       -0.013905655 -0.038402747 0.07364229 -0.1789493
0000c0 37 92 8d be 9c 35 fc bc c6 2d 15 be f3 a5 40 be
       -0.27650616 -0.030787282 -0.14568242 -0.18813305
0000d0 38 5f 23 bd 9f 78 ad 3c dd 55 7b bd 1a f5 a5 3d
       -0.03988573 0.02117568 -0.061361182 0.0810339
0000e0 7c cd bd bc c0 e7 22 be fc 4b 9f bc c2 59 95 bc
       -0.023169272 -0.15908718 -0.019445412 -0.018231276
0000f0 75 71 0c 3e 2c 6a a8 3d 63 78 4d bd e9 c7 3a be
       0.13715155 0.08223376 -0.050163638 -0.18240322
000100 c3 53 92 b9 58 d2 7e 3d 3c 6c 48 bd 4f f1 57 3d
       -0.00027909697 0.06221232 -0.048931345 0.052720364
000110 1a fe b8 3c 93 7a 19 be b0 1d 07 be bc 30 b0 bd
       0.022582103 -0.14988165 -0.13194919 -0.08603045
000120 2f 04 02 3e ff c3 31 be 20 63 6c 3d ed 5b 0d 3e
       0.12696908 -0.17359923 0.05771172 0.13804598
000130 10 92 7c bc 56 cc 2f be 81 82 19 3e 16 d0 12 be
       -0.015415683 -0.17167792 0.1499119 -0.14337191
000140 fc 0d 2c bc 43 d1 25 3e b1 73 60 be 73 2a 26 be
       -0.010501381 0.16193108 -0.21919133 -0.1622713
000150 3a ad 01 bc 48 83 d9 bd 1d 6a 68 bd e7 c1 0b be
       -0.007914836 -0.10620743 -0.056741823 -0.13648187
000160 a8 ac a5 bd da 29 22 3d 7a 64 07 be 57 5c 30 b9
       -0.08089572 0.039590694 -0.13221923 -0.00016819067
000170 3f e7 5d bd d1 ec ab 3c e3 f5 34 3d f8 cf ba 3d
       -0.05417561 0.020986946 0.04417981 0.09121698
000180 d9 f5 8e bd 9e a3 74 bd 4f 9c 18 be c1 5c f8 bb
       -0.069804855 -0.05972635 -0.14903377 -0.0075794165
000190 44 4f 1d 3d af 8d 42 be 70 5f 19 bc c1 c4 16 bd
       0.03840567 -0.1899936 -0.009361133 -0.036808733
0001a0 1e 4c 67 bc 68 31 b6 bd 44 ab a3 be 88 c1 1b 3d
       -0.014117269 -0.08896142 -0.31966603 0.038026363
0001b0 06 9d 31 3d 4f 20 7c be 63 9c 08 be 11 ce 19 be
       0.04336264 -0.246217 -0.13340907 -0.15020014
0001c0 e5 3a 99 3e ae 35 ee bd 99 c3 d5 bc 33 a6 00 be
       0.29927745 -0.11631332 -0.026094245 -0.125634
0001d0 6b 2e ab 3e 12 d1 a8 bc 46 1d 69 3d 56 67 16 3e
       0.33433852 -0.020607505 0.056912683 0.14687857
0001e0 3b ad 29 be ea 3d 41 be 9e 49 a8 3d 67 09 20 3d
       -0.16569988 -0.18871275 0.08217166 0.039071467
0001f0 e9 63 00 3e c4 30 81 3d 2b a8 8b 3d 91 2c 04 be
       0.12538113 0.063081294 0.06819185 -0.12907626
000200 34 20 95 3d c6 53 bd bd d9 cb b9 3c ec 3b 83 bd
       0.07281533 -0.09244494 0.02268021 -0.064079136
000210 83 da 8a bd 2c 6d bb bd 56 c5 bd 3d 8a fa c5 bd
       -0.06779959 -0.09151682 0.092661545 -0.09666927
000220 00 eb a9 3d f0 e4 e5 3d 55 01 70 be fc 2e f8 bc
       0.08296776 0.11225307 -0.23438008 -0.030295841
000230 4c 39 49 be 0e dd 4b be 64 83 c1 bd 65 f0 c0 3d
       -0.19650763 -0.19908544 -0.09448889 0.094208516
000240 6c a6 fd 3c a1 7d 8f 3d 15 81 2c be cc db 8e 3d
       0.030963145 0.07006384 -0.16846116 0.06975517
000250 2b 0d 6e bd 52 cc 85 bd 92 5c 79 bc d2 11 81 be
       -0.058118027 -0.06533112 -0.015219824 -0.25208908
000260 a1 31 09 bd 9a fc 06 3d a4 14 92 3d 9c 77 78 3d
       -0.033494595 0.032955743 0.07132843 0.060660943
000270 c5 16 cd bd 36 0f bd bd ae 62 43 bc f5 45 e2 3d
       -0.100141086 -0.09231417 -0.011925383 0.110484995
000280 ee 2a 04 bd 61 e4 92 3d b2 5d c1 bd c3 ae ef 3d
       -0.032267503 0.07172466 -0.09441699 0.11703255
000290 d3 12 89 3c c0 f6 0b 3e 8c 2e c4 3b 96 82 4c 3c
       0.016732609 0.13668346 0.005986994 0.012482306
0002a0 81 4c 91 3c d2 d1 c6 bd 0f b7 9b bd b7 a5 9a bd
       0.017736675 -0.09707989 -0.07603275 -0.07551139
0002b0 f8 e8 c5 3d 39 70 d0 bc f1 d2 25 3e 05 3d 09 bd
       0.09663576 -0.025444137 0.16193749 -0.03350546
0002c0 47 49 61 3d 80 f3 93 3d e5 62 17 bd 25 f0 d0 3d
       0.055001523 0.07224178 -0.036959548 0.10202054
0002d0 29 e9 8c 3d 00 c2 01 3d 5f 03 aa bd fb 7d bd bd
       0.06880409 0.031679153 -0.08301424 -0.092525445
0002e0 b1 7e b7 bd 45 6d 92 3d f3 8d f6 3d b2 dd 51 be
       -0.08959711 0.07149748 0.120387934 -0.20494726
0002f0 4e cb 21 3d 24 a4 30 bd 0d aa de 3b 94 e3 ff 3c
       0.039500527 -0.043125287 0.006795174 0.031236447
000300 1e 08 f8 bc e3 cb f0 3d 8d 82 1c be ba 41 19 3e
       -0.030277308 0.11757638 -0.15284176 0.14966479
000310 7b f6 90 3d 1a d5 31 3d 8d d8 1b 3d 67 74 b6 bc
       0.070782624 0.04341612 0.038048316 -0.022272302
000320 7e b5 9f bd ce 39 0a bd 63 00 41 3d b9 c4 19 3d
       -0.07798289 -0.033746533 0.04711951 0.037541125
000330 78 2a 17 be d6 a5 ff 3d 36 91 83 bd 2f 0f 52 3e
       -0.14762294 0.124828026 -0.06424181 0.20513605
000340 3e c0 d4 3b da 9a 5f 3e d7 78 0b 3e 97 7f 93 3d
       0.0064926436 0.21836415 0.13620315 0.0720207
000350 3d 39 5b 3c 8a ca b7 3c 6c 6a 25 3e 25 41 a5 bd
       0.013380346 0.022435445 0.16153878 -0.08069066
000360 6b 3d 9b bd 64 17 b5 bd b1 db 57 3d 0e df af bd
       -0.07580074 -0.08842352 0.05269975 -0.08587466
000370 6c e7 97 bd cf 9f 50 bd ae 18 77 bb f6 e7 95 3d
       -0.07417187 -0.050933655 -0.003770392 0.07319634
000380 8a 67 16 bd d0 da 46 3c 6d a9 01 be 1a 8a a0 bd
       -0.036719836 0.01213713 -0.12662287 -0.07838841
000390 21 9d 07 be e9 6b 8e be c3 a2 a3 bd fb 54 96 bd
       -0.13243534 -0.27816704 -0.07990029 -0.073404275
0003a0 c7 ab d2 3d 69 02 83 be 7c 95 f5 3d 35 8a 91 3d
       0.1028667 -0.25587776 0.119914025 0.07106439
0003b0 75 6e 03 3e 78 dd bd 3d b3 14 a0 3d d4 93 1e be
       0.12835105 0.092707574 0.07816448 -0.1548608
0003c0 40 8b d2 be 3f d9 e0 3c a5 99 be bd de 7b f7 bd
       -0.41121864 0.027447341 -0.09306649 -0.12084173
0003d0 52 a6 91 3c 2c 23 c5 3d 5a 5c 3d bd ed 07 9b 3d
       0.017779503 0.09625849 -0.04623065 0.07569871
0003e0 f0 64 6f 3d ba 7d 9d bc 38 44 4a be 97 11 02 be
       0.05844587 -0.01922499 -0.19752586 -0.12702022
0003f0 55 38 77 3d da 0b bd 3d 12 4f 46 bd 24 52 79 bd
       0.060356457 0.09230776 -0.04841525 -0.06086935

branch.net.net.6.bias f4 [64]
000000 9a 70 05 3e 4c 67 90 be 4e 13 e2 bd f7 ff 45 bd
       0.13031235 -0.2820381 -0.11038838 -0.04833981
000010 e1 92 2e bd 62 fa e4 be 72 b6 f9 bc 21 f9 ad bd
       -0.042620543 -0.44722277 -0.030482505 -0.08494783
000020 a6 64 cc 3d bd f8 8a 3d 26 05 0c be ad 2b 32 3e
       0.09980135 0.06785724 -0.13673839 0.17399473
000030 2a b4 45 bd 46 26 d4 bc 9c bd c8 bd 87 13 97 3d
       -0.04826752 -0.025897156 -0.0980179 0.073767714
000040 48 87 98 bb 2b 34 33 bd af 19 31 be 2c 13 b8 3e
       -0.0046547987 -0.043750923 -0.17294954 0.35952127
000050 a3 f1 6b bd 74 61 b9 3d 5a 64 45 be 16 df 9e 3e
       -0.05760349 0.09051791 -0.19276562 0.31029576
000060 c3 69 5c bd 30 b1 36 3d 85 3a bd 3d a3 34 9e 3e
       -0.0538118 0.044602573 0.09239677 0.30899534
000070 b7 33 29 be 8b 70 a6 3d 8b 9d 1e be 7d 30 56 be
       -0.16523634 0.081269346 -0.15489785 -0.20916934
000080 1d 8d d1 3d 4c d5 60 be 34 b8 b3 bd db bb 47 3c
       0.10231993 -0.21956366 -0.08775368 0.012190784
000090 68 7b 2f 3d 2f e1 71 be 77 4a 66 be 26 fa 61 be
       0.0428423 -0.23621057 -0.22489344 -0.2206808
0000a0 98 30 fc 3d a5 ad c1 be e3 6c 5f 3c 7c e4 68 be
       0.12313956 -0.37827793 0.0136368 -0.2274341
0000b0 44 2a 5b 3d 3b ec 79 be ea 28 ea 3d b9 d7 3b 3e
       0.053507105 -0.24406521 0.11433585 0.1834401
0000c0 f0 59 2d be 9e eb b5 3d 87 89 18 3e 7d 1c ff bc
       -0.1692884 0.08882831 0.14896213 -0.031141514
0000d0 90 4d 24 bd 53 9a 45 3e 6d 91 3c be b3 c2 6b 3d
       -0.040113032 0.19297151 -0.1841485 0.057558727
0000e0 94 eb ed bc 75 cc 24 3e df 60 60 be a9 ff a7 3d
       -0.029042996 0.16093619 -0.21911953 0.0820306
0000f0 c0 3f a3 bd 91 93 b3 bd bb 3c 22 bc 28 24 1c 3e
       -0.07971144 -0.087683804 -0.009902175 0.15248168

branch.net.net.8.weight f4 [64, 64]
000000 fc 0d 02 3e 0b 26 30 3e 4b 46 b7 3c 3c c4 12 3c
       0.12700647 0.17202012 0.022372385 0.008957919
000010 fb ac 39 bc 84 52 a1 be 54 0d 21 3d 09 0b bd 3d
       -0.011332746 -0.31508267 0.03931935 0.092306204
000020 6f 71 34 be f6 a8 99 bd 18 3e 8d bd ab 0d 3b 3e
       -0.17621396 -0.0750293 -0.06896609 0.18266933
000030 34 aa 9a be 80 e3 8d 3d a3 46 05 3e 9e fa 2b 3e
       -0.3020798 0.06928158 0.13015227 0.16794822
000040 a7 a4 4c be 03 f8 23 3c 07 ef 51 3d 46 a9 e0 3e
       -0.19984685 0.010007861 0.051253345 0.43879145
000050 4c 55 f8 3a 47 ed 61 bd 24 3c 09 be c0 14 3b be
       0.0018946319 -0.055157926 -0.13401848 -0.18269634
000060 26 6e 49 bd e2 1f 0e 3e e8 c4 ce bc 84 eb 92 bd
       -0.04917731 0.1387935 -0.025240377 -0.07173827
000070 ce 58 b6 3d cd 53 a9 bc fc 53 8f bd 73 02 0d be
       0.08903657 -0.020669842 -0.069984406 -0.13770466
000080 c2 55 ae bd f3 ae 6e bc 14 18 a6 be c9 8f 00 3e
       -0.08512451 -0.014568078 -0.32440245 0.1255485
000090 6c 22 72 3d a3 76 90 3d 8f 2c f3 bd e2 22 4d bd
       0.05911486 0.07053878 -0.11873733 -0.050082095
0000a0 bf 10 36 be 8c cc 7c be 89 10 a7 3d 90 40 83 3e
       -0.17779826 -0.24687403 0.08157451 0.25635195
0000b0 cc d2 5b 3c 54 ca e4 3d d3 cb 2e 3c 02 6b f1 ba
       0.013416957 0.111714035 0.010668713 -0.0018418732
0000c0 ae df a6 3d da 86 80 3e 9e 33 e3 bb b3 bd dd bd
       0.08148132 0.25102884 -0.0069336435 -0.10827198
0000d0 71 a0 c3 3c 8b 53 b1 3d e8 df 1d 3e 77 d9 4b 3e
       0.023880215 0.08658513 0.15417445 0.19907175
0000e0 38 eb 8b 3e ae 84 07 be c2 67 86 bd 84 01 58 3d
       0.27327895 -0.13234207 -0.06562759 0.05273582
0000f0 24 6d 35 3e 92 18 5c bd 15 f1 4d 3d 86 16 3c 3d
       0.17717415 -0.05373437 0.050278742 0.045919918
000100 2b 5c c3 bc e3 e5 ec 3c 25 51 be 3d bb 45 28 3d
       -0.02384766 0.028918212 0.09292821 0.041082125
000110 da fb 36 3e 3b c1 5d be b7 84 0c 3d 6e c5 fa ba
       0.17869511 -0.21655743 0.034306254 -0.0019132325
000120 2b 5e 2f 3e 14 0b 5e bd 66 f4 5a 3d 41 59 f3 bd
       0.17125766 -0.054209784 0.053455733 -0.11882258
000130 ae 36 5a bd fe 30 58 3e a5 51 9e 3e 5e ca 97 3d
       -0.053274803 0.21112439 0.30921665 0.07411645
000140 d4 3c 29 3e d1 8b 44 3d 63 bc 56 3d af 5b 5a 3e
       0.1652711 0.0479849 0.052425753 0.21324037
000150 85 cc 17 3e 12 70 18 be 75 36 62 be e1 f6 dc bd
       0.14824112 -0.14886501 -0.22091086 -0.10789276
000160 50 d2 a9 bd a1 c0 3a 3e d6 4e 78 be ec 5c a2 3d
       -0.08292067 0.18237545 -0.24248824 0.0792788
000170 19 17 3c 3d c9 aa 2a 3c ca 52 53 3b 9c bd e7 3d
       0.045920465 0.010416695 0.003224539 0.11315462
000180 d0 11 86 be fc 36 cc 3c 14 6b b9 be f7 4c d9 3d
       -0.26185465 0.024928562 -0.36214507 0.10610383
000190 ec 33 a2 3e 35 ee 02 3e ef a7 18 be fc cf 94 3d
       0.31680238 0.12786181 -0.14907812 0.07266232
0001a0 6e 14 1a 3e 5f 0d 62 be b2 bf 68 3e 73 d6 07 3e
       0.15046856 -0.22075413 0.22729376 0.132654
0001b0 e1 a6 a9 3d a1 62 20 be 2d 21 88 be 37 f1 4e 3d
       0.08283783 -0.15662624 -0.2658781 0.05052301
0001c0 d2 48 15 be a6 c5 c0 3e 76 b1 72 be 3d 24 68 3e
       -0.1457856 0.37650794 -0.23700508 0.22670074
0001d0 3a 2c 51 3d 88 1a 97 bb 05 af bc 3e c9 79 15 3e
       0.05106757 -0.004611317 0.3685228 0.14597239
0001e0 6a 47 2a bd da fc c1 bd 03 09 55 be 89 fa a3 3d
       -0.041572012 -0.09472056 -0.20804219 0.0800677
0001f0 58 a4 0f be bd f9 97 3e d1 96 3c 3e 97 0e 23 3e
       -0.14027536 0.29682723 0.18416907 0.15923534
000200 5a 25 f3 3d 43 aa 0b be d1 24 72 3c 34 12 d6 3d
       0.118723586 -0.13639168 0.0147792855 0.10452691
000210 bb df c1 bd 72 9a e4 bd af fa 70 3d e6 07 bc 3c
       -0.09466501 -0.111622706 0.05883282 0.022952985
000220 c8 0a 4e 3c 54 85 4b 3d 68 60 b1 bd ae f8 02 bd
       0.012575813 0.0496877 -0.08660966 -0.03197544
000230 2f 83 0a 3e b4 81 cb 3d d0 ab a7 bd 97 36 83 bd
       0.13526605 0.09936848 -0.081870675 -0.064068966
000240 a3 d4 03 bd 07 f2 a1 bc cc 8b e9 3c d7 fb c5 3d
       -0.032185208 -0.019768728 0.028509043 0.09667175
000250 e3 6f b1 bd 05 6c 62 bd af 24 b4 3d d7 b3 07 3d
       -0.08663919 -0.055278797 0.08796059 0.033130493
000260 30 97 bc bd 61 5c eb bd 9c 70 3b 3d ff ba 16 3e
       -0.09208524 -0.11492229 0.04576169 0.14719771
000270 9d d8 38 3d 00 99 19 3e 47 d0 49 3d 81 3e 2d 3d
       0.045128454 0.14999771 0.049270894 0.042295936
000280 d3 2b c5 bc ce bd 34 be 02 e4 08 3e 58 e8 29 3e
       -0.024068749 -0.1765053 0.13368228 0.16592538
000290 33 9e fd bc 75 f2 95 bb 7c 25 91 3b 6e 04 d4 3d
       -0.030959224 -0.0045760223 0.0044295173 0.103524074
0002a0 29 e5 05 be 6d 44 91 3b f3 25 bb bd aa 2d c2 bd
       -0.13075699 0.004433206 -0.091380976 -0.09481366
0002b0 1e b1 a9 3c 01 85 9e 3d a6 9b e1 3d 3a 03 54 3a
       0.020714339 0.07740212 0.11016016 0.0008087639
0002c0 fc d5 e3 bd 5d c1 25 be f3 fe 30 3e 4e 5e ea bc
       -0.11124799 -0.16187043 0.17284755 -0.028609421
0002d0 b4 c6 24 3d ce ad ca bc 22 ce 2e be ab 8e 0a be
       0.04022856 -0.02474108 -0.17070821 -0.13530986
0002e0 e6 93 6c bd 3c a9 1b 3d e7 4e 02 3e 73 06 85 bd
       -0.057758234 0.03800319 0.12725411 -0.06495371
0002f0 a6 36 d7 3d f8 a2 ea 3d 2f 56 db bd 79 ed 29 3c
       0.1050847 0.11456865 -0.107097976 0.010371559
000300 ab d1 ea 3d a1 6f 85 3e ae 1f 13 ba e3 b8 98 3a
       0.11465772 0.2606173 -0.00056123256 0.001165178
000310 c3 cc e4 bd f3 3c 17 bc c6 7f 9f bd 70 fc ad 3d
       -0.11171868 -0.00923084 -0.07788043 0.08495414
000320 65 cf 3f bc 23 69 45 bd df 39 fd 3d 27 32 e0 3d
       -0.011707162 -0.04819597 0.12364554 0.10947066
000330 44 00 50 be 0c 87 fe 3c 23 c4 27 3c 96 f3 62 3d
       -0.20312601 0.031070255 0.010239634 0.055408083
000340 4f d3 a1 3d d8 b9 74 3d aa 66 c3 3d b0 1a c7 bd
       0.07901632 0.059747547 0.09541066 -0.09721887
000350 8e 76 a7 3d ec 09 14 bd 23 ca a7 bd 75 58 37 be
       0.081769094 -0.036142275 -0.081928514 -0.17904837
000360 41 99 43 bd e6 49 8d bd 54 db 1e 38 8d 82 64 be
       -0.047753576 -0.06898861 3.78744e-05 -0.22315426
000370 83 59 16 3d 46 89 a2 3c 23 57 e2 bd e7 76 af 3d
       0.03670646 0.019840848 -0.11051776 0.08567601
000380 38 25 29 be 83 05 e4 3d c7 c4 22 be 06 4a f7 bd
       -0.16518104 0.11133864 -0.15895377 -0.12074666
000390 bc 25 90 3c 7c 40 1d 3e cb 90 62 bd 20 98 85 3d
       0.017596118 0.1535663 -0.055313867 0.06523156
0003a0 d7 49 c1 3d 9f d3 15 be 1b 7a 26 3e bb ea 6f 3e
       0.09437912 -0.14631508 0.16257517 0.23429386
0003b0 94 e8 7a bd 4c 00 8e be af 0b 37 be a2 bd 08 bd
       -0.06125696 -0.27734601 -0.1787555 -0.033383973
0003c0 fa 41 1e bc 30 df 4a 3e 4e 87 c9 bd c8 18 b8 3d
       -0.009659285 0.19811702 -0.098402604 0.08989102
0003d0 7a 2b fd 3c c9 90 8e bd de 22 38 3e 5f 30 df 3d
       0.03090452 -0.06961209 0.17982051 0.10897898
0003e0 0e 9a bc 3d cf 16 8c bd 6a 76 94 3e 64 6e d2 bd
       0.09209071 -0.06840288 0.28996593 -0.102749616
0003f0 97 ed 8d 3d a8 fa 85 3e 64 19 04 3e 46 e4 58 ba
       0.06930082 0.26167798 0.12900311 -0.00082737615

branch.net.net.8.bias f4 [64]
000000 c8 fe a8 3e 90 e9 87 3d 01 f8 9e 3d 32 76 a4 3d
       0.33006883 0.066363454 0.07762147 0.080303565
000010 3e 2a e5 3d 75 27 77 bd 3e 97 c8 bd 4e 14 b9 bd
       0.11189698 -0.060340364 -0.09794472 -0.09037076
000020 ca 10 91 be c4 6c f7 3d 36 2f 10 be c0 7c 3d 3d
       -0.28333122 0.12081292 -0.1408051 0.04626155
000030 8f f9 b3 3d 9d 3c c3 3e f2 85 19 be c9 38 1b 3e
       0.08787834 0.38132182 -0.14992502 0.1515838
000040 a1 ad 86 3e 67 82 1c 3e bb 32 83 3e d2 36 a4 3e
       0.26304343 0.1528412 0.25624642 0.32073075
000050 bf d3 47 be 37 64 94 bd c6 ae 7a be 2c 89 36 be
       -0.19514368 -0.07245677 -0.24480733 -0.17825764
000060 2e f2 64 3e 0e 25 c6 3d 24 43 67 3d 23 bd c9 3e
       0.22358009 0.09675036 0.056460515 0.39402112
000070 00 5e 88 3e f8 53 d7 bd 2b 45 be 3e 45 b1 0d 3e
       0.26634216 -0.10514063 0.37162146 0.13837154
000080 8b e7 21 be ae de 0f be 30 0a 7f 3e d6 96 94 3e
       -0.15810983 -0.1404979 0.2490623 0.2902133
000090 4f 02 86 be b9 f9 05 3e 24 0e e3 be bf 64 ba 3e
       -0.26173636 0.13083543 -0.44346726 0.36404988
0000a0 06 50 f4 3d 38 61 7a be ee a0 fc 3d c1 67 8a 3e
       0.11929326 -0.24451149 0.123353824 0.27032283
0000b0 02 98 f7 3b 39 7a 07 bc fd e0 b1 3e d8 08 d4 3e
       0.0075559625 -0.008268886 0.34741965 0.41412997
0000c0 79 e4 d4 3e b5 8f a1 3d 33 3c d5 be 58 99 9a bd
       0.4158056 0.07888738 -0.4164749 -0.07548779
0000d0 f2 69 cc 3e 06 a8 80 3c 29 0a 8c be 43 0b 9c 3e
       0.3992458 0.01570512 -0.27351502 0.30477342
0000e0 cc e3 95 bc 28 d2 9c be c1 82 9d bd 27 61 af bd
       -0.018297099 -0.30629086 -0.07690955 -0.08563452
0000f0 91 b9 cb 3d 16 cc 79 3e 2c 53 26 be 54 bf 22 3e
       0.09947503 0.24394259 -0.16242665 0.15893298

branch.net.net.10.weight f4 [64, 64]
000000 f1 ae b7 bc 97 1f 4a 3d 1e 0c 69 3e 22 b6 ed bd
       -0.022422286 0.049346533 0.22758529 -0.11607005
000010 24 c1 79 3e 02 e1 1f 3e 57 45 93 be 13 e8 8b be
       0.24390084 0.15613177 -0.2876384 -0.27325496
000020 e0 68 c3 bd 86 52 1c 3b d6 a8 1a be cf f7 08 3e
       -0.09541488 0.0023852899 -0.15103468 0.13375781
000030 f6 df 85 bd 27 e2 e9 bd 8f 14 63 bd d7 5a d2 be
       -0.06536858 -0.11420088 -0.055439528 -0.4108493
000040 81 0b 36 3e ef cc 7f 3d 6a e5 5e 3b ef 1f e6 be
       0.17777826 0.0624513 0.0034011253 -0.44946238
000050 36 82 90 3e 1a 36 94 bd 95 f8 2e 3d 2f 56 52 be
       0.28224343 -0.072368816 0.042717535 -0.20540689
000060 de 1d d9 3c a0 c8 d7 3e 81 19 8c 3d ef 06 96 3e
       0.0265035 0.42145252 0.06840802 0.29302165
000070 04 2c 38 be 1a 35 a1 bd f7 af 25 3e b8 15 44 3e
       -0.1798554 -0.078714564 0.16180407 0.1914891
000080 09 a0 c4 3d 77 55 47 3e ab 24 14 be d8 14 96 3e
       0.09600837 0.19466196 -0.14467113 0.29312778
000090 aa b8 37 be 5a ce 49 be 22 76 bc 3e 30 dd d7 bd
       -0.17941537 -0.19707623 0.36808878 -0.10540235
0000a0 3a 12 e0 bc a4 36 67 bc b9 29 a4 3e 91 f7 0b be
       -0.027352441 -0.014112148 0.32063082 -0.13668658
0000b0 aa f6 3d bc 79 0c 5a bd 28 0b 13 bd ce db 06 bd
       -0.011594454 -0.05323455 -0.03589931 -0.032924466
0000c0 07 57 e4 bd e3 87 52 be 28 74 2a bf 65 9e 02 3e
       -0.11149412 -0.20559649 -0.6658349 0.12755735
0000d0 7b 12 b4 3c 22 71 3b 3e 3e b0 8c 3d 3b 22 c4 3d
       0.021981468 0.18304875 0.06869553 0.095768414
0000e0 10 6a 9a bc f5 0b 0c 3e 9d c1 34 3e 35 23 4b be
       -0.018849403 0.13676436 0.17651983 -0.19837649
0000f0 fe 96 95 3e ba e6 7d 3d 0b 17 9f 3c 03 f8 84 bc
       0.2921676 0.061987616 0.019420167 -0.016231542
000100 18 18 79 bd 4f a6 45 be 77 9a 4e 3e e0 9a d4 bd
       -0.060813993 -0.19301723 0.20176111 -0.103811026
000110 06 32 09 bd 75 2a 5f bd 7f f6 42 bc 7e bb a2 39
       -0.03349497 -0.05448385 -0.01189959 0.0003103874
000120 7f 44 da bd 7a 23 c4 3d cf be f2 bd d4 b6 d7 3c
       -0.10657596 0.09577079 -0.118528 0.026332296
000130 0c 64 be 3d b4 bc f7 3d 2a 94 a6 bd 5a e5 e0 3d
       0.09296426 0.12096539 -0.08133729 0.10981245
000140 c4 87 39 3c 58 33 23 3e 6e 1d bb 3d e7 74 d8 3d
       0.011323873 0.15937555 0.09136473 0.10569172
000150 d3 a7 b0 bc cd 0a c9 bd 4f b4 1f be e7 2b 00 bd
       -0.0215644 -0.09816513 -0.15596126 -0.03129187
000160 c5 2e 38 3d 40 a9 1f 3d de fe 9c 3d fa d5 04 3e
       0.044966478 0.03897977 0.076657996 0.1297225
000170 ab 59 c9 3d e3 29 19 be d7 b2 2d 3e fa 59 70 3d
       0.09831556 -0.14957385 0.16962753 0.05867956
000180 f6 9d 13 be 1e 5e 84 bc 30 41 d0 3d fc e8 0c 3e
       -0.14415726 -0.01615816 0.101686835 0.13760751
000190 5b a5 0d be 00 78 6e 3c 4d 82 16 be 36 58 e3 3d
       -0.1383261 0.014554977 -0.14698143 0.11100809
0001a0 03 ee f9 ba df 13 f8 bd 98 02 34 bd c6 be 0f 3e
       -0.0019068125 -0.12113165 -0.043947786 0.14037618
0001b0 58 bd 59 3d 0f a9 52 3e ed d0 b0 3d 2a 4b 1d 3e
       0.053159088 0.20572303 0.086335994 0.15360704
0001c0 32 71 44 3e e2 16 87 3d 26 5c 23 bd c5 b0 1c be
       0.19183806 0.065961614 -0.0398828 -0.15301807
0001d0 e2 e1 31 3e a9 41 db 3d b3 10 d9 bd 08 1f 4d 3e
       0.17371324 0.10705883 -0.10598888 0.20031369
0001e0 6d 62 34 3c 29 19 aa 3c 7c 54 e0 bd ae dc bc bd
       0.011009795 0.02076395 -0.10953614 -0.09221779
0001f0 00 f7 98 3c ae d8 89 3d 1c c0 b3 bd 92 6e d6 bd
       0.018672466 0.067307815 -0.08776876 -0.10470308
000200 53 e5 81 bd 50 b7 6d 3e e9 42 3c bd 13 0f b9 3d
       -0.06342568 0.2321446 -0.045962248 0.09036078
000210 f9 c3 38 3d a7 bf 9f bd 0b 9d eb 3b c5 38 2a bd
       0.04510877 -0.07800227 0.007190352 -0.041558046
000220 ca 4e 5a 3d 09 68 40 3d 74 7b 23 3e af 79 21 be
       0.053297795 0.046974216 0.15965062 -0.15769075
000230 bb 3e 12 3e 67 d5 84 be 7a 0a d5 bd 36 e3 00 bd
       0.14281742 -0.25944063 -0.10402389 -0.031466685
000240 84 bc 2a be 4b d2 34 be a2 fd 96 3b 5e 15 c5 bd
       -0.16673476 -0.17658345 0.004607872 -0.09623216
000250 f2 1a 94 bd bb 4a 2c 3e ac 5c b2 3d ed 02 20 3d
       -0.07231702 0.16825382 0.08709082 0.03906529
000260 c4 29 c9 bd 4c 40 c0 bd 8c 6d 44 be 87 cd 60 3e
       -0.09822419 -0.09387264 -0.19182414 0.21953402
000270 03 43 bb bd 92 a0 94 3e 32 62 1b be 09 31 1c be
       -0.09143641 0.29028755 -0.15174177 -0.1525308
000280 81 80 0d 3d 7b f6 21 3e 08 4c 6c bd 36 6d 9c bd
       0.03454638 0.15816681 -0.057689697 -0.07638018
000290 e2 73 12 3e ec dc 9d bd 2c c2 04 3e 03 5b 42 be
       0.14302018 -0.07708153 0.12964696 -0.1898003
0002a0 64 11 35 bd ca bb 53 be 08 8f c1 3d 1c ad 33 be
       -0.044206038 -0.20677105 0.09451109 -0.17546505
0002b0 2a ad 9d be b7 21 8d be 04 39 93 3d f6 53 45 bd
       -0.30796176 -0.27564785 0.07188609 -0.048175775
0002c0 c3 fd 07 3d 45 7b 0e 3e b8 95 23 bd 85 09 44 3d
       0.03320099 0.13914211 -0.039937705 0.04786064
0002d0 dd 3b cf 3d cd 47 49 be f7 d0 1e 3e 49 6b 46 3e
       0.1011884 -0.19656296 0.15509401 0.19376864
0002e0 cc 25 1f bd f3 ed 1e 3e da c3 b3 bc 65 7e 41 be
       -0.038854405 0.15520458 -0.021943975 -0.18895872
0002f0 9e 7b 5d be cb 29 8b bc 8f 67 b0 3d 0e 20 b0 b9
       -0.21629187 -0.016987702 0.08613502 -0.00033593219
000300 b1 18 45 be a8 fd b0 be c0 4a 21 bd b4 03 68 bd
       -0.192477 -0.34568524 -0.039377928 -0.056644157
000310 35 90 66 3c 6f 24 db 3c 22 fc f0 bd 81 9d 54 3d
       0.014072468 0.026750771 -0.117668405 0.05190802
000320 f8 03 d8 bb 6c ce ae be 39 66 70 bd c5 71 c8 bd
       -0.00659227 -0.34141862 -0.058691237 -0.09787325
000330 1f 1e 89 bd c6 d8 31 3d 6a af 8e 3d 8f 68 fc bd
       -0.06695198 0.043419622 0.06967051 -0.123246305
000340 36 00 8e bd e6 97 9f 3c 5e 5e 19 bd 62 4e 17 be
       -0.06933634 0.01948161 -0.03744351 -0.14775994
000350 a5 8e 38 3d de bf 8a bd b6 71 6c bd 07 4b 03 3d
       0.04505791 -0.06774877 -0.05772563 0.032053974
000360 b8 14 8d 3d 76 f7 63 3d 52 fd 80 3e 4e d5 5d bc
       0.068887174 0.05565592 0.25193268 -0.013539625
000370 00 63 bc bc 4e 2e c3 bd e0 47 27 bc 64 17 e6 3c
       -0.022996426 -0.09530316 -0.010210007 0.028087325
000380 0c 3e 8a 3c 05 2e 96 bc 2e bf ab 3d f7 74 f8 3d
       0.01687529 -0.01833249 0.08386074 0.12131684
000390 80 30 1c be d7 2a a2 3d 06 f3 f1 3d 92 7b e1 3c
       -0.15252876 0.07918327 0.11813931 0.027524743
0003a0 e0 5d cd bb 86 00 df bd 72 85 02 be 01 44 b0 bd
       -0.0062672943 -0.10888772 -0.12746218 -0.08606721
0003b0 ac 04 9c 3d 57 b5 98 3e fd ac 01 be fa 57 fd 3d
       0.076180786 0.2982585 -0.12663646 0.12370296
0003c0 19 5a d0 bd 0a 26 09 bc 72 68 23 3c 6d 6b 77 bb
       -0.10173435 -0.008370886 0.009973632 -0.003775324
0003d0 ea d7 0c 3e 9b da 8d 3e 31 1d 0f be 7c 77 ee 3d
       0.1375424 0.27705845 -0.1397598 0.116438836
0003e0 24 5f 09 be 8c f0 11 3e 70 8d 84 3b 0e 06 32 bd
       -0.134152 0.14251918 0.004045181 -0.043462805
0003f0 60 37 ab bc f9 7c 98 3d 72 85 b7 3d 0b 92 2a 3d
       -0.020900428 0.07445712 0.089609995 0.041643184

branch.net.net.10.bias f4 [64]
000000 50 30 a7 bd fd 8a eb 3e ea a1 3d bd bb d8 2f 3e
       -0.08163512 0.46004477 -0.04629699 0.1717252
000010 f9 ab aa bd 88 21 d6 bc 9e 5e a4 3d 7a 16 84 3e
       -0.083335824 -0.026139036 0.08025859 0.25798398
000020 a4 e8 82 3e 57 bc a4 bd c7 6f df bb 62 bb 8d be
       0.25568116 -0.080437355 -0.006818745 -0.27682024
000030 c8 04 1e be 2c 42 7a 3e 31 16 c3 3c c8 7d 31 3e
       -0.15431511 0.24439305 0.023814293 0.17333138
000040 dd 0d 69 3e c9 f1 60 bd ee db 89 be 74 a4 90 3c
       0.22759195 -0.054918084 -0.26925606 0.017656542
000050 5c c9 70 be 4b 74 50 3c 7d 70 d1 3e ca 4f 5e be
       -0.23514313 0.012723039 0.40906134 -0.21710125
000060 4d 14 8d 3e f7 91 0e 3f 68 ba 87 3e de 45 36 3e
       0.2755455 0.55691475 0.26509404 0.1780009
000070 5b 54 d6 3c 40 5c c7 3e 66 d0 58 be 9f 04 55 be
       0.02616327 0.3893757 -0.21173248 -0.20802544
000080 9e 38 32 bd fc 2c 38 be bc 7f a1 bd 0a 88 f2 3d
       -0.043511026 -0.1798591 -0.078856915 0.11842354
000090 03 52 4c 3e ba d4 45 3e 3a 82 ce 3e 4e ab 2c 3e
       0.1995316 0.1931943 0.4033373 0.16862223
0000a0 a6 5d d8 3e f8 ff 86 be 31 05 75 3d dc 71 64 3e
       0.42258948 -0.26367164 0.059819404 0.22309059
0000b0 ec 33 3b 3d ed 0e 99 3e 19 38 d7 be 28 1f 77 3e
       0.045703813 0.298942 -0.42034987 0.24132979
0000c0 0a 24 a8 3e 83 00 36 3e 27 55 35 3e d5 59 d4 bd
       0.32839996 0.17773633 0.17708264 -0.103686966
0000d0 05 7f a3 3e f2 41 c8 3d be 59 1b bf e0 cb e6 3d
       0.31932846 0.09778203 -0.6068381 0.11269355
0000e0 b2 f9 99 3d 6b b5 28 3e 5e b0 7a be 34 fa c4 3e
       0.07518329 0.16475455 -0.24481341 0.3847214
0000f0 77 c7 90 bd 82 1e e1 be 01 15 9b 3d 64 ba 18 3e
       -0.07069295 -0.43968588 0.075723656 0.14914852
