FullOrder/FullOrderReconstruct/FullOrder_20251114_165617_MLP_deeponet_Phys_Batch_HD64_HL5_LR0.01_Pretrain50_Sample0.3_checkpoint.pth (torch, 596346 bytes, 78 tensors)

branch.net.net.0.weight f4 [64, 2]
0.71205616 0.7572123 0.22214684 -0.60232145 0.080132335 0.681696 0.13418171 -0.55709857
-0.2803545 0.5053548 -0.31265265 -0.5025253 -0.06628071 -0.2894242 -0.23460464 -0.3960747
-0.25336403 0.26494125 0.52550954 0.6574983 -0.50748277 0.012802465 -0.036057133 -0.47519165
0.20174137 0.20539567 0.72895765 0.40550452 0.23117286 -0.36990407 -0.15836178 -0.13964666
0.53210443 -0.45335686 -0.3634148 0.5870864 0.3813686 0.49249792 -0.66656303 0.16043575
0.1927259 -0.49818307 -0.32720107 -0.37396774 0.10051128 0.6694491 0.19746253 0.65569705
0.5505189 -0.0825233 -0.13484268 0.09287 -0.061632555 0.51834583 -0.04303062 -0.0708746
0.26239005 0.687735 0.016398162 -0.039061405 -0.12565307 -0.4224018 -0.73107135 -0.20152503
-0.41552252 0.6282691 0.30677086 -0.4018558 -0.65712374 -0.004632401 -0.609422 0.21056361
0.11625464 0.5861905 0.27265227 0.09672978 -0.46811247 0.032305833 -0.5337475 -0.37125888
0.5161561 0.26018503 -0.33469713 0.5446099 -0.72044134 -0.37181625 -0.556197 0.29283702
0.7197151 0.4964076 0.18133387 -0.63277537 -0.5734162 -0.48475698 0.32271314 0.52772593
-0.5344234 0.15809925 -0.46378583 -0.10446876 -0.5920387 0.35464782 0.49097192 -0.2864929
0.24147649 -0.015825735 -0.0397106 -0.4997564 -0.51427794 0.49034703 0.16765128 -0.29143694
-0.39414257 0.60446113 0.4488131 -0.5674562 -0.42523316 0.5904182 0.020254344 -0.5472856
0.5684249 -0.48829645 0.5252763 -0.4231775 -0.27095565 -0.4970499 -0.14994511 -0.2162867
00000000: 5049 363f aad8 413f 767a 633e bd31 1abf
00000010: 6c1c a43d a183 2e3f ee66 093e 039e 0ebf
00000020: a08a 8fbe ef5e 013f 0214 a0be 80a5 00bf
00000030: 2ebe 87bd 692f 94be 333c 70be 4eca cabe
00000040: eeb8 81be 61a6 873e cb87 063f cf51 283f
00000050: 64ea 01bf 6ec1 513c a5b0 13bd 524c f3be
00000060: 4a95 4e3e 3e53 523e f89c 3a3f 4a9e cf3e
00000070: 94b8 6c3e 1164 bdbe 9729 22be 89ff 0ebe
00000080: ff37 083f 641e e8be 8111 babe 4b4b 163f
00000090: bf42 c33e b028 fc3e e0a3 2abf 4549 243e
000000a0: f059 453e da11 ffbe e686 a7be b378 bfbe
000000b0: dcd8 cd3d 0461 2b3f 9e33 4a3e c3db 273f
000000c0: ceee 0c3f fa01 a9bd 3314 0abe a032 be3d
000000d0: 6b72 7cbd 50b2 043f e040 30bd b426 91bd
000000e0: fd57 863e 670f 303f 7055 863c dafe 1fbd
000000f0: 33ab 00be 0c45 d8be 7e27 3bbf 945c 4ebe
00000100: 5ebf d4be 3ed6 203f 1211 9d3e 0bc0 cdbe
00000110: 4339 28bf 65cb 97bb 1503 1cbf fd9d 573e
00000120: ea16 ee3d 9510 163f 1499 8b3e 431a c63d
00000130: 70ac efbe 1f53 043d ada3 08bf a515 bebe
00000140: ce22 043f f936 853e 6c5d abbe 8e6b 0b3f
00000150: d86e 38bf b35e bebe ed62 0ebf bcee 953e
00000160: 403f 383f 2329 fe3e 96af 393e 91fd 21bf
00000170: 67cb 12bf 1132 f8be a83a a53e 0c19 073f
00000180: f9cf 08bf c5e4 213e 5675 edbe b8f3 d5bd
00000190: d98f 17bf 6694 b53e ac60 fb3e 33af 92be
000001a0: 9d45 773e f9a4 81bc 95a7 22bd 12e0 ffbe
000001b0: b8a7 03bf c40e fb3e c7ac 2b3e 3937 95be
000001c0: 0ecd c9be f7bd 1a3f d5ca e53e cf44 11bf
000001d0: 29b8 d9be a625 173f 70ec a53c e91a 0cbf
000001e0: 4b84 113f fe01 fabe 8278 063f b9aa d8be
000001f0: b3ba 8abe 537d febe 368b 19be 437a 5dbe

branch.net.net.0.bias f4 [64]
-0.11911866 0.38893485 0.3341203 0.44684708 0.7090203 0.29309934 -0.09225224 0.5345897
-0.24254668 0.27946493 -0.25917625 -0.67717206 -0.31788456 0.22083321 0.056627717 0.32119188
0.015352888 0.52640444 -0.02281748 0.5522202 0.029681856 0.12264978 0.09587563 0.07396769
-0.40149882 -0.1446091 0.23408566 -0.39659598 0.26040435 0.48857352 0.103505604 -0.37238058
0.38934892 -0.40445536 -0.5082024 -0.40265387 0.57009923 -0.27391842 -0.23327611 0.1763002
0.07990792 -0.20027252 0.43089747 -0.722065 0.46607354 -0.2847245 0.27172616 -0.4267832
0.35104066 -0.30927756 0.58461493 -0.4653286 0.16248158 0.23175761 -0.5973121 0.65096104
-0.26291832 0.61017 -0.5850989 -0.50571996 0.47186178 0.7151437 -0.3872301 0.25182316
00000000: 7cf4 f3bd 7822 c73e d111 ab3e 24c9 e43e
00000010: 5b82 353f 1e11 963e beee bcbd dfda 083f
00000020: 285e 78be 0716 8f3e c0b2 84be 265b 2dbf
00000030: c4c1 a2be 1a22 623e 77f2 673d 4373 a43e
00000040: ae8a 7b3c 71c2 063f b9eb babc 4e5e 0d3f
00000050: 5d27 f33c cf2f fb3d 715a c43d 5f7c 973d
00000060: 4191 cdbe 6814 14be 27b4 6f3e a10e cbbe
00000070: b853 853e 4f26 fa3e bffa d33d aba8 bebe
00000080: be58 c73e c614 cfbe 8d19 02bf a628 cebe
00000090: 06f2 113f 093f 8cbe efdf 6ebe 0a88 343e
000000a0: c3a6 a33d 3d14 4dbe 989e dc3e 40d9 38bf
000000b0: 31a1 ee3e 69c7 91be b11f 8b3e 5483 dabe
000000c0: 9abb b33e a159 9ebe 53a9 153f 8d3f eebe
000000d0: 9261 263e de51 6d3e 72e9 18bf 62a5 263f
000000e0: 3b9d 86be 1a34 1c3f 0bc9 15bf dd76 01bf
000000f0: de97 f13e a813 373f 0643 c6be f7ee 803e

branch.net.net.2.weight f4 [64, 64]
0.053145353 0.17447548 0.056412015 -0.036690235 -0.09918224 -0.01793508 0.07149607 -0.18683314
-0.1743378 0.09227558 -0.11697106 0.030808989 0.08789113 -0.012658086 -0.0027653656 0.008009726
0.14253233 -0.07150595 0.008956299 -0.1005042 -0.033828545 -0.10553079 -0.043741208 -0.13509233
0.18251383 -0.14232804 -0.030431507 0.07161446 0.0032370433 -0.16718286 -0.04800153 -0.14899623
0.06937995 0.0466427 0.01616725 -0.1628427 -0.08387733 0.184185 -0.15121874 0.009865154
0.19177064 -0.1693786 -0.20493951 -0.014146311 0.14620268 -0.032771487 -0.041552115 0.09704894
0.021431178 0.0060591153 -0.11438831 0.045570493 0.10220112 0.16995221 -0.031104317 0.069052674
0.015388201 0.17819576 -0.18282689 -0.053677503 0.028903354 0.020861514 0.070417926 -0.14870143
-0.16122434 0.01904047 0.070646316 0.03167598 0.12131586 -0.11962205 0.06671219 0.010229841
0.0137404315 -0.19409272 0.11663807 0.10687181 -0.16052994 -0.19198258 -0.11802269 0.104454495
-0.00273208 0.10418539 -0.18394177 0.0141229 -0.014445312 0.09248939 -0.07433726 -0.04031733
-0.005650312 -0.030398075 -0.08745925 -0.012017299 -0.08486914 -0.059142675 0.048070475 -0.015895132
0.00914802 0.023951463 0.13081487 0.15971425 0.020921024 -0.17777964 0.003224935 -0.009352416
-0.18083936 0.06435322 0.08588484 0.15448497 -0.17547141 -0.14679924 0.10624806 -0.0036043017
-0.023076773 -0.028520925 -0.060627278 -0.09832918 -0.1703226 -0.096602336 0.11332745 -0.14663778
-0.05909896 -0.014320194 0.14215307 0.07193663 -0.05443966 -0.12183813 -0.000104467195 0.044985652
-0.077752836 0.08248592 -0.14808477 -0.05604657 -0.19804579 -0.08591538 0.11404552 -0.035402536
-0.06932899 -0.047791224 0.059264507 0.28221098 0.004958827 -0.20925991 0.024013512 -0.18785118
0.034115285 -0.2598693 -0.14726214 -0.22292097 0.13748983 0.08582112 -0.13441262 -0.10644424
0.26024896 -0.070224084 -0.14338818 0.23217513 -0.23157956 0.04806936 0.00766786 0.10505226
-0.264804 0.28685558 0.0933113 0.040939927 -0.3507517 0.008977861 -0.075005606 -0.0047045327
-0.015605411 -0.008561053 0.01813622 0.05438464 -0.23388183 0.29992062 0.113620244 -0.09439301
-0.062907 0.01977249 -0.14493957 0.33645537 -0.026904058 0.08281004 0.0038914888 -0.097737424
-0.030567097 -0.07396996 -0.12349687 0.37394297 -0.0881429 0.071542904 0.23208137 0.022212008
0.20179401 -0.007162735 0.041482706 -0.05213857 0.10183696 0.026749171 -0.14908938 -0.11602457
0.11408722 0.15545557 -0.08535258 -0.06633146 0.08724019 0.07668612 -0.00021494868 -0.19077243
0.023215774 0.11570078 0.005983759 -0.13868493 -0.07974172 -0.27637258 0.09251793 -0.029257279
0.11950512 0.022900106 0.0134680495 0.00601577 0.11459489 0.08005965 -0.11195655 0.014233196
-0.01304092 -0.004839753 0.07598244 0.045396674 0.13284373 0.098126225 -0.020497583 -0.24204625
0.15636471 0.06905125 -0.11729038 -0.078984335 0.1488846 -0.021313796 -0.13341634 0.15537727
0.007405712 -0.07555 -0.10253848 0.10025524 -0.10942281 -0.011919071 0.10841245 0.05662385
0.07974427 0.0067447447 -0.04292804 0.018608978 0.10573646 0.09932444 0.045381837 -0.18371028
00000000: f1ae 593d b3a9 323e 4910 673d 8048 16bd
00000010: 0f20 cbbd 97ec 92bc 886c 923d 3051 3fbe
00000020: 9c85 32be fbfa bc3d 868e efbd 2263 fc3c
00000030: 4400 b43d dc63 4fbc 233b 35bb 3a3b 033c
00000040: fff3 113e b671 92bd 71bd 123c 25d5 cdbd
00000050: cd8f 0abd 8720 d8bd fb29 33bd a555 0abe
00000060: e8e4 3a3e 71be 11be 7f4b f9bc 9aaa 923d
00000070: 9324 543b fc31 2bbe 419d 44bd 7892 18be
00000080: 1317 8e3d 6a0c 3f3d 2e71 843c 3dc0 26be
00000090: e1c7 abbd fe9a 3c3e 16d9 1abe 74a1 213c
000000a0: 865f 443e 9571 2dbe aadb 51be eec5 67bc
000000b0: 28b6 153e 653b 06bd 8d32 2abd 98c1 c63d
000000c0: 7090 af3c 8b8b c63b 6b44 eabd 20a8 3a3d
000000d0: d24e d13d f407 2e3e 7bce febc 7d6b 8d3d
000000e0: cb1e 7c3c f378 363e f936 3bbe f1dc 5bbd
000000f0: bac6 ec3c c4e5 aa3c 4637 903d 3045 18be
00000100: fe17 25be c2fa 9b3c 04af 903d acbe 013d
00000110: 7374 f83d 68fc f4bd 67a0 883d 109b 273c
00000120: 8c1f 613c 3ec0 46be f1df ee3d 9cdf da3d
00000130: f661 24be 1597 44be e1b5 f1bd 3dec d53d
00000140: b20c 33bb 265f d53d 3b5b 3cbe bc63 673c
00000150: 08ac 6cbc 146b bd3d 223e 98bd c923 25bd
00000160: 4126 b9bb 6205 f9bc d61d b3bd 35e4 44bc
00000170: dfcf adbd 973f 72bd 8ce5 443d 8236 82bc
00000180: 94e1 153c dc35 c43c 55f4 053e 228c 233e
00000190: 9162 ab3c de0b 36be 6e59 533b e03a 19bc
000001a0: f42d 39be 9fcb 833d 64e4 af3d 4f31 1e3e
000001b0: c7ae 33be 8a52 16be 9598 d93d 2636 6cbb
000001c0: 800b bdbc b7a4 e9bc 4f54 78bd cf60 c9bd
000001d0: 0c69 2ebe 72d7 c5bd 3918 e83d 3728 16be
000001e0: c011 72bd 3f9f 6abc 9390 113e 8353 933d
000001f0: 1ffc 5ebd 4586 f9bd 6615 dbb8 e042 383d
00000200: e13c 9fbd 61ee a83d 89a3 17be 1791 65bd
00000210: 84cc 4abe 67f4 afbd b390 e93d 4002 11bd
00000220: 5cfc 8dbd bbc0 43bd 57bf 723d f57d 903e
00000230: a87d a23b 3b48 56be fcb7 c43c 0f5c 40be
00000240: 78bc 0b3d 970d 85be e3cb 16be 6545 64be
00000250: 22ca 0c3e fcc2 af3d 76a3 09be 70ff d9bd
00000260: 5a3f 853e a5d1 8fbd 5ad4 12be 51bf 6d3e
00000270: 3123 6dbe 61e4 443d ac42 fb3b a425 d73d
00000280: 6494 87be bcde 923e ff19 bf3d a0b0 273d
00000290: ba95 b3be e117 133c 8a9c 99bd 7b28 9abb
000002a0: d6ad 7fbc a943 0cbc 6992 943c 6ec2 5e3d
000002b0: b87e 6fbe 328f 993e bbb1 e83d 1f51 c1bd
000002c0: 63d5 80bd ebf9 a13c 0a6b 14be e143 ac3e
000002d0: e665 dcbc 4f98 a93d 5908 7f3b 8f2a c8bd
000002e0: d967 fabc 907d 97bd edeb fcbd 7475 bf3e
000002f0: 4484 b4bd 1685 923d bda6 6d3e f5f5 b53c
00000300: 17a3 4e3e 60b5 eabb c5e9 293d 418f 55bd
00000310: e58f d03d 1421 db3c e3aa 18be 4a9e edbd
00000320: 8fa6 e93d bf2f 1f3e 55cd aebd cad8 87bd
00000330: fcaa b23d 9d0d 9d3d d963 61b9 d959 43be
00000340: 022f be3c 88f4 ec3d 6913 c43b 6c03 0ebe
00000350: a04f a3bd b580 8dbe 0a7a bd3d f6ac efbc
00000360: 1abf f43d 0199 bb3c 18a9 5c3c f01f c53b
00000370: bab0 ea3d 50f6 a33d 7a49 e5bd 5a32 693c
00000380: 95a9 55bc ca96 9ebb ae9c 9b3d ddf1 393d
00000390: 3008 083e 67f6 c83d 8cea a7bc f9da 77be
000003a0: 121e 203e be6a 8d3d f035 f0bd 8ac2 a1bd
000003b0: 3475 183e 459a aebc 4b9e 08be 381b 1f3e
000003c0: 9dab f23b f5b9 9abd b2ff d1bd 9f52 cd3d
000003d0: 1119 e0bd 3548 43bc 5907 de3d 69ee 673d
000003e0: f750 a33d 0503 dd3b 50d5 2fbd db71 983c
000003f0: 5b8c d83d 9d6a cb3d 4ee2 393d 8c1e 3cbe

branch.net.net.2.bias f4 [64]
-0.008580808 -0.096090704 -0.1733779 0.012861957 0.16731368 0.07380965 -0.0118383765 0.09968063
0.13047479 -0.017722467 -0.0038547632 -0.11674306 -0.10171382 0.12302374 -0.024750914 -0.1202835
-0.1904132 0.009673305 -0.09850192 -0.2343515 0.052790217 -0.017695589 -0.02186389 0.17190126
0.03344665 0.27503854 -0.026562182 0.1396291 0.060306273 -0.120401636 0.2149907 0.14688225
-0.027732445 -0.061817702 0.03603705 -0.078114375 0.03336965 -0.08332705 -0.17482409 -0.008528974
0.114688024 0.08399275 0.083898716 0.021000437 0.0011663839 -0.11050537 -0.012535387 0.049933627
-0.2183989 0.14785369 -0.045358762 0.010801476 0.11601585 0.1757818 0.09851175 -0.004107646
-0.11272193 -0.02458586 -0.001782251 -0.038637523 0.07540938 0.10187805 -0.08415765 -0.049022924
00000000: 8496 0cbc 34cb c4bd fa89 31be f5ba 523c
00000010: 4754 2b3e 8429 973d c0f5 41bc 5c25 cc3d
00000020: 2f9b 053e b52e 91bc 32a0 7cbb fc16 efbd
00000030: 564f d0bd dff3 fb3d 6ec2 cabc 3257 f6bd
00000040: aefb 42be c87c 1e3c 60bb c9bd d7f9 6fbe
00000050: 8e3a 583d 57f6 90bc e71b b3bc e206 303e
00000060: 5bff 083d dad1 8c3e ef98 d9bc eefa 0e3e
00000070: b603 773d 2295 f6bd 8626 5c3e 4d68 163e
00000080: 272f e3bc 8f34 7dbd 969b 133d 6efa 9fbd
00000090: 9dae 083d 5fa7 aabd 1605 33be 1cbd 0bbc
000000a0: 8ee1 ea3d 6404 ac3d 17d3 ab3d 1c09 ac3c
000000b0: 59e1 983a a450 e2bd 3961 4dbc 3487 4c3d
000000c0: f6a3 5fbe f566 173e 1cca 39bd adf8 303c
000000d0: b899 ed3d 2500 343e 87c0 c93d 6f99 86bb
000000e0: c1da e6bd 4968 c9bc 6c9a e9ba 6142 1ebd
000000f0: 3c70 9a3d 70a5 d03d d95a acbd 43cc 48bd

branch.net.net.4.weight f4 [64, 64]
-0.21884404 0.14730394 -0.1897412 0.03027442 0.0039721453 -0.0646265 -0.040140733 0.062740676
-0.002295553 -0.059301637 -0.01983978 -0.015161316 -0.068527274 0.10600227 0.08240285 0.08817642
0.054892167 -0.086303666 -0.07415837 -0.044336405 0.06445505 -0.23073469 -0.09025128 -0.028941268
-0.22227877 0.104840145 0.05021247 -0.11226056 0.18186198 0.05817783 -0.06767369 -0.10470711
0.028553342 0.18626009 0.09902217 0.12041181 0.057928808 -0.09500712 0.027567435 0.07872967
0.05189502 -0.2071541 -0.047356382 -0.037030917 -0.050292365 4.702147e-05 0.026458591 -0.05244674
0.041008532 0.0041811583 -0.14053741 0.18781237 0.093127355 -0.027396843 -0.0072175814 -0.13027221
0.05294316 -0.0061100353 -0.038875535 -0.020410635 0.22288749 0.043444034 -0.017988687 -0.05556456
-0.011341096 -0.059644498 -0.10358345 -0.13916092 0.0924071 -0.15831031 -0.11737604 0.10859735
0.06356345 -0.11299163 -0.099626556 0.0075608925 -0.079714336 0.082496144 -0.006030394 0.07835162
-0.14129542 -0.11549241 -0.0056159124 0.06378314 0.0030685368 -0.27111745 -0.2254778 0.027976703
-0.14136449 0.13327679 0.051863443 -0.08359087 0.16770831 0.034412246 0.059376165 -0.064500086
0.10408591 -0.030395951 0.08971346 -0.05822943 -0.10391743 0.04115901 0.11313341 -0.07752132
-0.029651152 -0.12606026 -0.049577847 -0.049967874 -0.010112642 -0.0560799 0.021099864 0.00135568
-0.040300958 -0.01491175 -0.15212168 -0.024457207 0.044604596 -0.031106312 0.010585317 -0.14643668
-0.10843017 -0.015066843 -0.08271211 0.0032447563 0.16234656 0.052160706 4.8298687e-05 0.06706302
-0.101640835 0.02248636 0.093934044 -0.088581614 0.116918005 -0.18772903 -0.11313413 0.12697949
0.10520009 -0.08759516 0.1698203 -0.2179878 0.116671614 0.20031784 -0.024137434 0.011169631
-0.31954804 -0.008598098 0.0031198228 -0.15270962 -0.16207834 0.16517791 0.13365428 0.0055564083
0.06423172 0.19194269 0.2490098 0.00031720378 -0.016650245 -0.35360664 0.13295934 -0.10294734
-0.17811655 -0.086572886 0.09591237 0.021851879 -0.040840432 0.25263768 0.16192514 0.028110117
0.20930916 0.05880233 0.11303815 -0.114968084 0.07559177 -0.2451746 -0.19821459 0.25129882
-0.021953637 0.14468126 -0.07017202 -0.02820842 -0.085742466 0.12598492 0.003936749 -0.12110776
0.02036692 0.37480205 0.17691836 0.1930407 -0.04260542 0.25530127 0.12748812 -0.082476705
0.07175834 -0.03319722 -0.15838745 0.15191247 0.1561901 -0.112499 -0.058865353 0.06475274
-0.11700908 -0.0010095799 -0.06657023 0.06055009 0.05277575 -0.09456565 0.0071167536 0.021846578
0.01822586 -0.11512225 -0.019758403 0.04455555 0.104319334 -0.24187835 -0.058681354 0.036598884
-0.16330001 0.19933102 -0.11396972 -0.14329858 0.14905356 0.03318866 -0.08802127 -0.20709118
0.11429534 -0.044962414 0.020547127 0.074353874 0.10040026 0.0351204 -0.036977056 -0.04006397
-0.13758124 -0.08270302 0.01239306 0.12612396 -0.007687067 -0.069716565 0.073039256 0.026253045
0.21631284 0.12356149 -0.034026727 0.15898225 0.07169265 -0.032839715 -0.20708914 -0.23107332
-0.10122043 -0.0234887 -0.13341679 -0.051501926 -0.01569073 0.06688122 -0.17420907 -0.10731492
00000000: a718 60be d8d6 163e 844b 42be 0f02 f83c
00000010: c528 823b e65a 84bd 9c6a 24bd 2f7e 803d
00000020: fd70 16bb 46e6 72bd 0987 a2bc 2b67 78bc
00000030: 0758 8cbd b817 d93d d3c2 a83d d795 b43d
00000040: 9cd6 603d fabf b0bd 58e0 97bd 179a 35bd
00000050: 0201 843d b745 6cbe aad5 b8bd 3d16 edbc
00000060: 0c9d 63be 6eb6 d63d 97ab 4d3d dde8 e5bd
00000070: 073a 3a3e e04b 6e3d 8198 8abd ae70 d6bd
00000080: b3e8 e93c f7ba 3e3e 23cc ca3d 789a f63d
00000090: c246 6d3d 1893 c2bd 1ad5 e13c 053d a13d
000000a0: df8f 543d 3420 54be c4f8 41bd bbad 17bd
000000b0: 5eff 4dbd eb38 4538 b0bf d83c 65d2 56bd
000000c0: 90f8 273d 1902 893b 0ae9 0fbe e351 403e
000000d0: 8eb9 be3d 586f e0bc 7681 ecbb 1466 05be
000000e0: edda 583d b136 c8bb f43b 1fbd 3434 a7bc
000000f0: 9e3c 643e 5ff2 313d 035d 93bc aa97 63bd
00000100: 01d0 39bc ca4d 74bd 8f23 d4bd 3380 0ebe
00000110: ef3f bd3d 191c 22be d962 f0bd 4a68 de3d
00000120: 8e2d 823d 2868 e7bd 0209 ccbd 5dc1 f73b
00000130: 4541 a3bd bdf3 a83d 9d9a c5bb d076 a03d
00000140: bfaf 10be 4987 ecbd b005 b8bb bca0 823d
00000150: 8119 493b e8cf 8abe a7e3 66be 662f e53c
00000160: dac1 10be b679 083e c36e 543d b131 abbd
00000170: babb 2b3e dbf3 0c3d 6c34 733d 9f18 84bd
00000180: fe2a d53d ee00 f9bc b1bb b73d fc81 6ebd
00000190: a9d2 d4bd 5a96 283d 7db2 e73d 7fc3 9ebd
000001a0: f9e6 f2bc f115 01be 2412 4bbd 1dab 4cbd
000001b0: 7faf 25bc 0ab4 65bd 9fd9 ac3c 13b1 b13a
000001c0: 9e12 25bd 6a50 74bc c9c5 1bbe 7b5a c8bc
000001d0: 4fb3 363d aad2 febc 0a6e 2d3c 7ff3 15be
000001e0: a310 debd ebda 76bc f764 a9bd faa5 543b
000001f0: 2d3e 263e 77a6 553d 5294 4a38 5658 893d
00000200: 1229 d0bd 5135 b83c 7e60 c03d 476a b5bd
00000210: b572 ef3d 0a3c 40be deb2 e7bd e906 023e
00000220: 2573 d73d 1765 b3bd 5fe5 2d3e 3238 5fbe
00000230: 87f1 ee3d 1f20 4d3e debb c5bc d400 373c
00000240: cd9b a3be 09df 0cbc f175 4c3b e95f 1cbe
00000250: ddf7 25be 6624 293e abdc 083e 8812 b63b
00000260: ec8b 833d a08c 443e 6dfc 7e3e 5f4e a639
00000270: 1866 88bc ee0b b5be 7e26 083e 0ed6 d2bd
00000280: 2f64 36be 204d b1bd b46d c43d b602 b33c
00000290: 4c48 27bd ba59 813e b4cf 253e 3047 e63c
000002a0: 2455 563e b6da 703d 8c80 e73d 6374 ebbd
000002b0: dccf 9a3d 0d0f 7bbe c4f8 4abe 3daa 803e
000002c0: 1dd8 b3bc 5327 143e 59b6 8fbd 5815 e7bc
000002d0: bf99 afbd 3102 013e d8ff 803b 5807 f8bd
000002e0: 87d8 a63c 0ee6 bf3e 162a 353e 76ac 453e
000002f0: 0583 2ebd d9b6 823e 3f8c 023e 8ce9 a8bd
00000300: 09f6 923d cff9 07bd 5230 22be f18e 1b3e
00000310: 4cf0 1f3e e065 e6bd cc1c 71bd 169d 843d
00000320: 75a2 efbd e153 84ba f955 88bd 5f03 783d
00000330: 632b 583d a3ab c1bd a833 e93b 98f7 b23c
00000340: 664e 953c 37c5 ebbd 60dc a1bc e17f 363d
00000350: 60a5 d53d f5ae 77be dc5b 70bd b6e8 153d
00000360: 1e38 27be 6e1d 4c3e f568 e9bd ddbc 12be
00000370: 7fa1 183e d5f0 073d 7f44 b4bd b60f 54be
00000380: ad13 ea3d 822a 38bd 7352 a83c d846 983d
00000390: a79e cd3d 69da 0f3d 4175 17bd 1e1a 24bd
000003a0: 19e2 0cbe 3360 a9bd 430c 4b3c a426 013e
000003b0: cbe3 fbbb 8fc7 8ebd 9b95 953d a010 d73c
000003c0: 1d81 5d3e ce0d fd3d 9c5f 0bbd 3ecc 223e
000003d0: 99d3 923d f082 06bd 2d0f 54be 7c9e 6cbe
000003e0: a84c cfbd 606b c0bc 699e 08be aff3 52bd
000003f0: d989 80bc 05f9 883d dd63 32be edc7 dbbd

branch.net.net.4.bias f4 [64]
0.029735096 0.031919893 -0.01591033 0.14970854 -0.007224759 -0.0006251288 0.24733093 0.1002532
-0.1356171 0.21721496 -0.01244118 0.20581214 0.078703634 -0.02740477 0.015536393 0.14496005
0.05453331 0.036515065 0.08883883 -0.17720471 -0.09240948 0.076673426 -0.14130518 -0.019046756
-0.06416289 0.045896117 -0.022626882 -0.1262796 0.27993208 0.08887022 0.13628067 0.1410976
-0.17000502 -0.11326755 -0.15491104 -0.0021647187 -0.14781967 0.24093373 0.032515172 -0.05058007
0.051055096 0.055015296 0.20063561 0.10201584 0.073498696 0.2886951 0.24008797 0.099772826
-0.031943012 0.16536175 -0.04667968 -0.05491538 0.015750743 0.11175621 -0.048536617 -0.017606622
-0.09250636 0.012007394 -0.0013714778 -0.117505446 0.117357016 0.031246278 -0.16918957 0.20563805
00000000: 0497 f33c 6fbe 023d 6156 82bc 324d 193e
00000010: acbd ecbb afdf 23ba 5244 7d3e 8d51 cd3d
00000020: 36df 0abe 996d 5e3e 17d6 4bbc 6bc0 523e
00000030: 5f2f a13d f87f e0bc 5b8c 7e3c 6870 143e
00000040: 525e 5f3d d290 153d 22f1 b53d 2775 35be
00000050: 2e41 bdbd f506 9d3d 4eb2 10be f107 9cbc
00000060: d567 83bd 91fd 3b3d 035c b9bc 714f 01be
00000070: 4253 8f3e 9701 b63d 298d 0b3e e47b 103e
00000080: cc15 2ebe d1f8 e7bd 00a1 1ebe f4dd 0dbb
00000090: 0a5e 17be 55b7 763e a12e 053d 0c2d 4fbd
000000a0: 261f 513d b857 613d 6c73 4d3e aeed d03d
000000b0: 7c86 963d d8cf 933e 9fd9 753e b255 cc3d
000000c0: add6 02bd 9754 293e 3133 3fbd f3ee 60bd
000000d0: b407 813c 71e0 e43d 55ce 46bd c33b 90bc
000000e0: f973 bdbd a9ba 443c 29c3 b3ba b2a6 f0bd
000000f0: e058 f03d 32f8 ff3c 0840 2dbe c892 523e

branch.net.net.6.weight f4 [64, 64]
0.17973514 0.22304644 -0.22632062 0.15365726 -0.18858506 -0.024274603 0.0019980855 0.018355494
0.11747833 -0.17586477 -0.0169829 0.16403034 -0.0026986585 0.021504268 0.21448812 -0.0570743
-0.12748465 -0.049993142 -0.08695636 -0.0139758345 -0.06327872 0.24633703 0.14273092 0.052145958
-0.24038397 0.2104946 -0.020625634 -0.04153931 -0.045057926 -0.039727107 -0.03022726 0.072018296
-0.06663351 -0.17986374 -0.19894697 -0.05675164 -0.08540993 -0.28097445 -0.26550892 0.02270532
0.15384576 0.08695597 0.11257878 0.21690662 0.008216202 -0.02335784 0.06358642 -0.15459977
-0.26862752 -0.025948547 -0.14411175 -0.18577582 -0.0760354 0.016247818 -0.06261504 0.05714641
-0.009619006 -0.17745551 0.0023175376 -0.018624399 0.13692592 0.058746047 -0.04978841 -0.18708056
-0.009975739 0.059063356 -0.019794455 0.035790887 0.008362754 -0.13935001 -0.16391751 -0.039616026
0.14121808 -0.1803291 0.06894776 0.095525905 -0.015824795 -0.16771246 0.1582616 -0.09000745
-0.016172059 0.1386028 -0.20305441 -0.09182904 -0.007580829 -0.1100939 -0.060423475 -0.12138911
-0.09652549 0.046032712 -0.13468444 -0.013833824 -0.048115388 0.033535313 0.01809992 0.0802513
-0.04863591 -0.03354595 -0.13809858 -0.027287204 0.045572467 -0.18530856 -0.026041977 0.016054003
0.02884695 -0.06928669 -0.28293502 0.050715443 0.058677517 -0.28596276 -0.122271344 -0.013849862
0.32662043 -0.0844413 0.007551413 -0.0040910267 0.3123214 -0.06510935 0.045653414 0.0866937
-0.16078599 -0.17636687 0.11328117 0.046523172 0.11961342 0.0690806 -0.008381962 -0.121136166
0.055914108 -0.10081646 0.021261565 -0.07485008 -0.054610554 -0.078284934 0.07780289 -0.17032532
0.07414006 0.12673578 -0.25247163 -0.03785427 -0.23396336 -0.1925997 -0.11163808 0.16661157
0.04149159 0.05993219 -0.14476335 0.11237797 -0.045483876 -0.056781515 -0.029326575 -0.23318423
-0.031880464 0.009978346 0.09017099 0.05969831 -0.12525697 -0.05602198 -0.01807771 0.091466
-0.069216006 0.08390205 -0.076925285 0.1067202 0.028177537 0.098547556 0.021022717 -0.012926476
-0.019719055 -0.07467627 -0.08337714 -0.094004124 0.13457724 -0.013819715 0.066698216 0.0071077007
0.058565013 0.08772878 -0.035704404 0.028082477 0.04374565 0.018207638 -0.06317762 -0.028322803
-0.122788906 0.086645 0.11796897 -0.26929006 0.030309234 -0.06093504 0.07023853 0.026108846
-0.05594639 0.0778173 -0.17519528 0.13872755 0.13141173 0.099797964 0.02071716 -0.02015454
-0.09201161 -0.008593577 0.066827714 0.035232395 -0.18561314 0.10641737 -0.09564553 0.13712963
0.022063943 0.21160117 0.13908601 0.13446844 0.03527492 0.013456478 0.110552385 -0.03272157
-0.0026972734 -0.13977373 0.08581872 -0.07242521 -0.065131135 -0.0006640926 -0.024868634 0.058254786
-0.047481887 0.020076588 -0.099036194 -0.122254655 -0.12421394 -0.36956352 -0.05164488 -0.06303533
0.095752835 -0.24029356 0.12804428 0.051510952 0.14736992 0.09388402 0.03242962 -0.09061281
-0.46542758 0.0618664 -0.05123032 -0.17174472 0.0036783253 0.07100734 -0.030540757 0.14577666
0.018795606 0.0016881427 -0.18362309 -0.099085644 0.050028313 0.06391551 -0.09675703 -0.06258808
00000000: 7d0c 383e 4966 643e 98c0 67be 5458 1d3e
00000010: 711c 41be 88db c6bc 50f2 023b 435e 963c
00000020: 7b98 f03d e515 34be b91f 8bbc 92f7 273e
00000030: fadb 30bb b829 b03c c6a2 5b3e bec6 69bd
00000040: 568b 02be 9cc5 4cbd 2d16 b2bd e6fa 64bc
00000050: 4698 81bd c63f 7c3e 0e28 123e 0097 553d
00000060: 3727 76be e58b 573e 17f7 a8bc 2025 2abd
00000070: a98e 38bd e4b8 22bd 299f f7bc 547e 933d
00000080: 2677 88bd 332e 38be c1b8 4bbe 6874 68bd
00000090: 67eb aebd e2db 8fbe c9f0 87be 8200 ba3c
000000a0: be89 1d3e f915 b23d b48f e63d c51c 5e3e
000000b0: 409d 063c f158 bfbc 9939 823d 674f 1ebe
000000c0: 8c89 89be 0c92 d4bc 0892 13be 043c 3ebe
000000d0: 73b8 9bbd 251a 853c 503c 80bd 5b12 6a3d
000000e0: 0999 1dbc e6b6 35be d4e1 173b 3292 98bc
000000f0: 4f36 0c3e b29f 703d efee 4bbd 0c92 3fbe
00000100: 4871 23bc 6bec 713d fb27 a2bc 7799 123d
00000110: ef03 093c c5b1 0ebe fed9 27be 6a44 22bd
00000120: 799b 103e 31a8 38be 7c34 8d3d 16a3 c33d
00000130: 00a3 81bc d1bc 2bbe 540f 223e d355 b8bd
00000140: 447b 84bc e4ed 0d3e 7fed 4fbe dd10 bcbd
00000150: 9a68 f8bb e978 e1bd 9b7e 77bd db9a f8bd
00000160: 28af c5bd cc8c 3c3d b8ea 09be 43a7 62bc
00000170: a414 45bd 535c 093d 4946 943c cb5a a43d
00000180: 7336 47bd 7a67 09bd b769 0dbe 6a89 dfbc
00000190: 32aa 3a3d 87c1 3dbe fc55 d5bc af83 833c
000001a0: 7050 ec3c 2ee6 8dbd dcdc 90be ffba 4f3d
000001b0: d657 703d b669 92be 6669 fabd 88ea 62bc
000001c0: cb3a a73e 8fef acbd d871 f73b 050e 86bb
000001d0: 97e8 9f3e 0d58 85bd 13ff 3a3d 778c b13d
000001e0: 15a5 24be 8499 34be f5ff e73d 158f 3e3d
000001f0: e1f7 f43d 217a 8d3d 7f54 09bc 3d16 f8bd
00000200: 3106 653d dc78 cebd bc2c ae3c 004b 99bd
00000210: 51af 5fbd da53 a0bd 1f57 9f3d c369 2ebe
00000220: bed6 973d 06c7 013e f643 81be 140d 1bbd
00000230: 1794 6fbe db38 45be 81a2 e4bd 399c 2a3e
00000240: 16f3 293d 757b 753d d83c 14be 6c26 e63d
00000250: 4d4d 3abd bc93 68bd 493e f0bc d9c7 6ebe
00000260: 1795 02bd 377c 233c 91ab b83d 3786 743d
00000270: 5d43 00be 4e77 65bd b517 94bc 8752 bb3d
00000280: 1fc1 8dbd d7d4 ab3d 018b 9dbd 1f90 da3d
00000290: 94d4 e63c 4dd3 c93d d537 ac3c 92c9 53bc
000002a0: db89 a1bc dfef 98bd a2c1 aabd 3c85 c0bd
000002b0: 9ece 093e 166c 62bc 1399 883d b7e7 e83b
000002c0: dee1 6f3d 26ab b33d c83e 12bd 390d e63c
000002d0: a42e 333d 2f28 953c 4563 81bd 3905 e8bc
000002e0: c078 fbbd ef72 b13d b799 f13d 63e0 89be
000002f0: 124b f83c 0597 79bd 38d9 8f3d 38e2 d53c
00000300: 0b28 65bd ad5e 9f3d 6466 33be 980e 0e3e
00000310: cc90 063e e062 cc3d 09b7 a93c 221b a5bc
00000320: 9570 bcbd 13cc 0cbc f8dc 883d d84f 103d
00000330: 5f11 3ebe 5af1 d93d cee1 c3bd b66b 0c3e
00000340: 71bf b43c faad 583e 906c 0e3e 18b2 093e
00000350: 6f7c 103d 8f78 5c3c 4a69 e23d 0e07 06bd
00000360: bdc4 30bb d820 0fbe bac1 af3d ab53 94bd
00000370: 7963 85bd 8016 2eba 4eb9 cbbc 929c 6e3d
00000380: 5e7c 42bd a877 a43c 7dd3 cabd a660 fabd
00000390: e163 febd 6e37 bdbe 9589 53bd ab18 81bd
000003a0: 101a c43d 840f 76be 0a1e 033e 26fd 523d
000003b0: 24e8 163e 4446 c03d ecd4 043d 3593 b9bd
000003c0: 864c eebe 9f67 7d3d e2d6 51bd d9dd 2fbe
000003d0: 0f10 713b 4c6c 913d 9c30 fabc 7a46 153e
000003e0: 3ef9 993c ab44 dd3a b107 3cbe 6aed cabd
000003f0: 7dea 4c3d 23e6 823d 8d28 c6bd 2e2e 80bd

branch.net.net.6.bias f4 [64]
0.11634246 -0.30878434 -0.11573097 -0.095510855 0.00361504 -0.4367032 0.0003910723 -0.048516273
0.12730263 0.10854408 -0.12764308 0.16644214 -0.052131306 -0.032431364 -0.08505563 0.062244765
-0.056396086 -0.088057935 -0.21835013 0.28706107 -0.035206553 0.029240996 -0.21357295 0.2638364
0.053506542 0.04122753 0.05661227 0.3217043 -0.12584397 0.090648085 -0.14814378 -0.22711992
0.13548876 -0.25696197 -0.039284233 0.009077776 0.03189759 -0.2002465 -0.2256343 -0.21803689
0.3411965 -0.31997842 -0.0032226196 -0.2151975 0.071074 -0.27636927 0.087313004 0.18970169
-0.05323538 0.10431395 0.15636434 -0.01889014 -0.05251338 0.14745888 -0.16965963 0.06834962
0.004120894 0.096611135 -0.2396464 0.17117672 -0.06631669 -0.090703025 -0.015931537 0.14383656
00000000: f544 ee3d fb18 9ebe 5c04 edbd 329b c3bd
00000010: 4fea 6c3b 9097 dfbe d608 cd39 00b9 46bd
00000020: 9f5b 023e 5c4c de3d deb4 02be cf6f 2a3e
00000030: a387 55bd c0d6 04bd a531 aebd 5ef4 7e3d
00000040: 95ff 66bd b857 b4bd 2d97 5fbe abf9 923e
00000050: bf34 10bd d08a ef3c deb2 5abe 9115 873e
00000060: ad29 5b3d 33de 283d 45e2 673d 6db6 a43e
00000070: 3edd 00be b4a5 b93d 01b3 17be 2092 68be
00000080: 91bd 0a3e 8590 83be 81e8 20bd f4ba 143c
00000090: 0ca7 023d 6b0d 4dbe ae0c 67be 1045 5fbe
000000a0: 4fb1 ae3e 36d4 a3be 9632 53bb bc5c 5cbe
000000b0: 3f8f 913d 4680 8dbe 29d1 b23d 2941 423e
000000c0: 580d 5abd 8da2 d53d f91d 203e 7fbf 9abc
000000d0: 4518 57bd 76ff 163e 41bb 2dbe e3fa 8b3d
000000e0: 9008 873b 0fdc c53d de65 75be f348 2f3e
000000f0: 0bd1 87bd 82c2 b9bd db82 82bc e449 133e

branch.net.net.8.weight f4 [64, 64]
0.061068594 0.28781557 0.08124003 -0.13173941 -0.122871295 -0.25341073 0.2142243 0.16404034
-0.27029237 -0.16062267 0.010952287 0.10888772 -0.21643436 0.030335207 0.13927986 0.098769724
-0.18763585 0.073127076 0.11013761 0.287283 0.062490344 0.07829382 -0.09762598 -0.1670401
-0.07356175 0.19838972 -0.012051395 -0.2617707 0.012406662 -0.0026146108 -0.05486267 -0.107186064
-0.051360104 -0.08974652 -0.31847727 0.032204725 0.02885716 0.07852476 -0.21666595 -0.032778688
-0.15393977 -0.27640957 0.1656271 0.26349497 0.03288394 0.20267984 -0.019542223 0.008048833
0.037513584 0.22486877 -0.0071914014 -0.31441057 0.103145614 0.045651734 0.13589324 0.17927273
0.19631134 -0.17656916 0.036305897 0.09494185 0.18096359 -0.14005814 0.10854029 0.18390754
-0.00052455906 0.020011501 0.03808936 -0.030743165 0.09452561 -0.20238961 0.020866413 0.006521135
-0.018693617 -0.09545628 0.036132913 -0.088872775 -0.060117763 0.14109515 0.1383369 0.09226555
0.10098209 0.0201644 0.066128105 0.21053274 0.13101904 -0.03198769 -0.25362894 -0.13623442
-0.041386805 0.0894535 -0.23237142 0.06321726 0.04650635 0.0011137174 -0.041895486 0.08677617
-0.18012165 0.069970526 -0.28859496 0.121696144 0.20129153 0.122029595 -0.21951 0.07156702
0.10462232 -0.23178317 0.27168408 0.1479919 0.08308201 -0.20585145 -0.2181525 -0.049423844
-0.07528469 0.33460835 -0.19180395 0.22493738 0.03590948 0.001901826 0.3212381 0.1038613
-0.015854107 -0.0988393 -0.12719926 0.026930932 -0.1126832 0.27011243 0.17783588 0.118354656
0.15255624 -0.028921276 -0.0031451755 0.06520587 -0.0515166 -0.1146795 0.052497394 0.020349763
0.046362415 0.050540503 -0.17254438 0.019945316 0.029040502 0.08201571 -0.038871177 0.014419882
-0.0889112 -0.011237665 0.04395673 0.10170578 -0.12715364 -0.085376814 0.07481472 0.007423375
-0.09353579 -0.09549115 0.07221983 0.000112469614 0.12479347 0.13240947 0.008908132 0.028089337
-0.025680834 -0.08183811 0.17073092 0.11447598 -0.045674358 -0.021393364 -0.0010405204 0.08488878
-0.11685801 0.008629683 -0.123590566 -0.04821467 -0.02391535 0.076412626 0.1458771 0.029687358
-0.041591164 -0.16060679 0.17611606 -0.05305507 0.01984326 -0.029350568 -0.18178068 -0.13079523
-0.00035593734 0.036787137 0.23271565 -0.085283615 0.103006646 0.08364725 -0.11830646 0.03448641
0.11965421 0.19600902 0.0080612 0.031508785 -0.13548821 -0.016138753 -0.12211364 0.16216846
0.07399782 -0.084224254 0.08128921 0.121470235 -0.17257592 0.032994524 -0.06729564 0.09100052
0.053784143 0.04169491 0.16147248 0.037756305 0.08275738 -0.011847491 -0.050095763 -0.15302864
-0.049245283 -0.076887906 0.034881104 -0.12191774 0.061197773 0.06069723 -0.07598539 0.09831149
-0.12290741 0.12243362 -0.1184516 -0.023516605 -0.008563323 0.15941982 -0.0874187 0.15481482
-0.002280058 -0.18100755 0.15836863 0.17799963 0.073147245 -0.22517811 -0.15682091 -0.057956412
-0.0064275847 0.17483133 -0.07546453 0.15711275 0.039046425 -0.0648656 0.15349941 0.08873981
0.0994723 -0.10157884 0.4162817 -0.109558776 0.12368348 0.18869534 0.15288235 -0.049931955
00000000: 1023 7a3d 905c 933e 2c61 a63d b2e6 06be
00000010: f2a3 fbbd 0dbf 81be 9d5d 5b3e 31fa 273e
00000020: c363 8abe 457a 24be 3971 333c 8600 df3d
00000030: f8a0 5dbe 8a81 f83c 619f 0e3e c847 ca3d
00000040: 9d23 40be a6c3 953d d48f e13d c216 933e
00000050: e0f5 7f3d 8358 a03d 21f0 c7bd 8f0c 2bbe
00000060: 8ba7 96bd ad26 4b3e 3773 45bc cf06 86be
00000070: 5045 4b3c e459 2bbb aeb7 60bd 5e84 dbbd
00000080: f95e 52bd 06cd b7bd 740f a3be 1ae9 033d
00000090: da65 ec3c 97d1 a03d aedd 5dbe f242 06bd
000000a0: 63a2 1dbe 8e85 8dbe 279a 293e d0e8 863e
000000b0: 4fb1 063d 4e8b 4f3e 0317 a0bc 41df 033c
000000c0: d8a7 193d 0044 663e d9a5 ebbb 6cfa a0be
000000d0: 023e d33d 50fd 3a3d 9927 0b3e 4593 373e
000000e0: d705 493e 8cce 34be 7eb5 143d df70 c23d
000000f0: 854e 393e 676b 0fbe 5f4a de3d 4252 3c3e
00000100: 9082 09ba 29ef a33c 9703 1c3d 17d9 fbbc
00000110: a596 c13d 393f 4fbe 0af0 aa3c 3faf d53b
00000120: 5b23 99bc 957e c3bd 1b00 143d ee02 b6bd
00000130: 0b3e 76bd 3f7b 103e 30a8 0d3e b8f5 bc3d
00000140: b3cf ce3d d02f a53c 2c6e 873d e595 573e
00000150: db29 063e 8605 03bd a7db 81be 0981 0bbe
00000160: 3685 29bd 6633 b73d c6f2 6dbe 0d78 813d
00000170: 717d 3e3d 28fa 913a 9a9a 2bbd b4b7 b13d
00000180: cf71 38be b54c 8f3d b8c2 93be d43b f93d
00000190: 5e1f 4e3e a7ea f93d 3bc7 60be bb91 923d
000001a0: 3a44 d63d 9158 6dbe 2d1a 8b3e 308b 173e
000001b0: e726 aa3d b9ca 52be 5e63 5fbe a870 4abd
000001c0: dc2e 9abd c951 ab3e 4168 44be fc55 663e
000001d0: d215 133d b146 f93a 5279 a43e 3cb5 d43d
000001e0: 79e0 81bc 426c cabd 8640 02be 429e dc3c
000001f0: 73c6 e6bd 2d4c 8a3e 9c1a 363e ed63 f23d
00000200: b437 1c3e 50ec ecbc 4a1f 4ebb a88a 853d
00000210: 1203 53bd 16dd eabd 8207 573d 8cb4 a63c
00000220: 84e6 3d3d 8f03 4f3d 79af 30be 5c64 a33c
00000230: 59e6 ed3c daf7 a73d 6237 1fbd 5e41 6c3c
00000240: 1317 b6bd 2f1e 38bc f90b 343d 1f4b d03d
00000250: 9034 02be 0ada aebd 7638 993d c83f f33b
00000260: b18f bfbd dd90 c3bd fde7 933d aadd eb38
00000270: b893 ff3d 5996 073e 6af3 113c 9c1b e63c
00000280: 9d60 d2bc bd9a a7bd 16d4 2e3e 6272 ea3d
00000290: 0915 3bbd 2341 afbc 1262 88ba 2bda ad3d
000002a0: 4153 efbd 8463 0d3c 0d1d fdbd bf7c 45bd
000002b0: 20ea c3bc 397e 9c3d ce60 153e e732 f33c
000002c0: 7f5b 2abd 1b76 24be c557 343e 4650 59bd
000002d0: 558e a23c 9a70 f0bc b724 3abe 2fef 05be
000002e0: 1a9d bab9 1cae 163d 034d 6e3e 2da9 aebd
000002f0: 26f5 d23d 404f ab3d a84a f2bd 9f41 0d3d
00000300: 440d f53d 97b6 483e 2013 043c 5b0f 013d
00000310: 6cbd 0abe 6b35 84bc b716 fabd 7d0f 263e
00000320: 2b8c 973d c47d acbd f57a a63d 63c5 f83d
00000330: beb7 30be 4425 073d 4cd2 89bd 7b5e ba3d
00000340: c34c 5c3d 48c8 2a3d 0b59 253e 5ba6 1a3d
00000350: b47c a93d fb1b 42bc 3731 4dbd 8ab3 1cbe
00000360: 6cb5 49bd 6877 9dbd 7ddf 0e3d 02b0 f9bd
00000370: 84aa 7a3d a99d 783d 3a9e 9bbd 8957 c93d
00000380: e1b6 fbbd 7abe fa3d c196 f2bd e5a5 c0bc
00000390: 2e4d 0cbc f33e 233e 9308 b3bd c787 1e3e
000003a0: 076d 15bb 0b5a 39be 632b 223e 8945 363e
000003b0: 39ce 953d 1795 66be a995 20be b463 6dbd
000003c0: 7d9e d2bb fc06 333e 268d 9abd 2ae2 203e
000003d0: 25ef 1f3d 41d8 84bd f32e 1d3e 38bd b53d
000003e0: 22b8 cb3d 9108 d0bd e022 d53e 5a60 e0bd
000003f0: c44d fd3d 5a39 413e 318d 1c3e 7385 4cbd

branch.net.net.8.bias f4 [64]
0.2902115 0.06741516 0.087348685 0.08787825 0.20197898 0.01791093 -0.1365404 -0.1735814
-0.19036797 0.20661414 -0.17967281 0.066202186 0.011581486 0.34018055 -0.16394359 0.11795678
0.16658272 0.17683412 0.25737742 0.25082406 -0.25046858 -0.033491503 -0.23631501 -0.25932893
0.27203 -0.033412553 0.014040199 0.4399609 0.18131593 -0.10463906 0.3469956 0.11655294
-0.14075804 0.035640903 0.33021685 0.28134242 -0.23011693 0.15819098 -0.4563233 0.3964246
0.11523323 -0.2930549 0.15634277 0.28746802 -0.021478608 -0.08047092 0.3771316 0.46638998
0.4363087 0.04882059 -0.53773326 -0.14665431 0.3969425 -0.16520731 -0.2978964 0.27452117
0.08860318 -0.29887512 -0.022961814 -0.09336752 0.053258542 0.22463986 -0.108889535 0.15311742
00000000: 9a96 943e f610 8a3d dee3 b23d 83f9 b33d
00000010: 94d3 4e3e f1b9 923c 3fd1 0bbe 53bf 31be
00000020: d2ef 42be a892 533e 26fc 37be 0395 873d
00000030: 46c0 3d3c 252c ae3e d4e0 27be 5393 f13d
00000040: a994 2a3e 0114 353e f9c6 833e 036c 803e
00000050: 6b3d 80be 632e 09bd 90fc 71be c3c6 84be
00000060: 8447 8b3e 9adb 08bd dd08 663c 8e42 e13e
00000070: e2aa 393e 014d d6bd 68a9 b13e 4fb3 ee3d
00000080: e022 10be 32fc 113d 2f12 a93e 1d0c 903e
00000090: c6a3 6bbe d1fc 213e 35a3 e9be 2af8 ca3e
000000a0: 66ff eb3d 4b0b 96be 5218 203e 022f 933e
000000b0: e8f3 afbc f0cd a4bd 6517 c13e abca ee3e
000000c0: db63 df3e 19f8 473d e3a8 09bf 8c2c 16be
000000d0: 0c3c cb3e 1b2c 29be e085 98be 0a8e 8c3e
000000e0: 9675 b53d 2906 99be 6a1a bcbc 7837 bfbd
000000f0: a125 5a3d fe07 663e 7a01 dfbd d0ca 1c3e

branch.net.net.10.weight f4 [64, 64]
-0.03670827 -0.07521458 0.20300335 0.11424552 0.034876864 0.009961681 -0.22986141 -0.021544926
-0.17285688 0.25901425 -0.17500149 0.23010676 -0.13403435 -0.0149192745 0.015893798 -0.12099737
0.09973828 -0.016429875 0.076333754 0.29808 0.2613847 0.065144464 -0.06107981 0.13319477
-0.07288267 0.25852618 -0.016619153 0.2276127 -0.08907292 -0.0017730496 0.06653048 0.27137503
0.19489908 0.077423096 -0.13479877 0.2657608 -0.16005065 -0.047578514 0.34605286 -0.10895098
0.01046456 -0.13534571 0.09708705 -0.009374522 -0.024409715 0.04678696 0.16227165 -0.24223894
-0.10328655 -0.14312103 -0.44146082 -0.005769598 0.024290022 0.10239763 0.19454837 0.16347663
-0.039003786 0.03527865 0.35943902 0.037018448 -0.15130688 0.07023592 -0.111249976 0.14352947
-0.05999961 -0.21050595 0.15782236 -0.1520435 -0.04196737 -0.100627415 0.048898313 0.011639801
-0.03542736 0.104610465 -0.09911816 0.039823186 0.12080736 0.14912526 -0.02242966 0.18268287
0.06355879 0.15481794 0.08874313 0.09900453 -0.09011627 -0.06426824 -0.131738 -0.07208313
0.026607955 -0.03536248 0.036345225 0.10257363 0.047015782 -0.12577522 0.29905325 0.036253713
-0.19553438 0.06325132 0.14606975 0.085030004 -0.08869203 0.08729676 -0.27331382 0.16004595
-0.022928089 -0.16099775 -0.10256537 0.17864841 0.08543278 0.1907472 0.119336925 0.21843255
0.17299812 -0.023968883 -0.07919113 -0.15420596 0.20653094 0.151071 -0.09506331 0.10102541
0.040129997 0.019673573 -0.098957606 -0.061061863 0.069437385 0.09323885 -0.07063425 -0.091801144
-0.032259982 0.19575095 -0.027750688 0.1256307 0.1368635 -0.03450701 0.042379994 0.03953174
0.019210711 0.06190963 0.12900041 -0.103397116 0.12966241 -0.13280615 0.012604874 0.1887126
-0.19588895 -0.18951303 0.05725304 0.052929536 -0.057324573 0.10729554 0.07588836 -0.07112906
-0.1592612 -0.19350547 -0.044678006 0.19812313 -0.0078647295 0.309743 -0.27129343 -0.16377284
0.060075387 0.069658734 -0.11408528 -0.15652002 0.19389655 -0.19746698 -0.04296373 -0.16381092
-0.013201277 -0.19961992 0.17784451 -0.13708791 -0.31159315 -0.22327268 0.007759225 -0.065543935
0.06750168 0.24646156 -0.08661828 0.09464822 0.15174077 -0.23013045 0.116774775 0.1508432
0.098771095 0.0005369475 0.083781116 -0.05939424 -0.301818 -0.034857612 0.05269969 0.078306235
-0.21190941 -0.1829623 -0.056096222 -0.20781648 0.0026593423 0.04046546 -0.061038077 0.10484657
0.0010474658 -0.20006746 -0.04355176 -0.04410073 -0.021853287 0.057120085 0.022169149 -0.09160811
-0.03602761 -0.027975459 -0.043605924 -0.13457431 0.07021832 -0.10372461 -0.03953085 0.11984819
0.048888683 0.028331863 0.112607695 0.01643512 -0.05769888 -0.02976552 -0.0061451886 0.0020913847
0.047058187 -0.062243164 0.10913415 0.0828431 -0.06610517 0.061707795 0.076567456 0.09175348
-0.02118269 -0.03806998 -0.23080015 -0.087319426 0.06311946 0.18377648 -0.13299905 0.14167972
0.022662666 -0.08180509 -0.000163211 -0.14637738 0.1719246 0.12932868 -0.133087 0.09398858
-0.09684178 0.1368205 -0.0062887548 -0.03154746 -0.012251359 0.025033569 0.12204112 0.06307518
00000000: 695b 16bd 1a0a 9abd 1ce0 4f3e 8ef9 e93d
00000010: 0bdb 0e3d 5236 233c ca60 6bbe fc7e b0bc
00000020: 6501 31be 849d 843e 9733 33be 1ba1 6b3e
00000030: 4d40 09be f96f 74bc b633 823c 78cd f7bd
00000040: 9543 cc3d f297 86bc df54 9c3d f19d 983e
00000050: 37d4 853e 766a 853d d32e 7abd 3664 083e
00000060: 8243 95bd 8b5d 843e e424 88bc 4e13 693e
00000070: dd6b b6bd ac65 e8ba 2241 883d abf1 8a3e
00000080: a093 473e 0090 9e3d b008 0abe cd11 883e
00000090: 51e4 23be b0e1 42bd d72d b13e b121 dfbd
000000a0: 8c73 2b3c 1198 0abe 93d5 c63d 9897 19bc
000000b0: e2f6 c7bc afa3 3f3d 8a2a 263e 7c0d 78be
000000c0: e687 d3bd 528e 12be 2707 e2be e50e bdbb
000000d0: defb c63c d9b5 d13d b037 473e 6b66 273e
000000e0: 6fc2 1fbd 5880 103d 6408 b83e a8a0 173d
000000f0: 31f0 1abe dad7 8f3d 07d7 e3bd 64f9 123e
00000100: 27c2 75bd df8e 57be 2f9c 213e 4bb1 1bbe
00000110: fae5 2bbd bf15 cebd 9949 483d ddb4 3e3c
00000120: 481c 11bd 033e d63d 76fe cabd a31d 233d
00000130: d969 f73d 4bb4 183e 68be b7bc 3811 3b3e
00000140: 1c2b 823d 9888 1e3e f5be b53d e3c2 ca3d
00000150: e18e b8bd 119f 83bd 54e6 06be 52a0 93bd
00000160: edf8 d93c 3fd8 10bd bbde 143d 2012 d23d
00000170: 9f93 403d 38cb 00be 821d 993e c67e 143d
00000180: 2a3a 48be e889 813d 4f93 153e 3624 ae3d
00000190: 2ba4 b5bd a5c8 b23d caef 8bbe 16e3 233e
000001a0: b0d3 bbbc 98dc 24be cb0d d2bd 9cef 363e
000001b0: 62f7 ae3d 3c53 433e eb66 f43d c8ac 5f3e
000001c0: 6b26 313e 645a c4bc f62e a2bd 2be8 1dbe
000001d0: d97c 533e 5bb2 1a3e 8db0 c2bd 69e6 ce3d
000001e0: 5a5f 243d 792a a13c 49aa cabd 011c 7abd
000001f0: 3035 8e3d 03f4 be3d b1a8 90bd 3d02 bcbd
00000200: 0b23 04bd f072 483e 6955 e3bc 56a5 003e
00000210: f225 0c3e 3957 0dbd a596 2d3d 09ec 213d
00000220: c85f 9d3c f494 7d3d af18 043e dec1 d3bd
00000230: 39c6 043e 56fe 07be ac84 4e3c e03d 413e
00000240: 1d97 48be b40f 42be 2a82 6a3d a4cc 583d
00000250: 2ccd 6abd c4bd db3d 5b6b 9b3d 1dac 91bd
00000260: 5e15 23be 4c26 46be 4900 37bd cae0 4a3e
00000270: 11db 00bc a296 9e3e f9e6 8abe 11b4 27be
00000280: 9c11 763d 3da9 8e3d 8ba5 e9bd c946 20be
00000290: d18c 463e c934 4abe bcfa 2fbd 0dbe 27be
000002a0: 2b4a 58bc 2a69 4cbe df1c 363e c660 0cbe
000002b0: 2389 9fbe 98a1 64be 1941 fe3b e63b 86bd
000002c0: 523e 8a3d 6b60 7c3e ed64 b1bd edd6 c13d
000002d0: ef61 1b3e 51a7 6bbe 9d27 ef3d a476 1a3e
000002e0: 8048 ca3d f0c1 0c3a 6f95 ab3d 6047 73bd
000002f0: e487 9abe dbc6 0ebd a1db 573d 055f a03d
00000300: c8fe 58be 785a 3bbe 27c5 65bd d8cd 54be
00000310: 5c48 2e3b 1cbf 253d 1003 7abd ccb9 d63d
00000320: 1f4b 893a 7cde 4cbe 5563 32bd f8a2 34bd
00000330: aa05 b3bc c0f6 693d 139c b53c 089d bbbd
00000340: b091 13bd ca2c e5bc 209c 32bd d9cd 09be
00000350: 9fce 8f3d 916d d4bd 1aeb 21bd f872 f53d
00000360: 803f 483d 3918 e83c dd9e e63d f2a2 863c
00000370: a955 6cbd d2d6 f3bc 945d c9bb 9d0f 093b
00000380: 16c0 403d b0f2 7ebd ba81 df3d a5a9 a93d
00000390: 2662 87bd 50c1 7c3d 66cf 9c3d 40e9 bb3d
000003a0: 5287 adbc 44ef 1bbd e056 6cbe 87d4 b2bd
000003b0: c744 813d e72f 3c3e e730 08be 7d14 113e
000003c0: 0ea7 b93c 6d89 a7bd 9f23 2bb9 f4e3 15be
000003d0: 010d 303e bd6e 043e f547 08be 167d c03d
000003e0: fc54 c6bd ac1a 0c3e e611 cebb e937 01bd
000003f0: edb9 48bc 3313 cd3c b2f0 f93d 8f2d 813d

branch.net.net.10.bias f4 [64]
-0.116493225 0.45007917 0.014426447 0.20633481 -0.07281409 -0.09531015 0.086162865 0.27601132
0.33398175 -0.014535733 -0.22927211 -0.29755977 -0.06692392 0.20930368 0.054055016 0.13407214
0.10177955 -0.101661265 -0.26701382 -0.023742191 -0.36438444 -0.025435714 0.42859498 -0.21420383
0.35202688 0.2533274 -0.052803915 -0.006441039 0.09661028 0.30994588 -0.189715 -0.48153567
-0.10980481 -0.15515998 0.024863135 0.1673696 0.1914616 -0.031821214 0.49589813 0.10615242
0.40129355 -0.22760716 0.037552476 0.15611336 0.07071528 0.26688564 -0.3218743 0.28257456
0.30111223 0.16525772 0.15807216 -0.10461474 0.3804449 0.13043107 -0.56606764 0.030015806
0.04845812 0.08351151 -0.29184407 0.2860504 0.0011796696 -0.21922548 0.039296355 -0.044779923
00000000: 0094 eebd c770 e63e e85c 6c3c 6f49 533e
00000010: 8e1f 95bd f831 c3bd 2876 b03d 5b51 8d3e
00000020: a8ff aa3e 4827 6ebc 4fc6 6abe c159 98be
00000030: 680f 89bd b453 563e cb68 5d3d 354a 093e
00000040: cc71 d03d c833 d0bd 09b6 88be fc7e c2bc
00000050: 9990 babe 8f5e d0bc cd70 db3e 4058 5bbe
00000060: de3c b43e 21b4 813e eb48 58bd 5a0f d3bb
00000070: 9cdb c53d 3ab1 9e3e a644 42be d88b f6be
00000080: 58e1 e0bd 42e2 1ebe c6ad cb3c f062 2b3e
00000090: 820e 443e f656 02bd 5ce6 fd3e 7166 d93d
000000a0: 5976 cd3e da11 69be a0d0 193d 2edc 1f3e
000000b0: 2cd3 903d 3ca5 883e b5cc a4be 9dad 903e
000000c0: 622b 9a3e 5239 293e abdd 213e 4140 d6bd
000000d0: adc9 c23e b98f 053e cfe9 10bf b5e3 f53c
000000e0: 067c 463d 1508 ab3d 966c 95be 3375 923e
000000f0: 259f 9a3a a57c 60be 37f5 203d 276b 37bd

trunk.net.0.weight f4 [64, 3]
0.036913577 -0.50656503 -0.4340609 0.54143983 -0.16760066 0.19728506 0.16419913 0.8255927
-0.26014313 -0.407259 0.7705386 -0.5898367 0.19603299 0.7532539 -0.51744384 0.35596818
0.14218251 -0.3932732 -0.34502697 -0.7486801 0.76076895 0.38201046 0.63526005 0.03845608
0.09450967 -0.22438101 -0.3038101 -0.22394788 0.596756 0.20718619 0.09669169 -0.22001304
-0.27522638 -0.50019324 0.1489766 -0.72865075 -0.21067125 0.04097568 0.5945109 -0.26413044
-0.6914668 -0.2869613 -0.006076924 0.22778182 -0.5610454 0.5517765 -0.36407086 -0.29667133
-0.3635264 0.5207165 0.5768205 0.13153186 0.47366434 0.4283055 0.051799014 -0.09979462
0.48200986 0.34976217 0.7241244 -0.06352814 0.35765004 0.32874963 -0.64956355 -0.13921963
-0.8466223 0.47999784 -0.13287763 0.52057755 0.039042763 0.15721126 0.86275613 -0.08573663
0.13817705 0.6938779 0.08595969 -0.47420412 0.29120266 0.2538498 0.13461183 -0.5825219
-0.2777604 0.027948443 0.73096883 -0.5725534 -0.55020154 -0.48065874 -0.13734409 -0.28811246
0.6436137 0.1266404 -0.31249106 -0.54215544 0.7724277 0.22781494 -0.64856 0.4906668
-0.26570717 0.7264215 -0.077326834 0.3855703 -0.42490515 -0.25832424 -0.20361325 -0.49763983
0.018136827 -0.445365 -0.5164931 -0.22454074 0.09719656 0.114488244 -0.34707892 -0.005119669
-0.03739959 0.23827502 -0.028496841 -0.35474 -0.24408591 0.5083954 -0.804381 0.23179847
-0.311207 0.7820646 -0.6803142 0.56602925 -0.05672452 0.34407192 0.23466362 0.92240053
-0.6098003 -0.26727143 -0.8279922 0.76947266 -0.18619096 -0.14215416 -0.5497713 -0.23641096
0.024220493 -0.7156848 -0.21732993 -0.0327966 0.4141449 -0.34491035 0.23447661 0.031087931
-0.025107104 -0.5377459 0.693124 -0.38759515 0.042152036 -0.54296696 -0.26055166 -0.7040672
-0.07574175 0.013023904 1.2182739 -0.80920535 -0.4936843 0.58684266 0.42989868 0.028769232
0.38019535 -0.19317393 0.2577823 0.47015053 0.42199907 -0.47968972 -0.6703322 -0.6931951
-0.23525771 0.6770865 0.55306333 -0.32770434 -0.32119748 -0.39116693 -0.32800227 -0.25948685
0.5778328 0.30852416 0.30319175 -0.4578054 0.38334158 0.43952268 0.6686264 -0.5337335
0.6122804 0.301136 0.3605666 -0.44488484 0.6058108 -0.41705585 0.8443856 -0.5543349
00000000: b132 173d 3fae 01bf 3b3d debe cd9b 0a3f
00000010: 829f 2bbe 1805 4a3e d123 283e 0b5a 533f
00000020: 7b31 85be 4084 d0be 0542 453f 8aff 16bf
00000030: dfbc 483e 3fd5 403f 3377 04bf 7641 b63e
00000040: 4b98 113e 1b5b c9be 60a7 b0be 80a9 3fbf
00000050: c1c1 423f e096 c33e 67a0 223f 1f84 1d3d
00000060: 498e c13d 23c4 65be ff8c 9bbe 9852 65be
00000070: 00c5 183f 9e28 543e 4b06 c63d 194b 61be
00000080: 79ea 8cbe aa0c 00bf 528d 183e db88 3abf
00000090: 34ba 57be 1dd6 273d de31 183f 1b3c 87be
000000a0: f803 31bf 97ec 92be ef20 c7bb a33f 693e
000000b0: aca0 0fbf 3a41 0d3f 7f67 babe 4ee5 97be
000000c0: 2220 babe ad4d 053f 82aa 133f 4ab0 063e
000000d0: 2284 f23e dc4a db3e 342b 543d 1f61 ccbd
000000e0: ffc9 f63e 0714 b33e 3760 393f 0b1b 82bd
000000f0: e81d b73e df51 a83e cc49 26bf 978f 0ebe
00000100: 3dbc 58bf 47c2 f53e 1311 08be 9244 053f
00000110: 4eeb 1f3d fdfb 203e 96dd 5c3f b096 afbd
00000120: 497e 0d3e fba1 313f a20b b03d e2ca f2be
00000130: 8418 953e 9af8 813e afd7 093e 2820 15bf
00000140: 9c36 8ebe 22f4 e43c c620 3b3f dc92 12bf
00000150: 02da 0cbf e718 f6be eea3 0cbe 7a83 93be
00000160: dec3 243f 05ae 013e d4fe 9fbe b3ca 0abf
00000170: d2bd 453f 5248 693e 0708 26bf ae38 fb3e
00000180: c50a 88be c2f6 393f 885d 9ebd 7869 c53e
00000190: 2b8d d9be 1343 84be fe7f 50be a6ca febe
000001a0: af93 943c e206 e4be e438 04bf 02ee 65be
000001b0: fd0e c73d d078 ea3d 54b4 b1be e5c2 a7bb
000001c0: 5030 19bd 5efe 733e 3572 e9bc 7ba0 b5be
000001d0: a8f1 79be 3326 023f eaeb 4dbf 945c 6d3e
000001e0: 8656 9fbe 6335 483f 1229 2ebf 4be7 103f
000001f0: f857 68bd 322a b03e a94b 703e 7122 6c3f
00000200: df1b 1cbf cdd7 88be 4cf7 53bf 29fc 443f
00000210: d8a8 3ebe dc90 11be d0bd 0cbf b715 72be
00000220: 0e6a c63c 1e37 37bf bd8b 5ebe ba55 06bd
00000230: cd0a d43e 1798 b0be a31a 703e 1eac fe3c
00000240: 6aad cdbc b7a9 09bf 9370 313f df72 c6be
00000250: 9da7 2c3d e2ff 0abf 0767 85be bf3d 34bf
00000260: 7e1e 9bbd 3662 553c 66f0 9b3f 1528 4fbf
00000270: 30c4 fcbe 523b 163f ae1b dc3e 74ad eb3c
00000280: f7a8 c23e 63cf 45be 0bfc 833e 92b7 f03e
00000290: 4310 d83e e499 f5be e49a 2bbf 3c75 31bf
000002a0: 66e7 70be 8a55 2d3f 8f95 0d3f ddc8 a7be
000002b0: ff73 a4be 0847 c8be eaef a7be 76db 84be
000002c0: daec 133f e1f6 9d3e f33b 9b3e 7865 eabe
000002d0: 5945 c43e 1e09 e13e 1a2b 2b3f c2a2 08bf
000002e0: 69be 1c3f 7f2e 9a3e 2f9c b83e f2c7 e3be
000002f0: 6b16 1b3f 5888 d5be a829 583f e4e8 0dbf

trunk.net.0.bias f4 [64]
-0.24973993 -0.36293724 -0.1014087 -0.40968403 0.41072226 0.36883256 0.30808157 -0.45360678
0.44299048 -0.46261513 0.018447567 -0.02583517 0.09765738 -0.4497164 -0.13058805 -0.43961298
-0.29872766 0.2743085 0.3352052 0.07200996 -0.3223568 -0.3337582 -0.09831366 -0.39692765
-0.53992426 -0.34163505 -0.0629187 -0.24390478 0.33498833 0.545201 0.4126567 0.0760507
0.2502567 0.04397893 -0.19482563 -0.2890609 -0.4488919 0.37299043 -0.30418548 0.2510174
0.40723786 0.03395115 -0.17984965 0.2681788 -0.0319317 -0.14151959 -0.29800844 -0.5910025
0.34759218 0.58672607 0.22343196 -0.021945613 -0.119705096 -0.21021776 -0.19054301 -0.55961776
-0.6062272 -0.394448 -0.64062166 -0.47201434 0.4815713 -0.011782919 -0.27199575 0.027912907
00000000: d3bb 7fbe e9d2 b9be 5daf cfbd 1bc2 d1be
00000010: 304a d23e 9fd7 bc3e debc 9d3e 263f e8be
00000020: a6cf e23e e4db ecbe 5a1f 973c 47a4 d3bc
00000030: 9800 c83d 3a41 e6be e0b8 05be f414 e1be
00000040: d5f2 98be 2a72 8c3e 04a0 ab3e f579 933d
00000050: f30b a5be 5be2 aabe ac58 c9bd 1a3a cbbe
00000060: 7a38 0abf caea aebe 85db 80bd 2dc2 79be
00000070: 9783 ab3e 4b92 0b3f bd47 d33e 78c0 9b3d
00000080: a521 803e 4023 343d 5f80 47be caff 93be
00000090: 29d5 e5be 9af8 be3e 33be 9bbe 5a85 803e
000000a0: 7b81 d03e 5c10 0b3d 822a 38be bb4e 893e
000000b0: d0ca 02bd 83ea 10be 9094 98be f14b 17bf
000000c0: 9af7 b13e ae33 163f 59cb 643e 49c7 b3bc
000000d0: f227 f5bd 5343 57be b51d 43be 1c43 0fbf
000000e0: b531 1bbf 17f5 c9be c8ff 23bf ddab f1be
000000f0: 8390 f63e 250d 41bc 0743 8bbe 9ca9 e43c
