FullOrder/FullOrderReconstruct/FullOrder_20251118_202146_MLP_deeponet_NoPhys_NoBatch_HD16_HL3_LR0.01_Sample0.3_separate_checkpoint.pth (torch, 505114 bytes, 212 tensors)

branch.net.net.0.weight f4 [32, 2]
0	0xbd73f8e0	-0.059563518
1	0x3ed4c682	0.415577
2	0x3f14dc87	0.58149
3	0x3f1eef55	0.6208394
4	0xbeb8af18	-0.36071086
5	0x3f22992d	0.6351498
6	0xbef2d0b2	-0.47424847
7	0xbf2d36fb	-0.6766202
8	0xbe3958a8	-0.18100226
9	0xbecf36e2	-0.4047156
10	0xbe307464	-0.172319
11	0x3ca7f9e0	0.020504892
12	0x3f087b6b	0.5331332
13	0x3e93fb30	0.28902578
14	0xbe55a8fc	-0.20865244
15	0xbe3d06c8	-0.18459618
16	0x3f099199	0.5373779
17	0xbe6f365c	-0.2336058
18	0xbf1c5edb	-0.6108224
19	0xbe892c04	-0.26791394
20	0xbf061c9a	-0.5238739
21	0x3f1daee7	0.61595005
22	0xbd9b7c80	-0.07592106
23	0x3f2480b7	0.64258903
24	0x3e06edf8	0.13176715
25	0xbdf23aa0	-0.11827588
26	0x3f21c03b	0.63183945
27	0xbcf58b80	-0.029973745
28	0xbe694d28	-0.22783339
29	0x3e3c90c8	0.18414605
30	0xbbb32d80	-0.0054680705
31	0xbf316fce	-0.69311225
32	0x3ed2b922	0.4115687
33	0xbefb8138	-0.49122024
34	0x3f002d1d	0.5006884
35	0xbec5e5d9	-0.38651922
36	0xbbd39000	-0.006456375
37	0x3ec665c6	0.38749522
38	0x3f1f1e31	0.62155443
39	0xbda47728	-0.0803054
40	0x3f16d52d	0.5891903
41	0xbf1c7bc5	-0.6112636
42	0xbf09dc0c	-0.5385139
43	0xbed2be89	-0.41160992
44	0xbedc25d6	-0.42997617
45	0x3f05dc3d	0.5228918
46	0x3f18e4eb	0.597243
47	0xbed40c85	-0.41415802
48	0x3e9b00f2	0.3027416
49	0xbf23963c	-0.63901114
50	0x3f15fa7f	0.5858535
51	0xbf14df7f	-0.5815353
52	0x3ea9c502	0.33158118
53	0xbf0bbc9d	-0.54584676
54	0x3efcf50a	0.494057
55	0xbd4eb880	-0.05046892
56	0xbcee7340	-0.02910769
57	0x3ef64ef6	0.48107117
58	0x3e776b70	0.24162078
59	0x3f1aff69	0.60545975
60	0x3f2640b3	0.64942473
61	0xbf05baeb	-0.5223834
62	0x3f083fe1	0.5322247
63	0x3ea5ba6e	0.32368797

branch.net.net.0.bias f4 [32]
0	0x3f25e75b	0.64806145
1	0xbf23a22c	-0.6391933
2	0x3f323d13	0.6962444
3	0x3f08f7cb	0.535031
4	0xbba0dc00	-0.0049090385
5	0x39e84800	0.00044304132
6	0xbec2b66e	-0.38029808
7	0x3f32cb0f	0.6984109
8	0xbf155efb	-0.58348054
9	0x3f23fbd9	0.64056164
10	0xbf337d7a	-0.7011334
11	0xbcee4c40	-0.029089093
12	0x3f2b18b9	0.668346
13	0x3e185304	0.14875418
14	0x3eb1ab3a	0.34700948
15	0xbdebae28	-0.11507827
16	0xbe0105e4	-0.12599903
17	0x3d60ce40	0.054884195
18	0xbf036262	-0.51321995
19	0xbeb55a17	-0.35420296
20	0x3ed84bfe	0.42245477
21	0x3ee5f0c2	0.44910246
22	0xbf087d91	-0.533166
23	0x3f06d40f	0.52667326
24	0xbe4e75cc	-0.20162123
25	0x3d6694a0	0.056294084
26	0x3f340817	0.70324844
27	0xbefa958b	-0.48942217
28	0x3f01d77f	0.50719446
29	0x3ca288e0	0.019840658
30	0xbba51300	-0.0050376654
31	0xbf1146ec	-0.56748843

branch.net.net.2.weight f4 [32, 32]
0	0xbe1864fc	-0.14882272
1	0x3e0b72e5	0.13618048
2	0x3e265b55	0.16245778
3	0x3dfb23be	0.12262677
4	0xbd8c9386	-0.06864075
5	0x3d990e42	0.074734226
6	0xb8873800	-6.4477324e-05
7	0xbda7f99b	-0.08201905
8	0xbd1bcf6c	-0.03803961
9	0x3e0412e3	0.1289783
10	0xbdf31b0a	-0.11870392
11	0x3da12336	0.07868044
12	0x3d495eb0	0.049162567
13	0x3dbea8f6	0.093095705
14	0x3d996b3a	0.07491155
15	0xbd9244da	-0.07142039
16	0xbda8d877	-0.082444124
17	0xbd55eef8	-0.05222985
18	0xbb5dfb40	-0.003387168
19	0xbdecb4e2	-0.11557938
20	0xbe07963a	-0.132409
21	0xbd9d98dc	-0.07695171
22	0xbd6bcd8c	-0.05756907
23	0xbba096e0	-0.004900798
24	0xbda9f075	-0.08297817
25	0xbd88c6fa	-0.06678577
26	0xbdd9a209	-0.10626609
27	0xbe044858	-0.12918222
28	0x3ddc16ae	0.10746513
29	0xbd924d8c	-0.07143697
30	0x3b9c0240	0.0047610104
31	0xbdc11eb2	-0.09429683
32	0x3e0ea8e9	0.13931622
33	0x3e14f2df	0.14545773
34	0xbdb008f4	-0.08595458
35	0x3e032a1f	0.12809037
36	0xbdbbfe84	-0.091794044
37	0xbdd8d6fc	-0.1058788
38	0x3e08f4eb	0.13374679
39	0xbdf44b46	-0.1192842
40	0xbd0dcb88	-0.03461793
41	0x3d855c22	0.065117136
42	0x3d784d14	0.060620382
43	0xbe0a03fd	-0.13478084
44	0x3cce4888	0.02518107
45	0xbe32b657	-0.1745237
46	0x3cdde570	0.027086943
47	0xbe1fcfec	-0.1560666
48	0x3e1779f1	0.1479261
49	0xbdddb943	-0.108263515
50	0x3d491388	0.049090892
51	0x3d8e7aae	0.06956993
52	0x3d405ac4	0.04696156
53	0xbe138acb	-0.14408414
54	0x3dffb54e	0.12485753
55	0xbe27cff1	-0.16387917
56	0x3dc08d6a	0.094019726
57	0x3e31bef7	0.17358004
58	0x3de6f5fa	0.11277385
59	0x3e07922d	0.13239355
60	0x3de89fe6	0.11358623
61	0x3e07139d	0.13191076
62	0x3dfe1262	0.1240585
63	0xbcca2b88	-0.02467896
64	0x3d9cf3c2	0.076636806
65	0xbe169ada	-0.14707509
66	0xbe28aa12	-0.16471127
67	0xbdd655b5	-0.10465566
68	0x3da78256	0.081791565
69	0xbd65b262	-0.056078322
70	0xbd9d7138	-0.076876104
71	0xbc099360	-0.008396953
72	0xbe332c34	-0.17497331
73	0x3d084e64	0.033277884
74	0x3dda6c3e	0.10665177
75	0xbe0605b0	-0.13088107
76	0xbdaaafd1	-0.083343156
77	0x3c83a5e8	0.016070321
78	0x3d871802	0.06596376
79	0x3dfa67fe	0.12226866
80	0x3b8ebd20	0.0043560416
81	0xbd7b2560	-0.06131494
82	0x3dfb9046	0.12283377
83	0xbd605834	-0.054771617
84	0xbc5345e0	-0.0128950775
85	0x3acb0600	0.0015489459
86	0x3d8b2d24	0.06795719
87	0x3e297c17	0.16551243
88	0x3dc18282	0.094487205
89	0xbdc40a84	-0.09572318
90	0xbdad92ae	-0.084752426
91	0x3c93b3e8	0.018030122
92	0x3b64e1c0	0.0034924597
93	0x3ccd1278	0.02503322
94	0x3dd6847e	0.1047449
95	0x3e20e087	0.1571065
96	0xbcd1ebf8	-0.025625214
97	0xbdfa54de	-0.122232184
98	0x3e23f6a1	0.1601205
99	0x3d6a8c74	0.057262853
100	0x3c81cfc0	0.015846133
101	0xbd9c3ca8	-0.07628757
102	0x3dbc646e	0.09198843
103	0xbdf60de4	-0.12014368
104	0x3da44a3e	0.08021973
105	0xbe2ec348	-0.17066681
106	0xbe280796	-0.16409144
107	0xbdaa00a5	-0.08300904
108	0x3e0878ef	0.13327383
109	0x3b80ae20	0.0039270073
110	0xbda773f0	-0.0817641
111	0x3d92aca4	0.07161835
112	0x3d9bed06	0.07613568
113	0xbe34b5c6	-0.17647466
114	0x3da464de	0.080270514
115	0x3dfeb386	0.12436585
116	0xbdf576ec	-0.11985573
117	0xbc885278	-0.016640887
118	0x3c641170	0.013920173
119	0xbe3143b1	-0.17310978
120	0x3e13aaf3	0.1442068
121	0xbddd63b4	-0.108100325
122	0x3dc66de2	0.09688927
123	0xbe0037ae	-0.1252124
124	0x3d574084	0.05255176
125	0xbe28bd2b	-0.16478412
126	0xbe1a5bfe	-0.15074155
127	0x3e13efcd	0.14446945
128	0x3e0881c3	0.1333075
129	0x3dad8bf2	0.08473958
130	0xbde439f2	-0.11143865
131	0xbd924383	-0.07141783
132	0xbd4a7d98	-0.04943618
133	0x3e203553	0.15645342
134	0xbd2562cc	-0.040377423
135	0x3dcaed46	0.099085376
136	0x3d852672	0.065014735
137	0x3e2b688d	0.16739102
138	0xbbaf3400	-0.005346775
139	0x3e077f3b	0.13232128
140	0xbd160bc4	-0.036632314
141	0xbd5391f4	-0.051652864
142	0x3da014ba	0.07816453
143	0xbd667350	-0.056262314
144	0x3e32e9b1	0.17471959
145	0xbab2bb00	-0.0013636053
146	0x3d7443c0	0.059634924
147	0xbdf813c4	-0.12113145
148	0x3b5433c0	0.0032379478
149	0xbdba0f9e	-0.0908501
150	0x3e2b20ff	0.16711806
151	0x3e2bfe37	0.16796194
152	0x3e0438ef	0.12912343
153	0xbd87c2c9	-0.06628949
154	0xbadb6780	-0.001673922
155	0x3d82442e	0.063606605
156	0x3b8937a0	0.004187539
157	0x3e326bdf	0.17423962
158	0xbe08ff16	-0.13378558
159	0xbe00d1bf	-0.12580012
160	0x3e1e8553	0.15480547
161	0x3dc797b2	0.097457305
162	0x3d48cee4	0.04902543
163	0x3df5a6de	0.11994718
164	0x3d88ad9c	0.06673738
165	0x3dbf7ab6	0.09349577
166	0xbd145b9c	-0.036220178
167	0x3d2692cc	0.04066734
168	0xbd819e4a	-0.06329019
169	0x3d74c048	0.059753686
170	0x3e2d0c0b	0.16899125
171	0xbd9d56ab	-0.07682546
172	0xbd779804	-0.060447708
173	0x3e348b81	0.17631342
174	0x3e2d1691	0.1690314
175	0x3c9cac20	0.019125044
176	0x3d8dbbde	0.069205984
177	0xbb197580	-0.0023415983
178	0xbd89c0be	-0.06726216
179	0x3e1f805d	0.1557631
180	0x3daaf4d2	0.08347477
181	0xbda9d75e	-0.08293031
182	0xbe08aaea	-0.13346449
183	0x3de4f0a6	0.111787125
184	0xbe053c1d	-0.13011213
185	0x3e2a64b5	0.16639979
186	0x3d812c34	0.06307259
187	0x3e2468bd	0.1605558
188	0xbc78a0d0	-0.015175059
189	0xbd3d7abc	-0.046259627
190	0x3cfca248	0.0308391
191	0xbdafc063	-0.08581617
192	0xbc88c958	-0.01669757
193	0xbdf7c988	-0.12098986
194	0x3e116d81	0.14201929
195	0xbdbb5cd2	-0.091485634
196	0x3dc9e3ea	0.09857924
197	0x3bb22a80	0.0054371953
198	0xbd09aa40	-0.03360963
199	0xbe13f131	-0.14447476
200	0x3dd5b33e	0.10434578
201	0x3cd799a8	0.026318386
202	0xbddca5c4	-0.10773805
203	0x3cb19df0	0.021681756
204	0x3d14e6b8	0.036352843
205	0x3da4424e	0.08020459
206	0xbdadb773	-0.08482256
207	0x3daf02a6	0.08545427
208	0xbe31504d	-0.17315789
209	0xbc5ca240	-0.013466418
210	0x3d82bc9c	0.06383631
211	0x3cbedae0	0.023297727
212	0x3d67d840	0.056602716
213	0xbe0774fb	-0.13228218
214	0x3d7f9a78	0.062403172
215	0x3c1654e0	0.009175509
216	0x3e18f187	0.14935885
217	0x3d8c6780	0.068556786
218	0x3c6286b0	0.013826057
219	0x3b372b00	0.0027949214
220	0x3e01dbc1	0.12681486
221	0xbda02a04	-0.07820514
222	0xbc948b50	-0.018132836
223	0x3e2820e7	0.16418801
224	0xbe0edf54	-0.1395238
225	0xbdbdb166	-0.09262352
226	0xbde95894	-0.11393848
227	0x3e14adcd	0.14519425
228	0x3dea0c1a	0.114280894
229	0xbe24830f	-0.1606562
230	0x3ce6f8c0	0.028194785
231	0xbe0cf618	-0.13765752
232	0xbd37b95c	-0.044854507
233	0x3cffccf0	0.031225652
234	0x3d143b80	0.036189556
235	0xbe01f2cc	-0.12690276
236	0xbde6de5c	-0.112728804
237	0xbdc79729	-0.097456284
238	0x3e08a2b5	0.13343318
239	0xbc74e0e0	-0.0149461925
240	0xbdf5e568	-0.120066464
241	0xbd9c1c35	-0.076225676
242	0x3d555044	0.0520785
243	0x3dbb777a	0.09153648
244	0x3d7b8568	0.061406523
245	0xbd1f0ec4	-0.03883244
246	0xbbc41260	-0.005983636
247	0x3d3b863c	0.045782313
248	0xbe21a18c	-0.15784281
249	0x3cadc170	0.021210402
250	0xbdf3e552	-0.11908974
251	0xbe23db54	-0.16001636
252	0x3c1da7e0	0.009622544
253	0xbda32518	-0.079660594
254	0xbd13330c	-0.035937354
255	0xbe04a696	-0.12954172

branch.net.net.2.bias f4 [32]
0	0x3d83c558	0.06434125
1	0xbcd262b8	-0.025681838
2	0xbe166616	-0.1468738
3	0xbe2eda5e	-0.17075488
4	0x3dea3c16	0.11437242
5	0xbdd76252	-0.105168
6	0xbc254990	-0.010088339
7	0xbe1b50f5	-0.15167601
8	0xbe2c2fac	-0.1681506
9	0x3db2e3fa	0.08734889
10	0x3d4271dc	0.047471866
11	0xbda7ea37	-0.0819897
12	0x3e1358ed	0.14389391
13	0x3dbfa9ae	0.09358536
14	0x3e01de6f	0.12682508
15	0x3d40be60	0.047056556
16	0x3e197e6f	0.14989637
17	0xbcac1d50	-0.021010071
18	0xbb826b80	-0.0039801
19	0x3e0f5759	0.13998164
20	0x3e2d3dcd	0.16918106
21	0xbdd856a3	-0.105634
22	0xbd478d9c	-0.048719034
23	0x3da9b3e2	0.08286263
24	0x3cddee78	0.02709125
25	0xbe18542d	-0.1487586
26	0xba89d300	-0.0010515153
27	0x3c89e540	0.016832948
28	0x3d512198	0.051057428
29	0x3d36c8cc	0.04462509
30	0x3e28c7a1	0.16482402
31	0xbd9d75cb	-0.07688483

branch.net.net.4.weight f4 [32, 32]
0	0xbcd46028	-0.025924757
1	0xbdef335e	-0.116797194
2	0xbcdd7a98	-0.027035996
3	0xbdcda523	-0.10041263
4	0x3e24593f	0.1604967
5	0x3dc57caa	0.096429184
6	0xbd0a2120	-0.033722997
7	0x3dd61e6e	0.10455023
8	0xbd6c7e42	-0.057737596
9	0xbd9eb10a	-0.07748611
10	0xbe345aae	-0.17612717
11	0x3c80df08	0.01573135
12	0xbd0b6338	-0.03403017
13	0xbd82b993	-0.06383052
14	0xbda593fe	-0.08084868
15	0xba9a8300	-0.0011788309
16	0x3d9016a2	0.07035567
17	0xbdf05586	-0.11735062
18	0xbe31e550	-0.17372632
19	0xbc73a230	-0.0148702115
20	0xbc23fc20	-0.010008842
21	0x3c6cb5c0	0.014447629
22	0xbd993610	-0.07481015
23	0x3b007240	0.0019599348
24	0x3db94d72	0.09047975
25	0x3d987dde	0.07445882
26	0x3b80b900	0.0039283037
27	0x3e0e2451	0.13881041
28	0x3d996d9a	0.07491608
29	0xbd43ed6c	-0.047833845
30	0x3e118d41	0.1421404
31	0x3def6456	0.116890594
32	0x3dc3623a	0.095402196
33	0x3d813fc2	0.06310989
34	0xbd765932	-0.060143657
35	0x3e194e25	0.14971216
36	0x3d391e30	0.045194805
37	0xbe11aef7	-0.142269
38	0xbd75286e	-0.05985301
39	0xbdb5fb88	-0.088858664
40	0x3d99928e	0.07498656
41	0xbe1faa2a	-0.15592256
42	0xbe209c23	-0.15684561
43	0x3cce9b10	0.025220424
44	0x3bdaeca0	0.00668104
45	0xbe27333f	-0.16328143
46	0x3dc903a2	0.09815146
47	0xbdf02c26	-0.11727171
48	0xbe1c30f3	-0.15253048
49	0x3dced0e2	0.10098435
50	0x3e1a8509	0.15089811
51	0x3dd3c7de	0.10340856
52	0x3c890288	0.01672484
53	0xbd2ab674	-0.041677907
54	0xbd900689	-0.070324965
55	0x3e2e693d	0.17032333
56	0x3e02a2c7	0.12757407
57	0x3e30b2a5	0.17255647
58	0x3deb4842	0.114883915
59	0xbe19c85a	-0.15017834
60	0x3d1d5950	0.038415253
61	0xbe2d2427	-0.16908322
62	0x3d91fa54	0.071278244
63	0xbe025c9b	-0.12730639
64	0xbd0286a0	-0.03186667
65	0xbdf0a012	-0.11749281
66	0x3e02bc99	0.12767257
67	0xbe28de14	-0.16490966
68	0x3dce9eaa	0.100888565
69	0xbe2303c4	-0.15919405
70	0xbdfd9bce	-0.12383233
71	0x3e2a5039	0.16632165
72	0x3c67d590	0.014150038
73	0x3dde7b5a	0.10863371
74	0xbe0ca6f7	-0.13735567
75	0xbd507f38	-0.050902575
76	0xbdd40132	-0.103517905
77	0x3d92f234	0.07175103
78	0xbd63bd4e	-0.055600457
79	0x3d3e6a58	0.046488136
80	0xbe0481a1	-0.12940075
81	0x3d49482c	0.049141094
82	0x3d8502ca	0.064946726
83	0x3e236ff1	0.15960671
84	0xbe0ca5a6	-0.13735065
85	0xbd0fdc5c	-0.03512226
86	0x3cdf0a70	0.027226657
87	0x3d07513c	0.033036456
88	0xbddf70ea	-0.109102085
89	0xbdc23168	-0.0948208
90	0xbdc79c08	-0.097465575
91	0xbe21498d	-0.15750714
92	0xbbc15ae0	-0.0059007257
93	0xbdfefd48	-0.12450653
94	0xbd5884c0	-0.052860975
95	0xbe33d7a1	-0.17562725
96	0xbce5f5c8	-0.0280713
97	0x3de03436	0.109474584
98	0xbbf4d120	-0.0074712187
99	0x3d9d5a76	0.0768327
100	0x3e038dff	0.12847136
101	0x3dd513da	0.10404177
102	0xbcd209b8	-0.0256394
103	0xbc36b0b0	-0.011150524
104	0x3dfd1376	0.123572275
105	0xbd056340	-0.032565355
106	0x3d0faac8	0.03507498
107	0x3cec0b30	0.028813928
108	0x3e248cb5	0.160693
109	0xbdc6f859	-0.09715337
110	0x3cadec90	0.021230966
111	0x3d32eaa4	0.043680802
112	0xbdc57a9f	-0.09642529
113	0xbe18cb7f	-0.14921378
114	0xbdd5889d	-0.104264475
115	0x3cb86b20	0.022512019
116	0x3d044f58	0.03230223
117	0xbdd77a59	-0.10521383
118	0x3df7d222	0.121006265
119	0xbbad7080	-0.005292952
120	0x3e0abafb	0.1354789
121	0xbd4cc218	-0.04998979
122	0xbd178bdc	-0.036998615
123	0xbd639cc2	-0.055569418
124	0x3df074da	0.11741038
125	0x3e28ed57	0.16496788
126	0x3e1228c5	0.14273365
127	0x3d44c2b0	0.04803723
128	0xbe14c24c	-0.14527243
129	0xbd39f6c4	-0.04540135
130	0xbc70ecc0	-0.014704883
131	0x3bb50c80	0.0055251718
132	0xbe049961	-0.12949134
133	0x3dafe8d2	0.08589329
134	0x3da51d6e	0.08062254
135	0x3e22185b	0.15829603
136	0x3d85b194	0.06528011
137	0xbe08ed0a	-0.13371673
138	0x3dabb35a	0.08383818
139	0x3e05a07f	0.13049506
140	0x3d3178d8	0.043328136
141	0x3d73bf3c	0.059508547
142	0xbde8d5f9	-0.11368937
143	0xbdb2041a	-0.086921886
144	0x3dc10d66	0.09426384
145	0x3d8d5682	0.06901266
146	0xbe06c43e	-0.13160798
147	0xbd2258bc	-0.039635405
148	0xbe2c347d	-0.16816898
149	0xbde47af7	-0.11156266
150	0xbdf9d607	-0.121990256
151	0xbe14ef40	-0.14544392
152	0x3e1f4413	0.15553312
153	0x3d0720cc	0.032990262
154	0xbe2d0312	-0.16895702
155	0xbdc94580	-0.09827709
156	0x3e098ad3	0.13431863
157	0x3d569b14	0.052393988
158	0x3e1d0859	0.15335216
159	0x3db87da6	0.090083405
160	0x3e07fe37	0.13280569
161	0xbe0a2937	-0.13492285
162	0xbde4196b	-0.111376606
163	0xbd987afd	-0.07445333
164	0x3b968d80	0.004594505
165	0x3e0efcf7	0.13963686
166	0x3e02d39d	0.12776037
167	0x3d1fbfa8	0.039001137
168	0xbe041dd1	-0.12901999
169	0xbe286310	-0.1644404
170	0xba0c9b00	-0.0005363673
171	0xbdb55f75	-0.088560976
172	0xbdaed6e3	-0.0853708
173	0xbdf1e4fa	-0.11811252
174	0xbda67115	-0.081270374
175	0xbcc1a420	-0.023637831
176	0xbd9b9f1d	-0.07598708
177	0xbe30d78b	-0.17269723
178	0x3dd24542	0.10267116
179	0x3e1b634f	0.15174602
180	0xbe0ccbc4	-0.13749605
181	0xbd4613c0	-0.04835868
182	0x3d29f224	0.04149069
183	0xbce64d10	-0.028112918
184	0x3de59bde	0.1121137
185	0xbe133d06	-0.14378747
186	0xbc0cbd90	-0.008590117
187	0x3e1752fb	0.14777748
188	0xbdd1cdbe	-0.1024432
189	0x3c4a2620	0.012338191
190	0x3dea1232	0.11429252
191	0x3d8f45c2	0.06995727
192	0xbcc17990	-0.023617536
193	0xbd5540f4	-0.052063897
194	0x3dd1cc16	0.102440044
195	0xbc5bc370	-0.013413295
196	0xbdd1f3f0	-0.102516055
197	0xbe173752	-0.14767197
198	0xbe128e6c	-0.14312142
199	0xbd9ee31a	-0.0775816
200	0x3dbc9fd6	0.09210174
201	0xbe32639b	-0.17420809
202	0xbd092740	-0.033484697
203	0xb7b26000	-2.1263957e-05
204	0xbd631c8c	-0.055447146
205	0x3b957060	0.0045605153
206	0xbc824288	-0.015900865
207	0x3e32e36b	0.17469566
208	0xbc5542f0	-0.013016447
209	0xbd0d436c	-0.034488127
210	0x3dc53e86	0.09631066
211	0xbd89ee78	-0.067349374
212	0x3d628550	0.055302918
213	0xbe1a76b8	-0.1508435
214	0xbe28fe2f	-0.16503213
215	0xbd9eccd4	-0.077539116
216	0xbd17ce7c	-0.037062153
217	0xbd758b40	-0.059947252
218	0xbcbf52f0	-0.023354977
219	0x3d5d99b8	0.054101676
220	0x3e286f79	0.16448773
221	0xbad65200	-0.0016351342
222	0xbce3b338	-0.02779542
223	0x3d610b74	0.054942563
224	0xbe325436	-0.17414936
225	0x3da7157e	0.08158396
226	0x3de01506	0.1094151
227	0x3c60ef50	0.013728932
228	0xbe14e072	-0.14538744
229	0x3dca058e	0.09864341
230	0xbc9b0f38	-0.018928155
231	0xbd383054	-0.044967964
232	0xbd5de98e	-0.054177813
233	0xbe2b550f	-0.16731666
234	0x3e1778f5	0.14792235
235	0xbdc51e25	-0.0962489
236	0xbd923dae	-0.07140671
237	0xbd428890	-0.047493517
238	0xbdeb9c27	-0.11504393
239	0x3dedbcae	0.116082534
240	0x3d90f864	0.07078627
241	0xbe28cad2	-0.1648362
242	0x3de36f1a	0.11105175
243	0x3e000897	0.12503277
244	0x3e259201	0.16168977
245	0xbdcec7a3	-0.100966714
246	0x3d1dbd4c	0.038510606
247	0x3e1d9c47	0.15391646
248	0xbe17afb9	-0.14813127
249	0xbe19d79f	-0.15023659
250	0xbd0584d0	-0.032597363
251	0xbdba8415	-0.09107224
252	0xbdbab635	-0.091167845
253	0x3e0f37d3	0.13986139
254	0xbe19481b	-0.14968912
255	0x3cafaec8	0.021445647

branch.net.net.4.bias f4 [32]
0	0x3e0fbc19	0.14036597
1	0x3dd58b8e	0.104270086
2	0x3d29705c	0.04136692
3	0x3d8f77b0	0.070052505
4	0xbdf3be95	-0.11901585
5	0xbe31a68e	-0.17348692
6	0xbe19f5f3	-0.15035228
7	0x3d9edd9a	0.07757111
8	0xbdbc01bb	-0.091800176
9	0x3d3ee814	0.046608046
10	0x3e1421f5	0.14466079
11	0x3c396420	0.011315376
12	0xbdea9423	-0.11454036
13	0x3db109b2	0.08644427
14	0xbd039dcc	-0.03213291
15	0x3dafea2a	0.08589585
16	0xbe1261b1	-0.14295079
17	0xbda4d723	-0.080488466
18	0xbe056df4	-0.13030225
19	0x3e06ab85	0.13151367
20	0x3d3ab520	0.04558289
21	0xbdddc321	-0.108282335
22	0xbd0771f4	-0.03306766
23	0x3d92b5b0	0.071635604
24	0x3dee51da	0.11636706
25	0xbd07d7a4	-0.033164635
26	0xbe1cbf78	-0.15307415
27	0xbe130b48	-0.14359772
28	0x3df0f3f2	0.11765279
29	0x3c272ba0	0.010203272
30	0x3de5d3de	0.11222051
31	0x3e1d71d9	0.1537546

branch.net.net.6.weight f4 [16, 32]
0	0xbd40fffc	-0.047119126
1	0xbc98da48	-0.018658772
2	0xbdab1bcb	-0.083549105
3	0x3cf98458	0.030458614
4	0xbdcc1356	-0.099646255
5	0x3d3a44c8	0.04547575
6	0x3c7867f0	0.015161499
7	0xbda71850	-0.08158934
8	0x3e081e35	0.13292773
9	0xbdfae920	-0.12251496
10	0xbdfc2b78	-0.123129785
11	0xbd2940c8	-0.041321546
12	0x3dee702a	0.11642487
13	0xbdf1c7ee	-0.11805712
14	0x3da8e32a	0.08246453
15	0xbc7edcf0	-0.015555605
16	0x3d7e1a2c	0.06203668
17	0x3e14a10b	0.14514558
18	0xbcb54620	-0.022128165
19	0xbdcfcf7a	-0.10146995
20	0xbb657480	-0.0035012066
21	0xbd1ea9ec	-0.03873627
22	0xbe0ec7d8	-0.13943422
23	0xbca0eb58	-0.01964347
24	0x3d75ca40	0.060007334
25	0xbd4a1f24	-0.049346104
26	0x3e119b57	0.14219414
27	0x3d199420	0.03749478
28	0x3e342f13	0.17596082
29	0xbe155350	-0.14582562
30	0x3e004b15	0.12528642
31	0x3d974f3a	0.07388158
32	0x3e0b686d	0.13614054
33	0xbd05f538	-0.032704562
34	0xbd874b24	-0.06606129
35	0xbd286528	-0.041112095
36	0xbd9ceee9	-0.07662756
37	0xbdb9d808	-0.09074408
38	0xbe12c63a	-0.1433343
39	0x3d49352c	0.049122974
40	0xbe164ab2	-0.14676932
41	0xbd3ec284	-0.046572223
42	0xbcad4cd8	-0.021154806
43	0xbd19adf0	-0.037519395
44	0x3d31d624	0.04341711
45	0xbdf41ca0	-0.11919522
46	0x3df23096	0.11825673
47	0x3ce00e98	0.027350709
48	0xbd315f30	-0.04330367
49	0x3e23d82f	0.16000436
50	0xbd8dca77	-0.06923383
51	0xbd90cfc9	-0.07070882
52	0xbd328ae0	-0.043589473
53	0xbe133329	-0.14374985
54	0xbe27d248	-0.1638881
55	0xbd745140	-0.0596478
56	0x3d265264	0.040605918
57	0x3dbb1d2e	0.09136425
58	0x3e0e05eb	0.13869445
59	0x3d88081e	0.06642173
60	0xbc4313c0	-0.011906564
61	0x3de48616	0.11158387
62	0x3e1ad18f	0.15119003
63	0xbe02fef0	-0.12792563
64	0xbe23575b	-0.15951292
65	0xbddfbc39	-0.109245725
66	0x3db1df1a	0.08685131
67	0xbd3c9a28	-0.046045452
68	0xbdc96273	-0.09833231
69	0xbe1a6add	-0.15079828
70	0xbd4060d8	-0.046967357
71	0x3dfd1732	0.1235794
72	0xbdfbc5b6	-0.1229357
73	0x3e0445ff	0.12917326
74	0xbd9e47a9	-0.07728512
75	0xbddde72e	-0.1083511
76	0x3cad5bc8	0.021161929
77	0x3d14ff28	0.03637615
78	0x3d98ee72	0.07467355
79	0xbe2dab18	-0.16959798
80	0x3dfc0ba6	0.12306909
81	0x3d99f6b2	0.075177565
82	0x393aac00	0.00017802417
83	0x3e1d61e1	0.15369369
84	0xbd6f89f4	-0.05848117
85	0x3df330a2	0.1187451
86	0x3e29d53d	0.1658525
87	0x3e2effd1	0.17089774
88	0xbce9df58	-0.028548881
89	0x3e01db27	0.12681256
90	0xbe03e80d	-0.12881489
91	0xbc8f32d8	-0.017480299
92	0x3c9a1df0	0.018813103
93	0x3db4958a	0.08817585
94	0x3db42046	0.08795218
95	0x3e125923	0.14291815
96	0xbe015ff8	-0.12634265
97	0xbb875c00	-0.0041308403
98	0xbd8c75f8	-0.06858438
99	0x3e2b9851	0.16757323
100	0xbd8ef411	-0.06980146
101	0x3e1d90d1	0.15387274
102	0x3e002e19	0.12517585
103	0xbd01ec24	-0.031719342
104	0xbdeb5ed8	-0.114926994
105	0x3dd4bd4a	0.103876665
106	0xbda4d1ae	-0.08047806
107	0x3db09cf6	0.08623688
108	0x3e297f33	0.16552429
109	0x3de1b882	0.1102152
110	0x3d811362	0.06302525
111	0x3da0be3a	0.07848783
112	0x3e067adf	0.13132809
113	0x3e207d4d	0.15672798
114	0x38fcc800	0.00012053549
115	0x3e0da4c7	0.13832389
116	0x3d25e718	0.04050359
117	0xbc964c10	-0.018346816
118	0xbd625a24	-0.055261746
119	0xbd67cf3a	-0.05659411
120	0x3de493a2	0.11160971
121	0x3dd788ee	0.10524164
122	0x3cfdb840	0.030971646
123	0x3cafcb40	0.021459222
124	0xbe164ddb	-0.14678137
125	0x3db08a1a	0.08620091
126	0x3e06c849	0.1316234
127	0xbe1d23b4	-0.15345651
128	0x3d525b20	0.051356435
129	0xbe191be2	-0.14952043
130	0xbd71f2fe	-0.059069626
131	0x3db1ba22	0.0867808
132	0x3d9566d8	0.072950065
133	0xbe2ab3c2	-0.16670135
134	0x3d38c6a4	0.045111313
135	0x3de54836	0.11195414
136	0x3daa561e	0.08317207
137	0xbc998b00	-0.018743038
138	0x3d4da514	0.05020626
139	0x3d4e170c	0.050314948
140	0xbe2380d5	-0.15967114
141	0x3db7b742	0.089705005
142	0xbc08f280	-0.008358598
143	0xbcaeb4c8	-0.021326438
144	0x3defdab2	0.11711635
145	0x3e2942db	0.1652941
146	0xbdd43cac	-0.10363135
147	0x3e00cdb9	0.12578477
148	0x3d839744	0.06425336
149	0xbe1687d0	-0.14700246
150	0x3d6b173c	0.057395205
151	0x3dd167c6	0.10224871
152	0xbe319e07	-0.17345439
153	0x3da4702e	0.08029209
154	0xbd74dae4	-0.059779063
155	0x3d64ec60	0.055889487
156	0x3c00cea0	0.007861763
157	0x3dfb546a	0.1227196
158	0x3de77c7a	0.11303039
159	0x3e15ae87	0.14617358
160	0xbda911b5	-0.082553305
161	0x3b554bc0	0.0032546371
162	0x3da6e7aa	0.08149655
163	0xbdd44ce4	-0.10366228
164	0x3de6941a	0.11258717
165	0x3e3503e3	0.17677264
166	0x3c8773d0	0.016534716
167	0x3cbe93c0	0.023263812
168	0x3dd395e6	0.10331325
169	0x3e2d9715	0.16952164
170	0xbe16b0a7	-0.14715825
171	0xbe19cbad	-0.15019102
172	0x3df03f2e	0.117308006
173	0x3dd9a606	0.106273696
174	0xbe345982	-0.1761227
175	0x3c94a200	0.018143654
176	0x3d2d16b8	0.042257994
177	0x3dbce226	0.09222822
178	0x3c7a2a30	0.015268847
179	0xbde1c6da	-0.11024256
180	0x3d81a16e	0.063296184
181	0xbc639970	-0.013891563
182	0xbe305842	-0.17221168
183	0xbc988810	-0.018619567
184	0xbe16fe2e	-0.147454
185	0x3d0cdf58	0.034392685
186	0xbe245ea3	-0.16051726
187	0x3e0425e1	0.12905075
188	0xbd7b7552	-0.061391182
189	0x3ca4d610	0.020121604
190	0xbda6173c	-0.081099
191	0xbd0abaf4	-0.0338697
192	0xbdeb1924	-0.114794046
193	0x3dd56eaa	0.10421498
194	0xbe09dc3f	-0.13462923
195	0x3e1f39d7	0.15549408
196	0xbd8e355c	-0.06943771
197	0x3df9198e	0.12163077
198	0xbe2b2b32	-0.16715696
199	0x3e2b0f1b	0.16704981
200	0xbd4cfbb4	-0.05004473
201	0xbd150b54	-0.036387756
202	0xbe1049d0	-0.14090657
203	0x3cdf3838	0.027248487
204	0xbdb06cdb	-0.086145125
205	0x3dc945ba	0.098277524
206	0xbd7048ec	-0.058663294
207	0x3bf44b00	0.0074552298
208	0xbe0cc90e	-0.13748571
209	0xbd1c10c4	-0.038101926
210	0xbe206e23	-0.15667014
211	0x3dcca22a	0.09991868
212	0x3d9b91fa	0.07596202
213	0x3e2c7f1f	0.16845368
214	0x3d7a4884	0.061104313
215	0x3e05e153	0.13074236
216	0x3de5c0c2	0.11218406
217	0x3ccdbb00	0.025113583
218	0xbd16942c	-0.0367624
219	0x3e1cef31	0.1532562
220	0x3d377b7c	0.0447955
221	0x3d98154e	0.074259385
222	0x3c9fd0a8	0.019508675
223	0x3dc7a18a	0.09747608
224	0x3dfeef26	0.12447958
225	0x3dc89846	0.09794669
226	0xbc2b5e80	-0.010459542
227	0xbd721348	-0.05910042
228	0x3e0969d1	0.13419272
229	0x3c8ad220	0.016945899
230	0x3dcd6c52	0.10030426
231	0xbd4b8148	-0.04968384
232	0xbe24eccc	-0.16105956
233	0xbdcf9296	-0.10135381
234	0xbc358900	-0.011080027
235	0x3dc07d1a	0.09398861
236	0xbd7ea67e	-0.062170498
237	0xbc6fe190	-0.014641181
238	0x3dfe095e	0.124041304
239	0x3de060da	0.10955973
240	0xbbc49440	-0.005999118
241	0x3e1ec257	0.15503822
242	0x3ba8df20	0.0051535517
243	0xbc7aa830	-0.015298888
244	0x3daf79be	0.08568142
245	0x3dd8dc8a	0.105889395
246	0x3c594e30	0.01326327
247	0xbdaaaa8c	-0.083333105
248	0x3e27231b	0.16321985
249	0xbc63dcb0	-0.0139075965
250	0xbe2a716f	-0.16644834
251	0x3e0c2dd9	0.13689364
252	0x3de3637a	0.11102958
253	0xba8e7b80	-0.0010870546
254	0x3d6bf7f0	0.0576095
255	0x3e0a59bd	0.13510795

branch.net.net.6.bias f4 [16]
0	0x3e3191f5	0.17340834
1	0x3de7fa02	0.11326982
2	0xbe2e2b0c	-0.17008609
3	0x3b33cf80	0.0027436912
4	0xbdd18a50	-0.10231459
5	0xbd55bf3c	-0.05218433
6	0x3dbe0c0e	0.09279643
7	0xbdd49c7e	-0.10381411
8	0xbe2fda1e	-0.17173049
9	0xbdff93c6	-0.124793574
10	0xbd4223b0	-0.047397316
11	0xbe10dace	-0.14145967
12	0xbd78f9c4	-0.06078507
13	0xbd043ddc	-0.032285556
14	0xbd9f3e2a	-0.07775529
15	0xbe1ab5e2	-0.15108445

trunk_ur.branch.net.net.0.weight f4 [32, 2]
0	0x3f3fdd5d	0.7494715
1	0xbe3c337f	-0.18379019
2	0x3ea8efda	0.32995492
3	0x3ef0a197	0.46998283
4	0xbe3e0ac1	-0.1855879
5	0x3f2c0727	0.67198414
6	0x3eae26be	0.34013933
7	0x3f28c9f2	0.65933144
8	0x3d8e8248	0.06958443
9	0x3ea9c700	0.33159637
10	0xbf5889fb	-0.8458554
11	0xbcf7431e	-0.030183371
12	0x3f04f966	0.5194305
13	0xbdbf1be9	-0.09331495
14	0x3ef58913	0.47956142
15	0x3f13f1ed	0.57791024
16	0xbca0d1b4	-0.019631244
17	0xbe3bf32f	-0.18354486
18	0x3f272777	0.65294594
19	0x3ea77afa	0.3271101
20	0x3bb0c1f1	0.0053942134
21	0x3ef610f4	0.4805981
22	0xbe6ae8c6	-0.22940359
23	0xbf17615d	-0.5913294
24	0xbe66afc2	-0.22527984
25	0xbea9a4be	-0.331335
26	0xbdf3efb7	-0.11910956
27	0x3f1dd902	0.6165925
28	0x3bc5f2fb	0.0060409284
29	0x3ee2f33a	0.44326192
30	0x3d827d4e	0.06371556
31	0x3eff590c	0.49872625
32	0xbe2a6d6b	-0.16643302
33	0x3ef0391d	0.46918574
34	0x3e412b49	0.18864168
35	0x3ea4f0ee	0.32215065
36	0xbea2010f	-0.31641433
37	0x3f23934a	0.6389662
38	0x3f31d4d9	0.69465405
39	0xbcded335	-0.02720032
40	0xbf050d67	-0.51973575
41	0x3ec58f75	0.38586012
42	0x3e7484fc	0.23878855
43	0x3e53f915	0.20700486
44	0x3e9e3970	0.30903196
45	0x3cab34e7	0.02089925
46	0x3edab9a4	0.42719758
47	0xbf0dc815	-0.55383426
48	0x3e044968	0.12918627
49	0xbf232c50	-0.6373949
50	0x3e34c2a3	0.17652373
51	0xbf4b197a	-0.7933575
52	0xbefe28a1	-0.49640372
53	0x3ea47084	0.32117093
54	0x3eacf5fe	0.33781427
55	0xbecbda45	-0.39814964
56	0xbe43c6bb	-0.19118778
57	0x3ef268db	0.47345623
58	0x3ca47cca	0.020079035
59	0xbece9610	-0.40348864
60	0xbe36af08	-0.17840207
61	0x3e22c5b9	0.15895738
62	0x3e9bae87	0.3040659
63	0x3f049051	0.5178271

trunk_ur.branch.net.net.0.bias f4 [32]
0	0xbf3861e7	-0.7202439
1	0xbc4049ee	-0.011736376
2	0xbf27434f	-0.6533708
3	0xbe538871	-0.20657517
4	0xbf24e56b	-0.64412564
5	0x3f2fefde	0.68725383
6	0x3ee93ac2	0.4555264
7	0xbec22bdd	-0.3792409
8	0x3e8988e5	0.26862255
9	0x3ebcb29d	0.3685502
10	0xbe81d525	-0.2535793
11	0x3cca675b	0.024707487
12	0x3ea2baec	0.31783235
13	0xbf16735d	-0.5876978
14	0xbe4b1208	-0.19831097
15	0xbd3d561c	-0.0462247
16	0xbe2c60b2	-0.16833761
17	0xbee0664f	-0.43828055
18	0xbf0bd7f8	-0.5462642
19	0x3f0b1f4d	0.54344636
20	0xbf2d9324	-0.67802644
21	0xbebad422	-0.3648997
22	0xbf05972a	-0.52183783
23	0x3e614a56	0.22001013
24	0xbf0c3cd5	-0.5478032
25	0xbf230412	-0.63678086
26	0x3efbf160	0.49207592
27	0x3e3feb2f	0.18742059
28	0x3f04e224	0.51907563
29	0xbd9f1026	-0.07766752
30	0x3efd8807	0.49517843
31	0xbdc652a0	-0.09683728

trunk_ur.branch.net.net.2.weight f4 [32, 32]
0	0xbdd799ea	-0.10527404
1	0x3db7e962	0.08980061
2	0xbcfa5414	-0.03055767
3	0x3e582d31	0.21110989
4	0x3db16397	0.086615734
5	0xbe1858cf	-0.14877628
6	0x3e2f7574	0.17134649
7	0x3f258dea	0.6466967
8	0xbed2da9f	-0.4118242
9	0x3e09d6ff	0.13460921
10	0x3d3a4d43	0.04548384
11	0x3d14f5ca	0.036367215
12	0xbe32ed9a	-0.1747345
13	0xbd634ea7	-0.05549493
14	0x3d770aab	0.06031291
15	0xbdcb8495	-0.099373974
16	0x3d879970	0.06621063
17	0x3f00b89c	0.5028169
18	0xbe778606	-0.2417222
19	0xbe0f3776	-0.13986
20	0x3c87ad91	0.016562255
21	0x3e1ebd22	0.15501836
22	0x3e4f34d5	0.20234998
23	0xbdc32f57	-0.09530514
24	0x3d6ee740	0.058326006
25	0xbe703d5d	-0.23460908
26	0xbc3b74b6	-0.0114414
27	0x3cfd43e0	0.030916154
28	0xbd95c4ab	-0.07312902
29	0xbe68d19c	-0.2273621
30	0xbe2213c3	-0.15827851
31	0x3e5428f0	0.20718741
32	0xbe4bc6f6	-0.19900116
33	0x3e118282	0.14209941
34	0x3e7fb4c4	0.249713
35	0x3ce95e0e	0.028487232
36	0x3e6fc259	0.23413981
37	0x3e51c76d	0.20486231
38	0x3ced432c	0.028962694
39	0x3e040a08	0.12894452
40	0x3afa624a	0.0019102779
41	0x3de94374	0.11389819
42	0xbd952d69	-0.07284052
43	0x3c429b62	0.011877866
44	0xbde2c402	-0.11072542
45	0x3e6e30ee	0.23260853
46	0x3ba1f92a	0.0049430327
47	0x3e31c7e4	0.17361408
48	0x3e34eb27	0.17667829
49	0x3e00c8c1	0.12576582
50	0x3dab0491	0.0835048
51	0x3dadd91e	0.084886774
52	0x3d1ab064	0.037765875
53	0xbdeb14e1	-0.11478592
54	0x3cf15408	0.029459015
55	0xbe38f709	-0.18062986
56	0xbdaa7d82	-0.0832472
57	0x3bb12a3d	0.0054066465
58	0x3dd5a6ae	0.10432182
59	0xbc91219d	-0.017716223
60	0x3daa287d	0.08308504
61	0xbe5d4c62	-0.21611169
62	0x3d728c97	0.05921611
63	0xbcd60ecb	-0.0261301
64	0xbe1f6021	-0.15564014
65	0x3f1ab3bb	0.60430497
66	0xbe8321ec	-0.25611818
67	0x3f03469d	0.5127962
68	0x3e7336f9	0.23751439
69	0xbd883d3b	-0.06652304
70	0x3e8ac935	0.27106634
71	0x3f0f12e9	0.5588823
72	0xbea58027	-0.32324335
73	0x3edbc84b	0.4292625
74	0x3e4ebdb3	0.20189552
75	0xbdc1f397	-0.09470289
76	0xbf326be5	-0.69695884
77	0x3c574676	0.013139358
78	0x3e2c375c	0.16817993
79	0x3e5c256e	0.21498653
80	0xba1ea521	-0.0006051828
81	0x3e96aeb1	0.29430154
82	0xbe8fd638	-0.28093123
83	0x3f23f555	0.6404622
84	0xbecdcfea	-0.40197688
85	0x3ebbc03a	0.36670095
86	0x3e68b417	0.22724949
87	0xbbaa9507	-0.0052057537
88	0xbe603aa9	-0.21897377
89	0xbde9f5d8	-0.11423844
90	0x3e5ab38c	0.21357554
91	0xbd970c44	-0.07375386
92	0x3d9a2df3	0.07528295
93	0xbd271e99	-0.040800665
94	0x3e00ee66	0.12590942
95	0x3f1d0f62	0.613516
96	0x3d7b74f8	0.061390847
97	0x3e058431	0.13038708
98	0x3ea2a598	0.31766963
99	0x3c9ab00b	0.018882772
100	0xbd4ebbd8	-0.05047211
101	0x3ea3caf5	0.3199078
102	0xbe098678	-0.13430202
103	0x3c0c41ee	0.008560641
104	0xbd1bf00a	-0.038070716
105	0x3e56f7f4	0.20993024
106	0x3e5dffb0	0.21679568
107	0xbe70141d	-0.23445173
108	0x3dcf8d04	0.101343185
109	0x3d01e3f2	0.031711526
110	0x3e727bd0	0.23680043
111	0x3e74e938	0.23917091
112	0x3e4d9d2f	0.20079492
113	0xbe017595	-0.1264251
114	0x3cb928cb	0.02260246
115	0xbc8a6c9a	-0.016897488
116	0x3e310b42	0.17289451
117	0xbb86f7f6	-0.0041189147
118	0xbdde6803	-0.108596824
119	0xbe95c5fb	-0.2925261
120	0xbe24995b	-0.16074125
121	0xbe231045	-0.15924175
122	0x3d6b5ca9	0.057461414
123	0xbe90018d	-0.28126183
124	0x3d7bb432	0.061451145
125	0xbe5d22c5	-0.21595295
126	0xbdd14d0b	-0.10219773
127	0x3df4b674	0.11948863
128	0xbe117712	-0.14205578
129	0xbdbd1d1a	-0.09234066
130	0x3cd5dbc1	0.026105763
131	0x3e250e41	0.16118719
132	0x3d9395ac	0.07206282
133	0xbdc5a4ae	-0.09650551
134	0xbf009ada	-0.50236285
135	0xbe7dc405	-0.24781807
136	0x3dfab0a4	0.12240723
137	0xbe884ae6	-0.26619643
138	0x3e459412	0.19294766
139	0xbd510813	-0.05103309
140	0xbdd56313	-0.104192875
141	0x3e6be74e	0.23037454
142	0x3d9846ba	0.07435365
143	0xbc882985	-0.01662136
144	0x3e0caa10	0.13736749
145	0x3db7b420	0.08969903
146	0xbca967f2	-0.020679448
147	0xbea81d17	-0.32834694
148	0x3efc14e5	0.4923469
149	0x3c37023c	0.011169966
150	0xbcbbd77a	-0.022929896
151	0xbcff1684	-0.031138666
152	0x3e556432	0.20839003
153	0x3e1e4189	0.15454687
154	0xbc08317e	-0.008312581
155	0xbdff053d	-0.12452171
156	0x3ce63dfe	0.028105732
157	0x3e1d35c7	0.15352546
158	0xbe4153f3	-0.1887968
159	0x3e0657a0	0.13119364
160	0xbd781871	-0.060570184
161	0xbdf65c82	-0.12029363
162	0xbbcbc3a7	-0.006218392
163	0xbe5d7802	-0.2162781
164	0xbebfd411	-0.3746648
165	0xbe008193	-0.12549429
166	0x3e715385	0.23567016
167	0xbe317338	-0.17329109
168	0x3c9cfd0d	0.019163633
169	0xbdf7f0ae	-0.12106453
170	0xbdd61d46	-0.10454802
171	0x3e42f9d9	0.19040622
172	0x3da83e18	0.082149684
173	0xbe6beb96	-0.23039088
174	0xbe6ab8e7	-0.22922097
175	0x3cd4a70a	0.025958557
176	0xbe876431	-0.26443627
177	0xbe50b02f	-0.20379709
178	0xbe9cfd53	-0.3066202
179	0x3df06e4a	0.11739786
180	0xbe34a0b1	-0.17639424
181	0xbe6f3b06	-0.2336236
182	0x3ddddf0f	0.10833561
183	0xbc7e746e	-0.015530689
184	0x3d87a7aa	0.06623776
185	0xbdb11589	-0.08646686
186	0xbd48f058	-0.049057335
187	0x3e4b6523	0.198628
188	0xbe1d5419	-0.15364112
189	0x3d715502	0.05891896
190	0x3dcedbbd	0.101005055
191	0xbc20307c	-0.009777185
192	0xbdbced9f	-0.0922501
193	0x3a00efdd	0.0004918555
194	0xbedd0210	-0.43165636
195	0xbddb0911	-0.10695089
196	0xbd88845e	-0.06665872
197	0x3e5dcdaa	0.21660486
198	0x3e81f999	0.2538574
199	0xbdfc6323	-0.12323596
200	0x3cabfd66	0.020994853
201	0xbcdfc04f	-0.02731338
202	0xbe701e15	-0.23448975
203	0x3e0b5a01	0.13608553
204	0x3e6b75fd	0.22994228
205	0xbedb612f	-0.42847583
206	0xbe30e4ce	-0.17274782
207	0x3d3eb257	0.046556797
208	0xbe64f6a3	-0.2235971
209	0x3c9dd653	0.019267237
210	0xbc9b44a2	-0.018953625
211	0x3e1d4354	0.15357715
212	0xbed9efd1	-0.42565778
213	0xbde6eb7f	-0.11275386
214	0xbd8b62e2	-0.0680597
215	0x3e50ff58	0.20409906
216	0xbd84e8c2	-0.064897075
217	0xbe2671a3	-0.16254286
218	0xbbebc55a	-0.007195157
219	0x3deaece7	0.11470967
220	0x3dee96df	0.1164987
221	0x3a30f91e	0.00067509885
222	0x3d2e2801	0.04251862
223	0xbe7a73c9	-0.24458231
224	0xbf36664d	-0.7124985
225	0x3e8691f1	0.2628322
226	0xbe29dade	-0.16587397
227	0x3dde7dc5	0.108638324
228	0xbbdd229a	-0.0067485096
229	0x3f6545b1	0.89559466
230	0x3e8ed9bb	0.2790049
231	0xbd4f9898	-0.050682634
232	0xbdcc7eda	-0.099851325
233	0x3e1c5fc5	0.15270908
234	0x3ed0fb70	0.40816832
235	0xbe2310a6	-0.1592432
236	0xbe8ca05e	-0.274661
237	0xbe06ce65	-0.13164671
238	0x3e9b25eb	0.30302367
239	0x3ebf035a	0.37307245
240	0x3e20dcb3	0.1570919
241	0x3e90638a	0.28200942
242	0xbe28a4b3	-0.16469078
243	0x3f221b7e	0.633232
244	0xbe17bd81	-0.14818384
245	0xbdbf2589	-0.09333331
246	0xbef9423f	-0.48683354
247	0xbe8b4614	-0.27201903
248	0xbf33254b	-0.6997878
249	0xbf1ba31c	-0.6079576
250	0x3f270a0f	0.65249723
251	0xbe5fa2a8	-0.21839392
252	0x3f20c187	0.627953
253	0xbec67ac6	-0.38765544
254	0x3ecd5272	0.40101963
255	0x3e98a69d	0.29814616

trunk_ur.branch.net.net.2.bias f4 [32]
0	0xbc061bcd	-0.008185339
1	0xbd0e3a60	-0.03472364
2	0xbdf24f0c	-0.11831483
3	0x3d3271f2	0.043565698
4	0x3d17d066	0.03706398
5	0x3d8e5c9c	0.069512576
6	0x3e45c627	0.1931387
7	0x3d80e1cd	0.06293068
8	0xbcf997a6	-0.03046782
9	0x3e94ead8	0.29085422
10	0x3de0a5a5	0.10969094
11	0xbcceb9c4	-0.025235064
12	0x3e81a5cf	0.25321814
13	0xbd84b104	-0.064790756
14	0x3eaad306	0.33364123
15	0x3e060e1a	0.13091317
16	0xbe999ed8	-0.30004
17	0xbc112539	-0.008858972
18	0xbe1dfeaa	-0.15429178
19	0xbe4c0b91	-0.19926287
20	0x3ef57c37	0.4794633
21	0xbe8b1128	-0.27161527
22	0xbd44675c	-0.047950134
23	0x3c0b6a40	0.008509219
24	0xbd708bf7	-0.05872723
25	0x3d3063e6	0.04306402
26	0x3d2812f7	0.04103371
27	0x3d50abf2	0.05094523
28	0x3d2a0cb8	0.041516036
29	0xbcdf0fb2	-0.027229164
30	0x3e910d17	0.283303
31	0x3e743f76	0.23852333

trunk_ur.branch.net.net.4.weight f4 [32, 32]
0	0xbd96f880	-0.07371616
1	0x3e089e24	0.13341576
2	0xbe74f76e	-0.23922512
3	0x3e0239c4	0.12717348
4	0x3e601c2f	0.21885751
5	0xbe2e67ac	-0.17031735
6	0xbe76fb0f	-0.24119209
7	0xbe6f9ce2	-0.2339969
8	0xbdb89d21	-0.09014345
9	0xbe62f508	-0.22163785
10	0xbdd73e3e	-0.10509919
11	0x3eb64f4b	0.3560737
12	0xbea90e4d	-0.33018723
13	0xbe1ef801	-0.15524293
14	0xbd397905	-0.04528143
15	0xbe1abd29	-0.15111221
16	0x3ecf3ec2	0.40477568
17	0xbd152430	-0.036411464
18	0x3ed5105a	0.41614038
19	0x3e428f1e	0.18999907
20	0xbe9154ad	-0.28384915
21	0x3e839f34	0.257074
22	0xbe8470c9	-0.25867298
23	0xbecf8c0c	-0.40536535
24	0x3e588421	0.21144153
25	0x3d44e9a3	0.048074376
26	0xbe79be3a	-0.24388972
27	0xbd162bb6	-0.03666278
28	0xbdda5d46	-0.10662322
29	0x3e313a69	0.17307438
30	0xbd6349c4	-0.05549027
31	0xbe5a1ed4	-0.21300822
32	0x3e1b09cd	0.15140457
33	0x3e2ce89d	0.1688561
34	0xbc2d6470	-0.010583028
35	0x3e1cc565	0.15309675
36	0x3de5741e	0.11203788
37	0xbe5ccb7b	-0.21561997
38	0xbde3adf8	-0.11117166
39	0x3e629de9	0.2213055
40	0xbdb49a5f	-0.088185064
41	0x3d85010f	0.064943425
42	0xbea642d1	-0.32472852
43	0x3ce43b13	0.0278602
44	0xbddcf20c	-0.10788354
45	0xbeab5bea	-0.33468562
46	0xbeb18a14	-0.34675658
47	0xbe12353b	-0.14278118
48	0x3e454935	0.19266208
49	0xbe5228c3	-0.20523362
50	0x3c33b3e1	0.010968179
51	0x3cd5d85c	0.026104145
52	0x3de21c17	0.11040514
53	0x3dcd2001	0.1001587
54	0xbdbecd79	-0.093165345
55	0x3dbc50dd	0.09195111
56	0x3eb89dd3	0.3605791
57	0xbdfe4c12	-0.12416853
58	0xbd438878	-0.04773757
59	0x3e790e38	0.2432183
60	0xbe6444db	-0.22291891
61	0xbe507898	-0.20358503
62	0x3c4571c1	0.012051047
63	0x3b377abd	0.0027996742
64	0xbdb194aa	-0.086709335
65	0xbdee5c43	-0.11638691
66	0xbd9607bc	-0.07325694
67	0x3e40721c	0.1879353
68	0xbcbd85b8	-0.023135051
69	0xbe76ea13	-0.2411273
70	0xbe0bc3b8	-0.1364888
71	0xbd014f9c	-0.031570062
72	0xbe5954ed	-0.21223803
73	0xbe009d2f	-0.12559961
74	0xbe2e6cc7	-0.17033683
75	0xbd937220	-0.07199502
76	0x3e28d1a8	0.16486228
77	0xbd0d7f98	-0.03454551
78	0x3df8af83	0.12142851
79	0x3e18ee02	0.14934543
80	0xbd89e5e1	-0.06733299
81	0x3d1b3b63	0.037898432
82	0xbdd299e4	-0.102832586
83	0xbe06a390	-0.13148332
84	0x3cb1d9ff	0.021710394
85	0xbe0f02c1	-0.13965894
86	0xbc4d909d	-0.0125466855
87	0xbdf9950d	-0.12186632
88	0x3e5e9b9b	0.21739046
89	0xbc01312c	-0.007885259
90	0xbe85e33f	-0.26149938
91	0x3e20333b	0.15644543
92	0x3d0a37d3	0.033744644
93	0xbdcea801	-0.10090638
94	0x3e0f2edb	0.13982718
95	0xbe081daa	-0.13292566
96	0x3d06b257	0.032884922
97	0x3cd565ba	0.026049484
98	0xbd4e1870	-0.050316274
99	0x3d8a2baa	0.067466095
100	0x3dee9177	0.11648839
101	0x3d84727d	0.064671494
102	0xbd9eebe9	-0.0775984
103	0xbd713c19	-0.058895204
104	0xbe29ec5b	-0.16594069
105	0xbe95ad08	-0.29233575
106	0x39973257	0.0002883847
107	0xbc588768	-0.013215877
108	0xbe7b0bd3	-0.2451623
109	0x3e3009d4	0.17191249
110	0xbd7883b8	-0.06067249
111	0x3d8cc43c	0.06873366
112	0x3e044fa8	0.12921011
113	0xbd563d50	-0.052304566
114	0x3e57bb8e	0.2106764
115	0x3e89c935	0.2691132
116	0xbe292c02	-0.16520694
117	0x3d7c0cdc	0.0615357
118	0x3e004410	0.12525964
119	0x3df329dc	0.118732184
120	0xbdece458	-0.115669906
121	0xbcf5bf0e	-0.029998329
122	0x3d6e7a0c	0.05822186
123	0xbbcc4bb6	-0.0062346114
124	0x3e16ba21	0.1471944
125	0x3e1cf851	0.153291
126	0xbe87d614	-0.26530516
127	0xbe0a6bf0	-0.13517737
128	0x3ea0b6f4	0.31389582
129	0xbdb0991c	-0.08622953
130	0x3f07fffc	0.53124976
131	0xbe3aed3f	-0.18254565
132	0x3db6bbef	0.08922564
133	0x3d0e56e0	0.03475082
134	0x3cdb20f4	0.026749112
135	0xbc9be222	-0.019028727
136	0x39deb578	0.00042478344
137	0x3cac0d60	0.021002471
138	0xbdfeaa68	-0.12434846
139	0x3cce896a	0.025212009
140	0x3e0d1ecb	0.13781278
141	0x3e4f1b56	0.20225272
142	0xbec44ffb	-0.3834227
143	0x3e32f5b5	0.17476542
144	0xbd4b1c4e	-0.04958754
145	0x3e74f518	0.23921621
146	0xbe1870e8	-0.1488682
147	0xbe7afe6d	-0.24511118
148	0xbf2a3a06	-0.66494787
149	0xbdc710b2	-0.09719981
150	0xbe03029a	-0.12793961
151	0xbe3bf272	-0.18354204
152	0x3d06e216	0.032930456
153	0x3e832661	0.25615218
154	0x3e50c357	0.20387016
155	0x3dadcf69	0.08486826
156	0xbc5a96ab	-0.013341586
157	0x3d85e67f	0.06538104
158	0x3d3f062c	0.046636745
159	0xbe1ce9d8	-0.1532358
160	0x3e0d9964	0.13828045
161	0xbdca3bf5	-0.09874717
162	0x3d4be57a	0.049779393
163	0xbde7f894	-0.113267094
164	0xbe879c55	-0.2648646
165	0x3e12f86f	0.14352582
166	0x3e6ed25b	0.23322432
167	0xbcde66ad	-0.027148569
168	0x3e607f86	0.21923646
169	0x3d421029	0.047378693
170	0x3e3c0391	0.18360735
171	0xbe0b9746	-0.13631925
172	0x3e8d9319	0.2765129
173	0x3e1a5100	0.15069962
174	0x3ea707f4	0.32623255
175	0x3e9fbaf1	0.31197312
176	0xbe7f7528	-0.24947035
177	0x3d256a5b	0.04038463
178	0xbea04c86	-0.31308383
179	0xbea403dc	-0.32034194
180	0xbc5dbd0d	-0.013533843
181	0xbe474a0b	-0.19461839
182	0x3e179db7	0.14806257
183	0x3e7c8d0d	0.24663182
184	0x3c9a3146	0.018822324
185	0x3e2eb2fa	0.17060462
186	0x38cb22aa	9.686251e-05
187	0xbdf16aab	-0.117879234
188	0x3cb7a124	0.022415705
189	0x3da0b2c8	0.078466
190	0x3e8e5f22	0.27806956
191	0x3d63c971	0.05561203
192	0xbd4688f5	-0.048470456
193	0xbd05f206	-0.032701515
194	0xbe0be58a	-0.13661781
195	0x3d38aa44	0.045084253
196	0xbde26189	-0.110537596
197	0xbe0ebb17	-0.13938557
198	0x3e1b2d82	0.15154079
199	0x3d33e18f	0.04391628
200	0x3e2cb088	0.16864216
201	0x3e36bc53	0.17845277
202	0xbe26f5e6	-0.1630474
203	0xbd3b68d1	-0.045754258
204	0x3d073636	0.033010684
205	0xbe03c3e5	-0.12867697
206	0x3c583c0f	0.013197913
207	0x3e5098d7	0.20370804
208	0xbe3936ca	-0.18087307
209	0xbdc7e8e5	-0.09761218
210	0xbd42a0bf	-0.04751658
211	0xbe7fea21	-0.24991657
212	0x3ea60122	0.3242274
213	0x3d60954a	0.054829873
214	0x3dc749a3	0.09730842
215	0x3e089c06	0.13340768
216	0xbd455c90	-0.048183978
217	0xbc5e19d7	-0.013555965
218	0x3de5abbb	0.112143956
219	0x3e5e7cfa	0.21727362
220	0xbd8e4c3b	-0.069481336
221	0xbd8b683e	-0.06806992
222	0x3e89f7b8	0.26946807
223	0x3e8f5fc9	0.28002766
224	0x3e900e3f	0.2813587
225	0xbe86681b	-0.262513
226	0x3d770c05	0.060314197
227	0xbebcafb8	-0.36852813
228	0xbdc60545	-0.09668974
229	0x3e11936e	0.14216396
230	0x3d91d527	0.07120734
231	0x3dc89de2	0.09795739
232	0x3e1a2530	0.15053248
233	0xbe822b4a	-0.25423652
234	0x3d4efbb4	0.05053301
235	0x3dd1782f	0.10228001
236	0xbdcf7927	-0.1013053
237	0x3e090020	0.13378954
238	0x3dc9ed2e	0.098596916
239	0xbe017d43	-0.1264544
240	0x3d181b1b	0.037135225
241	0xbdac2d75	-0.08407108
242	0x3e712615	0.23549683
243	0x3db1e249	0.086857386
244	0xbca0eb84	-0.019643553
245	0xbddde49a	-0.10834618
246	0x3e0a5e55	0.13512547
247	0x3dacc45d	0.08435891
248	0xbc6d7c53	-0.014494973
249	0x3e5a707f	0.21331976
250	0x3e15a8aa	0.14615121
251	0xbe9362ab	-0.28786215
252	0x3e1b1a55	0.15146764
253	0x3eacbf7c	0.3373984
254	0xbda8ae88	-0.08236414
255	0xbd56a7e2	-0.0524062

trunk_ur.branch.net.net.4.bias f4 [32]
0	0xbe96847f	-0.29397961
1	0xbd8cf557	-0.06882732
2	0x3ea7d37e	0.32778543
3	0xbee7cc98	-0.4527328
4	0x3d5a3cb6	0.053280555
5	0x3dcf4a57	0.10121601
6	0x3ed6145c	0.41812408
7	0xbbf67b55	-0.0075220265
8	0xbdf765f5	-0.12079994
9	0x3ed465c1	0.41483882
10	0x3ddf57c5	0.109054126
11	0xbe225667	-0.15853272
12	0x3ea4a996	0.32160634
13	0xbd662159	-0.056184147
14	0x3e2ea77f	0.17056082
15	0x3e173fcb	0.14770429
16	0xbea41385	-0.32046142
17	0xbdbd8bb2	-0.092551604
18	0xbe227310	-0.15864205
19	0xbd817853	-0.06321778
20	0x3cd4e58c	0.025988363
21	0xbe960692	-0.29301888
22	0xbef1cf20	-0.47228336
23	0x3e0bfa2d	0.13669653
24	0xbcb0f1d5	-0.02159969
25	0xbeb1be4c	-0.34715497
26	0x3dfa3cc1	0.12218619
27	0x3e458926	0.19290599
28	0x3d0243bc	0.031802878
29	0x3e6cd751	0.23129012
30	0xbe36ad6e	-0.17839596
31	0xbd1622af	-0.03665417

trunk_ur.branch.net.net.6.weight f4 [16, 32]
0	0x3b873cf6	0.00412714
1	0x3dc2fd4d	0.095209695
2	0x3eca6691	0.39531377
3	0xbf1f0cc2	-0.6212884
4	0xbbbbcdc3	-0.005731316
5	0x3e5e40bf	0.21704386
6	0x3eab8c2f	0.3350539
7	0x3e8286c0	0.2549343
8	0xbd27b24c	-0.04094152
9	0x3eff21b1	0.49830392
10	0x3dad3f1b	0.08459302
11	0xbe1738d9	-0.1476778
12	0xbd924beb	-0.071433865
13	0x3e83e652	0.25761658
14	0x3e2f4042	0.17114356
15	0x3e794cb3	0.24345665
16	0xbcd6d3c6	-0.026224028
17	0x3e0810c3	0.13287644
18	0xbd1ef96a	-0.03881208
19	0xbd96fc9d	-0.07372401
20	0x3f02b593	0.5105831
21	0xbe1717f6	-0.14755234
22	0xbeee36c2	-0.46526152
23	0xbd9fa043	-0.07794239
24	0x3eacd92e	0.33759445
25	0x3f3f1df8	0.74655104
26	0xbd815dfd	-0.06316755
27	0x3e98005e	0.2968778
28	0x3e9699d2	0.2941423
29	0x3e0c03d7	0.1367334
30	0xbda81243	-0.08206608
31	0x3e872367	0.26394197
32	0x3db222d6	0.08698051
33	0x3d62dc2d	0.055385757
34	0x3d832aad	0.06404624
35	0xbca050fb	-0.019569864
36	0xbe98f636	-0.29875344
37	0xbe86a101	-0.2629471
38	0xbcabd8cf	-0.020977406
39	0xbd34e797	-0.044166174
40	0x3e1cd907	0.15317164
41	0x3dc85320	0.0978148
42	0xbe1e51a2	-0.15460828
43	0x3eb4bb5b	0.3529919
44	0x3c354d5f	0.01106581
45	0xbf4f26df	-0.8091869
46	0xbe93608f	-0.28784606
47	0x3dc6b97f	0.09703349
48	0xbcad299e	-0.021138009
49	0x3e09adca	0.13445202
50	0x3db5bbd3	0.08873715
51	0xbdac0164	-0.08398703
52	0xbe4f0bd5	-0.20219357
53	0x3d89fce9	0.06737692
54	0x3cdecdf7	0.027197821
55	0x3ecba94c	0.397776
56	0x3a8c7bac	0.001071801
57	0xbf28599a	-0.6576172
58	0x3eef64f4	0.4675671
59	0xbe40fc47	-0.18846236
60	0x3ca3ee62	0.02001113
61	0xbdee10fe	-0.11624335
62	0xbdd70747	-0.10499435
63	0xbe877195	-0.26453844
64	0xbe8ff7bf	-0.28118703
65	0xbb398e9e	-0.0028313766
66	0xbed66123	-0.41870984
67	0x3ebd7f82	0.37011343
68	0xbec5bcc0	-0.38620567
69	0x3c2b7ebe	0.010467229
70	0xbeccaabf	-0.3997402
71	0x3ed643bb	0.4184855
72	0x3c1acb2a	0.009447852
73	0xbee9ae3c	-0.45640743
74	0xbea8642a	-0.3288892
75	0x3e171385	0.1475354
76	0xbf35ab4e	-0.70964515
77	0x3f239588	0.6390004
78	0xbee22323	-0.44167432
79	0xbe59b36f	-0.21259855
80	0x3ef67804	0.4813844
81	0xbe869467	-0.26285097
82	0xbd4065ff	-0.04697227
83	0xbef90623	-0.48637494
84	0xbe057e79	-0.13036527
85	0x3f2497ec	0.64294314
86	0x3f11c0e3	0.56934947
87	0xbf234bc0	-0.6378746
88	0x3f3408b8	0.70325804
89	0x3fa61ff6	1.2978504
90	0x3d73d22e	0.059526615
91	0xbf047161	-0.517355
92	0x3f21dc50	0.63226795
93	0xbf01ae2c	-0.5065639
94	0xbec29eb9	-0.3801172
95	0x3f11ae26	0.56906354
96	0xbe6d149e	-0.23152396
97	0xbe78f519	-0.24312247
98	0xbe06c181	-0.13159753
99	0x3e0bc3fc	0.13648981
100	0x3e259204	0.16168982
101	0x3e335d8e	0.17516157
102	0xbe022148	-0.12708008
103	0x3e3f020e	0.18653128
104	0x3c630839	0.013856941
105	0xbd003c6a	-0.031307615
106	0x3d35083e	0.044197313
107	0x3d7b1a99	0.061304662
108	0xbe75c2e0	-0.2400012
109	0x3e17075b	0.147489
110	0x3ceda982	0.029011492
111	0xbe880f70	-0.26574278
112	0x3e925de6	0.28587264
113	0xbdcaba25	-0.098987855
114	0xbdbc7dbf	-0.09203672
115	0xbe7da76c	-0.24770898
116	0xbe52b30a	-0.2057611
117	0x3e298345	0.16553982
118	0x3d85c713	0.06532111
119	0xbe198f06	-0.14995965
120	0x3e031e61	0.12804557
121	0x3ebc2999	0.36750486
122	0x3c231031	0.009952591
123	0x3e4059cf	0.1878426
124	0xbdb70ba4	-0.08937767
125	0x3cf83583	0.030298954
126	0xbdec7273	-0.11545267
127	0x3eafa4d2	0.34305435
128	0xbe91624a	-0.283953
129	0xbe31f0fe	-0.17377087
130	0xbdbd3591	-0.092387326
131	0xbe18eb96	-0.14933619
132	0x3dbac022	0.09118678
133	0xbd26abe0	-0.040691257
134	0x3e018aa0	0.12650537
135	0x3e17f3c8	0.14839089
136	0x3dbc8799	0.09205551
137	0xbe18e3e7	-0.14930688
138	0x3c62f825	0.013853108
139	0xbde4c374	-0.11170092
140	0x3db3bee6	0.08776645
141	0x3e831237	0.25599834
142	0x3e0ea876	0.1393145
143	0xbd4d7f5f	-0.0501703
144	0x3c63bb52	0.013899641
145	0xbe19655a	-0.14980069
146	0xbedf91c8	-0.4366591
147	0xbcb99fcf	-0.02265921
148	0xbdd4b998	-0.10386962
149	0xbd41699f	-0.04721987
150	0x3d941fcf	0.072326295
151	0xbcfc5819	-0.030803727
152	0x3e125ff7	0.1429442
153	0x3e11bfe6	0.1423336
154	0xbda48ae8	-0.08034307
155	0x3b9ada0e	0.004725701
156	0x3e15645a	0.14589062
157	0x3e410bc0	0.18852139
158	0x3c3cb365	0.01151738
159	0x3dcebd7a	0.100947335
160	0xbe5a4f28	-0.21319258
161	0xbeadc5bf	-0.3393993
162	0xbdc61b09	-0.09673125
163	0x3d92ceca	0.07168348
164	0x3d577d46	0.052609704
165	0x3ea77696	0.3270766
166	0x3d8911bb	0.06692835
167	0x3ec95f71	0.3933063
168	0xbde704db	-0.11280223
169	0xbdff5c5a	-0.124687865
170	0xbe85e616	-0.26152104
171	0x3f2bf2e5	0.671675
172	0xbecb0c7f	-0.3965797
173	0xbdb7140c	-0.089393705
174	0x3ef42ee4	0.47692025
175	0xbe92208c	-0.28540456
176	0x3e70a494	0.23500282
177	0xbe44180c	-0.19149798
178	0x3c6b3497	0.0143558
179	0xbe412c53	-0.18864565
180	0xbe959dc2	-0.29221922
181	0x3ea61b86	0.32442874
182	0x3d8c9e27	0.06866103
183	0xbec6c3ed	-0.38821355
184	0xbe7c408d	-0.24633999
185	0x3f3df8ea	0.7420794
186	0x3dba590c	0.090990156
187	0x3e5d8468	0.2163254
188	0xbe2130fa	-0.1574134
189	0x3dba7096	0.09103505
190	0x3d9bc706	0.0760632
191	0x3f6081d1	0.87698084
192	0x3db464ae	0.088082656
193	0x3bfdbfbb	0.0077438033
194	0x3db0eed4	0.08639303
195	0xbe7ea257	-0.24866615
196	0x3dbb47a5	0.091445245
197	0x3e6007b4	0.21877939
198	0x3de836bc	0.11338565
199	0xbe67a917	-0.22623096
200	0xbc72c254	-0.014816839
201	0x3e372adf	0.17887448
202	0x3e26268c	0.16225642
203	0x3c1f0509	0.00970579
204	0x3d80e1a1	0.06293035
205	0xbe3d510b	-0.18487947
206	0xbd999b46	-0.07500319
207	0xbc3a5d94	-0.01137485
208	0xbaa839b0	-0.0012834575
209	0x3e6897d5	0.2271417
210	0x3e1e0d51	0.15434767
211	0x3e0009e8	0.12503779
212	0xbcc8762a	-0.024470408
213	0x3d8b6a21	0.06807352
214	0xbdfea4e7	-0.124337964
215	0x3dfb74f1	0.12278164
216	0xbe01fa1f	-0.1269307
217	0xbe3174f7	-0.17329775
218	0x3dfa5499	0.12223167
219	0x3b5972ee	0.0033180076
220	0xbe55cdad	-0.2087924
221	0xbbcde0d1	-0.0062829037
222	0x3d4ebbc8	0.05047205
223	0xbdc548a0	-0.09632993
224	0xbea09478	-0.31363273
225	0xbd29f70e	-0.041495375
226	0xbe02fc49	-0.12791552
227	0xbcfea7d3	-0.031085884
228	0xbe751684	-0.2393437
229	0x3e63002e	0.22168037
230	0x3e15c0e0	0.14624357
231	0xbe8f20f5	-0.27954832
232	0xbec6879c	-0.38775337
233	0xbc03c2f6	-0.008042088
234	0x3f05dc71	0.5228949
235	0xbf1c81fe	-0.6113585
236	0x3cdca0ea	0.026932199
237	0xbf0d69bf	-0.5523948
238	0x3e3af5a2	0.18257764
239	0x3e85a8a9	0.2610524
240	0xbed56e13	-0.41685542
241	0x3e401e93	0.18761663
242	0xbee33b6a	-0.44381267
243	0x3e9c65e3	0.30546483
244	0x3e038caf	0.12846635
245	0xbe9ce369	-0.3064225
246	0xbd91d618	-0.07120913
247	0x3f166319	0.5874496
248	0xbe5e5e6b	-0.21715705
249	0xbe58d4d9	-0.21174945
250	0x3dabe4b0	0.08393228
251	0x3f19f5ff	0.60140985
252	0xbdc53a4e	-0.09630261
253	0x3d840fed	0.0644835
254	0x3dc82b18	0.097738445
255	0xbeb2da0b	-0.3493198

trunk_ur.branch.net.net.6.bias f4 [16]
0	0x3ee86ccb	0.45395502
1	0xbe568f81	-0.2095318
2	0xbea48306	-0.32131213
3	0xbe635a39	-0.22202386
4	0xbc3e82aa	-0.011627832
5	0xbe783d41	-0.24242117
6	0x3ea22706	0.31670398
7	0xbe5a9f87	-0.21349917
8	0xbeb3db55	-0.35128275
9	0xbebe5d96	-0.37180775
10	0xbefc952c	-0.4933256
11	0xbe55e1a6	-0.2088686
12	0xbc8afff0	-0.016967744
13	0x3e9ed2ec	0.31020296
14	0x3e88bf07	0.26708242
15	0xbe064e1f	-0.13115738
