FullOrder/FullOrderReconstruct/FullOrder_20251114_105450_MLP_MLP_NoPhys_NoBatch_HD64_HL5_LR0.01_checkpoint.pth (torch, 267674 bytes, 36 tensors)

net.net.0.weight f4 [64, 5]
000000 05 90 81 3e 9e 61 41 3f 12 7f dc be ec 62 b2 3e
       0.2530519 0.75539577 -0.43065697 0.34841096
000010 25 27 8e 3e 97 10 36 3e d2 10 43 3e f5 dc 55 3e
       0.2776424 0.17779766 0.19049385 0.2088507
000020 a2 85 91 be 7d 33 9e be 8d 3a 54 3e 71 9d 46 bf
       -0.28422266 -0.30898657 0.2072546 -0.77583987
000030 bf 6c 47 3f 88 6c 40 be 53 b0 c0 be 57 ff 8d 3d
       0.7790031 -0.18791401 -0.37634525 0.06933468
000040 58 a9 22 bf 05 07 ed 3e 20 a6 86 3e 3e 93 2a 3e
       -0.6353965 0.46294418 0.26298618 0.16657731
000050 a1 62 b8 3e 0f df 0d bf da 51 cf bd bc b2 80 3e
       0.36012748 -0.55418485 -0.10123034 0.25136364
000060 b6 ec 48 3e 35 e7 f7 be 43 b1 23 bf b0 88 2c 3f
       0.19621548 -0.48418584 -0.63942355 0.6739607
000070 cf 3a 0f be 5d f0 a8 3e f0 90 0c be 2c 4d 03 bd
       -0.13987277 0.32995883 -0.13727164 -0.03205602
000080 f7 d5 49 bd 56 ea 33 3e cd 4a 2c 3f 08 1f 9f be
       -0.04927632 0.17569861 0.67301637 -0.31078362
000090 ea 5a a8 bd 95 e6 93 be 62 ff 32 3e 92 00 74 be
       -0.082204655 -0.28886858 0.17480233 -0.23828343
0000a0 b9 be b8 3e f1 bc 8f bd ec f2 b8 3e f5 18 2c bf
       0.3608301 -0.070184596 0.36122835 -0.6722558
0000b0 76 54 1a 3d 46 bb 1c bf d2 48 04 bf 7d 52 99 3e
       0.037678204 -0.61223257 -0.51673615 0.29945746
0000c0 ff 45 20 bd b9 25 f3 bd 3a 34 0f 3e e5 2c 25 3e
       -0.039129253 -0.118724294 0.13984767 0.16130407
0000d0 a6 c4 1b 3f 76 4e 1f 3f 2e 2b 90 3e d9 39 c6 3e
       0.60846937 0.62229097 0.28157943 0.3871601
0000e0 25 91 97 bc 33 bc 11 3f 5f 6d 2e 3f cb b5 dc be
       -0.018501827 0.56927794 0.6813564 -0.43107447
0000f0 66 26 87 3d 04 1d 56 bf 22 60 0f 3f 6e 10 76 3c
       0.06599121 -0.83638024 0.5600606 0.015018566
000100 f8 63 4d be 78 79 f4 bd c8 55 9c bf 53 df 2b 3f
       -0.20057666 -0.11937231 -1.2213678 0.6713764
000110 dc f6 86 bd 06 3a 8d bd 27 0c 65 be 18 18 ce 3e
       -0.065900534 -0.06895833 -0.22367917 0.40252757
000120 6e a6 14 3f 95 ce 24 bd e2 82 a1 3e ba ce df be
       0.5806645 -0.040236074 0.31545168 -0.43712407
000130 1d 9e 65 3d 75 af 1b 3f 8b 0e 94 3e 23 43 e6 be
       0.05605899 0.608146 0.28917345 -0.44973096
000140 6d cf b9 3e 1b 05 15 bf 47 50 36 3f 41 45 34 be
       0.36291066 -0.58210915 0.71216244 -0.17604543
000150 c6 f1 25 3e d1 a5 fa 3d aa d0 b0 3e 8d d4 0d 3f
       0.1620551 0.12238658 0.34534198 0.5540245
000160 5a c5 19 3f 30 16 ba 3e 8f 16 8d be 75 1a 20 3f
       0.6006676 0.36345053 -0.27556273 0.6254037
000170 bf 4c ad 3e 26 47 b6 bd d7 94 11 3e d8 26 71 be
       0.33847615 -0.08900289 0.14216934 -0.23549974
000180 a0 12 cd be db 6c 0b bf a3 92 86 3e 9f bb 9f 3e
       -0.40053272 -0.54462975 0.2628375 0.3119783
000190 a7 49 16 3e 8f 06 1e 3f 23 ca ec 3e 1f 6c ea bd
       0.14676534 0.6172876 0.46247968 -0.11446404
0001a0 3b 91 a3 3d 2e c8 06 be 92 27 f2 bd d4 f4 d0 3e
       0.07986685 -0.131623 -0.11823954 0.4081179
0001b0 f1 e4 a5 be 9b a8 58 be 79 e8 42 bd 25 25 7e 3f
       -0.3240123 -0.21158068 -0.047584984 0.9927543
0001c0 dc 4c b1 be 86 0b b2 be a4 35 b9 3e f3 62 b9 be
       -0.34628952 -0.34774417 0.36173737 -0.36208305
0001d0 8e 06 0f bf 5b 24 15 3f 7f 69 49 3e a0 6f 6b be
       -0.55869377 0.582586 0.1966915 -0.229918
0001e0 0d 51 3e bd 29 4b 7a bf da 6a fc 3e 12 58 d9 be
       -0.046464015 -0.97770935 0.4930027 -0.42450005
0001f0 d9 b3 6d 3c 67 e1 de bd b2 ef 24 3f 6f f3 5d bf
       0.014508211 -0.10882836 0.64428246 -0.86699575
000200 5a ba 04 3f 1a 5a cd 3d 56 c3 b8 be d1 3a c7 be
       0.5184685 0.10026951 -0.3608653 -0.3891206
000210 48 ce 05 bf b4 bb 1e be dc 8d 60 bd 14 84 da be
       -0.52267885 -0.1550129 -0.054822788 -0.42678893
000220 24 2e 71 3c d9 b1 d9 be 48 da b6 3e 03 6e b0 3e
       0.014720473 -0.425185 0.3571341 0.34458932
000230 c2 f5 df be 41 17 06 bf 94 9b c8 3e 59 8e c9 3d
       -0.43742186 -0.5237923 0.39181197 0.09841604
000240 e8 c2 a1 3e c3 a9 64 be cc 77 47 3f e9 6d 6f 3e
       0.31594014 -0.22330384 0.7791717 0.23381771
000250 e4 eb 2e 3e 00 4f f9 3e fb bf c2 be 7c 8c c2 3d
       0.17082173 0.48693085 -0.38037094 0.094994515
000260 aa 13 03 3f 9b 4b 90 be 22 c3 9b 3e cf 74 ed 3d
       0.5120188 -0.28182682 0.30422312 0.11594545
000270 75 c1 63 bf f2 a0 2b 3f 24 d0 96 3e 52 13 3b 3e
       -0.88967067 0.6704246 0.29455674 0.18269089
000280 88 bb 53 3e b1 46 a3 bd e7 b7 e8 be 52 89 a4 3e
       0.20677006 -0.07972468 -0.45452806 0.32136017
000290 6a 7d 22 be 91 7f f6 bd 07 25 28 be ca 6b 08 bf
       -0.15868154 -0.1203605 -0.16420375 -0.53289473
0002a0 82 f9 60 be 3a d0 86 3e 69 08 f6 bd 16 8d 9b 3e
       -0.2197018 0.2633074 -0.12013323 0.30381078
0002b0 53 ab b6 be f4 98 df 3d 0f d9 7f be 94 81 b0 be
       -0.35677585 0.10917845 -0.24985145 -0.3447386
0002c0 1a 8c c1 bc 2b 99 04 3f c9 27 60 3e b8 07 37 be
       -0.023626376 0.51796216 0.21890177 -0.17874038
0002d0 ab 38 23 3e d0 93 ba 3e f8 bb 1d 3f 49 ea a4 3e
       0.15939586 0.36440897 0.6161494 0.32209995
0002e0 d3 c8 78 be 01 35 b2 bd 61 ff 5a 3e ed 58 e3 3e
       -0.24295358 -0.08701516 0.21386482 0.44403782
0002f0 0a 94 39 bd b8 d9 5f be 8d 68 fa be 7f b7 c6 be
       -0.045307197 -0.21860397 -0.4890789 -0.3881187
000300 b6 89 1a bf 8b eb 6b be 04 de 8e 3e 00 e7 fa be
       -0.6036638 -0.23039071 0.2790376 -0.49004364
000310 25 72 6b 3f 1e ce a8 3e fd 9a 5a 3d 4b b0 17 3e
       0.91971046 0.32969755 0.053370465 0.14813344
000320 69 f9 c9 be e5 22 ff 3c 5f f3 eb be 25 ee 97 bd
       -0.39448097 0.031144569 -0.46084115 -0.07418469
000330 8a 5c 24 3e 59 d7 82 3e 97 b4 17 3f 80 10 ee be
       0.16050926 0.25554922 0.59259933 -0.46496964
000340 58 ee 9c 3e 83 e4 dc 3e 8a ab 38 be 22 49 b2 be
       0.30650592 0.4314309 -0.18034187 -0.3482142
000350 f1 c4 f8 3e ca fb db 3d 0a 68 65 be 78 8a 25 3e
       0.48587754 0.10741384 -0.22402969 0.16166103
000360 a3 73 d5 bd 45 27 e5 be be 7e 02 3e 9c 65 a0 be
       -0.104224466 -0.44756523 0.12743661 -0.31327522
000370 25 d9 17 be da 60 49 3f 4b f5 f6 3e 7a 31 b0 be
       -0.14828928 0.7866341 0.4823402 -0.34412748
000380 b1 ad d1 bd 4e 1c b4 be 24 92 05 bf bb 7c e4 3e
       -0.10238207 -0.35177845 -0.5217612 0.44626412
000390 26 72 be 3d 55 5f b2 be 07 00 65 be ef 76 d1 3e
       0.09299116 -0.34838358 -0.22363292 0.40911052
0003a0 a1 9c 0c bf 49 b6 50 bd 44 4d bf be 66 43 f5 3c
       -0.54926497 -0.05095509 -0.37363636 0.029939365
0003b0 d5 97 0e 3f 3b d2 9f 3e 30 12 d2 3d 80 44 3e bf
       0.5570043 0.3121508 0.10257375 -0.7432327
0003c0 97 58 54 3e 4e 7c 0b bd a8 8e 10 bf 66 d7 0f 3e
       0.2073692 -0.034054093 -0.56467676 0.14047012
0003d0 ea 37 d7 be 5b e5 3d be 77 71 ed 3e 38 f6 1b 3f
       -0.42034847 -0.18544523 0.4637563 0.60922575
0003e0 3e f5 8b bd 23 af 8e bd 91 08 d8 bc e9 47 14 bf
       -0.068338856 -0.069669984 -0.026371272 -0.57922226
0003f0 c1 a1 7e be d7 7f 03 bd cb f7 1f be d8 45 07 bf
       -0.24866392 -0.03210434 -0.1562187 -0.5284095

net.net.0.bias f4 [64]
000000 f3 ca 16 be ba 84 19 3d 76 12 d4 3e 5f 05 31 be
       -0.14725856 0.037480094 0.41420335 -0.17287205
000010 30 d3 02 bf c7 a7 e0 3d 7c 54 eb 3e 33 a5 0e 3e
       -0.51103497 0.10969501 0.45962894 0.13930206
000020 67 4e 29 3d 33 9b 03 3f 41 98 c4 3e d7 3c 51 be
       0.041334536 0.5140869 0.3839741 -0.20433365
000030 9c 4c 77 bd 4f 90 6f 3e a4 d3 c9 3e 1e 34 89 be
       -0.060375795 0.23394893 0.3941928 -0.26797575
000040 6a 56 00 be 9c de b1 3e 74 e5 61 3e 2d b6 17 bf
       -0.12532964 0.3474015 0.22060186 -0.59262353
000050 d5 59 b9 3e 1e 6b a6 3e 3b 23 ea be 97 eb bb 3e
       0.3620135 0.325036 -0.45730004 0.36703178
000060 84 c0 ac be a5 6a fb be 84 42 15 bc da 27 97 3e
       -0.33740628 -0.491048 -0.009110097 0.29522592
000070 87 6e 96 be 0e 9e c3 be fe 49 d8 bd da 0f c4 bd
       -0.293812 -0.38206524 -0.10560988 -0.09573336
000080 39 25 7c 3e 3a d9 ee bd 89 7d 32 3e 7c 8d 50 bc
       0.24623574 -0.116625264 0.174307 -0.012729045
000090 5c 07 c9 3e 81 87 b1 3e 90 c6 a9 be 2e 39 0a bf
       0.39263427 0.34673694 -0.33159304 -0.539935
0000a0 a0 12 12 3f 8b 8c 03 3e 09 1f 48 3e 07 c3 e3 bd
       0.5705967 0.12846582 0.19543089 -0.11121183
0000b0 98 ae 14 bf fc 13 71 be 84 14 c1 3e f5 5f 21 bf
       -0.5807891 -0.2354278 0.37710965 -0.63037044
0000c0 34 f0 d1 3e 5e 0c e2 be aa ac aa 3e 28 d4 f4 be
       0.41003573 -0.4415006 0.33334857 -0.47818112
0000d0 8f c0 53 bd b5 9b 6f 3e 5e 37 07 bc d5 6a c8 be
       -0.05169731 0.23399241 -0.008252947 -0.39144006
0000e0 19 c9 e0 3e 2d d5 87 3d d2 9e 8c be ea 65 a2 3d
       0.43903425 0.06632457 -0.2746492 0.07929595
0000f0 94 fa ac 3e 12 60 d5 3e 73 40 0d be a1 20 14 3f
       0.33784926 0.41674858 -0.13794117 0.5786229

net.net.2.weight f4 [64, 64]
000000 1f db 0d bb 9b 6c bf 3e 9a e2 3f bd 8a be dc be
       -0.00216455 0.37387547 -0.046846963 -0.4311412
000010 99 2d ae be 12 6a 83 be 61 9a 91 be 60 ef 5c 3e
       -0.34019163 -0.25666863 -0.28438094 0.2157569
000020 39 eb 99 3d b0 30 c5 be 59 47 a7 bd a9 7b 6e 3e
       0.07515568 -0.38513708 -0.08167905 0.2328936
000030 3c 5f ff 3d ef ff 8c be 19 ec 52 bc c7 03 74 bd
       0.124693364 -0.27539012 -0.012873673 -0.059573915
000040 ca 15 ac bd e2 4d 3d bd e2 85 f5 3d a6 f1 cd be
       -0.084025934 -0.046216853 0.11988427 -0.40223426
000050 1e f5 02 3e 5d 87 a1 3d 2f a5 ed bd 18 30 48 3c
       0.12788817 0.078871466 -0.11603772 0.012218498
000060 2d 0c 1a bf 08 f9 bd bb 77 8e 72 be 17 7d 59 bd
       -0.6017483 -0.005797509 -0.23687159 -0.05309781
000070 84 33 09 bf d5 36 87 3d 29 f4 62 be 09 41 90 be
       -0.5359423 0.06602255 -0.22163452 -0.28174618
000080 c9 c3 98 3e d3 42 a2 be fa 3b b0 3e a4 bb 4c bc
       0.29836872 -0.31691608 0.34420758 -0.012495909
000090 01 22 02 3f da fd a6 3e c9 59 12 bf f5 5b 7b 3e
       0.50833136 0.32615548 -0.5716825 0.24546798
0000a0 77 62 e1 bd b0 9c 66 be d9 1c e5 3d c5 6b 82 3e
       -0.11005109 -0.22520709 0.11187143 0.25472847
0000b0 d6 d6 18 3e 00 1d e8 3d f9 cc d0 3e 5c 23 fb 3d
       0.14925703 0.11333656 0.40781382 0.12262604
0000c0 cb c3 99 3e f9 8e e4 3d e9 d1 2c be ec 3e 53 bd
       0.3003219 0.11160082 -0.1687695 -0.05157368
0000d0 c6 dd b8 3e 29 86 df 3d 17 2c dc be a8 22 0c 3e
       0.361067 0.10914261 -0.43002388 0.13685095
0000e0 16 fc f1 bd df 48 2f 3f 5c 5f c8 be 70 c0 2f 3e
       -0.1181566 0.6847057 -0.39135253 0.17163253
0000f0 4e 7d e7 3e 36 34 81 bd b6 7a 8d 3d b3 79 cb bd
       0.45212787 -0.063087866 0.06908171 -0.09935322
000100 60 0f a5 be f5 80 53 3e 82 80 f5 3d 32 40 56 be
       -0.32238293 0.20654662 0.119874015 -0.20922926
000110 f9 f0 61 be 21 08 0f 3b 10 c9 80 be be 54 06 3e
       -0.2206458 0.0021824914 -0.251534 0.13118264
000120 7f 94 bd bd 14 70 ad 3c 43 e3 7c be 89 2f 9d bd
       -0.09256839 0.021171607 -0.24696068 -0.07675082
000130 5c d0 6e 3e b1 a7 e6 3d 82 c7 11 be da 3f 8c 3d
       0.2332167 0.11262453 -0.14236262 0.06848116
000140 1a df 52 bd ac f2 90 be fa 49 88 be 4e e7 5a 3d
       -0.051482297 -0.28310144 -0.2661894 0.053443246
000150 42 cc e7 bc f1 7a f3 3d 84 d4 0b be 8d 50 c8 3d
       -0.02829564 0.118886836 -0.13655287 0.09780989
000160 b3 4d ec 3d c3 f5 a8 bd 04 93 31 3e 7f 7e cc be
       0.115382574 -0.0825 0.17341238 -0.3994026
000170 65 fe 72 bd 25 27 ad be 0d ae 09 be cd cf 4f be
       -0.05932464 -0.33818927 -0.13445301 -0.20294113
000180 8b 3b 1e bc fd 8d 52 bd 36 37 1e 3b 1c c4 0e 3e
       -0.009657751 -0.05140494 0.0024141795 0.13941997
000190 59 e0 59 bd 2a 99 22 3e 2f e1 a4 b9 a8 40 4f ba
       -0.05319247 0.1587874 -0.00031448292 -0.0007906058
0001a0 dd c1 29 be d3 1a 89 be 8f 00 3f 3d 99 0b 68 3e
       -0.16577859 -0.26778278 0.046631392 0.22660674
0001b0 46 16 d4 3d bd 00 c2 3d 74 d6 55 3e ca 67 61 3e
       0.10355811 0.09472797 0.20882589 0.22012249
0001c0 1a a1 76 3e a8 74 47 3c ea 5c 20 3e 0e 59 4c 3e
       0.24084893 0.012173809 0.15660444 0.19955847
0001d0 bf 4e e8 3d ee df 7b 3d 3a 43 5f be 7b a7 69 3e
       0.113431446 0.061492853 -0.21802989 0.22817795
0001e0 eb cd 69 be 84 06 eb 3d ed 65 7f be bc 99 d1 bd
       -0.22832458 0.11475852 -0.24941225 -0.10234401
0001f0 40 d2 d8 bd 07 3e 4f bd ab 2d 0f 3e 37 8b fb 3d
       -0.10586977 -0.050596263 0.13982265 0.122824125
000200 4d e8 d0 3d 6d db 36 bd 21 bd 7a be 74 85 c4 be
       0.10200558 -0.044642854 -0.2448621 -0.38383067
000210 fb ba 86 be 4a bc 9f ba 07 b3 b8 3d e9 3c 0f 3d
       -0.2631453 -0.0012186852 0.09018522 0.034970198
000220 40 43 61 bd 93 f0 44 3d 35 a0 36 3e dc 25 0b bc
       -0.054995775 0.048080992 0.17834552 -0.008492913
000230 9d c7 d0 be 47 71 d6 be fb 26 21 3e 7c 7d 9b 3d
       -0.40777293 -0.418833 0.15737526 0.075922936
000240 b6 dc c1 bd fc 4d 11 3e dd 21 84 3e 96 cb 94 bd
       -0.094659254 0.14189905 0.25807086 -0.072653934
000250 b5 54 e4 3d dd c5 e8 bb 9f 59 12 3e cf 64 30 be
       0.11148969 -0.0071036653 0.14292 -0.17225955
000260 68 81 9a be 56 69 60 3e ca 45 5d 3d 1f fc 21 3d
       -0.30176854 0.21915182 0.054021634 0.039547082
000270 00 05 fd bd 1e fb 1f 3e d0 98 c1 3d 8b e3 ff be
       -0.12354469 0.15623137 0.09452975 -0.4997829
000280 5f 17 f1 3c a5 34 9d bd bb 97 c9 b9 43 bb 2a be
       0.02943009 -0.07676057 -0.00038450756 -0.16672997
000290 30 7c 24 bd 91 e1 b6 bd dc f9 ee 3d 4a a8 41 bd
       -0.040157497 -0.08929742 0.11668751 -0.047279634
0002a0 b6 bd 80 3e cc c3 52 3e bc 39 15 3a 41 43 12 be
       0.25144738 0.20582503 0.0005692502 -0.14283468
0002b0 b6 dd 47 3e 19 84 15 be bc 20 3a 3e a0 2a d3 3d
       0.1951817 -0.14601173 0.1817655 0.103108644
0002c0 e6 c1 c4 3c 84 20 fa bd 41 d8 d3 bc 62 90 b7 bd
       0.02401824 -0.12213233 -0.025859954 -0.08963086
0002d0 38 f9 e7 3d 6c 64 4b bc ca da 9c bc 18 41 75 3c
       0.113268316 -0.012414079 -0.019147296 0.014969133
0002e0 f0 30 41 3b d8 5b 62 3e 4f 53 16 be fe e7 78 be
       0.0029478632 0.22105348 -0.14680217 -0.24307248
0002f0 b6 e1 d3 bb f3 9b 6b be df 11 ca 3e 6a 77 52 3e
       -0.006466116 -0.23008709 0.3946676 0.20553365
000300 7f bd c0 3d 2a 35 4a bc d6 c0 b6 3c 89 d3 c4 3e
       0.094111435 -0.012341777 0.022308748 0.3844264
000310 fd 05 30 3e 2c 37 a7 bd a6 ce 2a be 9e be bb be
       0.17189784 -0.0816482 -0.16680393 -0.36668867
000320 54 d5 e5 3c 91 c7 35 bf e6 c0 5b bd 51 93 ec 3d
       0.028055824 -0.7100764 -0.05365076 0.11551536
000330 32 50 1c 3e 41 dd 56 be 2d 26 26 3e 32 1f 3c be
       0.15264967 -0.20982839 0.162255 -0.18371275
000340 13 bf d7 3e c2 17 12 3d c8 54 88 3d 49 d6 8b bd
       0.42137966 0.03566719 0.06656796 -0.06827981
000350 11 d0 8d 3d 1d 0e 2d be 74 0d 2d 3e 40 08 c3 bd
       0.06924451 -0.16899915 0.16899663 -0.09523058
000360 75 c8 12 3e cb 68 4d bd 68 f3 ed bd 73 73 a7 be
       0.14334281 -0.050148766 -0.11618692 -0.32705268
000370 b9 e8 b8 3d b0 c9 76 3e 2d 25 d2 bd 24 ed b2 3e
       0.09028763 0.24100375 -0.10260997 0.3494655
000380 57 a5 a0 3c 47 a1 f8 bd ee de ff bd 71 32 0b be
       0.01961009 -0.12140136 -0.12493692 -0.1359346
000390 1b a2 89 bd 0e 95 05 3d de 7a a6 bd ab 1c 13 bd
       -0.06720372 0.032612853 -0.08128904 -0.03591601
0003a0 41 fc 0d bf ac 30 cb 3d a2 1c 81 3d ab c3 ac bd
       -0.55463034 0.09921393 0.063042894 -0.08435758
0003b0 51 b8 5c 3e a5 88 ac bc 2b 08 ca be 04 90 04 bd
       0.21554686 -0.021061251 -0.39459357 -0.032363907
0003c0 3b 76 0c be 54 00 92 3e 82 6f 6b be 6e b3 11 be
       -0.13716976 0.28515875 -0.22991756 -0.14228603
0003d0 69 96 4c be 2b fc ac bd 5e 80 02 3e 6b e3 0a be
       -0.19979252 -0.08446535 0.1274428 -0.13563316
0003e0 83 2e 2d 3e c0 44 75 3e 08 c4 86 3e a8 50 81 3e
       0.16912274 0.23952007 0.26321435 0.25256848
0003f0 c9 bc fb bd 31 19 0a 3c c0 c7 16 be 80 59 50 be
       -0.12291867 0.008428858 -0.14724636 -0.20346642

net.net.2.bias f4 [64]
000000 78 7d 50 3d d4 1d 57 be 5a bd cb 3d 63 61 4f be
       0.050900906 -0.21007472 0.09948225 -0.20251994
000010 3c 61 99 3e de 02 a6 bc ed dd c3 3d c8 86 0c bd
       0.29956996 -0.020265039 0.09563813 -0.034308225
000020 40 86 6c 3e 9b 82 cc be 7d 50 3c 3d c4 1f 11 3d
       0.23098087 -0.39943394 0.045975197 0.035430685
000030 7c 20 31 be d7 cd 9a bd 5b ed 83 3e de f2 75 bd
       -0.17297548 -0.07558792 0.25767025 -0.06004607
000040 8c 66 89 be 1d 36 78 bc 7b 56 b6 bc 88 ae 54 3c
       -0.2683605 -0.01514962 -0.022258034 0.012981065
000050 f8 32 5c bd c4 41 d4 3d 32 10 3d be 3f c0 a9 bd
       -0.053759545 0.10364106 -0.1846321 -0.08288621
000060 b9 22 ba 3c df 3b 25 be 0c 96 a8 3d ae 1a 48 be
       0.022721635 -0.1613612 0.08231744 -0.19541427
000070 79 32 85 3d 06 df 3b 3e 75 2b 00 be 98 e6 83 3e
       0.065037675 0.18346795 -0.12516578 0.25761867
000080 2b 63 8e 3e f2 8d c6 3d 6e 99 c3 be c9 72 75 3e
       0.27810034 0.09695043 -0.38202995 0.23969568
000090 ed 08 88 be 8e 7c b5 3d 81 fa 8b 3d 2d 1d 9b bc
       -0.2656931 0.088616475 0.06834889 -0.01893481
0000a0 f4 83 6d 3d 50 a8 90 bc 6d 19 20 be b0 80 c2 3d
       0.05798717 -0.017658383 -0.15634699 0.094972014
0000b0 56 f5 a8 3c b8 17 8f 3c 6e 74 ce 3d 42 89 97 3d
       0.020624798 0.017467365 0.10080801 0.07399227
0000c0 dd 2a 06 3e 01 2d 6a bd 24 ca b9 bd bc 44 c0 3e
       0.13102289 -0.057171825 -0.090717584 0.3755244
0000d0 55 09 90 3e c8 08 44 3d 9b 83 fd bc 79 9b 2c 3e
       0.2813212 0.047859937 -0.030946543 0.16856183
0000e0 55 25 7e be 7c a1 90 bd 68 0a 09 be d4 2e 1b be
       -0.24818929 -0.07062051 -0.13382876 -0.15154582
0000f0 29 b6 6d 3d be ca 54 bd cb ab 5e bd 5b 54 01 3e
       0.05803505 -0.051951163 -0.054363053 0.12629835

net.net.4.weight f4 [64, 64]
000000 c6 74 b0 be 12 51 c3 3d 6c c4 fd 3d e7 37 aa bd
       -0.3446409 0.09536947 0.1239098 -0.08311444
000010 5d 86 0e 3e 5a be a9 be 4a 0b 9b 3e 2b ba f3 3c
       0.13918443 -0.3315304 0.3028205 0.029751858
000020 e9 8f 6f bd 34 de ac 3e 91 c5 b5 3e db ea a2 3d
       -0.058486853 0.33763278 0.35502294 0.079549514
000030 9f 3c 77 3d 0b 7b 4a bd 91 20 0b 3c 1f 89 b9 ba
       0.060360547 -0.04943375 0.008491651 -0.0014155245
000040 ba fa 54 3e 10 ac be be 28 42 1d 3e 19 8f 5c 3e
       0.2079877 -0.37240648 0.15357268 0.21538962
000050 77 83 c7 3d 6d dc 56 be ea 6c 0e bd 08 1d ab 3e
       0.09741872 -0.20982523 -0.034771837 0.33420587
000060 f9 d4 18 be 7c d9 dd bd f0 1d 6d 3e 71 5d c8 3e
       -0.14924993 -0.108324975 0.23155951 0.3913379
000070 a3 95 7d bd 1e f3 61 bd a9 ca 7b be 77 e6 e8 bd
       -0.061910283 -0.055163495 -0.24589027 -0.11372083
000080 bb 2e 80 bc f0 e5 22 be 95 a0 c2 3b ad 04 29 be
       -0.015647283 -0.15908027 0.005939553 -0.1650569
000090 56 f9 20 3d a6 c6 a5 3e 4f d3 69 3d 28 19 ae bd
       0.039300285 0.3237812 0.057086285 -0.08500892
0000a0 03 45 9a be 95 95 57 3e 6f 8d d7 3d 22 49 59 bd
       -0.30130777 0.21053155 0.10525023 -0.05304826
0000b0 d3 2c f7 bc a9 f0 ba 3d 5a 32 18 be 56 ab 7f 3e
       -0.030172741 0.091279335 -0.14862958 0.24967703
0000c0 90 00 bc 3e b1 e2 0c be 87 69 07 3f 60 c4 7d 3d
       0.3671918 -0.13758351 0.52895397 0.061954856
0000d0 2a 32 1b 3e 17 b0 92 be ec 94 1d be 39 a0 6a 3e
       0.15155855 -0.2864997 -0.1538884 0.22912683
0000e0 18 57 6e 3b e0 9c 5e 3e b3 1d c7 3e 1c 23 0e 3e
       0.003636783 0.2173953 0.38889846 0.1388058
0000f0 b6 c3 01 3d 1a a1 15 be 45 f7 f2 3d d8 c7 cb bd
       0.031680785 -0.14612237 0.11863569 -0.099502265
000100 bc 06 6c 3e 0c 74 67 be b9 b6 2c be 5d cb 36 3c
       0.23049444 -0.22602862 -0.16866578 0.011156884
000110 04 1e 8e bd 8a 4d 8f bc 49 ab ae 3d b3 8d 8c be
       -0.06939319 -0.017493028 0.08528764 -0.27451858
000120 a8 79 8f be 03 a4 a0 3e 3e f8 84 be 8a b0 03 3e
       -0.28022504 0.3137513 -0.25970644 0.12860313
000130 43 23 7b bb 60 f5 76 3e 83 23 92 3e 6f bc bb 3d
       -0.0038320578 0.2411704 0.28542718 0.091668
000140 55 41 87 3e 35 55 b6 3d 90 a4 a2 bc 2e 01 d5 3d
       0.26417032 0.08902971 -0.01985386 0.10400616
000150 f0 95 65 be f0 f9 dd be 6e 38 54 be 64 01 1d bd
       -0.22420478 -0.4335475 -0.20724651 -0.038331404
000160 d9 3f 56 bd ee ee d5 3d 95 13 dc bd 5e c5 c6 3d
       -0.052306984 0.10445963 -0.107459225 0.097056136
000170 84 e8 97 3d bb 92 42 be fb 54 66 bd e9 f4 d6 be
       0.07417396 -0.19001286 -0.056233387 -0.41983727
000180 8f ae 15 3e e6 c5 5b be 3c 9f cc 3d 38 8c 9f 3e
       0.1461737 -0.21462211 0.09991309 0.31161666
000190 37 56 89 be e5 72 ad 3d 6f 4a d8 bd f2 91 88 3c
       -0.2682359 0.0846918 -0.10561072 0.016671155
0001a0 89 42 53 3d fa 9d 97 3e e8 7c 2f 3d a0 00 0e be
       0.051577125 0.29612714 0.04284373 -0.13867426
0001b0 f6 54 49 bb 6e dc 1e be a8 9a 6b be a6 d5 13 3e
       -0.0030720807 -0.15513775 -0.23008215 0.14436969
0001c0 cf d2 17 3e 61 e3 09 be 9b 67 e7 bd b0 17 22 be
       0.14826511 -0.13465644 -0.11299058 -0.15829349
0001d0 3a 11 97 bd 83 f4 f7 3d 9e 1d 56 be 5e 2f 7f be
       -0.073763326 0.12107184 -0.20909736 -0.24920413
0001e0 5a 77 a3 bd 0e 4c 6a 3e f6 0b 20 3e 13 10 d0 3c
       -0.07981749 0.22880575 0.15629563 0.02539829
0001f0 6b 00 1a 3e 83 5c d5 bd bd ee bd bc fe c8 e1 bd
       0.15039222 -0.10418036 -0.023185128 -0.11024664
000200 ee f4 51 be 79 9b 79 3d fb 5e c2 bd e3 b6 19 3e
       -0.2050359 0.060939286 -0.09490772 0.15011172
000210 44 27 0a be ac f6 92 bd 39 b5 27 3d 2d b4 91 3e
       -0.13491541 -0.07175955 0.04094431 0.28457776
000220 78 5b 5b bd d3 7c 92 3e ae f7 4a 3e e6 0a 32 3e
       -0.05355403 0.28610858 0.19821045 0.1738697
000230 d6 03 18 3e df 4e e3 be 46 09 9c bc 95 ea 22 bc
       0.14845213 -0.4439611 -0.01904739 -0.009943624
000240 c9 a5 fb be a3 6d 1a bd 1e 29 b4 bd 89 1c a6 3d
       -0.49149922 -0.037702214 -0.08796905 0.081109114
000250 a4 ee 4e 3f 08 50 cb 3d ca 08 f3 3d 7a 20 4b 3e
       0.80832887 0.09927374 0.11866911 0.19836608
000260 fe 4b 67 bd f2 8a 96 bd 93 7e b1 3e f5 38 87 bd
       -0.056468956 -0.073507205 0.3466688 -0.066026606
000270 57 b6 42 be 6e b5 56 3e 1e e7 10 be 4f f6 31 3f
       -0.1901487 0.20967647 -0.14150664 0.6951646
000280 00 82 f6 3c cf e0 08 bf f2 a5 0a be 46 ea 86 bd
       0.030091286 -0.5346803 -0.13539866 -0.06587653
000290 d1 60 12 bd e9 32 1f 3e 24 46 82 3e db c4 15 3f
       -0.035736863 0.15546764 0.25444138 0.585035
0002a0 97 64 9d be cb 45 10 3d 16 e5 24 bf 44 f1 0d 3e
       -0.30740806 0.03522281 -0.6441206 0.13861567
0002b0 41 0f b1 3d 2b 6c 12 be 29 85 bf 3e 67 65 2c bd
       0.086454876 -0.14299075 0.3740628 -0.042088892
0002c0 a6 27 2f bb d8 39 f5 3d 6f a5 1a 3e ad f0 41 bd
       -0.0026726513 0.119739234 0.1510217 -0.047348667
0002d0 f4 0b dc 3e 2b 90 a4 be 89 62 e5 3d 25 29 54 3e
       0.4297787 -0.3214124 0.11200435 0.2071882
0002e0 49 4a b0 3d d9 60 56 bd eb c2 4f 3e 04 9d e0 3c
       0.08607919 -0.052338455 0.20289199 0.02741862
0002f0 e5 75 b5 bd 1d df 95 3e f4 55 33 bd 23 5d 33 bd
       -0.08860377 0.29271784 -0.043783143 -0.043789994
000300 bd 9d 1e 3d fb 87 3d 3e a9 55 ea 3d bc e8 12 3e
       0.03872465 0.18508904 0.1144212 0.14346594
000310 f4 e6 4a be 83 ba a7 bd 20 c9 80 3e e6 3e 41 bd
       -0.19814664 -0.08189871 0.25153446 -0.047179125
000320 01 f5 0b 3e d4 01 e2 be a3 ca 54 3e b9 27 4a be
       0.1366768 -0.4414202 0.20780425 -0.19741715
000330 9b 4e a2 3c 92 01 a4 3d 1e ac 11 3e c6 37 28 bd
       0.019812873 0.08008112 0.14225814 -0.041068815
000340 65 d4 40 3e 9e 1d 1c be 25 a4 cd bc 4f c8 96 be
       0.18831022 -0.15245673 -0.025102684 -0.29449698
000350 9e dc 0d be db 99 50 3e 89 25 9d 3e c1 c8 23 be
       -0.1385369 0.20371191 0.306927 -0.1599455
000360 fc d6 69 3d 59 d3 9a 3d 30 4d 79 3d 6c 20 57 be
       0.05708979 0.075598426 0.060864627 -0.21008462
000370 8c a4 b9 3d 25 90 90 bd 8a ca 4f bd a2 de e2 bd
       0.09064588 -0.070587434 -0.050730266 -0.1107762
000380 a1 fd 16 3d 3a 45 f9 3e 6a 44 d6 ba 57 36 b2 3d
       0.036862973 0.48685628 -0.0016347293 0.08701771
000390 eb 31 a7 bd 86 a7 77 bd 04 65 f4 bd 36 36 7e be
       -0.08163818 -0.060462497 -0.1193333 -0.24825367
0003a0 44 e0 42 3e c7 cd a8 bd d3 1b 62 3e d5 a2 6c 3e
       0.19030863 -0.08242374 0.22080927 0.2310899
0003b0 07 b2 00 be 7e 66 12 be b1 4e 33 be e7 bc ea be
       -0.12567912 -0.1429691 -0.17510487 -0.45847246
0003c0 27 e8 05 be d0 6c 33 be 3e 54 d5 bd c3 8c cd bd
       -0.1307684 -0.17521977 -0.104164585 -0.10036614
0003d0 36 26 4d be 76 b8 d5 bd 28 52 9d 3e 74 a9 55 be
       -0.20034108 -0.10435574 0.30726743 -0.20865422
0003e0 44 7b 20 3e ba 55 2f be df 65 56 be 22 b8 2c 3e
       0.15672022 -0.17122546 -0.20937298 0.16867116
0003f0 d4 36 77 bd 41 ff d6 bd cc 5c 16 be 0a ee 8f be
       -0.060355023 -0.104979046 -0.14683837 -0.28111297

net.net.4.bias f4 [64]
000000 6c e6 fe bd e7 2f 0a 3e 0d c4 77 be 82 8d e6 3b
       -0.12446293 0.13494836 -0.24195881 0.007035912
000010 1d 1e 12 3d c4 85 f6 bd 88 80 aa bd 3f 74 17 bd
       0.03567325 -0.120372325 -0.08325297 -0.036976095
000020 25 b9 74 3d c3 ca 0d 3e 87 06 05 3e 5d 33 f4 bd
       0.05974688 0.13846879 0.12990771 -0.11923859
000030 cb 86 de 3c 07 c2 bf bd be 15 43 3c 52 57 8c 3d
       0.027163884 -0.0936318 0.011907039 0.068525925
000040 85 ff 9b 3d 0e 39 67 bc d1 45 fc 3c ac 0e d3 bd
       0.07617096 -0.014112724 0.03079501 -0.10305533
000050 3a 25 18 bd b1 df fb bd c7 b6 ec 3d ef ef 7c bc
       -0.037144877 -0.12298525 0.115582995 -0.015438064
000060 d6 f3 33 3d 99 ca df bd 9d 13 d7 3d 82 8d a1 3c
       0.043933712 -0.10927314 0.10501788 0.019720796
000070 81 59 c6 bd 6f 70 d4 3d 54 b0 b7 3d 1f 7c 72 bc
       -0.0968504 0.103730075 0.08969179 -0.014800101
000080 9a 4e 70 3e e2 dd e1 bd f2 92 b6 3c 30 53 5e bc
       0.23467484 -0.11028649 0.022286866 -0.013569638
000090 2d c1 aa bd ec 73 73 bd 1b 43 b3 3d 73 56 04 be
       -0.083376266 -0.059436724 0.08753034 -0.12923603
0000a0 b5 31 aa 3d 2a 86 9c be 1d 80 45 3e 26 61 65 be
       0.08310262 -0.3057111 0.19287153 -0.2240034
0000b0 d8 cf 66 be ae 14 31 3d 47 62 1d bd 5c f4 67 3c
       -0.22540224 0.043232612 -0.038423803 0.014157381
0000c0 88 a0 fa 3c 94 8e a2 bc 07 c0 24 be 9c e7 71 bd
       0.030594125 -0.019843377 -0.16088878 -0.05905877
0000d0 2c 04 a5 be ef df e3 3d 1f f7 2b bb 57 bb 20 be
       -0.32229745 0.11126696 -0.0026239825 -0.15696464
0000e0 a3 f5 4b 3e 18 81 8b be 39 51 29 be 8b 94 5f bd
       0.19917922 -0.27246928 -0.1653489 -0.05458502
0000f0 1e 56 de bc 91 27 38 3e ed fd 01 bd 6d 08 ca bd
       -0.027140673 0.17983843 -0.031736303 -0.09864888

net.net.6.weight f4 [64, 64]
000000 23 aa 7b be ed f5 47 bb b9 95 c3 bd 57 4d 0c bd
       -0.24576621 -0.0030511573 -0.09550042 -0.034253445
000010 6c 0b 0a 3e 3c c2 20 3e 64 65 79 3d 8d de 1a bc
       0.1348092 0.15699095 0.06088771 -0.009452474
000020 c8 15 e2 bd 6d 6f 25 3e 86 6d 0b 3c 53 43 d0 bc
       -0.11039311 0.16155787 0.008509999 -0.025422728
000030 f0 2e c4 3d 5f 05 5d 3d 8a d6 dd 3d 9f e9 9e bd
       0.09579265 0.0539602 0.10831936 -0.077594034
000040 be c8 2d 3e a5 70 65 be e2 c4 0f be 87 87 ab be
       0.16971108 -0.22406252 -0.14039949 -0.33501837
000050 02 5c 93 3e 3f ea 90 3e 2d 32 bf 3e 97 23 9c bd
       0.28781134 0.28303716 0.3734297 -0.07623976
000060 71 aa 2d 3d f3 11 cf be 37 e2 60 bd 37 99 dc 3a
       0.042398874 -0.40443382 -0.054903235 0.001683033
000070 0d 6f 28 be f9 89 95 3d de 29 aa 3e f1 b1 93 be
       -0.16448613 0.07301707 0.33235067 -0.28846696
000080 0b 31 cb bd 81 59 8a bd 39 a1 9a 3d 3b e8 d1 bd
       -0.099214636 -0.06755353 0.07550282 -0.102493726
000090 ef d6 cc 3d c7 00 1e 3e 06 00 d4 3d e7 73 d4 3d
       0.10001933 0.15429984 0.10351567 0.10373669
0000a0 9d e4 61 3c 1b e4 fd 3d 73 2d 17 be b9 52 d0 be
       0.013787416 0.12397023 -0.14763431 -0.40688112
0000b0 c0 25 de bd 5c b5 1a be 04 88 0a bd de 1f ea 3c
       -0.10847044 -0.15108246 -0.03382112 0.028579649
0000c0 e8 b6 eb bd 26 02 6a be 98 a5 11 3d 35 81 5d bd
       -0.11509496 -0.22852382 0.035558313 -0.0540783
0000d0 a6 eb 04 bd 3b e5 62 3e 33 27 0b bc 6b 24 2e be
       -0.032451294 0.22157757 -0.008493233 -0.1700608
0000e0 7b 09 3c 3d 13 a3 4f be 23 fc f6 bd c4 30 4c 3e
       0.04590748 -0.20277052 -0.1205981 0.19940478
0000f0 11 d4 42 be 3f f3 3a 3d 05 60 4a be a5 5a 30 be
       -0.1902621 0.045642134 -0.19763191 -0.17222078
000100 de 35 27 be 0b 11 a2 bd 8e b4 2a bf 9c f4 28 3e
       -0.16329142 -0.07913407 -0.66681755 0.16499561
000110 7b 95 00 3f 76 d5 87 3e dd a5 00 3f 00 ff 84 be
       0.5022809 0.26530045 0.5025309 -0.259758
000120 2b fa 52 3e 71 58 8a bc 2c eb 21 3e b3 c8 80 be
       0.20603244 -0.016887875 0.15812367 -0.2515312
000130 68 a0 62 be ab 6c 1c bf 27 27 f3 3d 2b c3 79 3d
       -0.22131503 -0.61103314 0.11872702 0.060977142
000140 9b 5e dc 3c c1 0a e4 bc 65 db 47 3e 8f bc a2 bd
       0.02690058 -0.02783716 0.19517286 -0.07946121
000150 59 ab 0a be a3 42 1f be e1 57 aa bd 56 d2 a4 bd
       -0.13541926 -0.15552764 -0.08317543 -0.08047931
000160 24 00 c4 3d 67 ea 0a be 58 36 ab bd e2 32 53 3d
       0.09570339 -0.1356598 -0.083599746 0.051562198
000170 5a 3a b3 3e 1f 0e 6c 3d 77 fb 01 be e1 1c d1 bd
       0.35005456 0.057630654 -0.12693582 -0.10210586
000180 58 94 f7 3e 76 12 5a bd 71 5f 86 bb 38 4a 6c bc
       0.48355365 -0.053240262 -0.004100733 -0.014421992
000190 fa 66 51 be 03 b8 25 3c 83 29 12 3e 85 85 ee 3c
       -0.20449439 0.010114673 0.14273648 0.029116401
0001a0 90 32 b9 3e 34 ab b6 bd e6 5b ef 3d d2 f0 dd bd
       0.3617139 -0.08919373 0.1168745 -0.108369485
0001b0 81 ce 12 3e e4 43 ea be 2a 75 c3 bd c5 fe 40 3e
       0.14336587 -0.4575492 -0.09543832 0.18847187
0001c0 be d4 c0 3e 65 c7 33 bc 84 bc 88 3c 8f 0d c0 3f
       0.3766231 -0.010972832 0.016691454 1.5004138
0001d0 fa b4 fa 3d 99 64 72 bd 08 05 37 3d ac e4 a4 3d
       0.1224155 -0.05917797 0.044682533 0.08051428
0001e0 22 71 82 bd 6f 35 75 bd b0 0f 1d bd 30 53 86 bd
       -0.063692346 -0.05986541 -0.03834504 -0.065588355
0001f0 3e 57 89 3d e4 5b 24 3e e5 dd 6f be 8c 74 2f 3e
       0.06706093 0.16050678 -0.2342449 0.17134303
000200 59 83 e9 bd 16 1a e2 3d d6 49 d6 be 9b 2e 37 bd
       -0.11402006 0.11040132 -0.41853207 -0.04472218
000210 06 7b 0b 3e a5 6d 95 3e 61 cd b6 3e 1b 76 5e 3d
       0.13621148 0.29185215 0.35703567 0.054311853
000220 9b 65 d6 bc f3 dc 58 3d 50 d3 83 3e d1 e9 55 3e
       -0.026171496 0.05294509 0.25747156 0.20889975
000230 68 f5 1e 3e 15 f4 1f be 39 0a 4f 3d 2d 20 69 be
       0.15523303 -0.15620454 0.05054686 -0.2276618
000240 49 f8 1c 3f 0b e1 0c 3e b9 54 26 3e 24 02 d6 3d
       0.61316353 0.13757722 0.16243257 0.10449627
000250 6f 50 c9 3e 8d 3b 06 3e 78 30 07 be 8f 9a 00 3e
       0.39319178 0.13108654 -0.13202083 0.1255896
000260 b9 5c 1b 3d 78 96 ef 3c 83 37 90 3e 80 44 36 3d
       0.037930224 0.029246554 0.28167352 0.04449892
000270 1f e1 34 3e 28 4e 57 3e 83 32 9b be 52 17 8e 3d
       0.17664002 0.21025908 -0.30311975 0.06938042
000280 40 90 0b be c8 f0 af bd 96 86 21 3d 39 6c bf be
       -0.13629246 -0.08590847 0.03943499 -0.37387255
000290 f1 26 53 bd a3 33 76 bd 92 41 2a bd b8 3e 58 3e
       -0.05155081 -0.06010784 -0.04156644 0.21117675
0002a0 5e 62 8c 3e 68 d5 97 be b9 e7 d6 bd f6 39 2b be
       0.27418798 -0.29655004 -0.10493416 -0.16721329
0002b0 3c dc 33 3e 76 7a 4e 3b 9d b5 87 be ae 99 b1 3e
       0.17564481 0.0031506098 -0.26505747 0.3468756
0002c0 48 65 f7 3c d8 1c 98 be 86 ce 5a 3d a5 22 ae 3e
       0.030199662 -0.29709506 0.053419612 0.34010807
0002d0 e9 13 96 3e 4d 8d 9a 3c 10 3e 52 3e 35 3c 32 be
       0.29312065 0.018866206 0.20531487 -0.1740578
0002e0 78 49 bb 3d 3d 6a 84 bc a5 28 3b 3d aa f6 ce bc
       0.091448724 -0.01616394 0.04569306 -0.025264103
0002f0 6a b4 7b bc 80 ca 41 3c 16 86 3a be ff ae 0d bd
       -0.015362838 0.011828065 -0.18215212 -0.034590717
000300 a1 1d 79 bb 84 74 c4 bd 52 4d 82 be 6a 45 1b be
       -0.0038012045 -0.09592536 -0.25449616 -0.15163198
000310 4e c9 aa bb 7d ad 6f 3e fa b9 a4 3d a4 79 37 be
       -0.0052119857 0.23406024 0.08043285 -0.17917496
000320 32 21 85 be b4 9b a2 3d 17 09 bd 3e f5 1b 2f be
       -0.2600189 0.07939854 0.36920998 -0.17100509
000330 8c 3c 15 be 93 dc ba bd 72 a5 35 bf bc e5 88 be
       -0.14573878 -0.091241024 -0.70955575 -0.26737773
000340 78 10 af 3d b1 04 a4 bd 4b 04 80 be ed 92 47 be
       0.08548063 -0.08008707 -0.25003275 -0.19489641
000350 29 e4 ce bd 77 0c 58 3d dd c1 5e bd ee d5 fe bd
       -0.10102112 0.052746262 -0.0543841 -0.124431476
000360 fc 34 af be 25 ae e4 bd 8d 9d 5c bc 54 17 0a be
       -0.3422011 -0.11166028 -0.013465297 -0.13485461
000370 34 1c 37 3e ee ac a6 be df 7e bc bc bb a8 0c bd
       0.17881852 -0.3255381 -0.023009716 -0.0343406
000380 db 60 94 be fd a2 ea 3e c5 b5 92 bd 7d ec be 3e
       -0.28980145 0.45827475 -0.07163576 0.372898
000390 87 77 b0 3d 46 90 04 3e a0 e3 31 3d 4d ea 99 3d
       0.08616548 0.12945661 0.04342997 0.075153925
0003a0 b2 b5 73 3d c8 9d da 3d 7c d6 7d be ef 3a cc 3c
       0.05949945 0.10674626 -0.2478885 0.024930445
0003b0 03 66 4f 3e 9a a9 b4 bd 10 81 cf 3d 68 34 80 3e
       0.20253758 -0.088214114 0.101320386 0.25039983
0003c0 01 c7 c8 3c 63 5f 2a 3e e8 96 b3 3e 01 9a a2 3e
       0.024508955 0.1663795 0.3507607 0.3175812
0003d0 26 35 65 3e 27 5e 04 3e 30 db 31 be a8 7f 67 be
       0.22383556 0.12926541 -0.1736877 -0.2260729
0003e0 de 8f a0 be 70 51 f3 3e 2b db e3 bd 69 c1 91 be
       -0.31359762 0.4752307 -0.11125787 -0.28467873
0003f0 dc 17 8e bc ab 06 4a 3d 4b 87 91 be e5 ae ac bd
       -0.017345361 0.049322765 -0.28423533 -0.08431796

net.net.6.bias f4 [64]
000000 60 25 25 3e 81 4a 13 bd 8c 20 3e bd f4 2b 53 be
       0.16127539 -0.035959724 -0.046417758 -0.20622236
000010 c5 bd f9 3d 50 bf 2a bc b7 70 a6 bd 79 60 60 bd
       0.12194399 -0.010421589 -0.081269674 -0.054779503
000020 e8 d8 85 be c3 ac 02 3e c5 01 b2 3d 18 03 7c 3e
       -0.2614205 0.12761216 0.08691744 0.24610555
000030 4d f1 ff 3d 31 84 89 bd 05 f2 24 be 15 a1 09 be
       0.12497196 -0.06714667 -0.16107948 -0.13440354
000040 c7 36 8a 3d bf 9a b3 bd fb 73 92 3e 46 56 10 3e
       0.06748729 -0.0876975 0.2860411 0.1409541
000050 48 f9 6c be 77 c2 d3 3c b2 0e 98 3d c2 fc bf 3c
       -0.23141968 0.025849564 0.07424678 0.023435954
000060 79 c4 b8 3d 15 2d 44 be 1d 57 e1 3c df 26 e0 bd
       0.09021849 -0.19157822 0.02750736 -0.10944914
000070 51 30 65 be 0a f4 87 bd 87 7c 4e be d9 f4 74 be
       -0.22381712 -0.06638344 -0.20164691 -0.23921527
000080 ec 3e fe bd 94 c8 eb 3c 7c 4f 1a 3d 44 20 34 3e
       -0.12414345 0.028782167 0.03767346 0.17590433
000090 61 fb 54 be d0 2c 43 3d bd df d7 3d 39 85 7f bd
       -0.20799018 0.04765016 0.105407216 -0.06238291
0000a0 39 f5 24 be 4b 89 ac 3e 05 c5 03 be 5c 4f 89 be
       -0.1610917 0.33698496 -0.12868126 -0.2681836
0000b0 d2 be d5 3d c4 bb 44 3c a1 70 a8 3d 18 1b 1e 3e
       0.10436787 0.012007657 0.08224607 0.15440023
0000c0 5c 56 b6 bd 44 78 20 bd c7 7b 89 3d 3c e1 54 3e
       -0.089031905 -0.039177194 0.06713062 0.20789045
0000d0 4f 9b 1d 3e ac 29 b1 bd f5 71 6c be 1d 2c 6f be
       0.15391277 -0.086505264 -0.23090346 -0.23356672
0000e0 d8 20 11 be 7f 02 4a bd 44 ad 80 3e 21 9a 98 3e
       -0.14172685 -0.049318787 0.2513219 0.2980509
0000f0 74 39 2c 3e 66 d0 87 bc ec e1 19 bc 8f ef 10 3e
       0.16818792 -0.016578864 -0.009392243 0.14153884

net.net.8.weight f4 [64, 64]
000000 5d b2 4b 3e 8b 97 8a be b7 3e 40 be c0 ab d7 bd
       0.19892259 -0.27068743 -0.18773924 -0.105308056
000010 c3 22 de 3d 59 9b 80 bd 81 35 3f be 7d 48 2d 3e
       0.10846474 -0.0627963 -0.18672754 0.16922183
000020 ac 28 8a be 14 48 11 3e 14 03 7a be 45 38 a9 3e
       -0.26984155 0.14187652 -0.24415237 0.33050743
000030 3b 34 ce 3d e0 4c 92 3e 9c 42 56 be dc 74 40 be
       0.10068556 0.28574276 -0.20923847 -0.18794578
000040 3e f8 b0 3e 63 d0 5f be fa 61 c7 bd 15 b0 18 bc
       0.34564394 -0.21856837 -0.097354844 -0.009319325
000050 13 07 0e be 6b fb dd bd 48 bc 1a 3e 8c 11 4d 3e
       -0.13869886 -0.1083897 0.15110886 0.20026225
000060 af f7 ee bb 5a 03 83 3d a4 c5 6b be b3 fa ba 3e
       -0.00729271 0.06397124 -0.23024613 0.36519393
000070 db 93 52 be 71 91 3f bd d9 d9 70 3d 2a 0a 77 3d
       -0.20564215 -0.046769563 0.058801506 0.060312428
000080 66 eb 84 3e 94 a3 05 bd 73 74 22 3e 75 d9 a2 3d
       0.25960845 -0.032626703 0.15864734 0.07951633
000090 6c 39 0c be ca 52 8f 3e 02 34 c7 bd 7e 85 c9 3e
       -0.1369378 0.2799285 -0.097267166 0.3935966
0000a0 f0 0b bb 3d f9 a2 ec 3c e0 40 7e 3d 70 64 71 bd
       0.09133136 0.028886305 0.06207359 -0.058933675
0000b0 5a f9 a6 3e d0 e4 ad 3d 3d 5e 11 bf a2 1b e9 bc
       0.32612115 0.08490908 -0.5678442 -0.02845556
0000c0 c4 a5 04 be 11 ed a8 bd e0 58 47 3e 39 73 71 3e
       -0.1295386 -0.08248342 0.19467497 0.2357911
0000d0 57 a3 9d 3e 90 37 7d 3d fb 63 3f 3e 6b 61 a2 3e
       0.3078868 0.061820567 0.18690483 0.3171495
0000e0 98 40 1f be e4 e5 ce 3e e2 c8 f4 be 1c a9 93 be
       -0.15551984 0.40409768 -0.4780951 -0.28839958
0000f0 b0 02 9f be 1e f1 77 39 ad 84 56 3e 57 a0 50 be
       -0.31056738 0.00023645579 0.2094905 -0.20373665
000100 8a 71 29 3e 1e 3e 57 be 89 14 ca be a4 c4 4c bc
       0.16547218 -0.2101979 -0.39468792 -0.012498055
000110 26 47 03 3d a1 11 c7 3d ad 80 a2 bb 90 43 38 bc
       0.032050274 0.09720159 -0.004959187 -0.011246577
000120 2b 3a c8 be f6 54 06 3f 10 f0 30 be 64 88 a2 3e
       -0.3910688 0.5247339 -0.17279077 0.31744683
000130 56 cd bb 3d 81 0c 17 bd 63 de 49 bc 8c b0 80 be
       0.09170024 -0.03687716 -0.0123210875 -0.25134695
000140 25 88 7e bb 03 a6 15 bd 49 ff 75 3e 54 4d 42 bd
       -0.0038838473 -0.036535274 0.24023165 -0.047437027
000150 4d 26 62 3c ad b3 d8 3d ea 1c af 3e 12 4e 92 bd
       0.013803077 0.105811454 0.34201747 -0.07143797
000160 16 8f 23 3c 3e d5 80 3d 6a 7c fd bd f3 32 9f 3e
       0.009982845 0.06290673 -0.12377246 0.3109356
000170 a8 30 78 bc 98 1a 28 3e f3 41 27 be 90 66 2d 3e
       -0.015148319 0.16416395 -0.16333751 0.16933656
000180 b5 03 8f 3d c2 0c 8e 3d 9c 51 b5 3d 98 e4 ce 3d
       0.06983129 0.06936027 0.088534564 0.101021945
000190 7d fe ef 3d c2 f2 b3 3e 9a 06 8e be 68 34 40 3d
       0.11718462 0.35146147 -0.27739412 0.04692498
0001a0 af 7e a8 3d 19 09 d0 3d 50 3f 73 be 2f dc 93 be
       0.08227288 0.10157985 -0.2375462 -0.28878924
0001b0 bc ab 0f 3c da 96 86 3e 08 35 83 be ac f3 28 3e
       0.008768972 0.26286966 -0.25626397 0.16499203
0001c0 48 d4 e8 be 7f f7 84 bd f4 94 1f 3e a9 55 48 3e
       -0.45474458 -0.06492519 0.15584165 0.19563927
0001d0 23 a4 0a 3d ca 75 22 be af 28 d0 3e 29 73 2f 3e
       0.03384794 -0.15865245 0.4065604 0.17133774
0001e0 93 67 11 be 43 4a 8a 3e 62 8a 2d be df 44 b7 bd
       -0.14199667 0.27009782 -0.1694732 -0.08948683
0001f0 f1 37 0c be 4d a5 2a bd d2 31 b9 3b 68 bd 4c be
       -0.13693215 -0.04166155 0.005651691 -0.19994128
000200 a7 a4 2c bd aa 34 cc 3e d5 53 b1 3e 8d e1 30 3e
       -0.042149212 0.3988393 0.3463427 0.17273541
000210 c3 48 63 3d 2c 67 86 3e 9d ba 9f bd d5 de 5d be
       0.055489313 0.2625059 -0.077992655 -0.21667035
000220 9b ba 56 3e e3 c5 5b be d7 35 40 3c 06 b2 b9 be
       0.20969622 -0.21462207 0.011731586 -0.36268634
000230 5a 10 cf be d5 55 71 3d aa 02 e5 3d f4 45 fa 3e
       -0.40442163 0.058919746 0.11182149 0.48881495
000240 8d 1b c4 be 9f 34 ca 3c 14 1c 9d 3e fc 66 fd 3c
       -0.3830227 0.024683295 0.30685484 0.030932896
000250 db 93 24 3e f9 a4 f9 bd 1b 92 b4 be e4 82 dd bc
       0.16072027 -0.12189669 -0.3526772 -0.027039953
000260 75 a5 ef bd ec 14 52 3d be ba f8 bd d3 bb 7c be
       -0.1170148 0.051289484 -0.12144993 -0.24681024
000270 2f 74 92 ba 99 f0 92 3d f6 69 76 bc e3 ec 91 be
       -0.0011173541 0.071747966 -0.0150399115 -0.28501043
000280 38 16 e4 be 17 fe a9 bd 9b c9 44 be 72 d2 10 be
       -0.44548202 -0.08300417 -0.19217531 -0.14142779
000290 4a 47 74 3d b4 b5 15 be 11 20 dc 3e 59 79 93 be
       0.0596383 -0.14620095 0.42993215 -0.28803518
0002a0 46 08 84 3c 63 b8 7f be a5 25 74 b9 bf 28 e9 3e
       0.016117226 -0.24972682 -0.00023283677 0.455389
0002b0 7d be 5c 3c 03 7f a8 be 72 53 f0 3e 3c a5 59 3d
       0.01347315 -0.32909402 0.46938664 0.053136095
0002c0 4e 98 ab 3e 15 0b 02 be b5 56 24 be 12 bc 87 be
       0.33514637 -0.1269954 -0.16048701 -0.26510674
0002d0 45 d7 2f be 5f 1b 24 3d e8 af 1d be a4 71 ea be
       -0.17171963 0.040065166 -0.15399134 -0.45789826
0002e0 34 d4 45 3d 5a ab eb be 67 08 1a 3e 4f 70 24 3e
       0.048298076 -0.46029168 0.15042268 0.16058467
0002f0 ea 79 84 3d 77 4a 27 3d 5b 37 53 3e ba c0 85 3d
       0.06468566 0.0408425 0.20626585 0.065309
000300 78 66 11 3e 98 af bd be 2a 49 fd bd be c0 87 3e
       0.14199245 -0.3704803 -0.123674706 0.26514238
000310 cf ea 96 bd 07 63 34 3e 4c 6e d2 3d 3f c3 f8 bd
       -0.07369005 0.17615901 0.10274944 -0.12146615
000320 f9 fd 16 bc 15 d5 9a 3e 85 29 d6 3b 98 b6 74 3e
       -0.009215825 0.30240694 0.006535711 0.23897779
000330 28 f0 d0 3d ee a3 71 be c0 ea e7 bd d9 41 81 be
       0.10202056 -0.2359769 -0.11324072 -0.2524555
000340 cb aa 3c 3d 5b d6 e9 bd 41 48 2b 3e c9 54 51 3e
       0.04606132 -0.11417838 0.16726781 0.20442499
000350 74 51 96 be b4 04 1b be cf aa 57 bc 7d 76 1f be
       -0.2935902 -0.15138513 -0.013163283 -0.15572543
000360 37 36 12 3e 63 d8 47 3e 82 86 23 3e 6a 01 c7 3d
       0.14278494 0.19516139 0.1596928 0.097170666
000370 e0 85 7b 3a a2 68 87 be 43 2c ac be 19 a8 92 3e
       0.0009594839 -0.26447016 -0.3362752 0.28643873
000380 81 e8 01 3d 01 3d 84 3e f5 b8 46 bc 51 c1 49 bc
       0.031715874 0.25827792 -0.012129058 -0.012314157
000390 47 50 79 3e b3 92 47 3d 38 ac e0 be 90 9f 39 be
       0.2434703 0.048723888 -0.43881392 -0.18127275
0003a0 e3 24 a7 3d d7 34 30 3e d1 0e 6c 3d b0 e7 8d 3d
       0.081613325 0.17207657 0.057631318 0.069289565
0003b0 c2 5a eb bd 00 a7 57 bd bc 57 35 be 34 0b 5b 3e
       -0.1149192 -0.052649498 -0.1770925 0.21390992
0003c0 d4 da 25 be 5f 5a 6b 3d b8 48 7b 3e 7d 50 5c 3e
       -0.16196758 0.05745923 0.24539459 0.21515079
0003d0 0e 7e 98 bd ed 6a 0c 3e fc c0 45 3f 2c 3b b1 3e
       -0.07445918 0.13712664 0.77247596 0.34615457
0003e0 c8 fb b6 be ae 3f ed 3d 86 0a 8b 3e 45 c3 78 3e
       -0.3573897 0.115844116 0.27156466 0.2429324
0003f0 7e ce e5 3e fa 53 37 bd 3d 94 90 3d ea af 1a bf
       0.44884104 -0.04475782 0.07059524 -0.60424674

net.net.8.bias f4 [64]
000000 c0 ab 2f 3d 68 2d 4c bd e5 ff 9c bd 33 84 af 3e
       0.042888403 -0.04984799 -0.076659955 0.34280547
000010 74 d2 6a bd 42 45 d2 bc ed 3c 09 3e e6 2f 86 3c
       -0.05732961 -0.02566779 0.13402148 0.016380262
000020 39 84 55 3e d2 8d 89 bd 99 09 4c be 4d ca 6d 3d
       0.2085122 -0.06716503 -0.19925536 0.058054257
000030 8a 1b d3 bd 15 bc 91 bd 32 5c 1e be 25 23 13 be
       -0.10307987 -0.07115952 -0.15464857 -0.14368875
000040 f2 bf 05 be 59 64 d2 3d cd 82 f7 bd 9e 95 1b be
       -0.13061503 0.10273046 -0.12085495 -0.15193793
000050 45 d6 98 be 42 29 fd 3c 85 4b 47 be ba 99 3f 3d
       -0.29850975 0.030903462 -0.19462402 0.046777464
000060 69 9e 04 3e c6 e7 4b bc ca ee e2 3d 41 bd eb 3d
       0.12951054 -0.012445396 0.11080702 0.11510707
000070 5c f3 95 be bf 24 49 be d6 f9 80 3e f8 c9 0f 3e
       -0.2928723 -0.19642924 0.2519061 0.14041889
000080 0e d5 13 be 9a 4b 31 3e 63 6a 5e 3e 32 a2 e3 bd
       -0.14436743 0.17313996 0.21720271 -0.11114921
000090 82 a0 b0 bc fb 1b 33 be b0 29 07 3e fd a2 2f bd
       -0.021560911 -0.17491142 0.13199496 -0.042880047
0000a0 72 49 8e bd 18 02 0c be 78 d9 f3 3d fd 3b 57 3e
       -0.06947602 -0.13672674 0.11906713 0.21018977
0000b0 35 67 81 be 48 2b 5d bd 3f 35 f3 be 56 61 19 bd
       -0.25274053 -0.053996354 -0.4750156 -0.037446342
0000c0 e8 fc b5 3c 1c b2 f4 bb 90 93 45 be 37 57 ea bc
       0.022215322 -0.0074675214 -0.19294572 -0.02860604
0000d0 9a af 9b 3c 02 03 59 be 83 05 1f 3d 9f ce 4c be
       0.019004632 -0.21192554 0.038823616 -0.20000695
0000e0 91 d1 35 be 77 52 86 3e a8 af c7 3d e7 a0 3a 3d
       -0.17755724 0.2623479 0.09750301 0.045563605
0000f0 6c 32 ed bd cf 7d c8 3b dd 59 ed 3d 34 25 ce 3b
       -0.11581883 0.006118513 0.11589406 0.006291056
