FullOrder/FullOrderReconstruct/FullOrder_20251115_231704_MLP_deeponet_Phys_Batch_HD64_HL5_LR0.01_Pretrain50_Sample0.3_checkpoint.pth (torch, 632314 bytes, 78 tensors)

branch.net.net.0.weight f4 [64, 2]
000000 91 0f 1d 3f cf 81 73 3f 40 15 5b 3e 8b c7 27 bf
       0.6135188 0.9511995 0.21394825 -0.65538853
000010 42 a3 1f 3e eb 57 33 3f ee 3d 23 3e 90 f3 22 bf
       0.15589622 0.7005603 0.15941593 -0.63652897
000020 65 51 fd bd 55 01 51 3f 9a 1e 48 be 26 c0 40 bf
       -0.123690404 0.8164266 -0.19542924 -0.75293195
000030 82 11 83 be 6a 1f 85 be 46 74 ef bd 15 23 2d bf
       -0.25599295 -0.2600053 -0.11692099 -0.67631656
000040 1a 40 96 be 2d 1f 02 3f 96 3a 55 3f 61 c5 19 3f
       -0.2934578 0.5082882 0.8329252 0.600668
000050 c5 fa 29 bf a2 25 37 3e b6 25 53 be 4a f5 20 bf
       -0.6639827 0.1788545 -0.20619854 -0.6287428
000060 a5 e3 1b 3e e1 74 c6 3e 53 0b 5c 3f 5f b2 16 3f
       0.15223558 0.38761047 0.8595478 0.5886592
000070 e8 bc 66 3d 3f 21 d5 be 2b 70 0b be e8 27 a3 be
       0.0563325 -0.41626927 -0.13617007 -0.31866384
000080 2e e0 ab 3e 8e 12 0a bf 15 14 25 be 4d 58 30 3f
       0.33569473 -0.5393456 -0.16120942 0.68884736
000090 0a 91 be 3e ed 1a 2a 3f 1e 15 2c bf b6 75 60 3e
       0.3722003 0.66447335 -0.6721972 0.21919903
0000a0 08 b5 0f 3e 17 1b 0b bf 07 16 87 be dd 5f 15 bf
       0.14033902 -0.5433821 -0.26383993 -0.583494
0000b0 ca 8f 87 3e 3f 51 11 3f 05 27 6f 3e 6f 87 22 3f
       0.2647689 0.56764597 0.23354729 0.63487905
0000c0 10 fd 13 3f 5e 50 50 be 69 43 4b be 67 3a 86 3e
       0.5780802 -0.20343158 -0.19849934 0.26216432
0000d0 ec f3 17 3e 63 a9 f7 3e b0 22 7c be cc 25 0e bd
       0.14839143 0.4837142 -0.24622607 -0.034704015
0000e0 6c 86 b9 3e 43 6d 20 3f cf 93 08 3e 58 51 6c be
       0.36235368 0.6266672 0.13337635 -0.23077905
0000f0 c8 9d e2 bd 81 4f 05 bf d0 6d 81 bf c8 7e 02 be
       -0.11065251 -0.5207444 -1.0111637 -0.12743676
000100 a7 4c 99 bd 0a 30 23 3f fc 70 1b 3e bd a0 fa be
       -0.074853234 0.63745177 0.15179819 -0.4895076
000110 df 41 3f bf 32 1f 78 3e 3f 44 18 bf d6 2a a3 3e
       -0.74709886 0.2423065 -0.59479135 0.3186862
000120 f1 62 81 3e 4b 6d 3a 3f f7 df c0 3e 3c f5 e3 3d
       0.252708 0.7282302 0.37670872 0.11130759
000130 d0 c5 fa be b8 b1 70 3e 46 f8 cb be 08 1c 0c bf
       -0.48979044 0.23505294 -0.39837855 -0.5473027
000140 0a e3 08 3f 88 58 d3 3e fa 87 7f be 5d a2 22 3f
       0.53471434 0.4127848 -0.24954215 0.63528997
000150 5a 0a 36 bf 90 7f bb be 5d be 15 bf cf 49 de 3e
       -0.71109545 -0.3662076 -0.58493596 0.43415686
000160 b3 df 9a 3f 36 f9 b7 3e c8 b2 36 bd e6 d6 1b bf
       1.2099518 0.3593232 -0.044604093 -0.60874784
000170 c2 db dd be d6 ff 29 bf aa 8c 37 3e 79 b0 4c 3f
       -0.43331724 -0.66406 0.17924753 0.79956776
000180 35 00 05 bf 26 6f 5e 3e e5 22 fe be 94 bb 5d be
       -0.5195344 0.21722087 -0.49635997 -0.21653587
000190 b2 57 0e bf 21 60 e9 3e 7a 14 ea 3e 23 ec d3 be
       -0.5560256 0.45581153 0.45718747 -0.41391096
0001a0 02 22 8f 3e a8 cd ec bd d2 e3 d4 bc 55 65 1b bf
       0.27955633 -0.11562663 -0.02598754 -0.60701495
0001b0 2f 92 f5 be 58 11 1b 3f 88 c8 a4 3e 74 4e 05 bf
       -0.47963092 0.6057334 0.32184243 -0.52072835
0001c0 4a bf 68 be e7 da 0e 3f 99 c7 e9 3e 68 e4 2c bf
       -0.22729221 0.5580277 0.45660093 -0.6753602
0001d0 9c ae dd be 24 0d 23 3f f4 1e f4 bd 8c 6d 27 bf
       -0.4329728 0.63691926 -0.11919966 -0.6540153
0001e0 c8 30 fc 3e 27 57 ef be 3c 63 13 3f b6 24 1a bf
       0.49255967 -0.4674618 0.57573295 -0.60212266
0001f0 31 78 09 bf 4d 42 f3 be 50 30 93 bd 8a 07 d8 be
       -0.5369902 -0.4751152 -0.07186949 -0.42193252

branch.net.net.0.bias f4 [64]
000000 9e b7 8a be 6f 27 0e 3f fc 6f 3e 3e 73 ee 11 3f
       -0.27093214 0.5552892 0.18597406 0.5700447
000010 1c 09 50 3f d2 34 01 3f 10 bf 28 3e c7 52 2a 3f
       0.812639 0.5047122 0.16479135 0.6653256
000020 44 83 df be f9 2e 06 3e df 73 cc be 54 77 08 bf
       -0.43654835 0.13103856 -0.39932153 -0.5330708
000030 bd 01 f2 be 32 a4 5c 3e ab cf 77 3e f0 61 f4 3e
       -0.4726695 0.2154701 0.24200313 0.4773097
000040 4b 20 51 3e f9 b5 17 3f 60 d4 40 be 6d f7 31 3f
       0.20422475 0.59262043 -0.18831015 0.69518167
000050 f2 a1 35 3e 55 d7 98 3e ee 01 05 be 78 31 54 be
       0.17737558 0.29851785 -0.12989017 -0.20721996
000060 52 bf 05 bf 2e 47 8e be 0a 8c 56 3d 10 50 00 bf
       -0.52245057 -0.2778868 0.052379645 -0.50122166
000070 62 53 94 3d 3b b6 0e 3f 44 c2 ad 3e c2 5a d6 be
       0.072424665 0.5574681 0.33937275 -0.41866118
000080 15 dd b5 3e 34 0b b6 be 5e 5f 09 bf 81 1c 1a bf
       0.35520235 -0.35555422 -0.53661144 -0.60199744
000090 df 80 07 3f 60 0c 06 bf d1 49 86 be 8c 71 bb 3e
       0.52931017 -0.5236263 -0.26228192 0.36610067
0000a0 ea fa a6 bd 0b 32 db be b2 25 38 3f 0d 8c 4b bf
       -0.08153327 -0.42811617 0.7193252 -0.79510576
0000b0 ad a2 bb 3e f2 9e fd bd 3d ad eb 3e 0f 4d 1f bf
       0.3664755 -0.12383832 0.46030608 -0.6222696
0000c0 7d 5a 04 3f 0c 9d 72 be c8 a4 31 3f 10 99 02 bf
       0.51700574 -0.23692721 0.6939206 -0.51014805
0000d0 72 06 2e 3e ca 6b ec 3e 04 3b 2f bf 46 52 2a 3f
       0.16994646 0.46175987 -0.68449426 0.6653179
0000e0 98 d1 f7 be c7 6e 38 3f 1d 15 36 bf 1a 6a f2 be
       -0.48402095 0.7204403 -0.71125966 -0.47346574
0000f0 b3 af 1e 3f ad 75 4d 3f 00 a1 55 be 9e 62 d6 3e
       0.61986846 0.80257684 -0.20862198 0.41872114

branch.net.net.2.weight f4 [64, 64]
000000 59 1e fa ba 7d 8e 36 3f df ff 20 3e 2a 23 1f 3f
       -0.0019082531 0.7131117 0.15722607 0.6216303
000010 52 92 58 3d d9 36 a7 3e c3 b4 5f bd 50 10 6c 3e
       0.052873917 0.32659033 -0.054615747 0.23053098
000020 5e 48 53 bf b6 95 7e 3e 27 51 03 bf c4 73 16 be
       -0.825323 0.24861798 -0.51295704 -0.14692599
000030 d6 de 60 be 59 dc 42 3e de 28 1a 3e 38 d0 95 3e
       -0.21960005 0.19029368 0.15054652 0.2926042
000040 d3 b1 22 3e d0 9d 7c 3d 28 e2 d5 bc 54 b3 85 3d
       0.15888147 0.06167394 -0.026108816 0.06528345
000050 b3 bb c9 3c b2 ea 35 3d 53 f0 ec bc 37 a5 0d be
       0.024625635 0.044413276 -0.02892319 -0.13832556
000060 2a b1 0b 3d 63 23 5e bf 48 6a 11 3d a2 7e 4b be
       0.034104504 -0.86772746 0.03550175 -0.19872525
000070 5e bc c1 3d 91 9c 25 3e 99 91 c0 3d 87 ff 01 bf
       0.09459756 0.16173007 0.094027705 -0.5078053
000080 16 28 34 3e 18 77 8b bd 41 f2 fc be 5d df 36 bf
       0.17593417 -0.06809825 -0.49403575 -0.71434575
000090 37 18 a6 3d f5 7c d4 3c 29 0b 0e bf ff f0 23 3e
       0.08110087 0.02593849 -0.5548578 0.16009901
0000a0 66 fd 97 3e e1 04 c4 be b2 bb 42 3d a4 b6 1d bf
       0.29685515 -0.38284972 0.04754228 -0.6160681
0000b0 c8 c0 e0 3e 60 40 e4 bd c9 04 30 3e a1 c3 d4 be
       0.4389708 -0.11145091 0.17189325 -0.41555503
0000c0 76 0b 24 3e 8e 5f a4 be fd 21 4c 3d 7e 2e b1 bd
       0.16019997 -0.32104152 0.0498371 -0.08651446
0000d0 97 4d 06 3f 78 6b ef 3e 63 5c 31 bf 68 34 2a 3f
       0.5246214 0.4676168 -0.69281596 0.66486216
0000e0 8a fd 93 be 6e 9c 5b 3f 8d cb 5e bf b2 7d 47 be
       -0.28904372 0.8578557 -0.87029344 -0.19481543
0000f0 27 20 35 3f 0f 05 26 3f 86 05 11 be 7e f0 8c 3e
       0.70752186 0.6485147 -0.14162263 0.2752723
000100 1c 1e bd be e8 02 a4 bd e8 59 82 3e 2c 0d b3 bd
       -0.36937034 -0.08008367 0.25459218 -0.08742747
000110 39 4c a0 3e 5d bd 50 3d e4 1a bf bd 4b 9b 5d 3e
       0.31308153 0.05096184 -0.09331301 0.21641271
000120 cf dd 09 3e c2 aa 27 be dd b2 a7 3e 15 91 d7 3b
       0.1346352 -0.16373733 0.3275365 0.0065785744
000130 c3 bf cf be d0 1a f9 be 17 db 95 be b2 ee ab 3e
       -0.4057599 -0.4865327 -0.29268715 0.33580548
000140 6b 2e 45 be d6 a7 a1 3e 96 db b9 be e3 c8 6d 3e
       -0.19255988 0.3157336 -0.36300343 0.23221163
000150 dc ac 69 be 7a 3a c0 3e 24 2d ff 3d 40 41 19 3e
       -0.22819847 0.37544614 0.12459782 0.14966297
000160 6a 47 71 be 5e f7 f9 3d 85 b8 f2 3d 3c d5 bb bd
       -0.23562399 0.12205385 0.118516006 -0.091715306
000170 d1 01 9e 3d f4 44 a6 3d 20 49 fa bd b7 ca 97 3e
       0.0771519 0.081186205 -0.12220979 0.29646847
000180 87 a1 69 3e 4a 56 3f be da ac ed 3e bf e2 b1 3e
       0.22815524 -0.1868526 0.46420938 0.34743306
000190 1f 09 0f 3e 7d a7 e6 be f4 59 43 3e e3 cc 88 3e
       0.13968323 -0.45049658 0.19077283 0.26718816
0001a0 ee ac e4 be 42 88 51 3e 43 25 af 3e 95 24 e8 3e
       -0.44663185 0.20462134 0.34208116 0.4534041
0001b0 5b 23 00 bf bb 19 b7 be 89 73 bc 3e cd 76 54 be
       -0.5005395 -0.35761818 0.36806896 -0.20748444
0001c0 e7 4c 51 3e b2 3c 81 3e 93 56 1c 3e d1 fa a1 be
       0.20439492 0.2524162 0.152674 -0.3163667
0001d0 09 2e b1 be 21 cc 71 be 3f c8 84 3e bb 9d bd be
       -0.34605435 -0.23613025 0.25934026 -0.370344
0001e0 26 fc 74 3c 35 6e 1d be 41 2e 8e 3e b4 92 c9 bd
       0.014952695 -0.15374072 0.27769664 -0.098424345
0001f0 09 e6 4a be 8e e1 ad be d2 d2 80 bd c5 a3 98 3e
       -0.19814314 -0.33961147 -0.06290211 0.29812446
000200 cd 9f 95 bd 6b d5 8d 3d f2 82 c6 be 26 38 93 bd
       -0.0730587 0.06925472 -0.38771778 -0.07188444
000210 b3 53 40 bf 4a 6d 03 be 93 1a 76 3e 65 e3 9e bd
       -0.75127715 -0.12834659 0.24033575 -0.07758216
000220 5c 50 a7 bc 31 1a 70 be 9f 70 5f 3e 3f 77 37 3f
       -0.02042406 -0.23447491 0.21820305 0.7166633
000230 58 e2 68 3d 1a aa cb be 75 0c f7 3c 37 9b 75 be
       0.056856483 -0.39778215 0.030157307 -0.23984991
000240 d3 c3 b9 bc de e6 1d bf 95 70 4e be 04 e0 d7 be
       -0.022676384 -0.616804 -0.20160134 -0.42163098
000250 e4 cd 3b 3e dd a5 bd 3d 92 81 72 be 00 3f 2c be
       0.1834026 0.092601515 -0.2368224 -0.16820908
000260 66 3b cc 3e 91 1b a0 3b e5 8e b7 be ba 95 b0 3e
       0.39889067 0.0048860987 -0.35851207 0.34489232
000270 ad c5 dd be 0c 3b 3f bc e5 ac 31 3d fc 1e a3 3e
       -0.43314877 -0.011671793 0.043377776 0.31859577
000280 eb 97 ff be c7 7b 09 3f 03 43 8c 3e fb d2 31 3e
       -0.49920592 0.53704494 0.27394876 0.17365639
000290 ab 7a 50 bf 3c 9c d4 3d 8e 4f 81 3d 83 36 6a bd
       -0.81437176 0.10381362 0.06314002 -0.057180893
0002a0 cb d8 31 bd d8 20 f3 b9 4c e4 cd bd be 24 09 3e
       -0.04341964 -0.00046373042 -0.1005331 0.13392922
0002b0 0b e5 f8 be 87 5b 03 3f ca c5 85 3d 11 d7 2d bd
       -0.48612246 0.51311535 0.06531866 -0.04244143
0002c0 4d f1 56 be 79 9f 2e 3e 78 c5 be be 5c 8f 03 3f
       -0.20990486 0.17053021 -0.37260032 0.51390624
0002d0 09 2b 0c be 1c 73 c9 3d 8d dd 61 3d 83 31 10 be
       -0.13688292 0.098364085 0.055142928 -0.14081387
0002e0 5f 73 91 bc 1c 3e f2 bd 6f 6c ac bd 3d f2 78 3f
       -0.017755209 -0.11828253 -0.084191196 0.97244626
0002f0 bf f2 10 be 41 01 26 3c 8c 4b ef 3e a1 bd 4e bc
       -0.141551 0.010132135 0.46737325 -0.012618453
000300 a5 a2 6b 3f 74 a3 2d be b7 28 52 3e 3e 16 98 be
       0.9204505 -0.16956884 0.20523344 -0.2970447
000310 0a 58 73 3e 5f eb 0a bf d8 57 b7 be bf 84 df be
       0.23764053 -0.542654 -0.35809207 -0.43655965
000320 64 a5 2d 3e cf ef f4 3e de 2b 14 be 86 91 d2 bd
       0.16957623 0.4783921 -0.14469859 -0.10281663
000330 e1 06 9c 3e 26 71 ae 3e 15 e3 bb bd a4 ee b6 be
       0.30473998 0.340707 -0.09174172 -0.35728943
000340 11 49 e9 bc b9 8f 51 3e fd 02 29 3f 86 11 02 be
       -0.028477224 0.20464982 0.66020185 -0.12701997
000350 7f 81 3a be 5c 52 5f bf 6e 0b aa 3e 5c b4 85 3e
       -0.18213461 -0.87235045 0.33211845 0.26114166
000360 72 c7 f6 3d af c8 c0 3b 5f 38 18 3e 73 8f c9 3c
       0.1204976 0.0058832983 0.14865254 0.024604535
000370 b9 60 9e 3e e0 48 ad bb a6 31 f1 be d5 e8 e3 bd
       0.3093317 -0.0052882284 -0.4710819 -0.111283936
000380 b7 5f a5 3d cd fa a2 bd 14 82 18 bd b4 aa 18 3d
       0.08074897 -0.07957993 -0.037233427 0.03727217
000390 17 51 43 3e 18 be dc 3d 99 ed 87 bd e9 bd 00 bf
       0.19073902 0.10778445 -0.06637115 -0.5028978
0003a0 8e 5e 9e 3e a3 de 22 3e 60 88 5f be e4 86 84 bd
       0.30931515 0.15905242 -0.21829367 -0.06471041
0003b0 1d 13 ec 3e 9d 50 0a be 17 35 11 bf 43 6d 21 3f
       0.46108332 -0.13507314 -0.56721634 0.63057345
0003c0 52 a5 9f 3c 35 0d 0d be 84 37 77 bd 60 41 82 3d
       0.01948801 -0.1377457 -0.06035568 0.063601255
0003d0 38 aa 21 bd c0 f3 ac be 70 1a 39 3e 2e b9 55 be
       -0.039468974 -0.33779716 0.18076491 -0.20871422
0003e0 a8 d8 34 3e 68 49 b3 bd d7 d1 86 3d 9a a3 8f bd
       0.17660773 -0.087542355 0.065829925 -0.070136264
0003f0 9a b2 3f 3d 1a f6 eb 3c 26 fd 9f bd ea 37 e5 be
       0.046801187 0.028803874 -0.07811956 -0.44769222

branch.net.net.2.bias f4 [64]
000000 14 db 87 3e e8 b3 c7 3c 64 df 82 be c2 d9 9f bd
       0.2653433 0.024377778 -0.2556106 -0.07805206
000010 66 6d ec 3e 87 26 7c be 49 ca 5a 3d e3 d9 73 3e
       0.46177214 -0.24624072 0.05341557 0.23813586
000020 1b 67 70 3e b6 f4 da be 9d 5b 86 3e 39 1e a8 be
       0.23476832 -0.42764825 0.2624177 -0.32835558
000030 4d 0d 90 3d de 11 20 3e b2 cb d1 be 31 4c 19 be
       0.07033787 0.15631816 -0.4097572 -0.14970471
000040 d2 2d 3e bf b5 bb 11 3e 39 0f ee 3d 8f 38 7f be
       -0.74288666 0.14231761 0.11623997 -0.24923919
000050 7f f3 6f bc 5f 65 75 3d bd a3 01 be 81 3a dd 3d
       -0.014645456 0.059911128 -0.12660117 0.10802174
000060 17 6c 36 bd e0 c2 78 3f a1 48 f7 3d 54 56 da 3d
       -0.044536676 0.97172356 0.120744 0.10660997
000070 07 e5 07 3e b4 c7 15 be 91 29 0e 3f a2 14 b4 3e
       0.13270961 -0.14626962 0.55532175 0.35171992
000080 c6 a7 4c 3d c9 c0 71 be 7b bc 99 3e d9 f3 87 3d
       0.04996469 -0.23608698 0.30026612 0.06638307
000090 d3 96 d1 3e aa da c0 bc ea 20 93 be cc 02 8d 3e
       0.40935382 -0.023541767 -0.2873605 0.27541196
0000a0 17 4b 94 3d 8b 9b 14 bd e7 31 86 3e 1f f4 a5 bb
       0.07240885 -0.03628115 0.26209947 -0.005064502
0000b0 bf 67 26 bd ac 3e b7 be db ef 82 be 89 51 f1 bc
       -0.040626284 -0.35790002 -0.2557362 -0.029457824
0000c0 65 81 b6 bd e3 b2 c1 3e 97 b7 4e 3e 8e 90 8b bd
       -0.08911399 0.37831792 0.20187221 -0.06814681
0000d0 9f be fe 3e 1f 8d 28 3f b4 a3 45 3e 80 ce 17 3e
       0.49754807 0.65840334 0.19300729 0.14824867
0000e0 af 58 5b be d1 fe 81 3e fa 2a 47 3e 38 95 52 3d
       -0.21420549 0.25389722 0.19449988 0.051411837
0000f0 50 f4 d9 3e 6c 8f 8e 3e b8 c8 1e bd 51 ad d5 bd
       0.42569208 0.27843797 -0.03876564 -0.10433448

branch.net.net.4.weight f4 [64, 64]
000000 8c a1 c6 bd af 8e 84 3d 60 a0 dd be ed 6b 32 3e
       -0.09698781 0.06472527 -0.4328642 0.17423983
000010 0d 7a 49 3e 0b af 3b bd d7 19 da bc 03 7a a3 3e
       0.19675465 -0.04582123 -0.02662365 0.31929025
000020 27 5d 57 3e ef a1 8a be d3 3b 35 3e 4e a9 72 be
       0.21031629 -0.2707667 0.17698602 -0.23697397
000030 65 2b 29 3e 88 09 54 3e 5c dc ab bd 4a 92 05 be
       0.1652046 0.20706761 -0.083916396 -0.13044086
000040 f9 e7 28 be 60 29 84 be cf aa 9e 3e c8 df 2e be
       -0.1649474 -0.25812817 0.30989692 -0.17077553
000050 51 ad eb bd b8 b7 27 bf 3e f9 75 bf 91 eb 74 3e
       -0.11507667 -0.6551471 -0.9608344 0.23917986
000060 89 24 f3 be 3f 1d c7 3e 47 3a 00 3f b1 f6 c5 be
       -0.47488812 0.388895 0.50088924 -0.38664773
000070 30 91 22 3f a1 d6 c2 bc c7 b5 15 3e b6 a1 48 bd
       0.6350279 -0.023783984 0.14620124 -0.048982345
000080 80 9b 5b 3e 59 a0 60 3e 77 29 9e 3e 13 9a 45 3e
       0.21446037 0.21936168 0.3089101 0.19297056
000090 1f 17 9f 3e 6e 22 33 be 27 e5 f8 3c 09 72 9f 3e
       0.31072327 -0.17493603 0.030382706 0.3114169
0000a0 77 1b 95 bc 95 b7 0f be 12 28 ff 3d be ce 78 3d
       -0.018201573 -0.14034875 0.12458815 0.06074404
0000b0 ea 9b 35 bd 37 e6 31 be d9 c7 3a be bd 5f b6 3d
       -0.044338144 -0.17372976 -0.18240298 0.089049794
0000c0 6c ac b5 3d 53 06 a7 3e f4 06 ab be b9 e7 28 3e
       0.088707775 0.32622012 -0.33403742 0.16494645
0000d0 f7 d0 ac 3e e7 45 60 3e 6e cd b5 3c 91 29 ac be
       0.33753178 0.21901666 0.022192683 -0.33625463
0000e0 c7 2a a0 bc 30 7d 4a 3e c0 43 9b 3e 86 ab 0c 3e
       -0.019551648 0.19774318 0.30325127 0.13737306
0000f0 76 65 e1 3e 6f 8e 6a 3e dc 2e 96 be 1b f1 6d be
       0.4402272 0.22905897 -0.29332626 -0.23236506
000100 38 9d 2f be a0 53 03 3e 24 52 d2 be 27 35 f4 3b
       -0.17149818 0.12824869 -0.41078293 0.0074526253
000110 c8 78 ac 3e 7b cb 1b bf 05 8a 33 be de 34 a3 3e
       0.336859 -0.6085736 -0.17533119 0.31876272
000120 71 9d f2 3d 25 50 05 bf 09 3c 1c bd 9d b7 bd bd
       0.11846436 -0.52075416 -0.03814319 -0.09263537
000130 16 a0 cb bc 9e 90 a3 3e c6 1f 4a be c1 b7 84 3c
       -0.024856608 0.31946272 -0.19738683 0.016200902
000140 5e cd f3 be ce 3a 95 be 98 75 fe 3e b7 96 3f bc
       -0.4761762 -0.29146427 0.49699092 -0.011693648
000150 b3 91 1b bd a4 63 1d bf 11 10 01 bf 88 83 80 3e
       -0.037980746 -0.61480165 -0.5041514 0.2510035
000160 30 ae f5 be f0 46 36 3f 09 dd 24 3f ee 52 56 3e
       -0.47984457 0.7120199 0.6439977 0.20930073
000170 41 e8 34 3e fe f7 10 3e 28 3e 06 3e 6f 1e 8f bd
       0.17666723 0.14157102 0.13109648 -0.069882266
000180 c6 bb 4f 3e 1b e6 3f be 88 ab 17 3e 8e 57 d0 3d
       0.20286474 -0.18740122 0.14811528 0.1017295
000190 3d 3c 57 3e 01 65 24 3e 1b e3 e5 3e 2d 57 5a bd
       0.21019073 0.16054155 0.4489983 -0.053305794
0001a0 4e 2f 1f 3e ec 9d af be cf 05 df bc 24 e5 1c bd
       0.15545389 -0.34300172 -0.02722445 -0.038304463
0001b0 c4 e4 2e bd 8a 3c 1c be b1 9e ac bd 89 3d 95 bd
       -0.042698637 -0.15257469 -0.084287055 -0.072871275
0001c0 2c 69 e6 3c 36 17 a2 3e f4 f3 f0 be e4 90 2c be
       0.028126322 0.31658334 -0.4706112 -0.16852146
0001d0 ea 87 b2 3e 92 b1 93 3e b3 28 10 3e 6b 90 c1 be
       0.3486932 0.28846413 0.14078026 -0.37805495
0001e0 6b d1 a6 3d a8 af ba bd 1e c6 0c 3c 7d d5 39 3d
       0.08145412 -0.09115535 0.008592157 0.045369614
0001f0 c7 74 23 3f 9e 58 fa 3d 0a 9e 7a 3d 26 4a c1 3c
       0.63850063 0.12223934 0.061185874 0.023594927
000200 47 74 2d 3c 47 91 8f 3e 27 93 0b 3e 18 b6 09 bf
       0.010586805 0.28040525 0.13630353 -0.5379348
000210 08 21 27 3e 5a 02 de be 06 d8 a5 be fc ba 33 3e
       0.16321194 -0.4336117 -0.32391375 0.17551798
000220 df e9 41 3f a7 11 07 be c4 76 17 3f 1b 68 3c bf
       0.75747484 -0.13190328 0.59165597 -0.7359635
000230 02 05 d0 3e 18 bb e5 3d 9a e1 f6 bd 2e a5 49 3e
       0.4062882 0.11217326 -0.12054749 0.19691917
000240 4e 5e e8 be b6 f0 12 3e 3f c9 58 bd 38 d1 19 be
       -0.4538445 0.14349636 -0.0529263 -0.15021217
000250 dc dd 25 bf 89 9c 98 3e f7 1d bc 3e 77 69 12 be
       -0.64791656 0.29806927 0.3674161 -0.14298044
000260 ed db ed 3d 6e 02 8c 3e 15 d0 b4 3e 15 2e cc bb
       0.11614213 0.27345604 0.35315004 -0.0062310793
000270 0a 0a 31 be d9 0f f4 be 03 83 55 3e ab 7b 89 be
       -0.17288986 -0.4766834 0.20850758 -0.26852164
000280 9d f5 9f be fe f2 ed bd 0f ea 30 3f bd ef a3 bd
       -0.31242076 -0.11618613 0.69107145 -0.08004711
000290 4b 64 e1 3a 3c c6 a6 3e 66 e2 4f 3e a5 cb 20 3e
       0.0017196027 0.32573116 0.20301208 0.15702684
0002a0 61 f5 bb 3e ca 3a 40 be 79 81 20 3e 6c 77 46 be
       0.36710647 -0.18772426 0.1567439 -0.19381493
0002b0 e7 c2 fd bd 10 08 3e bf d2 f7 18 bf ac 3c 0a 3f
       -0.1239069 -0.7423105 -0.59753144 0.5399883
0002c0 77 76 8d 3e 33 97 20 3e 26 85 cf 3d ad c2 93 be
       0.27629444 0.15682678 0.10132818 -0.28859463
0002d0 43 20 be bd e8 07 3c 3e 59 65 8e 3e ff 85 fd 3c
       -0.09283497 0.18362391 0.27811697 0.030947683
0002e0 fc c7 d3 3d 7b ba 5d 3f 49 2b 3c 3f cf e5 39 3f
       0.10340878 0.8661267 0.7350355 0.72616285
0002f0 47 f5 9f be 35 d5 d7 3e 76 93 27 3e 47 12 52 bd
       -0.3124182 0.42154852 0.16364846 -0.051286962
000300 0a b3 81 3d 09 63 37 be d3 e4 2e 3d 52 a8 f7 3e
       0.06332977 -0.17908873 0.042698693 0.48370606
000310 6a e6 a8 bc 62 5b 6b bc 23 c1 7c 3e 4f 26 4e 3e
       -0.020617682 -0.014365049 0.24683051 0.20131801
000320 9a 90 25 bf 46 b9 5b 3e be 1a 4b bf 06 a8 65 3e
       -0.6467377 0.21457395 -0.7933768 0.22427377
000330 2b c1 0e 39 a8 e6 01 3e c0 19 a1 3d 84 2e 4a be
       0.00013614136 0.12685645 0.078662395 -0.19744307
000340 e9 03 e9 3e 68 63 dd bd 31 29 90 be 31 4a ab 3d
       0.45510796 -0.10809976 -0.28156427 0.0836376
000350 e5 e6 c7 3e f9 a0 93 3d 5c 26 3a be 11 12 92 3e
       0.39043346 0.072084375 -0.18178695 0.2852941
000360 ac 83 45 3d 35 70 ff bd cc f8 33 bf 68 8a 1e be
       0.048221275 -0.12472574 -0.7030151 -0.15482485
000370 68 bb 33 3e 19 16 0a 3f 3d 0f ba be e2 b0 f7 bd
       0.17551959 0.5393997 -0.3633975 -0.120942846
000380 1b 99 7a 3e 7d 05 81 3d 9e 89 68 be 64 d3 8d 3e
       0.24472468 0.06299875 -0.22708747 0.2770034
000390 a2 03 a6 bd 87 bd 8c be 02 21 4d be 5a c9 cf bd
       -0.08106162 -0.27488348 -0.20032123 -0.10145827
0003a0 f2 4b 17 bf 3b 79 fe 3c 5a ab 96 bd 2c d1 66 3e
       -0.5910026 0.031063667 -0.073569015 0.2254073
0003b0 0f 7c 0e 3e 81 23 80 3d 88 95 95 3e 19 ca 08 be
       0.13914512 0.06256772 0.29215646 -0.13358344
0003c0 58 e9 2d 3d 7a 5d a7 bd e6 5c 20 3e 02 a3 91 3e
       0.042458862 -0.08172126 0.15660438 0.28444678
0003d0 67 27 00 be 82 65 a0 be c3 14 aa be f1 ac 97 3c
       -0.12515031 -0.31327444 -0.33218965 0.018515082
0003e0 00 7e b3 be 40 d3 e7 be 61 09 3b bf 15 f3 d0 be
       -0.35057068 -0.45278358 -0.73061186 -0.40810457
0003f0 f0 fe 3d bd 8c 59 b6 3d 5d a7 ce be 6c a4 20 bd
       -0.046385705 0.089037985 -0.40362063 -0.039219305

branch.net.net.4.bias f4 [64]
000000 18 04 a5 3e 4b c8 1f 3f 62 2d 0f 3d 81 1b 4e be
       0.32229686 0.62415 0.03495539 -0.2012768
000010 99 aa e2 bd f7 a2 31 be f5 96 06 3f 98 53 e7 3e
       -0.11067695 -0.17347322 0.5257409 0.45180964
000020 20 fd ce be 1c c8 71 3e c6 ab 28 3d e2 7f 6f 3e
       -0.40427494 0.23611492 0.04117944 0.23388627
000030 17 ac 4f 3e 7e 36 72 bc 60 61 2b be 58 a0 1b 3e
       0.20280491 -0.0147835 -0.16736364 0.15197885
000040 46 ae 26 3e ac 0b 3f 3e 28 4b 2e 3e 90 ea a6 be
       0.16277418 0.18656796 0.17020857 -0.32600832
000050 e0 8d 6f be 35 67 02 bd 8e 04 72 be b2 82 5f 3e
       -0.23393965 -0.031836707 -0.2363455 0.218272
000060 a5 f4 dd bc 30 9b ba bd 55 7d 24 bd d0 aa 69 be
       -0.027094195 -0.09111631 -0.04015859 -0.22819066
000070 47 0e da 3e cb 46 81 3e 02 d0 c4 3e 8a 03 fa 3e
       0.42589018 0.25249323 0.38439947 0.48830825
000080 33 99 28 be cb 36 7c bd 75 2a b0 be 19 ae c3 bd
       -0.16464691 -0.061575692 -0.34407392 -0.09554691
000090 d0 c3 aa bc 72 6d a2 3e c7 a3 a0 3c 26 21 59 be
       -0.020845324 0.31724125 0.019609345 -0.21204051
0000a0 1e e1 92 3e da 3d 0a be d0 3c ab 3e 1c 98 9d bc
       0.28687376 -0.13500157 0.33444834 -0.01923757
0000b0 2e ee cd 3d 6d d7 6d 3f 08 d7 31 3f 2a 20 56 3e
       0.10055195 0.9290684 0.69468737 0.20910707
0000c0 12 40 04 3f db 37 82 3e 4f e1 eb 3e 1a ee 86 be
       0.51660264 0.2543324 0.46070334 -0.26353532
0000d0 fe 58 03 be 80 d8 a0 3d 91 5e f0 3b 84 80 03 be
       -0.12826917 0.07853794 0.007335492 -0.12841994
0000e0 84 06 94 be 4f 6f f0 3d b1 4a 9b bd 56 77 30 bd
       -0.2891122 0.117399804 -0.07582606 -0.043082558
0000f0 2d ef 7d bd ba 72 a6 bc 7b 20 af be 25 48 28 3f
       -0.061995674 -0.020318378 -0.34204468 0.65735084

branch.net.net.6.weight f4 [64, 64]
000000 54 9d 86 3e 3c db f9 3d 55 aa 15 bf 49 8c 8e 3e
       0.26291907 0.12200019 -0.5846303 0.27841404
000010 25 d6 35 be a3 6b c1 3d e6 f6 2e bd 2c 04 b7 bd
       -0.17757471 0.09444358 -0.04271593 -0.089363426
000020 04 f3 3e 3e 55 6c 25 bf 28 e5 23 3e c8 f6 74 ba
       0.1864739 -0.64618427 0.16005385 -0.00093446346
000030 b3 d1 4c 3e a7 04 42 3e 07 62 08 3f 87 40 ff bd
       0.20001869 0.18947087 0.5327458 -0.124634795
000040 06 e7 37 bf f6 e6 21 be 00 c1 a1 bd 8a 7b 07 bc
       -0.7183689 -0.15810761 -0.0789814 -0.0082692
000050 eb c1 bd bd ff a1 cb 3e 37 14 79 3e 0f aa 64 3e
       -0.092655025 0.3977203 0.24324118 0.22330497
000060 b9 39 67 be 45 53 70 3f 1c 8c 4b 3e 76 bf 6c bd
       -0.22580613 0.9387706 0.19877666 -0.05779978
000070 a9 12 5b ba 03 e1 a4 be 88 6d 5e bd 1d 4f 10 bd
       -0.00083569676 -0.3220292 -0.054303676 -0.0352317
000080 54 70 35 bd 20 c2 eb bd a0 85 7d be b3 c0 0c be
       -0.044296578 -0.11511636 -0.24758005 -0.13745384
000090 b4 a6 88 be 01 ef 3c bf 1d 95 5c bf 8d 1c 9f be
       -0.26689684 -0.7380219 -0.8616503 -0.3107647
0000a0 a0 05 52 bd 3b 9f 3f 3e 83 6c 4f 3e ab 8d 05 3f
       -0.051274896 0.18713085 0.20256238 0.52169293
0000b0 10 fb fa bd 5b 21 13 bf 4f 0a 27 bd 94 45 32 be
       -0.122549176 -0.5747277 -0.040781315 -0.17409354
0000c0 5e c4 e0 be 1a 5a 9e 3d 51 f1 59 be b6 02 26 be
       -0.43899816 0.07732029 -0.21283461 -0.16211972
0000d0 82 11 ff bd 63 a5 85 bc a1 aa 6a 3d 9b 0b 78 3e
       -0.12454511 -0.016314214 0.05729163 0.24223177
0000e0 58 05 1e 3e 77 a8 cc be b8 9c f7 bd 8d 33 3e 3e
       0.15431726 -0.39972278 -0.120904386 0.18574353
0000f0 ad 4f 8c 3e df 1e b8 3e c2 4c 24 3d 2d c2 4e be
       0.27404538 0.35961053 0.040112264 -0.2019126
000100 7e 8f 92 3e 71 1a c9 bd 64 1b 13 be 50 f5 2b be
       0.286251 -0.098194964 -0.14365917 -0.16792798
000110 7a 49 2e 3e 5e a7 49 bb 08 a0 44 be ad 98 08 bd
       0.17020217 -0.0030769925 -0.19201672 -0.033348728
000120 4f b3 3c 3f 6f ba 31 bf 3b 38 03 be 65 a3 99 3e
       0.73711103 -0.694251 -0.12814419 0.30007473
000130 62 6b 19 be dc 11 e5 be a5 8e 81 3d 2f ea 8a 3c
       -0.1498237 -0.44740188 0.063260354 0.01695737
000140 38 ed a2 3d 03 cb 6d bd 8c 81 1f bf 60 58 82 be
       0.07955402 -0.058054935 -0.6230705 -0.2545805
000150 d8 46 0f 3e 8d a4 93 be d9 28 94 be 5f 77 8f be
       0.13991868 -0.2883648 -0.28937414 -0.2802076
000160 54 91 e7 be c6 79 33 3e 3b 32 4e 3d 73 b4 2d be
       -0.45228064 0.17526922 0.050340872 -0.16963367
000170 c4 8a 40 be 70 c1 13 3e a2 71 03 3e 76 5a 1c be
       -0.18802935 0.1442926 0.12836316 -0.15268883
000180 64 5e 61 be 48 03 38 be 17 3b 90 bb dc ba 67 3d
       -0.22008663 -0.17970002 -0.0044015753 0.056574687
000190 68 0f c6 bd 05 da 8e be dc ee 23 be b2 45 be bd
       -0.09670907 -0.2790071 -0.16009086 -0.09290637
0001a0 d9 19 1d be cd e3 f6 3d 54 a5 37 bf 84 34 56 bd
       -0.15341891 0.12055168 -0.71736646 -0.052296177
0001b0 1a c4 3e 3e 59 d6 60 bf 3f 96 f7 be 64 fd 36 bf
       0.18629494 -0.8782707 -0.48356816 -0.71480393
0001c0 d4 5e 0a 3f d2 38 8e 3d 78 76 da 3e 28 6a ab be
       0.54050946 0.06944431 0.4266851 -0.33479428
0001d0 55 0a 28 3f 0f 03 06 3e e2 24 99 3e fc 44 e8 3e
       0.65640765 0.13087104 0.29910952 0.4536513
0001e0 18 a3 c3 be 94 e8 f9 be 63 24 18 3f 89 45 22 3e
       -0.38210368 -0.48810256 0.5943052 0.15846838
0001f0 90 2b 5a 3e da 9c 6a be 49 b0 b0 3c 21 0e c9 bd
       0.2130568 -0.22911397 0.021568434 -0.09817148
000200 c2 e3 f4 bc 75 53 ba be ec fc 0a 3d cc 80 b8 3d
       -0.02989376 -0.36391798 0.03393261 0.09008941
000210 ef 15 26 3f d3 b3 f8 3e b3 d4 c7 3f 5c 78 3a bf
       0.6487722 0.48574695 1.5611786 -0.72839904
000220 59 7c 14 3e 99 4d b0 3d 8a fe 88 be 1d 2d 52 3e
       0.1450056 0.086085506 -0.26756698 0.20525022
000230 02 9b 36 be 3a cf e8 3d 69 32 b3 be e4 f1 bb 3f
       -0.17832568 0.1136765 -0.34999397 1.4683194
000240 35 1e 2b 3d e7 e2 21 be 48 08 16 be 77 4d 06 3e
       0.041776855 -0.15809213 -0.14651597 0.13115488
000250 1f 5d 9d 3e 7b f3 ea 3d 52 6b 3a 3e 42 f3 33 3c
       0.30735108 0.114722215 0.18205002 0.01098329
000260 05 79 35 bd 20 fb 2d be fb d7 86 3e a2 47 94 be
       -0.044304866 -0.16990328 0.26336655 -0.28960901
000270 67 94 49 bf f2 17 f8 3e a2 0f b9 bc 39 5b 07 be
       -0.7874207 0.4845577 -0.022590462 -0.13218392
000280 8a ee e7 be 87 f0 d0 3d c2 33 dc be bd 7e c3 3e
       -0.45299178 0.10202127 -0.43008238 0.3818263
000290 b0 1e 07 bb 76 a0 79 3e 6f ea 1d 3e ea 1f 9f 3d
       -0.0020617656 0.24377617 0.1542146 0.07769759
0002a0 c7 88 ab be 51 e6 11 3e cf f7 bc be 82 b6 aa bc
       -0.3350279 0.14248015 -0.36907813 -0.02083898
0002b0 08 d0 a6 3f a4 88 ac be b5 d4 4e be 16 14 ad bd
       1.3032236 -0.33698 -0.20198329 -0.08451097
0002c0 ef 43 66 be 34 24 fd bc aa c3 99 3d af 49 95 be
       -0.22486852 -0.030901052 0.07508023 -0.2915778
0002d0 27 a2 af bd d6 2b 75 3e d1 97 57 be 1d 27 de 3d
       -0.0857585 0.23942503 -0.21054007 0.10847304
0002e0 9a 55 5b 3e c1 50 da 3c e0 04 1e 3e a4 c5 b0 be
       0.21419373 0.026649835 0.15431547 -0.34525788
0002f0 85 db 97 3e d4 3c 5f bf bb 41 19 3f 3c 00 ff bb
       0.29659668 -0.8720219 0.5986592 -0.0077820104
000300 ab 58 b8 3d 32 27 b4 3e 34 c7 03 bf e1 ee 48 3f
       0.09001287 0.35186154 -0.51475835 0.784895
000310 1b 7e 9f be 38 b9 4f 3e 94 63 80 3d e1 d1 39 be
       -0.31150898 0.20285499 0.06268993 -0.18146469
000320 a2 b4 db be 49 29 04 be 61 18 9d 3e 46 21 65 3e
       -0.4291125 -0.12906374 0.30682662 0.22375974
000330 aa 0a 49 3d be da cc 3e c0 fa d4 3d 73 d8 a9 bd
       0.049082436 0.40010637 0.10399389 -0.082932375
000340 41 35 4b be d1 7b 46 3e b1 9f 34 3f 4c 3e f9 3d
       -0.19844534 0.1938317 0.7055617 0.12170085
000350 c5 08 23 be bb 8b 59 3e cf 8b e9 3e 3d 1c 86 3e
       -0.15921314 0.21244709 0.45614478 0.2619342
000360 6c d3 65 be 6d 60 27 3e d7 71 bd 3e 75 2b 74 be
       -0.22443932 0.16345377 0.37000915 -0.23844703
000370 c2 68 ae 3e a2 bb da 3d 83 18 b6 be ee 92 32 bd
       0.340643 0.10680319 -0.35565576 -0.043597154
000380 23 5e 66 bd a1 a0 9a 3e d4 3b a3 bd fe 98 c9 bd
       -0.05624212 0.30200675 -0.07970396 -0.09843634
000390 a0 4c 92 be 9a fc 36 bf 93 03 c8 be 14 24 f5 be
       -0.28574085 -0.7147919 -0.39065227 -0.47879088
0003a0 8e f9 a5 be 5e 87 54 be 1e c9 61 3e 5a 34 19 3e
       -0.32416958 -0.20754763 0.22049376 0.14961377
0003b0 1c ba 42 bd 35 2b 98 3e 96 78 3c 3d 6f 1a 06 be
       -0.04754077 0.29720464 0.046013437 -0.13096021
0003c0 40 5e 82 bf 50 6f a4 3d 49 81 fa be dc 63 c0 be
       -1.0185013 0.08029044 -0.48926762 -0.37576187
0003d0 3f 5d 9a bf 43 ef 83 3d 9e a5 fe 3e 0f 5b b2 3e
       -1.2059706 0.0644212 0.4973573 0.34835097
0003e0 eb 56 c6 3e 7b d9 57 bd a2 99 16 bf 6c 4f 8e 3d
       0.38738188 -0.05269764 -0.58828175 0.06948742
0003f0 3f c9 48 3f 71 4f 9e 3e c7 0a 67 3e bf 79 c1 be
       0.7843208 0.30919984 0.22562705 -0.37788197

branch.net.net.6.bias f4 [64]
000000 53 10 45 3c bd f5 29 bf ea 23 f4 be d3 c6 54 3d
       0.012027818 -0.6639059 -0.4768365 0.051947426
000010 2b a5 a4 3d a3 72 a5 bf bb 79 05 3f c5 09 7d 3d
       0.08039316 -1.2925609 0.5213887 0.061776895
000020 52 23 fc 3e 18 0b d6 3d 6f eb 08 be 7a 36 e2 bd
       0.49245697 0.10451335 -0.13371061 -0.11045547
000030 82 83 44 3d d6 21 35 be b7 6f 76 3e 05 3e f2 3e
       0.047976978 -0.17688689 0.24066053 0.47312942
000040 b2 12 ec 3d ce 70 3f bd cf 77 ac be ac f9 32 3f
       0.11527003 -0.04673844 -0.33685157 0.6991222
000050 00 a4 62 3d 7c 52 7e 3d 83 c5 28 bc 48 44 4d 3f
       0.055332184 0.062090382 -0.010300997 0.80182314
000060 74 05 38 3f 9d b6 24 3e 5c 27 8c 3d 0f cb 1d 3f
       0.7188332 0.16085286 0.06843445 0.6163797
000070 d9 26 26 be 2e d5 2b 3d cd d5 6c be 39 46 98 be
       -0.16225757 0.04195135 -0.23128434 -0.29741076
000080 79 8c 44 3e e9 a2 4f be f0 1f 39 bf ec b6 c9 3e
       0.19194211 -0.20276989 -0.7231436 0.3939737
000090 c3 53 d3 3e 65 bd f3 be 24 fd a1 be c6 89 8f be
       0.41274843 -0.47605434 -0.31638443 -0.280348
0000a0 02 15 ed 3d af 9d 4f bf a8 90 9b 3e 64 6b cf bd
       0.115762725 -0.8109998 0.303838 -0.10127905
0000b0 72 1d 42 bd a5 ff 04 bf 5c 5c 0b 3d ab 38 a2 be
       -0.047391362 -0.5195258 0.034023628 -0.3168386
0000c0 0e b4 d3 be f2 fd 3b 3f f7 8f c4 3d d3 cc b4 be
       -0.41348308 0.73434365 0.095977716 -0.35312518
0000d0 62 d5 cf bd 2a fd 31 3d 6d 00 f1 bb 80 c6 28 bd
       -0.101481214 0.043454327 -0.007354787 -0.04120493
0000e0 fc 98 b6 3c 43 99 bd be 67 25 d3 be c1 50 05 bd
       0.022289746 -0.37030992 -0.41239473 -0.032547716
0000f0 90 d3 f0 be 6f 9d 54 3e e8 dc 9e be 33 33 b8 3d
       -0.4703641 0.20763181 -0.31027913 0.089941405

branch.net.net.8.weight f4 [64, 64]
000000 59 e5 84 be 08 a1 3a 3e df 7c bd bd 5e f5 87 be
       -0.25956228 0.18225491 -0.09252333 -0.26554388
000010 3f f5 c5 be ff ea 28 bf 00 76 83 3f fd 54 cd 3d
       -0.3866367 -0.65983576 1.0270386 0.10025976
000020 52 02 3c be 0b 60 06 be 00 a2 6d 3e b0 78 9f 3e
       -0.1836026 -0.13122575 0.2320633 0.31146765
000030 74 2f 10 bf 37 92 df be de c1 c6 3e 17 3f a6 bd
       -0.5632241 -0.4366624 0.38819784 -0.08117502
000040 5d 5f 2a be 47 a7 c8 3e 5a 5b ec 3d f8 5c f9 3e
       -0.1663794 0.39190122 0.115408614 0.48703742
000050 4e 79 c3 3e f4 9b 6e 3b 62 89 2d 3e 71 b4 89 3e
       0.38178486 0.0036408873 0.16946939 0.26895478
000060 6c 7b a5 3e ee 94 08 3f 42 dc b0 be 68 80 fe be
       0.32320726 0.5335225 -0.34543043 -0.4970734
000070 0c 19 6e 3e 64 4c 26 bf 9f c8 18 bd ea e9 ae bd
       0.23251742 -0.6496031 -0.037300702 -0.08540709
000080 34 12 32 3e 93 d5 e7 be 8a e1 1b bf a2 c8 36 3e
       0.17389756 -0.45280132 -0.6089102 0.17849973
000090 39 9b 91 bb 57 a6 6a 3b 85 d8 0f bf 26 84 bb bd
       -0.004443553 0.0035804713 -0.5618976 -0.09156065
0000a0 f8 bc da bc ef df cb be 93 45 b9 3e 15 49 b3 3e
       -0.026701435 -0.39819285 0.36185893 0.35016695
0000b0 63 89 3f 3e 39 93 ee 3e c9 52 18 3e 0d 16 79 3d
       0.18704753 0.46596697 0.1487533 0.060812045
0000c0 e0 e9 49 3d 95 46 fe 3e 33 b0 76 be 60 2a 35 bf
       0.049295306 0.49663225 -0.24090652 -0.70767784
0000d0 be f1 81 3e dc ce 72 3e 24 16 ab 3d f0 a9 9b 3e
       0.25379747 0.23711723 0.08353832 0.3040309
0000e0 7b fc f4 3d fd 03 13 3e c2 5a fe bd f5 ed 7a 3d
       0.11962219 0.1435699 -0.124196544 0.06126209
0000f0 26 d2 55 3e ba ad aa be 5d 83 ef 3c ee 4e 00 3f
       0.20880947 -0.33335668 0.029237444 0.5012044
000100 cd 13 bd 3e 0e 09 42 be 11 7c 22 be df a9 19 3e
       0.3692917 -0.18948767 -0.1586764 0.15006207
000110 d7 9d f9 3e 95 07 f6 3c 2e 4a 28 be 3b d8 25 bd
       0.48753235 0.030032912 -0.16434547 -0.040489417
000120 d6 aa 98 bc e5 2e e2 bb 24 92 d3 be 20 50 82 3d
       -0.018636148 -0.006902563 -0.41322434 0.06362939
000130 dd 77 1a bf 17 3b d4 3d be 41 6c 3f c5 66 05 3f
       -0.60339147 0.10362833 0.92287815 0.5210994
000140 75 40 87 3e c6 d7 25 bd 66 e1 81 3e 35 3a 42 3f
       0.26416364 -0.04048898 0.25367278 0.75870067
000150 98 bb 77 bd 24 05 32 bf 77 5c 1a bf f5 30 5e bd
       -0.060481638 -0.69539094 -0.6029734 -0.054245908
000160 0e d0 61 be d3 56 bb bd ec 5c ed be 18 0a 16 be
       -0.22052023 -0.0914742 -0.46359956 -0.14652288
000170 a7 c7 08 3f 40 03 1f 3e b0 26 e7 be 49 cd 45 be
       0.53429645 0.15528584 -0.45146704 -0.19316591
000180 db bd fc be 83 10 e9 3e f8 fb fd be cc ed 4b 3f
       -0.49363598 0.4552041 -0.496063 0.79659724
000190 68 65 b7 3e 22 c4 63 be d9 05 c8 3b a4 a5 a7 bd
       0.35819554 -0.22242787 0.0061042127 -0.0818589
0001a0 83 b6 2c 3e 59 e4 1d 3d 3a 2e 35 3e 09 8c 09 3f
       0.16866498 0.038547847 0.17693415 0.537293
0001b0 81 30 2a 3d 9a 23 13 bf 1f 81 1b bf 8e 30 b8 bc
       0.041550163 -0.574762 -0.607439 -0.02248409
0001c0 19 c5 98 3e ef fa 24 3f 6d 2d d9 3c 74 be cf 3e
       0.29837874 0.64445394 0.026510919 0.40574992
0001d0 18 2f 50 be 95 07 ff be 4b 7a 57 3f 75 56 c1 3e
       -0.20330465 -0.49810472 0.8417098 0.37761274
0001e0 8a c6 0d 3d 62 97 95 bd 55 f2 e3 be ed dd db 3d
       0.03461317 -0.073042646 -0.44520822 0.10735688
0001f0 b2 0a ea 3d cb e0 1a 3f 06 ce 69 bd e0 43 ad bd
       0.11427821 0.60499257 -0.057081245 -0.08460212
000200 3d 15 8b 3e 33 51 cf 3e ab 78 1e 3f 02 b9 5c 3d
       0.2716464 0.40491638 0.61902875 0.053887375
000210 02 91 b9 bd 96 32 1a be bc 60 aa 3d b5 2d 0f be
       -0.09060861 -0.1505836 0.08319232 -0.1398228
000220 97 96 f5 3d e2 08 91 be 3a d6 ed be c8 db 32 3e
       0.11991613 -0.2832709 -0.46452504 0.17466652
000230 56 92 a8 3d 45 73 a2 3d ef 6b 89 3b 03 d1 3f 3e
       0.08231036 0.07932142 0.004193775 0.18732075
000240 54 58 25 be 35 c3 82 bd 01 de 08 3f 61 92 65 3c
       -0.16146976 -0.06384889 0.5346375 0.01401195
000250 14 d1 7b be fd 95 6b be 5a f2 8c bc 0c d0 15 bf
       -0.24591476 -0.23006435 -0.017205406 -0.5852058
000260 96 02 08 3e 92 2d 25 3e d0 a2 c4 be 5b 6b d1 be
       0.13282236 0.16130665 -0.38405466 -0.40902218
000270 12 3e 66 3e de 45 d4 bd 69 46 2c 3f 75 59 26 3f
       0.22484615 -0.103648886 0.6729494 0.6498025
000280 ad 40 1f be 0f 6f 73 bc 62 b1 9e bd 83 f2 41 3e
       -0.15552016 -0.014858021 -0.07748677 0.18940167
000290 e6 9a 99 be a2 13 fd 3e 81 95 12 be f6 20 e6 3e
       -0.3000099 0.4942904 -0.14314844 0.44947022
0002a0 44 3a 32 3f c1 3e 22 be e5 09 1c 3e 39 65 f1 3c
       0.69620156 -0.15844251 0.1523815 0.029467212
0002b0 08 cc 8f 3f ae 3f df 3e ba c9 ea bc 2e bf 52 bf
       1.123414 0.4360327 -0.028660644 -0.8232297
0002c0 ad d9 76 bf ca f4 f3 3c df 0b 38 3b db 2f a1 3d
       -0.96425897 0.02977981 0.0028083248 0.07870456
0002d0 fd 34 93 3e 62 13 ba bd 22 4b bf 3c 14 5a a4 b9
       0.28751364 -0.09085728 0.023351256 -0.0003134763
0002e0 9f 9c b4 3d 9f ce 6e be a2 28 46 3f 80 f0 52 bf
       0.088189356 -0.23321007 0.7740575 -0.82398224
0002f0 b1 8d 9a 3d c1 51 da bd 85 74 e5 3d f2 f7 24 3e
       0.07546557 -0.106601246 0.11203865 0.16110209
000300 71 88 98 3d d5 7e ff 3e bd 67 46 be d1 d0 14 be
       0.07447899 0.49901453 -0.1937551 -0.14532782
000310 4f 0e a2 bf 27 1e a8 3e bb 08 84 3e 7b 15 db 3e
       -1.2660617 0.32835504 0.2578791 0.42789826
000320 27 39 1e 3e c7 62 fc be a1 52 20 bf 3e ac 5d 3e
       0.1545149 -0.4929411 -0.6262608 0.21647736
000330 9e 90 da 3e 82 42 28 bc 2d cd 77 bf ff 3b 9b bc
       0.4268846 -0.010269763 -0.9679745 -0.018949507
000340 7d 23 65 be 89 19 c3 3d 68 7a b0 3f 94 07 5f be
       -0.22376819 0.09526355 1.3787355 -0.21780235
000350 24 8c f4 3d 86 f8 a5 be 0e 02 92 3e 0f b9 2c bf
       0.11940792 -0.3241617 0.28517193 -0.67469877
000360 96 d6 5f 3d 5e 95 1a be fa 2f 1e 3e 31 a8 af bf
       0.054648004 -0.15096042 0.15447989 -1.3723203
000370 de a9 ad 3e 8b 6e 3b 3c 1f b9 86 be 11 6f be 3e
       0.3391866 0.01143993 -0.2631311 0.37194112
000380 25 95 a8 3c 46 30 ba 3d d4 09 07 3f 78 77 9b be
       0.02057893 0.09091239 0.5274937 -0.30364585
000390 af de b1 be 8b 1d f9 3e 72 28 b8 be 79 71 1c 3f
       -0.34740207 0.48655352 -0.35968357 0.61110646
0003a0 e0 b7 15 bf 6c 98 c6 3c 4b 9a b5 3d 3d 01 3b 3f
       -0.58483696 0.024242602 0.0886732 0.73048764
0003b0 6a 32 6e 3e 12 42 94 3e 8f 56 d3 3d 89 f1 8f be
       0.23261419 0.28956658 0.10319244 -0.28113964
0003c0 94 65 df 3e 6e 5f b3 be 05 eb 54 3e 75 2d 20 be
       0.43632185 -0.35033745 0.20792778 -0.1564234
0003d0 a1 10 08 bd b3 32 53 3e e7 4f 2e be b0 ea 5a 3e
       -0.033218984 0.20624809 -0.17022668 0.21378589
0003e0 65 1e 86 be ca 19 c9 bd 87 53 61 3f e8 2b fc be
       -0.26195064 -0.09819372 0.8801808 -0.49252248
0003f0 f5 69 da 3e 9c 1c 25 3e 61 d4 6b 3d 1d ac 85 3e
       0.42658964 0.16124195 0.057575587 0.26107875

branch.net.net.8.bias f4 [64]
000000 c4 5a 0c 3f 15 88 16 3e bf ea 78 3d 89 d3 cf be
       0.54826 0.14700349 0.060770746 -0.40591076
000010 da 25 c0 3d 3b 4f 0e be 8c ca 8a be 46 2d b8 be
       0.093822196 -0.13897412 -0.27107656 -0.3597204
000020 9a c0 ce be 2d e5 ce 3e 5c f4 a4 be 2e b2 79 be
       -0.40381318 0.40409222 -0.3221768 -0.24384376
000030 39 ae 09 be 56 81 05 3f 8e 70 1a bf 6b 5d f8 bd
       -0.13445367 0.52150476 -0.60327995 -0.12127193
000040 ae b7 e8 3e 97 17 d4 3e d2 8f d3 3e bb b8 9d 3e
       0.45452636 0.41424248 0.41320664 0.30805
000050 b8 a7 41 bf 46 04 45 3d ba 06 3f be 04 a9 8e be
       -0.75646544 0.04809978 -0.1865491 -0.27863324
000060 81 25 58 3f 88 8e 86 3e 59 51 44 3e a6 bd 28 3f
       0.84432226 0.26280618 0.19171657 0.6591438
000070 8f 32 71 3f 84 4d 84 be 61 cc 6a 3e e8 db c2 3e
       0.9421777 -0.2584039 0.22929527 0.380584
000080 22 1d ad 3d a3 5b b7 be c7 09 80 3e 0c 5e 09 bc
       0.08452822 -0.358121 0.2500746 -0.008384239
000090 3e 53 bd be 15 7f b5 3e 65 30 33 bf fa 22 19 3f
       -0.3697757 0.35448518 -0.6999572 0.59818995
0000a0 aa 77 59 bd 77 fc cd be 28 17 dd 3e be 43 02 3e
       -0.053092636 -0.40231678 0.4318173 0.12721154
0000b0 1c 5b 39 be 0a e2 f5 be 94 fa 17 3f 7f a8 7e 3e
       -0.18101162 -0.48024017 0.59366727 0.24868964
0000c0 d2 f3 3a 3f 73 61 77 3e 1d 05 30 bf 56 8a 19 be
       0.7302829 0.24158268 -0.687578 -0.14994177
0000d0 8b d5 33 3f 1b 45 31 bf e8 68 90 bf 89 cc 07 3e
       0.70247716 -0.6924607 -1.1282015 0.13261618
0000e0 51 cc a2 3c 60 32 a9 be 25 5d 54 3e 8d e9 19 3d
       0.019872816 -0.33046246 0.20738657 0.037576247
0000f0 e4 76 1f 3c 16 3f 24 3f 23 fe 25 bf ae 25 4b 3e
       0.009732936 0.6415876 -0.64840907 0.19838592

branch.net.net.10.weight f4 [64, 64]
000000 b5 7e 1d 3e 53 1b b8 3e 26 45 e7 bd 06 3c 86 3e
       0.15380366 0.35958347 -0.11292486 0.2621767
000010 92 f5 1b bd 3e a3 13 be 61 50 a0 be 90 d0 7c bc
       -0.03807599 -0.1441774 -0.31311324 -0.015430585
000020 74 25 7b be a5 2b ef 3e 8e 7a 0b 3d 9f fc 3e 3e
       -0.24526006 0.46712986 0.034052424 0.18651055
000030 2d 96 11 3c a3 f2 0d be e5 7c 87 be 19 89 56 3d
       0.008885902 -0.1386209 -0.26462474 0.05237684
000040 5c 40 18 3d a6 b7 b8 3e a1 44 22 be 1b ff eb 39
       0.037170753 0.36077613 -0.15846492 0.0004501276
000050 d3 98 52 3e 1f 6c 1c bf 01 c0 13 3e ea ea b2 bd
       0.2056611 -0.6110248 0.14428712 -0.087362126
000060 c8 78 72 bd 13 f6 da 3e 54 ac b5 3e 23 77 85 be
       -0.059197217 0.42765865 0.35483038 -0.26067457
000070 5d 68 70 be 47 ca b8 be 94 18 a7 be e9 a5 06 3f
       -0.23477311 -0.36091825 -0.3263594 0.5259691
000080 26 f5 8c 3d e6 7d 17 3f 0a fb eb be 40 9e 3f 3e
       0.06882696 0.5917648 -0.46089965 0.18712711
000090 00 e8 49 bd 4b fe 08 3f 4c eb cf bc c4 6c f8 3d
       -0.049293518 0.5351302 -0.025380753 0.121301204
0000a0 32 9c 0a 3e 5a 35 b4 bb 10 db 8d 3e 00 d5 7c 3d
       0.13536146 -0.005499524 0.27706194 0.06172657
0000b0 5e a2 cd 3e 80 60 dd bd bd 43 49 be bb e4 e5 bd
       0.4016294 -0.108094215 -0.19654746 -0.112252675
0000c0 88 14 b9 3e 22 de b0 bd b7 99 27 bf 39 61 f8 3d
       0.36148477 -0.086361185 -0.65468925 0.12127919
0000d0 4b 11 9d 3d 9d cc 36 3d 2c e2 9c 3e 1f b1 52 3b
       0.07669314 0.04462873 0.30641305 0.003214903
0000e0 58 8b 85 bc 9b 62 1e bf 93 9f 84 3f 7b d3 c4 bd
       -0.016301796 -0.6186921 1.0361198 -0.09610649
0000f0 08 c7 76 be e2 12 84 3e aa 52 80 3e 3e 43 65 3e
       -0.24099362 0.25795656 0.25063068 0.22388932
000100 46 28 19 bd f2 66 12 be 70 0a 86 3b cf dd cb bd
       -0.037391923 -0.14297083 0.0040905997 -0.09954416
000110 f4 ba d5 bc 0e 8b 1d 3e 99 f6 cc bd 35 66 2d 3d
       -0.026090123 0.15385076 -0.10007972 0.0423338
000120 9e ba 19 be e3 d6 da ba 0d bb f7 bd ba 68 80 bd
       -0.15012595 -0.0016696121 -0.12096224 -0.06269975
000130 86 61 41 3d 18 5d 94 bd f2 d1 87 be 21 a3 49 bd
       0.047212146 -0.07244319 -0.26527363 -0.049227837
000140 1c 16 cc 3c 9b 22 bd 3d a2 fe 8b 3e 5d 40 60 3d
       0.024912886 0.09235116 0.27342707 0.05474888
000150 69 a5 08 be 3f bc 07 3d 4d 1c 8e be ed 47 8a bc
       -0.13344349 0.03313851 -0.27755967 -0.01688
000160 69 46 1b 3d 0e eb 20 3e ed 74 7e 3e d8 17 b1 bc
       0.037908945 0.15714666 0.24849291 -0.021617815
000170 49 c7 76 3e 30 11 a4 bd 7d ea 4b 3c c8 2c 5a 3e
       0.24099459 -0.08011091 0.012446043 0.21306145
000180 08 6e cc 3d f8 a5 d2 bd c3 b9 8a bc c6 58 64 3d
       0.09981924 -0.10285562 -0.016934281 0.055748723
000190 0c dc 09 be 8a cc a3 bb e4 31 ff bd 6b d7 d8 bc
       -0.13462847 -0.004998748 -0.12460688 -0.026469907
0001a0 5c 5d e6 3c 97 7c 54 be 64 6b 35 3c b1 61 f4 3b
       0.02812069 -0.20750652 0.011072967 0.007457935
0001b0 3e d9 e2 3c 01 31 84 3d 1f 80 0c 3e c1 b0 5a 3e
       0.02769148 0.06454659 0.1372075 0.21356489
0001c0 41 cf 70 3e 97 35 2e 3e af 0b c2 bd 63 77 45 be
       0.23516561 0.1701263 -0.09474885 -0.19283824
0001d0 75 a9 1c be 8a 37 02 3d 00 65 bb be 27 0e 17 3e
       -0.15299018 0.031791247 -0.36600494 0.14751492
0001e0 44 4d a0 bc 71 40 b6 bd 36 1b 06 be 05 05 22 bd
       -0.019568093 -0.0889901 -0.13096318 -0.03955557
0001f0 15 dd ab bb bd a5 cf 3c 7f d8 0c be fc be a8 bd
       -0.005244861 0.025347585 -0.13754462 -0.082395524
000200 14 d3 30 bc eb 7f 30 3e 72 df 47 3e 70 68 0f 3e
       -0.010792512 0.17236297 0.19518831 0.14004683
000210 df 09 06 3e e3 ce b4 be 3c f9 ae bd 3c e2 ed bd
       0.13089703 -0.35314092 -0.085436314 -0.116154164
000220 4f 81 ab 3e b8 56 d5 3d 62 d9 83 3d 12 c7 a9 3d
       0.33497092 0.10416931 0.06437947 0.08289923
000230 38 4e a3 3e fd 4e 4a be 1b 25 2b be 41 9a 72 be
       0.31895614 -0.19756694 -0.16713373 -0.23691656
000240 26 8f 51 be 30 13 97 bd aa 68 3a bb f3 a5 40 3e
       -0.20464763 -0.073767066 -0.0028443732 0.18813305
000250 76 bb 27 3c 4a d5 c9 3e 42 d7 f3 3d 39 36 e1 ba
       0.010237565 0.3942054 0.119062915 -0.0017182297
000260 d2 83 c1 3d 73 c0 7f be 99 eb 9e 3e 78 58 a6 3e
       0.09448971 -0.24975757 0.31039122 0.3248937
000270 81 2d 81 3d 01 96 85 3e d2 03 01 3d 9a 39 6c be
       0.06307507 0.26091006 0.031497784 -0.23068848
000280 b1 fa a0 3d fc ed 48 3e 89 26 a2 bd 50 f7 31 3e
       0.078603156 0.19622034 -0.07917506 0.17379498
000290 51 65 c1 3d c6 06 c3 bc a1 6c e8 bd 56 47 d9 bc
       0.09443153 -0.02380694 -0.11348844 -0.026523273
0002a0 42 ec 41 bd 69 03 6d be ca 2c 25 3e d3 a0 f2 bd
       -0.047344454 -0.23145832 0.16130367 -0.11847081
0002b0 fa 79 80 be 0c 2f a3 bc 65 f7 16 3e 2d f9 f2 3d
       -0.2509306 -0.019919895 0.14742811 0.11863933
0002c0 af 10 08 bd 7d f2 d1 3e 24 41 00 bf a5 b1 1b be
       -0.033219036 0.41005316 -0.50099397 -0.15204485
0002d0 c2 17 e1 bc ab 0d 94 bd 91 2c ab 3d 51 65 35 3e
       -0.027477149 -0.072291695 0.0835811 0.1771443
0002e0 cc 1f 97 3d 5a 45 1c be 9a 68 f2 bd 63 54 c1 be
       0.07379112 -0.1526083 -0.118363574 -0.37759694
0002f0 62 4a 23 3e 4e 00 a1 be 04 3b 3d bd 73 40 dc bc
       0.15946344 -0.31445545 -0.04619886 -0.0268862
000300 40 eb f3 be 55 62 75 bd 15 8a 11 3e 3b c3 67 be
       -0.4764042 -0.05990823 0.1421283 -0.22633068
000310 95 e4 97 be c9 db 7d 3e de 06 1b 3d 66 c4 05 bd
       -0.29666582 0.24790873 0.037848346 -0.032658003
000320 0e ef ef bd f1 69 a0 bc a4 1f 10 be 4d 5e 17 3e
       -0.11715518 -0.019581767 -0.1407457 0.14782067
000330 20 48 c2 b9 d1 b4 62 bd ac 44 1d be b8 5e 39 be
       -0.000370563 -0.05534822 -0.15358227 -0.18102539
000340 7b f5 e0 bd d0 04 bb bd 8a ba 61 be 59 39 96 bd
       -0.10984322 -0.09131777 -0.22043815 -0.07335157
000350 ab 95 6a 3e a5 97 54 bd 54 46 d0 3d ae 83 76 3d
       0.22908656 -0.051902432 0.10169664 0.060184173
000360 98 c6 c8 bd 24 e6 ec 3e a8 6c 48 3e e8 f1 35 3e
       -0.09803504 0.46269333 0.19572699 0.17768061
000370 b4 04 a7 bd bd 92 09 3e 77 ec d4 3c da 66 72 3d
       -0.08155194 0.13434882 0.025991661 0.05918012
000380 ae 42 48 be 44 29 c0 bd 40 f9 b2 3c 6f 7a 3c bd
       -0.19556686 -0.09382871 0.021847367 -0.0460152
000390 83 12 7b 3d 3e 5f ab be 8b 0b 09 3e 4b c3 50 3e
       0.06129695 -0.33471102 0.1338331 0.20386998
0003a0 28 92 9d 3c 7d 47 34 3e 61 03 9d be 3a 93 08 be
       0.019234732 0.17605396 -0.3066664 -0.13337412
0003b0 ca f5 81 bd bb 6a b6 3d 78 9d b6 3d 0d 55 50 be
       -0.06345709 0.08907076 0.089167535 -0.20344944
0003c0 7b 8c fb 3e fa 64 5a be 63 4f 78 3e 73 75 04 be
       0.49130616 -0.21327582 0.24249034 -0.12935428
0003d0 2e 6c 14 3e 8d 2b 68 3e 3f 00 c8 3d ae d2 61 3d
       0.14494392 0.22672863 0.09765672 0.05513256
0003e0 16 bb 1d 3b ac 29 7d 3e 5b 9e b5 bc 6a df 0e 3d
       0.002406781 0.24722928 -0.022170236 0.034881033
0003f0 08 ac 25 be 67 97 35 be e7 02 34 3e 4e d9 1d be
       -0.16178906 -0.17733537 0.17579232 -0.15414926

branch.net.net.10.bias f4 [64]
000000 16 b1 15 be 05 0b 47 3f 8b c4 82 bd 94 46 34 3e
       -0.14618334 0.7775119 -0.06385144 0.17605048
000010 00 e9 82 3d 2d 07 5b be 41 60 ce 3d e0 5a e4 3e
       0.063920975 -0.21389456 0.10076953 0.44600582
000020 31 98 c3 3e 01 35 1a 3e 2e 2a e5 bc ef b0 03 bf
       0.3820205 0.15059282 -0.027974214 -0.51441854
000030 2e 5c b3 bd 0c fe 79 3e dd 00 0d 3e 7a e6 c2 3d
       -0.08757816 0.24413317 0.1376986 0.09516616
000040 b9 94 a2 3e 0e 84 8b bd e0 77 78 be d3 50 82 bd
       0.3175409 -0.06812297 -0.24264479 -0.06363072
000050 d9 5f d9 bd 39 ab 62 bd d3 c0 34 3f 9a c6 5e be
       -0.106139846 -0.055339072 0.70606726 -0.21755448
000060 cc bb 08 3f 46 5f f9 3e a6 93 d5 bd 10 2b 8b bd
       0.53411555 0.487055 -0.10428552 -0.06795323
000070 4a 65 58 be 1e 7b 42 3e 90 7d 40 be 4d d7 fa bd
       -0.21132389 0.18992278 -0.18797898 -0.122480966
000080 41 c6 07 bd 1f 9e 9b bd fb 77 27 3e 87 55 81 3e
       -0.033148054 -0.075985186 0.16354363 0.25260565
000090 70 d7 83 3e 49 e7 42 be 57 21 eb 3e 17 c9 38 3e
       0.25750303 -0.19033541 0.45923874 0.1804546
0000a0 a4 14 27 3f f9 52 5c be d6 84 02 3e 74 12 3d 3e
       0.6526587 -0.21516027 0.12745985 0.1846407
0000b0 00 cd 16 be e7 5d 2d 3c 39 ce e4 be 1b 56 68 3e
       -0.14726639 0.01058147 -0.44688585 0.22689097
0000c0 34 43 25 3f 67 81 8f 3e 35 78 02 bd a2 da e3 bd
       0.6455567 0.28028414 -0.03185292 -0.11125685
0000d0 d2 9f ae 3e 82 c1 ae 3b c3 40 d8 be 8f 65 ae 3d
       0.34106308 0.0053331265 -0.4223691 0.085154645
0000e0 0e 95 30 bd 27 c6 ed 3d 82 a0 94 be 4d 84 9c 3e
       -0.0431109 0.1161006 -0.29028708 0.30569687
0000f0 4f c2 c4 bd 68 28 92 be fc 2d 1d 3d da 07 86 3d
       -0.09607374 -0.28546453 0.038373932 0.06544466
