FullOrder/FullOrderReconstruct/FullOrder_20251114_165349_MLP_modified_deeponet_NoPhys_NoBatch_HD64_HL5_LR0.01_Sample0.3_checkpoint.pth (torch, 751162 bytes, 90 tensors)

branch.net.net.0.weight f4 [64, 2]
0.11762386 0.40431908 0.16559805 -0.1543112 -0.0617088 -0.12265557 -0.53329545 -0.512485
-0.053934954 0.56388175 -0.16886462 0.43180954 -0.29303497 0.01728237 0.082407504 -0.6021776
0.281454 0.17856133 0.62468374 -0.23500668 -0.099113494 0.22299717 0.57409006 -0.5514012
-0.045944832 -0.579381 0.5638427 0.4758018 -0.40969008 0.40183407 0.6237937 0.6214902
0.15446675 -0.084707715 0.3766933 -0.49408087 0.21801631 0.21385291 -0.5391276 0.21890281
-0.022148252 -0.208302 -0.6536606 0.61483026 -0.007224535 -0.059964143 0.5634491 0.46235707
-0.5896152 -0.5937581 0.3127446 0.41947094 -0.35899827 0.41529515 0.58651173 -0.17006306
-0.055806816 0.061859816 -0.5803034 -0.06585606 -0.590492 0.09099769 -0.028650919 0.53039026
-0.37878326 -0.14001511 0.30455193 0.07804672 0.3233037 0.0126344375 -0.013718943 -0.56164384
0.4182956 0.37188405 -0.34871304 0.4724305 0.39692262 0.5668381 -0.58510464 0.45267248
0.58312875 -0.38366964 -0.04494116 -0.16832565 0.31675488 -0.4938085 0.22203012 -0.7124704
0.39683965 -0.36172348 -0.1518206 -0.6451089 0.3933088 -0.62732565 0.035040397 -0.75562733
-0.46519452 -0.4657668 -0.20826507 -0.22675313 0.40052527 -0.2513772 -0.115648106 0.6610122
0.5396504 -0.28182438 0.15560777 -0.54438686 -0.0063677933 -0.25880927 0.50323784 -0.5318722
-0.34396595 -0.17458992 0.66102916 0.6680857 -0.020101167 -0.26160598 0.6936742 0.21903466
-0.65156436 0.03931994 -0.30958906 0.29828376 -0.5683286 0.357261 0.05384551 -0.63776165
00000000: c7e4 f03d e902 cf3e 8992 293e c103 1ebe
00000010: 5ec2 7cbd d832 fbbd 0d86 08bf 3832 03bf
00000020: e6ea 5cbd 8e5a 103f d9ea 2cbe 2416 dd3e
00000030: ae08 96be c293 8d3c 44c5 a83d 5028 1abf
00000040: bd1a 903e c8d8 363e 46eb 1f3f 97a5 70be
00000050: 04fc cabd 5f59 643e 91f7 123f a128 0dbf
00000060: a630 3cbd 5052 14bf ff57 103f 4b9c f33e
00000070: e6c2 d1be 32bd cd3e f2b0 1f3f fb19 1f3f
00000080: 882c 1e3e 3d7b adbd f2dd c03e 2bf8 fcbe
00000090: ab3f 5f3e 42fc 5a3e 4404 0abf 0f28 603e
000000a0: 4070 b5bc 1f4d 55be 4d56 27bf 8465 1d3f
000000b0: cbbb ecbb f69c 75bd 333e 103f 11ba ec3e
000000c0: 06f1 16bf 8800 18bf 0f20 a03e e5c4 d63e
000000d0: 9fce b7be 91a1 d43e a225 163f 0325 2ebe
000000e0: b095 64bd b860 7d3d c38e 14bf 8bdf 86bd
000000f0: 7c2a 17bf ff5c ba3d 55b5 eabc a8c7 073f
00000100: e1ef c1be 1f60 0fbe 3bee 9b3e f5d6 9f3d
00000110: 1088 a53e ac00 4f3c 6bc5 60bc e4c7 0fbf
00000120: d72a d63e 9667 be3e 848a b2be 69e2 f13e
00000130: 7139 cb3e 4d1c 113f 6bc9 15bf b0c4 e73e
00000140: ed47 153f 5970 c4be 3914 38bd 8f5d 2cbe
00000150: b22d a23e 78d4 fcbe dd5b 633e 7664 36bf
00000160: 912e cb3e d233 b9be dc76 1bbe db25 25bf
00000170: c55f c93e 6a98 20bf 8586 0f3d cb70 41bf
00000180: fa2d eebe fc78 eebe 7043 55be f931 68be
00000190: a611 cd3e 83b4 80be ead8 ecbd 1838 293f
000001a0: 8726 0a3f 494b 90be a557 1f3e f05c 0bbf
000001b0: eca8 d0bb a682 84be 32d4 003f c728 08bf
000001c0: 4e1c b0be b3c7 32be 3539 293f aa07 2b3f
000001d0: 34ab a4bc 38f1 85be a294 313f 9f4a 603e
000001e0: eccc 26bf f20d 213d 7582 9ebe a6b8 983e
000001f0: fc7d 11bf eaea b63e 1c8d 5c3d 5944 23bf

branch.net.net.0.bias f4 [64]
-0.031530317 0.43554187 -0.08102793 0.3555594 0.4568311 0.39305773 -0.6217836 0.5843979
-0.12595399 0.35559532 -0.5082638 -0.5431934 -0.66871065 -0.6696807 -0.3250791 0.40631762
0.35616058 -0.17040047 -0.2916318 0.43933845 -0.27276403 0.002827176 -0.050232768 -0.5008992
-0.6795777 -0.5226164 -0.45643142 0.21379793 -0.14350814 -0.10992671 -0.123560116 0.42731595
0.5381159 0.37318775 -0.18632267 0.6165342 -0.28721908 -0.25525185 0.30464762 0.22272338
-0.18361105 -0.13344464 -0.48304918 -0.5859514 0.14105959 0.19991569 -0.013261424 -0.7296488
-0.44483688 0.26453254 0.6033354 0.36769378 0.09371115 -0.14792706 -0.38038734 -0.28232762
-0.13631035 0.2085583 0.22893454 -0.2038823 0.30905482 -0.25121808 -0.5578627 0.33389735
00000000: ef25 01bd 58ff de3e f9f1 a5bd e20b b63e
00000010: c4e5 e93e dd3e c93e 362d 1fbf 1a9b 153f
00000020: 15fa 00be 9710 b63e 941d 02bf b90e 0bbf
00000030: 9f30 2bbf 3270 2bbf c570 a6be dd08 d03e
00000040: ae5a b63e 767d 2ebe c350 95be f8f0 e03e
00000050: baa7 8bbe 2448 393b e0c0 4dbd ee3a 00bf
00000060: cef8 2dbf 30ca 05bf 61b1 e9be d8ed 5a3e
00000070: ccf3 12be 4121 e1bd 160d fdbd 28c9 da3e
00000080: f7c1 093f 7712 bf3e 5fcb 3ebe 2fd5 1d3f
00000090: 610e 93be 5fb0 82be c6fa 9b3e 9911 643e
000000a0: 8904 3cbe b6a5 08be 3952 f7be e900 16bf
000000b0: ed71 103e b3b6 4c3e 7246 59bc 44ca 3abf
000000c0: a9c1 e3be cf70 873e 3074 1a3f 5c42 bc3e
000000d0: a2eb bf3d 317a 17be 21c2 c2be 3f8d 90be
000000e0: f194 0bbe 4f90 553e d16d 6a3e 86c6 50be
000000f0: 6f3c 9e3e a89f 80be 17d0 0ebf 98f4 aa3e

branch.net.net.2.weight f4 [64, 64]
0.11941244 -0.05692595 -0.061421786 -0.0022860146 0.10044126 0.009515559 -0.0027161809 0.071908265
-0.13747194 -0.03238945 0.11340573 0.0141242705 -0.075118266 0.08083073 -0.044347204 -0.046411157
0.012546763 -0.02721821 0.020404378 0.13327527 -0.025573382 0.11491739 0.03520451 0.11205768
0.0392539 0.05751896 -0.0032663571 -0.13469017 -0.02424903 -0.07585991 0.11875252 -0.0264912
0.11907109 -0.13136284 -0.09504456 -0.031638663 -0.034071337 -0.09056866 -0.016369943 -0.050150413
-0.061066262 0.10386885 0.022578156 -0.15620007 0.01214619 0.041453406 0.10374375 0.018987242
-0.07137601 0.03335971 0.085793994 0.10048394 -0.016939897 -0.053399395 -0.108852975 -0.15292352
0.11851944 0.1080083 0.05275171 0.08560838 -0.046366263 -0.08752978 0.006375884 -0.06288189
0.025805205 0.15865773 -0.028204057 0.052009854 -0.030746708 0.04125416 -0.004011669 0.13620456
-0.034613818 0.00043020843 -0.11785416 0.051453106 -0.031272933 0.009593097 -0.14475931 0.0028448838
0.13555525 0.08167409 -0.034038555 0.02931258 0.10598529 -0.06319641 -0.025491947 -0.13118659
-0.030132001 -0.05159218 -0.013789154 0.043532435 -0.060160372 -0.03242476 0.0005476478 -0.089548185
-0.050789185 -0.019688023 0.02496083 0.10874066 -0.06314883 -0.07060059 0.06235148 -0.026730115
-0.11928207 0.031178193 -0.067878745 -0.016190188 0.036214788 0.10840816 -0.06721373 -0.0027731718
0.07833494 0.14209892 0.095480464 -0.09543184 -0.029970085 0.026754202 0.007375237 -0.06584504
0.06339382 -0.06080534 0.025818972 -0.012487647 -0.028092798 -0.05458718 0.045903556 0.14059427
-0.12768853 0.033081934 -0.12819453 0.19111063 -0.16303359 -0.051526405 -0.03509137 -0.026986733
0.019662416 0.045107733 -0.062235896 0.12887375 0.0002354383 -0.11080075 0.09321618 -0.046258587
-0.056719583 -0.022553332 0.011307495 0.0066800453 -0.12389261 0.011322899 -0.121011004 -0.13385831
0.06715905 -0.13892886 0.075996004 -0.010473384 0.047325157 0.039426293 0.061647266 -0.14516196
0.16440922 -0.030725429 -0.056107398 0.077508636 -0.13309257 0.10751458 0.008934652 -0.1259671
-0.03869899 -0.07910045 0.1255508 0.12916447 -0.10377117 0.022906303 -0.06660581 -0.038219962
0.058124814 -0.036313176 0.122378215 -0.18145633 -0.013158705 -0.07403319 -0.11748196 0.10953168
0.11788021 0.058041945 0.013398615 -0.039123297 -0.023928331 0.06795452 0.032233912 -0.10129932
-0.17988452 0.060596 0.09467128 -0.051918667 0.00861108 0.03311522 -0.007301675 0.11511045
-0.1445372 0.034338433 -0.12121836 -0.044990048 0.021697251 -0.07123059 0.003027419 -0.15539113
0.019952398 -0.022108568 -0.028660275 -0.12192524 -0.029838048 0.08314642 0.013114363 0.040784072
0.057709455 -4.4187997e-05 -0.05531682 0.042411104 -0.023132773 0.002371043 -0.0939245 4.3047974e-05
-0.061223578 0.026076637 -0.04343138 0.1250182 -0.009068025 -0.15758927 0.03896158 -0.03778334
0.00088576187 -0.07134056 -0.017734334 0.13541245 0.10512803 0.012615002 0.109014615 0.11832938
0.076530784 0.15227449 -0.0443886 0.1003988 -0.052203573 0.060724456 0.06860438 -0.023045566
0.024393925 -0.117928386 0.1448037 -0.12794475 0.10663384 -0.12085217 0.023428166 0.17004886
00000000: 828e f43d 2f2b 69bd 6995 7bbd f6d0 15bb
00000010: 26b4 cd3d 26e7 1b3c f401 32bb a444 933d
00000020: 72c5 0cbe cdaa 04bd 4341 e83d 7c69 673c
00000030: 9bd7 99bd 958a a53d 6aa5 35bd a019 3ebd
00000040: f090 4d3c b9f8 debc 1527 a73c 5079 083e
00000050: 457f d1bc cf59 eb3d 9b32 103d 7f7e e53d
00000060: b3c8 203d 0099 6b3d 6110 56bb 38ec 09be
00000070: e7a5 c6bc 715c 9bbd 8534 f33d 1304 d9bc
00000080: 8bdb f33d fb83 06be b9a6 c2bd 8b97 01bd
00000090: 638e 0bbd 107c b9bd 421a 86bc 856a 4dbd
000000a0: 9e20 7abd 31b9 d43d d3f5 b83c e9f2 1fbe
000000b0: d000 473c 0ccb 293d 9a77 d43d 228b 9b3c
000000c0: 962d 92bd 31a4 083d c3b4 af3d 86ca cd3d
000000d0: 8ac5 8abc 53b9 5abd 4fee debd fc97 1cbe
000000e0: 52ba f23d 7533 dd3d 2d12 583d 7253 af3d
000000f0: 8dea 3dbd d042 b3bd cbec d03b 38c8 80bd
00000100: 7065 d33c 2c77 223e 320c e7bc 4908 553d
00000110: 85e0 fbbc 1ffa 283d 5274 83bb 3579 0b3e
00000120: 38c7 0dbd 998d e139 865d f1bd 7ec0 523d
00000130: 0c18 00bd 5d2c 1d3c c93b 14be 3b71 3a3b
00000140: ffce 0a3e bf44 a73d 036c 0bbd f020 f03c
00000150: d10e d93d 1f6d 81bd 7dd4 d0bc c755 06be
00000160: 63d7 f6bc 5252 53bd e7eb 61bc 114f 323d
00000170: b96a 76bd d3cf 04bd 0690 0f3a 0a65 b7bd
00000180: 5208 50bd c748 a1bc a87a cc3c 6cb3 de3d
00000190: 2c54 81bd 0b97 90bd 4464 7f3d 1df9 dabc
000001a0: 284a f4bd 6969 ff3c 0304 8bbd 49a1 84bc
000001b0: f555 143d 1905 de3d 5aa7 89bd 1abe 35bb
000001c0: 126e a03d 6182 113e 438b c33d c571 c3bd
000001d0: d383 f5bc a12b db3c f9ab f13b c4d9 86bd
000001e0: 9ed4 813d 050f 79bd 4f82 d33c fd98 4cbc
000001f0: de22 e6bc cf96 5fbd 5e05 3c3d f2f7 0f3e
00000200: c8c0 02be ec80 073d 6d45 03be 81b2 433e
00000210: 47f2 26be 5a0d 53bd f8bb 0fbd 4813 ddbc
00000220: 1313 a13c e3c2 383d 11eb 7ebd 7bf7 033e
00000230: fddf 7639 81eb e2bd 20e8 be3d a579 3dbd
00000240: cb52 68bd c4c1 b8bc 1243 393c 48e4 da3b
00000250: 69bb fdbd ae83 393c 9ed4 f7bd 2712 09be
00000260: af8a 893d 5e43 0ebe cba3 9b3d 8e98 2bbc
00000270: 06d8 413d 777d 213d d881 7c3d 56a5 14be
00000280: e45a 283e e5b3 fbbc dfd0 65bd d9bc 9e3d
00000290: 6b49 08be 9b30 dc3d a662 123c 85fd 00be
000002a0: d582 1ebd 6bff a1bd 6490 003e b143 043e
000002b0: fb85 d4bd 00a6 bb3c a068 88bd 898c 1cbd
000002c0: 4914 6e3d 20bd 14bd 6ea1 fa3d b0cf 39be
000002d0: 9c97 57bc b79e 97bd 629a f0bd 2552 e03d
000002e0: 2e6b f13d 64bd 6d3d dd85 5b3c c03f 20bd
000002f0: 5905 c4bc bd2b 8b3d b507 043d 0576 cfbd
00000300: a633 38be 8333 783d 04e3 c13d aba8 54bd
00000310: 7d15 0d3c d3a3 073d e442 efbb 07bf eb3d
00000320: 8f01 14be 75a6 0c3d 5541 f8bd 7c47 38bd
00000330: 6fbe b13c 58e1 91bd aa67 463b da1e 1fbe
00000340: 3673 a33c 071d b5bc f4c8 eabc f1b3 f9bd
00000350: ec6e f4bc ac48 aa3d a0dd 563c 330d 273d
00000360: c060 6c3d 8056 39b8 e493 62bd 44b7 2d3d
00000370: f180 bdbc 8063 1b3b 7d5b c0bd 698e 3438
00000380: 93c5 7abd ac9e d53c 1ae5 31bd c504 003e
00000390: 0e92 14bc 155f 21be 2d96 1f3d b4c2 1abd
000003a0: 7932 683a 001b 92bd 9847 91bc 90a9 0a3e
000003b0: 5d4d d73d 27af 4e3c 0e43 df3d ad56 f23d
000003c0: 2cbc 9c3d d8ed 1b3e d2d0 35bd e39d cd3d
000003d0: 6ad3 55bd 35ba 783d 7480 8c3d 0eca bcbc
000003e0: c5d5 c73c 7084 f1bd 6c47 143e f303 03be
000003f0: d862 da3d 5881 f7bd 6dec bf3c 4a21 2e3e

branch.net.net.2.bias f4 [64]
-0.13324504 0.034947623 0.11062841 0.02484504 0.0092841275 -0.09883938 -0.056282982 0.06726762
0.050037842 -0.05132887 -0.012146223 -0.08874565 -0.13935342 -0.06254607 0.04622148 0.031674273
0.092307135 -0.07063633 0.0034591246 -0.06864809 -0.08068539 -0.1752278 0.026083613 0.05020144
0.06667761 -0.153212 -0.010294056 0.11091286 0.022078307 0.0059728697 0.07459487 -0.13322681
-0.055775594 -0.11661075 -0.12888868 -0.067252584 -0.068577215 0.074411206 -0.020645374 0.046390466
0.04805998 0.010619785 0.0128234895 0.1109718 0.0395455 -0.07126158 0.008273392 0.031014225
0.035681512 -0.12218847 0.1362186 -0.038799305 0.039338443 0.0035973454 -0.10981991 -0.16652997
0.12970449 -0.009226238 0.09513822 0.039324768 0.003559506 -0.08359816 -0.0433285 -0.0764522
00000000: 6371 08be 3d25 0f3d 2691 e23d d387 cb3c
00000010: 741c 183c 4d6c cabd fc88 66bd 9bc3 893d
00000020: 7bf4 4c3d 393e 52bd f400 47bc 48c0 b5bd
00000030: aab2 0ebe 2718 80bd bc52 3d3d e2bc 013d
00000040: 860b bd3d c8a9 90bd 7bb2 623b 5f97 8cbd
00000050: 623e a5bd eb6e 33be 4dad d53c 06a0 4d3d
00000060: 458e 883d 9be3 1cbe 66a8 28bc 4826 e33d
00000070: 91dd b43c 10b8 c33b 32c5 983d 9c6c 08be
00000080: f374 64bd 9ed1 eebd 65fb 03be b9bb 89bd
00000090: 3672 8cbd e764 983d 7d20 a9bc ee03 3e3d
000000a0: 8bda 443d 9bfe 2d3c 9d19 523c 2f45 e33d
000000b0: 76fa 213d 97f1 91bd 1f8d 073c 8b11 fe3c
000000c0: c726 123d f33d fabd e47c 0b3e 05ec 1ebd
000000d0: 5921 213d 71c1 6b3b 43e9 e0bd d586 2abe
000000e0: 41d1 043e a629 17bc d4d7 c23d 0213 213d
000000f0: 9a46 693b 8335 abbd 3a79 31bd f992 9cbd

branch.net.net.4.weight f4 [64, 64]
0.0073728594 0.004789292 0.13021064 0.07855066 0.053959455 0.019924007 -0.029544832 0.17577444
0.0115495175 -0.10513935 0.0053509274 -0.052158594 0.19568272 -0.1637583 0.03581074 -0.11856718
-0.09816288 0.008559759 -0.0010074936 -0.17605034 0.011275346 0.050903287 0.07553355 0.014862504
-0.26332518 -0.030007679 -0.12367941 -0.16560614 0.01397062 0.019410418 0.033125464 -0.03282635
0.07796081 0.072702415 -0.002952682 0.28313008 0.06649642 -0.023456272 0.14857702 -0.16649808
0.109851345 0.068156146 0.004719139 -0.049458057 0.13544206 0.029751092 0.03725356 -0.15003133
0.10201876 0.042385455 -0.02904418 0.005144235 -0.09610615 0.08952137 -0.011046518 -0.11054562
-0.15220058 0.2684181 -0.11948843 -0.08935734 -0.079632595 -0.059812896 -0.09815294 0.19616337
-0.05811831 -0.06828896 0.0095135495 -0.104515515 -0.15924929 -0.22208333 0.07706607 0.00058292004
0.12521434 -0.034296114 0.032396145 0.05091151 -0.08653567 0.10395664 -0.08815127 0.01771236
-0.13827167 -0.0018903108 -0.12142511 -0.070782125 -0.108111635 0.15790859 0.033847094 -0.07168189
-0.09940149 -0.077517435 0.0030027735 -0.02809121 -0.0716897 -0.16699913 0.051863644 -0.0149827935
0.0382639 -0.037651703 0.07405751 0.089525834 -0.0064968783 0.0018599114 0.022503182 -0.05657118
0.002552885 0.09961718 0.00916196 0.10604653 -0.0066218665 -0.11053623 0.056771744 -0.12882832
0.024976179 0.016924556 -0.030919451 0.055923086 0.03907958 -0.013021267 -0.13446477 -0.051532865
0.15772942 -0.110894956 0.13767397 -0.08645752 0.015538591 -0.07636159 0.030908033 -0.05041527
-0.13150625 0.05283592 0.07321432 0.053805653 0.0098036425 0.11811978 0.015912363 -0.10917871
-0.036262196 0.09001885 0.018231502 -0.09980597 -0.13255806 -0.13717183 0.06653247 0.017989766
-0.0325484 0.04838618 -0.13063234 0.028602978 -0.015532446 -0.1527531 -0.03684328 0.01814878
0.008088853 0.032242946 0.061116308 -0.09690777 0.057418603 0.123245984 0.16257629 0.045027573
-0.0152359735 0.08650385 -0.11084834 -0.038221527 0.020611448 0.11091964 0.058415588 -0.12437774
0.08148049 -0.073500164 -0.1411306 0.07525844 0.023561915 0.027409734 0.04036324 0.09891373
-0.012576659 0.043247167 -0.059217658 -0.04706657 -0.10718445 0.2370537 0.07696996 0.019517737
-0.0013404303 0.16462086 -0.08580297 0.14338963 0.073500134 0.07793954 0.053668886 0.02994561
0.038498208 -0.052807506 0.038895022 0.02402334 -0.0062385923 -0.067551225 0.08484463 0.024632713
0.13504621 -0.15116687 -0.029703729 0.031229377 -0.051018883 -0.11628112 -0.0659687 -0.08558519
0.009863019 0.1315079 -0.08465413 -0.11416766 -0.002451231 0.0021447255 -0.0075250445 -0.05479737
0.063043065 -0.11814528 0.067248635 0.0692524 -0.0055888863 -0.16302472 0.15655604 0.06637105
0.033540685 -0.080145076 0.1851466 0.0030877455 -0.034313224 0.032278176 0.07762524 -0.09971604
0.04937272 -0.13781969 -0.043362718 -0.066826046 0.045966968 -0.034688447 0.14766254 -0.012931395
0.11310358 0.07990905 0.059170447 -0.09173019 -0.022429733 -0.119819336 0.04078469 -0.068450816
0.17577355 -0.10206167 -0.013329432 -0.060270477 0.11694561 -0.08073578 0.07252028 0.11081942
00000000: 0798 f13b 7eef 9c3b f055 053e 2bdf a03d
00000010: 9704 5d3d ac37 a33c 0108 f2bc 37fe 333e
00000020: 303a 3d3c 4d53 d7bd d556 af3b 40a4 55bd
00000030: 0d61 483e 41b0 27be 48ae 123d 5ad3 f2bd
00000040: 9f09 c9bd 3b3e 0c3c e00d 84ba 8a46 34be
00000050: 3bbc 383c f77f 503d 55b1 9a3d dc81 733c
00000060: 8fd2 86be aad2 f5bc a14b fdbd a894 29be
00000070: 07e5 643c 9902 9f3c 91ae 073d ec74 06bd
00000080: eba9 9f3d 01e5 943d c981 41bb 6df6 903e
00000090: 462f 883d 5e27 c0bc 9324 183e 797e 2abe
000000a0: bef9 e03d 7395 8b3d 02a3 9a3b 8894 4abd
000000b0: 53b1 0a3e 90b8 f33c 3097 183d d0a1 19be
000000c0: 36ef d03d 5f9c 2d3d 0fee edbc f990 a83b
000000d0: 4dd3 c4bd fb56 b73d 74fc 34bc be65 e2bd
000000e0: 78da 1bbe 196e 893e 5ab6 f4bd fb00 b7bd
000000f0: 6a16 a3bd 5efe 74bd 6904 c9bd 0ddf 483e
00000100: 770d 6ebd 15db 8bbd b8de 1b3c 3b0c d6bd
00000110: 3f12 23be d069 63be d1d4 9d3d 1acf 183a
00000120: 3038 003e 157a 0cbd d2b1 043d 9688 503d
00000130: 9d39 b1bd 38e7 d43d a788 b4bd 8319 913c
00000140: 1797 0dbe 4ec4 f7ba baad f8bd 38f6 90bd
00000150: a269 ddbd cab2 213e 40a3 0a3d f4cd 92bd
00000160: 0293 cbbd 76c1 9ebd 2eca 443b 8a1f e6bc
00000170: 0dd2 92bd d201 2bbe f96e 543d 647a 75bc
00000180: 9bba 1c3d ac38 1abd 77ab 973d 5259 b73d
00000190: c4e3 d4bb 45c8 f33a 9858 b83c 2eb7 67bd
000001a0: 4e4e 273b 1804 cc3d 0c1c 163c ec2e d93d
000001b0: 3efc d8bb d260 e2bd 7d89 683d 92eb 03be
000001c0: d89a cc3c 5ea5 8a3c ca4a fdbc 9b0f 653d
000001d0: e911 203d 2757 55bc 22b1 09be 2014 53bd
000001e0: d283 213e e51c e3bd 68fa 0c3e a410 b1bd
000001f0: 9395 7e3c 7763 9cbd d832 fd3c 3e80 4ebd
00000200: 93a9 06be 7a6a 583d 64f1 953d 5163 5c3d
00000210: 759f 203c c9e8 f13d a55a 823c 1699 dfbd
00000220: ab87 14bd ce5b b83d 3b5a 953c 1367 ccbd
00000230: 4dbd 07be c676 0cbe 2d42 883d 465f 933c
00000240: 7951 05bd 9630 463d 7cc4 05be cb50 ea3c
00000250: cd7b 7ebc 4f6b 1cbe fbe8 16bd c0ac 943c
00000260: 1c87 043c 2e11 043d 1855 7a3d 9577 c6bd
00000270: c52f 6b3d 6468 fc3d 667a 263e d56e 383d
00000280: 4ea0 79bc ee28 b13d 7404 e3bd 2d8e 1cbd
00000290: 57d9 a83c d629 e33d 2f45 6f3d c2b9 febd
000002a0: 3edf a63d 4187 96bd 8a84 10be 1921 9a3d
000002b0: eb04 c13c 618a e03c ed53 253d 4893 ca3d
000002c0: 550e 4ebc f123 313d 378e 72bd e0c8 40bd
000002d0: 8583 dbbd 35be 723e 6da2 9d3d a9e3 9f3c
000002e0: 61b1 afba 5f92 283e 78b9 afbd bbd4 123e
000002f0: 3d87 963d c49e 9f3d e8d3 5b3d 7f50 f53c
00000300: 4cb0 1d3d af4c 58bd 6350 1f3d 98cc c43c
00000310: 1b6d ccbb 4c58 8abd 05c3 ad3d 8bca c93c
00000320: 8e49 0a3e 7dcb 1abe 3c55 f3bc c0d4 ff3c
00000330: 2df9 50bd cc24 eebd 991a 87bd 4a47 afbd
00000340: 8098 213c 02aa 063e 255f adbd bcd0 e9bd
00000350: d5a4 20bb 868e 0c3b a694 f6bb 3573 60bd
00000360: b91c 813d 27f6 f1bd a7b9 893d 34d4 8d3d
00000370: fa22 b7bb f4ef 26be 3a50 203e 8ced 873d
00000380: f561 093d 1a23 a4bd 1297 3d3e c65b 4a3b
00000390: 068c 0cbd 1f36 043d fbf9 9e3d ec37 ccbd
000003a0: 0d3b 4a3d 9b20 0dbe 1b9d 31bd 18dc 88bd
000003b0: dc47 3c3d 7915 0ebd d934 173e 34de 53bc
000003c0: daa2 e73d 5ba7 a33d b65c 723d 0add bbbd
000003d0: 8fbe b7bc d763 f5bd d90d 273d f12f 8cbd
000003e0: fbfd 333e b505 d1bd b163 5abc 2dde 76bd
000003f0: 2e81 ef3d cd58 a5bd 8385 943d 4bf5 e23d

branch.net.net.4.bias f4 [64]
-0.026373956 -0.017231837 -0.10451897 0.038173284 -0.04453727 -0.06742639 0.018906878 -0.13433129
-0.048654206 0.0028066703 0.11988416 -0.10825964 -0.065203555 0.028378345 -0.099850774 0.002979739
-0.056967992 0.03193349 0.04490282 -0.10867359 -0.15859097 -0.06860147 -0.021613173 0.0035367322
0.08353442 0.075514205 0.0070736133 -0.0454649 0.06887953 -0.021708323 -0.06474182 -0.045291085
-0.09934992 0.08069733 0.08141261 -0.104925 -0.0689557 -0.043264188 -0.008112127 0.021086168
0.07073503 -0.14971575 -0.057143252 0.017090736 -0.10114925 -0.013139202 -0.085373424 -0.0072191176
-0.030508824 0.11522874 -0.023343425 0.1154001 -0.030291338 0.0721894 0.033134338 0.07135695
0.15707853 -0.05645494 -0.16289474 -0.027264863 -0.119810015 0.018070975 0.024927074 0.05050812
00000000: 320e d8bc c829 8dbc 0b0e d6bd 975b 1c3d
00000010: b66c 36bd d916 8abd 99e2 9a3c 248e 09be
00000020: a249 47bd 1df0 373b d485 f53d 3bb7 ddbd
00000030: 7189 85bd b479 e83c 907e ccbd ba47 433b
00000040: 4557 69bd b1cc 023d 05ec 373d 4290 debd
00000050: ac65 22be ed7e 8cbd 1c0e b1bc 85c8 673b
00000060: 1814 ab3d 31a7 9a3d c5c9 e73b 6739 3abd
00000070: b610 8d3d a7d5 b1bc 5c97 84bd 2583 39bd
00000080: f977 cbbd a444 a53d a8bb a63d ebe2 d6bd
00000090: a538 8dbd ca35 31bd bae8 04bc e6bc ac3c
000000a0: 87dd 903d 164f 19be 0b0f 6abd df01 8c3c
000000b0: 5727 cfbd cf45 57bc 43d8 aebd 598e ecbb
000000c0: a4ed f9bc 0cfd eb3d b63a bfbc e356 ec3d
000000d0: 8a25 f8bc 09d8 933d dfb7 073d 9823 923d
000000e0: 32d9 203e 4c3d 67bd e1cd 26be 905a dfbc
000000f0: f45e f5bd 9509 943c dd33 cc3c 9ae1 4e3d

branch.net.net.6.weight f4 [64, 64]
-0.16941994 -0.028612617 0.06248517 0.019423408 -0.053663455 0.077286266 -0.07143386 0.03146597
-0.13585703 0.006797002 -0.0035155616 0.11844408 -0.14866997 0.18563569 0.11395837 0.18258935
-0.009970217 0.09751343 -0.0983601 -0.13095008 -0.10722655 0.0213323 -0.14195606 0.028619166
-0.033532564 0.114485815 -0.12879847 -0.05331967 -0.021200659 -0.14491951 -0.0663619 0.08727728
-0.19884074 -0.040383395 0.102143705 0.0037231077 -0.027605591 -0.0089664 0.0909184 -0.11925242
0.009013568 -0.1933864 -0.13863957 -0.05000677 -0.16514255 -0.036405955 -0.012870205 -0.11547959
-0.014900969 0.07737204 0.07006097 0.0629994 -0.10826013 -0.084171005 -0.10637872 0.010622417
0.12860034 -0.18088144 0.08994608 -0.14775889 -0.021172771 -0.027212424 0.11138012 0.08359257
0.023619972 0.07629833 0.059253205 -0.060008753 0.057020143 -0.08515992 0.19386026 0.004086798
-0.015329699 -0.09798222 -0.09170973 0.11818362 0.16778466 -0.17385224 -0.16006465 -0.17540528
-0.08826271 0.10533907 0.14030503 -0.027260058 -0.18768847 0.09413223 -0.017091976 0.022181477
-0.04378678 0.059784412 0.03740457 -0.19713053 0.011644588 -0.11383712 -0.07066371 -0.1233346
0.042095724 0.062996 -0.06482729 0.06592555 -0.034823608 -0.104910135 -0.018039366 0.18372972
0.05084936 0.0050626155 0.24535163 -0.123885565 -0.09354539 0.115240194 -0.10007371 -0.10734795
0.089261815 -0.054486852 0.013705193 -0.06637322 0.14101064 -0.0035257752 0.27162245 -0.02828627
0.069522806 0.1339483 -0.023308203 0.15246065 -0.14068921 0.021067884 0.10211854 -0.10140234
-0.019246673 0.035962574 0.029016674 0.061092757 0.07099179 -0.08270461 -0.044723805 -0.1499341
0.15747096 0.041556798 0.09615648 0.01431699 0.11175293 -0.12511688 -0.009725904 0.02303472
-0.090703584 -0.02482513 -0.09720522 0.058069427 -0.08609605 -0.05887594 0.037397116 -0.027230298
0.057764098 -0.0050584003 -0.07734467 -0.1218062 0.079859 0.07069881 0.009090486 -0.107060365
0.052517634 -0.026487442 -0.002255076 -0.1523591 -0.055944305 0.06409346 0.07994055 0.04267386
0.07084593 -0.093054935 0.0775497 0.00990586 0.14046307 0.02708707 0.097334236 -0.02378023
-0.04805548 -0.103062384 0.014715387 -0.13164642 -0.095381096 -0.082277745 0.0636793 0.12635271
-0.010119885 0.08262688 0.0447373 -0.02490142 0.06966524 -0.022737144 0.13099334 -0.13159871
0.11941473 0.30205935 -0.14101458 0.06756573 0.026361616 0.24445373 -0.014070461 -0.11330285
0.041729864 0.0728071 0.08075166 0.014668504 0.05678865 -0.0660487 -0.084137 -0.12434669
-0.031161083 -0.09089049 0.10051494 0.080559686 -0.23236316 0.083677545 0.18289441 -0.0034389116
-0.15803908 -0.08826923 -0.059026234 0.051406626 0.0063566063 -0.063548274 0.0991356 0.05262406
-0.019694675 -0.021624232 -0.052307326 0.035406113 0.069938734 -0.02147339 0.16882475 -0.03431078
0.25840127 -0.050659455 -0.12452755 -0.021963026 -0.091445096 -0.0687743 -0.07748879 0.10529251
-0.04532608 0.15805984 -0.13007261 -0.09650075 0.14669262 -0.06051896 0.15064292 0.11046751
0.0041392534 -0.023361681 -0.112901464 0.07938047 -0.20329766 0.014119697 0.14227483 -0.12036572
00000000: 6c7c 2dbe 0265 eabc 73f0 7f3d d71d 9f3c
00000010: 36ce 5bbd 4348 9e3d ea4b 92bd 76e2 003d
00000020: 1b1e 0bbe 63b9 de3b 5665 66bb cf92 f23d
00000030: f13c 18be 4817 3e3e 0263 e93d b4f8 3a3e
00000040: 1f5a 23bc 1fb5 c73d 0571 c9bd c717 06be
00000050: 9899 dbbd 13c1 ae3c ee5c 11be be72 ea3c
00000060: 7159 09bd 8a77 ea3d bfe3 03be ba65 5abd
00000070: 01ad adbc c865 14be bfe8 87bd 6ebe b23d
00000080: e89c 4bbe 0f69 25bd b830 d13d 62ff 733b
00000090: 1f25 e2bc cfe7 12bc 6d33 ba3d 9d3a f4bd
000000a0: a5ad 133c 1607 46be 88f7 0dbe e6d3 4cbd
000000b0: 211b 29be 691e 15bd 8ddd 52bc 9080 ecbd
000000c0: 3223 74bc 3b75 9e3d 207c 8f3d d405 813d
000000d0: 7db7 ddbd d961 acbd 16dd d9bd a509 2e3c
000000e0: cfaf 033e fc38 39be a735 b83d 1b4e 17be
000000f0: 8572 adbc 97ec debc 431b e43d 9532 ab3d
00000100: ac7e c13c 4d42 9c3d 7db3 723d bdcb 75bd
00000110: f48d 693d 5368 aebd 4e83 463e 8cea 853b
00000120: 6b29 7bbc e7aa c8bd 50d2 bbbd 410a f23d
00000130: becf 2b3e 5206 32be fde7 23be 719d 33be
00000140: 14c3 b4bd 03bc d73d 1fac 0f3e 7c50 dfbc
00000150: 6831 40be 66c8 c03d 7904 8cbc eeb5 b53c
00000160: c459 33bd 80e0 743d 8935 193d 96dc 49be
00000170: f1c8 3e3c 7023 e9bd 23b8 90bd da96 fcbd
00000180: 916c 2c3d 0c04 813d 2cc4 84bd fa03 873d
00000190: 33a3 0ebd 20db d6bd 4bc7 93bc a523 3c3e
000001a0: 6b47 503d 4ce4 a53b 753d 7b3e b7b7 fdbd
000001b0: ba94 bfbd 0d03 ec3d 72f3 ccbd 3ed9 dbbd
000001c0: e6ce b63d 9b2d 5fbd bf8b 603c afee 87bd
000001d0: 1865 103e b110 67bb 1912 8b3e 9cb8 e7bc
000001e0: f961 8e3d be29 093e d8f0 bebc a51e 1c3e
000001f0: d510 10be 8e96 ac3c 8623 d13d 08ac cfbd
00000200: 33ab 9dbc 7e4d 133d 60b4 ed3c 663c 7a3d
00000210: 2564 913d 0961 a9bd 4f30 37bd 5388 19be
00000220: 1140 213e 7637 2a3d b0ed c43d cf91 6a3c
00000230: b8de e43d a41e 00be 6659 1fbc 4fb3 bc3c
00000240: cdc2 b9bd 125e cbbc 8813 c7bd 35da 6d3d
00000250: 2053 b0bd e627 71bd b82d 193d 1312 dfbc
00000260: 0c9a 6c3d f0c0 a5bb e266 9ebd 8775 f9bd
00000270: 1e8d a33d 8aca 903d 43f0 143c 7742 dbbd
00000280: bb1c 573d 31fc d8bc e6c9 13bb 0604 1cbe
00000290: db25 65bd 6f43 833d dfb7 a33d c9ca 2e3d
000002a0: ac17 913d 9693 bebd 61d2 9e3d 304c 223c
000002b0: 8dd5 0f3e b4e5 dd3c 2c57 c73d c2ce c2bc
000002c0: d3d5 44bd 5f12 d3bd ce18 713c 52ce 06be
000002d0: 2a57 c3bd 3c81 a8bd 4b6a 823d 9b62 013e
000002e0: e0cd 25bc 4838 a93d 763e 373d 10fe cbbc
000002f0: a6ac 8e3d 3f43 babc 1e23 063e d0c1 06be
00000300: b68f f43d 86a7 9a3e 2066 10be e75f 8a3d
00000310: 51f4 d73c 1452 7a3e ca87 66bc 530b e8bd
00000320: efec 2a3d e41b 953d 2061 a53d 2a54 703c
00000330: 379b 683d 8a44 87bd 0550 acbd 7aa9 febd
00000340: 8745 ffbc cb24 babd c7da cd3d 7afc a43d
00000350: 9cf0 6dbe 225f ab3d ac48 3b3e 5d5f 61bb
00000360: ffd4 21be 80c6 b4bd 7ec5 71bd c18f 523d
00000370: 144b d03b 9925 82bd 9b07 cb3d 548c 573d
00000380: ba56 a1bc 4d25 b1bc 3540 56bd 0006 113d
00000390: 0a3c 8f3d f6e8 afbc 65e0 2c3e 7689 0cbd
000003a0: 2c4d 843e 4a80 4fbd 4d08 ffbd ceeb b3bc
000003b0: 9147 bbbd 8ad9 8cbd 71b2 9ebd 99a3 d73d
000003c0: d7a7 39bd 70da 213e c131 05be 2fa2 c5bd
000003d0: 9736 163e bbe2 77bd 2342 1a3e ca3c e23d
000003e0: 93a2 873b ff60 bfbc e238 e7bd 3a92 a23d
000003f0: 432d 50be 4d56 673c 7eb0 113e 4d82 f6bd

branch.net.net.6.bias f4 [64]
0.07765905 0.07070883 0.01486043 0.20034337 -0.12269289 0.07126945 0.03788421 -0.009920561
-0.05856372 0.042236432 -0.02058022 0.023045477 -0.0047444818 -0.0026156208 0.06887637 -0.018636247
-0.014083789 0.046753433 0.04343446 0.123187706 0.042671137 0.08735476 0.10755335 -0.119849436
-0.08261398 -0.07312549 -0.014664396 0.041569892 0.10256301 -0.047331564 0.07281203 -0.04840439
-0.120865844 0.055584293 0.025678331 -0.08844634 -0.024080925 0.066426635 0.038154658 0.11259999
-0.04611552 -0.083185405 0.08749096 0.06214301 0.055979606 0.076833144 -0.08085936 0.0051632323
0.13534316 -0.014778117 0.040329654 0.10591269 0.07312963 0.06381686 -0.030460218 0.061935693
0.23571011 0.09490745 -0.08100849 -0.023389254 0.013050813 -0.068414785 -0.07232189 -0.0137482155
00000000: b50b 9f3d cbcf 903d 2979 733c d026 4d3e
00000010: 6946 fbbd b8f5 913d 792c 1b3d d989 22bc
00000020: 83e0 6fbd 1c00 2d3d d997 a8bc dec9 bc3c
00000030: 9977 9bbb d66a 2bbb 0e0f 8d3d 0bab 98bc
00000040: b1bf 66bc 8780 3f3d 55e8 313d d649 fc3d
00000050: eec7 2e3d 0de7 b23d ee44 dc3d 9f73 f5bd
00000060: 8531 a9bd d1c2 95bd ef42 70bc 3145 2a3d
00000070: 8e0c d23d bede 41bd 791e 953d af43 46bd
00000080: 8388 f7bd 5bac 633d 5d5b d23c 5b23 b5bd
00000090: 5c45 c5bc b00a 883d 0f48 1c3d d39a e63d
000000a0: a1e3 3cbd 1c5d aabd 762e b33d ab89 7e3d
000000b0: df4a 653d b25a 9d3d 9899 a5bd 5530 a93b
000000c0: 6697 0a3e ea1f 72bc b530 253d c1e8 d83d
000000d0: fdc4 953d 6ab2 823d b587 f9bc 48b0 7d3d
000000e0: fe5d 713e d65e c23d c7e7 a5bd d29a bfbc
000000f0: 14d3 553c 0d1d 8cbd 801d 94bd 3240 61bc

branch.net.net.8.weight f4 [64, 64]
0.04762581 0.13408886 0.06406501 0.11504015 -0.0001894609 -0.063250266 0.068314105 0.030118236
-0.07405096 0.047313057 0.007421762 0.1963471 0.17662086 0.038168184 0.17174262 -0.024652388
-0.022672283 -0.059570994 0.00703184 -0.060959455 -0.085029 -0.10759002 0.07379169 0.18223713
-0.008949493 0.10001211 0.039668497 0.0003707868 -0.01197996 0.017624188 0.08009867 -0.052611213
0.16316298 -0.048522785 -0.108550474 0.06431116 -0.004667883 0.02261353 0.039156068 -0.071887
0.012047433 0.08878105 0.004057848 0.100766234 0.080584586 0.094474316 0.08990345 0.047361527
0.16777092 -0.07820262 -0.009732516 -0.065905504 0.009427402 -0.038794037 -0.01051782 0.0033166006
-0.05493159 0.06306173 0.023524826 -0.025567126 0.1456763 0.040755395 0.15503456 0.088189535
-0.06346778 0.05507708 0.0701782 0.08928974 0.12284753 0.08301075 -0.13184857 -0.06918328
0.119780526 -0.049317483 -0.1110474 -0.10214501 0.08487803 0.097050376 0.11814228 -0.06478652
0.05353685 -0.030435976 0.02312896 -0.060971122 -0.02355658 -0.1449851 -0.037626844 -0.09069866
0.07817225 -0.14028318 -0.06934569 -0.010162773 -0.1101565 0.030952755 0.029245425 0.071002804
-0.040790867 -0.011465389 -0.011076221 -0.020763423 0.05107399 0.052513123 0.030981006 -0.0033714408
-0.154443 0.097051896 -0.0667285 0.105123214 0.11933445 0.15935656 -0.043105304 0.066035345
0.041271586 0.030199794 0.12705383 -0.08362806 0.08202593 0.04920683 0.017240748 -0.054836776
0.091765665 -0.05133457 0.052895553 -0.11623183 0.14852387 0.05521878 -0.03724797 0.12625605
0.02954153 0.019050842 -0.08098654 -0.043779053 -0.058291953 0.07639307 0.07224129 -0.13837352
-0.09819866 0.015878491 0.13128242 0.022244368 -0.05952369 -0.105779104 -0.0122932205 0.07963895
-0.12201559 0.124873 -0.15724899 -0.09122976 -0.022831783 0.13996138 0.00041023205 0.10495576
-0.08083221 0.0407286 0.016662292 -0.06487608 0.15502086 -0.014254558 -0.068658106 0.034196854
0.05381122 0.129644 0.0014258897 -0.13939874 0.0074591204 -0.08133506 -0.06654809 -0.045596343
-0.076744884 0.14151801 -0.02566158 -0.05457168 0.036712777 -0.08745644 0.09065835 -0.08813929
0.054313123 0.10510175 -0.098450206 0.17782126 -0.03324093 0.07077278 -0.040619563 -0.14751288
0.01726466 -0.08587042 -0.1610839 0.18446857 0.1332063 -0.01702213 0.04185116 0.051214423
0.1546179 0.008771462 0.06158072 0.36305186 -0.13151014 -0.09190042 0.030836474 -0.20061111
-0.41187695 0.025725607 -0.061322708 0.09822071 0.0439247 -0.038118735 -0.115167275 0.019892741
0.13029441 -0.12783098 -0.21435295 -0.038285263 0.14758901 0.0743566 0.055946924 -0.11537056
-0.14736229 0.012151647 -0.046434533 0.014554734 0.085591815 -0.0050445036 -0.17717433 0.024927186
0.18740334 0.12835322 -0.12387249 -0.015269906 0.092048794 0.38808513 0.004575092 0.125081
-0.0035233905 -0.07957335 -0.05370025 0.021879502 -0.015031843 -0.2267 0.09544963 0.13357763
0.0014339811 -0.41076502 -0.087860264 -0.10777478 0.020231124 0.11250448 0.22373 0.0660806
0.07917103 -0.0030730732 -0.020061767 0.14030316 0.10337781 0.20037779 0.12020093 -0.038792912
00000000: 4813 433d 974e 093e 8434 833d 2c9a eb3d
00000010: 06aa 46b9 5b89 81bd 44e8 8b3d 85ba f63c
00000020: 08a8 97bd 56cb 413d 4132 f33b 370f 493e
00000030: 19dc 343e 3e56 1c3d 4cdd 2f3e cef3 c9bc
00000040: 39bb b9bc b700 74bd 596b e63b 9fb0 79bd
00000050: af23 aebd 2858 dcbd 1920 973d 5f9c 3a3e
00000060: e5a0 12bc 26d3 cc3d 6f7b 223d 2966 c239
00000070: 9847 44bc 9a60 903c c60a a43d db7e 57bd
00000080: 3214 273e d4bf 46bd b64f debd 92b5 833d
00000090: 0af5 98bb 0240 b93c 1d62 203d 7e39 93bd
000000a0: 9962 453c d7d2 b53d b2f7 843b 875e ce3d
000000b0: 8809 a53d c07b c13d 4d1f b83d 29fe 413d
000000c0: 24cc 2b3e b228 a0bd 2175 1fbc 77f9 86bd
000000d0: 6475 1a3c 7fe6 1ebd ef52 2cbc 535b 593b
000000e0: f2ff 60bd 8226 813d 23b7 c03c 2672 d1bc
000000f0: 2b2c 153e 21ef 263d 61c1 1e3e b79c b43d
00000100: 65fb 81bd 8198 613d 97b9 8f3d 8add b63d
00000110: 7c97 fb3d 8a01 aa3d 5003 07be f7af 8dbd
00000120: 7e4f f53d 2101 4abd d26c e3bd 6731 d1bd
00000130: 88d4 ad3d 59c2 c63d 94f4 f13d ccae 84bd
00000140: 7549 5b3d de54 f9bc f278 bd3c dbbc 79bd
00000150: bbf9 c0bc f976 14be 9b1e 1abd 38c0 b9bd
00000160: c618 a03d 65a6 0fbe 1d05 8ebd c281 26bc
00000170: bb99 e1bd a290 fd3c 1a94 ef3c eb69 913d
00000180: 5314 27bd 54d9 3bbc 0a79 35bc 0e18 aabc
00000190: f632 513d 0018 573d e1cb fd3c 64f3 5cbb
000001a0: 4e26 1ebe 25c3 c63d f4a8 88bd d74a d73d
000001b0: 9f65 f43d 5e2e 233e 308f 30bd 8a3d 873d
000001c0: 650c 293d 8f65 f73c 661a 023e 3045 abbd
000001d0: 36fd a73d 1a8d 493d 783c 8d3c 879c 60bd
000001e0: a3ef bb3d 3344 52bd 02a9 583d f40a eebd
000001f0: a416 183e 162d 623d 5491 18bd 4449 013e
00000200: 1401 f23c 8310 9c3c 45dc a5bd aa51 33bd
00000210: 8bc3 6ebd f873 9c3d 3ef3 933d cab1 0dbe
00000220: 611c c9bd 9c13 823c e66e 063e d239 b63c
00000230: 1dcf 73bd b7a2 d8bd 8169 49bc bf19 a33d
00000240: 4fe3 f9bd 6abd ff3d e105 21be abd6 babd
00000250: b809 bbbc 0952 0f3e 6a14 d739 0cf3 d63d
00000260: 5c8b a5bd 08d3 263d 5c7f 883c c0dd 84bd
00000270: cabd 1e3e f38b 69bc 9f9c 8cbd 0012 0c3d
00000280: 2769 5c3d 66c1 043e ebe4 ba3a 8bbe 0ebe
00000290: a36b f43b ff92 a6bd 5d4a 88bd 3bc3 3abd
000002a0: 6c2c 9dbd 19ea 103e 3c38 d2bc 8e86 5fbd
000002b0: 2360 163d 5d1c b3bd 16ab b93d 5f82 b4bd
000002c0: 7077 5e3d 963f d73d 43a0 c9bd c716 363e
000002d0: a427 08bd 52f1 903d b360 26bd 9e0d 17be
000002e0: 9e6e 8d3c d5dc afbd 2ef3 24be 54e5 3c3e
000002f0: 3b67 083e fe71 8bbc 1f6c 2b3d 37c6 513d
00000300: 2854 1e3e 2eb6 0f3c 113c 7c3d efe1 b93e
00000310: 98aa 06be 4a36 bcbd c69c fc3c 006d 4dbe
00000320: 89e1 d2be 82be d23c 852d 7bbd f127 c93d
00000330: 63ea 333d 6422 1cbd d2dc ebbd 1af6 a23c
00000340: e66b 053e 20e6 02be 577f 5bbe 02d1 1cbd
00000350: 9321 173e 4648 983d 9a28 653d 6647 ecbd
00000360: 24e6 16be b417 473c 2332 3ebd fb76 6e3c
00000370: c34a af3d 5d4c a5bb 306d 35be 1934 cc3c
00000380: a9e6 3f3e 076f 033e dcb0 fdbd a12e 7abc
00000390: 1484 bc3d 18b3 c63e a7ea 953b 3c15 003e
000003a0: afe8 66bb 5af7 a2bd cbf4 5bbd a43c b33c
000003b0: 1f48 76bc 0b24 68be 187b c33d 93c8 083e
000003c0: 6cf4 bb3a cb4f d2be 15f0 b3bd 06b9 dcbd
000003d0: bebb a53c c068 e63d 7a19 653e 4455 873d
000003e0: 6c24 a23d 9d65 49bb 9358 a4bc a2ab 0f3e
000003f0: bfb7 d33d d62f 4d3e e82b f63d 51e5 1ebd

branch.net.net.8.bias f4 [64]
0.010270826 0.034930225 -0.0028816597 -0.0021486846 0.036246926 0.079152055 0.08125163 0.087414905
-0.06867546 -0.07872679 0.07468742 0.025018612 0.02335592 0.0054133665 -0.049853675 0.10304141
0.09784733 -0.041249085 0.015486106 -0.05236823 0.092348576 0.0529904 -0.114487074 0.10160399
-0.0641398 -0.0041958177 -0.030857569 -0.14274648 0.1162964 0.060811132 -0.08930049 -0.13373303
0.06532389 0.14501415 0.1378762 0.09424167 -0.107100055 -0.065843716 0.07604761 -0.08998474
-0.11865937 -0.1394091 0.032116767 0.07797691 -0.060088295 0.05791071 0.01153576 -0.100374326
-0.043700002 -0.07601542 -0.07713878 -0.041764714 0.07369309 -0.07523035 -0.11798706 0.17643158
-0.0033997395 0.03837174 -0.004961269 0.14398761 0.14958037 0.006341027 0.075038016 -0.06380785
00000000: f746 283c ff12 0f3d 3ada 3cbb f2d0 0cbb
00000010: a877 143d 791a a23d 4167 a63d 9606 b33d
00000020: b8a5 8cbd 833b a1bd b8f5 983d d5f3 cc3c
00000030: ea54 bf3c 9c62 b13b 5e33 4cbd 6007 d33d
00000040: 2e64 c83d cdf4 28bd 70b9 7d3c 1280 56bd
00000050: 4021 bd3d 760c 593d 3378 eabd c115 d03d
00000060: ba5b 83bd 127d 89bb 03c9 fcbc 222c 12be
00000070: cf2c ee3d 1815 793d 2de3 b6bd 50f1 08be
00000080: 88c8 853d 977e 143e 6b2f 0d3e c701 c13d
00000090: 4657 dbbd 12d9 86bd d9be 9b3d eb49 b8bd
000000a0: af03 f3bd 42c1 0ebe df8c 033d 5cb2 9f3d
000000b0: 251f 76bd c833 6d3d 7c00 3d3c 0e91 cdbd
000000c0: c6fe 32bd f9ad 9bbd f0fa 9dbd 7a11 2bbd
000000d0: 67ec 963d 5f12 9abd 33a3 f1bd 7baa 343e
000000e0: 2ace 5ebb b02b 1d3d 2492 a2bb 7d71 133e
000000f0: 992b 193e 64c8 cf3b 88ad 993d b1ad 82bd

branch.net.net.10.weight f4 [64, 64]
0.067469865 0.023149151 0.05594506 0.06536699 0.05267415 0.15897809 0.052803297 0.09795583
-0.033042263 0.07229323 0.09899906 0.13450724 0.095789514 0.02485474 -0.021548644 0.08103835
-0.00874886 0.008140994 -0.14845784 0.049692422 0.058471765 0.06472821 -0.010883876 0.1429414
-0.011101394 -0.11009252 0.0022048242 -0.110766575 0.03915063 -0.096605726 0.06491948 -0.1292098
-0.0066669052 0.2230208 0.12485132 -0.24111238 -0.071242124 0.051823374 0.106918454 -0.15329798
0.072145686 -0.00045672347 0.107291795 -0.09876688 -0.021094933 0.1839728 -0.064210825 -0.22043519
-0.002407828 0.035753414 0.06442519 0.016631346 0.09137743 -0.10123835 -0.12544301 0.0087962365
0.15629725 0.10897316 -0.03684427 0.0914047 0.122083455 0.012686991 -0.06792888 0.13318561
-0.04868379 0.04135205 0.005867583 0.07654982 -0.025167333 -0.088171065 0.064349115 0.14979275
-0.033690803 0.047363885 -0.1517334 -0.16383956 -0.079591736 -0.0016163213 -0.009792237 0.059412085
-0.037398793 0.123020045 -0.05973137 -0.18813367 -0.010212344 0.087825134 -0.09597002 -0.17819408
0.0370939 -0.015872775 -0.12814571 0.03857425 -0.13586201 -0.06906359 0.010895011 0.07503485
-0.015178353 -0.045023583 -0.17472962 -0.0039181937 -0.16740316 0.109625466 0.005636913 0.13610794
-0.038506404 -0.015468126 0.03367656 0.17268994 0.051929362 -0.09939854 -0.04767991 0.117093146
0.020631922 -0.10906797 0.07112725 -0.12969008 0.011740523 0.11233019 0.03290642 -0.16052803
-0.007850496 0.080418415 0.035049435 -0.101608455 0.121705994 -0.1331206 -0.1261866 -0.14736582
-0.034583587 -0.03178657 0.009577885 -0.09806244 -0.05894048 0.10945182 -0.013498299 -0.07547951
-0.016927078 -0.039342944 0.024013292 0.010908201 -0.150187 0.045169327 -0.0051953187 0.08731827
0.09132114 0.052310087 0.095429905 0.08376578 -0.08003002 -0.104502164 0.116893895 0.013369346
-0.08848391 -0.0816364 0.14091247 -0.024619501 0.05073501 0.10107797 -0.015370197 -0.12739919
0.057087228 -0.08803385 -0.019583667 0.10650888 0.07002344 0.015228612 -0.07295666 -0.07318784
0.062425695 -0.037331376 0.056970626 -0.043869816 0.012365993 -0.04299979 0.122321375 0.014119523
-0.04140132 -0.036736954 -0.060416684 0.12715325 -0.13869305 -0.13330819 0.043443076 0.12983744
0.07217329 -0.06039662 0.026274027 0.0981758 0.033919252 -0.06906611 -0.07439663 0.12545992
0.05499772 0.084342495 -0.01861805 0.13440491 0.028418565 -0.103202954 0.010073234 -0.15887149
0.12140451 0.08727604 -0.12339086 -0.010387109 -0.01322052 -0.008029443 -0.0018664893 0.056106985
-0.0417932 -0.047418784 -0.057821494 -0.10146737 -0.116941065 -0.15830493 0.14500438 -0.08286791
-0.091794096 0.03462924 0.03088829 0.004529792 0.015314114 0.0707051 -0.062341288 0.1566057
0.10942789 0.09225155 0.08874301 -0.20929514 0.08713166 -0.018864479 0.045709096 -0.10017598
0.09272848 -0.056507293 0.058058575 0.025979517 0.09944384 -0.0047876704 -0.15305993 -0.009487465
0.06424785 -0.106198646 0.020042546 0.005463536 -0.12183404 0.09428251 -0.024944503 -0.112042375
0.008315086 0.15942295 -0.077510774 0.000923098 -0.09682119 0.0324486 0.12045213 -0.03694685
00000000: a42d 8a3d 4aa3 bd3c a626 653d 21df 853d
00000010: d9c0 573d 27cb 223e 4548 583d 119d c83d
00000020: 5357 07bd 790e 943d 05c0 ca3d 44bc 093e
00000030: 4b2d c43d 2b9c cb3c c886 b0bc 6ff7 a53d
00000040: 6157 0fbc ce61 053c 5505 18be 488a 4b3d
00000050: 1780 6f3d 3990 843d 4952 32bc 3b5f 123e
00000060: 9fe2 35bc 3078 e1bd d07e 103b 96d9 e2bd
00000070: 695c 203d 39d9 c5bd 81f4 843d 934f 04be
00000080: 0e76 dabb 915f 643e 0db2 ff3d 2ae6 76be
00000090: 64e7 91bd bf44 543d 10f8 da3d 25fa 1cbe
000000a0: 1ec1 933d 6374 efb9 cdbb db3d 4a46 cabd
000000b0: 48cf acbc 5e63 3c3e f780 83bd c3b9 61be
000000c0: a7cc 1dbb 2c72 123d 5bf1 833d 763e 883c
000000d0: 1724 bb3d 0d56 cfbd 2274 00be 171e 103c
000000e0: 630c 203e 522d df3d 04ea 16bd 6332 bb3d
000000f0: e406 fa3d 19dd 4f3c 4c1e 8bbd cf61 083e
00000100: a768 47bd c460 293d db44 c03b 27c6 9c3d
00000110: b92b cebc 0893 b4bd 78c9 833d 4563 193e
00000120: 5eff 09bd a200 423d 0060 1bbe 8fc5 27be
00000130: fe00 a3bd beda d3ba 9e6f 20bc 165a 733d
00000140: 7a2f 19bd eff1 fb3d e2a8 74bd 1da6 40be
00000150: ad51 27bc aadd b33d ee8b c4bd 8278 36be
00000160: c6ef 173d 9f07 82bc a138 03be 0800 1e3d
00000170: 691f 0bbe 3671 8dbd fd80 323c dfab 993d
00000180: a0ae 78bc a66a 38bd 52ec 32be 3164 80bb
00000190: bc6b 2bbe 5183 e03d dab5 b83b e15f 0b3e
000001a0: e4b8 1dbd 066e 7dbc 6ff0 093d a2d5 303e
000001b0: e2b3 543d 7691 cbbd 024c 43bd 88ce ef3d
000001c0: 4704 a93c 075f dfbd 2aab 913d 7acd 04be
000001d0: 535b 403c 5f0d e63d e2c8 063d 7661 24be
000001e0: 5e9f 00bc 69b2 a43d ff8f 0f3d 1818 d0bd
000001f0: fe40 f93d c450 08be 0f37 01be 11e7 16be
00000200: 85a7 0dbd a232 02bd 90ec 1c3c f6d4 c8bd
00000210: 936b 71bd 4728 e03d f827 5dbc 0095 9abd
00000220: a8aa 8abc 1126 21bd 86b7 c43c 50b8 323c
00000230: 9fca 19be 7903 393d 7e3d aabb ecd3 b23d
00000240: 9406 bb3d 1a43 563d c170 c33d 658d ab3d
00000250: c7e6 a3bd 3b05 d6bd 1166 ef3d 1a0b 5b3c
00000260: 0d37 b5bd fc30 a7bd 5c4b 103e d6ae c9bc
00000270: 84cf 4f3d f701 cf3d 47d3 7bbc ef74 02be
00000280: 4cd4 693d 174b b4bd ed6d a0bc 5421 da3d
00000290: 7368 8f3d 6e81 793c 4d6a 95bd 82e3 95bd
000002a0: 16b2 7f3d c9e8 18bd 085a 693d d6b0 33bd
000002b0: bc9a 4a3c 8c20 30bd a183 fa3d 9255 673c
000002c0: 6e94 29bd 7d79 16bd 7c77 77bd 7634 023e
000002d0: 8d05 0ebe f181 08be 5ef1 313d 1bf4 043e
000002e0: 97cf 933d 7262 77bd a13c d73c 6510 c93d
000002f0: eaee 0a3d 8872 8dbd 435d 98bd 9178 003e
00000300: 4a45 613d c2bb ac3d e184 98bc 71a1 093e
00000310: 0dce e83c 125c d3bd 350a 253c 35af 22be
00000320: eea2 f83d c8bd b23d 59b4 fcbd b12e 2abc
00000330: e19a 58bc ed8d 03bc fda4 f4ba 70d0 653d
00000340: 592f 2bbd 333a 42bd 3bd6 6cbd 20ce cfbd
00000350: cc7e efbd b01a 22be 077c 143e a7b6 a9bd
00000360: 8bfe bbbd 64d7 0d3d 7009 fd3c a66e 943b
00000370: 0de8 7a3c d6cd 903d 9459 7fbd 3f5d 203e
00000380: bb1b e03d 61ee bc3d e5be b53d 7751 56be
00000390: 1572 b23d ae89 9abc 7639 3b3d 1029 cdbd
000003a0: 6ee8 bd3d 3174 67bd d4ce 6d3d ffd2 d43c
000003b0: 36a9 cb3d e4e1 9cbb bebb 1cbe 5071 1bbc
000003c0: 6094 833d ad7e d9bd 4430 a43c 7607 b33b
000003d0: 2084 f9bd 3017 c13d 6a58 ccbc 7976 e5bd
000003e0: 003c 083c c53f 233e f8bd 9ebd 0ffc 713a
000003f0: 304a c6bd d3e8 043d 9baf f63d 9555 17bd

branch.net.net.10.bias f4 [64]
0.24940662 -0.12429267 0.09350482 0.046279173 0.08837684 -0.07111125 -0.021617565 0.10495792
-0.0013102837 -0.05580453 0.100506574 -0.037986495 -0.04450484 -0.15325658 -0.055847473 -0.116452426
0.121609285 -0.02883643 0.0056349766 0.13116692 0.070990466 0.1280039 0.08948307 0.05977251
-0.14863683 0.09840313 0.054716367 -0.24288613 -0.004568606 0.14726077 0.015893728 0.13955086
-0.2158297 -0.030120334 -0.14477119 -0.030418154 0.04482082 -0.07145247 0.18321963 0.11162394
-0.1158956 -0.07881654 -0.009805504 -0.03851421 -0.01625281 -0.13930696 0.01865204 0.14431313
0.009013184 0.0017330062 -0.06214824 -0.09488954 -0.059662547 -0.050279573 -0.07089001 0.017399458
-0.14210045 0.037534352 -0.09296848 -0.030610235 0.02029286 0.15391731 -0.039546985 -0.15696275
00000000: 7364 7f3e 288d febd 747f bf3d 3b8f 3d3d
00000010: ebfe b43d c6a2 91bd 5217 b1bc 2ef4 d63d
00000020: d3bd abba 4a93 64bd 64d6 cd3d ba97 1bbd
00000030: b54a 36bd 4bef 1cbe 52c0 64bd 9c7e eebd
00000040: 4a0e f93d 603a ecbc 9ca5 b83b 9f50 063e
00000050: 7363 913d 7413 033e e642 b73d 05d4 743d
00000060: 4134 18be 9587 c93d 451e 603d 24b7 78be
00000070: 3fb4 95bb 87cb 163e 9033 823c 6ce6 0e3e
00000080: 7602 5dbe ebbe f6bc e63e 14be 7e2f f9bc
00000090: 0996 373d ac55 92bd ed9d 3b3e 189b e43d
000000a0: ac5a edbd 916a a1bd 44a7 20bc 14c1 1dbd
000000b0: 9d24 85bc 7ca6 0ebe 2acc 983c d2c6 133e
000000c0: 09ac 133c 0a26 e33a 278f 7ebd 7255 c2bd
000000d0: b760 74bd f4f1 4dbd c82e 91bd 4f89 8e3c
000000e0: c882 11be 9fbd 193d 4266 bebd 51c2 fabc
000000f0: 363d a63c 809c 1d3e 05fc 21bd d8ba 20be

trunk.net.0.weight f4 [64, 3]
0.1390433 0.06814175 -0.48283353 0.4730932 -0.21040621 0.3680329 -0.38288572 -0.44825515
0.025869904 0.29829827 0.44203842 0.3895467 0.15194012 0.63552195 -0.26940504 -0.43282056
-0.31292218 0.311051 -0.03740766 -0.48016328 -0.02724855 -0.17664614 -0.009323078 -0.44679213
0.1879528 0.60091823 -0.06640701 -0.068888575 -0.36575106 0.3543801 0.40109977 0.61834157
-0.6133081 -0.31119734 0.40574494 0.10496398 -0.5896772 -0.067883275 -0.65468746 0.12092564
0.2782259 -0.016198032 -0.021556832 -0.65346086 -0.24219961 0.45565784 -0.5063485 -0.44743875
-0.27575827 0.21850014 0.10435237 0.52452457 -0.37233564 -0.34860477 -0.40126893 -0.25357494
0.4820093 -0.28297597 -0.17938174 -0.6606902 -0.253216 -0.323027 -0.17513734 -0.0386576
0.49879864 -0.1560915 0.22865345 -0.4382381 0.3445624 -0.0989228 0.02795483 -0.41887194
0.3034106 -0.009986738 0.4233371 -0.2796408 0.3616942 0.14565623 -0.39574906 0.2674145
0.48391968 -0.40079314 -0.45940724 0.3998156 0.2980032 0.22373164 -0.14594127 -0.32803452
-0.3154013 -0.021436589 -0.39772955 -0.01618319 0.23297021 -0.12678544 -0.04317681 -0.12739824
0.38818887 0.58969194 -0.26530558 -0.57400733 -0.19232273 -0.048508093 -0.35473692 -0.5358165
-0.44009876 -0.24377763 0.5016375 -0.62194335 -0.0011607986 0.48528564 -0.58847743 -0.58164006
0.0029561403 -0.36570713 0.12052265 0.74981415 -0.26384413 0.05116111 -0.029614534 -0.47670668
0.13131079 -0.54225874 -0.60570544 -0.15641133 -0.056099106 -0.20757432 0.014337846 -0.60787475
0.42039528 -0.4434594 -0.032219984 0.035854056 -0.281099 -0.42056182 0.6130703 -0.48337814
0.55624926 -0.055338293 0.17818324 -0.6278976 -0.4111596 0.3488147 0.39560533 0.46578237
-0.45698842 -0.2572853 -0.5440395 -0.368428 0.25161624 -0.17528026 0.070885286 0.29174748
0.45718828 -0.22751373 0.58783877 -0.028006958 -0.30659702 -0.55054057 0.54115933 0.45311627
-0.45746034 0.38154063 0.28056827 -0.28293473 0.02541819 -0.24321733 -0.36648715 0.3021683
-0.4899108 0.5427516 -0.24301966 -0.18190145 -0.3693852 0.5308525 -0.44834757 0.5546309
-0.46596017 -0.119962156 0.68285286 -0.020898832 0.148884 -0.60508776 -0.53222054 0.38933232
0.38092744 -0.06422319 0.32700777 -0.4927818 0.6007446 -0.15467001 0.050182905 -0.19195592
00000000: 5e61 0e3e e78d 8b3d f535 f7be 4639 f23e
00000010: ba74 57be cf6e bc3e 9909 c4be b381 e5be
00000020: 1fed d33c 8dba 983e dc52 e23e aa72 c73e
00000030: 3196 1b3e 91b1 223f 75ef 89be a89a ddbe
00000040: 5637 a0be 1442 9f3e c638 19bd f6d7 f5be
00000050: 5a38 dfbc bae2 34be d3bf 18bc f0c1 e4be
00000060: b376 403e c7d5 193f 6600 88bd 7415 8dbd
00000070: b943 bbbe 4f71 b53e f35c cd3e a24b 1e3f
00000080: c201 1dbf 4255 9fbe cdbd cf3e 5bf7 d63d
00000090: 16f5 16bf 6306 8bbd 9999 27bf dda7 f73d
000000a0: a073 8e3e bcb1 84bc f497 b0bc 3649 27bf
000000b0: 2d03 78be fc4b e93e 0ea0 01bf b116 e5be
000000c0: 3030 8dbe 80be 5f3e b2b6 d53d 3e47 063f
000000d0: c7a2 bebe 537c b2be 1f73 cdbe 93d4 81be
000000e0: ecc9 f63e 3ae2 90be d9af 37be fe22 29bf
000000f0: 87a5 81be cc63 a5be 3457 33be 6e57 1ebd
00000100: 8962 ff3e 73d6 1fbe 2124 6a3e bf60 e0be
00000110: 7c6a b03e 0998 cabd 8701 e53c 6276 d6be
00000120: a258 9b3e 6a9f 23bc a4bf d83e 142d 8fbe
00000130: fb2f b93e e826 153e 9f9f cabe 8eea 883e
00000140: 52c4 f73e c234 cdbe 6d37 ebbe a1b4 cc3e
00000150: e093 983e e819 653e a171 15be 24f4 a7be
00000160: 477c a1be c99b afbc 35a3 cbbe 9c92 84bc
00000170: be8f 6e3e 0bd4 01be 2bda 30bd af74 02be
00000180: b1c0 c63e 0df6 163f 22d6 87be 25f2 12bf
00000190: 40f0 44be 6cb0 46bd 14a0 b5be 452b 09bf
000001a0: a054 e1be d8a0 79be 516b 003f ae37 1fbf
000001b0: f025 98ba 5c77 f83e 75a6 16bf 5de6 14bf
000001c0: cebb 413b f73d bbbe 94d4 f63d d2f3 3f3f
000001d0: 9416 87be 508e 513d 2e9a f2bc e612 f4be
000001e0: 5676 063e 78d1 0abf 830f 1bbf 4b2a 20be
000001f0: 2dc8 65bd 5d8e 54be 49e9 6a3c ae9d 1bbf
00000200: 0d3e d73e 1c0d e3be 1af9 03bd b4db 123d
00000210: 35ec 8fbe e153 d7be 2df2 1c3f 577d f7be
00000220: 5a66 0e3f 68aa 62bd ab75 363e e6bd 20bf
00000230: 8383 d2be d797 b23e c88c ca3e 077b ee3e
00000240: 63fa e9be e6ba 83be 2c46 0bbf 98a2 bcbe
00000250: d8d3 803e ab7c 33be 4e2c 913d ed5f 953e
00000260: 9514 ea3e 5cf9 68be 9a7c 163f d96e e5bc
00000270: 49fa 9cbe 3af0 0cbf 6b89 0a3f dbfe e73e
00000280: 3e38 eabe 4b59 c33e a5a6 8f3e d2dc 90be
00000290: cf39 d03c f70d 79be 34a4 bbbe ceb5 9a3e
000002a0: 97d5 fabe c5f1 0a3f 25da 78be 6044 3abe
000002b0: 0f20 bdbe f3e5 073f d08d e5be 4afc 0d3f
000002c0: 5592 eebe b8ae f5bd 72cf 2e3f 0734 abbc
000002d0: 0c75 183e 08e7 1abf 9b3f 08bf 9156 c73e
000002e0: ec08 c33e 7387 83bd 906d a73e e54d fcbe
000002f0: 66ca 193f d161 1ebe 978c 4d3d 1890 44be

trunk.net.0.bias f4 [64]
-0.4683258 0.12371541 0.3369051 -0.42214045 -0.2562383 0.33740065 0.19169874 -0.18924274
-0.21570225 -0.027055247 0.38008836 -0.18604967 0.18672304 -0.027253753 0.4026215 -0.3006806
-0.1211379 0.22798036 -0.37790844 -0.18931115 0.49304765 0.4287846 -0.23393522 -0.2524452
-0.45363528 -0.3174224 -0.35595945 0.1231662 -0.18306163 0.31444803 -0.09196162 0.3287404
-0.22244452 0.43578798 0.06986944 0.3128358 0.35985494 0.48382312 0.051166408 0.15800807
-0.5882634 0.060298093 0.474127 -0.06778628 0.4224419 0.19842944 0.21106946 -0.55007726
0.52383363 0.25348222 0.19860968 -0.085658304 -0.017634958 0.10889404 -0.20313357 0.046582397
0.46280256 0.030259088 -0.140814 -0.16414091 0.3737635 0.33338243 -0.09390132 -0.0032900558
00000000: 66c8 efbe 815e fd3d d37e ac3e cb22 d8be
00000010: ab31 83be c7bf ac3e ad4c 443e d9c8 41be
00000020: 0de1 5cbe f7a2 ddbc f19a c23e ce83 3ebe
00000030: 5334 3f3e 4343 dfbc 6824 ce3e cff2 99be
00000040: 2617 f8bd af73 693e 377d c1be c8da 41be
00000050: be70 fc3e a889 db3e b78c 6fbe 7f40 81be
00000060: e242 e8be 3085 a2be 5140 b6be 903e fc3d
00000070: 8274 3bbe 55ff a03e 6056 bcbd a950 a83e
00000080: 7fc8 63be 9a1f df3e b517 8f3d 042c a03e
00000090: e83e b83e aab7 f73e de93 513d decc 213e
000000a0: 6e98 16bf 22fb 763d c6c0 f23e 88d3 8abd
000000b0: 4e4a d83e 1631 4b3e 9822 583e ddd1 0cbf
000000c0: f619 063f 6cc8 813e 5660 4b3e 9f6d afbd
000000d0: 3077 90bc d703 df3d 3f02 50be 2fcd 3e3d
000000e0: 75f4 ec3e e8e1 f73c 8c31 10be 8e14 28be
000000f0: ee5d bf3e 1ab1 aa3e 564f c0bd fa9d 57bb
