FullOrder/FullOrderReconstruct/FullOrder_20251116_195018_MLP_deeponet_NoPhys_NoBatch_HD64_HL5_LR0.01_Sample0.3_checkpoint.pth (torch, 737770 bytes, 78 tensors)

branch.net.net.0.weight f4 [64, 2]
00000000: 495e 383f dac8 413f 7e27 833e 0af5 1bbf
00000010: f5a8 993d 91f8 2f3f 9704 2c3e 7611 12bf
00000020: 3c1e a7be cbef 0b3f 63c0 a5be 25d4 05bf
00000030: ce6a 89bd f1e1 95be 0a4c 6ebe 5fbd d7be
00000040: b118 97be 0087 903e 6dee 0b3f ca59 293f
00000050: 09a1 09bf 03ce 293d a601 08bd 1935 02bf
00000060: db95 6c3e e0df 643e b05b 3e3f 6c30 cd3e
00000070: 2b27 7f3e be16 bbbe 8815 45be 4550 1dbe
00000080: fe48 173f 2e3a e7be 2c40 ccbe dcd8 193f
00000090: 994f cc3e 424a fe3e c07d 3fbf 6c7a 1d3e
000000a0: 9478 703e 6f6e fbbe d2b0 b1be a9b0 c6be
000000b0: efe2 cc3d 467f 293f 5a8c 4c3e 2c5c 273f
000000c0: c016 1d3f 1dc9 bdbd 9b0f 27be a4d3 e23d
000000d0: 6cea 91bd 53c0 053f 7664 debc e283 87bd
000000e0: 27b3 853e 9986 303f fe21 1b3d dc8d 78bd
000000f0: e531 f6bd 56cc d8be c7b6 40bf 188a 52be
00000100: a5ec cfbe 26c4 233f 71b6 b43e 1895 d6be
00000110: 4e6d 2bbf 0cbe f43c 82fd 22bf 50b6 763e
00000120: c77a d53d 0d78 1e3f 2756 b53e 8ce3 a63d
00000130: 669b 02bf 2aad 923d 9f81 0bbf 6cff b5be
00000140: 86f7 073f 4df2 783e d066 bfbe d1d6 0a3f
00000150: 78c6 3ebf ed02 acbe c006 12bf 2c6c aa3e
00000160: 7a8b 443f 779a 053f 451f 473e 6707 24bf
00000170: f5ee 15bf 323b f2be d7ff a83e b808 0b3f
00000180: 9ac4 1bbf f381 193e ca7b febe b322 87bd
00000190: dbdd 24bf 1c25 b63e ff28 143f f4b0 92be
000001a0: 6ed4 a03e 8f91 00bd 3237 02bd 4333 01bf
000001b0: e274 08bf d9b6 063f e6fd 473e b176 a7be
000001c0: 6dba debe 085f 1a3f e256 fe3e 8bfc 18bf
000001d0: 1e1f ecbe 1996 1d3f 4f3d 283d 5dd7 13bf
000001e0: bfdd 193f bf86 03bf a2c9 083f cc3e eebe
000001f0: 2290 8ebe 50ec 04bf 51ca 1cbe da21 6fbe
0.7201887 0.756971 0.25616068 -0.60920775 0.07502929 0.6873866 0.16798626 -0.57057893
-0.32640254 0.5466277 -0.32373342 -0.5227683 -0.067098245 -0.29273942 -0.23271194 -0.42136666
-0.29511026 0.28227997 0.54660684 0.6615263 -0.53761345 0.041456234 -0.033204697 -0.5086227
0.2310404 0.22351027 0.74358654 0.40076005 0.24917285 -0.36540788 -0.19246495 -0.15362652
0.5909575 -0.45161575 -0.3989271 0.60096526 0.39904478 0.4966603 -0.74801254 0.15378731
0.23483497 -0.49107692 -0.34705216 -0.38806656 0.10004222 0.6620983 0.19975415 0.6537502
0.6136284 -0.09266875 -0.16314547 0.110755235 -0.071247905 0.5224659 -0.027147513 -0.066169515
0.26113245 0.6895538 0.037874214 -0.060682163 -0.120212354 -0.42343396 -0.75278896 -0.20560491
-0.40610233 0.63971174 0.35295442 -0.41910625 -0.6696366 0.029875778 -0.6366807 0.24092984
0.104238085 0.6190193 0.35417292 0.0814887 -0.5101837 0.07161935 -0.5449466 -0.35546434
0.53112066 0.2431118 -0.37383127 0.54234034 -0.7452159 -0.33595982 -0.5704155 0.33285654
0.76775324 0.5218882 0.19445522 -0.64073795 -0.58567744 -0.47310787 0.3300769 0.5431018
-0.60846865 0.14990978 -0.4970382 -0.06598415 -0.64401025 0.35575187 0.57875055 -0.2865063
0.3141207 -0.031388815 -0.03179092 -0.50468844 -0.5330335 0.52622753 0.19530448 -0.32707742
-0.43501607 0.60301256 0.4967566 -0.5976035 -0.4611749 0.61557156 0.041074093 -0.57750493
0.6010398 -0.5137748 0.5343267 -0.46532285 -0.2784434 -0.51923084 -0.15311553 -0.23352757

branch.net.net.0.bias f4 [64]
00000000: 8332 00be ffa5 d23e 3f4b b43e 0e3f ec3e
00000010: 5944 373f 7d3f 9c3e f69f bdbd 39dd 083f
00000020: d42d 79be f563 a53e e7c5 81be 8982 2cbf
00000030: 6ca6 a8be 7d54 913e ea18 a83d 6b39 a63e
00000040: 05a4 fd3b ca9d 0a3f 2a38 ccbc 9c27 143f
00000050: fd5c 3d3d 2206 013e 20f6 e23d aa50 953d
00000060: 9a56 d6be 7aab 0fbe 0064 733e 65a0 c9be
00000070: 6fc9 903e 4ae7 f43e bb3b f33d 2d82 c8be
00000080: d96b d13e 176b cfbe ca0b 01bf 0c0b c8be
00000090: f683 163f 114e 90be 71fe 50be cdbc 373e
000000a0: 5c92 8f3d b788 5cbe 7e84 033f f1cb 36bf
000000b0: cc4a 073f 055a 99be be22 993e 0fb9 e2be
000000c0: 9a25 b53e e3e9 93be b452 183f e2d0 efbe
000000d0: 2004 1c3e 46c7 7a3e c7a7 18bf f796 263f
000000e0: c1ca 91be a741 1d3f 23b4 17bf b2f1 03bf
000000f0: 99c5 f13e 8236 373f 3c83 cebe f831 853e
-0.12519269 0.4114227 0.35213658 0.46141857 0.71588665 0.30517188 -0.09259026 0.5346256
-0.24333888 0.32302824 -0.253463 -0.6738668 -0.3293947 0.28384772 0.08207877 0.3246568
0.0077405 0.54147017 -0.024929125 0.5787294 0.04623126 0.12599996 0.11082101 0.07290776
-0.41862947 -0.14030257 0.23768616 -0.39380184 0.28278682 0.4783271 0.11876627 -0.39161816
0.40902594 -0.4051139 -0.50408614 -0.39070928 0.58795106 -0.2818456 -0.20409562 0.17943116
0.07010338 -0.21536528 0.5137404 -0.7140494 0.52848506 -0.29951492 0.2990932 -0.44281814
0.3538025 -0.2888938 0.59501195 -0.46839052 0.15235949 0.2449008 -0.5963101 0.65074104
-0.28475 0.614283 -0.5925924 -0.5154067 0.47221068 0.7156755 -0.403345 0.26014686

branch.net.net.2.weight f4 [64, 64]
00000000: ee15 ab3d 0597 473e c4fd 9b3d cc0a 7fbc
00000010: 421f dbbd c3a0 42bd 156e 793d a191 5abe
00000020: ce11 4dbe 7f21 173e 6c62 23be 00fd 8c3c
00000030: 3a8c 093e cc07 413d d204 713c 72b9 20bd
00000040: 2032 283e 0a0b 9dbd d7c3 5b3d 9282 13be
00000050: 3cb9 aabc 0ecc 1abe 4521 05bd 54a8 eebd
00000060: 15fd 6a3e 744b 29be 1b7d e8bc 7854 a13d
00000070: 3105 163d 21f2 37be c6d0 83bd 3d3d 4ebe
00000080: bf57 863d 62a3 823d b1eb 84bc fbd6 41be
00000090: 86f2 6dbd dde6 7a3e 881f 4abe bee3 19bd
000000a0: afe0 7e3e b5b1 40be 9283 82be 7bfd 13bd
000000b0: 6ccd 593e 1433 0bbd 8700 aabd e5c1 f53d
000000c0: 831d aabc bc02 c9bc 08bc 10be e309 a53d
000000d0: 96fe 0f3e f6af 303e ef58 70bd ae9d 9a3d
000000e0: fde1 7fbb 0d84 553e fd7c 58be 4ed1 83bd
000000f0: 0d5d 5f3d b379 483d 2840 013d d5b7 52be
00000100: 3627 09be bf93 ef3b 78aa a03d 9269 b43c
00000110: c12d 153e 39e9 e1bd c049 7a3d 6a10 0c3d
00000120: 9d5c ed3c 9008 22be 16c1 113e 3229 a83d
00000130: 639c 6fbe 061b 57be 933d 08be c5aa 3d3e
00000140: f16d bcbc 6061 f53d ac09 32be fa7b 2b3d
00000150: 013d e4bc b40f e63d 2665 87bd 4508 fcbc
00000160: 976b 1fbd a481 97bc db05 9cbd 714b 36bd
00000170: 4e1c 9bbd 8793 2dbd 887f 3d3d f6b2 003c
00000180: 574c ba3c ce06 2e3b 405b 1c3e 64a1 373e
00000190: 5826 013d 31b9 76be d2f5 ec3c a78f 863c
000001a0: 142f 55be f205 a23d 6378 ed3d e2bf 2c3e
000001b0: 797f 3fbe ca3d 21be 9371 023e 279b 58bc
000001c0: 9683 703b 1806 5fbc dd11 23bd 42c3 01be
000001d0: 6bfb 41be d31f d2bd 3c84 043e a496 19be
000001e0: 70e4 34bd 558d f3bc cac7 203e 3024 703d
000001f0: c0af 94bd 1297 0cbe 552a 0abc 7f03 a13d
00000200: da6d 50bd b968 bf3d 9d40 46be e3f7 3fbd
00000210: cb4a 81be 65ea babd 0692 133e 6fb5 19bd
00000220: 1cf8 a8bd e5b7 a7bd 239b 853d 1d29 a83e
00000230: 0953 b93b 02c3 84be 20bd 3c3d e458 3ebe
00000240: 01df 553d 31d6 adbe a595 13be 56ac 81be
00000250: d11a 253e 46ca a23d 0553 1ebe afa3 f5bd
00000260: 90b7 933e 0782 aabd b614 44be e927 6d3e
00000270: fee3 83be da3f 4c3d a319 973c e9ef 1a3e
00000280: c83e a6be a777 b53e 307d e03d 841b 203d
00000290: d111 d8be f77e 403c 9e28 92bd eba3 b9bc
000002a0: bfd0 05bd a875 cbbc a389 a5bc 8c59 533d
000002b0: 3002 9abe d736 b33e 2ec9 b23d e1c9 b3bd
000002c0: c1d0 aabd d399 e73c 35f6 42be 1eb0 c03e
000002d0: c1a4 9abc 1d96 bf3d 1669 33bb 9302 bcbd
000002e0: aceb 37bd 6fd1 89bd 31f0 05be ac95 e93e
000002f0: 4f10 a3bd 4409 9c3d 3e33 913e c94e d23c
00000300: ad9a 773e 3494 29bb 69d3 2f3d 5449 46bd
00000310: 6971 ce3d a06f 923c eb97 1abe 2186 f6bd
00000320: 5b31 de3d 862b 363e dfc9 c3bd c4e5 90bd
00000330: bc63 ca3d 8898 c03d 859d 823b 7848 4bbe
00000340: 17f2 e73c 7ad5 e73d 7de7 db3c bce5 13be
00000350: 0e4c 9bbd e11f 9bbe 1adb bd3d 3fe8 d8bc
00000360: 8ee8 013e e9aa 8c3c 4107 4b3c 5069 5839
00000370: 3d5b f63d 2bed a73d f03b e9bd e6cb d3ba
00000380: e8c2 85bc 1e07 d5ba 05b3 813d 0043 1c3d
00000390: 503d 0d3e 79f2 e53d 6ba7 fdbc a1e6 84be
000003a0: 2395 323e 4ae1 823d 9b74 03be 3585 b2bd
000003b0: 32fb 333e 9c02 9bbc 61a9 23be ebab 253e
000003c0: c9d8 fe3a a158 a9bd bdfe d8bd 2350 d73d
000003d0: 0856 d1bd 0762 36bc 4b38 d03d b219 773d
000003e0: 0fb0 983d ff1e 553c f392 48bd adc4 8c3c
000003f0: 6ed6 e53d 86bd da3d d8a4 0b3d 4f9e 41be
0.08353792 0.19491203 0.07616761 -0.015566539 -0.10699321 -0.047516596 0.060895998 -0.21344616
-0.20026323 0.14758871 -0.15955514 0.017210484 0.13432398 0.047126576 0.014710622 -0.039239354
0.16425371 -0.07668121 0.053653564 -0.14405277 -0.02084028 -0.15116903 -0.03250243 -0.116532
0.22948106 -0.1653269 -0.028379967 0.07877439 0.036626045 -0.17963459 -0.06436305 -0.20140548
0.06559705 0.06378819 -0.016225668 -0.18929665 -0.058092616 0.2450213 -0.1973859 -0.037570707
0.24890397 -0.1881779 -0.25491005 -0.03613041 0.21269768 -0.03398426 -0.08300882 0.11999873
-0.020766025 -0.024537437 -0.14134228 0.08058526 0.1406196 0.17254624 -0.058678564 0.07549606
-0.0039044612 0.20851155 -0.21141429 -0.06436406 0.0545321 0.048944186 0.031555325 -0.20577939
-0.13393864 0.007311314 0.07845014 0.022022996 0.14568235 -0.11030812 0.06110549 0.03419534
0.028974826 -0.15823579 0.14233813 0.082109824 -0.233995 -0.21006402 -0.13304739 0.18522175
-0.023001643 0.119814634 -0.17386502 0.04186628 -0.02786112 0.11233464 -0.066110894 -0.030765662
-0.038920965 -0.018494435 -0.07618304 -0.04450554 -0.07573758 -0.04237702 0.0462642 0.007855168
0.02274148 0.002655435 0.15269184 0.1793266 0.031530708 -0.24094082 0.02892581 0.01642592
-0.2081874 0.0791129 0.115952276 0.16870072 -0.1870097 -0.15746227 0.12738638 -0.013220585
0.0036699525 -0.013612293 -0.039811958 -0.12672141 -0.18943565 -0.10259976 0.12941068 -0.14998871
-0.044163167 -0.029730478 0.15701213 0.05862826 -0.07260084 -0.13729504 -0.008432944 0.07861995
-0.050886013 0.09346146 -0.19360586 -0.046867263 -0.25252375 -0.091267385 0.14411172 -0.037526544
-0.08250448 -0.08189372 0.065237306 0.32843867 0.0056556505 -0.2593003 0.0460788 -0.18588597
0.052214626 -0.33952478 -0.14412554 -0.25326794 0.16123511 0.07948737 -0.15461357 -0.11994111
0.28850985 -0.08325582 -0.19148526 0.23159756 -0.25759882 0.04986558 0.018444842 0.15130581
-0.32469773 0.3544285 0.109613776 0.03908874 -0.42201093 0.011749021 -0.07136653 -0.02266117
-0.03266978 -0.024836376 -0.020207232 0.05159907 -0.30079794 0.35002777 0.08729778 -0.0877874
-0.08340598 0.028271591 -0.19039233 0.37634367 -0.018877389 0.09354804 -0.0027375869 -0.091801785
-0.04490249 -0.067293994 -0.13079907 0.45622003 -0.07962095 0.07618955 0.28359407 0.025672333
0.24180098 -0.002587569 0.042926226 -0.048409775 0.10080225 0.017875493 -0.15097015 -0.12037302
0.108492576 0.1779004 -0.09559988 -0.07075074 0.09882304 0.09404093 0.003986063 -0.19851863
0.02831368 0.11320014 0.02684378 -0.14443105 -0.07582866 -0.3029776 0.09270306 -0.026477931
0.12686369 0.01717134 0.012391866 0.00020638597 0.12029121 0.08199533 -0.11388385 -0.0016158789
-0.01632829 -0.0016252731 0.063329734 0.038149834 0.1379292 0.112278886 -0.03096362 -0.25957206
0.17439704 0.06390627 -0.1283745 -0.087168135 0.17576292 -0.018922143 -0.15982582 0.16178863
0.0019443269 -0.08268858 -0.105954625 0.10513332 -0.10221487 -0.01113177 0.10166987 0.06032724
0.074554555 0.013007878 -0.048968267 0.017183626 0.1122254 0.1068068 0.034092754 -0.18908046

branch.net.net.2.bias f4 [64]
00000000: 8de8 ccbc 8a2d 80bd 3aa6 34be f0f5 523c
00000010: 20e6 473e 3909 c03d 1342 813c 8d2f e53d
00000020: a5b2 053e 272c fdbc 5d2f f0bb ebca 03be
00000030: f8a9 c8bd c44f 0d3e d2d9 efbc d617 02be
00000040: 8922 68be d72c ec3b 9575 83bd 07f2 83be
00000050: d6fd 583d fd6f 14bd b30e acbc c4ff 3b3e
00000060: acca c93c c211 963e 2e84 693d d4db 283e
00000070: b1b3 3b3d d798 b3bd 0c19 813e 3fcf 1e3e
00000080: e5af 32bc 11b7 65bd 38d1 453d 5685 85bd
00000090: d426 423d 53ca aebd a94a 5bbe d9b2 87bb
000000a0: 5ae1 143e 83c6 4e3d c2ce d03d 4396 cb3c
000000b0: 25e2 973c b49d 0fbe 6045 1ebd b9a0 803d
000000c0: bd62 57be 5067 163e f578 91bd 8067 d339
000000d0: 5e6a 0f3e a897 4b3e 8f24 bf3d 38af 5abb
000000e0: 7cb6 0bbe 6fd1 52bc 8490 91bb 6d27 0fbd
000000f0: f2a0 d93d bee4 eb3d fa16 eebd a6ad 82bd
-0.025013233 -0.06258686 -0.17641535 0.012876019 0.1952138 0.09376759 0.015778577 0.1119071
0.13056429 -0.030904843 -0.007329865 -0.12870376 -0.09798044 0.1379996 -0.02927867 -0.12704405
-0.22669424 0.0072074938 -0.06418911 -0.2577059 0.05297645 -0.036239613 -0.021003103 0.18359286
0.024632774 0.29310423 0.057010822 0.16490108 0.045825664 -0.08769386 0.25214422 0.15508746
-0.010906194 -0.05608279 0.04829523 -0.065195724 0.04740031 -0.08534684 -0.214152 -0.0041411933
0.1453909 0.050482284 0.10195686 0.024851924 0.018540451 -0.14025003 -0.03864038 0.062806554
-0.2103376 0.14687848 -0.07103149 0.0004032217 0.1400542 0.19882071 0.09333145 -0.0033368599
-0.13643831 -0.012867316 -0.0044422764 -0.03494971 0.10626401 0.115182385 -0.11625476 -0.06380777

branch.net.net.4.weight f4 [64, 64]
00000000: 13bc aebe 26b6 4a3e 7cbd 6dbe 285b 843c
00000010: d780 e739 6b7c fdbd b33b 44bd 618a f73d
00000020: 8c95 233c 4260 95bd ed01 0dbc 58ee 15bd
00000030: 122d 60bd 2a04 f63d 5239 4c3d 9a1a c13d
00000040: 2416 d53c 78f1 a4bd e2ce 77bd 0805 1fbd
00000050: 7a35 473d 3428 91be 89d6 aebd acfb a8bc
00000060: afc4 81be 5106 c03d 7171 043e 960c 46bd
00000070: 6786 393e ec50 363d d638 4bbd 3376 f9bd
00000080: 19e0 c43c e9fc 763e 9000 f13d 0470 013e
00000090: e3ba 6e3d f2d7 a6bd a0e5 663d e4d9 b73d
000000a0: d239 bb3d f5ac aebe 9c2d dbbc b842 59bd
000000b0: af9e 08be 1400 efbc 640b 1b3c 4077 14bd
000000c0: 3571 8f3d 765c cb3c 68e5 21be 07e1 fd3d
000000d0: 1f8e ca3d f483 d5bc efe3 8f3c 806b 21be
000000e0: b0b0 853d ebb8 9a3c a720 dabc 88da fabb
000000f0: 037f 803e 769d 883d ba3a ca3c 39f4 95bd
00000100: 50f3 36be 955e 533d 826f abbd 3939 1bbe
00000110: 2e39 183c 6310 55be 2a80 00be adce dbbb
00000120: 732f 923d 6cb7 b9bd c679 b2bd b554 dc3b
00000130: a3b7 e3bd 1e1a 583c 6ade 1d3e c24d 3f3e
00000140: 6f26 17be 0565 ddbd f28a ac3c 238f 0e3e
00000150: 7f45 cab7 d23c 6cbe 1c6e 28be ca0e 06be
00000160: d9f7 eabd 06ff db3c 80a1 a33d cc71 14bd
00000170: ef11 2d3e 9e28 a03c b293 643d 5813 bdbe
00000180: b045 ca3d 3c9b 7d3e 8078 b83d 7a85 05be
00000190: b272 fabd 8bd1 663d b771 f53d 8ab1 cbbd
000001a0: 1887 acbd 3ab5 56be 3087 7cbd d712 58bd
000001b0: f2e4 a0bd 2c36 67bd 572c b33c e5ff f93b
000001c0: 95c3 133e 67ed ecbc abdc f5bd 993a 093e
000001d0: e40a c03c 4e3e 7dbd 2690 25be 6c6a efbd
000001e0: b24e cfbd c430 5cbc a373 9ebd 0ade 963c
000001f0: 7a9a 1d3e 6546 1e3d ef65 153d da94 b33d
00000200: bac5 29be 126d ca3d c053 f43d a9e1 4dbe
00000210: 68cb be3d 934d 97be b9a3 4fbe bfac 863d
00000220: ebae fa3d d98e b2bd 9559 7e3e 9be2 50be
00000230: 5912 7d3d a46f 013e 78ba b23c 83e4 d83d
00000240: ca8f a3be b1d5 c43c 536e 163d e27b f8bd
00000250: cb0f 7cbe 2f64 403e e48d 2c3e ee68 c6bd
00000260: 946c af3d 9d93 273e bb06 b23e 4267 123d
00000270: 16de a8bc 2f8c f4be 60c6 113e a0ae 49be
00000280: 778f 96be cce3 cebc ef67 d63d 1524 53bd
00000290: e323 90bd 14fe b03e 2500 903e e19b 793c
000002a0: 2f88 153e aebd 64bd cf8f 9a3d 8260 5cbe
000002b0: ac84 dbbd 4adc 3bbe dd36 53be 28ba 753e
000002c0: 0cf8 aa3d 5057 ef3d c97f d8bc 7995 b53c
000002d0: 84a5 d0bd f961 b93d 99b4 e7bc 2337 bebd
000002e0: 883a d33d 7203 d23e c1e4 523e ee9a 803e
000002f0: 0e9d 2cbd 2d9a 573e 4f2c 2e3e 3b99 08bd
00000300: 442b 633d cf5a c2b8 0e50 4ebe faa5 493e
00000310: 960a 3f3e 96b0 ffbd 9962 18bd 5400 8f3d
00000320: a067 06be e340 d8ba cf51 bdbd c276 543d
00000330: 8338 583d 19f3 a5bd 01bd 823d 09b5 853c
00000340: 5a80 f63c 8b82 0bbe afeb d9bc 43d3 9a3c
00000350: b146 0e3e 74cf 77be 38ea cfbd 7c1f 653d
00000360: 9464 4dbe 6417 793e 65cf 4fbe 27dd 26be
00000370: 0965 3c3e 1acc ce3d 7c27 c6bd 4585 7fbe
00000380: 809a 143e b4b9 523c 5d74 b63c 68d4 973d
00000390: 0e8f f23d a0b9 f83b f1f4 19bd c2a6 09bd
000003a0: 5a4a 56be 05ea c1bd 3560 e33c 46db 203e
000003b0: fac9 2abd bcfc c4bd 8f4b 8d3d e430 e23c
000003c0: 50aa 7d3e cbbf 1b3e d109 19bd 3458 523e
000003d0: d86c ab3d c85d acbc 35d9 8fbe 850d 88be
000003e0: b26d f5bd a700 4bbd 17d4 16be d1cd 97bd
000003f0: 06d6 10bd 7a73 a63d df5c 5dbe 4ed3 f0bd
-0.34127864 0.19796047 -0.23216814 0.016156748 0.00044155747 -0.123772465 -0.047908496 0.120869406
0.009984385 -0.0729375 -0.008606416 -0.036604255 -0.054730482 0.12012513 0.049859352 0.09428902
0.026011534 -0.08053869 -0.060500033 -0.038823158 0.048634984 -0.28350985 -0.08537013 -0.020627819
-0.2534537 0.09376205 0.129339 -0.048351847 0.18117677 0.044510767 -0.04961475 -0.12180748
0.02403264 0.24119915 0.117676854 0.12640387 0.058283698 -0.08146657 0.05637133 0.08977106
0.09141888 -0.3411633 -0.026755147 -0.053042144 -0.13341783 -0.029174842 0.009463165 -0.03624654
0.070040144 0.024824362 -0.15810168 0.12396436 0.09890389 -0.026063897 0.017564742 -0.15763664
0.06527841 0.018887004 -0.026626898 -0.0076554455 0.25096902 0.06670658 0.024686206 -0.073219724
-0.17866254 0.051603872 -0.08370878 -0.15158547 0.009290976 -0.20807032 -0.1254889 -0.0067079873
0.071379565 -0.09068188 -0.08714633 0.006723965 -0.1111901 0.013189821 0.15416875 0.18682006
-0.14760755 -0.108102836 0.021062348 0.1392179 -2.4112638e-05 -0.23070076 -0.16448253 -0.13091579
-0.114730544 0.026855003 0.07989788 -0.036241338 0.16901372 0.019550618 0.055804916 -0.3692882
0.09876573 0.24766248 0.090073586 -0.13039199 -0.12228908 0.05635218 0.1198458 -0.09945972
-0.084242046 -0.2096757 -0.061652362 -0.052752342 -0.07856168 -0.056448147 0.021871729 0.007629382
0.14430077 -0.028921796 -0.1200498 0.1340126 0.023442693 -0.061826997 -0.1616827 -0.1169022
-0.10122432 -0.013439361 -0.077369 0.018416423 0.1539096 0.038641352 0.036474165 0.087686256
-0.16579333 0.09884085 0.119300365 -0.20105614 0.093161404 -0.29551372 -0.20277299 0.065759175
0.12240394 -0.08718652 0.2483886 -0.20398943 0.061785076 0.12640244 0.02181743 0.1059046
-0.3194564 0.024027677 0.036726307 -0.12133004 -0.246154 0.18788217 0.16851002 -0.096879825
0.085656315 0.16364904 0.3477076 0.035743006 -0.020613711 -0.47763202 0.1423583 -0.1969552
-0.2940633 -0.025255106 0.104690425 -0.051548082 -0.07038095 0.34568846 0.2812511 0.015234918
0.14602731 -0.055844955 0.075469606 -0.2152119 -0.107186645 -0.18345752 -0.20626397 0.23996794
0.083480924 0.116865754 -0.02642812 0.022166 -0.101878196 0.0905189 -0.028284358 -0.0928786
0.10313898 0.41018254 0.20595075 0.25118202 -0.042141967 0.21054907 0.1700909 -0.033349257
0.055461183 -9.267555e-05 -0.20147726 0.19692221 0.18656382 -0.12484853 -0.037203405 0.069824845
-0.13125467 -0.001649883 -0.092441194 0.05187107 0.05278827 -0.08103008 0.06383706 0.016321676
0.0300905 -0.13624017 -0.02660164 0.018899566 0.13894154 -0.24200231 -0.101520956 0.05593823
-0.20057899 0.24325329 -0.20293958 -0.162953 0.18397917 0.10097523 -0.096755 -0.24953182
0.14512062 0.012861658 0.022272283 0.0741356 0.11843692 0.0075904876 -0.03758711 -0.0336063
-0.209268 -0.09468464 0.027755836 0.15708646 -0.041696526 -0.09618518 0.06899177 0.027611203
0.24772 0.15209882 -0.037362877 0.2054146 0.0837037 -0.021040812 -0.28095403 -0.26572815
-0.11983813 -0.04956117 -0.14729343 -0.07412303 -0.03536036 0.08127494 -0.21617459 -0.11759053

branch.net.net.4.bias f4 [64]
00000000: be35 8a3c e0ad cdbd 2153 dbbc de24 383e
00000010: 3b94 043c d5e7 163c c6b8 983e 8134 cd3d
00000020: 8799 c9bd 21d0 663e f657 80bc 3a4c 743e
00000030: 117a d13d 53e3 04bd 3ef0 273d 6d7f a93c
00000040: 9b71 b73d 65f8 803d b268 083e e810 20be
00000050: 02c0 a0bd 5e3d c23d f984 3ebe c515 3bbd
00000060: a02e d2bd d5fb 9a3c 4b97 cdbc 1465 2cbe
00000070: ee00 c23e 31ce a53d 904e f53d aa08 203e
00000080: 4319 88be 33eb 09be c4b2 2dbe 36a2 56bc
00000090: 31ea 19be 76a8 753e 81f0 0d3d bc94 d23c
000000a0: 374c 913d 7196 073d c499 2a3e a157 9f3d
000000b0: 311b 9e3d e73e c13e b6dc 8e3e a4b4 ac3d
000000c0: 0254 77bd 8a51 073e 5280 d5bc 3df7 80ba
000000d0: 2ca3 923d 7941 973d 0bfa 5ebd 21f8 2ebd
000000e0: e38a 01be 604c be3c 945f 923d 725f 06be
000000f0: b39e ff3d 4aee c33b b90f 3fbe 6535 583e
0.01687133 -0.1004293 -0.026773037 0.17982814 0.0080919815 0.0092105465 0.2982847 0.1001978
-0.09843736 0.22540332 -0.015666943 0.23857203 0.102283604 -0.032443356 0.041000597 0.020690644
0.089572154 0.062973775 0.13321188 -0.15631449 -0.078491226 0.09484361 -0.18605413 -0.045675058
-0.10262799 0.018918911 -0.025096556 -0.16835433 0.37891334 0.080959685 0.11977875 0.15628305
-0.26581773 -0.13468628 -0.16962725 -0.013100198 -0.15030743 0.23990044 0.03465319 0.025705688
0.07094615 0.033102456 0.1666022 0.07780386 0.0772003 0.37743303 0.27902764 0.08432892
-0.06038285 0.13214698 -0.026062164 -0.0009839308 0.07160029 0.07385535 -0.05443768 -0.042717103
-0.12650637 0.023229778 0.07147136 -0.13122347 0.12481441 0.005979334 -0.18658341 0.21114118

branch.net.net.6.weight f4 [64, 64]
00000000: 1886 383e 85ff 863e b4a8 91be 8717 793e
00000010: 4648 79be d1ce 21bd 2f90 893c 2e1a e8bd
00000020: 8270 d03d 0e2c 94be 40a5 c1bc e950 3b3e
00000030: b65c 243c 22c2 b93c 42c5 6e3e 105d 16bc
00000040: 5585 33be f252 0abd 68e5 3abd e6b3 1dbd
00000050: 34e2 09be a87e 623e 6fbb 403e 0643 163d
00000060: e5f5 8bbe bfa9 9f3e 12c3 85bd 7bbf 6f3c
00000070: c409 98bd b7a4 e2bd 64f6 823b 9bc0 a83d
00000080: 2ed3 24bd df4a 2fbe 00be 88be 3013 5fbd
00000090: 4278 0fbe 0c51 abbe 2594 babe ab7c bc3c
000000a0: 2046 173e 5f4d 8d3d 0639 603e a415 623e
000000b0: 2e06 06bd ef21 cbbd affb 9e3d 354b 63be
000000c0: ec61 a4be 9ec0 8cbd c6ed 39be b899 50be
000000d0: 6f43 1bbd 02af 4b3d a244 95bd da11 f03d
000000e0: 2fd3 a2bc 52ef 3abe 3d83 5abd 2f1d e13b
000000f0: 6b5a 1d3e 52b1 133e 8602 3cbd 3eed 4bbe
00000100: a7c8 873c 0229 363d 04af f8bd 0f03 333d
00000110: 2364 a63d 5ef3 33be 6b5f 28be 6aa9 77bd
00000120: 363c 463e 802e 29be 8b2d c73d 1aba 273e
00000130: 285a 133d 5036 19be 1d98 1d3e eb36 67be
00000140: 64f2 80bc 7fe8 433e e332 c7be 37d2 58be
00000150: 579d a43c 99b2 fabd 1990 a2bd c850 15be
00000160: 363c 0abe a030 de3c 25ac 01be 085d 8ebb
00000170: 34d4 73bd a231 243d 1031 a53d 663e bf3d
00000180: 0071 efbd 94be c8bd 12ea 12be 1959 1c3d
00000190: f5fb 553d 04f5 4abe a140 a6bb ede8 26bc
000001a0: efe1 acbd c30c eabd 0585 1cbf 0ee7 803d
000001b0: 0164 d13c 3d66 70be a712 6fbe dee8 96be
000001c0: ac67 ca3e 0b25 cebd 9362 023b f0cd 90be
000001d0: 3194 c93e bccf b13c 30c3 803d 5c73 7a3e
000001e0: d672 05be ba10 6ebe e545 053e 9fc2 9f3d
000001f0: 8746 223e 5316 cf3c 96cc 113e 2eb4 dabd
00000200: 108e b43d c55e a6bd 91ce ee3c a04b 36bd
00000210: 3e4e b1bd e49c b3bd 6e78 df3d 0629 0cbe
00000220: bc09 bc3d b339 b33d 86f6 8abe d1c4 0abc
00000230: da5a 24be 39ea 5bbe df0d 98bd 56ff 213e
00000240: fe80 853c 58e4 d63d fc79 45be 3478 ae3c
00000250: 5020 a2bd 9364 8ebd eade 49ba 0b02 a4be
00000260: 7f9f 48bd 03ca 743d 1143 623d 5a9c 853d
00000270: 3c98 c1bd c808 63bd 242b fb3b 9030 0a3e
00000280: a57e d4bc f8d0 473d 7c9e f4bd 85e2 0e3e
00000290: 804b 10bb 6c00 0f3e 231b 91bc a94f 373d
000002a0: 17e4 353d 3545 12be 652c d9bd 6bd1 66bd
000002b0: 0547 bf3d 15fc 05bd fee8 5c3e d3dd acbd
000002c0: 4897 523d 57b5 433d 3633 47bd bbd6 2f3e
000002d0: 67c7 cf3d 928c 623d c003 a7bd 0737 09be
000002e0: aae4 a2bd c3fd 4e3d 03d8 ca3d f094 7bbe
000002f0: 838d 6a3d f090 aabc eef1 143d 5231 3c3d
00000300: e458 81bd 4193 f13d dd0d 6ebe fa86 193e
00000310: 81df b73d d392 5c3d 7e83 933d 3408 79bb
00000320: 9bb7 2bbd 4657 edbc 1b23 643d 6764 0f3e
00000330: 1360 b4bd 4bef 073e 096e 94bd 3ef3 a93e
00000340: e64b 853c df6a a33e 2cda 2f3e 9ed7 1c3e
00000350: 3964 d63c 1fb0 053d 4c46 273e 7ef4 40be
00000360: cf18 e0bd a225 c9bd 2d76 813d fe1b f3bd
00000370: a49b 9dbc ba15 4cbc 3c0b 803a a7e2 0b3e
00000380: bb18 adbd 5c6d 063d d6c5 e7bd 0509 91bd
00000390: 01d2 ecbd ee65 a9be 6e9e 8ebd 1fe2 aabd
000003a0: 5a7f 953d c90d b9be 6aa4 533e a31c 893d
000003b0: 8653 213e 70e7 0c3e 9e90 d33d 897c 46be
000003c0: 126b f9be 820c 033d c609 d0bd 6c2a dfbd
000003d0: 6303 a23d 2c05 e63d 3fd4 45bd 9ff4 0d3d
000003e0: ae0b a83d 9120 0dbd c487 33be c1a8 1bbe
000003f0: 1910 923d fee8 8c3d ff98 4e3d f093 f1ba
0.18019903 0.2636682 -0.28449023 0.24325381 -0.24343976 -0.039503876 0.016792385 -0.113331184
0.10177709 -0.2893986 -0.023638368 0.18292584 0.01003187 0.022675578 0.23317435 -0.009177461
-0.17531331 -0.03377051 -0.045628935 -0.038501643 -0.13465196 0.22118628 0.188215 0.036685012
-0.2733604 0.31184193 -0.06531347 0.014633055 -0.07423738 -0.11066573 0.003996657 0.082398616
-0.04024046 -0.17118405 -0.26707458 -0.054461658 -0.14010718 -0.3346027 -0.3644115 0.023008665
0.14772844 0.06899523 0.21896753 0.22078568 -0.032720737 -0.09918582 0.077628486 -0.22196658
-0.32105958 -0.06872676 -0.1815711 -0.20371139 -0.037906107 0.049727447 -0.07288481 0.11722155
-0.01987609 -0.18255356 -0.053347815 0.006869934 0.15366523 0.14423111 -0.045900844 -0.1991472
0.01657517 0.0444727 -0.121427566 0.04370409 0.08124568 -0.17573306 -0.16442649 -0.0604643
0.19358906 -0.16521645 0.097254835 0.16379586 0.03597465 -0.14962125 0.15390058 -0.22579543
-0.01574058 0.19131659 -0.3890601 -0.2117394 0.020094557 -0.12241096 -0.07937641 -0.14581597
-0.13499531 0.027122796 -0.12663324 -0.0043445863 -0.059528545 0.040086396 0.080659986 0.093380734
-0.11691475 -0.09801975 -0.14347103 0.038170908 0.052242238 -0.19820029 -0.0050736223 -0.01018737
-0.08441531 -0.11428215 -0.6114047 0.0629407 0.02556038 -0.23476501 -0.23346959 -0.2947454
0.3953222 -0.10065659 0.001989518 -0.28282118 0.39370874 0.0217055 0.06287229 0.24458069
-0.13032088 -0.23248568 0.13014944 0.07800793 0.15847217 0.0252792 0.142382 -0.10678898
0.08816159 -0.081235446 0.029151233 -0.044505715 -0.08657502 -0.08770159 0.10911642 -0.13687524
0.09181544 0.0875124 -0.27141207 -0.008469776 -0.16050282 -0.21476068 -0.07424521 0.15820059
0.01629686 0.10492772 -0.19284815 0.021297552 -0.07916319 -0.06952777 -0.0007700758 -0.3203281
-0.048980232 0.059762966 0.05523974 0.06523962 -0.094528645 -0.055428296 0.007665055 0.13495088
-0.025939295 0.048783273 -0.11944291 0.13953598 -0.0022017658 0.13965005 -0.017713135 0.044753704
0.044406977 -0.14284213 -0.10604171 -0.05635206 0.09339718 -0.032711107 0.21573254 -0.08440747
0.051413804 0.04778036 -0.048632823 0.17171757 0.10145455 0.05530984 -0.08155012 -0.13399898
-0.079537705 0.050534975 0.09904482 -0.24568534 0.057263862 -0.020821065 0.036363535 0.045945473
-0.06315783 0.117956646 -0.23247476 0.14992896 0.08978177 0.05385096 0.072028145 -0.0037999274
-0.041923147 -0.02897228 0.05569754 0.14003144 -0.08807387 0.13274877 -0.0724755 0.33193392
0.016271543 0.31917474 0.1717307 0.15316626 0.026170837 0.032638665 0.1633541 -0.18843266
-0.10942232 -0.09821631 0.06321368 -0.118705735 -0.019239254 -0.012456352 0.0009768973 0.1366068
-0.084519826 0.032819137 -0.11317031 -0.070817985 -0.115634926 -0.3308558 -0.06963812 -0.083439104
0.07299681 -0.3614333 0.20668188 0.06694915 0.15754518 0.13760161 0.10330318 -0.19383444
-0.487145 0.03199435 -0.10158114 -0.10896763 0.07910802 0.11231455 -0.048298117 0.034657117
0.08205353 -0.034454886 -0.17532259 -0.15201093 0.07131977 0.06880377 0.050438877 -0.001843093

branch.net.net.6.bias f4 [64]
00000000: f4a3 093e 1f35 afbe e9c5 c2bd f60c 073c
00000010: 3440 60bd b3ee 02bf 476e d33c 156d a2bd
00000020: c8de ff3d 3cbf 283d 2a31 39be ce1b 213e
00000030: 147a a03c dff6 fabc cca7 05be 8810 de3d
00000040: f139 28bc 2107 b6bd ab09 21be 4fdc d93e
00000050: bac4 92bd 0285 0e3e 7eca 4cbe 3aa2 b83e
00000060: 9510 a8bd 5a49 d53c 372d 0d3e 8ba4 af3e
00000070: 09d2 3ebe f2f1 3d3e 73ed 08be ce12 69be
00000080: 8ec0 143e ad19 85be 0128 6ebd e19c 773d
00000090: 4ba0 8a3d f9b7 94be b610 97be abe4 8bbe
000000a0: 73d2 b93d 966c f7be 3b25 223c 5148 cebe
000000b0: 40db 793d 8fb9 34be 22c2 123e 477c 303e
000000c0: 198c 1fbe d63d 673d fd70 203e 9b96 c1bd
000000d0: b6f9 65bd 95ee 193e 493f 7ebe c3dc 033e
000000e0: 6516 33bd 3d09 193e 5224 81be 255f cc3d
000000f0: 8133 1cbe 8e95 8ebd 1f8d cfbc cb91 283e
0.1344145 -0.34220216 -0.095104046 0.008242836 -0.05474873 -0.51145476 0.02580942 -0.07930962
0.12493664 0.041198 -0.18085161 0.15733263 0.019589461 -0.030635295 -0.1305229 0.10842997
-0.010267721 -0.088880785 -0.15726344 0.42550895 -0.07166429 0.13917926 -0.1999912 0.3606127
-0.08206288 0.026035953 0.1378678 0.34305224 -0.1863481 0.18549326 -0.1337183 -0.2276108
0.14526579 -0.25996152 -0.05814362 0.060452346 0.06768855 -0.2904661 -0.29504937 -0.27322897
0.09073343 -0.48325032 0.009896572 -0.40289548 0.06100011 -0.1764891 0.14331868 0.17234908
-0.15580787 0.056455456 0.15668102 -0.09452554 -0.056146346 0.15032418 -0.24828829 0.12877183
-0.04372253 0.1494493 -0.25223023 0.09979085 -0.15254022 -0.06962119 -0.025335846 0.16461866

branch.net.net.8.weight f4 [64, 64]
00000000: 43e8 dc3d cb20 153d 5d52 413d 38bc 853d
00000010: 43c4 63bd bfc9 12bf c1b4 a33d e649 503d
00000020: 43f3 b7bd e193 c5bd 45df 4cbd 2b40 1e3e
00000030: 1ded 75be 5737 183e fa65 2b3e 2d2b 1b3e
00000040: 6153 8fbe bf64 e33c 10cd 1f3a 268b 103f
00000050: 185c a03c c9bf 43bd 43ed 26be f74d 1abe
00000060: a0ce c4bd 3093 213e 7fa4 49bd 7a27 ab3d
00000070: 54b8 813d 070d 623d 7329 4abd 5e2b 81be
00000080: 4411 dfbd 46e3 10bd e64b 95be 2f82 8e3e
00000090: 96b4 003e 6255 0fbd d993 1bbe fb0f bfbd
000000a0: 9781 84be 209b e8be cdf8 e63d 4896 573e
000000b0: ac93 a2bc 792b b43d 631c 92bc 9abd 91bd
000000c0: 1adb 833d 94f3 9a3e 5669 57bd f129 13be
000000d0: e619 483d 4fd6 0c3e 1b5d 4b3e da34 893e
000000e0: d60f 7e3e 3859 12be 7843 13be 3b07 af3d
000000f0: ed82 e53d cb23 65bc 323d 983d d890 ae3d
00000100: 31e4 1cbd bd52 d53d 98cc 0b3e 7caa e93d
00000110: 1c0a 933d 8fa9 98be e8aa c03d 49c9 a3bb
00000120: ee28 7c3e c790 fbbd 5339 cf3c 91cf 01be
00000130: 211f fbbd 1ea6 8a3e c442 023f 3a2d d13d
00000140: f4d7 0a3e 9477 863c 8734 703d 3b3c 843e
00000150: fac6 243e 486d 21be 7732 87be f8ec f2bd
00000160: f95f bfbd a0bf 683e 1325 77be 36ab 80bc
00000170: 915b 5a3d 7579 6abd fe60 ccbb b9ee be3d
00000180: df4b b5be 7c97 46bb 5ebe e5be bbcf 323e
00000190: b5e9 da3e 0356 143e 910d 5cbe 2d9a dd3d
000001a0: 276a 013e e2a7 86be 138e aa3e 4cb2 223e
000001b0: 74fd fc3d 86cf 27be 6512 a8be 9d46 153d
000001c0: 9e70 35be 7ef6 f63e b0b2 88be 9edd 103e
000001d0: 8dfa c03d d4e0 9d3c 2854 d53e 340c 413e
000001e0: 0863 6abd 0f5d 0dbe ba03 ccbe 6898 063e
000001f0: 8770 39be 9b4c b83e f9b1 5d3e 6a48 773e
00000200: 1854 363d 6693 74be f1cf 7d3c 3fc0 a43c
00000210: 062f 14be b48b edbd 06e7 e83d e4ee 4d3b
00000220: 0528 41bd 56aa 743d c47b 1bbe 96c6 e6bd
00000230: 61c2 333e 8f2c 283d b526 4bbe 8393 6abb
00000240: 2912 eabc 8cf3 22bd 6e88 f43d 2313 df3d
00000250: 76df 30bc 6d34 2a3c 8f44 8d3d 4ba7 813d
00000260: 68ff c0bd 2e0c 98bd 87b5 1c3e fc0e 593e
00000270: 5d34 393d 3a56 f83d 38e5 753d e596 b1bd
00000280: 17f9 753b 7c9e 98be 7f34 893d 80a0 2e3e
00000290: 42dd bbbc a259 833b c17c d03c e536 db3d
000002a0: 55a6 69be 7bb5 56bd 38b7 eabd 4a1b 11be
000002b0: 5c9e aebc 04c5 803e 1ad3 cb3d 0c38 1d3d
000002c0: c233 6bbe da6a 3dbe 82b1 2f3e f771 b7bd
000002d0: 2d65 233d 4d33 0d3d 749d 3cbe 033f 9dbd
000002e0: 73e6 07be c524 3d3d f35b 773d 24fc 2cbd
000002f0: 8c7a 3c3d b3c8 583e b58f c9bd 0c3f 3d3c
00000300: 2524 e93d 5cf4 a03e 17b7 41bc 2d85 8dbd
00000310: 0b4c 12be d772 b0bc 4966 1abd a502 533c
00000320: 30c8 c5bd dade 6bbd 5c51 103e 9324 123e
00000330: c74d 30be 877d 05bd 68bf fd3c ee10 033d
00000340: fd26 413d a8bc 273d d53e 7a3d fc0d 17be
00000350: ff4a a83d b6bf 0fbd 387e 1bbe f94f a2be
00000360: fcae f5bb f49e 79bd 8c23 26bd c629 dfbe
00000370: 7004 fd3c 0ee8 883c bee9 29be afde 1d3d
00000380: 7a55 54be 8aa9 c73d b6e7 17be 49ba 0fbe
00000390: 00c7 0a3d 5b42 323e db9a c0bd c5f3 713d
000003a0: b7c9 9e3d 7a81 0fbe 36cb 223e 2a01 da3e
000003b0: 48ad acbd 8d97 57be 0469 24be a19e dabb
000003c0: 6dfb debc 2b57 553e ea69 debd 275e 473d
000003d0: 062f ff3c 4c06 01bd 0292 793e 2007 253e
000003e0: 983d bd3d fe18 abbd 715c da3e 5b8e d5bd
000003f0: aea2 853d 2933 b83e 842e 013e 1dc3 403d
0.10786488 0.036408227 0.04719769 0.065300405 -0.05560709 -0.5733909 0.079934604 0.050851725
-0.08981945 -0.09647346 -0.050017614 0.15454166 -0.24016233 0.1486486 0.1673812 0.15153189
-0.279933 0.027758 0.00060959253 0.56462324 0.019575164 -0.047790322 -0.16301446 -0.15068804
-0.09609723 0.15778804 -0.04922914 0.08357139 0.06333986 0.055188205 -0.049355935 -0.252284
-0.10891965 -0.035372995 -0.29159468 0.27833697 0.12568888 -0.034993537 -0.15193118 -0.0932922
-0.2588012 -0.4543085 0.11277924 0.21053421 -0.019845806 0.08797354 -0.017835801 -0.07116242
0.06438275 0.3026396 -0.05259069 -0.14371468 0.048852824 0.13753627 0.19859736 0.26798135
0.24810728 -0.14291847 -0.14381206 0.08546301 0.11206613 -0.0139855845 0.07433547 0.085237205
-0.038303558 0.10416172 0.13652265 0.114094704 0.071796626 -0.29816863 0.09407598 -0.0049983603
0.24624988 -0.122834735 0.025295889 -0.12676837 -0.12261797 0.27079862 0.50883126 0.102137044
0.13558942 0.016414441 0.058643844 0.25827202 0.16091529 -0.15764344 -0.2640569 -0.118616045
-0.09344477 0.22729349 -0.24135236 -0.01570664 0.05330998 -0.057244737 -0.0062371483 0.093228765
-0.35409448 -0.0030302694 -0.448718 0.17462055 0.4275643 0.14485936 -0.2148955 0.10820422
0.1263815 -0.2629996 0.3331152 0.15888327 0.1235303 -0.16387758 -0.32826534 0.036444295
-0.17718741 0.48234934 -0.26698828 0.1414704 0.09422789 0.019272245 0.4166577 0.18852311
-0.05722335 -0.1380503 -0.39846593 0.13144076 -0.18109332 0.35995945 0.21649922 0.24148718
0.04451379 -0.23884353 0.015491472 0.020111201 -0.14471063 -0.11598912 0.11372189 0.0031422907
-0.047157306 0.059732758 -0.15183932 -0.11268346 0.17554618 0.04105812 -0.19838984 -0.003579349
-0.028573113 -0.039783046 0.119400844 0.10892322 -0.010795465 0.010388476 0.06897842 0.06330737
-0.09423715 -0.07424198 0.15303622 0.21197122 0.045215953 0.121258214 0.060033053 -0.08671359
0.0037532502 -0.29808414 0.06699466 0.17053413 -0.022932652 0.004008488 0.025450112 0.1070383
-0.22817357 -0.052419167 -0.114607275 -0.14170566 -0.021315746 0.2515031 0.09952374 0.03838353
-0.22968963 -0.18497792 0.17157558 -0.08957284 0.03989141 0.034472752 -0.18419439 -0.07678034
-0.13271503 0.046177644 0.060390424 -0.042232648 0.046015307 0.2117031 -0.09841863 0.011550676
0.11383847 0.3143643 -0.011823437 -0.06910167 -0.1428682 -0.021539135 -0.037695203 0.0128790485
-0.09657323 -0.057585575 0.14093536 0.14271764 -0.1721717 -0.032590415 0.030975059 0.031998567
0.047156323 0.0409514 0.061095078 -0.14751428 0.08217429 -0.03509494 -0.15184867 -0.3170164
-0.0074976664 -0.060942605 -0.040561244 -0.43586558 0.030885905 0.016712215 -0.16593072 0.038542446
-0.20735732 0.09749134 -0.14834484 -0.14035906 0.033881187 0.17408125 -0.09404536 0.059070367
0.07753318 -0.14014235 0.15897831 0.42579013 -0.08431488 -0.21053906 -0.16055685 -0.006671742
-0.027219499 0.20834033 -0.10860045 0.048673775 0.031150352 -0.031500146 0.24372104 0.16115999
0.09240264 -0.08354376 0.42648652 -0.10427543 0.06525169 0.35976532 0.126154 0.047061075

branch.net.net.8.bias f4 [64]
00000000: 5fac d53e f4f3 b83d 5a09 4c3e de90 82bc
00000010: e9c6 043e fef4 bfbd e716 0bbe 22b9 04be
00000020: 09ca afbe 3f2e 2a3e dd7b 61be a579 5f3d
00000030: 7e2a 103e 8307 fb3e e348 2fbe da6b 0e3e
00000040: 11e6 923e bb92 2b3e 292a 903e 0e7c a83e
00000050: 0da0 92be e816 c9bd f7e4 7cbe daf7 80be
00000060: 4a10 4e3e dadc d73d 067b a23c 47a3 e23e
00000070: 6091 b53e 284e 0cbe 8219 9f3e 3adb 173e
00000080: cc68 b4bd e1f3 83bd 91ee 893e 58a5 4d3e
00000090: d4e7 9bbe f929 463d bf6b f1be a35a 033f
000000a0: 654a a13d 9681 9dbe 8f8b 173e 3704 7c3e
000000b0: ba2c 0e3c 73d9 75bc fd5f bc3e 0961 db3e
000000c0: 3304 e33e b594 083e c66e f4be 3a41 85bb
000000d0: a9f2 c33e 6683 b9bc f9b6 a2be 8476 943e
000000e0: a18a a4bd ac82 8cbe 912e 0bbe dfeb ebbd
000000f0: 5f9d 363e bbd1 9e3e ac56 56bd 520f e53d
0.4173307 0.09030905 0.19925442 -0.015938219 0.12966503 -0.093729004 -0.13582955 -0.12961248
-0.34333828 0.16619204 -0.22019906 0.05455937 0.1407871 0.49029168 -0.17117648 0.1390833
0.28691152 0.16755192 0.28157166 0.32907146 -0.28637734 -0.09818822 -0.24696718 -0.25189096
0.20123401 0.10540171 0.019834053 0.44265196 0.35462475 -0.13701689 0.31074148 0.14829722
-0.08809051 -0.064430006 0.26939824 0.20082605 -0.30450308 0.048379872 -0.47152516 0.51310176
0.07875518 -0.3076293 0.14799331 0.24610983 0.008677656 -0.015005457 0.36791983 0.4284747
0.4433914 0.13337977 -0.47740763 -0.0040666135 0.38271073 -0.022645663 -0.31780222 0.2899667
-0.08034254 -0.27443445 -0.13591982 -0.11519598 0.1783347 0.31019387 -0.05232875 0.11184563

branch.net.net.10.weight f4 [64, 64]
00000000: e71e 093e 1d49 aa3d ab42 6e3e fc0b 66be
00000010: 4761 833e 771d d03d 010c 87be e6e1 85bd
00000020: 0640 5abe e52a 0cbe 7825 c5bd 4302 9c3d
00000030: a7b6 33bd 95b7 00be dba4 29be 02d6 f7be
00000040: 882b 663e eb94 5b3c 7887 95bd f99f a3be
00000050: 848e 763e 85e6 813a a40f 05bd 57a1 03be
00000060: faaf d33d d8ac 7a3e 79d5 623d bc42 993e
00000070: 1ce4 88be 7e10 37bd 23b1 dd3d 16c7 593e
00000080: f31d 40bc 3297 6c3e 97c0 38be 6c0f 383e
00000090: 7a62 08be 1bf0 67be a30f bd3e f2d8 e0bd
000000a0: d3a0 abbd 8d93 6abc 9207 d93e 1603 98be
000000b0: ee69 26bd d6e2 b1bd 3944 14bd d4d6 7b3d
000000c0: a890 593d 52c5 31be a4cf 41bf 6bfe fd3d
000000d0: d429 9d3d 0d71 c13d 2650 0c3d 2812 a03c
000000e0: 4b09 a9bd 55c5 083e 706d de3c 933c 8ebe
000000f0: 4f67 ef3d b1ca 09bd d707 003e dc92 14be
00000100: 85e9 2ebd f1b8 7fbe 42cc c03d d0d4 90bd
00000110: 3385 01bd d575 dcbb be2a 9f3b e0a4 a1ba
00000120: 7486 6cbd c2b7 693d ba83 d5bd 996b 423d
00000130: 18aa d73d 1437 933d 92b8 8cbd f355 453c
00000140: 1d71 d23c 8043 0a3e 650d b23d 1070 973b
00000150: 947b 6a3b b5a2 823c 136f f7bd 42b5 17bd
00000160: 8104 17bc d33b 49bc ac02 4e3c 7c04 a43d
00000170: cd90 db3d 1800 44be 5ece 5e3d 7b80 a33c
00000180: 37d7 2cbc 2cea ca3c d803 1a3b 6332 da3c
00000190: 2226 9cbd badc 313c a715 91bd e292 063e
000001a0: 52aa a0bc b274 3bbe f5ab 20be 6ba4 343d
000001b0: ca2e e13c cfc9 733e f25d bf3c 7038 ba3d
000001c0: 2ae9 313d aa9c a53d eb13 e2bd dd5e 27be
000001d0: 027e 103d 80ce 5e3d 1f6d f3bd 7308 f13d
000001e0: 2418 06bd b4e8 6f3d f408 38bd d609 59bd
000001f0: 5514 133c 9953 6c3d df0f ba39 8b69 99bc
00000200: 298a b5bd 69c2 593e 510b 9cbc e90e aa3d
00000210: 3e8d af3d e6cd dbbd 1139 1cbc eab4 7dbd
00000220: 067e c23d aa04 8bbc 7828 ea3d 81a0 91bd
00000230: 6034 863d ec09 03be bc2d 243d 6bd6 163b
00000240: e622 8bbd 70c3 05be cfce fabb 35fb 4e3d
00000250: 3d30 ccbd 2f3f 963e 4966 f83d a0dd a5b9
00000260: e1e9 86bd 0252 dfbd efff efbc 788a 733e
00000270: 2dc0 c0bd 5253 973e d634 a2bd 7659 0fbe
00000280: b6b4 b1bd 5955 69bc ca71 6b3d aef9 d03c
00000290: 132e 5c3d 53c3 aa3d e0f0 30bd ad43 fdbc
000002a0: 984e 2a3d 3df6 26be 526c 843d 61fb dabc
000002b0: 0acd 8ebe 242a 6bbe 8ebc afbb 0892 a93d
000002c0: 283d 173e 60bd 8d3d 8d63 84bc a281 05bd
000002d0: 3af8 263e b2ef a8bd e662 e53d 34f8 983e
000002e0: 6f00 84bd 0e66 9c3d fc65 193d c50d 2a3c
000002f0: 91d0 71bd 1c27 99bd b7a4 02be 078a e1ba
00000300: 1676 45be 869a 9dbe b23f b6bd af88 f43d
00000310: c8d9 933c c206 b9bb e391 eebd 9297 43bd
00000320: 1f5c b0bd b3fd 82be 5d65 36bd ded2 e9bd
00000330: d207 47bd f74c a4bd 747c 81bb c8cf 3abe
00000340: 08ff a6bc b50c 4ebc a7f2 22be 6367 5ebe
00000350: aa9d 773d 8541 c9bd bd83 28bd 20b6 d0bd
00000360: 39ec 393d 5bca 6c3d c224 293e a938 5e3d
00000370: 12e4 9bbd ae03 abbb f53d acbd 705c 553d
00000380: 7801 6a3d 8a27 72bc 31e6 253c ee13 0e3e
00000390: f9e5 36be 269d 0c3d 9b1a 843e 22da 39bd
000003a0: 0e73 fabc 9af2 6cbd 5ec2 f8bd 7c73 36be
000003b0: 66fc 243d 700e 7d3e 0415 bdbd 30e0 8e3d
000003c0: 343f 09be 6d38 bd3b 6573 3abd 7570 af3d
000003d0: b4d0 053e 2bfe 0a3e aa18 08be a1b3 b73d
000003e0: 48dd 01be 2796 4a3e 1a15 c2bc 7dc0 9fbc
000003f0: 6687 bdbd 3236 cc3d 35ae d23d 25de 8a3d
0.13390695 0.083147265 0.2326762 -0.22465509 0.25660154 0.1016187 -0.26376346 -0.06537227
-0.21313486 -0.13688238 -0.09626287 0.07617619 -0.043875363 -0.12570031 -0.16566794 -0.48405463
0.22477543 0.013402204 -0.07301229 -0.31957987 0.24077803 0.0009910619 -0.03248562 -0.12854515
0.10336299 0.24479997 0.055379365 0.29933727 -0.26736534 -0.044693463 0.10824802 0.21267352
-0.01172589 0.23104551 -0.18042217 0.17974633 -0.13318816 -0.22650187 0.36925992 -0.10978879
-0.08380284 -0.014317405 0.42388588 -0.29689854 -0.040628366 -0.08685844 -0.036197875 0.061484173
0.05311647 -0.17360428 -0.7570746 0.12402042 0.07673994 0.09445391 0.034256123 0.019539908
-0.082537256 0.13356526 0.027151793 -0.2778059 0.116896264 -0.033640567 0.1250299 -0.14509147
-0.04270317 -0.24972893 0.09413959 -0.07071841 -0.03162117 -0.006727914 0.00485739 -0.0012332462
-0.057745412 0.05706001 -0.104255155 0.047465894 0.1053049 0.0718824 -0.068711415 0.012044418
0.025688702 0.13502312 0.08693961 0.004621513 0.0035779225 0.015946725 -0.120817326 -0.037038095
-0.009217382 -0.01228233 0.012573879 0.08008668 0.10720978 -0.19140661 0.054396026 0.019958725
-0.010549358 0.024769865 0.0023500826 0.026635354 -0.07624461 0.010855848 -0.07084208 0.13141969
-0.019612465 -0.18306234 -0.15690596 0.044102114 0.027488131 0.23807453 0.023360226 0.09092796
0.043435253 0.08086522 -0.11038955 -0.16344781 0.03527642 0.054396152 -0.118860476 0.1176919
-0.032737866 0.058571532 -0.044930413 -0.052987896 0.0089770155 0.057696912 0.0003548851 -0.018727085
-0.088642426 0.21265568 -0.019048365 0.08303625 0.08571862 -0.107326314 -0.00953509 -0.06194011
0.09496693 -0.016969997 0.114335 -0.07110692 0.065529585 -0.12796754 0.04008268 0.0023015987
-0.06793766 -0.13062835 -0.007654048 0.05053254 -0.09970138 0.2934508 0.12128884 -0.00031636376
-0.065875776 -0.109043136 -0.029296843 0.2378329 -0.094116546 0.29555756 -0.07920234 -0.1399897
-0.08677046 -0.01424154 0.057481565 0.025509682 0.053754877 0.083380364 -0.043198466 -0.03091606
0.04157886 -0.1630487 0.06465973 -0.026731195 -0.27890807 -0.22965294 -0.0053630536 0.082798064
0.14769423 0.06920886 -0.01616075 -0.03259433 0.16305628 -0.08248843 0.11200504 0.29876864
-0.06445395 0.07636653 0.037450776 0.0103792595 -0.059036795 -0.07478163 -0.12758146 -0.0017207273
-0.19283327 -0.30781955 -0.08898868 0.11940133 0.018048182 -0.0056465575 -0.116489194 -0.04775197
-0.08611321 -0.25584182 -0.04453026 -0.11417173 -0.048591442 -0.080224924 -0.0039516035 -0.18243325
-0.02038528 -0.012576272 -0.15912877 -0.21719126 0.060453095 -0.0982695 -0.04114126 -0.101909876
0.045391295 0.05781017 0.16517928 0.054253254 -0.0761186 -0.0052189445 -0.08410255 0.05209011
0.057130307 -0.014779935 0.010125683 0.1387479 -0.17861165 0.034329556 0.25801548 -0.045374043
-0.03057244 -0.05784855 -0.121464476 -0.17817491 0.04027977 0.24712539 -0.09232524 0.06976354
-0.13403016 0.0057745487 -0.045520205 0.08566371 0.13067895 0.1357352 -0.13290659 0.08969808
-0.12682068 0.19783841 -0.023691703 -0.019500965 -0.09254341 0.099712744 0.102871336 0.06780652

branch.net.net.10.bias f4 [64]
00000000: a7fe 37bc 3c2f 163f a62b eebd 87ae 283e
00000010: 593d b3bd 3fd3 21bc 1019 05bd c2a2 a03e
00000020: 397d 8a3e 3ad9 90bd 1736 b3bd 7c8f debe
00000030: 3fb7 35be 709d c43e 8380 143e 94bb f73d
00000040: adaa 933e 83ac a1bd cf22 e5bd 7b81 06be
00000050: c7e2 8cbe 506b e63c 2e84 053f b822 99be
00000060: 2c29 8e3e e5b6 f23e aa6a 883e 2673 1e3e
00000070: 5e9a eebd 0c99 993e 25e4 1dbe 5f81 13be
00000080: 8931 39bd d29f 4dbe 6287 50bd 2f07 173e
00000090: 2441 923e 1ed4 a33d 25af e13e 5dcf 983e
000000a0: 5d0b ea3e 0aa6 80be ceb2 183e 909d 383e
000000b0: 977c 383c 31fd 9d3e 07fa bbbe d804 743e
000000c0: 1ab9 a63e ce49 393e c6de 9a3d ad67 633c
000000d0: 17df a43e e449 fd3d 40bd 05bf b5de 7c3d
000000e0: d728 5e3d 2f1d fcbb 3e22 8fbe 7df5 023f
000000f0: a9ce 0abe a8e2 fabe 9b76 923d 24d5 583d
-0.011230147 0.58665824 -0.11629419 0.16472827 -0.087519355 -0.009877025 -0.032494605 0.31374174
0.27048662 -0.07072683 -0.08750551 -0.43468845 -0.17745684 0.38401365 0.14502148 0.120963246
0.28841153 -0.07894232 -0.1118828 -0.1313533 -0.27516767 0.028127342 0.52154815 -0.299093
0.27765787 0.47405162 0.26643878 0.15473613 -0.11650537 0.29999578 -0.15419061 -0.1440482
-0.045213256 -0.20080498 -0.05091036 0.14748834 0.28565323 0.079994425 0.44078937 0.29845706
0.45711794 -0.25126678 0.14911959 0.18028855 0.011260173 0.30857232 -0.36714193 0.23829973
0.32563096 0.1809456 0.07562022 0.013879699 0.32201454 0.12367609 -0.522419 0.061735827
0.054238167 -0.0076939086 -0.27955812 0.51155835 -0.13555397 -0.4900105 0.071515284 0.05293764

trunk.net.0.weight f4 [64, 3]
00000000: b34b fbbc c201 f7be 6bac d4be 4795 1d3f
00000010: 582e 9cbe 269a 793e f258 503e afaf 5d3f
00000020: 3e9b a7be 574c 79be e27d 3c3f 3f67 44bf
00000030: 89d5 a3bb 8d31 643f 8b48 f4be cabd e3bc
00000040: 852b d63e 5276 9dbe e138 afbe 07d7 54bf
00000050: d2a2 4b3f 844e c63e 8654 2a3f f7f8 dabc
00000060: 466c 0f3d 6eb9 a0be bf1c b4be a002 5dbe
00000070: f75c 3e3f 1736 843e a77a 2a3d 4a77 ebbd
00000080: b769 17be 562b 0bbf 78e4 283e d1a4 4dbf
00000090: 3cbc 2dbe 68fd b4bd 1819 fd3e e70a 9ebe
000000a0: 5122 4dbf 28b6 bbbe abff 17bd bc8e 903e
000000b0: 372e 1cbf ae4d 003f 532c bbbe 9e2f 84be
000000c0: 1d77 e0be 0bc4 163f 5c09 173f 90d4 4b3e
000000d0: 5330 f13e f38b eb3e 1dcb 663d ab9b a9bd
000000e0: 7862 143f 2dea bf3e 9fff 4b3f 8e18 bdbd
000000f0: ec3a a73e f8ae d43e ce84 2ebf 82dd 3b3b
00000100: 50a2 77bf d8df fb3e b3fe a0bd 4007 fa3e
00000110: b8ca 94bd 0500 293e 43a1 673f 8b05 0bbe
00000120: b2b2 1d3e 0875 4f3f 2a07 bd3d c804 c8be
00000130: 6d82 c73e 64b6 a23e 0f28 a93d fc21 03bf
00000140: 6795 18be 7ec5 f13d 1d37 483f 70f4 24bf
00000150: 7108 1bbf 9d27 d0be f743 6e3c 5493 80be
00000160: 4fcb 343f f9a1 193e b3c4 90be 543b 0ebf
00000170: d830 583f dc94 1d3e 6da5 2fbf 488f 153f
00000180: e026 5cbe 9b03 473f 1574 1cbe 37a1 c23e
00000190: 81e8 e5be 98bd 43be 89ba f6bd 6c56 0ebf
000001a0: c2d3 103e 2b80 e2be 63fe 21bf 69b9 a2be
000001b0: c96d 173e 7be3 513d 0f55 e5be 54eb f8bd
000001c0: a7c8 d1bc e57a 933e a806 83bd 5ee5 c4be
000001d0: 16f9 90be 4052 c23e 5cdb 5dbf 635b 9c3e
000001e0: 5ebc cbbe e875 653f 35f4 28bf d7d3 023f
000001f0: 1705 2ebd 7eae dc3e d70f 843e 8125 823f
00000200: 5c9b 2abf 8e3b 88be ae62 60bf eae7 503f
00000210: 7b23 70be 8081 c0bd be04 11bf dc86 96be
00000220: 73bb 4d3d a37d 45bf fc48 c6bc e457 60be
00000230: 6f34 bc3e 0617 3bbe e90b 5a3e 95d5 d7bc
00000240: dde9 e7bc 893d fcbe f9cd 4f3f ccce c6be
00000250: 18ed 9f3d 123f 14bf e135 a1be 0eb2 2ebf
00000260: df64 893d d23f 5b3d 2c6e a73f 6ae7 59bf
00000270: 217b 0dbf ef16 243f c8c7 cd3e 2f5a 0e3e
00000280: 63b2 db3e ea37 93be 35c7 9f3e dd14 b53e
00000290: 200f a33e b152 09bf 999b 3abf 60bb 4abf
000002a0: 5eae 90be 4110 513f 5b1a 1c3f e0ce a6be
000002b0: 1184 d7be f54d 02bf f289 e9bd a9da babe
000002c0: 188a 273f 4eb6 b23e 54a6 b33e c433 08bf
000002d0: e286 dd3e 9a3e f73e 7e0a 453f 2aec 14bf
000002e0: 0fe2 283f 9557 763e 5ef7 c43e 1047 21bf
000002f0: dce4 123f 05f2 a7be 58d5 5f3f cfa1 23bf
-0.030675745 -0.4824353 -0.41537794 0.61555904 -0.30504107 0.24375209 0.2034643 0.86596197
-0.32735628 -0.24345528 0.7362958 -0.7672004 -0.0049998206 0.8913811 -0.47711596 -0.02780046
0.41830078 -0.30754334 -0.34223083 -0.83140606 0.7954532 0.38731778 0.6653522 -0.026730044
0.035015367 -0.31391472 -0.35178182 -0.21583033 0.74360603 0.25822517 0.041620877 -0.11497362
-0.14786421 -0.54363 0.16493404 -0.80329615 -0.16966337 -0.08837396 0.49433208 -0.30867693
-0.8013049 -0.36662412 -0.03710906 0.28233898 -0.6100802 0.5011853 -0.36557254 -0.2581758
-0.43840876 0.5889289 0.58998656 0.19905305 0.4710718 0.4600521 0.056346048 -0.082816444
0.5796275 0.3748335 0.7968692 -0.09233199 0.3266214 0.4153974 -0.68171394 0.0028665964
-0.96732044 0.49194217 -0.0786108 0.48833656 -0.07265228 0.16503914 0.9048044 -0.13576333
0.15400198 0.8103795 0.09229882 -0.39066148 0.38966694 0.31779778 0.08259594 -0.5122373
-0.14900742 0.11805247 0.78209096 -0.6443548 -0.60559756 -0.40655223 0.014542571 -0.25112402
0.70622724 0.15003194 -0.2827507 -0.5555928 0.8444953 0.15388817 -0.68611795 0.58421755
-0.21499205 0.77739877 -0.15278657 0.38013622 -0.4490395 -0.19115293 -0.120472975 -0.5560062
0.14143279 -0.4423841 -0.6327879 -0.31782082 0.14787973 0.051242333 -0.44791457 -0.1215426
-0.025608374 0.288047 -0.06397754 -0.38456243 -0.28315037 0.37953377 -0.8666284 0.30538473
-0.3979215 0.89633036 -0.6599763 0.5110449 -0.042485323 0.43101877 0.25793335 1.0167695
-0.6664331 -0.26607937 -0.87650573 0.8160387 -0.23451035 -0.093997 -0.5664786 -0.29399765
0.050227594 -0.7714483 -0.024204724 -0.21908528 0.36758754 -0.18270501 0.21293606 -0.026346961
-0.028309757 -0.49265698 0.81173664 -0.38829648 0.07808894 -0.5790874 -0.3148642 -0.6824044
0.06708693 0.05352766 1.3080497 -0.85118735 -0.55266005 0.64097494 0.40191483 0.1390159
0.42909536 -0.28753597 0.3120667 0.3536748 0.31847477 -0.536418 -0.72893673 -0.7919216
-0.28258032 0.81665426 0.60977715 -0.32579708 -0.42092946 -0.50900203 -0.11403264 -0.3649495
0.6544509 0.34904712 0.35087836 -0.5320399 0.4326697 0.4828995 0.76969135 -0.5817286
0.6596994 0.24056847 0.38469976 -0.6299906 0.5738046 -0.32801834 0.8743491 -0.63918775

trunk.net.0.bias f4 [64]
00000000: 2910 b4be dcbf d8be c470 68bd 5265 7abe
00000010: d3b1 833e 8756 ca3d aa17 a93e 790c e8be
00000020: fd2a d73e 733e efbe 999a 32bd 87ef b4bd
00000030: 2586 233e c803 08bf 47e1 2fbe 71c8 0abf
00000040: e176 c3be 8688 bd3e 873d b73e 9e98 fd3d
00000050: bd4d bcbe 3ee7 69be deaf 3ebd 791a ccbe
00000060: 5e81 0dbf 675c 96be b27c 03be 2652 2cbe
00000070: 099d 903e 86ac 223f e9a9 eb3e 64ef 89bb
00000080: 80dc aa3e 28ba 353d 772e 07be 8a1d 9fbe
00000090: 494a d9be a14b 983e 0997 bfbe 4089 e33d
000000a0: d5cf c33e 9a1c 22bd 2f77 2ebe 08c8 923e
000000b0: 4754 cbbd aefa 5fbe 632e 1dbe bed6 f0be
000000c0: 1698 ba3e e009 223f 0b08 283e 57e0 553b
000000d0: f1dc 36be 4086 adbd 7a27 f7bd 5a9f 26bf
000000e0: 2894 2cbf 85d6 d7be fa5c 06bf 38ce e9be
000000f0: 3b97 0f3f a05e 4bbd 861e 8ebe d0df 033e
-0.3516858 -0.42333877 -0.056748167 -0.24452713 0.25721607 0.09879785 0.33025867 -0.45322016
0.42024985 -0.46727332 -0.043604467 -0.08834749 0.15969141 -0.5313077 -0.1717578 -0.542121
-0.38176635 0.37018222 0.3578913 0.12382625 -0.3677806 -0.22842118 -0.04655444 -0.39863947
-0.55275524 -0.29367372 -0.12840536 -0.16828212 0.28244808 0.635445 0.4602807 -0.004209446
0.33371353 0.044366986 -0.13201319 -0.31077224 -0.42439488 0.297452 -0.37419918 0.11110163
0.382445 -0.039578058 -0.17037652 0.28668237 -0.09928184 -0.2187297 -0.15349726 -0.47038835
0.36444157 0.6329632 0.16409318 0.0032634938 -0.1785772 -0.08472872 -0.120680764 -0.650869
-0.6741357 -0.42155853 -0.5248562 -0.45665145 0.56090134 -0.04965079 -0.27757663 0.12878346
