model_summon/Reconstruct/Checkpoint_SEED42_LR0.005_HD30_HL2_Epoch63_WithPhysics1_WithBatch1_Pretrain50.pth (torch, 102813 bytes, 80 tensors)

0.weight f4 [30, 2]
0.5222709 0.7875238 -1.1819484 2.9343297 -0.2085193 -0.037369702 -0.50690186 1.4564307
0.64294934 -0.7091778 0.042498697 0.40694043 0.6860042 -0.07713252 0.14076051 0.033737082
0.15597768 0.78088266 -0.5983261 -0.025768898 -0.2647387 -0.1469414 -0.6813243 1.8809698
-0.46504748 -0.73540527 -0.56107724 -0.21191888 0.18288983 -1.9567057 0.7566902 -2.0652227
0.41641104 0.54283714 -0.15389569 -0.22782409 0.61720216 0.36132228 0.17666872 -0.28412992
-0.22350024 -0.30048704 0.21924996 0.70351523 0.6065307 -0.6314508 0.5804318 0.24355435
1.2622483 -0.4604494 -0.4023215 -0.2869158 -0.638566 1.4220707 0.2896256 0.40215078
-0.28119323 -0.28818545 1.6765814 -0.53650796
00000000: 8cb3 053f 299b 493f 164a 97bf 0fcc 3b40
00000010: 1586 55be f910 19bd 52c4 01bf 526c ba3f
00000020: 5498 243f ad8c 35bf 1d13 2e3d 7f5a d03e
00000030: f99d 2f3f a8f7 9dbd 8623 103e e52f 0a3d
00000040: 9db8 1f3e ede7 473f e62b 19bf 4c19 d3bc
00000050: d58b 87be ce77 16be 456b 2ebf 9ec3 f03f
00000060: b41a eebe 8543 3cbf c2a2 0fbf 4301 59be
00000070: 7947 3b3e 5575 fabf 73b6 413f 9c2c 04c0
00000080: d433 d53e 60f7 0a3f d596 1dbe b84a 69be
00000090: f600 1e3f 3cff b83e a5e8 343e 7a79 91be
000000a0: 3fdd 64be 70d9 99be 1083 603e 9319 343f
000000b0: 9945 1b3f c2a6 21bf 2e97 143f 5066 793e
000000c0: 5a91 a13f 06c0 ebbe 15fd cdbe a1e6 92be
000000d0: 1079 23bf 6a06 b63f cf49 943e b5e6 cd3e
000000e0: 8ff8 8fbe 0b8d 93be 389a d63f 9658 09bf

0.bias f4 [30]
-0.491817 -2.1788273 0.6231602 -1.9739051 1.190952 0.94260395 2.1232169 -1.0729902
-0.5248331 -1.5274533 1.1438601 0.38381514 0.9463125 -0.91039675 -1.9870087 -0.42352754
-0.40864465 0.593508 -0.30276224 0.9737082 -0.29817712 -1.2730817 1.3269352 -0.10310617
-0.28250486 -1.8351161 0.47266436 -0.85878915 -0.072239056 1.6285484
00000000: 70cf fbbe e871 0bc0 6d87 1f3f eca8 fcbf
00000010: 1d71 983f 7e4e 713f c9e2 0740 be57 89bf
00000020: 765b 06bf 9783 c3bf 026a 923f 6b83 c43e
00000030: 8941 723f c30f 69bf 4d56 febf 9ad8 d8be
00000040: df39 d1be 24f0 173f a703 9bbe f144 793f
00000050: acaa 98be 57f4 a2bf 03d9 a93f 5429 d3bd
00000060: 7aa4 90be 16e5 eabf 1001 f23e 9bd9 5bbf
00000070: 12f2 93bd 4674 d03f

2.weight f4 [30, 30]
-0.13307627 -0.5699705 0.344247 0.17351566 -0.46847656 -0.20888399 -0.07477047 -0.46448964
-0.39740738 -0.052191753 0.8689594 0.6853881 0.84292 -0.40553495 1.586519 -1.0486889
-0.8017007 -0.014633356 -0.384339 -0.23863162 0.15511781 -0.14011487 -0.17751583 -0.80705744
-0.6871589 -0.090866245 0.7263403 -0.7176161 -0.3494343 -0.31831738 -0.19103171 -0.24766126
-0.16679667 -0.10321155 -0.30902815 -0.0510966 0.085501745 -0.06973979 -0.02932628 0.030677563
0.40261164 0.3256727 0.0043201125 0.0006734442 0.49208647 -0.3525843 -0.29862377 -0.16242023
-0.13140185 -0.06748199 0.36186764 -0.14149298 0.118832946 -0.33093765 -0.07523317 -0.23138602
0.18261395 -0.005507146 0.20417975 -0.20710824 -0.1138873 -0.8228364 0.041871894 -0.51458603
0.34854504 -0.1364854 -0.7773542 -0.17153135 0.03728446 0.59199345 0.4883535 0.28727508
-0.19384438 0.41967955 0.060476854 -0.41631785 -0.25427642 0.20509416 -0.12861873 -0.41800776
0.47888362 0.29314435 0.23923515 -0.30835274 0.18070446 0.054232292 -0.02556907 -0.2244453
0.23989463 0.2321754 0.25653258 0.48240536 0.092838965 0.29034346 -0.46343276 0.2805261
0.0483482 -0.2465179 0.02723048 0.19312355 0.24125117 0.639834 0.039511446 0.06972506
-0.23390332 -0.92393976 0.036776926 0.048620008 0.19354016 -0.10382035 -0.21201465 0.09948082
-0.36167023 0.0819178 -0.41311726 -0.14131251 0.72017837 -0.08815292 -0.29667288 -0.10037762
0.042236112 0.401165 -0.4496512 0.25017926 -0.16431746 0.037893 0.39221022 0.36451387
-0.004319582 -0.49241886 -0.29310802 0.071438335 -0.034686238 -0.2648896 -0.33748716 0.28283244
0.34027445 -0.08255813 0.041578982 -0.13096929 -0.14083125 -0.020206148 -0.10796216 0.21907285
0.21032387 0.012988343 -0.007017296 -0.04110208 -0.0004023381 -0.455082 -0.10058198 -0.69121724
0.19163363 -0.51800966 0.26390752 -0.5464806 -0.030050147 -0.093262926 -0.43837893 0.0849566
-0.11582247 -0.46435973 0.06768172 -0.02963255 0.32200757 0.27371082 0.06130177 0.019495158
0.0321209 0.33299592 0.3141782 -0.4120753 0.2433704 0.0075371126 0.0888199 0.36876145
-0.44393456 -0.010868168 0.07888642 -0.24272555 0.5183231 -0.08575084 -0.037543323 0.4370456
0.070595875 0.07722591 0.063735634 0.30908746 0.36797956 -0.38740122 -0.08520418 0.06731565
-0.43761855 -0.35121483 -0.47524202 -0.20316082 0.16671704 -0.23420319 0.3423395 -0.20367149
-0.12048799 0.26529777 -0.3987284 -0.044136766 0.10573065 -0.28926423 0.120111346 0.18800518
-0.37884176 -0.24241191 -0.06503316 0.16160819 0.39212042 0.00314004 -0.23056321 0.1427593
-0.26018497 -0.3083897 -0.29636428 0.27411285 0.59787524 -0.25205737 0.16494845 0.0030169657
0.14444028 0.53461 -0.07412784 0.24047548 -0.18396899 -0.20354515 -0.20229687 -0.041474983
0.082434796 -0.21999188 -0.18068291 -0.057030153 -0.5130221 -0.28052348 -0.4247843 -0.24995205
0.046746682 -0.11334404 0.20852065 -0.16028081 -0.030998604 0.4025632 -0.10861854 -0.4700185
0.16177757 -0.12846953 0.12592156 0.31400695 -0.04353738 -0.21415575 -0.6070558 -0.69469154
00000000: 2545 08be 96e9 11bf 2541 b03e 17ae 313e
00000010: 29dc efbe afe5 55be 4321 99bd 96d1 edbe
00000020: fb78 cbbe 05c7 55bd 2074 5e3f 9875 2f3f
00000030: 9bc9 573f 47a2 cfbe 0e13 cb3f 703b 86bf
00000040: 423c 4dbf bec0 6fbc 15c8 c4be d95b 74be
00000050: 34d7 1e3e 467a 0fbe b6c6 35be 519b 4ebf
00000060: a5e9 2fbf 1518 babd 70f1 393f b0b5 37bf
00000070: 0de9 b2be 7ffa a2be d19d 43be ea9a 7dbe
00000080: bfcc 2abe 9460 d3bd f038 9ebe ab4a 51bd
00000090: 8a1b af3d bcd3 8ebd ab3d f0bc 834f fb3c
000000a0: 1d23 ce3e 92be a63e bb8f 8d3b 138a 303a
000000b0: c2f2 fb3e ee85 b4be 37e5 98be 7d51 26be
000000c0: 358e 06be ff33 8abd b746 b93e 89e3 10be
000000d0: b05e f33d a970 a9be d913 9abd 75f0 6cbe
000000e0: 27ff 3a3e 4a75 b4bb 7f14 513e 2f14 54be
000000f0: bf3d e9bd 68a5 52bf dd81 2b3d e9bb 03bf
00000100: 7f74 b23e d4c2 0bbe af00 47bf eaa5 2fbe
00000110: 97b7 183d e28c 173f 7809 fa3e b815 933e
00000120: 247f 46be 3de0 d63e 94b6 773d 9d27 d5be
00000130: 8530 82be 3404 523e a1b4 03be 1d05 d6be
00000140: 3c30 f53e 0417 963e 0ffa 743e 69e0 9dbe
00000150: 970a 393e ae22 5e3d 3a76 d1bc fdd4 65be
00000160: f0a6 753e 63bf 6d3e 3d58 833e d6fd f63e
00000170: 5b22 be3d e6a7 943e 0f47 edbe 1ea1 8f3e
00000180: c308 463d 306f 7cbe 7512 df3c 2ec2 453e
00000190: 8c0a 773e 29cc 233f c1d6 213d 03cc 8e3d
000001a0: 5a84 6fbe 5187 6cbf 67a3 163d c625 473d
000001b0: 642f 463e c39f d4bd 5e1a 59be 9abc cb3d
000001c0: d72c b9be 85c4 a73d 1b84 d3be 3ab4 10be
000001d0: 9c5d 383f 8589 b4bd 82e5 97be c892 cdbd
000001e0: c6ff 2c3d 8065 cd3e af38 e6be 7f17 803e
000001f0: d642 28be b135 1b3d c7cf c83e 90a1 ba3e
00000200: 488b 8dbb 531e fcbe 4112 96be 434e 923d
00000210: 2813 0ebd 9c9f 87be 1ecb acbe 6acf 903e
00000220: 7438 ae3e 3d14 a9bd b94e 2a3d d01c 06be
00000230: 1136 10be 5d87 a5bc 441b ddbd a254 603e
00000240: 245f 573e 0fcd 543c 58f1 e5bb a85a 28bd
00000250: e8f0 d2b9 8200 e9be edfd cdbd 9df3 30bf
00000260: 9b3b 443e 489c 04bf e31e 873e 27e6 0bbf
00000270: ba2b f6bc a200 bfbd 3473 e0be bafd ad3d
00000280: 5534 edbd 8fc0 edbe b79c 8a3d f6bf f2bc
00000290: 2dde a43e d323 8c3e 9117 7b3d 4fb4 9f3c
000002a0: 3491 033d 717e aa3e f7db a03e 89fb d2be
000002b0: 1736 793e e2f9 f63b 35e7 b53d 4dce bc3e
000002c0: 644b e3be 6710 32bc 348f a13d 0c8d 78be
000002d0: d3b0 043f 239e afbd 07c7 19bd 71c4 df3e
000002e0: 9294 903d 9e28 9e3d d487 823d b640 9e3e
000002f0: d167 bc3e 7459 c6be 877f aebd cadc 893d
00000300: 8a0f e0be 6ed2 b3be ec52 f3be 6409 50be
00000310: dfb7 2a3e f6d2 6fbe 1f47 af3e 428f 50be
00000320: 68c2 f6bd 1cd5 873e 2126 ccbe c1c8 34bd
00000330: 5089 d83d 711a 94be f0fc f53d 6e84 403e
00000340: 8cf7 c1be d43a 78be 1b30 85bd 9e7c 253e
00000350: 02c4 c83e 21c9 4d3b c318 6cbe 7e2f 123e
00000360: f736 85be 41e5 9dbe 0fbd 97be 8558 8c3e
00000370: 5a0e 193f aa0d 81be 3fe8 283e 49b8 453b
00000380: 27e8 133e 33dc 083f 56d0 97bd 343f 763e
00000390: 5e62 3cbe 246e 50be e926 4fbe ace1 29bd
000003a0: 93d3 a83d 8d45 61be f104 39be 7398 69bd
000003b0: 6b55 03bf c6a0 8fbe 547d d9be 6ef3 7fbe
000003c0: 7379 3f3d ec20 e8bd 7086 553e a720 24be
000003d0: c9f0 fdbc c41c ce3e 6673 debd 44a6 f0be
000003e0: 05a9 253e 848d 03be 95f1 003e 85c5 a03e
000003f0: 4054 32bd a54b 5bbe 0268 1bbf 4ed7 31bf

2.bias f4 [30]
0.7092043 0.29628855 0.33789176 0.13333648 -0.09458852 -0.15738343 -0.03198054 0.5597106
0.22665724 -0.18301643 0.28867763 -0.33350608 -0.29666352 -0.31979173 -0.04958364 -0.2262636
0.066964515 -0.20247374 1.1451486 0.1712559 0.64429677 -0.48154336 0.06372281 -0.47446412
-0.3257598 -0.18391606 -0.08925655 0.3402968 0.06752621 0.39799315
00000000: 6a8e 353f 22b3 973e 2600 ad3e 5c89 083e
00000010: a0b7 c1bd 1f29 21be 07fe 02bd 3249 0f3f
00000020: d618 683e a968 3bbe 8ecd 933e 4fc1 aabe
00000030: 48e4 97be bebb a3be 3718 4bbd a5b1 67be
00000040: b124 893d 4755 4fbe 3b94 923f b55d 2f3e
00000050: a2f0 243f da8c f6be 1b81 823d f6ec f2be
00000060: fdc9 a6be 7e54 3cbe 23cc b6bd 623b ae3e
00000070: 2e4b 8a3d c2c5 cb3e

4.weight f4 [5, 30]
0.0035329873 0.024322703 -0.29499125 -0.00017507198 0.16632268 -0.17940463 0.14209259 -0.10673163
-0.21029358 -0.15832955 0.12698875 -0.14028841 -0.1318309 -0.0264798 -0.15449212 0.08052698
-0.013504674 0.10064806 -0.07730149 0.13836576 -0.10079629 0.16907564 -0.14976047 0.14683689
-0.034630205 -0.18571985 0.1490306 0.24945338 -0.060885698 0.21864901 0.3205328 0.15761523
-0.28595996 -0.25791162 0.10401234 0.17806958 0.05896938 0.14499417 -0.055676296 -0.35419855
0.11839131 0.04681376 -0.050033923 -0.09447207 -0.24444504 0.18332447 -0.17949115 -0.14363253
0.38689098 -0.073101155 0.19004388 -0.0437304 0.16289921 0.14705612 0.057822175 -0.059864625
0.010290492 -0.04158628 -0.17206942 -0.07773472 -0.51961476 -0.09251046 -0.17127189 -0.2644611
0.14327905 0.31059706 0.38362756 0.18487532 -0.113015346 -0.0061427876 0.2212807 0.15384114
-0.06793126 -0.15961914 -0.18413104 0.14704588 -0.4569706 -0.34655988 0.03262364 -0.16520989
-0.5763261 -0.15947251 0.08535508 0.055642534 -0.0470257 -0.038438357 -0.25770158 -0.17321035
0.21252711 0.12077575 -0.20565829 -0.17914712 -0.22706744 -0.12740599 0.01938924 0.062890895
-0.20320876 0.35569856 0.19652794 -0.22086285 0.012853325 -0.038947467 0.15804096 -0.2759181
0.075437024 0.115888864 0.3684965 0.052287485 -0.042157415 -0.024407474 -0.2490215 0.23966059
0.10772265 -0.5095103 0.396148 -0.30390668 0.047547366 0.29487872 0.060064945 -0.06691873
-0.092900775 -0.010820041 0.4435603 -0.14719881 0.18093164 0.54037076 -0.4755382 -0.20123366
0.06548274 -0.09551093 -0.3414122 0.016682608 -0.31487587 0.16516629 0.213781 0.06277977
0.15967256 -0.03440721 -0.318225 0.47833884 0.14131525 0.22701466 -0.1969534 0.17946486
-0.33620963 0.09146552 -0.69007736 -0.008737993 0.07044668 0.28320608
00000000: b189 673b 6840 c73c 1809 97be 8793 37b9
00000010: 7e50 2a3e d9b5 37be b880 113e 1d96 dabd
00000020: 3357 57be 2421 22be 5709 023e c4a7 0fbe
00000030: aefe 06be 2aec d8bc 2f33 1ebe 54eb a43d
00000040: b542 5dbc 9220 ce3d 3e50 9ebd c1af 0d3e
00000050: 496e cebd 2a22 2d3e cf5a 19be 695c 163e
00000060: 67d8 0dbd 582d 3ebe 7a9b 183e b570 7f3e
00000070: 4863 79bd 87e5 5f3e e01c a43e e365 213e
00000080: 5869 92be fe0c 84be 6c04 d53d df57 363e
00000090: e089 713d 5a79 143e d40c 64bd 8359 b5be
000000a0: 2577 f23d c9bf 3f3d 5ff0 4cbd 937a c1bd
000000b0: cd4f 7abe 69b9 3b3e 87cc 37be 6814 13be
000000c0: 9316 c63e 0fb6 95bd dd9a 423e a61e 33bd
000000d0: 0dcf 263e e195 163e f2d6 6c3d 9c34 75bd
000000e0: 7499 283c 6056 2abd f732 30be 6233 9fbd
000000f0: 7905 05bf 2076 bdbd e661 2fbe 7267 87be
00000100: beb7 123e 9406 9f3e d56a c43e f54f 3d3e
00000110: 9774 e7bd 7049 c9bb 6897 623e 8888 1d3e
00000120: 8b1f 8bbd 3373 23be d98c 3cbe 3293 163e
00000130: 0df8 e9be 4c70 b1be 5ea0 053d c82c 29be
00000140: 1b8a 13bf c34c 23be a5ce ae3d 6de9 633d
00000150: 059e 40bd 8a71 1dbd 76f1 83be 0e5e 31be
00000160: b5a0 593e 4759 f73d 1698 52be 5872 37be
00000170: 5e84 68be b776 02be 2fd6 9e3c f1cc 803d
00000180: f515 50be 1f1e b63e 9f3e 493e df29 62be
00000190: c196 523c 6187 1fbd 7dd5 213e 2345 8dbe
000001a0: ba7e 9a3d 2457 ed3d 93ab bc3e 672b 563d
000001b0: 41ad 2cbd 2ff2 c7bc 7eff 7ebe 9669 753e
000001c0: b19d dc3d 446f 02bf e9d3 ca3e a899 9bbe
000001d0: 07c1 423d 58fa 963e a906 763d b00c 89bd
000001e0: c342 bebd 8b46 31bc 561a e33e 49bb 16be
000001f0: 2546 393e bd55 0a3f be79 f3be 3210 4ebe
00000200: d11b 863d 3c9b c3bd 94cd aebe f7a9 883c
00000210: 6937 a1be 5a21 293e 68e9 5a3e ae92 803d
00000220: 3481 233e 93ee 0cbd 63ee a2be d4e8 f43e
00000230: f2b4 103e 8876 683e 27ae 49be a3c5 373e
00000240: ab23 acbe 4652 bb3d e9a8 30bf cd29 0fbc
00000250: 5946 903d 6300 913e

4.bias f4 [5]
0.16152486 0.11604799 -0.14881058 0.028452162 -0.99366623
00000000: c666 253e 92aa ed3d cd61 18be 8214 e93c
00000010: e960 7ebf

0.weight f4 [30, 2]
0.56615305 0.41216648 -0.11618355 1.18867 0.110147074 -0.25336364 -0.6782065 -2.1705701
-3.7257807 0.5144225 -0.4106271 0.116662785 -0.78958607 0.07405408 0.3171066 -0.7615069
0.53320324 0.5159654 -0.874839 -0.49837524 -0.581106 -0.415511 -0.4849743 0.10829057
0.067082815 -0.77141064 -0.161961 -0.28492075 1.3503541 -0.20379919 -0.45422986 1.0041217
-0.14759912 1.1115731 0.20460312 1.0023582 -0.2670519 1.0911522 1.0075107 -0.4409042
0.48759556 0.7506311 -0.1310164 0.4560895 -0.056875832 -0.83675987 -0.035507504 0.34504074
-0.7101748 0.79056674 -1.5555911 2.4649837 0.8929829 0.05488096 -0.7135938 0.5591762
0.0930404 0.12768874 -0.58074147 3.0528722
00000000: 68ef 103f 7c07 d33e a4f1 edbd 5726 983f
00000010: ca94 e13d e1b8 81be f19e 2dbf 9fea 0ac0
00000020: 3173 6ec0 31b1 033f b73d d2be e6ec ee3d
00000030: 5022 4abf aaa9 973d cc5b a23e 1ef2 42bf
00000040: 0280 083f 4f16 043f 73f5 5fbf 0a2b ffbe
00000050: 5dc3 14bf dcbd d4be 8d4e f8be 72c7 dd3d
00000060: b762 893d 2b7b 45bf 1bd9 25be 22e1 91be
00000070: 67d8 ac3f bcb0 50be d190 e8be 0f87 803f
00000080: 3924 17be 0748 8e3f 7b83 513e 464d 803f
00000090: 07bb 88be e0aa 8b3f 1cf6 803f 32be e1be
000000a0: 20a6 f93e 5c29 403f 2a29 06be 9084 e93e
000000b0: a2f6 68bd e535 56bf 5170 11bd 2ea9 b03e
000000c0: 04ce 35bf 9562 4a3f 9c1d c7bf 4bc2 1d40
000000d0: 879a 643f dcca 603d 15ae 36bf 2c26 0f3f
000000e0: f78b be3d d6c0 023e 79ab 14bf 4262 4340

0.bias f4 [30]
-1.3845521 -0.48466787 0.5469176 0.015288584 0.56358993 -1.3211012 1.1913736 0.440761
-0.6503061 1.8380105 0.5058251 -1.2522274 -0.17391469 -0.8863301 1.8204986 -0.4554689
-1.0056678 0.09035201 -0.61025095 0.03717691 0.766291 -0.4683233 1.2449504 -0.057709314
-1.7000171 1.0572537 2.0865993 -2.2859442 -0.9925349 3.637969
00000000: 0139 b1bf 6326 f8be cb02 0c3f f87c 7a3c
00000010: 6e47 103f d819 a9bf ee7e 983f 6dab e13e
00000020: 767a 26bf ee43 eb3f c17d 013f fd48 a0bf
00000030: b116 32be 88e6 62bf 1906 e93f 3833 e9be
00000040: b9b9 80bf 7a0a b93d 6839 1cbf d146 183d
00000050: a62b 443f 12c8 efbe 895a 9f3f 9a60 6cbd
00000060: 299a d9bf 1754 873f d88a 0540 e94c 12c0
00000070: c416 7ebf 7cd4 6840

2.weight f4 [30, 30]
0.16700192 -0.4125651 -0.014619404 0.14110592 -0.12800057 -0.03521222 -0.024997542 -0.043426022
-0.07488438 -0.18824895 0.18877155 0.06609725 0.42905125 0.30528736 -0.06538827 -0.20142025
-0.34401926 -0.3030076 -0.17743762 -0.082134224 -0.17004304 -0.1501724 0.16415758 -0.26568082
0.07517603 0.11689837 0.15450664 0.1451071 -0.061520815 -0.012669347 0.019452315 -0.76183444
-0.48599294 1.0932292 -0.3806331 0.33339587 -0.68118554 0.30194172 -0.22865348 0.15048139
0.27718946 0.5428335 0.32657957 0.3948829 0.28363642 0.077583864 -0.12804812 -0.2621399
0.09918756 0.92749107 -0.13067548 -0.27915847 0.42205948 -0.39183825 0.5466019 -0.66182315
-0.25030646 0.32119706 0.06514861 -0.55490977 -0.36367822 -0.5334167 0.05137821 0.30236843
0.3660368 -0.014077425 -0.056554146 0.31340477 -0.27224278 0.11788951 0.40916935 0.36123723
0.4103732 0.421518 0.4929218 -0.2832999 -0.6773053 -0.4528309 -0.23718171 -0.069555454
-0.2732196 -0.26231456 0.79739314 -0.40346158 -0.60699546 0.0013234883 -0.26533812 -0.40614697
-0.06338005 0.005104881 0.1718921 -0.37293664 -0.2343695 0.43579087 -0.2883197 0.1873018
-0.009485143 0.053584084 -0.13533555 -0.098405555 0.048491105 0.54073775 0.11865746 0.5620211
0.16029131 -0.32885656 -0.059934452 -0.35002062 -0.5085481 0.14858605 -0.32309997 0.11759168
0.19873251 -0.030082202 -0.0087296525 -0.4924612 -0.49280608 0.102424346 0.2160982 1.1060325
-0.29452154 -0.2212872 0.216423 0.18070562 -0.13137019 0.3279969 0.08558216 0.15982963
-0.33286893 0.42509452 0.31591344 0.5328044 0.011333222 -0.20846143 -0.18741086 -0.11870575
-0.057090305 -0.16944303 -0.058892727 -0.05731785 -0.07292344 0.09468539 -0.07421547 0.061036993
0.2478485 -0.18726332 -0.39150795 0.15009704 -0.35248107 -0.09219152 -0.61159974 -0.26436633
0.38713616 0.5829289 -0.05673413 0.39594164 0.27657193 0.03297101 -0.89124763 0.7869682
0.7065236 0.342375 -0.03935839 -0.32076916 -0.5026214 0.06169583 0.2532223 -0.19269168
0.13209824 0.11563737 0.2444154 0.25928822 0.110108405 0.055577368 0.8579643 -0.8710399
-0.34874406 0.4026025 -0.7053052 -0.251862 -0.391179 0.056908317 0.27259147 -0.109167784
0.028457895 0.1407227 0.012711529 -0.04137207 -0.25896186 0.30104724 0.22910173 -0.11120495
0.15721305 0.13129172 -0.47752708 -0.0030774595 0.08880138 -0.09483981 0.033208836 -0.17438748
-0.20105071 0.08541311 0.058909647 0.027312396 0.43727505 0.054367293 -0.068689376 0.27762967
-0.18994015 -0.6289005 0.1809741 0.047016185 0.0091246255 -0.09885417 0.16211662 -0.0926284
0.106133915 -0.21606457 -0.08917385 -0.18895894 -0.11130889 -0.080073506 0.10139652 -0.0008528351
-0.0018968668 0.019596426 -0.050516486 -0.053538945 -0.035894085 -0.28886804 -0.27784416 -0.13409543
-0.057496175 0.10023597 0.11565619 0.31206262 0.041311488 0.033031076 -0.044166587 -0.013006816
-0.05493924 0.14102173 0.22135329 0.11427692 0.46032974 0.15686046 0.2638187 0.046784386
0.17002323 -0.2490979 0.13661097 0.58013195 -0.10471723 0.23680672 -0.80810124 0.23888963
00000000: 8d02 2b3e bc3b d3be 3a86 6fbc 127e 103e
00000010: 9512 03be b03a 10bd a5c7 ccbc 7cdf 31bd
00000020: fb5c 99bd 55c4 40be 544d 413e ff5d 873d
00000030: 9bac db3e a04e 9c3e 49ea 85bd 1c41 4ebe
00000040: 4b23 b0be d023 9bbe 35b2 35be fd35 a8bd
00000050: c31f 2ebe cbc6 19be ed18 283e 5107 88be
00000060: e4f5 993d 6a68 ef3d fd36 1e3e f596 143e
00000070: 40fd 7bbd 1893 4fbc 765a 9f3c 9507 43bf
00000080: 11d4 f8be efee 8b3f 57e2 c2be ddb2 aa3e
00000090: 2d62 2ebf 1b98 9a3e 2324 6abe cb17 1a3e
000000a0: c7eb 8d3e 23f7 0a3f 7035 a73e 172e ca3e
000000b0: cb38 913e 4ae4 9e3d 0c1f 03be 3337 86be
000000c0: d922 cb3d 0e70 6d3f cbcf 05be dced 8ebe
000000d0: 2e18 d83e 069f c8be 1aee 0b3f 3e6d 29bf
000000e0: 2b28 80be f173 a43e a26c 853d 910e 0ebf
000000f0: 0834 babe ff8d 08bf f571 523d 09d0 9a3e
00000100: 2d69 bb3e 00a5 66bc 52a5 67bd 9776 a03e
00000110: 6863 8bbe 0e70 f13d a57e d13e 16f4 b83e
00000120: 701c d23e 35d1 d73e 3f60 fc3e af0c 91be
00000130: e163 2dbf 74d9 e7be c3df 72be 1773 8ebd
00000140: 70e3 8bbe 184e 86be f521 4c3f 8492 cebe
00000150: 0e64 1bbf e678 ad3a 66da 87be 7ff2 cfbe
00000160: 66cd 81bd d846 a73b 7c04 303e 8df1 bebe
00000170: 8ffe 6fbe fb1f df3e a49e 93be 0bcc 3f3e
00000180: 9367 1bbc fc7a 5b3d 6795 0abe da88 c9bd
00000190: 9c9e 463d ca6d 0a3f af02 f33d 9de0 0f3f
000001a0: 6823 243e e35f a8be d47d 75bd e735 b3be
000001b0: 3530 02bf f126 183e 5c6d a5be e8d3 f03d
000001c0: 8980 4b3e f36e f6bc d106 0fbc e023 fcbe
000001d0: 1451 fcbe dbc3 d13d d948 5d3e 7992 8d3f
000001e0: 87cb 96be 1d99 62be fe9d 5d3e e50a 393e
000001f0: e885 06be 36ef a73e b345 af3d 61aa 233e
00000200: cc6d aabe fda5 d93e 68bf a13e df65 083f
00000210: faae 393c ea76 55be a2e8 3fbe 001c f3bd
00000220: 86d7 69bd 7982 2dbe 8039 71bd 1fc6 6abd
00000230: e258 95bd 6aea c13d 48fe 97bd ed01 7a3d
00000240: ffcb 7d3e f5c1 3fbe bb73 c8be 0ab3 193e
00000250: 6678 b4be e8ce bcbd cd91 1cbf 065b 87be
00000260: b636 c63e d43a 153f 0c62 68bd ddb8 ca3e
00000270: d69a 8d3e 9c0c 073d ce28 64bf bf76 493f
00000280: bbde 343f c74b af3e 4336 21bd db3b a4be
00000290: ccab 00bf c4b4 7c3d 5aa6 813e f850 45be
000002a0: c344 073e 49d3 ec3d 0848 7a3e 6dc1 843e
000002b0: 8480 e13d 18a5 633d 8ca3 5b3f 79fc 5ebf
000002c0: 958e b2be ea21 ce3e e28e 34bf 0ef4 80be
000002d0: 9d48 c8be b218 693d 1c91 8b3e 5c93 dfbd
000002e0: 8820 e93c 9d19 103e 0444 503c c275 29bd
000002f0: a696 84be dd22 9a3e a599 6a3e 6cbf e3bd
00000300: 75fc 203e 5671 063e 6e7e f4be 34af 49bb
00000310: 7fdd b53d 603b c2bd fd05 083d a292 32be
00000320: 3de0 4dbe 12ed ae3d 3e4b 713d 3fbe df3c
00000330: 84e2 df3e 3db0 5e3d 04ad 8cbd 7a25 8e3e
00000340: ac7f 42be a0ff 20bf 4651 393e 0b94 403d
00000350: 747f 153c 0e74 cabd e601 263e f5b3 bdbd
00000360: bd5c d93d 0840 5dbe c8a0 b6bd 747e 41be
00000370: eaf5 e3bd 94fd a3bd fba8 cf3d cb90 5fba
00000380: 4aa0 f8ba af88 a03c 60ea 4ebd a74b 5bbd
00000390: ad05 13bd 83e6 93be 9741 8ebe 5050 09be
000003a0: 1c81 6bbd 8448 cd3d 27dd ec3d acc6 9f3e
000003b0: 3c36 293d 984b 073d 06e8 34bd 8a1a 55bc
000003c0: f807 61bd 0068 103e 70aa 623e 050a ea3d
000003d0: 57b0 eb3e 07a0 203e 3f13 873e fca0 3f3d
000003e0: 921a 2e3e 8513 7fbe bfe3 0b3e 8783 143f
000003f0: fd75 d6bd 767d 723e b9df 4ebf 7c9f 743e

2.bias f4 [30]
-0.085370906 -0.47361973 -0.18750237 -0.49018607 0.24606751 0.454429 0.25334883 -0.11870704
0.30205575 0.5624867 0.48974428 0.08912441 -0.2217014 0.25366697 0.24369109 0.008659373
0.17540269 0.25155276 -0.2986295 0.048093304 0.18423298 -0.275133 -0.15268488 -0.39379042
-0.53693646 -0.052228823 -0.75734293 0.23073597 -0.28563112 0.097429164
00000000: f1d6 aebd 497e f2be 9f00 40be abf9 fabe
00000010: 1ff9 7b3e ebaa e83e f0b6 813e ad1c f3bd
00000020: 0da7 9a3e 21ff 0f3f c3bf fa3e dc86 b63d
00000030: b105 63be a3e0 813e 288a 793e 0be0 0d3c
00000040: c39c 333e 86cb 803e f7e5 98be 7cfd 443d
00000050: 92a7 3c3e 3cde 8cbe 6d59 1cbe e69e c9be
00000060: ab74 09bf e4ed 55bd 3ae1 41bf 0d46 6c3e
00000070: 3e3e 92be f188 c73d

4.weight f4 [5, 30]
-0.23232019 0.055424713 0.06680431 0.18971802 0.24764504 0.12032968 -0.29511645 0.03332445
-0.06420544 0.12074379 0.2474164 -0.09699466 0.18376365 0.28971955 -0.19296476 -0.102360725
0.22535905 0.22125576 0.4369699 -0.274023 0.269401 0.21022637 -0.25187418 0.1617122
0.11162705 -0.04117971 -0.15523484 -0.13073972 -0.053686664 -0.06676042 0.17453456 -0.069220535
0.15933356 0.36428043 -0.2250724 -0.2578124 -0.017612478 -0.10789122 -0.1633257 0.46854028
-0.36329544 0.27132037 0.057394072 -0.30670655 0.006085773 0.19004829 -0.28051615 -0.13293925
-0.11002148 0.11058382 -0.0851416 -0.13842829 -0.23536967 0.2938588 -0.022776512 -0.34247395
0.13959391 -0.16037606 -0.066208065 0.3662034 0.04190592 -0.8314211 -0.22081935 -0.42612442
-0.3552066 -0.37931606 0.64655423 0.22476241 -0.077244855 -0.6593923 -0.13873489 -0.117540106
-0.25180408 0.07151778 -0.08292034 0.033208743 -0.0137672 0.12287308 -0.2784688 0.28042418
-0.30965775 -0.43210748 -0.7356629 -0.18824413 0.053759865 -0.9474731 -0.24025542 -0.09749306
0.4506556 0.20462358 -0.024093144 0.09633485 -0.45330802 0.29680583 -0.16084343 0.44020632
-0.019419786 0.0536288 -0.18094371 0.35070884 0.46900108 0.009312389 -0.12946703 -0.41026026
-0.25936908 -0.041029256 -0.057130903 -0.37180293 -0.5468645 0.1965095 -0.78203076 0.07154696
-0.4672646 -0.4008857 0.34723216 0.0070007406 0.10227828 -0.09715769 0.7382965 -0.009482764
-0.24890183 -0.324816 -0.18455349 -0.035770588 -0.0578241 -0.36199224 -0.29564163 -0.37285432
0.381711 0.38152733 -0.11745912 -0.2763601 0.24038799 -0.07106105 0.23951042 0.40430948
0.21342874 -0.30543974 0.16430499 -0.14661114 -0.10269522 0.17252782 0.0060989917 -0.25367272
0.3062918 0.2011246 -0.06540324 -0.060741432 0.03058798 0.16217066
00000000: 58e5 6dbe 0605 633d b3d0 883d 7145 423e
00000010: a996 7d3e 686f f63d 8119 97be 387f 083d
00000020: 247e 83bd 8548 f73d ba5a 7d3e 23a5 c6bd
00000030: 8a2c 3c3e 1f56 943e 8e98 45be 80a2 d1bd
00000040: 86c4 663e df90 623e 85ba df3e be4c 8cbe
00000050: eeee 893e 9545 573e a7f5 80be e297 253e
00000060: b99c e43d 0eac 28bd e2f5 1ebe a2e0 05be
00000070: 8ce6 5bbd b0b9 88bd 30b9 323e 7fc3 8dbd
00000080: 5628 233e f782 ba3e 6179 66be fdff 83be
00000090: 0b48 90bc 12f6 dcbd da3e 27be 83e4 ef3e
000000a0: dc01 babe 81ea 8a3e 0c16 6b3d a408 9dbe
000000b0: 2a6b c73b 059c 423e d09f 8fbe 3a21 08be
000000c0: f152 e1bd c579 e23d b85e aebd 25c0 0dbe
000000d0: bf04 71be a974 963e cf95 babc bf58 afbe
000000e0: b5f1 0e3e 9f39 24be 1898 87bd 037f bb3e
000000f0: 8ba5 2b3d 03d8 54bf 781e 62be fb2c dabe
00000100: a4dd b5be b735 c2be 9484 253f 1e28 663e
00000110: 8d32 9ebd efcd 28bf 8510 0ebe deb8 f0bd
00000120: 77ec 80be ea77 923d 24d2 a9bd e405 083d
00000130: d28f 61bc e2a4 fb3d 7693 8ebe c293 8f3e
00000140: 768b 9ebe 313d ddbe 6754 3cbf 12c3 40be
00000150: 4e33 5c3d 998d 72bf 8405 76be 71aa c7bd
00000160: 55bc e63e d888 513e fc5e c5bc 354b c53d
00000170: fd17 e8be eff6 973e 24b4 24be b962 e13e
00000180: 3e16 9fbc dfa9 5b3d 4f49 39be 1c90 b33e
00000190: e920 f03e fe92 183c 0193 04be a20d d2be
000001a0: 06cc 84be 4b0e 28bd 1802 6abd f45c bebe
000001b0: 50ff 0bbf c939 493e 2b33 48bf 3687 923d
000001c0: 4e3d efbe e440 cdbe 6ac8 b13e 7866 e53b
000001d0: 4677 d13d 9cfa c6bd 0001 3d3f 985d 1bbc
000001e0: 1fe0 7ebe 484e a6be 97fb 3cbe 2e84 12bd
000001f0: f7d8 6cbd 0c57 b9be 575e 97be c3e6 bebe
00000200: a06f c33e 8d57 c33e 688e f0bd 127f 8dbe
00000210: 4528 763e 7588 91bd 3842 753e a701 cf3e
00000220: 108d 5a3e 9962 9cbe 913f 283e 3b21 16be
00000230: df51 d2bd 22ab 303e 0dda c73b 64e1 81be
00000240: 47d2 9c3e 9bf3 4d3e 22f2 85bd 02cc 78bd
00000250: a593 fa3c 1110 263e

4.bias f4 [5]
0.098295785 -0.3040441 -0.021607533 -0.08599447 -0.29159597
00000000: 4d4f c93d abab 9bbe 4802 b1bc de1d b0bd
00000010: 114c 95be

0.weight f4 [30, 2]
-0.8996858 0.1461802 0.042402055 1.5540558 0.032424256 0.14941773 0.38989535 0.45462608
-0.07116626 0.55659187 0.69316775 -1.9465612 -0.25703746 -0.08054476 0.3488623 1.1451858
-0.8325645 3.3830135 0.09230499 1.6400714 2.5281925 -1.1716911 -1.159323 0.20670693
-0.42661148 -0.011423713 -8.9409485 -3.2560196 -0.44435292 -0.15869433 -0.630771 -0.15979066
-0.68594027 -0.5553163 -0.019876922 0.53695226 0.8532726 -1.2239227 0.049724095 -1.3139175
-0.9781327 0.04907937 -0.04872586 -2.0765092 -2.1724956 -1.0904287 0.7382583 0.23095372
-0.2277366 -0.70327485 -0.5628106 -0.6537628 -0.7962553 0.18368523 0.09862068 -0.41604966
0.16235733 -0.6069979 -1.5823666 0.37657627
00000000: cf51 66bf 43b0 153e c7ad 2d3d 4deb c63f
00000010: 4ccf 043d f600 193e 5da0 c73e c0c4 e83e
00000020: 9ebf 91bd ce7c 0e3f 7173 313f eb28 f9bf
00000030: 6a9a 83be a7f4 a4bd 149e b23e 7395 923f
00000040: f222 55bf 4b83 5840 660a bd3d dced d13f
00000050: e8cd 2140 f9f9 95bf b264 94bf fbaa 533e
00000060: d26c dabe 862a 3bbc 200e 0fc1 a062 50c0
00000070: 3a82 e3be c480 22be 357a 21bf 2aa0 23be
00000080: c899 2fbf 3629 0ebf edd4 a2bc b475 093f
00000090: 1370 5a3f 80a9 9cbf 7eab 4b3d 732e a8bf
000000a0: e866 7abf 7307 493d c494 47bd 87e5 04c0
000000b0: 2b0a 0bc0 2b93 8bbf 7ffe 3c3f 227f 6c3e
000000c0: c933 69be d209 34bf 5b14 10bf 005d 27bf
000000d0: 63d7 4bbf fb17 3c3e a4f9 c93d 7604 d5be
000000e0: 0041 263e 3764 1bbf fd8a cabf 9bce c03e

0.bias f4 [30]
-1.5970901 1.20443 0.8629658 -0.54081833 -0.6974559 1.5450102 -0.33081397 0.72012854
-2.6340017 1.4734986 -0.50696236 -2.1146848 -0.62967736 2.1012106 1.4778544 1.6714747
0.28031546 -2.241312 0.6216106 -1.0425814 -2.7550886 -2.0370216 -0.7979979 0.69447047
-0.52677625 0.48585582 0.7786066 0.9094441 1.6747154 -0.94899106
00000000: 736d ccbf c32a 9a3f 54eb 5c3f 1273 0abf
00000010: 788c 32bf e5c2 c53f 7360 a9be 585a 383f
00000020: 7c93 28c0 9a9b bc3f 49c8 01bf ff56 07c0
00000030: 8932 21bf 3c7a 0640 552a bd3f e2f2 d53f
00000040: 8285 8f3e a871 0fc0 df21 1f3f 4f73 85bf
00000050: 5f53 30c0 905e 02c0 9749 4cbf d1c8 313f
00000060: cfda 06bf 18c2 f83e c352 473f 54d1 683f
00000070: 135d d63f 14f1 72bf

2.weight f4 [30, 30]
0.020158542 -0.25552815 -0.053177793 -0.16371481 -0.2234584 0.51933 0.12332528 -0.17541435
-0.74693066 -0.331513 0.10398165 0.18847837 0.14838259 -0.041900996 -0.05245739 -0.06709364
0.48795936 -0.3161584 0.6286578 0.1264885 0.22544906 0.22532436 0.53065276 0.042207092
0.32095945 0.009162071 -0.056523494 0.19739075 0.51863354 -0.35200667 -0.25629303 -0.17157157
-0.24807373 0.027752372 0.012498289 -0.34912536 0.22229302 0.08884248 0.17248885 -0.11810914
-0.18228842 -0.33825573 -0.004556931 -0.4321197 -0.052186105 -0.07868074 0.014318967 0.20512109
-0.07787134 -0.04528357 -0.3985834 0.15300338 0.17261407 -0.070921734 -0.082868986 0.08342131
0.16536142 -0.04123412 0.034415524 -0.21582745 0.13693744 -0.35160396 -0.13861635 0.07082448
-0.29885548 -0.071393736 -0.027520297 -0.2776377 -0.05045734 -0.32550773 0.009635558 0.10014248
-0.115956604 0.060951117 0.005336254 -0.23437041 -0.064302236 -0.023545092 0.26495054 0.22309236
0.110145815 0.17816491 -0.15891184 0.08771768 0.23837727 0.09941581 -0.025690682 0.077336185
0.27698904 0.19109033 0.30702245 0.16859365 -0.12123503 -0.052527703 0.69790703 -0.24987316
-0.026764533 0.48896074 0.35311672 0.056414157 0.1494972 0.4043073 0.09206059 0.25008076
0.008579018 -0.014005449 -0.17706127 0.3525515 -0.28939483 -0.06334628 0.40706217 -0.3540973
0.1785524 -0.15773754 -0.2884747 -0.1620372 0.099037595 -0.28922614 -0.334831 0.18234341
-0.30596694 0.7388877 0.21834229 0.16139813 -0.02132975 -0.09647566 -0.0890459 0.6644877
0.16623022 0.5882628 -0.16825835 -0.3053224 -0.05674101 0.16814452 0.15582368 -0.11151681
-0.25375903 0.048836518 -0.13023902 -0.18750249 -0.20219591 -0.69462603 -0.08924603 0.24143508
-0.5114219 -0.0897912 0.16715495 0.058906164 0.08264188 -0.12183352 -0.18248615 0.30130842
-0.3727415 0.592467 0.33967507 0.18213084 0.45708135 0.28684062 -0.14394434 0.077583134
-0.82482505 -0.15223993 -0.09947385 -0.7177459 -0.64723605 -0.4864297 0.0013956726 0.005108272
0.10103104 -0.15090667 -0.031859115 -0.17200358 0.26121905 -0.018307839 -0.12831791 -0.4901668
-0.057195716 0.21008302 0.20200133 -0.63532686 0.049651865 -0.37907526 0.21514691 -0.1838611
-0.20410775 -0.06824553 -0.3819623 -0.09256486 0.33376575 -0.46707338 -0.04960988 0.040462304
0.12511992 1.2441683 0.36690545 0.35198316 0.3389349 0.06912921 -0.22940315 0.2822913
0.055415332 0.3972918 0.26731372 0.43262798 -0.14625773 0.33595112 -0.16727729 -0.14093976
-0.041397236 0.40200675 -0.3007097 -0.03084047 0.020451356 -0.30044988 -0.514717 0.38424462
0.10696452 -0.2437092 -0.70570004 -0.054146886 -0.06603935 -0.0967585 -0.2413908 -1.3500018
0.12393993 -0.088060096 -0.10504551 -0.22710456 -0.12509467 -0.14047995 -0.1806124 0.18266422
-0.10459511 -0.07757774 -0.0035061236 0.201725 -0.03971148 0.11405541 0.59098154 -0.8411358
0.050183166 -0.53834987 -0.13691674 -0.0053855157 -0.49791315 0.73055327 -0.026429148 -0.41523138
-0.66746414 -0.3783806 0.40227258 0.13142341 -0.13079475 -0.17791207 0.10880162 -0.09261276
00000000: 8723 a53c 96d4 82be f5d0 59bd dba4 27be
00000010: 47d2 64be d0f2 043f f791 fc3d d29f 33be
00000020: d936 3fbf 12bc a9be 55f4 d43d 7900 413e
00000030: 9bf1 173e 61a0 2bbd 8fdd 56bd 6468 89bd
00000040: cfd5 f93e 84df a1be b8ef 203f 3486 013e
00000050: 1edc 663e 6ebb 663e dcd8 073f 58e1 2c3d
00000060: cc54 a43e 831c 163c 2e85 67bd cd20 4a3e
00000070: 2bc5 043f 383a b4be d738 83be 75b0 2fbe
00000080: 0a07 7ebe f158 e33c a0c5 4c3c 8fc0 b2be
00000090: c8a0 633e 0cf3 b53d eba0 303e 34e3 f1bd
000000a0: d1a9 3abe db2f adbe 4f52 95bb cb3e ddbe
000000b0: 19c1 55bd 5e23 a1bd 1a9a 6a3c 430b 523e
000000c0: 027b 9fbd 447b 39bd 2013 ccbe ebac 1c3e
000000d0: bec1 303e 6a3f 91bd 37b7 a9bd cbd8 aa3d
000000e0: 8154 293e 1ce5 28bd 4bf7 0c3d df01 5dbe
000000f0: 5439 0c3e 6f05 b4be 72f1 0dbe 6d0c 913d
00000100: 9603 99be e136 92bd 3f72 e1bc 8726 8ebe
00000110: 5bac 4ebd f3a8 a6be 76de 1d3c 8017 cd3d
00000120: a87a edbd e1a7 793d bedb ae3b ccfe 6fbe
00000130: e4b0 83bd a3e1 c0bc 99a7 873e 5372 643e
00000140: 2194 e13d dd70 363e c9b9 22be 54a5 b33d
00000150: 2c19 743e 849a cb3d 4475 d2bc 6f62 9e3d
00000160: 82d1 8d3e 2fad 433e 0c32 9d3e d0a3 2c3e
00000170: 124a f8bd 4a27 57bd 09aa 323f c0de 7fbe
00000180: 4b41 dbbc 1059 fa3e b7cb b43e 8812 673d
00000190: cb15 193e 5e01 cf3e 438a bc3d 960a 803e
000001a0: 028f 0c3c 1c77 65bc 8d4f 35be a181 b43e
000001b0: 8f2b 94be b2bb 81bd 746a d03e 3e4c b5be
000001c0: 71d6 363e f385 21be f5b2 93be 14ed 25be
000001d0: 39d4 ca3d 7315 94be f86e abbe 3bb8 3a3e
000001e0: b3a7 9cbe bf27 3d3f 1f95 5f3e 8d45 253e
000001f0: babb aebc 0895 c5bd b25d b6bd de1b 2a3f
00000200: 4138 2a3e 6498 163f eb4b 2cbe 3853 9cbe
00000210: 4369 68bd 142e 2c3e 3e90 1f3e ed62 e4bd
00000220: b4ec 81be cd08 483d 615d 05be a700 40be
00000230: 720c 4fbe 03d3 31bf 9fc6 b6bd c23a 773e
00000240: 8cec 02bf 73e4 b7bd ab2a 2b3e 9747 713d
00000250: 2540 a93d da83 f9bd a6dd 3abe 1945 9a3e
00000260: f9d7 bebe ebab 173f e4e9 ad3e 8280 3a3e
00000270: 9106 ea3e c6dc 923e 2566 13be e8e3 9e3d
00000280: bc27 53bf c9e4 1bbe f2b8 cbbd 32be 37bf
00000290: 43b1 25bf 500d f9be 00ef b63a 4b63 a73b
000002a0: 5de9 ce3d 4787 1abe b47e 02bd b521 30be
000002b0: 81be 853e 52fa 95bc c565 03be 25f7 fabe
000002c0: 0e46 6abd 0120 573e 70d9 4e3e c8a4 22bf
000002d0: c15f 4b3d 2716 c2be 794f 5c3e 1646 3cbe
000002e0: 9f01 51be 50c4 8bbd 9090 c3be a592 bdbd
000002f0: 58e3 aa3e 3e24 efbe bb33 4bbd cdbb 253d
00000300: 701f 003e e840 9f3f 08db bb3e 2337 b43e
00000310: e088 ad3e 9e93 8d3d a9e8 6abe 7c88 903e
00000320: 30fb 623d d569 cb3e 58dd 883e 6a81 dd3e
00000330: 96c4 15be c901 ac3e bd4a 2bbe 8352 10be
00000340: 2690 29bd d4d3 cd3e 9ff6 99be 27a5 fcbc
00000350: 9a89 a73c 91d4 99be 7ec4 03bf b6bb c43e
00000360: 3710 db3d e88e 79be c2a8 34bf 20c9 5dbd
00000370: a43f 87bd 5229 c6bd 262f 77be dccc acbf
00000380: 38d4 fd3d da58 b4bd 1a22 d7bd 198e 68be
00000390: d118 00be fad9 0fbe 75f2 38be 540c 3b3e
000003a0: f635 d6bd 14e1 9ebd fec6 65bb 0091 4e3e
000003b0: 81a8 22bd e295 e93d 914a 173f ad54 57bf
000003c0: dd8c 4d3d 4cd1 09bf e733 0cbe fb78 b0bb
000003d0: 79ee febe 8a05 3b3f f181 d8bc 3599 d4be
000003e0: eede 2abf 1abb c1be acf6 cd3e dc93 063e
000003f0: 0fef 05be 952e 36be 62d3 de3d c2ab bdbd

2.bias f4 [30]
-0.12401135 -0.0667742 0.03749582 -0.21205343 0.05123194 -0.4621803 0.45170724 -0.024366204
-0.20400432 -0.1468261 0.38668334 -0.6094547 -0.017144235 0.56044024 -0.24602427 0.049419917
-0.13988584 -0.24939817 0.12451339 -0.2723092 0.05584938 -0.9271166 0.95986295 0.25318775
-0.06401925 0.8337664 -0.38693056 -0.099827535 0.16738383 0.1624909
00000000: aaf9 fdbd e9c0 88bd 3895 193d 8924 59be
00000010: 95d8 513d e5a2 ecbe 2c46 e73e a29b c7bc
00000020: 82e6 50be 9559 16be 5cfb c53e 3905 1cbf
00000030: 1172 8cbc 0379 0f3f c9ed 7bbe 8a6c 4a3d
00000040: 3c3e 0fbe 3c62 7fbe e000 ff3d 1d6c 8bbe
00000050: 52c2 643d 8357 6dbf 94b9 753f d3a1 813e
00000060: 861c 83bd b771 553f c31b c6be 6172 ccbd
00000070: ab66 2b3e 0464 263e

4.weight f4 [5, 30]
0.1563931 -0.080801584 -0.070232525 0.09800875 0.24777967 0.053241707 -0.08656189 0.17720854
0.17734422 -0.0009299057 0.2689784 -0.15546449 -0.12222753 0.117135786 -0.09526604 -0.02701005
-0.102302216 0.083683595 -0.22188687 -0.27426544 0.05778892 -0.056113522 -0.10171312 -0.3737585
0.025812125 0.09553113 0.19184445 0.10115259 0.22146451 -0.018557556 0.09833034 -0.19095968
-0.18619646 -0.0446959 0.291752 0.2579008 -0.06207047 0.05360807 0.39845347 -0.08804402
-0.21163069 0.09317552 -0.028279629 -0.037285335 -0.30650663 -0.22576486 -0.0681284 0.0396018
-0.13029633 -0.2744597 0.10008304 0.34194997 0.10191826 -0.035326373 0.28961456 -0.28339773
-0.14341792 -0.20855811 0.27347872 -0.09691455 -0.2904968 -0.1722652 -0.04120007 0.19492947
0.17730191 -0.27113327 0.35480598 -0.5108166 0.044625163 0.061211098 -0.008972384 -0.10389198
-0.25053266 -0.44663152 0.31647205 0.63256913 0.043184057 0.0098985825 -0.31724286 -0.4317618
0.55657583 -0.1426507 -0.2286572 0.03361145 -0.28165 -0.10506475 -0.09529968 -0.077476956
-0.22626096 0.0056990767 -0.019383835 0.013254517 -0.05927461 0.031646073 0.15458435 -0.033381578
-0.27982646 -0.0477399 0.14094044 0.23027891 0.114068106 0.2087872 0.053512935 -0.023944553
-0.054058667 -0.005520458 -0.13192298 0.07902884 -0.30916148 -0.118462786 0.09167214 -0.13063782
0.22215432 0.056622658 0.02928328 -0.039759938 -0.052962545 0.044947278 -0.07209226 -0.024035744
-0.5795193 0.41020656 -0.44306347 -0.32883537 -0.2378554 -0.76183724 -0.27262318 -0.21358797
0.17174187 -0.100389734 -0.49209836 0.22864597 -0.5784236 -0.3699796 0.12861276 0.061147325
0.87953043 -0.6393602 1.0102282 0.99331516 0.55833644 0.6658019 -0.12294735 1.4881982
-1.2149292 0.7399507 0.2953143 -0.9701446 -0.05890795 -0.7948947
00000000: 8325 203e 4d7b a5bd 12d6 8fbd d0b8 c83d
00000010: f4b9 7d3e fa13 5a3d 5c47 b1bd 2876 353e
00000020: b999 353e eac4 73ba 89b7 893e 1532 1fbe
00000030: 6d52 fabd e3e4 ef3d d71a c3bd 2e44 ddbc
00000040: d383 d1bd 4e62 ab3d 5036 63be 856c 8cbe
00000050: 13b4 6c3d 4bd7 65bd f84e d0bd 465d bfbe
00000060: f373 d33c d3a5 c33d df72 443e 1729 cf3d
00000070: 98c7 623e 0406 98bc 6b61 c93d ef8a 43be
00000080: 49aa 3ebe 0c13 37bd 8560 953e 930b 843e
00000090: 9b3d 7ebd 2394 5b3d 1802 cc3e 6c50 b4bd
000000a0: b7b5 58be cfd2 be3d aeaa e7bc 82b8 18bd
000000b0: 70ee 9cbe e72e 67be e786 8bbd 7f35 223d
000000c0: 676c 05be fb85 8cbe 56f8 cc3d 1114 af3e
000000d0: 85ba d03d 63b2 10bd 5c48 943e 8219 91be
000000e0: 26dc 12be 4290 55be 6705 8c3e 237b c6bd
000000f0: ffbb 94be 4a66 30be 68c1 28bd 979b 473e
00000100: a28e 353e fbd1 8abe 21a9 b53e e0c4 02bf
00000110: e0c8 363d 7db8 7a3d e800 13bc 52c5 d4bd
00000120: d145 80be e3ac e4be a008 a23e 0df0 213f
00000130: c4e1 303d aa2d 223c a86d a2be e20f ddbe
00000140: c17b 0e3f 0613 12be 1d25 6abe 29ac 093d
00000150: 6e34 90be 302c d7bd 7b2c c3bd 3dac 9ebd
00000160: f4b0 67be 52bf ba3b d9ca 9ebc 7929 593c
00000170: efc9 72bd 509f 013d 5c4b 1e3e 1fbb 08bd
00000180: 6a45 8fbe ea8a 43bd b152 103e 3cce 6b3e
00000190: 8a9c e93d 50cc 553e 6130 5b3d 5e27 c4bc
000001a0: 9f6c 5dbd f5e4 b4bb d116 07be dfd9 a13d
000001b0: 6a4a 9ebe 9e9c f2bd 9abe bb3d ecc5 05be
000001c0: 6c7c 633e 29ed 673d 7de3 ef3c 51db 22bd
000001d0: 41ef 58bd a31a 383d 1ba5 93bd 9ce6 c4bc
000001e0: 605b 14bf 9806 d23e 37d9 e2be 1c5d a8be
000001f0: 5e90 73be c407 43bf 4495 8bbe ceb6 5abe
00000200: 1add 2f3e 2299 cdbd 51f4 fbbe 2b22 6a3e
00000210: 9213 14bf f76d bdbe 10b3 033e 9e75 7a3d
00000220: e828 613f 1cad 23bf 284f 813f e749 7e3f
00000230: 23ef 0e3f fe71 2a3f d2cb fbbd 477d be3f
00000240: cd82 9bbf 696d 3d3f 7033 973e 665b 78bf
00000250: 7649 71bd 387e 4bbf

4.bias f4 [5]
-0.094822474 -0.036367506 -0.052107256 -0.24158916 -1.5426013
00000000: 4932 c2bd 18f6 14bd 6b6e 55bd 2663 77be
00000010: f673 c5bf

0.weight f4 [30, 2]
-1.2774516 2.1009881 0.04651775 -0.27927318 -0.2504293 -0.6864051 -0.090862975 0.9587724
0.523504 0.5528447 0.08692466 -0.29643786 -1.0735192 4.1526103 -0.8673811 0.18009898
-0.03638051 1.2769723 -0.9696858 2.689518 -1.373084 2.0220144 -0.5043754 0.2106404
0.04182872 0.7405743 -0.03993888 -1.1348026 -0.68804944 -0.71861434 -0.12242287 -0.47606614
-0.046655916 -0.4254848 -0.8289694 0.53965837 0.31624818 0.7902603 0.7416546 -0.49237117
-0.45124063 -0.27852175 0.52361923 0.1786684 1.9264303 -2.2422872 -0.37637392 0.5740403
-0.67026323 -0.45390394 0.06680771 -1.6825163 0.19120437 0.26373795 0.16521144 0.2855047
-0.92480826 0.4337757 1.2950604 -1.7648181
00000000: 8983 a3bf 9776 0640 6589 3e3d e5fc 8ebe
00000010: 4538 80be 3fb8 2fbf 5e16 babd 1c72 753f
00000020: 5c04 063f 3b87 0d3f 8e05 b23d b4c6 97be
00000030: 1469 89bf 2fe2 8440 b00c 5ebf de6b 383e
00000040: bb03 15bd d473 a33f 543d 78bf 1021 2c40
00000050: 37c1 afbf af68 0140 bf1e 01bf 1eb2 573e
00000060: 9854 2b3d 4796 3d3f f396 23bd 3641 91bf
00000070: 0224 30bf 1cf7 37bf d7b8 fabd f1be f3be
00000080: 461a 3fbd 25d9 d9be 5737 54bf 0d27 0a3f
00000090: 48eb a13e 804e 4a3f 13dd 3d3f 1318 fcbe
000000a0: 0309 e7be 679a 8ebe e90b 063f d9f4 363e
000000b0: 4595 f63f a281 0fc0 15b4 c0be 4ef4 123f
000000c0: 5f96 2bbf 1966 e8be 7bd2 883d b25c d7bf
000000d0: 14cb 433e a908 873e 302d 293e ac2d 923e
000000e0: 3cc0 6cbf d917 de3e 8ac4 a53f 8fe5 e1bf

0.bias f4 [30]
-2.9343944 -0.5679137 -0.3409615 0.81524086 -0.08936756 0.7747256 0.30958787 -0.7374419
0.95920104 -1.6292803 -4.0353327 -2.0099716 0.57586294 -0.936638 -0.7656111 0.9843378
-0.8095183 0.7233028 -0.48244244 -0.60454696 0.41062722 1.2885234 4.969645 1.0824629
1.1392099 -0.24853201 -0.7536576 0.20387371 0.5988146 0.6440797
00000000: 1ecd 3bc0 cb62 11bf 8192 aebe a0b3 503f
00000010: 5706 b7bd 6b54 463f 4d82 9e3e fec8 3cbf
00000020: 338e 753f 428c d0bf 7221 81c0 60a3 00c0
00000030: c16b 133f 82c7 6fbf 17ff 43bf 90fd 7b3f
00000040: 973c 4fbf 5f2a 393f b202 f7be 97c3 1abf
00000050: bb3d d23e 56ee a43f 5507 9f40 258e 8a3f
00000060: a1d1 913f 2d7f 7ebe b4ef 40bf 45c4 503e
00000070: ea4b 193f 68e2 243f

2.weight f4 [30, 30]
-0.15008773 0.11815069 0.13281326 -0.2509379 0.0041477745 -0.057287212 -0.6855274 -0.013146805
-0.08061518 -0.003284567 0.12480032 -0.09662217 -0.31348175 -0.04905718 0.21976207 0.27426934
0.0051519373 -0.13846019 -0.30222186 0.32275602 -0.26501828 0.33476457 0.099706694 -0.052472774
-0.1722523 0.50556916 -0.06647274 -0.023488978 -0.21869011 0.1658709 0.7557713 -0.15428628
0.08233018 0.20024024 0.06256289 -0.25205806 0.106213324 0.10072435 0.023952534 0.69064933
-0.09411218 0.07325053 0.001813828 0.025563905 0.21706124 -0.1482147 -0.18166795 -0.054620378
0.20396882 -0.20017691 -0.07874793 -0.10103325 -0.066546485 0.1977014 -0.008231201 -0.36854792
0.065264724 0.037945516 -0.022952208 -0.24913087 0.3011855 -0.027163135 -0.25019836 0.20234624
0.02064242 -0.069152795 -0.45048344 -0.041676298 0.4179649 0.2278322 0.3887885 -0.35093707
0.30833268 -0.29384387 -0.2846343 0.10500793 0.029043969 -0.27277187 -0.17100798 0.16401106
0.0033196309 0.21783186 -0.29456466 0.018513214 -0.46867114 -0.2461046 0.09831237 0.5593728
-0.20022234 -0.13112073 0.14819148 -0.072601706 -0.33158702 0.08714717 0.058041148 -0.12049729
0.66062886 -0.028227933 0.18915111 0.35705027 0.32792407 0.12632036 0.25156704 -0.19741681
-0.13577344 -0.056952048 -0.20443952 0.07078882 0.16185904 0.049386088 0.26643455 -0.08100516
0.083540544 -0.12099804 0.37335232 -0.13632686 0.029819887 -0.26557636 -0.12891936 -0.19982034
0.4169656 0.02396109 0.22399586 0.08868383 -0.21440801 0.1911852 -0.3228016 0.06119714
-0.22638533 0.23123331 0.2350185 -0.24622199 0.05322114 0.027816107 0.42079216 0.5118262
-0.15863244 -0.20544706 -0.95836145 -0.073012896 0.139311 0.12879018 -0.2650002 0.02314519
0.37577817 0.11660079 -0.5140245 0.08569836 0.03977685 0.121623516 0.2804611 -0.08661437
-0.49384066 0.42364916 -0.13269685 -0.083502404 0.5798695 0.07781036 0.37056056 0.053045537
0.25630307 0.3565827 0.29376245 -0.0966686 -0.22552997 -0.026842132 -0.13414498 0.3508575
0.11938082 -0.11611305 -0.07456377 0.031363178 -0.06503517 0.074488826 -0.16082142 -0.2324617
0.0018727984 -0.06648651 0.21669954 -0.3830109 0.17038548 0.40283957 0.113489 0.04736239
0.13843298 0.04205217 0.046821263 -0.23765092 -0.072041914 1.1236742 -1.0552955 -0.52792686
-0.31555417 0.1725499 0.4985197 -0.100846626 0.437462 -0.0045327223 -0.03662311 -0.19726835
-0.213402 0.21380612 0.5682338 -0.13435553 -0.5370181 -0.23084989 0.2520704 0.2782585
0.13003923 -0.9525798 0.35380828 -0.27918 0.029300742 0.3394941 0.14797662 -0.08500834
0.26949733 0.28378713 0.19474031 0.6390637 0.13033596 0.06441035 0.16939427 -0.053622425
-0.017753288 -0.32999507 -0.21456522 0.32043594 0.2729026 -0.19251838 0.20623405 -0.4343367
-0.299865 0.16283122 -0.14627737 0.0048281406 0.32330582 -0.066407345 0.30018243 -0.67165875
0.3970596 -0.13853781 -0.5912851 0.44453406 0.41030675 -0.3095769 0.40163654 0.15374519
1.1903265 0.15215015 -0.035564657 -0.06695258 0.5331658 -0.9648219 -0.18994242 -0.39466658
00000000: 99b0 19be fdf8 f13d 3300 083e ef7a 80be
00000010: 0eea 873b ffa5 6abd b97e 2fbf b265 57bc
00000020: 9219 a5bd e441 57bb 4f97 ff3d d8e1 c5bd
00000030: ae80 a0be 2ef0 48bd 4f09 613e 086d 8c3e
00000040: 95d1 a83b 82c8 0dbe d3bc 9abe 4740 a53e
00000050: 7ab0 87be 4366 ab3e 0633 cc3d b1ed 56bd
00000060: e862 30be fb6c 013f dc22 88bd f56b c0bc
00000070: 4df0 5fbe 10da 293e 3a7a 413f 39fd 1dbe
00000080: ba9c a83d c70b 4d3e f920 803d c10d 81be
00000090: 5f86 d93d 9148 ce3d 1b38 c43c 65ce 303f
000000a0: e3bd c0bd 6004 963d f8bd ed3a 656b d13c
000000b0: 4d45 5e3e 98c5 17be 2a07 3abe 9eb9 5fbd
000000c0: 34dd 503e 2dfb 4cbe 9846 a1bd 85ea cebd
000000d0: 8649 88bd 3c72 4a3e 29dc 06bc 50b2 bcbe
000000e0: 83a9 853d c26c 1b3d 4506 bcbc 2a1c 7fbe
000000f0: fc34 9a3e 3985 debc 001a 80be da33 4f3e
00000100: 4b1a a93c fb9f 8dbd c4a5 e6be c4b4 2abd
00000110: 7fff d53e d84c 693e 490f c73e 06ae b3be
00000120: c8dd 9d3e b472 96be 96bb 91be 660e d73d
00000130: 9eed ed3c c1a8 8bbe b71c 2fbe 84f2 273e
00000140: 2a8e 593b 510f 5f3e 2ed1 96be 06a9 973c
00000150: aaf5 efbe d802 7cbe ff57 c93d 0e33 0f3f
00000160: 1607 4dbe 8344 06be 82bf 173e 34b0 94bd
00000170: c6c5 a9be 377a b23d 8ebc 6d3d 48c7 f6bd
00000180: f91e 293f 443e e7bc d4b0 413e 4bcf b63e
00000190: aae5 a73e 205a 013e 65cd 803e a227 4abe
000001a0: 3108 0bbe 8d46 69bd 9858 51be bbf9 903d
000001b0: 60be 253e 1149 4a3d 1c6a 883e 09e6 a5bd
000001c0: 4e17 ab3d d2cd f7bd 0928 bf3e 4599 0bbe
000001d0: d648 f43c a0f9 87be 7003 04be b49d 4cbe
000001e0: 847c d53e 0c4a c43c 2c5f 653e de9f b53d
000001f0: c68d 5bbe 0ec6 433e 4046 a5be daa9 7a3d
00000200: 8ed1 67be 6dc8 6c3e b1a8 703e 9e21 7cbe
00000210: 69fe 593d 9bde e33c 1272 d73e 0b07 033f
00000220: 8b70 22be b760 52be 2d57 75bf c987 95bd
00000230: 8ba7 0e3e 93e1 033e 1bae 87be fb9a bd3c
00000240: ff65 c03e 65cc ee3d 1c97 03bf 9f82 af3d
00000250: 0ded 223d c015 f93d 9998 8f3e e062 b1bd
00000260: afd8 fcbe 8be8 d83e afe1 07be 4f03 abbd
00000270: 5472 143f 0a5b 9f3d 1dba bd3e 4746 593d
00000280: 283a 833e 0292 b63e 0868 963e 30fa c5bd
00000290: 54f1 66be 08e4 dbbc 4d5d 09be 98a3 b33e
000002a0: ee7d f43d aecc edbd e4b4 98bd ad76 003d
000002b0: 2931 85bd 998d 983d 5fae 24be 710a 6ebe
000002c0: b078 f53a 142a 88bd 7ce6 5d3e 011a c4be
000002d0: 8879 2e3e fd40 ce3e ec6c e83d 11ff 413d
000002e0: 60c1 0d3e e53e 2c3d a7c7 3f3d c35a 73be
000002f0: b68a 93bd 8ed4 8f3f ec13 87bf 3726 07bf
00000300: 5190 a1be ecb0 303e f93d ff3e ad88 cebd
00000310: 05fb df3e 3b87 94bb 1d02 16bd b700 4abe
00000320: 0e86 5abe feef 5a3e c577 113f 7f94 09be
00000330: 057a 09bf ea63 6cbe 5f0f 813e e677 8e3e
00000340: 0129 053e 45dc 73bf 5c26 b53e aef0 8ebe
00000350: 1c08 f03c 2cd2 ad3e 2f87 173e da18 aebd
00000360: 8efb 893e 8c4c 913e 016a 473e ae99 233f
00000370: ca76 053e 93e9 833d b175 2d3e 30a3 5bbd
00000380: 586f 91bc 1df5 a8be fcb6 5bbe 2e10 a43e
00000390: e4b9 8b3e 8a23 45be 052f 533e 6161 debe
000003a0: e887 99be 3abd 263e bcc9 15be 6135 9e3b
000003b0: 5788 a53e 9300 88bd 83b1 993e d4f1 2bbf
000003c0: 654b cb3e dbdc 0dbe 765e 17bf f899 e33e
000003d0: ba13 d23e dd80 9ebe 4ea3 cd3e 616f 1d3e
000003e0: 9e5c 983f 40cd 1b3e 3fac 11bd 6f1e 89bd
000003f0: 8e7d 083f 91fe 76bf 4480 42be bd11 cabe

2.bias f4 [30]
-0.3741663 -0.19265729 -0.5712191 0.05697558 0.3164579 0.0356464 -0.89964664 -0.1254502
-0.004763027 0.13563159 -0.38799536 0.3344753 -0.13039462 -0.099357314 -0.08718851 -0.093701854
0.14448473 0.038049255 0.011794916 0.17081037 0.08525475 0.48599678 -0.5163601 -0.05570325
-0.49385658 0.08075342 -0.17182107 -0.07434436 0.2363948 -0.0032637042
00000000: ba92 bfbe f447 45be 6a3b 12bf 3a5f 693d
00000010: c506 a23e f601 123d 3e4f 66bf 0476 00be
00000020: 2b13 9cbb 02e3 0a3e 54a7 c6be 5940 ab3e
00000030: 2b86 05be d97b cbbd e48f b2bd c2e6 bfbd
00000040: cef3 133e 89d9 1b3d 773f 413c eae8 2e3e
00000050: 0b9a ae3d 92d4 f83e 2d30 04bf 1729 64bd
00000060: c5da fcbe 0d62 a53d ddf1 2fbe db41 98bd
00000070: 7a11 723e dfe3 55bb
