model_summon/Reconstruct/Checkpoint_SEED42_LR0.005_HD30_HL2_Epoch35_WithPhysics1_WithBatch1_Pretrain50.pth (torch, 102813 bytes, 80 tensors)

0.weight f4 [30, 2]
000000 aa f5 f7 3e db d8 33 3f 2b 36 3a bf 93 7a 1d 40
       0.48429614 0.7025277 -0.72738904 2.4606063
000010 99 23 89 be 14 e4 ed bc df 17 0d bf c8 6c a4 3f
       -0.2678497 -0.02903942 -0.5511455 1.2845697
000020 3e d9 2f 3f b8 9d 16 bf 5f 4b 04 3e e7 68 bd 3e
       0.6869086 -0.5883441 0.12919377 0.36994097
000030 98 7c 35 3f db 37 0d bd 98 7a 39 3e 20 4e 83 3c
       0.7089324 -0.034477096 0.18113172 0.016028464
000040 66 22 dc 3d e4 ca 1d 3f 1a 59 15 bf 1c 9b 79 bd
       0.107487485 0.6163771 -0.58339083 -0.06093894
000050 0a a7 82 be c6 b7 d8 bd 00 4b c5 be 37 20 75 3f
       -0.25518066 -0.10581927 -0.38533783 0.9575228
000060 10 26 f5 be 3c 3f 2b bf fa 7b f0 be a8 c3 5a be
       -0.47880602 -0.66893363 -0.46969587 -0.213637
000070 b1 fc db 3c 31 d4 eb bf c7 c2 21 3f 92 98 90 bf
       0.026853891 -1.8424131 0.6318783 -1.1296561
000080 a2 7b e3 3e 2b 1a e8 3e 72 33 f4 bd 01 72 50 be
       0.44430262 0.45332465 -0.11923875 -0.20355989
000090 a0 aa 24 3f 1f 5f 99 3e 28 e8 1b 3e ab ee 69 be
       0.64322853 0.29955384 0.1522528 -0.22844951
0000a0 55 a4 43 be 63 72 81 be 84 64 83 3e f7 76 1d 3f
       -0.19105656 -0.25282583 0.25662625 0.6150965
0000b0 60 2b f5 3e 91 ef 1a bf cb 91 09 3f dc a4 54 3e
       0.47884655 -0.605218 0.5373809 0.20766014
0000c0 fb 3b 9c 3f 94 80 ae be 63 40 ba be 62 70 a1 be
       1.2205805 -0.34082472 -0.36377248 -0.31531054
0000d0 ad 81 12 bf 14 8c 65 3f cb 5a 9a 3e aa 10 b3 3e
       -0.5722912 0.8966687 0.30147395 0.3497365
0000e0 c6 18 7b be 1e e5 5a be 64 70 b0 3f a6 e1 93 be
       -0.24521169 -0.21376464 1.3784299 -0.28883094

0.bias f4 [30]
000000 db 41 e4 be 20 ca 00 c0 e4 a6 0a 3f a7 e9 e9 bf
       -0.44581494 -2.0123367 0.54160905 -1.827443
000010 50 fb 37 3f 42 b4 66 3f 31 28 fc 3f 12 ab 72 bf
       0.7186785 0.901188 1.9699765 -0.9479228
000020 f4 ae c5 be cd 9f a8 bf cb 6c 90 3f 9c cd 11 3f
       -0.3861004 -1.3173767 1.1283201 0.5695436
000030 13 c4 51 3f 6d 29 76 bf 8b 9f ca bf 29 0f 4f bf
       0.8193981 -0.9615696 -1.5829939 -0.8088251
000040 f8 d0 05 bf b7 96 10 3f b4 56 d7 be 21 d1 6a 3f
       -0.52271986 0.5647997 -0.42058337 0.91725355
000050 8c 36 b6 be 65 3f 9c bf c7 7d 9b 3f 8a dc 7b be
       -0.3558849 -1.2206846 1.2147759 -0.24595848
000060 1a 35 6f be 6a b4 f2 bf f1 95 e3 3e 97 5c 64 bf
       -0.233601 -1.8961308 0.44450334 -0.8920378
000070 9d 88 f4 bd 22 88 90 3f
       -0.119401194 1.1291544

2.weight f4 [30, 30]
000000 cc f6 db bd 00 ee bd 3c a4 f9 a9 3e 3a 47 87 3e
       -0.10740432 0.023184776 0.33198273 0.2642153
000010 ba bf d1 be f0 91 0a be 5d 6f 9d bd cd 5b e3 be
       -0.40966588 -0.13532233 -0.076872565 -0.44405976
000020 f0 29 c7 be 54 f9 44 bd 61 b0 4f 3f df 0b 58 3e
       -0.38899183 -0.04808934 0.8112851 0.21098278
000030 e3 22 32 3f e2 be c3 be 54 0a 5c 3f 1e 8c ed be
       0.6958448 -0.3823157 0.8595326 -0.46395963
000040 65 6c 33 bf bb 20 9c bd 37 fb b3 be f1 ce 7d be
       -0.7008727 -0.0762343 -0.351526 -0.24785973
000050 1f 25 f1 3d 66 cc 0d bb 2f e4 12 be ea 68 4d bf
       0.117746584 -0.0021636724 -0.14344858 -0.8023821
000060 03 72 0f bf 33 b5 8d bd 63 43 d6 3e e8 39 11 bf
       -0.56033343 -0.06919327 0.41848287 -0.5672898
000070 20 6e c9 be 5f c3 87 be 69 32 c1 bd db d7 0b 3c
       -0.3934183 -0.26516244 -0.09433443 0.008535351
000080 03 7b 12 be 7c 61 1d bd 5a b0 ae be 59 47 2e bc
       -0.14304738 -0.038423046 -0.3411892 -0.010637128
000090 ff 45 ad 3d 2f b8 d3 bd 6c 89 05 3c 53 dc 08 3d
       0.08460616 -0.103378646 0.00815044 0.033413243
0000a0 37 ba d9 3e 7d e1 80 3e 3c d1 2c bd 98 39 a2 bc
       0.42524883 0.25172034 -0.04219173 -0.019802853
0000b0 95 6a 9d 3e 63 8f 83 be 2c d9 76 be f9 03 4d be
       0.30745378 -0.25695333 -0.24106282 -0.20021047
0000c0 b1 5a f4 bd 71 51 8d bd c9 df 9e 3e 88 77 d9 bd
       -0.119313605 -0.06900299 0.3103011 -0.10618502
0000d0 92 a6 e0 3d 54 b5 a7 be 9c 17 28 be 09 6e 7e be
       0.10969271 -0.3275553 -0.16415256 -0.24846663
0000e0 5d 8e 1c 3e ba 21 39 3c 64 94 23 3e e7 88 44 be
       0.15288682 0.011299545 0.15974575 -0.19192849
0000f0 55 cf ee 3d 38 84 1a bf bd c4 84 3b ea be cf be
       0.11660639 -0.60358 0.0040517733 -0.40575343
000100 8c be 91 3e 71 99 94 bd 56 45 1b bf f5 1f 26 be
       0.28465688 -0.07255829 -0.60652673 -0.16223128
000110 05 4b b0 3d b1 68 d5 3e 05 f2 f2 3e 87 bb 46 3e
       0.08608059 0.41681436 0.4745027 0.19407474
000120 32 75 90 be 4b dc 3c 3e ca 4e 65 be 30 53 91 be
       -0.28214413 0.1844341 -0.22393337 -0.2838378
000130 49 8e 3d bd 2d b0 01 3e 79 5b fa bb a0 f6 b3 be
       -0.04627827 0.12664862 -0.007640299 -0.35149097
000140 33 c2 ac 3e bc b2 98 3e 19 a7 5d 3e 90 44 49 be
       0.33741912 0.29823864 0.21645774 -0.19655061
000150 c9 af 6d 3e 68 df 21 3c 55 ea b6 bd d2 07 1e be
       0.23211588 0.009879924 -0.08931414 -0.1543267
000160 ff 2b 2a 3d dc 98 39 3e f4 82 63 3e 3d 42 09 3f
       0.041545864 0.18124717 0.22217923 0.53616697
000170 c2 51 e2 3c 91 06 b5 3e d1 14 c7 be 24 be 72 3e
       0.027626876 0.35356572 -0.3888307 0.23705345
000180 77 6e c3 3d 56 6a 22 be 92 5c 17 bb a4 24 1f 3e
       0.09542554 -0.15860876 -0.0023095948 0.15541321
000190 2e 08 35 3e e5 d2 ce 3e 7f 1f 5e 3d ed 93 64 3d
       0.17678902 0.40395275 0.054229256 0.055805136
0001a0 c9 82 5e be e9 b2 2e bf c9 85 d5 3c d1 92 1e 3c
       -0.21729578 -0.68241745 0.02606477 0.009678558
0001b0 9d 53 48 3e da cb 02 be 13 1b 5a be ce c6 06 3e
       0.19563146 -0.12773076 -0.2129939 0.13161775
0001c0 ec 5e a2 be 45 b3 b2 3d 7e d4 bc be 2c 76 2a be
       -0.31713045 0.08725599 -0.3688087 -0.16646641
0001d0 a6 82 04 3f 19 19 74 bd 35 c1 9b be f2 89 bd bd
       0.51761854 -0.059594247 -0.30420843 -0.092548266
0001e0 c3 90 ef 3d 88 75 99 3e 7b d9 fd be 00 8e e0 3d
       0.11697533 0.29972482 -0.49579987 0.10964584
0001f0 92 94 f8 bc 0a 2e f1 bc 22 0b 86 3e 57 44 d8 3e
       -0.030344281 -0.029440898 0.2618037 0.4223964
000200 e6 90 22 bd 01 9b cd be 41 4d ae be 50 cb 70 bd
       -0.039688967 -0.4015732 -0.34043315 -0.058787644
000210 70 d4 1a be 43 d4 6d be 6f b0 64 be a2 fa d4 3e
       -0.15120101 -0.23225503 -0.22332929 0.41597468
000220 86 2a d9 3e 4e b0 29 be 5d 48 02 3e cf 7f 42 be
       0.42415255 -0.16571161 0.12722917 -0.18994068
000230 46 6e 08 be d9 9f d1 3d f3 54 2e bc ca 14 8e 3e
       -0.13323316 0.10235567 -0.010640371 0.27750236
000240 c3 df 98 3e 1f 0c 84 3d 1f 94 0b be 19 e7 6a 3d
       0.29858217 0.064476244 -0.13630722 0.0573493
000250 c0 fe 3b bd 1e 8c 8f be 21 2c a9 bd 00 4a 21 bf
       -0.045897245 -0.28036588 -0.0826037 -0.6300354
000260 55 35 39 3e 2d 13 f0 be 92 13 84 3e 28 0e 08 bf
       0.18086751 -0.4688963 0.2579618 -0.531466
000270 d6 21 82 3c 9f 3d 8c bd 61 bc bc be 6b d4 35 3d
       0.015885275 -0.06847691 -0.36862472 0.04439203
000280 c4 c9 0c be e6 ea bb be c4 66 10 3d cf 95 79 bd
       -0.13748842 -0.3670265 0.035254255 -0.060933884
000290 03 17 8d 3e 66 35 30 3e 0e 28 9b 3d 68 24 de bc
       0.2755662 0.1720787 0.07575999 -0.02711697
0002a0 e5 e1 63 3c d8 9c 95 3e 1a 0b 8d 3e 01 e4 b3 be
       0.013908838 0.29221225 0.27547532 -0.3513489
0002b0 20 1e 79 3e 5b 48 ee bb 32 27 90 3c a3 b0 ae 3e
       0.24327898 -0.007271809 0.017596815 0.34119138
0002c0 79 67 ba be 52 89 bc 3c 89 ef 4e 3d 0a b7 83 be
       -0.36407068 0.023014698 0.050521407 -0.25725585
0002d0 f4 bb c4 3e da 45 d1 bc c6 d8 b0 3c 69 71 c8 3e
       0.38424647 -0.025546003 0.02158774 0.39149025
0002e0 67 d9 60 3d c2 27 0b 3e 5b 7c 06 3d 2c 2f 74 3e
       0.05489483 0.13589385 0.03283344 0.2384612
0002f0 2b de a4 3e e5 d5 b2 be d4 b4 94 bc d4 6f 33 3d
       0.3220075 -0.34928814 -0.018152632 0.04380782
000300 b2 4d 9c be c8 55 96 be 3b 96 0a bf 18 15 30 be
       -0.30528027 -0.2936232 -0.54135484 -0.17195547
000310 8e 8d 4c 3d 78 3e 1a be 62 8d 8f 3e c8 58 44 be
       0.049939685 -0.15062892 0.28037554 -0.19174492
000320 c7 37 e4 bd 3f b5 1c 3e 3f 32 cd be ca 80 cc bd
       -0.11143451 0.15303515 -0.40077397 -0.09985502
000330 91 84 a9 3d 84 ec b2 be 3b 51 dd 3d fc ea a3 3d
       0.08277238 -0.34946072 0.10806509 0.08003804
000340 0e 30 91 be aa 5f 96 be 7c 98 c8 bd 72 b4 0b bd
       -0.28356975 -0.2936986 -0.09794709 -0.034107633
000350 fe 29 be 3e 04 14 7b bd 44 82 59 be 61 ef ca 3d
       0.37141412 -0.061298385 -0.21241099 0.09908939
000360 56 cc 2b be 1d 1a 87 be 56 74 5d be 8d d3 3a 3e
       -0.16777167 -0.2638711 -0.2162641 0.18244763
000370 a6 b1 10 3f e6 1e c6 3d 7d 3c 3a 3e 5f 8c 67 bb
       0.5652107 0.09673862 0.18187137 -0.003533147
000380 7d bf 3a 3e f6 d1 13 3e 0f 92 f7 bd 4d bb 97 3e
       0.1823711 0.14435562 -0.12088405 0.29635087
000390 53 61 3f be 40 3d 0d be 74 7c d9 bd 8f 19 d2 bd
       -0.1868947 -0.13792896 -0.10619441 -0.10258781
0003a0 45 ba 02 3e 09 09 5e be 25 cb 7f be dd d3 b8 3b
       0.12766369 -0.21683134 -0.24979837 0.0056404904
0003b0 03 b5 67 be e6 b1 a0 be cb eb b6 be bf 07 72 be
       -0.22627644 -0.31385726 -0.3572677 -0.23635767
0003c0 64 2a cd 3d 9a c7 08 bc 8e 79 1d 3e 6a 50 a1 bd
       0.10017851 -0.00834837 0.153784 -0.07876666
0003d0 72 c9 11 bd d7 ff 9b 3e 5d 44 27 be 9e 89 d2 be
       -0.035592504 0.30468628 -0.16334672 -0.4112062
0003e0 67 0e 6d 3e d9 8c a2 bd 1e f8 96 3d 5c 03 92 3e
       0.23150025 -0.07937021 0.07371543 0.28518188
0003f0 11 c0 be bd e6 e6 33 be 2f 8c 0e bf 4b 46 29 bf
       -0.093139775 -0.1756855 -0.55682653 -0.66122884

2.bias f4 [30]
000000 89 5f 31 3f 57 07 a6 3e 16 44 b3 3e 70 b8 4b 3d
       0.692864 0.32427475 0.35012883 0.04973644
000010 be 5a 10 be cc 8d 3e be 59 09 1f 3d a0 e7 04 3f
       -0.14097115 -0.18608779 0.038827274 0.5191593
000020 87 75 23 3e 31 03 20 be 5b 85 b7 3e 58 62 ab be
       0.15962802 -0.15626217 0.3584393 -0.33473468
000030 16 1a c2 be 15 fa a4 be 42 53 90 bd 25 82 4e be
       -0.37910527 -0.32222047 -0.0704713 -0.20166834
000040 bc 2e cf 3d c4 bd ec bd b2 6b 84 3f a5 bc 87 3c
       0.10116336 -0.115596324 1.0345366 0.016569445
000050 bc 4c 09 3f d4 e0 ec be 98 0d d7 3d 62 fe e9 be
       0.5363271 -0.4626528 0.1050064 -0.4570189
000060 14 44 a5 be 73 77 4e be 6d 4a 94 3c 8c d8 b9 3e
       -0.32278502 -0.20162754 0.018101895 0.36298025
000070 1e 60 a4 3d 27 0f b7 3e
       0.080261454 0.35753748

4.weight f4 [5, 30]
000000 a6 43 63 bc 25 9d 45 3c 19 7c 87 be 98 78 1a bc
       -0.013871109 0.012061392 -0.26461866 -0.009428166
000010 f5 02 2e 3e dc b3 16 be 8f b8 0f 3e aa 06 d3 bd
       0.16993316 -0.14717048 0.14035247 -0.103040054
000020 9b 81 47 be 2f cb 05 be 4c 88 c2 3d 78 57 e9 bd
       -0.19483034 -0.1306579 0.09498653 -0.113936365
000030 b5 53 d7 bd 73 f5 03 bc a1 bb ee bd 37 17 bd 3d
       -0.10514013 -0.008054125 -0.11656881 0.092329435
000040 80 25 af 3c c6 2b b3 3d 33 a7 6a bd 57 50 0b 3e
       0.021380186 0.087485835 -0.05728836 0.13604866
000050 3e 04 98 bd 54 f4 28 3e 9f 60 0d be 60 2c 0f 3e
       -0.07422684 0.16499454 -0.1380639 0.13981771
000060 9f 1e b1 bb 0e d5 fc bd 9b d3 2c 3e 44 99 75 3e
       -0.0054052616 -0.123453245 0.16877596 0.23984247
000070 1d e0 77 bd 2c 52 47 3e a9 f8 a4 3e e7 03 1b 3e
       -0.060516465 0.1946494 0.32220963 0.15138207
000080 24 b6 93 be 53 d9 7d be 1e 33 d4 3d af 73 1a 3e
       -0.288499 -0.24789934 0.10361312 0.15083192
000090 17 c5 24 3d e1 ee c4 3d fa 2a 83 bd fe e0 be be
       0.040227022 0.09615875 -0.064046815 -0.3728103
0000a0 37 91 df 3d 9a 0e 2d 3d 1d bf 15 bd ff 6b b7 bd
       0.109163694 0.042250253 -0.036559213 -0.089561455
0000b0 71 99 6c be 12 d0 4e 3e 75 8b 14 be 2e 64 0d be
       -0.23105408 0.2019656 -0.14506324 -0.13807747
0000c0 92 62 aa 3e 86 09 4b bd 39 e5 41 3e 35 3e be 3b
       0.33278328 -0.04956963 0.18935098 0.0058057555
0000d0 47 0b 0f 3e 94 97 16 3e 10 6d 7f 3d eb 04 96 bd
       0.13969146 0.1470626 0.06235987 -0.07325157
0000e0 88 b7 7f 39 02 5a 09 bd 34 79 31 be 77 2f b1 bd
       0.00024387066 -0.033533104 -0.17331392 -0.08651631
0000f0 40 75 f6 be be 29 cc bd cc ce 12 be 2e fa 7c be
       -0.4813633 -0.09968899 -0.14336699 -0.24704811
000100 7e 69 07 3e 9f 0a 8e 3e 04 00 9d 3e 37 cf 0b 3e
       0.13223836 0.27742478 0.30664074 0.13653265
000110 47 76 16 be ed 09 7f bd d9 12 37 3e 8a a2 23 3e
       -0.14693557 -0.062265325 0.17878284 0.15979972
000120 56 c1 7a 3b ed 82 12 be 68 2d 17 be 6b 28 5f 3e
       0.003826221 -0.14307757 -0.14763415 0.21792762
000130 eb 9e 9c be d9 b4 a3 be b0 e4 8b bc ae 4b 04 be
       -0.30589995 -0.31973913 -0.01707682 -0.12919495
000140 a8 81 03 bf 9c 88 93 bd b7 29 64 3d f2 cd 6f 3d
       -0.51369715 -0.072037905 0.055703845 0.058546014
000150 4e 19 3d bb 5c 3c 1d bd 99 75 94 be 26 23 e0 bd
       -0.0028854194 -0.03838764 -0.2899597 -0.10944204
000160 c0 0a 49 3e 0d 1f 10 3d 51 32 24 be 0a 25 14 be
       0.19633007 0.035185862 -0.16034819 -0.14467254
000170 28 ae 40 be 3e 0f 74 bd 2b f4 1f bc ab 65 37 bc
       -0.18816435 -0.05958485 -0.009762804 -0.011193673
000180 36 9e 3f be c0 02 9c 3e c8 50 26 3e 07 17 4f be
       -0.18712696 0.30470848 0.16241753 -0.20223628
000190 d8 75 21 3d ab 84 0e bd 7f 93 fc 3d 03 cb 93 be
       0.039419025 -0.03479449 0.1233282 -0.28865823
0001a0 f9 b7 bf 3c e0 cd b8 3d 40 98 90 3e ea c7 9a 3d
       0.023403155 0.090236425 0.28241158 0.07557662
0001b0 d8 2f 46 bd 68 3c d7 bc 40 b9 6c be e3 5b 30 3e
       -0.04838547 -0.026273921 -0.23117542 0.17222552
0001c0 20 fe c4 3d e9 5f d0 be bb 1a b3 3e fa 24 81 be
       0.09618783 -0.40698174 0.3498133 -0.25223523
0001d0 23 a3 61 3c a2 ca 3c 3e 3c 2d 81 3d f6 0a ad bd
       0.013771805 0.18436673 0.06307456 -0.08449356
0001e0 b6 38 1f be ea 0b 68 be ec c8 7c 3e 1d 8f fe bd
       -0.15548977 -0.22660795 0.2468602 -0.124296404
0001f0 33 03 92 3d c2 31 5e 3e d7 64 33 be ae d1 3b 3c
       0.071295165 0.21698669 -0.17518936 0.011463566
000200 50 b4 0f 3e 47 54 98 be 80 8b 8d be c1 3b 3a 3e
       0.14033628 -0.297518 -0.27645493 0.18186857
000210 37 6f 4c be b9 1a eb bc 88 aa 7f be 29 99 ad bd
       -0.199643 -0.028699266 -0.24967396 -0.084764786
000220 c6 ae 06 3f cd 73 99 3e 34 aa 97 be 0c 5a c3 3e
       0.52610433 0.2997116 -0.29622042 0.38154638
000230 c2 06 91 bc 1f c1 53 3c 7a 73 89 3c 04 2a fa 3d
       -0.017703418 0.012924462 0.016778696 0.12215045
000240 0a 19 12 bf 18 64 b4 3d fb 8e 15 bf e9 39 ff bd
       -0.57069457 0.08808154 -0.58421296 -0.12462217
000250 62 37 a4 3d b2 33 67 3e
       0.08018376 0.22578314

4.bias f4 [5]
000000 07 1b 26 3e 81 4c d1 3d a5 72 38 be fa e8 b5 3c
       0.16221248 0.1021967 -0.18012483 0.022205818
000010 25 fd 7b bf
       -0.9843314

0.weight f4 [30, 2]
000000 a2 67 12 3f 8c fc cc 3e e5 c6 e1 bd 30 81 96 3f
       0.5718938 0.40036428 -0.11024264 1.1758175
000010 a1 ab e4 3d ce 8e 80 be 6b cd 2d bf 84 82 0a c0
       0.11165548 -0.2510895 -0.6789157 -2.164216
000020 1f 59 4e c0 2e a2 23 3e a4 6f da be 9f 86 d8 3d
       -3.2241895 0.15979835 -0.426633 0.10572552
000030 5a 07 0a bf ac 24 d5 3d 47 4c c1 3e cc cd 3d bf
       -0.5391747 0.10407385 0.37753507 -0.74142146
000040 49 6d 07 3f 16 99 03 3f d2 bf 61 bf 0f c8 f3 be
       0.5290113 0.51405466 -0.8818332 -0.4761357
000050 53 2c 1a bf e7 0a cc be d4 ad 00 bf e2 8c c2 3d
       -0.60223883 -0.39852068 -0.5026524 0.094995275
000060 a2 5b 57 3d b5 a9 44 bf fd 19 2d be f7 2b 9c be
       0.052577622 -0.7682145 -0.16904445 -0.30502293
000070 8c 64 a1 3f 57 f8 38 be 3e 0b e5 be e6 12 80 3f
       1.260881 -0.18063484 -0.4473514 1.0005767
000080 bd ba 17 be 63 64 8d 3f ef 6c 62 3e 28 29 7f 3f
       -0.14817329 1.104626 0.22111867 0.99672174
000090 80 fc 86 be 1e a8 8a 3f 69 68 83 3f b9 b3 ce be
       -0.26364517 1.0832555 1.0266238 -0.40371493
0000a0 d0 fa ff 3e 16 2a 42 3f 0d 96 0e be 70 b7 e8 3e
       0.49996042 0.7584547 -0.13924427 0.45452452
0000b0 41 4a 82 bd 39 a0 4d bf ca db 34 bd d4 3e b5 3e
       -0.06361819 -0.80322605 -0.04415492 0.35399497
0000c0 de a8 38 bf ac 76 43 3f 39 fd be bf 80 2a 12 40
       -0.7213267 0.76352954 -1.4921027 2.283844
0000d0 10 b1 62 3f 78 77 1d 3d a0 6d 3d bf 0e b4 06 3f
       0.88551426 0.038444012 -0.739954 0.5261849
0000e0 37 7f fc 3d 98 ae 16 3e c2 66 12 bf 07 e3 39 40
       0.12328952 0.1471504 -0.57188046 2.9044816

0.bias f4 [30]
000000 98 31 a1 bf d5 ab 0a bf 8c bb 09 3f ae 9c 82 3c
       -1.259326 -0.54168445 0.538018 0.015943851
000010 d1 18 ad 3e f1 48 a4 bf 7e ab 9a 3f 99 a0 ca 3e
       0.33807996 -1.283476 1.2083585 0.3957565
000020 1d 29 25 bf c5 a4 d6 3f b3 fe f7 3e 1f b7 99 bf
       -0.6451586 1.6769034 0.48436508 -1.2009009
000030 9d 1f 09 be 71 72 60 bf 18 01 d9 3f f6 62 f5 be
       -0.13390966 -0.87674624 1.6953459 -0.47927064
000040 29 08 84 bf e9 93 ac 3d 6b b6 23 bf af 3d d3 bd
       -1.031499 0.08426649 -0.6395022 -0.103144996
000050 88 32 37 3f d3 cb eb be 52 4e a2 3f 8f c7 34 bd
       0.7156148 -0.46053943 1.2680151 -0.044135626
000060 39 75 d6 bf 84 0c 6c 3f d0 23 06 40 be 55 0f c0
       -1.6754524 0.922066 2.0959358 -2.2396083
000070 ce 5a 67 bf 65 e0 70 40
       -0.9037293 3.763696

2.weight f4 [30, 30]
000000 11 84 2a 3e e7 c6 cb be 69 84 98 bc 30 e4 33 3e
       0.16651942 -0.39800188 -0.018617826 0.17567515
000010 2e 3d 00 be c2 eb fc bc 9d c3 ec bc cc 75 58 bd
       -0.12523338 -0.030874137 -0.02890187 -0.052846715
000020 01 b4 a5 bd 29 8c 41 be 0c 50 45 3e b2 35 95 3d
       -0.08090974 -0.18901123 0.19268817 0.07285632
000030 21 19 d9 3e 7a 88 9c 3e 0c 5c a6 bd 3c 01 3e be
       0.42401984 0.30572873 -0.08123025 -0.18555158
000040 22 a0 ab be 19 5c 9c be 1c 0a 28 be 02 8b c7 bd
       -0.3352061 -0.30539015 -0.16410106 -0.097433105
000050 0f 74 27 be 23 0c 12 be c7 4e 24 3e 73 22 86 be
       -0.16352867 -0.14262442 0.16045676 -0.26198158
000060 a4 ef a4 3d 1f d0 f2 3d 19 7d 18 3e 07 d6 16 3e
       0.0805352 0.11856102 0.14891471 0.14730082
000070 ce 2e 7e bd 3d 98 5a bc 80 e2 87 3b 04 c8 47 bf
       -0.062056355 -0.0133419605 0.004146874 -0.78039575
000080 97 a0 c8 be 46 6a 8e 3f 6b fa bf be 79 48 a6 3e
       -0.3918502 1.1126182 -0.3749574 0.32477167
000090 f0 ad 2a bf 76 c4 a1 3e c2 7c 79 be 04 aa 29 3e
       -0.6667166 0.315952 -0.24363998 0.16568762
0000a0 1d 2d 95 3e 14 83 09 3f 91 34 b1 3e d3 a6 ca 3e
       0.2913598 0.53715634 0.34610417 0.39580402
0000b0 c6 40 8d 3e e9 af 7f 3d 1f 81 14 be 0e c1 a8 be
       0.2758848 0.06242362 -0.14502381 -0.3295979
0000c0 d3 b1 a8 3d 4c 4b 6a 3f e9 ab 1f be cb 76 97 be
       0.08237042 0.91521144 -0.15592922 -0.2958282
0000d0 24 9b e0 3e f9 78 d0 be 2a 89 08 3f 78 19 2d bf
       0.43868363 -0.40717295 0.53334296 -0.6761699
0000e0 0d 28 7c be ce 88 9d 3e f0 c9 4e 3d 59 4a 0e bf
       -0.24624653 0.30768436 0.05048555 -0.55582196
0000f0 20 a6 bc be 12 f0 07 bf a4 13 51 3d ac 1e 9f 3e
       -0.36845493 -0.53100693 0.05104412 0.31078088
000100 17 30 bc 3e d0 ba 3c bc a8 df 5a bd 68 6f 9c 3e
       0.3675544 -0.011519149 -0.05343595 0.30553746
000110 ce 49 91 be 00 70 f3 3d 09 87 d7 3e 01 59 bc 3e
       -0.2837662 0.11886597 0.4209521 0.36786655
000120 e6 f8 cf 3e 1f 14 d6 3e a4 4e ed 3e 88 c8 8c be
       0.40619582 0.41812226 0.4634906 -0.27496743
000130 10 03 2d bf e6 2a e9 be 97 fa 6c be 7a 44 a0 bd
       -0.675828 -0.4554054 -0.23142467 -0.07825561
000140 5f 1f 93 be 75 b0 84 be ac 63 4f 3f 8d 64 cd be
       -0.28734872 -0.25915876 0.8101146 -0.40115777
000150 62 bd 17 bf d2 27 45 bb 85 c9 88 be 65 66 cf be
       -0.5927335 -0.003008355 -0.26716247 -0.40507808
000160 c5 2c 8f bd a9 3b 42 3c dc c6 31 3e 69 15 bc be
       -0.06990961 0.011855044 0.17361015 -0.36735085
000170 d6 76 73 be 86 65 da 3e 39 66 90 be e5 1a 42 3e
       -0.23775801 0.4265558 -0.2820299 0.18955572
000180 16 b7 06 bc 80 c6 33 3d 0a bd 06 be 91 6a d0 bd
       -0.008222362 0.043890476 -0.1315805 -0.10176576
000190 bb ea 3d 3d 5e bc 0b 3f 63 21 db 3d ec e4 0f 3f
       0.046366435 0.545843 0.106997274 0.5620868
0001a0 73 1f 11 3e 40 67 a2 be 92 fb 72 bd ba 9a ac be
       0.14172153 -0.31719398 -0.059321947 -0.33711797
0001b0 76 d8 00 bf b7 05 13 3e 23 ae a8 be 7c 4c f9 3d
       -0.50330293 0.14357649 -0.32945356 0.12172791
0001c0 8b 2a 4c 3e 73 55 d1 bc e1 3f ec bb c4 16 eb be
       0.19938104 -0.02555344 -0.0072097634 -0.45915806
0001d0 31 3d ff be 13 68 ce 3d 29 d5 5b 3e 4e a7 8d 3f
       -0.49851373 0.10078444 0.21468033 1.1066682
0001e0 ad 8a 98 be 44 5c 5f be 3d f9 5d 3e f8 33 14 3e
       -0.297933 -0.2181254 0.21677108 0.1447295
0001f0 30 c8 06 be fc 79 a4 3e e4 17 cf 3d 18 d0 22 3e
       -0.13162303 0.32124317 0.10111979 0.15899694
000200 56 5f a2 be 0a ab db 3e 19 d1 a2 3e 6c 7a 06 3f
       -0.3171336 0.4290393 0.31800154 0.5253055
000210 05 2c 2c bb 0a af 5c be 3a c2 36 be 69 7b f5 bd
       -0.0026271355 -0.21551147 -0.17847529 -0.11986429
000220 f7 81 73 bd fc 58 1b be bf c8 71 bd 08 33 5a bd
       -0.059450116 -0.15170664 -0.059029337 -0.053271323
000230 9d d6 82 bd f2 80 c5 3d 21 99 90 bd 81 7d 8a 3d
       -0.063885905 0.09643735 -0.07060457 0.06762219
000240 63 e3 77 3e 40 3d 2c be 95 0a c4 be 3e 14 13 3e
       0.24207835 -0.1682024 -0.38289323 0.1436319
000250 a6 72 b6 be bc bf 8e bd 18 b8 11 bf a0 12 81 be
       -0.35634345 -0.06970164 -0.5692153 -0.25209522
000260 e6 c3 c4 3e 15 6b 0f 3f 35 59 6c 3d 66 04 cb 3e
       0.3843071 0.5602277 0.057702262 0.39651793
000270 4b 35 8e 3e e1 1d 16 3d 73 cb 2e bf 36 f7 3f 3f
       0.27775034 0.03664959 -0.6827919 0.7498659
000280 be 29 21 3f d2 75 ab 3e c6 50 49 bd 34 d2 9b be
       0.6295432 0.33488327 -0.049149297 -0.3043381
000290 be 2f e1 be a8 41 85 3d 01 a4 7d 3e b0 3c 3f be
       -0.43981737 0.065066636 0.24769594 -0.18675494
0002a0 2b ac 0b 3e 17 eb b4 3d fa 33 4d 3e ae 05 84 3e
       0.13639896 0.08833902 0.20039359 0.25785583
0002b0 03 2f c0 3d 42 c3 73 3d 94 b7 4a 3f f9 00 58 bf
       0.09383967 0.059512384 0.7918637 -0.84376484
0002c0 4e d9 b6 be 5e 7c c8 3e 7f f5 2e bf e1 b6 5d be
       -0.35712665 0.39157385 -0.6834335 -0.21651794
0002d0 49 19 c4 be f5 df 46 3d f7 8a 8e 3e e8 62 ed bd
       -0.3830054 0.048553426 0.27840397 -0.115911305
0002e0 aa 19 43 3d 35 6f 09 3e 4e 88 9e bc ee 05 d4 bc
       0.047631897 0.13421328 -0.019352105 -0.025881734
0002f0 34 28 77 be 9f e4 94 3e 97 ae 49 3e 82 fa f2 bd
       -0.2413643 0.29080674 0.19695507 -0.11864187
000300 36 1a 27 3e 6b d9 07 3e fc e6 ea be 8e 5e ce bc
       0.16318592 0.13266532 -0.45879352 -0.025191572
000310 7d c7 ad 3d a0 04 ac bd 9c 4e 9a 3c 9a a1 4a be
       0.08485315 -0.0839932 0.018836312 -0.19788209
000320 01 d5 1f be aa 68 a2 3d 1b b0 7a 3d 96 f5 ba 3c
       -0.15608598 0.07930119 0.061203104 0.022822183
000330 93 d0 df 3e c4 e2 29 3d 8f db 78 bd 35 58 8d 3e
       0.43713817 0.041476026 -0.060756262 0.2760636
000340 fd 45 3f be cb 31 18 bf 9d 54 2c 3e 62 ee 1f 3d
       -0.18679042 -0.5945098 0.16829152 0.0390457
000350 4f 7b 8c 3c b3 c2 ba bd f7 23 c0 3d 2d 01 e8 bd
       0.017148642 -0.09119167 0.0938186 -0.11328349
000360 da c6 f9 3d 60 d0 56 be 72 1b ec bd 0d df 30 be
       0.12196131 -0.20977926 -0.11528672 -0.17272587
000370 06 8e d2 bd a8 b5 dc bd ce c6 c9 3d 1a 98 9a bc
       -0.10280995 -0.10776836 0.09852372 -0.018871356
000380 f7 31 32 3d 3f 6c 3d 3c c3 37 6f bd 62 2a 66 bd
       0.04350468 0.011561452 -0.058402788 -0.056192763
000390 a4 52 36 bd 49 f0 88 be ea 3d 80 be 0d f3 0e be
       -0.044512406 -0.26745823 -0.25047237 -0.13959904
0003a0 6c 94 41 bd 3f 9e d1 3d d2 01 cc 3d 90 f1 ae 3e
       -0.047260687 0.10235261 0.09961285 0.34168673
0003b0 6e fd 98 3d 76 dd aa 3c 33 8c 59 bd da b8 20 3c
       0.07470213 0.020857554 -0.05311222 0.009809697
0003c0 ef a4 c5 bd 50 d5 55 3e 30 6a 3a 3e 75 19 2a bc
       -0.09650599 0.20882154 0.1820457 -0.010382046
0003d0 95 d4 08 3f e8 17 1c 3e cd 15 92 3e 52 58 a7 3c
       0.53449374 0.15243495 0.28532258 0.020427857
0003e0 c7 4e 14 3e 31 3a 36 be 39 02 25 3e a7 fc 0c 3f
       0.14483176 -0.17795636 0.16114129 0.55073017
0003f0 c1 03 d3 bd 9a de 64 3e fd ab 35 bf 65 fd 8d 3e
       -0.103034504 0.22350541 -0.7096556 0.27732387

2.bias f4 [30]
000000 59 5b ae bd 2e 37 ea be dc 0c 39 be 18 b9 f9 be
       -0.08513517 -0.45745224 -0.18071312 -0.48774028
000010 6a 1d 81 3e bb 8c de 3e 2e 2f 7f 3e 2d 88 db bd
       0.25217754 0.43466744 0.24920341 -0.10719333
000020 fe d8 8f 3e ac 22 05 3f 78 c1 fa 3e 4f 5a f4 3d
       0.2809524 0.5200603 0.4897573 0.119312875
000030 93 00 5f be cd be 80 3e c5 fd 78 3e 1a e3 b8 3c
       -0.21777563 0.2514557 0.24315555 0.022569228
000040 3b 4b 1d 3e 8f d9 76 3e db 3a 9e be 2c 20 2a 3d
       0.1536073 0.2410643 -0.30904278 0.041534588
000050 72 8c 3d 3e a7 b0 8e be 14 c5 11 be d7 fb de be
       0.18510607 -0.2786915 -0.14235336 -0.43551514
000060 1c a4 01 bf 57 a8 5f 3a c3 57 3d bf 86 b0 55 3e
       -0.50641036 0.00085318595 -0.7396204 0.2086812
000070 58 74 8a be a9 45 d1 3d
       -0.27041888 0.10218365

4.weight f4 [5, 30]
000000 72 b2 65 be 1f 14 c2 3c 43 40 92 3d a8 f1 2f 3e
       -0.22431353 0.023691235 0.07141163 0.17182028
000010 af 1b 7d 3e 49 83 ef 3d 4e 36 95 be df d2 d0 3c
       0.24717592 0.116949625 -0.29142994 0.025491176
000020 6b cd 9e bd 4f 8b c3 3d ba 3d 6f 3e 3e 8e cf bd
       -0.07754024 0.095480554 0.2336339 -0.101345524
000030 16 0c 41 3e 6b af 90 3e f5 84 47 be ec dc d2 bd
       0.18852267 0.28258833 -0.19484313 -0.10296044
000040 25 1d 6b 3e a9 be 5b 3e 83 d5 dd 3e 37 bc 89 be
       0.22960337 0.2145945 0.4332696 -0.2690141
000050 4c d4 85 3e 83 6d 58 3e 4c b1 80 be 3a e1 0c 3e
       0.26138532 0.21135525 -0.25135267 0.13757792
000060 35 82 e6 3d 0c f4 27 bd be 20 1a be 4e 91 05 be
       0.11255304 -0.041004226 -0.15051553 -0.1304371
000070 17 66 60 bd e4 8e 97 bd 35 88 2d 3e 12 95 89 bd
       -0.05478486 -0.07400301 0.1694649 -0.06717886
000080 a2 25 1b 3e 5e e1 b6 3e 7c 14 65 be 98 fb 82 be
       0.15151075 0.35718817 -0.22371095 -0.25582576
000090 c3 d7 4b bc 35 55 d9 bd f6 6f 15 be ee 29 f2 3e
       -0.012441578 -0.10611955 -0.14593491 0.47297615
0000a0 5e 9a bb be 44 39 8f 3e 3c d2 71 3d 5b 67 9d be
       -0.3664121 0.27973378 0.059038386 -0.30742916
0000b0 5d b7 39 3b 2c 2b 42 3e 17 34 92 be 51 bb 09 be
       0.0028338053 0.18961781 -0.28555366 -0.13450362
0000c0 4a d0 da bd 3f 8a dd 3d 9e 5d ab bd 91 b7 0f be
       -0.10684259 0.10817384 -0.083674654 -0.14034869
0000d0 05 9f 6f be dc e6 94 3e 2d bd 9d bc b1 0e b1 be
       -0.23400505 0.29082382 -0.019255245 -0.3458152
0000e0 46 2c 11 3e bb 07 26 be 30 ed 87 bd 21 2d be 3e
       0.14177045 -0.16213886 -0.06637037 0.37143806
0000f0 3d 5f 56 3d b0 e3 58 bf a5 cb 66 be 85 cf da be
       0.05233692 -0.84722424 -0.22538622 -0.4273645
000100 67 f7 b0 be c6 ca b7 be 59 4b 26 3f bf 17 63 3e
       -0.34563753 -0.3589689 0.6495872 0.22177027
000110 fb a4 ea bd 9c de 28 bf 3f cd 0f be ed 69 ee bd
       -0.11457249 -0.65964675 -0.14043139 -0.116412975
000120 e0 63 82 be 42 fd 8a 3d b1 64 b8 bd bf 4e 2d 3d
       -0.25466824 0.06786586 -0.0900358 0.042311426
000130 2c f3 8b bb db 98 f1 3d 4f ad 8c be de 3d 8f 3e
       -0.0042709317 0.11796733 -0.27475974 0.27976888
000140 5a 0a b2 be c2 54 e0 be 7d 8d 3b bf 64 79 4c be
       -0.34773523 -0.43814665 -0.7326277 -0.19968182
000150 9a 64 48 3d c1 56 71 bf 91 ca 77 be cc 81 a1 bd
       0.048924066 -0.94273 -0.24198367 -0.07886085
000160 cf 99 f2 3e 0c fe 40 3e ee e0 b6 bc 7d b3 b2 3d
       0.47382972 0.18846911 -0.022324052 0.08725641
000170 02 37 e8 be b0 b6 97 3e 85 ac 22 be 96 e9 e1 3e
       -0.45354468 0.29631567 -0.15886123 0.44123524
000180 77 98 95 bc c6 ce 6d 3d cf 86 37 be 07 72 b2 3e
       -0.018261177 0.058058523 -0.17922519 0.3485262
000190 ac b6 eb 3e ff 75 f8 3b 66 5b 02 be ae 66 d0 be
       0.46037805 0.0075824256 -0.12730178 -0.40703338
0001a0 3c 67 83 be 86 ab 22 bd 4f b5 5e bd f3 a7 bc be
       -0.256647 -0.03971436 -0.054372128 -0.36846885
0001b0 3a 1f 0b bf 9c a6 4a 3e f3 08 45 bf 1f 8b 9a 3d
       -0.5434452 0.19790119 -0.7696678 0.075460665
0001c0 dc 1c ef be 65 35 cc be ac 7c b1 3e 64 f3 ca 3b
       -0.46701705 -0.39884487 0.3466543 0.006193565
0001d0 14 c0 cc 3d e9 4b c6 bd fc a4 3b 3f 0d a5 5e bc
       0.099975735 -0.096824475 0.7329862 -0.013589156
0001e0 64 d3 71 be 36 1a c5 be 29 b5 59 be ee e9 0f 3d
       -0.23615795 -0.3849656 -0.21260513 0.035135202
0001f0 2f 68 2d bd 46 09 6d be 20 6f 70 be 46 4f b4 be
       -0.042335685 -0.23148069 -0.23479891 -0.3521673
000200 98 1a 8e 3e 8a c3 bb 3e 76 42 39 be cb 82 4e be
       0.27754664 0.36672622 -0.18091759 -0.20167081
000210 05 5d 66 3e 77 99 62 3b 0b cb 5e 3e d6 29 bb 3e
       0.22496422 0.0034576335 0.21757142 0.36555356
000220 7e cb c5 3d b5 54 8c be 25 d9 8c 3e 3f 03 17 be
       0.09657954 -0.27408376 0.27509418 -0.14747332
000230 a1 2c 27 bd e1 89 89 3d 93 c2 81 bd d9 37 12 be
       -0.040814046 0.067157514 -0.0633594 -0.14279117
000240 70 68 7f 3e 28 ef c6 3d 30 22 41 be d7 c3 9b 3d
       0.24942183 0.09713584 -0.18860698 0.07605713
000250 0e d8 53 bc 89 f4 40 3e
       -0.012929929 0.18843283

4.bias f4 [5]
000000 0d 94 c5 3d 36 12 9b be 14 c0 af bc 67 c5 ad bd
       0.09647379 -0.3028733 -0.021453895 -0.08484917
000010 c4 2d 64 be
       -0.22283083

0.weight f4 [30, 2]
000000 30 38 48 bf f6 62 30 3d 70 0f c8 3d 31 e2 b3 3f
       -0.78210735 0.043063127 0.097685695 1.4053403
000010 5e db 12 3c ff 51 2f 3e 8f aa a3 3e b2 80 e5 3e
       0.008963434 0.17121123 0.31966063 0.4482475
000020 b8 38 90 bd 59 87 0f 3f e5 f5 fb 3e 76 8f e5 bf
       -0.07042068 0.560659 0.4921104 -1.7934406
000030 b1 4a 82 be a5 66 bb bd cb 92 ae 3e ef 48 92 3f
       -0.2544761 -0.09150437 0.3409637 1.1428508
000040 5b e2 06 bf 86 d6 1a 40 3f f9 e3 3d 67 b2 bf 3f
       -0.5268914 2.4193435 0.11131524 1.4976319
000050 5a cd 1b 40 33 3e 9b bf a9 19 78 bf dd 99 8a 3c
       2.4344087 -1.2128357 -0.96914154 0.01691907
000060 f4 72 c5 be 60 b8 24 bd ba 57 ee c0 69 c3 2f c0
       -0.38564265 -0.040214896 -7.448209 -2.746302
000070 b6 db 6d be bc 52 d1 bd da a7 6f be 87 8d a3 bd
       -0.23228344 -0.102208585 -0.23403874 -0.079859786
000080 f9 6e 1e bf 7e 64 04 bf 5c ed 0d 3d 47 d0 0f 3f
       -0.6188808 -0.5171584 0.03465019 0.5617718
000090 0a 37 3d 3f 31 79 8c bf 42 a2 b2 3d 93 ee 82 bf
       0.7391211 -1.0974485 0.087223545 -1.0229057
0000a0 66 7d 65 bf ab af ff bc 2d 98 e5 bd 40 ce c0 bf
       -0.8964447 -0.031211695 -0.11210666 -1.5062943
0000b0 90 e9 ba bf 12 59 2a bf 1f 8e 31 3f b3 94 7d 3e
       -1.4602528 -0.6654216 0.69357485 0.24763756
0000c0 4e e7 5f be 35 d5 31 bf dd 37 b3 be 82 e5 1a bf
       -0.2186558 -0.69465953 -0.35003558 -0.6050645
0000d0 18 66 38 bf 96 76 77 3e 7d f2 bc 3d ef 54 df be
       -0.7203078 0.2416633 0.092259385 -0.43619487
0000e0 7d af 27 3e 50 e4 2c bf 24 71 b7 bf 2d b9 a6 3e
       0.16375537 -0.6753588 -1.4331403 0.32563153

0.bias f4 [30]
000000 46 88 c9 bf 41 e9 8a 3f 00 71 45 3f ef ee 01 bf
       -1.5744712 1.0852433 0.7712555 -0.5075521
000010 78 5b 2a bf f5 d3 a3 3f b8 ae c2 be ad 73 2b 3f
       -0.6654582 1.2799059 -0.38023925 0.6697338
000020 8d b9 ec bf e7 9c a5 3f 3c 46 ef be 0f c0 11 c0
       -1.8494126 1.2938508 -0.46733272 -2.2773473
000030 c2 5a 09 bf 88 5a f0 3f 4e a7 be 3f 98 ee f8 3f
       -0.5365411 1.8777628 1.4894807 1.9447813
000040 00 c7 67 bd 8d c7 02 c0 79 5e 17 3f 3b 84 4f bf
       -0.056586266 -2.0434296 0.5912853 -0.8106114
000050 43 fb 27 c0 29 32 b4 bf 57 ec 2a bf 02 29 34 3f
       -2.6247108 -1.4077808 -0.66766876 0.7037507
000060 65 10 0f bf 15 0c 1e 3f 24 55 62 3e fb ee 48 3f
       -0.5588439 0.61737186 0.22102791 0.78489655
000070 c7 3b c5 3f 0a 6a 6c bf
       1.5408868 -0.923493

2.weight f4 [30, 30]
000000 60 c2 74 3d a2 ad 98 be 5d 2f af bd 04 85 1e be
       0.059755683 -0.2981997 -0.08553956 -0.15480429
000010 a0 bd 52 be 55 26 fa 3e cd c5 11 3e 6a 75 56 be
       -0.20580149 0.4885737 0.14235611 -0.20943227
000020 ea 55 35 bf b3 e8 bf be d3 6e ea 3d fb 9a 6c 3e
       -0.7083422 -0.37482223 0.11446919 0.23105995
000030 95 2e 31 3e 1e c6 67 bd d3 db b4 bd 38 e0 d7 bd
       0.17302926 -0.056585424 -0.08830991 -0.10540813
000040 49 22 fe 3e 35 46 8c be 9f 4b 1d 3f 34 a7 2b 3e
       0.49635532 -0.27397314 0.61443514 0.16763002
000050 0f ee 89 3e c3 e6 89 3e 04 64 0b 3f 3a 44 ad 3b
       0.26939437 0.2693387 0.54449487 0.0052876743
000060 90 16 b4 3e c0 6b 89 3b e9 ef 8c bd 47 8c 2f 3e
       0.35173464 0.004193753 -0.06881697 0.17143355
000070 6a 87 f5 3e a9 80 a9 be 5e c1 76 be 00 43 1f be
       0.47954875 -0.33105972 -0.24097201 -0.15552902
000080 5c 3b 89 be 1c 30 97 3d 64 96 95 3d 9f 1b b6 be
       -0.268031 0.07382223 0.07304075 -0.35567948
000090 57 bb 5a 3e ed 04 fa 3d c8 86 3b 3e e8 c0 eb bd
       0.21360527 0.12207971 0.18313134 -0.11511403
0000a0 dd 1b 12 be 38 d7 9b be 71 d4 bb bc d5 45 bf be
       -0.14268441 -0.30437636 -0.022928448 -0.37357965
0000b0 84 b9 cf bd 02 b5 02 be 84 ab 7b bd 42 04 6f 3e
       -0.10142806 -0.12764362 -0.061442867 0.23341468
0000c0 07 5c 86 bd 3c 4e 75 bd e1 bb a8 be b3 ad 25 3e
       -0.065605216 -0.059889063 -0.3295584 0.16179542
0000d0 39 53 93 3d f3 6c 4f bc 67 4b f9 bd 27 87 c6 3c
       0.07193608 -0.012660253 -0.12172585 0.024234368
0000e0 61 59 8c 3d 21 12 d3 bd 51 46 4a bd 1e c4 89 be
       0.06852985 -0.10306192 -0.049383465 -0.26907438
0000f0 6f c4 ea 3d 44 ee a3 be 6a dc 05 be ef 11 70 3d
       0.11463248 -0.3201772 -0.13072363 0.058610853
000100 c1 74 a2 be 54 2e 0e bd 78 14 18 bd ea cc 87 be
       -0.317297 -0.03471215 -0.037128896 -0.26523525
000110 63 5c ad bd d7 ab 92 be 1c a3 bc bb 80 f3 9f 3d
       -0.08464887 -0.28646728 -0.005756749 0.07810116
000120 ee 5a 04 be a6 41 ad 3d 2f 24 81 3c 6a cd 64 be
       -0.12925312 0.08459787 0.015764324 -0.22343984
000130 da 1f 75 bd 20 07 2b bd d5 8b 9c 3e ca e4 4c 3e
       -0.05984483 -0.04175484 0.30575433 0.20009151
000140 3e 2a b9 3d db 79 05 3e 8f 1e 30 be ce 7d e0 3d
       0.0904126 0.13034765 -0.17199157 0.10961495
000150 19 79 64 3e ce 1c ec 3d 31 5c c5 bc fe 35 c1 3d
       0.2231182 0.115289316 -0.024091812 0.09434126
000160 09 9a 96 3e fe 04 2d 3e a7 6f 99 3e 86 40 38 3e
       0.29414394 0.16896436 0.29967996 0.17993364
000170 03 b0 e8 bd ec 16 5b bd 01 35 31 3f b0 0d 82 be
       -0.113616966 -0.053488657 0.692215 -0.25401068
000180 74 0f fd bc f8 20 00 3f 54 cc b7 3e e3 0b 8b 3d
       -0.030891158 0.50050306 0.35898077 0.067893766
000190 23 2d 16 3e 12 fc ca 3e 46 d6 b1 3d c1 d3 6c 3e
       0.14665656 0.3964544 0.086834475 0.23127653
0001a0 ad de 8c 3c 91 0a 95 bb f3 74 36 be 13 4d af 3e
       0.017196024 -0.0045483788 -0.1781805 0.3423849
0001b0 f6 69 95 be 2e ac 97 bd b1 ea ca 3e 34 3c bb be
       -0.29182404 -0.074058875 0.3963218 -0.3656937
0001c0 0a 9a 3c 3e e3 48 0b be c3 3a 9a be 72 3e 25 be
       0.18418136 -0.13602023 -0.30122957 -0.16137102
0001d0 c2 cb ce 3d 9a 25 91 be 19 a8 a6 be b7 38 32 3e
       0.100974575 -0.28349 -0.32550123 0.17404447
0001e0 d3 16 98 be 73 23 2e 3f 0d 35 4d 3e 3f e1 35 3e
       -0.29704913 0.6802284 0.20039769 0.17761706
0001f0 0d b5 7f bc 71 57 e3 bd c3 aa bd bd 47 14 25 3f
       -0.015607131 -0.111006625 -0.09261086 0.64484066
000200 f4 2f 39 3e 57 f3 03 3f 49 2d fa bd 86 e3 95 be
       0.18084699 0.5154318 -0.12215669 -0.2927515
000210 ef 9f 74 bd 11 d8 10 3e e2 00 0a 3e 42 00 08 be
       -0.059722837 0.14144923 0.134769 -0.13281348
000220 78 8c 8b be 05 cf 98 3d c0 c0 07 be ad d4 14 be
       -0.27255607 0.07461361 -0.13257122 -0.14534254
000230 eb a5 43 be 4b b3 21 bf cd 65 ed bd b4 e5 7c 3e
       -0.19106261 -0.63164204 -0.115916826 0.24697
000240 1d 94 fb be 63 47 da bd 12 d1 0d 3e a3 05 33 3d
       -0.4913644 -0.10658147 0.13849285 0.043706547
000250 b2 6c 7e 3d 82 50 04 be 8d f6 39 be bc d1 4e 3e
       0.06211538 -0.12921336 -0.18160458 0.20197195
000260 56 c6 85 be 0a c4 07 3f 2d 18 a7 3e da 97 17 3e
       -0.2612788 0.53033507 0.32635632 0.1480402
000270 bf e9 eb 3e ef ca 5e 3e e5 81 a2 bd 92 d8 ea 3c
       0.46076772 0.217571 -0.07934932 0.028667722
000280 33 72 cf be 07 02 23 be 5e 7b aa bd 9b 03 2c bf
       -0.40516815 -0.15918742 -0.08324312 -0.67193
000290 64 f7 02 bf 3b 7c b3 be c8 ee 5d 3d c2 1c 64 bb
       -0.5115874 -0.35055718 0.054182798 -0.003480718
0002a0 ab a7 2d 3e 4f e9 23 bd 70 a6 1f bd 42 dc 21 be
       0.16958492 -0.040017422 -0.038977087 -0.15806678
0002b0 d7 27 4d 3e c6 cb 88 bc 55 0c f3 bd 1b 42 d4 be
       0.20034729 -0.01669873 -0.118675865 -0.41456684
0002c0 61 85 1a bd 07 a1 59 3e ef 5d 45 3e e2 1c 04 bf
       -0.037724856 0.21252833 0.19274114 -0.5160657
0002d0 be 2d e4 3d 9d be 20 be 3b 84 10 3e 13 92 23 be
       0.11141537 -0.15697713 0.14112942 -0.15973692
0002e0 42 73 1e be c1 73 d9 bc f7 f3 a4 be 4f af 00 3d
       -0.15473655 -0.026544454 -0.3221738 0.031417187
0002f0 43 1d a1 3e e4 37 5d be 7a 1e af 3d cd ff dd 3d
       0.31467637 -0.21603352 0.08550735 0.10839806
000300 be 80 3e 3e b4 ec 8a 3f 69 94 8c 3e c2 5f 82 3e
       0.18603799 1.0853486 0.27456978 0.25463682
000310 66 80 c8 3e 00 3b 0b 3e 6d 91 25 be 96 eb 05 3e
       0.3916046 0.13596725 -0.16168757 0.1307815
000320 d1 a9 03 3e 03 71 80 3d 37 90 a7 3e d8 37 3b 3e
       0.12857749 0.06271555 0.32727215 0.18283021
000330 d0 a4 3e be 60 06 a4 3e 25 34 95 bd da 21 3d be
       -0.18617558 0.32036114 -0.072853364 -0.18469945
000340 05 5b c0 bd 38 30 b6 3e fe d8 93 be bc c8 73 bd
       -0.093923606 0.35583663 -0.2887649 -0.059517607
000350 c5 ab 65 3a a1 c3 95 be 32 80 f2 be ca 64 a0 3e
       0.00087612524 -0.29250816 -0.4736343 0.31326896
000360 c3 90 f0 3d 3e 0c 8d be 61 f8 1c bf c9 77 9d bd
       0.11746361 -0.27548403 -0.61316496 -0.07688863
000370 94 5c 0f bd 55 11 d0 bd 77 07 63 be df e6 7f bf
       -0.0350004 -0.10159556 -0.22170816 -0.99961656
000380 ae 07 dc 3d e1 6f da bd 33 7d b7 bd 50 41 51 be
       0.10743652 -0.106658705 -0.08959427 -0.20435071
000390 ad df 98 bd c8 6b de bd 70 a4 47 be 32 f8 48 3e
       -0.07464538 -0.108604014 -0.19496322 0.19625929
0003a0 89 d6 df bd a0 75 da bd d1 01 46 3b 06 de 42 3e
       -0.10929591 -0.106669664 0.0030213485 0.19030008
0003b0 cb 3e d8 bc 05 09 aa 3d b1 81 0d 3f c1 ee 29 bf
       -0.02639713 0.083025016 0.5527602 -0.66379935
0003c0 c6 a6 04 3d 23 0f fe be 7e 82 e9 bd f5 f6 90 ba
       0.03238561 -0.49620923 -0.114018425 -0.0011059927
0003d0 09 20 00 bf 7a 83 3b 3f b7 c3 13 bd 54 e3 b8 be
       -0.5004888 0.7324749 -0.03607532 -0.36110938
0003e0 ef 3d 32 bf 33 ff ad be f9 27 c8 3e b0 51 e2 3d
       -0.69625753 -0.33983764 0.39092997 0.11050737
0003f0 92 22 10 be e3 4d 8e be 7e d5 07 3e 61 e7 89 bd
       -0.14075688 -0.27793798 0.13265035 -0.06733585

2.bias f4 [30]
000000 70 c2 2b be 85 32 d6 bd 5c 50 46 3d f9 20 4e be
       -0.16773391 -0.104588546 0.04841648 -0.20129766
000010 4f f1 f0 3c d0 b7 aa be e3 75 a9 3e 41 d4 34 bd
       0.02941194 -0.33343363 0.33097753 -0.044147734
000020 1f 93 34 be 6a 2d 09 be c6 b3 d1 3e aa a2 cc be
       -0.17634247 -0.1339623 0.4095747 -0.39967853
000030 d3 87 96 3b 01 ad ff 3e 2c 74 84 be 65 3c 8e 3d
       0.004593828 0.4993668 -0.25869882 0.06945113
000040 b1 45 03 be 3e d1 43 be 3d 39 be 3d b1 ce 7b be
       -0.12819554 -0.19122788 0.09288261 -0.24590565
000050 92 65 c1 3d c2 b5 59 bf 36 0c 23 3f cb 05 7a 3e
       0.09443201 -0.85042965 0.6369051 0.24416272
000060 cf 3c 76 bd 17 d6 39 3f b0 9b da be ad 64 fa bd
       -0.060116585 0.725923 -0.42696905 -0.12226234
000070 6f c7 0c 3e d8 ed 39 3e
       0.13747953 0.18157136

4.weight f4 [5, 30]
000000 38 3c 1b 3e 0c 92 91 bd 15 82 90 bd 41 23 c7 3d
       0.1515969 -0.07107934 -0.07056061 0.09723521
000010 d1 04 82 3e 5e 23 1b 3d c4 1f 93 bd d7 11 2d 3e
       0.253943 0.037875526 -0.07183793 0.16901337
000020 37 84 1b 3e 3b f8 6b bb 50 1b 7e 3e 71 57 0f be
       0.15187155 -0.0036006111 0.24815106 -0.139982
000030 70 92 c8 bd 18 f5 d6 3d fa 18 ac bd 45 0d 06 bc
       -0.09793556 0.10495967 -0.084032014 -0.008181875
000040 55 da c8 bd f5 83 b6 3d 34 46 65 be 27 38 76 be
       -0.098072685 0.089118876 -0.22390062 -0.24044858
000050 0e 09 8f 3d 37 59 92 bd 08 3a b0 bd f0 97 a9 be
       0.06984149 -0.07145923 -0.086048186 -0.33123732
000060 4a 54 d9 3b 62 25 aa 3d f0 10 39 3e 03 93 b5 3d
       0.0066323625 0.083079115 0.18072867 0.08865931
000070 90 b8 4e 3e b1 f1 94 bc 95 5b c1 3d bd ea 44 be
       0.20187593 -0.018181654 0.09441296 -0.1923017
000080 12 e7 40 be 92 8d 32 bd 70 fc 98 3e 3a 46 80 3e
       -0.18838146 -0.043592043 0.29880095 0.2505358
000090 51 6e 85 bd c2 5a 47 3d 6f 09 cc 3e 35 b6 9c bd
       -0.06515182 0.048670538 0.39850947 -0.07651941
0000a0 3f 0d 52 be c4 55 ce 3d bb 4a e3 bc 83 51 e9 bc
       -0.20512865 0.10074952 -0.027745595 -0.02848125
0000b0 8a 76 a0 be bb 5c 67 be 4e e7 9d bd 19 74 5e 3d
       -0.31340438 -0.22593968 -0.077101335 0.054309938
0000c0 1d 91 0e be 73 60 8e be fa 33 d7 3d df dd a8 3e
       -0.13922544 -0.2780796 0.105079606 0.32981774
0000d0 a5 e5 c1 3d b4 de d4 bc d0 14 93 3e cd 7f 8b be
       0.09467629 -0.0259851 0.28726816 -0.27245942
0000e0 96 60 14 be 81 26 45 be d4 61 8d 3e bb b6 d0 bd
       -0.1448997 -0.1925297 0.276137 -0.10191103
0000f0 e7 f2 92 be 54 85 1d be de e2 ee bc 87 df 21 3e
       -0.28700945 -0.15382892 -0.029160913 0.15807925
000100 c8 c5 2f 3e 2f 10 66 be 57 7b 94 3e 4a 88 ec be
       0.17165291 -0.22467111 0.2900035 -0.4619773
000110 69 b8 20 3d fc c5 be 3d 1e 7d 9c 3c 9b 38 9e bd
       0.039238367 0.09315106 0.01910263 -0.077256404
000120 0f 77 81 be 84 fe bb be 1f 35 90 3e af 53 0a 3f
       -0.25286147 -0.36717618 0.28165528 0.5403394
000130 b4 37 10 3d a4 be d2 3c ec f6 9c be 82 f0 db be
       0.035209373 0.02572567 -0.30657136 -0.4295693
000140 71 76 01 3f 86 23 01 be 14 ca 5d be 6f 33 09 3c
       0.5057135 -0.12611207 -0.21659118 0.008374079
000150 6e 3e 73 be 93 c4 55 bd 7d d3 a2 bd b8 b6 0a bd
       -0.23754284 -0.05218942 -0.079504944 -0.03386566
000160 13 11 5d be e9 2e 1d 3c 8a d4 f7 bc af a6 06 3a
       -0.21588545 0.009593704 -0.030252714 0.0005136532
000170 92 aa 89 bd c2 5e fe 3b cc 01 fd 3d d5 ba 89 bc
       -0.06721987 0.007762761 0.12353858 -0.016812721
000180 02 48 86 be df 8a 11 bd 6f 09 12 3e 29 45 43 3e
       -0.26226813 -0.03553283 0.14261411 0.19069351
000190 7d 23 d9 3d 75 31 2d 3e 30 a7 2a 3d 21 b6 13 bd
       0.10602472 0.16913398 0.04166335 -0.036062364
0001a0 9a 6f 7d bd 9e 7f 95 ba 5f 71 f9 bd 13 2d 4c 3d
       -0.06187401 -0.0011405831 -0.12179827 0.049847674
0001b0 76 93 95 be 2e 38 fa bd f9 76 9d 3d 45 47 ce bd
       -0.29214066 -0.12217747 0.07688708 -0.10072187
0001c0 ca 31 5f 3e 31 19 48 3d 60 20 1d 3d 22 a3 3b bd
       0.21796337 0.04885215 0.038360953 -0.045809872
0001d0 75 9a 23 bd a6 8c 1e 3d 82 92 44 bd 8e 7e 21 bd
       -0.039942224 0.03870835 -0.047991283 -0.039427333
0001e0 ad 97 21 bf ef 62 c7 3e 84 1f 07 bf 0a fa 95 be
       -0.63122064 0.38942668 -0.52782464 -0.29292327
0001f0 11 cf 26 be 9a d1 48 bf 1b e9 2f be 39 9d 8a be
       -0.16289927 -0.78444827 -0.17178766 -0.27073076
000200 f9 e0 a1 3d ce 46 7f be 06 41 24 bf 34 42 55 3e
       0.07904238 -0.24929354 -0.6416172 0.20826036
000210 a6 01 1f bf 3c a7 f0 be 17 d5 bb bd c8 89 90 3d
       -0.6211189 -0.4700259 -0.09171503 0.0705753
000220 77 72 42 3f 7d 35 6a bf 83 f3 87 3f 29 2f 89 3f
       0.7595591 -0.91487867 1.0621189 1.0717517
000230 d8 6c 05 3f 0a be 00 3f ab f2 fc be b0 b2 c7 3f
       0.5211921 0.50289977 -0.4940389 1.5601406
000240 24 4f 8f bf 6f 59 f0 3e 39 85 50 3e 38 6f 5e bf
       -1.1196027 0.46943232 0.2036332 -0.86888456
000250 dc c7 78 3d de 33 32 bf
       0.060737476 -0.69610393

4.bias f4 [5]
000000 f6 1e ad bd 86 74 d2 bc cc 6b 90 bd ba 0c 73 be
       -0.08453171 -0.025690328 -0.070518106 -0.23735324
000010 26 5b a0 bf
       -1.2527816

0.weight f4 [30, 2]
000000 ed 54 a6 bf 4c 7e 05 40 40 24 4a 3d 14 2c 91 be
       -1.2994667 2.0858335 0.049350977 -0.2835394
000010 15 e3 81 be 31 aa 2e bf e0 e3 91 bd c7 a9 6a 3f
       -0.25368562 -0.6822844 -0.07123542 0.9166531
000020 b7 83 04 3f bd 4f 0e 3f 5a 5f ab 3d 49 ac 98 be
       0.5176348 0.5559042 0.08367796 -0.29818943
000030 1d c3 88 bf c8 e8 83 40 1a 58 4a bf da 0e f9 3d
       -1.0684544 4.1221657 -0.7904068 0.12161036
000040 ee 97 87 bc 17 fb a0 3f 53 b0 6d bf 0b c2 29 40
       -0.016551938 1.2576627 -0.92847174 2.6524684
000050 10 84 94 bf e1 41 a3 3f 23 60 fe be 1a 7a cc 3d
       -1.1602802 1.275448 -0.49682721 0.099842265
000060 81 a0 99 3d c6 c0 32 3f 40 35 91 bd 2c 07 8e bf
       0.07501317 0.698254 -0.07090235 -1.1095939
000070 bb 62 2c bf 04 b2 37 bf 5e bf 04 be d0 b8 f5 be
       -0.6733815 -0.71756005 -0.12963626 -0.47992563
000080 91 cb 61 bd c8 e1 d3 be 1b c6 48 bf f2 e2 fe 3e
       -0.055125777 -0.41383195 -0.78427285 0.4978252
000090 15 7b a8 3e ac 40 4b 3f 29 26 2c 3f 0d 0c fc be
       0.32906404 0.79395556 0.6724573 -0.49227944
0000a0 a5 6c e5 be 92 01 95 be a5 a7 de 3e 9e 7b 82 3e
       -0.44809452 -0.2910276 0.43487278 0.25484937
0000b0 ea 61 8a 3f 2a 67 87 bf 5b 8b c7 be 21 18 13 3f
       1.0811131 -1.0578358 -0.38973507 0.5745869
0000c0 d7 43 29 bf 66 60 f0 be 78 58 83 3d 0d 6f d4 bf
       -0.6611914 -0.46948546 0.064133584 -1.659639
0000d0 a5 91 47 3e e3 ac 88 3e 29 b6 6b 3e a9 d4 65 3e
       0.19489153 0.26694402 0.23018707 0.22444405
0000e0 26 cd 4e bf 17 86 cb 3e ee 7c 87 3f cb fe cf bf
       -0.8078178 0.3975074 1.0585 -1.6249632

0.bias f4 [30]
000000 aa 99 22 c0 8f 14 00 bf ff eb 77 be 97 a1 3d 3f
       -2.540629 -0.5003137 -0.24211119 0.7407469
000010 9f 15 f2 bd c5 dd 44 3f 53 3f 64 3e fa c8 64 bf
       -0.1182053 0.76900893 0.22289781 -0.89369166
000020 44 12 6d 3f b8 d6 d1 bf b4 f6 2a c0 65 45 e9 bf
       0.92605996 -1.6393652 -2.6713076 -1.8224303
000030 a1 76 06 3f 9c 28 61 bf 60 08 3e bf 03 08 77 3f
       0.52524763 -0.8795259 -0.7423153 0.964966
000040 95 33 41 bf 8e 9a 3c 3f 35 79 18 bf 28 ef 0d bf
       -0.7546933 0.7367333 -0.5955995 -0.5544305
000050 72 4c af 3e 03 75 8d 3f 1e 4d 05 40 c6 04 67 3f
       0.3423801 1.1051334 2.0828319 0.9024166
000060 24 bd 8d 3f cb 27 07 be d2 bb 3d bf 3b 7b 88 3d
       1.1073346 -0.13198774 -0.74114716 0.06664129
000070 6a 55 2f 3f e5 a8 2e 3f
       0.68489707 0.6822646
