model_summon/Interpolator/Modal_Ut.pth (torch, 9171 bytes, 10 tensors)

model.0.weight f4 [20, 3]
-0.060176313 -0.18116722 -1.024 0.4716711 -0.22855304 -0.61563957 -0.25859562 -0.11094273
-0.62851506 -0.2546616 -1.074254 -0.22152293 -0.057149947 1.6587064 -0.9660694 0.07654279
-0.19193654 0.45047918 0.12108821 0.60904807 -0.17212358 0.17888561 0.40961444 0.3739985
-0.025819413 -1.2672186 0.87858236 -0.49721977 -0.04528823 -0.5617092 -0.26017922 0.64514583
-1.1402303 0.6557203 1.2715678 -0.87780637 0.05710825 -0.450748 -0.60634613 0.01630748
-0.039801918 0.02148257 -0.35858813 0.34112635 -0.6143692 -0.2804394 -0.5180113 0.44772038
-0.001174402 -0.07081168 -0.97305405 -0.17608686 0.83327776 -0.4442832 -0.30795193 -0.9067047
0.6461914 -0.18031973 0.49140337 0.91846
00000000: 707b 76bd e683 39be 6f12 83bf e07e f13e
00000010: cf09 6abe 8e9a 1dbf a566 84be f135 e3bd
00000020: 5de6 20bf 0163 82be 2881 89bf e8d6 62be
00000030: 1016 6abd 7e50 d43f 5350 77bf 77c2 9c3d
00000040: 038b 44be 35a5 e63e 18fd f73d 93ea 1b3f
00000050: 2a41 30be ca2d 373e fcb8 d13e bb7c bf3e
00000060: 3c83 d3bc 3834 a2bf c6ea 603f 9793 febe
00000070: 2780 39bd 2dcc 0fbf 3636 85be 4728 253f
00000080: 11f3 91bf 49dd 273f bcc2 a23f ebb7 60bf
00000090: 57ea 693d 71c8 e6be 8039 1bbf 4497 853c
000000a0: 5607 23bd 37fc af3c dd98 b7be 1da8 ae3e
000000b0: 4d47 1dbf c195 8fbe 639c 04bf 9b3b e53e
000000c0: 64ee 99ba b705 91bd 121a 79bf 1d50 34be
000000d0: b151 553f 1679 e3be e0ab 9dbe cd1d 68bf
000000e0: cd6c 253f bca5 38be 3999 fb3e 3220 6b3f

model.0.bias f4 [20]
-0.9806649 -1.3485242 -0.8289266 -1.1383331 0.37087238 -0.09594709 0.014832577 0.4779504
-0.22871162 -0.6166507 -0.49746227 -0.09278724 -1.0243162 -0.11122131 -0.23298907 0.16175261
-1.3338212 -0.4484323 -0.001130511 -0.8319323
00000000: db0c 7bbf 719c acbf 8934 54bf e6b4 91bf
00000010: fce2 bd3e e87f c4bd 5604 733c eab5 f43e
00000020: 6133 6abe d2dc 1dbf 60b3 febe 3d07 bebd
00000030: cb1c 83bf 00c8 e3bd b094 6ebe 7aa2 253e
00000040: a7ba aabf eb98 e5be a82d 94ba 84f9 54bf

model.3.weight f4 [20, 20]
0.6758414 1.43115 -0.71897215 0.28906912 0.28043792 0.36411452 -0.03241178 0.64311135
0.45236373 -2.0618844 0.32522416 -0.12184761 0.48567685 -0.0056365295 -0.5941658 0.10209563
2.6970427 -0.53506905 -0.69389635 0.40061298 -0.35324824 1.0173604 0.133645 -1.8089592
0.17275302 -0.5635172 -0.28861788 -0.48466605 0.29610285 -0.0064929663 0.041058734 0.56098336
0.41107225 0.13828133 0.34005082 -0.5990843 -1.198633 0.39638117 0.28405344 0.41702938
0.45155668 -0.51774806 -0.08453434 0.5237793 -0.18128283 0.45104763 -1.0017064 -0.25389925
-0.6255181 0.025919292 -0.9360512 -2.7191944 0.104125366 0.12776268 0.05914836 0.2128183
1.6587461 0.34860215 0.09318155 0.27921265 -0.69242513 -0.83965826 -0.09148225 -0.6467724
-0.78200054 0.27806967 -0.019380448 -0.019782875 -0.33416414 -0.49919483 -1.0415684 -0.13248055
-0.23822403 -0.07341511 -0.59730977 0.01702814 -2.5758986 -0.3192359 0.15269643 -0.8492713
-1.1460906 0.03631702 -2.692958 -0.061838392 0.056218766 0.6416965 -0.24780612 0.91895676
-0.20101695 -0.47483963 0.15067445 -0.2879815 -1.723706 0.06116415 0.03761285 0.2991979
0.21357432 0.021879992 0.04982071 0.47910482 -0.008973368 0.052019212 -0.10362019 -0.13794003
-0.022008352 -0.15166442 -0.013002493 -0.19107743 -0.05692983 -0.270625 0.13554111 -0.0196139
-0.034020405 -0.08939087 -0.26209435 -0.058711167 -0.05947179 -0.16875526 -0.20745492 -0.10110341
-0.11768928 0.11868259 0.19028565 -0.071859285 0.02734992 -0.18098728 0.026041478 0.03305891
0.010927677 0.05779481 0.10848266 -0.083444014 0.12491745 0.1961005 -0.15256803 -0.070337445
-0.050847054 -0.120463185 -0.1550553 -0.1844153 0.5290068 -0.39923152 0.8952612 -1.1505558
-1.2321262 -0.29596934 0.2626109 0.25511336 -3.5773664 1.2898246 -0.10328582 -0.26233616
0.12551725 -0.21041456 -0.111884706 0.33159617 -0.0062018256 -0.6726038 -0.14206482 0.8729627
0.07961739 1.6763934 -0.13373019 0.47920343 0.4426789 -0.35544407 0.48151734 -0.57125163
1.4678757 -0.17084542 -1.7803811 0.16515355 0.16344017 -0.009930495 -0.416682 -0.13350424
-1.8236886 -0.4470514 -0.23961444 0.022863341 0.28208628 1.1680789 0.2658634 0.19021527
-0.55446345 -0.25566018 -1.0516458 -1.0588623 0.36931884 -0.24225757 0.46482605 0.8416571
0.09791679 0.16816074 0.082268715 0.004561414 1.2187023 0.54013354 0.33480453 -0.24964431
-0.8198025 -2.943258 -0.51146454 0.4304752 -0.24508633 0.02655292 -0.2870821 0.017260578
-0.7724796 -0.7822327 -0.9445068 -0.80795026 -1.798151 0.026941583 0.37626866 -0.03237478
-0.99531126 -1.1513244 0.42854545 -0.37869 0.9663115 1.3324515 -0.6803178 0.6066181
0.4445909 0.24694657 -0.028776942 0.26655307 0.54901767 0.5392267 -0.43767828 0.33165935
0.55041206 0.058292035 0.23778675 0.6151904 2.2788823 0.38099557 0.2829209 0.42845166
-0.24346411 -0.6547045 -0.08639611 1.0007911 -0.53213054 0.11047713 -0.14103833 0.7207897
2.2868235 0.16942954 -1.0231308 -0.700282 -0.048686508 0.04529707 0.3381801 0.1120411
00000000: f103 2d3f ec2f b73f 8f0e 38bf de00 943e
00000010: 8f95 8f3e 386d ba3e 37c2 04bd f2a2 243f
00000020: 389c e73e eaf5 03c0 c883 a63e 3d8b f9bd
00000030: a3aa f83e a3b2 b8bb 401b 18bf 8317 d13d
00000040: 599c 2c40 49fa 08bf 31a3 31bf 251d cd3e
00000050: f4dc b4be de38 823f 3cda 083e fa8b e7bf
00000060: 2be6 303e aa42 10bf b9c5 93be 2626 f8be
00000070: cb9a 973e f3c2 d4bb 342d 283d 9b9c 0f3f
00000080: 1078 d23e 9f99 0d3e 241b ae3e 975d 19bf
00000090: ce6c 99bf 79f2 ca3e 746f 913e e084 d53e
000000a0: 7032 e73e 238b 04bf 5720 adbd 6616 063f
000000b0: 35a2 39be b7ef e63e ea37 80bf 15ff 81be
000000c0: f421 20bf b254 d43c 0da1 6fbf 4807 2ec0
000000d0: ae3f d53d 38d4 023e 8d45 723d 0aed 593e
000000e0: cb51 d43f fb7b b23e f8d5 be3d f6f4 8e3e
000000f0: c642 31bf d8f3 56bf 0c5b bbbd e092 25bf
00000100: 3031 48bf 265f 8e3e bfc3 9ebc b20f a2bc
00000110: 9017 abbe 7796 ffbe 1d52 85bf fba8 07be
00000120: 00f1 73be a95a 96bd 4be9 18bf 997e 8b3c
00000130: 86db 24c0 e372 a3be 745c 1c3e d869 59bf
00000140: 19b3 92bf 28c1 143d 6d59 2cc0 414a 7dbd
00000150: a645 663d 3946 243f e3c0 7dbe c040 6b3f
00000160: 63d7 4dbe 2e1e f3be 674a 1a3e 5072 93be
00000170: 66a2 dcbf 4287 7a3d ef0f 1a3d 7830 993e
00000180: 3ab3 5a3e ab3d b33c cd10 4c3d 3a4d f53e
00000190: 0905 13bc 1912 553d d236 d4bd 2740 0dbe
000001a0: dc4a b4bc eb4d 1bbe 6908 55bc cda9 43be
000001b0: 412f 69bd 5c8f 8abe 4acb 0a3e 54ad a0bc
000001c0: fb58 0bbd 8f12 b7bd 3b31 86be 1f7b 70bd
000001d0: b198 73bd 2ece 2cbe 106f 54be 4e0f cfbd
000001e0: 1407 f1bd dc0f f33d 3eda 423e f62a 93bd
000001f0: f00c e03c bb54 39be f054 d53c c868 073d
00000200: 000a 333c 40ba 6c3d 282c de3d b2e4 aabd
00000210: b8d4 ff3d 92ce 483e cb3a 1cbe 140d 90bd
00000220: 0045 50bd 67b5 f6bd d1c6 1ebe 5dd7 3cbe
00000230: fd6c 073f 1368 ccbe d72f 653f 6a45 93bf
00000240: 50b6 9dbf 4b89 97be f074 863e 389e 823e
00000250: 92f3 64c0 f918 a53f 8487 d3bd ed50 86be
00000260: 9887 003e ea76 57be cf23 e5bd f9c6 a93e
00000270: af38 cbbb c32f 2cbf 7179 11be 7c7a 5f3f
00000280: 710e a33d 0f94 d63f 91f0 08be 275a f53e
00000290: cfa6 e23e c4fc b5be 7189 f63e 8c3d 12bf
000002a0: 5ae3 bb3f 1af2 2ebe 87e3 e3bf 031e 293e
000002b0: dc5c 273e 84b3 22bc 5857 d5be 56b5 08be
000002c0: a16e e9bf ece3 e4be 7d5d 75be e74b bb3c
000002d0: 9d6d 903e 9c83 953f 3f1f 883e cbc7 423e
000002e0: 51f1 0dbf e4e5 82be 549c 86bf cd88 87bf
000002f0: 5c17 bd3e 5e12 78be aefd ed3e d776 573f
00000300: 9988 c83d 5432 2c3e 807c a83d ea77 953b
00000310: 70fe 9b3f 3146 0a3f 806b ab3e c2a2 7fbe
00000320: 94de 51bf 575e 3cc0 57ef 02bf 3f67 dc3e
00000330: e9f7 7abe 8285 d93c 6dfc 92be 0e66 8d3c
00000340: 39c1 45bf 6740 48bf 33cb 71bf d4d5 4ebf
00000350: d029 e6bf 98b4 dc3c 49a6 c03e 6b9b 04bd
00000360: b8cc 7ebf 995e 93bf 4f6a db3e a8e3 c1be
00000370: 3160 773f c58d aa3f 4f29 2ebf 534b 1b3f
00000380: 6ba1 e33e 90df 7c3e 9fbd ebbc a579 883e
00000390: 6c8c 0c3f c30a 0a3f 5e17 e0be 41cf a93e
000003a0: cee7 0c3f a1c3 6e3d 5f7e 733e 1e7d 1d3f
000003b0: 35d9 1140 da11 c33e 02db 903e 045e db3e
000003c0: a84e 79be b79a 27bf 72f0 b0bd ec19 803f
000003d0: b539 08bf d541 e23d 5a6c 10be ac85 383f
000003e0: 515b 1240 f07e 2d3e f3f5 82bf ae45 33bf
000003f0: 816b 47bd 6c89 393d f125 ad3e ce75 e53d

model.3.bias f4 [20]
-0.856341 0.039898105 0.53650916 0.9721968 -0.05542477 -0.10478802 -0.13445616 0.52624243
0.038709734 0.22176638 0.9965525 -0.88841385 0.09495546 0.74840647 -0.4728631 -0.18290684
0.06035833 0.13534686 -0.10907305 0.8276774
00000000: 2a39 5bbf 326c 233d aa58 093f e4e1 783f
00000010: 1505 63bd 1a9b d6bd e0ae 09be d3b7 063f
00000020: 198e 1e3d ba16 633e 111e 7f3f 176f 63bf
00000030: 0278 c23d 9197 3f3f 1d1b f2be ee4b 3bbe
00000040: 4c3a 773d 5e98 0a3e b161 dfbd abe2 533f

model.6.weight f4 [20, 20]
0.69720256 -0.11408799 0.23308274 -3.7482185 -1.590419 0.18374778 -0.08789794 0.70742327
-0.46338916 0.22056974 -1.5742323 0.22198445 -3.9910975 -0.9036662 0.4869796 -0.13963154
0.15355915 1.147872 -0.16394542 -2.0131226 -1.4165841 0.33658984 0.7423603 0.045751788
-0.975628 -0.0773941 -0.13601246 -0.9231325 -0.48055494 -0.048468847 -0.10330542 -0.59735996
0.5862522 0.96732205 -0.18431138 -0.06772901 -0.8806967 -1.0481546 0.004512146 -0.22224565
-0.09919339 -0.45001578 -0.39263216 0.027106665 0.14544702 -0.08798019 -0.02004145 -0.43839195
-0.027016845 -0.828834 0.45603976 0.09356824 0.30608678 -0.47228187 -0.19399478 -0.0057698465
-0.9542977 -1.0284328 0.08438319 -0.8234722 1.2391924 -0.20049548 0.17975762 -0.80582947
-0.13612342 -0.008228986 -0.15548015 0.020851882 -0.13396889 0.59814984 0.8769024 0.27543968
0.20025313 -0.6372855 0.56259555 0.25080183 0.36925468 -0.30724066 0.1769312 -2.6261225
-0.7905551 -1.1431736 0.51066613 1.2761394 -0.27955407 -0.0085804975 -0.21895836 0.12567747
-1.6715143 -1.09247 0.97327477 0.07575624 0.16138943 0.13241057 -2.590933 -0.04307862
0.08629137 -0.51387733 -0.10106217 1.5832493 -0.78231543 -0.43735883 0.04297012 -0.20131797
-1.36268 -0.0765016 0.019417375 0.51663613 0.035319876 0.80205756 0.2936468 0.013401693
-0.3840335 0.05196777 -0.69769937 -0.08826845 0.47927415 -1.1018711 0.21379367 -0.8691208
0.66650933 -0.779816 -0.35253015 1.3255283 0.15715955 0.041179415 0.019019112 -1.0367001
-0.29274678 0.33251855 0.35601866 -0.31125122 0.343848 0.34321165 0.75202155 0.009348822
-1.3228711 -0.7248132 -0.1338324 -1.4510996 0.18428904 0.60517734 -6.0214467 -0.4913766
0.00031233855 0.0049736183 0.07825008 -0.38253313 0.3284255 0.21178624 0.16212077 -0.9896986
-0.37997177 -2.9241486 -0.060334 -0.06826931 -0.11396596 0.42310223 0.14890945 0.14287503
-0.31060442 0.59696096 -0.8288525 -0.12827408 -0.7542175 0.24782903 -0.20421338 0.8687591
-0.19152918 0.4275781 -0.7236302 -0.6843762 0.28321043 0.10001226 -0.085877076 0.06017283
0.029685369 -0.9396867 0.032285154 0.45080456 -0.22345524 -0.22283192 0.038258903 -0.068066895
-0.0024905626 -0.20508826 0.2168074 -0.017919138 -0.18741204 -0.10719376 -0.2551008 -0.29989287
-0.053609915 -0.0043889624 0.030946562 -0.138091 -0.018094774 -0.14807422 0.060186356 -0.21620779
0.116586655 -0.27755222 2.656877e-05 -0.1679605 -0.14753562 0.13610786 -0.059521586 -0.1226424
0.033753127 -0.41330263 -0.16818203 -0.3653137 -0.039387003 0.045591295 -0.26344413 0.058046937
-0.09263301 -0.20589401 0.14394537 -0.19826412 0.550619 -0.5498059 0.748529 0.3968992
0.0028528133 0.08021903 -0.055629358 0.3609973 -1.2242408 -0.7809069 0.42266157 -0.23794359
-0.45660114 -0.6921726 -0.4353701 0.020426087 -0.32911077 0.325723 0.009490281 0.5657985
-0.665883 -0.32612398 0.79333633 -1.0010539 -0.30370563 -0.09724065 0.17273033 -0.0145378085
-0.3786855 0.42756855 -0.10497957 -0.5186749 -0.46271983 0.23589438 0.2939799 -0.08004485
00000000: de7b 323f f7a6 e9bd 3ead 6e3e d0e2 6fc0
00000010: da92 cbbf 6128 3c3e d603 b4bd b119 353f
00000020: 5841 edbe 09dd 613e 7280 c9bf e44f 633e
00000030: 246e 7fc0 ab56 67bf 6455 f93e 92fb 0ebe
00000040: 9c3e 1d3e 78ed 923f 4fe1 27be 00d7 00c0
00000050: a152 b5bf 8155 ac3e 530b 3e3f 3a66 3b3d
00000060: c2c2 79bf cc80 9ebd da46 0bbe 6952 6cbf
00000070: 4c0b f6be 4587 46bd cb91 d3bd 95ec 18bf
00000080: a014 163f 6ba2 773f 1fbc 3cbe 82b5 8abd
00000090: 5775 61bf ee29 86bf a0da 933b 5d94 63be
000000a0: e725 cbbd 7868 e6be 1507 c9be cc0e de3c
000000b0: 10f0 143e f52e b4bd f82d a4bc e974 e0be
000000c0: 6e52 ddbc 772e 54bf 0b7e e93e b5a0 bf3d
000000d0: 68b7 9c3e eece f1be 91a6 46be fb10 bdbb
000000e0: db4c 74bf b0a3 83bf 18d1 ac3d 13cf 52bf
000000f0: db9d 9e3f b04e 4dbe 6212 383e d74a 4ebf
00000100: f063 0bbe ded2 06bc 3036 1fbe 91d1 aa3c
00000110: 242f 09be 5920 193f ad7c 603f 6e06 8d3e
00000120: 280f 4d3e 2425 23bf 4306 103f 1969 803e
00000130: f30e bd3e a64e 9dbe 742d 353e 6412 28c0
00000140: d261 4abf 8353 92bf 04bb 023f 8958 a33f
00000150: b621 8fbe 3795 0cbc 9f36 60be 98b1 003e
00000160: 2ef4 d5bf 0fd6 8bbf 8928 793f 1626 9b3d
00000170: 4543 253e a396 073e d9d1 25c0 3573 30bd
00000180: 88b9 b03d 778d 03bf aff9 cebd eaa7 ca3f
00000190: d345 48bf 7fed dfbe 7001 303d 4c26 4ebe
000001a0: 4c6c aebf dfac 9cbd 3011 9f3c 4442 043f
000001b0: 93ab 103d a553 4d3f e058 963e c692 5b3c
000001c0: 0aa0 c4be 28dc 543d 6d9c 32bf 17c6 b4bd
000001d0: 6c63 f53e 1d0a 8dbf baec 5a3e b37e 5ebf
000001e0: 5ba0 2a3f 05a2 47bf d57e b4be e9aa a93f
000001f0: 6fee 203e bfab 283d f8cd 9b3c 97b2 84bf
00000200: e8e2 95be df3f aa3e 1448 b63e 525c 9fbe
00000210: d80c b03e 70b9 af3e 7c84 403f cd2b 193c
00000220: d753 a9bf 5c8d 39bf 5c0b 09be a2bd b9bf
00000230: 44b6 3c3e e7ec 1a3f b1af c0c0 b795 fbbe
00000240: 5fc1 a339 bcf9 a23b 9441 a03d 62db c3be
00000250: 6327 a83e 7ede 583e fd02 263e e35c 7dbf
00000260: a98b c2be 4025 3bc0 c920 77bd c8d0 8bbd
00000270: fc66 e9bd dba0 d83e b87b 183e d54d 123e
00000280: 8b07 9fbe 6fd2 183f ad2f 54bf 485a 03be
00000290: 6614 41bf e5c6 7d3e 501d 51be ff66 5e3f
000002a0: 3a20 44be 84eb da3e d43f 39bf 4733 2fbf
000002b0: f500 913e 3ad3 cc3d 52e0 afbd c977 763d
000002c0: bb2e f33c 4f8f 70bf 703d 043d dbcf e63e
000002d0: 73d1 64be 0d2e 64be 5eb5 1c3d a866 8bbd
000002e0: b538 23bb a802 52be c202 5e3e 28cb 92bc
000002f0: f1e8 3fbe 6788 dbbd 929c 82be 8f8b 99be
00000300: 1296 5bbd 49d1 8fbb a583 fd3c ba67 0dbe
00000310: 7e3b 94bc c5a0 17be f885 763d 9365 5dbe
00000320: fcc4 ee3d 531b 8ebe 00e0 de37 d6fd 2bbe
00000330: 9413 17be dc5f 0b3e e8cc 73bd f02b fbbd
00000340: b840 0a3d 679c d3be e937 2cbe 660a bbbe
00000350: 4454 21bd f0bd 3a3d 26e2 86be a0c2 6d3d
00000360: 60b6 bdbd e1d5 52be 6a66 133e c005 4bbe
00000370: 5ef5 0c3f 14c0 0cbf 999f 3f3f 5f36 cb3e
00000380: 44f6 3a3b e049 a43d 9cdb 63bd a3d4 b83e
00000390: ecb3 9cbf 84e9 47bf 1967 d83e 7ca7 73be
000003a0: a0c7 e9be 3932 31bf d4e8 debe 9c54 a73c
000003b0: 3581 a8be 2ac5 a63e 207d 1b3c 2cd8 103f
000003c0: 4f77 2abf b9f9 a6be 1718 4b3f 8922 80bf
000003d0: 4e7f 9bbe 1b26 c7bd 38e0 303e fd2f 6ebc
000003e0: 11e3 c1be 44ea da3e 87ff d6bd e1c7 04bf
000003f0: 9de9 ecbe 4c8e 713e 8984 963e 8eee a3bd

model.6.bias f4 [20]
-0.43185204 0.5290725 0.5672756 -0.57626146 0.09880837 0.37576997 0.056725085 0.46619794
0.50474155 -0.13661921 -0.43426958 0.5717234 0.43608552 -0.070188776 -0.4226451 0.008431933
-1.3070616 0.49907562 0.34426096 0.1659672
00000000: b61b ddbe 4c71 073f f938 113f df85 13bf
00000010: 0b5c ca3d ec64 c03e 9058 683d 7fb1 ee3e
00000020: be36 013f e8e5 0bbe 9558 debe 775c 123f
00000030: 9a46 df3e 22bf 8fbd f064 d8be 1726 0a3c
00000040: cb4d a7bf d786 ff3e f942 b03e 4ef3 293e

model.9.weight f4 [20, 20]
1.1141547 0.5646618 0.02390366 -0.9859935 1.3632612 0.14454624 0.4975025 1.0669025
0.14502172 0.040583186 -0.15366498 -0.2651251 0.264045 -1.9733182 0.052729636 -2.0780835
-0.060470268 -1.9520531 -0.5579497 -0.28090608 -0.11760449 -0.015429321 -0.118678086 -0.08536254
-0.3049366 -0.1823721 -0.06496211 -0.04314688 -0.16442165 0.21629125 0.097464085 -0.031284314
0.05909941 -0.078740016 0.16543034 -0.2564774 0.006635353 -0.20242625 -0.22755507 -0.023297997
-2.3786192 0.12410943 0.25375062 -1.141302 0.8460508 0.81052643 0.6382154 -0.27725834
0.27570403 0.23983909 -0.09065989 0.18593337 -0.008106911 -0.45589548 -0.17815351 0.52519083
0.32620475 -0.14214091 -0.011107504 -1.6484854 -0.17260349 -0.4335836 0.15507652 -0.30301157
-0.5565187 0.46579522 -0.19997552 -0.6541034 0.5570194 -0.09188078 0.1091741 0.87543935
-1.7076292 -0.10119466 0.026562326 -0.09525884 0.92823684 0.45408666 0.39428356 -0.19843194
-0.5225761 -0.796505 -0.579825 -2.7726557 -0.5672424 -0.3509058 -0.88611394 0.020796906
0.2743243 0.110235125 0.1503244 -0.38651618 0.5233079 -1.3011447 0.1907371 -0.22352609
1.3641233 0.22691603 -1.1634316 0.1979119 -2.8391132 -0.8394249 0.40013024 -0.4553343
-0.895952 -2.1003702 -0.07740891 -0.61789393 0.55192715 -0.10338551 0.020375267 0.9383556
0.6010372 -0.3285769 0.10283874 -0.48362014 1.081846 0.20739464 -0.37934008 1.3861897
-3.126329 0.31268442 0.0857461 0.42690617 0.56026125 0.70584923 -0.40626556 1.6522074
-1.3595287 0.2546543 0.041187525 0.12335316 0.5809843 -0.5331829 -0.14658087 -0.28314573
1.2376122 -0.41001287 -0.19157943 -1.0526183 0.44392115 0.3807069 -0.4446301 0.013852094
-0.749174 0.16274375 0.35784933 0.4896089 0.37008286 -0.027400224 0.12143073 -0.58847654
0.26135743 0.116259046 -0.16787767 -0.31220177 -0.6174599 -0.08625832 -1.9584297 -0.93140244
0.5789028 0.2379139 -0.14626916 -0.16127215 0.40420768 0.8856065 0.012844226 -0.18825842
0.7846587 0.16030665 0.040482517 0.079184756 0.6718071 0.26115435 -0.09074396 -0.47208983
-0.4662246 -0.66972595 0.22744478 -0.45925122 0.24702777 0.8752755 -0.5999562 0.21316995
-0.7292173 0.081645735 0.40013075 -0.6850904 0.08988522 -0.16243452 0.37486458 1.0016208
0.33101583 -0.023307553 -0.29492888 0.40056956 0.101507634 -0.38354924 0.69480276 0.33123425
0.61479264 -0.050803073 0.56953704 0.02401314 -2.0309134 -0.3060486 0.5067388 0.38851812
-0.123957366 0.2006863 -0.09536743 -0.9585725 0.43943238 0.08437295 -0.2795703 0.20994608
-0.14201434 0.8292006 -1.0853878 -1.9807577 0.5770949 0.10896116 0.48791662 -0.5263264
0.51244736 -0.29747024 0.20309447 -1.0651821 -0.6170953 0.043256134 0.14987683 0.1011205
1.2978835 -0.46145254 0.029629383 0.26356304 -0.61937344 -0.19016589 0.24506104 -0.76866144
-0.053567182 0.8544175 -0.08606712 0.13504288 0.22237583 0.6949052 -0.8620026 -0.7557544
-0.28373718 -0.11545995 -0.09297342 -0.3625612 0.6041999 -0.31001377 0.030295672 0.4773297
00000000: 9f9c 8e3f ad8d 103f 9cd1 c33c 126a 7cbf
00000010: 587f ae3f ee03 143e a6b8 fe3e 4390 883f
00000020: 9380 143e 8e3a 263d 5a5a 1dbe 7abe 87be
00000030: e830 873e b195 fcbf 08fb 573d 52ff 04c0
00000040: acaf 77bd e0dc f9bf cbd5 0ebf ecd2 8fbe
00000050: 9fda f0bd 43cb 7cbc 7f0d f3bd 8ed2 aebd
00000060: a620 9cbe c0bf 3abe db0a 85bd c8ba 30bd
00000070: 265e 28be 747b 5d3e 409b c73d fb23 00bd
00000080: 3912 723d 7242 a1bd 9266 293e 0151 83be
00000090: 606d d93b d448 4fbe 3204 69be 71db bebc
000000a0: 4c3b 18c0 162d fe3d 9aeb 813e 2f16 92bf
000000b0: c996 583f a97e 4f3f 1662 233f cef4 8dbe
000000c0: 1429 8d3e 6198 753e e4ab b9bd 5165 3e3e
000000d0: d9d2 04bc 226b e9be e06d 36be e872 063f
000000e0: 4f04 a73e 638d 11be 40fc 35bc 9201 d3bf
000000f0: f8be 30be abfe ddbe 61cc 1e3e 5524 9bbe
00000100: 0278 0ebf b67c ee3e 62c6 4cbe 5273 27bf
00000110: d398 0e3f fe2b bcbd ac96 df3d cb1c 603f
00000120: 9893 dabf 253f cfbd 3c99 d93c 1117 c3bd
00000130: eea0 6d3f 0c7e e83e 89df c93e be31 4bbe
00000140: 8cc7 05bf c0e7 4bbf 696f 14bf 3173 31c0
00000150: cc36 11bf eda9 b3be 5dd8 62bf 465e aa3c
00000160: 3c74 8c3e f4c2 e13d a4ee 193e 73e5 c5be
00000170: 82f7 053f e98b a6bf 9650 433e 06e4 64be
00000180: 989b ae3f ad5c 683e 54eb 94bf 6ba9 4a3e
00000190: 08b4 35c0 8de4 56bf dfdd cc3e 9421 e9be
000001a0: 1c5d 65bf 776c 06c0 9088 9ebd 4c2e 1ebf
000001b0: 194b 0d3f c8bb d3bd 08ea a63c 1338 703f
000001c0: 93dd 193f 3b3b a8be 1e9d d23d 0f9d f7be
000001d0: ee79 8a3f 435f 543e dd38 c2be aa6e b13f
000001e0: c615 48c0 2c18 a03e a79b af3d 7293 da3e
000001f0: 486d 0f3f 89b2 343f 0a02 d0be 887b d33f
00000200: 0905 aebf 0c62 823e 40b4 283d 95a0 fc3d
00000210: 63bb 143f ad7e 08bf 4c19 16be 7af8 90be
00000220: 146a 9e3f 35ed d1be 662d 44be 32bc 86bf
00000230: a249 e33e 04ec c23e 8ea6 e3be e5f3 623c
00000240: dec9 3fbf 4ca6 263e 0738 b73e 05ae fa3e
00000250: 807b bd3e 6f76 e0bc adb0 f83d 66a6 16bf
00000260: a4d0 853e 3919 ee3d 20e8 2bbe e9d8 9fbe
00000270: da11 1ebf 34a8 b0bd d3ad fabf 6470 6ebf
00000280: f932 143f b49f 733e 95c7 15be 8724 25be
00000290: 4ff4 ce3e 1cb7 623f 9770 523c d1c6 40be
000002a0: 64df 483f 6d27 243e ffd0 253d 9e2b a23d
000002b0: 8dfb 2b3f 06b6 853e f8d7 b9bd c2b5 f1be
000002c0: feb4 eebe 2973 2bbf 49e7 683e fa22 ebbe
000002d0: d9f4 7c3e 0e12 603f bb96 19bf 3949 5a3e
000002e0: fcad 3abf e135 a73d f0dd cc3e 1662 2fbf
000002f0: be15 b83d 3c55 26be 40ee bf3e 1c35 803f
00000300: e87a a93e 7bef bebc eb00 97be 7417 cd3e
00000310: 3ce3 cf3d 9160 c4be 98de 313f 8997 a93e
00000320: 0d63 1d3f e216 50bd 2ecd 113f 34b7 c43c
00000330: 7cfa 01c0 67b2 9cbe a2b9 013f d9eb c63e
00000340: 5cdd fdbd b680 4d3e 0050 c3bd 0265 75bf
00000350: 48fd e03e bacb ac3d d723 8fbe 1bfc 563e
00000360: 356c 11be 7e46 543f fded 8abf 7889 fdbf
00000370: 7ebc 133f 0727 df3d 35d0 f93e 54bd 06bf
00000380: c02f 033f 054e 98be fff7 4f3e e357 88bf
00000390: f5f9 1dbf 582d 313d 5079 193e 4418 cf3d
000003a0: 0c21 a63f 8243 ecbe 52b9 f23c bcf1 863e
000003b0: 428f 1ebf d9ba 42be 48f1 7a3e ffc6 44bf
000003c0: 4369 5bbd 1bbb 5a3f f543 b0bd ae48 0a3e
000003d0: 7db6 633e 4fe5 313f 34ac 5cbf 1f79 41bf
000003e0: 0046 91be 4476 ecbd d968 bebd 9fa1 b9be
000003f0: d8ac 1a3f 20ba 9ebe a12e f83c 8f64 f43e

model.9.bias f4 [20]
0.20108545 -0.13056496 0.09605339 0.19040632 0.89408296 -0.27073348 -0.22586808 0.77619797
-0.11621451 -0.43249005 0.078112476 0.108180374 0.35845855 0.5144777 0.9010404 0.9073305
0.27046087 0.7324204 -0.5808706 -0.48216766
00000000: 58e9 4d3e d2b2 05be a4b7 c43d e0f9 423e
00000010: 9fe2 643f 949d 8abe f649 67be e9b4 463f
00000020: df01 eebd 566f ddbe 6ff9 9f3d ac8d dd3d
00000030: e187 b73e d0b4 033f 95aa 663f d046 683f
00000040: d979 8a3e e77f 3b3f f0b3 14bf aede f6be

model.12.weight f4 [4, 20]
0.3203724 -0.03905481 -0.25590438 0.2670943 -0.59729785 0.76900136 -0.51632094 -0.22092701
0.61746436 0.35093856 -0.25295258 0.6506927 0.52842706 -0.0250949 -0.38338232 -0.2670465
0.12339294 -0.22959349 0.98672295 -0.16689408 0.92960286 0.22311518 -0.2937248 -0.6873259
-0.14085284 -0.25535354 0.14051229 0.8755569 0.24813038 -0.2547869 -0.22561872 0.35767522
0.3212813 -0.4422583 0.15251055 -0.29983842 -0.31084475 0.07118615 0.80384314 0.07034612
1.2998301 -0.05942889 -0.2876992 -0.0680879 0.7129506 -0.8311477 -0.84389114 -0.17291778
0.063570715 0.14910217 0.26934263 0.07914451 0.26436356 0.86951023 -0.5253298 1.0904875
-0.49897474 0.9808276 0.2945128 0.44129393 -0.20751916 -0.12103592 -0.84235036 -0.19221635
-1.1897112 -0.03756399 0.1598668 -0.1941072 0.3613449 0.56088686 0.70071584 -0.059085116
-0.42396626 -0.39673808 0.30340564 -0.6347095 -0.29404613 -0.08784397 0.9573801 -0.587903
00000000: da07 a43e f0f7 1fbd e605 83be 96c0 883e
00000010: 83e8 18bf 46dd 443f 9c2d 04bf b13a 62be
00000020: 2512 1e3f 38ae b33e 0083 81be cc93 263f
00000030: ff46 073f d293 cdbc b04a c4be 52ba 88be
00000040: 70b5 fc3d 8e1a 6bbe e099 7c3f 48e6 2abe
00000050: 74fa 6d3f 4e78 643e 1963 96be 97f4 2fbf
00000060: ba3b 10be b3bd 82be 74e2 0f3e 7f24 603f
00000070: e415 7e3e 6e73 82be 9808 67be 3521 b73e
00000080: fc7e a43e ae6f e2be ba2b 1c3e 6c84 99be
00000090: 0b27 9fbe 0bca 913d aac8 4d3f a011 903d
000000a0: d560 a63f b56b 73bd 4f4d 93be ab71 8bbd
000000b0: ee83 363f 18c6 54bf 4009 58bf 5c11 31be
000000c0: 5d31 823d 3dae 183e 47e7 893e 8416 a23d
000000d0: a95a 873e 3998 5e3f 047c 06bf 1895 8b3f
000000e0: 9e79 ffbe 8517 7b3f 62ca 963e 47f1 e13e
000000f0: e77f 54be aee1 f7bd 46a4 57bf 5dd4 44be
00000100: 7548 98bf b3dc 19bd 1fb4 233e 0ac4 46be
00000110: 3302 b93e 4896 0f3f 1d62 333f 3c03 72bd
00000120: 1b12 d9be 4121 cbbe fc57 9b3e 527c 22bf
00000130: 378d 96be 8ae7 b3bd dd16 753f d080 16bf

model.12.bias f4 [4]
-0.062964395 -0.10402508 -0.36158344 0.4569117
00000000: 7af3 80bd 1a0b d5bd 7721 b9be 55f0 e93e
