model_summon/Interpolator/Modal_Ur.pth (torch, 9171 bytes, 10 tensors)

model.0.weight f4 [20, 3]
00000000: fbb1 043f 8e21 12bf f221 50bf 46fc 5e3f
00000010: ee77 25bf bbc0 4dbe c38d 75bb c2fe c9be
00000020: 857f 4ebf c595 c9be c003 b2bf cdb2 b0bd
00000030: e5b9 abbd a1ee a73f ce38 3abf b02c 583e
00000040: 8112 9abf 68db 543e 67fe b73e dc31 213f
00000050: 2188 49bf 2755 8abe e75f bf3f 133a 973e
00000060: 6873 03bf dd22 b3bf dc0f 283f d8af 68bf
00000070: 7db6 af3c 284c 833e 3261 4b3c 866d 9a3f
00000080: f6ad eebe 47e1 0d3e aef0 be3f 04c4 94be
00000090: 671e 86bd 6b2f 7dbf 3f3d 11bf 4190 e5bd
000000a0: bc93 53be 39ca 52bf 1124 c5be aefc e43e
000000b0: c766 80bf 3a88 65be 42d7 80bf 6aff cc3e
000000c0: b09d 3e3e e2fd ac3f 332d b0bf b64f a3be
000000d0: 6e6b 143f 32f7 3ebf 00c1 ffbd 56e5 89bf
000000e0: e2d8 8c3e 3b08 1bbe 1b86 403e 5762 7a3f
0.51834077 -0.5708245 -0.81301796 0.8710369 -0.64636123 -0.20093052 -0.003746853 -0.39452177
-0.8066333 -0.39372078 -1.3907394 -0.086278535 -0.08385066 1.3119699 -0.7274293 0.21110797
-1.2036897 0.20786822 0.3593628 0.62966704 -0.7872334 -0.2701809 1.4951142 0.29536495
-0.5134797 -1.3995014 0.656492 -0.90893316 0.021449322 0.2564404 0.01241331 1.2064674
-0.46617097 0.13855468 1.49172 -0.29055798 -0.065487675 -0.9890048 -0.5673408 -0.11209155
-0.20661825 -0.8233982 -0.3850408 0.4472403 -1.0031365 -0.22415248 -1.0065691 0.40038615
0.1861484 1.3514979 -1.3763794 -0.31896752 0.57976425 -0.7459594 -0.12487984 -1.0773113
0.27509218 -0.15139858 0.18801157 0.97806305

model.0.bias f4 [20]
00000000: 6c01 8fbf 23a2 80bf 73a5 ec3e 0ab6 60bf
00000010: 6dcc 943e 61d4 273f 9bb3 9f3e 6f57 5abf
00000020: 316d e0be c842 10be 1ac8 a33d c611 44be
00000030: ccd6 6bbf 7801 40bf 1541 8d3e 0cc3 8a3f
00000040: d08b 3abf dbba 093f 506b 823f 75d8 5fbf
-1.1172309 -1.004948 0.46219978 -0.8777777 0.29062214 0.6555844 0.31191716 -0.85289663
-0.43833306 -0.14087975 0.07997151 -0.19147405 -0.9212463 -0.7500224 0.27588716 1.0840774
-0.72869587 0.53800744 1.0188999 -0.8743966

model.3.weight f4 [20, 20]
00000000: 0812 e33d 7a05 8e3c ae30 3ebe d1d3 50be
00000010: 3626 17be f2a5 8f3d 2fc6 42be c510 173e
00000020: cb27 d1bd 4b1c 4abe 65eb 74be aa12 26bd
00000030: a02a 6f3d d0db 663d 02ec 17be 0ffc a6bc
00000040: 0457 be3d 9c16 34be 0b7a 22be b69d 21bd
00000050: 0e08 883f ecf6 cbbf b2b6 41be ad30 f2be
00000060: c36b 653f e096 1fbf da78 a73e cd1d b0be
00000070: f145 9dbf 7af7 573f a6a9 a13e 7446 4bbe
00000080: 25a7 b4be 0116 8ebe abd3 bf3d 6c2b b33e
00000090: a73d 6abf b86b aa3e 85c9 1e3e 9c94 58bf
000000a0: 7ddb 45be 99d5 52bf 1cad ddbc 790b efbf
000000b0: ae73 49bf 9d15 15be fd13 22be 8200 cb3e
000000c0: 96ef 77bf 7090 8b3e bc78 18bd e9f6 39bf
000000d0: 630d a43d 8860 df3e 0e53 3c3f 60b7 d83e
000000e0: 518f b6bf 2530 b23e eae0 993e 60ad 50be
000000f0: f336 a0bf 8a28 81bd 6f34 00be dcd9 9dbf
00000100: b2c6 91be 2bbb 633f 3ecc a6be ffc9 92bf
00000110: 1e79 b0bd 50ee 16be 78f0 d3be 3078 25bf
00000120: cc28 4bbf 0e7a b1bf 7c9a 0cbe 4d01 453f
00000130: 1d55 0c3f 68d1 df3e bbe7 503f 0a05 bcbe
00000140: 7766 7ebe 5dd3 2ebd d8ea 61bd db86 773b
00000150: 70d3 82bd 3924 1abd e1bb 2fbe 7aef 80bd
00000160: a808 303d e40f 5abe 88d9 4abe c2e9 3dbe
00000170: 067b 4abe 0a41 6c3e 09d8 903d e1f8 7fbe
00000180: 8494 263e d524 60be 14f9 7ebe 7e2f ce3d
00000190: 0419 453f 9ce9 033f 7ea0 6b3e 1b26 923e
000001a0: e60c c23e 5f6a 0f3e 1787 9abc 9983 133f
000001b0: a881 973f 3f9a 84bf 7595 3b3f bce6 173f
000001c0: e93e 023f c365 233d be4a 89be de21 90bd
000001d0: 3d67 13c0 a591 bebe 5182 c2bd 901c 25be
000001e0: 9041 4fbe 9513 0b3d cd3d d83d 4e36 20be
000001f0: f00c e03c 6e08 88be 7a65 70bd c868 073d
00000200: 000a 333c 40ba 6c3d 282c de3d b2e4 aabd
00000210: b3a7 243d b465 e43d ea9f 72be 140d 90bd
00000220: 0bcb 0abe b919 52be d1c6 1ebe 5dd7 3cbe
00000230: 0312 603f ff0f 37bf e09f cabe 6097 52bf
00000240: 9dc1 e33b aa91 083e 8c1e d8bd b112 663d
00000250: d427 f63e eae8 84be 2dcd 973e bfe9 10bd
00000260: 6bcd 853f c1dc 933e 9247 f63e ece6 57bb
00000270: 907c 65bf 9902 e93e 1807 f1bd db62 c6be
00000280: dda3 0c3f 3694 af3c 9869 36be d239 c43f
00000290: b8b1 993f 02e9 95bd dd76 f7bd c5dc 01be
000002a0: 5c21 913f 9506 c2be 8de4 6b3f d37f 563e
000002b0: 4fc2 8f3f 962f 143f 1b26 4dbf 231d 223e
000002c0: 1963 7fbf 6baf 68be c7e1 9dbe 9258 58bf
000002d0: a529 7e3f 90e3 a83e fe1a 323f 4fbf 89bf
000002e0: 7727 13bf 0d99 183e 1b47 1b3f 1c45 af3e
000002f0: ef2d 0540 a7bd 45bf fb8e 4ebf 4ea7 86be
00000300: eb76 083e 7413 69bd cf9b 2f3f ecc0 72bf
00000310: 52fa 9f3e 5e48 9b3e cf6a 60bf 9b17 1f3f
00000320: 882d e2be 7d81 2dbf 9e2d 0bbf eb9a b0bd
00000330: 0509 96bf b9ec a7bd 4fbf 75bd d0a5 f3be
00000340: 5b71 27bf 980b 9e3f f568 f0bd 5651 4cbf
00000350: f900 873e 1287 0b3d 5f42 f83c 68de 153f
00000360: 994b cfbd 0fc2 c8bb 5159 243f 3684 163e
00000370: ee94 b13e 462f b23d 0217 26bf 42a3 433e
00000380: 6f8c c9be b0a6 71be 277f 9a3c a286 bdbe
00000390: 6294 7e3e 1fb7 86be cec7 353f 5529 e93d
000003a0: 3d30 38bf 1a45 27bf 74cc f4be 59a8 523f
000003b0: 83a5 f2be 4787 aebe b074 443f 232e 08bf
000003c0: 5511 4cbf 2bc6 903e 9412 efbf 0f45 94bf
000003d0: 0fb4 763c 4ec5 043f a79c 0cbd 0bec f0be
000003e0: ee32 0dbc 23d5 043e 132f 46bf 2b56 1ebf
000003f0: fd21 79bd d580 f03f 4091 2bbf e00a 133f
0.110874236 0.017336596 -0.18573257 -0.20393302 -0.1476067 0.070140734 -0.19020914 0.14752491
-0.10212668 -0.19737355 -0.23917921 -0.040545143 0.05839026 0.056361973 -0.14836124 -0.020383863
0.09293941 -0.1758675 -0.15866868 -0.039457045 1.0627458 -1.593473 -0.18917349 -0.47302762
0.89617556 -0.6233959 0.3270939 -0.34397736 -1.228697 0.84361994 0.31574744 -0.19851094
-0.3528377 -0.27751163 0.09366544 0.34994066 -0.91500324 0.33285308 0.15506561 -0.8460176
-0.1932201 -0.82357174 -0.027060084 -1.8675376 -0.7869214 -0.14559026 -0.15827937 0.39648825
-0.96849954 0.27258635 -0.037224516 -0.7264238 0.08010366 0.43628335 0.7356423 0.42327404
-1.4262487 0.34802356 0.30054408 -0.20378637 -1.2516769 -0.0630656 -0.12520002 -1.233211
-0.28471905 0.8895747 -0.325777 -1.1467894 -0.08616851 -0.14739347 -0.413944 -0.64636517
-0.79359126 -1.3865373 -0.13730806 0.7695511 0.5481737 0.43714452 0.8160359 -0.36722594
-0.24843775 -0.04268204 -0.055155605 0.003776959 -0.06387985 -0.0376322 -0.17161514 -0.062956765
0.042977005 -0.21295124 -0.19809544 -0.18546203 -0.19773492 0.23071685 0.070724554 -0.24997284
0.16267592 -0.2188905 -0.24899703 0.10067652 0.76991296 0.51528335 0.23010442 0.28544697
0.37900466 0.14005421 -0.018863244 0.5762268 1.1836443 -1.0359572 0.7327493 0.5933645
0.50877243 0.03989197 -0.26814836 -0.0703771 -2.3031762 -0.37220493 -0.09497512 -0.16124177
-0.20239854 0.03395422 0.105586626 -0.15645716 0.02734992 -0.2656893 -0.058690526 0.03305891
0.010927677 0.05779481 0.10848266 -0.083444014 0.040198993 0.11152211 -0.23693815 -0.070337445
-0.13554017 -0.20517625 -0.1550553 -0.1844153 0.87527484 -0.71508783 -0.395751 -0.8226223
0.0069505707 0.13336816 -0.10552701 0.05617017 0.4807726 -0.2595895 0.29648724 -0.035379168
1.0453314 0.2887936 0.4810148 -0.0032944037 -0.8964319 0.45509794 -0.11768931 -0.38747296
0.54937536 0.021432977 -0.17813718 1.5330145 1.200736 -0.07319833 -0.12083218 -0.12681873
1.1338305 -0.37895647 0.92145616 0.20947199 1.1231173 0.5788511 -0.8013627 0.15831427
-0.99760586 -0.22723167 -0.30836317 -0.8451015 0.99282295 0.32986116 0.69572437 -1.0761508
-0.57482094 0.14902134 0.60655373 0.34232414 2.0809286 -0.7724251 -0.8068692 -0.26299518
0.13326614 -0.056903318 0.6859712 -0.94825625 0.31245667 0.3032865 -0.87662977 0.62145394
-0.44175363 -0.6777571 -0.5436648 -0.08623298 -1.1721503 -0.08199448 -0.0599969 -0.47587442
-0.6540734 1.2347288 -0.11738769 -0.7981161 0.2636793 0.03406436 0.030305086 0.5854249
-0.10121841 -0.006126649 0.64198786 0.14698872 0.34683937 0.08700423 -0.6487886 0.19105247
-0.39364955 -0.23598742 0.01885946 -0.3701678 0.24861291 -0.26311585 0.71008 0.113848366
-0.71948606 -0.65339816 -0.47812235 0.8228813 -0.473919 -0.34087583 0.7674055 -0.531954
-0.79713947 0.2827619 -1.8677545 -1.1583575 0.015057578 0.51863563 -0.034329083 -0.47055086
-0.0086181 0.1297193 -0.7741558 -0.6185023 -0.06082343 1.8789316 -0.6701851 0.5743847

model.3.bias f4 [20]
00000000: c2d6 5fbe dfff 133f 9446 513e c2db 743f
00000010: bb45 d83c d238 cbbe 386a 60be e8f2 ffbd
00000020: 6db9 76be ead0 913e 354e 393f d202 293e
00000030: f02f 2e3f 9879 7d3e 46d1 95be 36d9 06bf
00000040: a8b5 fe3e 8932 7fbe fb39 99be 7c7e 8d3e
-0.21859267 0.57812303 0.2043708 0.95647824 0.026400438 -0.39691788 -0.21915519 -0.124975026
-0.24094172 0.284797 0.7238496 0.16504982 0.68041897 0.24753416 -0.29261225 -0.5267519
0.49747968 -0.24921621 -0.29927048 0.27635562

model.6.weight f4 [20, 20]
00000000: 921f 59be db4f 163f 85a2 1fbf a65f d3be
00000010: 6c95 413d 5366 dd3e 60ce 8dbb 978c d8bb
00000020: ac7e 103f 8718 023f e876 21bd fc0d 1b3e
00000030: c43d 9f3e bcaa 39bf 7261 43bd 09c9 a43e
00000040: 5238 293f 60cb 543f c30f 3f3d e173 67be
00000050: c6e0 073e 63be 2cbf cbc3 a53f 20f0 333e
00000060: 6e4c 393e cd1f 86bf da46 0bbe ab01 7bbe
00000070: 4caf 0f3e e4de 6a3e b633 733e 90b9 51be
00000080: 117a ef3e 997e 073f f8fa 56be adcc 9bbf
00000090: 2821 91bf 0a1b 01bf 6541 b33e 48b4 9c3e
000000a0: 92b8 cebd 0b80 393e c927 e5bd 3f2d efbe
000000b0: 905c 303e fa30 363e 299a 683d 5623 09bf
000000c0: 4303 57bf 31ac 74bf 03f5 2e3e 609f ca3e
000000d0: 96e6 bebd b70d ea3e bba4 51be 3284 cd3d
000000e0: 5c65 973e 78d5 83be 4472 63be 02d3 543f
000000f0: 34d6 f23d 1f69 aabe 9c71 d73e b449 f63d
00000100: e0ca ccbb 1619 a7bd 3036 1fbe 31a7 c8be
00000110: ca44 333d d49f efbd ce3b 1a3f 3467 583f
00000120: 2750 ddbd a467 e0be b744 3d3e 39f8 d83e
00000130: 383e 97be 1bd6 20bf 742d 353e ce9a 383e
00000140: 231b 49be 1f9c bebd 042f c1bf 32c8 a5c0
00000150: 4a5e 03be 5f82 9d3e 9f36 60be d6c6 cfbc
00000160: 5489 e6be 1c75 53be dfdb 5ebf 08ba 893d
00000170: dbcf 24bf b8e9 a5bd 56a9 30be aba9 0ebe
00000180: 93d3 40be 1cc3 fa3d aff9 cebd b023 3d3f
00000190: fed5 d1bd 9db3 1c3e becd 2dbe d378 4ebe
000001a0: 08f8 7ebe cc88 96be 3011 9f3c 39ec 6c3d
000001b0: 728f afbe 945c b3bb e36d c4bd 14a1 cd3d
000001c0: 48fe de3d 7d6b 6abe 098b 203d 6d57 71be
000001d0: 4dea b4bc 815a 81be baec 5a3e 3ece 11bd
000001e0: 8046 173e d48c d03d 6f5f 753f c8a2 62bd
000001f0: 44bf 9a3e 4af1 5c3e 0b7f bf3d 8d55 01bd
00000200: 7b34 8abf ec9f bb3e 71a1 03bd d9ad d53c
00000210: 694e 9abd 9fd6 e73e f4ca 01bd 203b 6ebc
00000220: fa4d 69bf 060d 7d3f e1ec 4c3e e718 073f
00000230: 00a4 cc3d fb3b 24bd 09d5 c03e 099a 413e
00000240: 842c 7abd ff76 22bd 9441 a03d e299 4bbf
00000250: f63d 663e f20a 89bf c22f b73e 3665 4cbf
00000260: fb11 8f3f 0ff1 033f dfce 4abe ac86 c1bf
00000270: 264f 06bf 94a4 133d 35c4 b3bd e827 0c3f
00000280: ef99 c5bc 9c9c 04be ad7f 813c 9bcb a23c
00000290: 0e0c 01be 87fe ea3d 9382 92be e27b 5abe
000002a0: 96d3 37bf 60b6 053f 1f7d 06bf e49d f4bc
000002b0: 4877 41c0 9872 3a3f 0846 843d 2aa9 abbf
000002c0: 6bd7 87be bd79 3fbf 9932 9a3e 5e1c 483f
000002d0: 73d1 64be 003b 1ebe 895a 963d 32f0 5fbd
000002e0: 48a3 4b3d a802 52be c202 5e3e 8936 3abb
000002f0: 105e 9d3d 27bb 91bc 1625 68be ca72 9dbd
00000300: 869b 2d3e f76b c63b 56c9 243e b2e6 2fbe
00000310: eeb5 253d 75e7 0fbe f885 763d 55a7 48be
00000320: fcc4 ee3d d94a 2a3f c0c7 1abf 7666 78bd
00000330: 9413 17be 92a8 a0be 1fd9 c23c af60 2d3e
00000340: c303 833f 3433 393f 726c b0bf 78df 65bf
00000350: 552e 42c0 7a36 e93d b0d7 2c3e 72f8 7ebf
00000360: 1161 383f 4415 043e b69b f1bd 148c 4dbf
00000370: e305 1b3e 7e3c 003d 59ec 9d3e fb8b 133d
00000380: b046 d23c bf07 3b3f ea4c 6e3c 6efd c1bd
00000390: a880 9c3e eb78 773f f22a 98be d1d5 dfbd
000003a0: d444 e03e fc1f 823e 02d7 c73d f5e5 ddbe
000003b0: dcea ad3d 4e7a 29bf 2bac 67be 3bde adbf
000003c0: de5b ddbc f377 bdbf 11d2 f23e b749 57bd
000003d0: 90f0 33bd eaff 003e 04aa b63d f0ff da3c
000003e0: 7ae7 7abf edb9 2e3f 8a4e 69bd 6fce 3e3c
000003f0: 6478 6a3e 5a65 ebbe c22b 743e f4d0 35bf
-0.2120345 0.587156 -0.6235736 -0.4128391 0.04726164 0.4324213 -0.0043275803 -0.0066085565
0.56443286 0.50818676 -0.03942004 0.15142053 0.3110181 -0.72526145 -0.047700353 0.32184628
0.6610156 0.83122826 0.04664589 -0.22602798 0.13269338 -0.6747801 1.2950376 0.17572069
0.18095562 -1.0478455 -0.13601246 -0.24512355 0.14031714 0.22936589 0.23750195 -0.20480943
0.46772817 0.5292755 -0.20994174 -1.2171837 -1.1338243 -0.50431883 0.3501083 0.30606294
-0.10093798 0.18115251 -0.11189229 -0.46714208 0.1722281 0.1779212 0.056787644 -0.53569543
-0.8398935 -0.95575243 0.17085652 0.39574718 -0.093213245 0.4571359 -0.20472996 0.1003498
0.2956952 -0.257488 -0.22211558 0.8313447 0.11857262 -0.33283326 0.42078865 0.120257765
-0.0062497705 -0.08159082 -0.15548015 -0.39190057 0.043766774 -0.11700407 0.60247505 0.84532475
-0.108063035 -0.43829072 0.18483244 0.4237688 -0.29539657 -0.628267 0.1769312 0.18027803
-0.19639258 -0.093071215 -1.5092473 -5.180688 -0.12828937 0.30763528 -0.21895836 -0.025363367
-0.45026648 -0.20650142 -0.87054247 0.06724936 -0.6437966 -0.08101219 -0.17252097 -0.1393191
-0.18830709 0.122442454 -0.10106217 0.7388258 -0.10245894 0.15302892 -0.16973016 -0.20163278
-0.24899304 -0.29401243 0.019417375 0.057842467 -0.34289128 -0.0054736827 -0.09591272 0.10040489
0.10888344 -0.22892566 0.039195094 -0.23568507 -0.02208438 -0.25264362 0.21379367 -0.03559708
0.14772987 0.10183111 0.95848745 -0.05533102 0.3022405 0.2157642 0.093504034 -0.03157573
-1.0797266 0.36645448 -0.032136384 0.026083874 -0.07534487 0.4528093 -0.03168769 -0.014540464
-0.9113461 0.98848 0.20012237 0.5277237 0.09992218 -0.040096264 0.37662533 0.18906416
-0.06107761 -0.039664265 0.07825008 -0.7953168 0.22484574 -1.0706465 0.35778624 -0.79841936
1.1177362 0.515397 -0.19805478 -1.5119224 -0.5246452 0.036045626 -0.08777658 0.5474839
-0.024121253 -0.12950367 0.01580795 0.019872477 -0.12602255 0.114743285 -0.28615245 -0.2133632
-0.7180723 0.5223141 -0.5253467 -0.029860444 -3.0229053 0.72831106 0.0645867 -1.3411
-0.26531538 -0.7479513 0.30116728 0.78168285 -0.22345524 -0.15452194 0.07341487 -0.054672427
0.049716264 -0.20508826 0.2168074 -0.0028413853 0.076839566 -0.017789437 -0.22670397 -0.0768791
0.16953859 0.006055351 0.16092429 -0.17177847 0.040456705 -0.14053138 0.060186356 -0.19595082
0.116586655 0.6652046 -0.60461044 -0.06064459 -0.14753562 -0.3137861 0.023785172 0.16931413
1.0235523 0.72343755 -1.3783095 -0.8979411 -3.034078 0.11387344 0.16879153 -0.9959785
0.7202311 0.12898737 -0.11797278 -0.8029187 0.15138964 0.03130769 0.3084438 0.036022168
0.025668472 0.73058695 0.014544705 -0.09472166 0.30566907 0.9666888 -0.29720265 -0.10929454
0.43802512 0.25415027 0.09757806 -0.43339506 0.084920615 -0.6620225 -0.2262427 -1.3583444
-0.027021345 -1.4802231 0.47425893 -0.052560534 -0.04393059 0.12597623 0.08919147 0.026733369
-0.98009455 0.6825245 -0.056959666 0.011645897 0.22897488 -0.45975763 0.23844817 -0.7102196

model.6.bias f4 [20]
00000000: 8bdf 003d 83f8 643e abf6 483f 1466 b3be
00000010: 4703 12be 741a 88be 163a 2cbf f948 49bd
00000020: b53e 8a3e e241 e7bd e5d0 083f 02bd 85bd
00000030: 0d8c df3e fa66 803e 4c5b 5a3c c732 0e3f
00000040: e52e 393d d21c 69be aa7c 0c3f 8c4f fa3d
0.031463187 0.22360425 0.78501385 -0.35038817 -0.14259063 -0.26582682 -0.6727613 -0.049141858
0.27000967 -0.11291863 0.5344375 -0.06530191 0.43661538 0.25078565 0.013327431 0.5554623
0.045210738 -0.227649 0.5487772 0.122222036

model.9.weight f4 [20, 20]
00000000: 9d12 efbd deb5 74bc c434 543e 5a27 9dbf
00000010: 86bd 1f40 5d8a 5f3e 7932 a43d ff36 57bf
00000020: 73d3 08be 9186 91bd b236 333f 276b 3cbf
00000030: 6a0b b73e ef9f d1bf 8744 43bf 9cc0 1abe
00000040: b589 aebe 6d14 7cbe 4343 32c0 fdea 18bf
00000050: 7d82 dcbe e5fb 2fbe 4979 c8be 9115 97be
00000060: a2d5 75be bda5 aabd 701a 7dbe 4096 b0be
00000070: c410 78be 747b 5d3e f618 37be 9c3b 89be
00000080: 7094 85be 5a53 e7be 446a 06be 89a2 d3be
00000090: ba85 a8bd 04cb 0bbd 5ed6 07bf 5b6d 77bd
000000a0: 898a 2ebf 3ef9 133e 46d5 e7be 4d06 2abf
000000b0: 8961 dfbe 7614 733e 2384 013e b087 303e
000000c0: 4477 e13e dde9 013e 4f34 f6bf 3701 83be
000000d0: 7f07 86be d817 a73e d64e 84c0 12d3 453f
000000e0: 5d62 88bf 8635 e8bd 0900 a33e 596f 0e3f
000000f0: 030b c5bd 7f71 9f3e 9c71 ed3e b526 45bf
00000100: e78b d0bf ab96 8dbd f203 cd3d 60de 32be
00000110: e0ea 12bf 968f 1dbe 6718 f5be 0c40 27be
00000120: 6a5b 4fbd 03c6 d03e 0c94 b0bf 31e0 b7be
00000130: 3fb1 61be a90a 083d b126 86be 0c83 6bbe
00000140: 215d a33e ca10 d1bf 7ccc 953e bde6 39bd
00000150: 085f 12bf 7207 76bd 8209 4cbf cada aabd
00000160: e924 6bbe 91e7 4f3d 56bc a0bf 1003 05bf
00000170: 4023 a13e 4292 21bd 3fda 0c3f a1cb a4bf
00000180: ffa1 e03e be46 2c3e 5cfc 80bf e9fd 59be
00000190: 1454 8abd 1f57 023f 50fe 72be cc91 013f
000001a0: e497 903f 0ef2 ad3c c099 c8be 533e 2e3e
000001b0: e9e7 54bc 87fc ee3b a3ad dc3e 580d 32bf
000001c0: edce 79bf 457f ad3e 0c31 b33e 010d c43e
000001d0: decb 5f3d 8feb cbbc ce5e b9bd 0639 67be
000001e0: c85a 9cbf d4f5 f63e a6ad a9bf 9b6f 953e
000001f0: fba4 cabd fcd3 d5bc 28ee aa3c 0f03 763d
00000200: 28db 9cbf 1cf0 633e d8e6 45bf 6d03 f43e
00000210: a560 2fbf 6102 153f 245f 173f 41fe 443b
00000220: f983 edbe e4e7 e6bc 7170 cc3e 39a9 aabf
00000230: 90c9 d93e 7c3f 2f3e 77da 293f ad89 6cbf
00000240: 113d 00bf 3ab1 12bb 135c 9bbd 1da4 583e
00000250: ab4d f8bd 7590 23be 0340 0cbf 5fde aabe
00000260: d7b6 e63e bfd7 9a3e 9953 d5be 18b6 81bb
00000270: 8a2f d8be a9ff 3abc bd83 2dbd a10c f4be
00000280: 637b 00bf 7bce b5bf e6fb ddbe ffef 013f
00000290: 0a4e c5bf f8e0 513e f882 8fbd adc2 bfbe
000002a0: 6c2f 8c3f 0117 c33c b5fb e5be 7185 8d3e
000002b0: 3fc4 c6bd bf8b 77be 3f1b 19c0 2072 073f
000002c0: 9328 38be 9c6e a8bc 754e 2d3f fc9a 82bc
000002d0: ce45 aebd 33ba 7bbf c339 093f b2bd ce3e
000002e0: 659e 413f f506 2c3c 9c6c d43d b1eb 01bf
000002f0: c499 97bd 7c43 71bd 0455 6f3f fe65 29bd
00000300: 4673 05bf 2bba 233d df12 61bf 6a06 89bf
00000310: a53c 373e bbd7 153d c038 103f 3361 6b3f
00000320: 4433 ce3e 41d3 54bf f92d 013e 0bcc a3bb
00000330: b00b 29c0 df29 56be ce00 87bf 7820 de3e
00000340: 4db6 163f 7ce7 1b3e cf50 a2be 9414 b9bc
00000350: 7dff 283e a10c b63b 96e1 9ebe 1b42 e2be
00000360: de51 12be f71f 5f3e 8300 173f 5f65 363d
00000370: 299a 0abf f02d 4f3f 84e5 6ebf 6ab9 9d3e
00000380: 3b70 653d f623 14be 89aa 62bb 610d babf
00000390: 1afd 92be df13 a3bc a64b 343f bc5e 223f
000003a0: 82e6 debe f382 7a3e 53c9 7bbe a8e4 bb3e
000003b0: 8d85 cbbe 2603 2abe 8b6a 46be c707 753e
000003c0: b987 80bf 1c98 8ebe c9b0 023f 4007 81bc
000003d0: 5ed5 b23e d7d0 163e e0a4 f03e 8c1c a3be
000003e0: 7d32 1f3f 0328 65be 870d 91bf 1cfc 81be
000003f0: 1b75 833e e262 2e3c ffe6 64bf 8c0a b73d
-0.11673472 -0.014935939 0.20723253 -1.2277634 2.4959426 0.21830125 0.080174394 -0.8406829
-0.13361911 -0.07105745 0.70005333 -0.73601 0.35750896 -1.6376933 -0.7627644 -0.15112537
-0.34089437 -0.24617167 -2.7853553 -0.59733564 -0.43068305 -0.17185934 -0.39155033 -0.2950864
-0.24007276 -0.08332393 -0.24717116 -0.34489632 -0.24225146 0.21629125 -0.17880616 -0.2680329
-0.2608981 -0.4518078 -0.13126475 -0.41334942 -0.08228631 -0.034129158 -0.53061473 -0.060407024
-0.6818014 0.14450547 -0.45279902 -0.66415864 -0.436291 0.23738274 0.12648062 0.1723926
0.44036305 0.12686868 -1.9234713 -0.25586864 -0.26177594 0.3263538 -4.1346235 0.7727519
-1.0655018 -0.11338334 0.31835964 0.55638653 -0.09621241 0.31141278 0.4637574 -0.7701219
-1.6292695 -0.06913503 0.10010518 -0.17467642 -0.5738964 -0.15386805 -0.4787018 -0.16333026
-0.05062429 0.4077607 -1.379518 -0.35913232 -0.2204027 0.03321329 -0.26201394 -0.22999209
0.3190699 -1.6333249 0.29257572 -0.045386065 -0.57176256 -0.060065694 -0.7970201 -0.08342512
-0.22963299 0.05075795 -1.2557476 -0.519578 0.31472206 -0.039446123 0.5502052 -1.2874643
0.43873593 0.16823861 -1.0077014 -0.21288265 -0.06754318 0.50914186 -0.23729825 0.50613093
1.1296353 0.021233585 -0.39179802 0.17015962 -0.012994745 0.007293287 0.43101224 -0.6955161
-0.9758137 0.3388616 0.34998357 0.3829117 0.054637782 -0.024892597 -0.09051286 -0.22580346
-1.2215204 0.48234427 -1.3256118 0.2918671 -0.09894749 -0.026102059 0.020865515 0.06006151
-1.2254381 0.22259563 -0.77305365 0.47658864 -0.6850684 0.58206755 0.5912955 0.0030058774
-0.4638975 -0.028186746 0.39929536 -1.3332893 0.42536592 0.17114061 0.66348976 -0.92397577
-0.5009318 -0.0022383467 -0.07585921 0.21156354 -0.12124189 -0.15973075 -0.54785174 -0.3337278
0.4506137 0.30242726 -0.41665342 -0.003958475 -0.4222377 -0.011413493 -0.042361964 -0.47665885
-0.50188273 -1.4203638 -0.43356246 0.5075683 -1.5414441 0.20495975 -0.07007402 -0.37453213
1.0951972 0.02381468 -0.449186 0.2764087 -0.097054 -0.24174403 -2.392288 0.52908516
-0.17984228 -0.020560555 0.6769784 -0.015943043 -0.08509408 -0.9833099 0.5360376 0.403791
0.75632316 0.010499706 0.10372278 -0.5075026 -0.07402375 -0.05890225 0.934891 -0.041357033
-0.5212902 0.039972465 -0.8791942 -1.0705082 0.17894228 0.03658269 0.56336594 0.9194519
0.40273488 -0.8313485 0.12615193 -0.004998689 -2.6413383 -0.2091441 -1.054712 0.43384147
0.5887192 0.15225023 -0.31702277 -0.02259282 0.16503711 0.0055557047 -0.31031483 -0.4419106
-0.14289042 0.21789537 0.58985156 0.04453027 -0.5414148 0.8092947 -0.93318963 0.30805522
0.056015234 -0.14466843 -0.003458651 -1.4535333 -0.28708726 -0.019906936 0.7042793 0.63425803
-0.43535239 0.24464016 -0.24588518 0.36697888 -0.3975033 -0.16602764 -0.1937658 0.23928748
-1.0041419 -0.27850425 0.51051 -0.015750527 0.3492841 0.14728104 0.4700079 -0.31857717
0.62186414 -0.22378545 -1.1332253 -0.25387657 0.25675282 0.010643693 -0.8941497 0.089375585

model.9.bias f4 [20]
00000000: 09f2 cabe f88c c1be 5878 0a3f 1f2a 9d3f
00000010: b679 6d3f 96cc 91bf 7d9d 61bd 6f79 5c3f
00000020: eb87 273d 560e a7bd 86dc d33e 312d 10be
00000030: 8dfc f43e 669e e63e b10e 3cbe 44e6 363c
00000040: 18a5 8e3e af5e 703f 3410 80be 7ebf 4e3d
-0.39637783 -0.37802863 0.5408988 1.2278479 0.9276384 -1.139056 -0.055081833 0.8612279
0.040901106 -0.08157031 0.41379184 -0.14079739 0.4784893 0.45042723 -0.1836498 0.011163298
0.27860332 0.93894476 -0.25012362 0.05047559

model.12.weight f4 [4, 20]
00000000: 230b ee3b ccfd b53e 1429 a03e 1bd3 00bf
00000010: 28d2 7c3d 4c5b b43e df37 0cbe eff2 17bf
00000020: b115 5c3e 4ef8 4f3d 6fcd 663e be90 33bd
00000030: 3bf3 94be 0261 c73f bd48 a43e c218 e53b
00000040: 8257 0bbe 8167 7abe 3703 523e f6af f33e
00000050: 3ceb 9a3f d056 94be d575 113d dc52 3bbf
00000060: 96e2 2bbc abef fcbd afdc 633e d5d0 983e
00000070: 518c 9f3e 86d9 8dbd cccc 31be 0fa9 233e
00000080: d57f 4bbb abf6 ebbe bf9f 7ebd 15c6 bb3d
00000090: 69fc 9ebd 7e4d 0dbe 4bfe 893f d879 3abe
000000a0: 0979 b13e 1c08 bc3e ff03 4dbf f16c 023e
000000b0: 7fd0 ec3e 5deb 913e 4454 48bf 1fcc ecbe
000000c0: a7a3 33be f11e 0dbe a7bb 823e b280 de3d
000000d0: 4b91 4b3e 7e64 773f 57cd debe 21c7 9a39
000000e0: 15df f6bd 3fec 973f 0fde 63bc ec46 44be
000000f0: 1d48 97bf cad3 6ebe afec 09bf 1870 8cbe
00000100: 0fe0 39bf cf37 e9bb ae5f 9f3e 74c6 b73d
00000110: b02e fa3d 1f7a 4e3f 74dc 263f 6f40 2bbf
00000120: 75ad 39bf 528d 743e dd5a 70be 0268 0bbe
00000130: 7144 fabe b739 973e 29d3 a13e f997 f13b
0.007264511 0.35545194 0.3128134 -0.5032212 0.061723858 0.35225904 -0.13693188 -0.5935506
0.2149265 0.05077391 0.22539304 -0.04383921 -0.2909182 1.557648 0.32086745 0.0069914768
-0.136076 -0.24453546 0.20509039 0.47595185 1.2103038 -0.28972483 0.035512764 -0.7317331
-0.010491034 -0.123504005 0.22252153 0.29846826 0.3116174 -0.06926255 -0.1736328 0.1598246
-0.0031051536 -0.4608663 -0.062164064 0.091686405 -0.07762987 -0.13799092 1.0780729 -0.18210542
0.34662655 0.36724937 -0.8008422 0.1273687 0.4625282 0.2849988 -0.7825358 -0.46249482
-0.17542897 -0.13781334 0.25533792 0.108643904 0.19879644 0.96637714 -0.43516037 0.00029521532
-0.12054268 1.1868972 -0.013907923 -0.1916768 -1.1818882 -0.23322979 -0.53876776 -0.2742927
-0.7260751 -0.0071172486 0.31127685 0.08973399 0.12215936 0.8065509 0.65180135 -0.6689519
-0.725303 0.23882034 -0.23472162 -0.13613895 -0.48880342 0.2953622 0.31606415 0.007372853

model.12.bias f4 [4]
00000000: 9761 833d af96 1e3e faac 26bd a86e 873e
0.06415098 0.15487169 -0.040692307 0.26451612
