model_summon/Interpolator/Modal_Uz.pth (torch, 9171 bytes, 10 tensors)

model.0.weight f4 [20, 3]
000000 67 13 85 3e 7d 17 f7 bd 13 c4 59 bf b4 a2 4c 3f
       0.25991365 -0.12065027 -0.8506481 0.79935765
000010 78 a4 33 3d d1 47 13 3d 41 f1 1d be 04 0a b6 3e
       0.04385802 0.03595716 -0.15424062 0.35554516
000020 08 a2 5e bf 85 ad 96 be b5 a6 8e bf 4a 1d 91 bd
       -0.8696599 -0.2942926 -1.1144625 -0.070856646
000030 04 e9 96 3d f6 3a af 3f 45 df f4 be 11 13 3f 3e
       0.07368663 1.3689868 -0.4782659 0.18659617
000040 c4 15 87 be c1 f9 94 3e 66 48 82 3e 74 13 78 3f
       -0.26383793 0.29096797 0.2544586 0.96904683
000050 92 34 5f bf 21 21 a8 bd 71 57 82 3f 08 e9 51 3e
       -0.8718959 -0.08209444 1.0182935 0.2049905
000060 af 75 f3 3d 6a bf 92 bf c0 21 35 3f 27 fa 27 bf
       0.11887681 -1.1464665 0.70754623 -0.6561608
000070 c4 04 0d 3e f9 f4 49 3f 7b 82 8c be bf 23 56 3f
       0.13771349 0.78889424 -0.274433 0.83648294
000080 67 06 54 bf 1c 55 71 bc 33 af 71 3f 01 0c 14 bf
       -0.8282227 -0.014729764 0.9440796 -0.57830817
000090 93 89 0c 3f 7f f0 c0 be 7d 02 f4 be 85 1d 08 3e
       0.5489742 -0.37683484 -0.47658148 0.13292511
0000a0 c2 cc cf bd 0c 6a dd bd 33 6d c3 be 79 90 c5 3e
       -0.10146476 -0.108112425 -0.3816925 0.38586786
0000b0 a1 6b 44 bf dc 1a c8 be 25 e6 a4 be e2 6f d0 3e
       -0.7672673 -0.39082992 -0.32206836 0.4071036
0000c0 c8 f4 a7 3e 07 e0 17 3f 35 c7 7c bf 28 86 32 bd
       0.3280394 0.59326214 -0.98741466 -0.043584973
0000d0 ab 67 80 3f 74 00 52 bf 2f 49 01 bf 8a cf 1b bf
       1.0031637 -0.8203194 -0.50502294 -0.60863554
0000e0 4e d4 c7 3e b1 69 ef bd 91 31 1f 3f 30 d4 1d 3f
       0.39029163 -0.11690081 0.6218501 0.616519

model.0.bias f4 [20]
000000 71 d2 86 bf 9a 19 0e bf 8a 55 05 bf e6 51 06 bf
       -1.0532972 -0.55507815 -0.5208365 -0.5246872
000010 25 b7 cc be e0 f8 e1 3d d0 67 ac 3d 79 40 f5 be
       -0.39983478 0.11033797 0.08418238 -0.4790075
000020 3b cc d5 be cf 17 14 bf 31 29 7b 3d 7b 8a 56 3e
       -0.41757378 -0.5784883 0.06131858 0.20951264
000030 bf 27 b0 bf 5c 44 4d bb 65 97 16 be 33 bd eb 3e
       -1.376213 -0.0031321263 -0.1470619 0.46042785
000040 58 13 4d bf ef 96 a3 3e c6 e4 06 3f e2 83 31 bf
       -0.8010764 0.3195109 0.5269283 -0.6934186

model.3.weight f4 [20, 20]
000000 08 12 e3 3d 6e 8e 65 3c ae 30 3e be d1 d3 50 be
       0.110874236 0.014011009 -0.18573257 -0.20393302
000010 e8 db 48 be 77 53 9a 3d 11 1e 41 be 2d f8 22 3e
       -0.19615138 0.07535451 -0.18859126 0.15914984
000020 4e e3 20 be 23 4a 81 be 25 6c 56 be e5 f3 02 bd
       -0.1571171 -0.25251874 -0.20939691 -0.031970877
000030 a0 2a 6f 3d 3e ff 6b 3a 02 ec 17 be a8 62 29 bc
       0.05839026 0.00090025726 -0.14836124 -0.010338463
000040 04 57 be 3d 71 0d 30 be 6a b5 16 be 52 fc 01 bd
       0.09293941 -0.17192627 -0.14717641 -0.031734772
000050 92 53 7d bf 53 d1 88 3e f4 4f 6e 3f 48 c9 02 3d
       -0.98955643 0.26722202 0.9309075 0.031930238
000060 93 88 e3 be ee a6 62 bd 93 1b 37 3f 14 79 8b bf
       -0.44440135 -0.055334978 0.7152645 -1.0896325
000070 2d b4 d1 bf af bc 53 3e 7b 99 96 3e e4 e4 01 3f
       -1.638311 0.20677446 0.2941397 0.50739884
000080 7b 7f 28 bf 67 aa ed be a7 52 01 3f 7f 94 8d be
       -0.6581952 -0.4641907 0.5051674 -0.27652356
000090 58 fc 4c 3d d0 47 2a 3f 18 64 96 bd 81 18 b2 be
       0.05004534 0.6651583 -0.0734331 -0.3478432
0000a0 ec 90 de be 00 ce 0d 3e 88 c7 37 bf 53 b0 56 bf
       -0.43469942 0.13848114 -0.71788836 -0.838628
0000b0 46 5e 60 bf 11 83 2c 3e d3 3b 30 bf fa 3b b2 bd
       -0.8764385 0.16846873 -0.68841285 -0.08702846
0000c0 c6 81 73 bd 70 c6 b9 be 0c 61 92 3e 5f 90 5e bf
       -0.059449933 -0.36284208 0.28589666 -0.8693904
0000d0 69 4e 9a be 87 47 65 3e 44 a5 2f 3e 7b 1a b3 3e
       -0.30137947 0.22390567 0.17152888 0.3498114
0000e0 f5 4d 4f be 8c 62 dc 3e de 72 bb 3e b9 6b ee be
       -0.20244582 0.43043935 0.36611074 -0.4656656
0000f0 d7 54 b9 be ca 59 32 be 62 b8 c5 be bb 32 2f bf
       -0.3619754 -0.17417064 -0.38617235 -0.68436784
000100 6c a2 08 3e 59 8e 8d 3e 50 05 07 3f 78 52 78 bf
       0.13343209 0.27647665 0.5274248 -0.9700084
000110 14 d5 c8 bf 0e 64 ee be 97 1a 94 bd ee c0 03 bf
       -1.5690026 -0.4656071 -0.07231634 -0.5146626
000120 d1 f1 5b bf 9b 0e 81 be b1 30 8b be a8 25 aa 3e
       -0.8591586 -0.25206456 -0.27185586 0.33231854
000130 23 16 53 be 25 df 14 3e f0 5e 20 3e 71 d3 2f be
       -0.20613913 0.14538248 0.15661216 -0.17170502
000140 69 cd 6d bf c1 7a 61 3e 65 7c a1 be 65 7d 85 bc
       -0.92891556 0.22019483 -0.31540218 -0.016295144
000150 75 4d 0b c0 5f d2 80 3e d2 78 69 be bc 5c da bc
       -2.1766026 0.251605 -0.22799996 -0.026655547
000160 43 65 a4 3a f2 81 69 bf 99 cd de be 95 ca ee 3e
       0.0012542385 -0.91213906 -0.43516234 0.46638933
000170 cf be 9a bf 76 7e 47 3f ba 46 d4 be b1 a9 02 bc
       -1.208948 0.7792734 -0.4146021 -0.007975028
000180 bb 7e 6c bf de 18 62 bd 22 5a 0f 3e 75 cf b0 be
       -0.92380875 -0.055199496 0.13999227 -0.34533277
000190 da e7 67 3f b2 c2 df be 00 e9 7d 3f 47 40 d8 bd
       0.9058815 -0.43703228 0.99183655 -0.10559135
0001a0 c4 b8 02 bf 65 9e 11 be 77 f4 95 3e b8 cc b4 3e
       -0.5106318 -0.14220579 0.29288074 0.35312438
0001b0 08 ac 74 3f 9f c5 68 3f ce 29 dc 3e 13 f0 31 3e
       0.95575 0.90926546 0.43000644 0.17376737
0001c0 66 ef 83 3f 5b eb fd 3c 8a 4d bb 3e 53 cb 87 bf
       1.0307434 0.030996015 0.36582595 -1.0608925
0001d0 a6 94 95 3f 32 02 17 3e 37 6d 05 bf 16 88 00 3f
       1.1685989 0.14746931 -0.52119774 0.5020765
0001e0 86 cf 22 be 1e 9e a2 3d 75 39 16 3e 6e 17 ed bd
       -0.15899476 0.07940315 0.14670356 -0.115767345
0001f0 16 af 83 3b ff 8f 64 be 18 1d 6c bc c8 68 07 3d
       0.0040186746 -0.22320555 -0.014411233 0.03305891
000200 00 0a 33 3c 40 ba 6c 3d 28 2c de 3d 4a 41 f3 bd
       0.010927677 0.05779481 0.10848266 -0.11877687
000210 c8 81 ae 3d 54 6c 1c 3e b4 eb 65 be 14 0d 90 bd
       0.085208476 0.15275699 -0.22453195 -0.070337445
000220 ab 95 b7 bd 27 04 27 be cd 1f d4 bd c1 14 08 be
       -0.08964094 -0.16310178 -0.10357628 -0.13289167
000230 83 b8 54 3d 4a b8 e7 3e 31 fc a8 3c 85 9b a4 be
       0.051933777 0.4525779 0.020628067 -0.32149902
000240 b5 84 32 bf 18 36 45 be 07 b3 22 3f d2 29 e6 3b
       -0.69733745 -0.19258916 0.63554424 0.0070240283
000250 a0 78 e9 bf 3c b8 6e 3e 26 a9 01 be ab d5 c7 be
       -1.8239937 0.23312467 -0.12662181 -0.39030203
000260 c6 59 dc bd 1e 1b 90 be 5b a2 36 bd 0f f2 85 3e
       -0.107593104 -0.2814569 -0.044588428 0.2616124
000270 31 18 37 3f 79 e0 5c 3e 82 4c 98 3d b7 92 9b 3e
       0.7152129 0.21570005 0.07436468 0.30385372
000280 8b 50 35 3f 18 a3 f5 be 2e 01 86 bf d7 86 49 3f
       0.70826024 -0.47975993 -1.046911 0.78721374
000290 ab 24 93 3f e1 08 7e 3d 3a 62 d1 3d 76 2e 19 3e
       1.1495565 0.062020186 0.10223813 0.1495913
0002a0 c6 3c 46 be c5 e4 96 3e 58 4e 4a 3f ba ea 9e be
       -0.1935912 0.29471412 0.79025793 -0.31038457
0002b0 ef 43 ad 3f b2 c3 07 3f 28 1c b3 3e 6f 80 27 3d
       1.3536357 0.5303298 0.3498242 0.04089397
0002c0 58 6f 97 bf a4 91 da be 9c 0e eb be aa c6 91 3e
       -1.1830854 -0.4268924 -0.45909584 0.2847188
0002d0 c6 8d 82 3f c6 5f 11 be 35 93 e6 3f e9 ba cb bf
       1.0199516 -0.14196691 1.8013674 -1.5916415
0002e0 6b 0f de 3f 66 d9 2d 3d db 5b 18 3f 6e 9a dc 3e
       1.7348455 0.042443655 0.5951516 0.4308657
0002f0 fd a0 a4 bf 12 2d 54 3f ac df e3 3e 90 a9 1a be
       -1.286163 0.8288127 0.44506586 -0.15103745
000300 1f a5 ec bc 31 3b f5 3e 8a 0f 74 3f a8 c8 d3 be
       -0.02888733 0.47896722 0.9533621 -0.41364026
000310 97 50 9e 3f 0d fd cd bd ab 0a 81 bf 7a e2 21 3f
       1.2368344 -0.10058031 -1.0081381 0.632362
000320 e3 7c 54 bf 50 5a 17 bf 0c 54 3a bf 4f 45 c6 3e
       -0.8300306 -0.5912218 -0.72784495 0.38724753
000330 98 cb 29 bf 0c 30 1c bc 87 24 9b be 52 23 86 3d
       -0.66326284 -0.00953294 -0.30301306 0.065497056
000340 92 00 dd be 79 5a 28 be 53 e1 11 bf 77 8f 99 3e
       -0.43164498 -0.16440763 -0.5698444 0.29992267
000350 5e ba 82 c0 26 36 2a 3e 87 d5 96 bd 99 2c 42 be
       -4.08525 0.16622218 -0.07364946 -0.18962325
000360 42 07 2b c0 7b 09 13 be 83 e3 99 3e cb 96 13 be
       -2.672318 -0.14359085 0.3005639 -0.14412992
000370 56 60 0c 3f cc 16 eb be fb fe c8 3e a7 08 82 3f
       0.54834497 -0.4591583 0.39257035 1.015889
000380 d7 72 ac be c2 ee 09 be 55 b0 00 bf c6 61 6f bf
       -0.33681366 -0.13469985 -0.5026906 -0.93508565
000390 80 5c 1a 3f c0 3d a8 3d f6 10 07 bf 48 74 b2 3c
       0.60297394 0.08214903 -0.52760255 0.021783963
0003a0 6c 1f e8 3f 06 b4 7e 3d 8b c3 6c bd 76 87 4e 3e
       1.8134589 0.062183402 -0.05780367 0.20168862
0003b0 cd d6 42 3f 55 26 10 bf 95 7d d9 3e bf 59 90 be
       0.7610901 -0.5630849 0.42478624 -0.2819347
0003c0 51 de 2b 3f ca 8e 4e bd 03 af 37 be 26 36 ab 3e
       0.671361 -0.050429143 -0.17937855 0.3343975
0003d0 1a 05 1b 3f 51 1f 0c 3f 39 f7 cf be fb 50 bb 3e
       0.6055466 0.54735285 -0.40618303 0.3658522
0003e0 07 0d b8 3f f2 a1 96 3d 9d 5a 1f bf d2 cb aa 3c
       1.4378976 0.07355107 -0.6224764 0.020849142
0003f0 54 4b 1d 3e 8c c9 19 3d 19 63 f2 be 55 bc d0 bd
       0.15360767 0.037545726 -0.4734123 -0.101921715

model.3.bias f4 [20]
000000 2a 19 57 be 1f 42 0f bd a9 40 23 3f e4 cc 1b 3f
       -0.21005693 -0.034975167 0.6377054 0.60859513
000010 6e f5 0d 3f 3a ef e3 be 2b c8 40 be cc 50 e2 3e
       0.5545262 -0.44518453 -0.18826358 0.44202268
000020 4d 49 2d bc c1 e8 08 bf 04 7b 1e 3f 15 2d 34 bf
       -0.010576558 -0.53480154 0.61906457 -0.7038129
000030 77 3a 33 be b6 27 72 3e 0c e6 81 be 35 3d 85 3e
       -0.17502771 0.23647961 -0.25370824 0.2602326
000040 85 37 73 be 64 82 98 bd 0a 7a d3 be d7 7e 55 3f
       -0.23751648 -0.07446745 -0.41304046 0.8339667

model.6.weight f4 [20, 20]
000000 a0 26 4f be 50 dc c4 3e 8b 49 7a 3e 5d 44 7e be
       -0.20229578 0.38449335 0.24442117 -0.24830766
000010 0f 24 05 3d a3 44 65 3f 1a 99 92 bc 98 e2 9e 3e
       0.03250509 0.89557856 -0.01789527 0.31032252
000020 b1 6c 8c 3e 26 79 b7 3e 02 6c a1 bf d6 6d 92 3f
       0.27426675 0.35834616 -1.2611086 1.1439769
000030 d0 60 75 be be fa cc bf 88 86 04 3e 1f 14 80 bd
       -0.23962712 -1.601402 0.12941945 -0.06253838
000040 a5 39 92 be 53 10 85 3f ee aa e6 be b3 44 68 bd
       -0.28559604 1.0395607 -0.45052284 -0.05670614
000050 c6 e0 07 3e 44 9e b8 be 83 4a 4a 3f 3f 30 80 3e
       0.13269338 -0.36058247 0.79019946 0.2503681
000060 16 18 d4 ba 59 87 63 be da 46 0b be ac c8 bd bd
       -0.0016181495 -0.222196 -0.13601246 -0.09266791
000070 1b 62 44 3e d1 95 98 bf 89 c0 ec 3e af ac ea bd
       0.1917805 -1.192072 0.46240643 -0.11458718
000080 5c b9 39 bc 85 1f 4d 3f 7a ae 1c be 6d 6d 4e bf
       -0.011335697 0.8012622 -0.15300933 -0.8063572
000090 01 8e fc be 1f fa ce bf cf 85 96 3e 16 e3 17 bf
       -0.4932709 -1.6170081 0.29398963 -0.5933088
0000a0 95 18 fa bd 79 57 9f bf a1 c5 5b bf f4 6e 41 3e
       -0.1221172 -1.244857 -0.8584843 0.18889982
0000b0 cc 68 49 3f 20 4e b9 bc db be c7 bd a6 ca 05 bd
       0.7867553 -0.02262026 -0.097532 -0.032663964
0000c0 26 34 c6 3e e8 18 5a be 0d 80 95 3e 0e cb 1d 3e
       0.3871166 -0.21298563 0.29199257 0.1540949
0000d0 8a fb 4a be ac ed 86 3e 4d de 47 3d 37 1a 1f c0
       -0.19822517 0.26353204 0.048795987 -2.485975
0000e0 5d 01 92 be 69 b3 3f bd 78 dd c0 3e 90 f0 24 3e
       -0.28516665 -0.04680196 0.37668967 0.16107392
0000f0 34 d6 f2 3d 13 7a 57 bf 72 b6 f5 3e c0 af 9a 3e
       0.11857262 -0.84170645 0.47990757 0.30212212
000100 e9 12 e9 3e 18 99 81 bd 30 36 1f be 74 31 80 be
       0.4552224 -0.063280284 -0.15548015 -0.2503773
000110 e8 e5 e9 3e 8c c9 42 bf a3 ac b8 3d 95 1d e7 be
       0.45683217 -0.76088786 0.09017303 -0.45139757
000120 20 07 9f 3e db 56 21 3f 98 c5 08 3e a5 08 06 40
       0.31060123 0.63023156 0.13356626 2.0942776
000130 ff 80 d9 bb 7d 11 53 bf 7d 1d e0 bd f2 1e f5 3e
       -0.006637692 -0.8244856 -0.109431244 0.47875172
000140 23 1b 49 be ce f0 1d 3d 51 00 0d 3f 62 25 38 be
       -0.19639258 0.038559727 0.5507861 -0.1798301
000150 bd 66 bb be ba 0b c8 be 6e c7 9d be 49 f5 7e be
       -0.3660182 -0.39071447 -0.30816215 -0.24898256
000160 92 82 eb bd 1a 6c 3e 3c c6 de c1 3e 5f 08 7e bf
       -0.11499514 0.011622453 0.37865275 -0.99231523
000170 ed 55 38 bf e3 58 dc 3e a5 7a 1a be 51 b0 ef 3d
       -0.7200611 0.43036565 -0.15085848 0.117035516
000180 0e 81 12 39 5a e7 d0 bd af f9 ce bd 2c 16 38 3e
       0.00013971722 -0.10200377 -0.10106217 0.17977208
000190 49 e2 65 be dd 3b 37 be cb 51 e8 bd 03 c3 c9 3d
       -0.22449602 -0.1789393 -0.11343726 0.09851649
0001a0 b6 1d ac be 7f b3 45 3e 08 7a 13 3d fe 3d 24 3f
       -0.33616418 0.19306754 0.03600505 0.6415709
0001b0 fc 8f c8 be 25 70 f8 bd b7 a5 b4 be 54 99 85 bf
       -0.3917235 -0.12130765 -0.3528268 -1.0437417
0001c0 98 b6 b1 3e 98 0e d3 bf 6c 0a 5c 3d 1b 4f 4e 3f
       0.3470962 -1.6488829 0.053720877 0.80589455
0001d0 9a 46 91 3d 5a 0c 0b 3f 81 ef 00 3f 7b 61 85 3e
       0.07093544 0.5431572 0.50365454 0.26050934
0001e0 d3 01 49 3e b5 b6 5d bf 37 eb b0 3e 98 32 fd 3e
       0.19629602 -0.86606914 0.34554455 0.49452662
0001f0 60 bf c1 3e f7 41 c6 3e fe 9a e8 3d 59 70 0b 3f
       0.3784132 0.38722202 0.113576874 0.54468304
000200 bb 4f 86 bf 6f 04 13 c0 b9 86 25 3f c1 98 67 3d
       -1.0493082 -2.2971456 0.64658695 0.05654216
000210 53 cb 55 bc 65 6b 55 3f d1 e7 27 bd c1 4d a7 bf
       -0.013048965 0.83366996 -0.04099256 -1.3070604
000220 81 bc ad be 25 16 96 bf ee 2e 25 3e 8e 37 9e 3f
       -0.3393288 -1.1725508 0.16131184 1.2360704
000230 00 a4 cc 3d 9c 94 6c be f9 f6 1c bf d8 00 8f be
       0.09992218 -0.23103565 -0.6131435 -0.2793033
000240 3e e8 f2 be 9f ec ad be 94 41 a0 3d 55 30 e8 be
       -0.47442812 -0.3396959 0.07825008 -0.45349374
000250 11 0b 34 be 2f 90 93 be ea e8 94 be 99 53 d9 bd
       -0.17582346 -0.2882094 -0.2908395 -0.10611648
000260 06 60 e1 bd 2f 6d 67 be 38 22 8f bd cd 5e af be
       -0.11004643 -0.22600244 -0.069889486 -0.34252015
000270 9a 3d 11 bf 6a ee 5e bd b8 7b 18 3e 92 f1 15 bd
       -0.5673462 -0.054426588 0.14890945 -0.036607333
000280 22 de 10 be 39 79 e8 3e d8 8c b1 bf 35 ee 78 3f
       -0.14147237 0.45404986 -1.3871107 0.97238475
000290 99 98 ae bf e1 cb 10 be 9e 1e 23 be 2c 68 1c 3e
       -1.3640319 -0.14140274 -0.15929648 0.15274113
0002a0 ef 92 46 3e a8 aa 7e 3b 31 00 3b bf c1 d6 0d c0
       0.19391988 0.0038859043 -0.7304717 -2.2162325
0002b0 ad 54 7e 3d 99 68 1a bd 3d 35 bc 3d 30 18 88 3e
       0.062092472 -0.03769741 0.09189842 0.26580954
0002c0 d5 2d 9a 3e 7e e5 b7 bc 70 3d 04 3d 02 d2 18 3d
       0.30113092 -0.022448298 0.032285154 0.037309654
0002d0 73 d1 64 be 3b 8b 90 be 7d 2d c9 bd 5c a7 85 be
       -0.22345524 -0.28231224 -0.09823129 -0.26104248
0002e0 da c8 c2 bc 2f a1 24 3e c2 02 5e 3e 8c a0 9e be
       -0.023777414 0.16077112 0.2168074 -0.30981863
0002f0 58 41 81 bd 53 55 c3 bc ec d8 cd be 31 eb 46 be
       -0.063112915 -0.023844397 -0.4020456 -0.19425656
000300 54 12 c4 bc 62 31 46 bd 64 59 e1 3d f5 d7 8e be
       -0.02393452 -0.04838694 0.11003378 -0.27899137
000310 60 cc bf bd 27 e4 8a be f8 85 76 3d 5a 66 f5 be
       -0.09365153 -0.2712719 0.060186356 -0.4792965
000320 fc c4 ee 3d 40 93 0f 3d 00 e0 de 37 d6 fd 2b be
       0.116586655 0.035052538 2.656877e-05 -0.1679605
000330 94 13 17 be dc 5f 0b 3e e8 cc 73 bd f0 2b fb bd
       -0.14753562 0.13610786 -0.059521586 -0.1226424
000340 b8 40 0a 3d c2 7d 0a be e9 37 2c be 10 6e 5d bd
       0.033753127 -0.13524535 -0.16818203 -0.054060042
000350 44 54 21 bd f0 bd 3a 3d 38 2b 49 3d a0 c2 6d 3d
       -0.039387003 0.045591295 0.049113482 0.058046937
000360 60 b6 bd bd e1 d5 52 be 6a 66 13 3e c0 05 4b be
       -0.09263301 -0.20589401 0.14394537 -0.19826412
000370 9c 2d 00 3e f1 b9 5c bf 5e cc 67 3d 06 aa 21 3f
       0.12517399 -0.86221224 0.056591384 0.6315006
000380 15 4f 10 3f 6a 33 40 3e 19 13 0e be b1 f5 83 3d
       0.5637067 0.18769613 -0.13874473 0.06443346
000390 0c f6 13 3d f9 60 b2 bf 33 71 fc 3e 4e 23 07 c0
       0.03612332 -1.3935844 0.49305114 -2.1115298
0003a0 9a fa 4f bf 81 fe 44 3f 9e 2c ba 3d 86 1e 92 3e
       -0.8124176 0.7695084 0.09090541 0.28538913
0003b0 4b fe 1b bf aa c4 23 3f 0a da 8e be 0b 41 50 3f
       -0.60934895 0.6397196 -0.27900726 0.8134925
0003c0 32 5d 08 bd c3 a2 84 3e 1d 2f 00 bf b0 67 cc be
       -0.033292003 0.25905427 -0.5007189 -0.39922857
0003d0 17 8d 30 3f 07 c2 2a 3e 85 e3 d0 3d d8 94 46 3e
       0.68965286 0.16675578 0.10199646 0.19392717
0003e0 0c fa 88 3e 4d f6 83 be 27 65 20 3f 55 db d5 be
       0.2675327 -0.2577385 0.62654346 -0.417689
0003f0 ad 9c 72 bf 00 79 96 be 82 c3 0a 3e ab 98 91 be
       -0.9477032 -0.2938919 0.13551143 -0.2843679

model.6.bias f4 [20]
000000 d5 b4 8b be 70 e7 33 3e 0d 9a 38 3f 17 f4 08 3e
       -0.272864 0.17568755 0.7211006 0.13374363
000010 9d b3 33 3f f8 2d 41 3d 42 12 67 3c 94 f2 dd be
       0.70195943 0.04716298 0.014103474 -0.43349135
000020 42 02 d7 3e e2 c8 8d be 79 5c fb bd 40 df 86 3e
       0.4199391 -0.27692324 -0.12273497 0.263422
000030 99 ee 0e 3f 0f 10 56 3d e7 4a b2 be 7d 33 1b 3f
       0.5583282 0.05226141 -0.3482277 0.6062544
000040 98 d1 34 3e 25 f8 99 be fe 62 a0 3e 66 1f d0 3e
       0.17658079 -0.30072132 0.31325525 0.40648955

model.9.weight f4 [20, 20]
000000 1b de 2d be 85 1e 05 3f ad 10 76 3f ae 18 48 3e
       -0.16979258 0.51999694 0.96119195 0.19540665
000010 44 0c 39 ba 33 e1 eb 3e 81 68 81 bf 11 fa fd bd
       -0.00070590177 0.4607025 -1.0110017 -0.12401212
000020 30 12 e1 3e 1f 10 9f 3e 5a 5a 1d be 16 a7 80 bd
       0.43959188 0.31066987 -0.15366498 -0.06281869
000030 ff 6e a8 3e 7b da 87 bf 0a 78 41 be 3c 9e d0 3e
       0.32897183 -1.061355 -0.18893448 0.40745723
000040 b1 4f 22 3e 89 d8 99 be 9f 51 f4 3e 6f 4e 07 bf
       0.15850712 -0.30048016 0.47718522 -0.52854055
000050 d6 af f0 bd 30 05 44 be c3 86 dd be 5d d8 b2 be
       -0.11752288 -0.19142604 -0.43266878 -0.34930697
000060 d3 e1 e1 be b3 91 aa bd 49 48 64 be c8 ba 30 bd
       -0.44117603 -0.08328571 -0.222932 -0.04314688
000070 ef 60 e8 bc 74 7b 5d 3e 40 9b c7 3d 91 e4 5c bc
       -0.028366534 0.21629125 0.097464085 -0.013482229
000080 8b 15 76 be 21 a3 fb be 92 66 29 3e 09 af 03 be
       -0.24031655 -0.49147895 0.16543034 -0.1285974
000090 5d 8e 9d be 6a 6b b2 be 74 f0 68 be ef aa be bc
       -0.30772677 -0.34847575 -0.22747976 -0.023274867
0000a0 b8 fa be be 4f 6c c4 3e 0b 9f ce 3e 16 cf 0b 3e
       -0.37300658 0.38363883 0.40355715 0.13653216
0000b0 53 be de 3e 01 41 2c bf b2 23 cf 3e 89 a1 1e 3d
       0.4350458 -0.6728669 0.4045692 0.03872827
0000c0 01 70 85 be 86 f0 b3 bd e4 ab b9 bd ec a5 b6 bf
       -0.26062015 -0.087861106 -0.09065989 -1.4269385
0000d0 89 67 75 bd 4d 3f 27 be 81 ac 2e 3e e8 fc df 3e
       -0.059913192 -0.16332741 0.17057993 0.4374764
0000e0 ed 61 b8 be 31 91 5a bd 84 dd ba bf 08 c8 fd be
       -0.3601221 -0.05336112 -1.4598851 -0.49566674
0000f0 0a c0 d7 be bc 68 c2 3e 66 6b 22 bf fa 4b 0f 3e
       -0.42138702 0.3797053 -0.63445127 0.13993827
000100 4b 75 2a bf 01 e9 f8 3d 13 01 4f 3e d5 c1 cc bd
       -0.66585225 0.12153817 0.20215254 -0.09997908
000110 40 0a 10 bf 34 b6 ff bd ac 96 df 3d 80 f1 68 c0
       -0.5626564 -0.12485924 0.1091741 -3.63974
000120 e0 89 8c 3e 52 7b 5e be c2 d9 17 be 98 6c 80 3f
       0.2744894 -0.2172673 -0.14829162 1.003314
000130 d8 b0 ed 3d 0b d7 0a 3e f4 d8 78 bf f8 17 e2 be
       0.11605996 0.13558595 -0.97206044 -0.44158912
000140 fd 7a 10 bf 90 f1 2c be 9e c4 d6 3e bf 5d e8 be
       -0.56437665 -0.16889024 0.41946882 -0.45384023
000150 b3 a4 8d 3e ed 91 e3 3e ed 52 5a c0 56 c0 c6 be
       0.27664718 0.4444727 -3.4113114 -0.38818616
000160 b5 4d 18 3f 3f 75 75 bd a4 ee 19 3e 24 31 83 3a
       0.5949357 -0.059926268 0.1503244 0.0010009152
000170 49 da 34 3f 42 06 a3 3e e1 c6 fa bc 60 67 63 be
       0.70645577 0.31840712 -0.030612411 -0.22207403
000180 4f b2 18 be ec 56 0b bf bb 89 79 bf d0 14 65 be
       -0.1491177 -0.5442951 -0.97475785 -0.2237122
000190 6c fc 73 bd 41 df e1 3e 70 e0 1c 3e c9 41 5e bd
       -0.0595669 0.44115642 0.15319991 -0.054261956
0001a0 14 34 e8 bd 2c f1 b1 be 89 17 05 bf 9d 4f 32 be
       -0.11338058 -0.34754312 -0.51989037 -0.17413183
0001b0 9d d9 83 c0 3a 2b b5 bc 08 ea a6 3c 6a 99 3d 3f
       -4.120314 -0.022115339 0.020375267 0.74062216
0001c0 cd db 21 3f fe 7e b8 3e 45 9f ca 3e 2f a8 b8 be
       0.63226014 0.36034387 0.39574638 -0.36065814
0001d0 17 bd 36 bf c9 88 3d c0 b2 74 af 3e a5 ae 5f 3f
       -0.7138228 -2.9614737 0.3426872 0.8737586
0001e0 a5 48 b6 bf 96 2f 3b bf 4a 13 f7 3d b3 ea b3 bf
       -1.4240919 -0.73119485 0.12064226 -1.4056
0001f0 4e 70 8b 3e 36 54 a1 3e 95 56 4a bf 2f ee b7 3e
       0.2723412 0.3150956 -0.79038364 0.35923907
000200 2e 7e 92 bd 2a be f2 bc 40 b4 28 3d 52 14 f9 3e
       -0.07152973 -0.029631693 0.041187525 0.48648316
000210 f1 e3 8b 3d 07 63 24 bf ae f4 57 be 73 12 14 3f
       0.06830586 -0.64213604 -0.21089432 0.5784065
000220 01 07 80 c0 21 3c 19 bf d2 4a 15 3f 9c b1 01 3f
       -4.000855 -0.59857374 0.5831729 0.50661635
000230 d6 88 e9 bc 07 fb cd 3e c1 b1 0d 3f d0 93 29 bf
       -0.028507631 0.4023058 0.55349356 -0.6624117
000240 f5 83 e9 3e 57 0d 58 3e 50 3a 6b be 76 e6 c3 3e
       0.45608488 0.21098839 -0.22971463 0.38261765
000250 02 a6 43 be aa 9f 7f be 60 e6 9b bd f8 aa 71 be
       -0.19106296 -0.24963251 -0.076123 -0.23600376
000260 c9 64 0a 3f 14 14 ba bc ab 84 2b bc 0e b7 82 3f
       0.54060036 -0.022714652 -0.010468642 1.0212114
000270 d6 50 5c 3f 34 ed b2 be 2f fa 96 be c6 6f 55 bf
       0.86060846 -0.34946597 -0.2948775 -0.8337368
000280 52 d2 b8 3e 13 26 8b 3f be 99 88 3d 35 57 3a 3f
       0.36097962 1.0870994 0.06669949 0.7278932
000290 cb e9 40 c0 50 6d a0 3c ff 92 04 c0 20 02 a7 3e
       -3.0142696 0.019583374 -2.071472 0.3261881
0002a0 ad 85 12 bf 6b 2d 04 3e 72 29 63 be 8f 48 e1 bf
       -0.57235223 0.1290795 -0.22183779 -1.7600268
0002b0 39 7f 4d 3e 58 bb 80 be e3 28 a2 be de 4d c7 3e
       0.20068063 -0.25142932 -0.3167182 0.38926595
0002c0 37 ba fc bf 0b 15 31 be df 99 eb bf e7 5a 01 be
       -1.9744328 -0.17293184 -1.8406333 -0.12632333
0002d0 13 9f 94 3e 30 62 2a bf 17 f0 15 be 37 48 0d 3f
       0.29027614 -0.6655607 -0.14642368 0.55188316
0002e0 3b d9 1e bc 7c 10 12 be 2b 51 ba 3e cb ba a4 be
       -0.0096953465 -0.14264101 0.3639005 -0.32173762
0002f0 ac 75 c1 be 0d ef 9b be 52 f0 08 3e 85 9b b4 3e
       -0.3778509 -0.3045582 0.13372925 0.35274902
000300 64 24 cf bd 8d e0 ca be dd 0b 53 3e f2 6b 59 bf
       -0.10114363 -0.39624444 0.20609994 -0.84930336
000310 11 ab 01 bf 4c ab 91 3c 9f 1f 66 3e 2b b7 2b 3f
       -0.5065165 0.017781876 0.22473 0.6707637
000320 5b 86 78 3c 33 4d 8b 3d 56 98 ac 3e 02 16 c3 be
       0.015168752 0.06801834 0.33709973 -0.38102728
000330 6e 62 d7 be 9b b0 dd bd 65 64 8d be 4c 96 c2 3c
       -0.42067283 -0.108247004 -0.27615657 0.023753308
000340 7f d4 c9 bd c2 8a a6 3d 80 46 f7 3c 29 5a b9 bf
       -0.098549835 0.08131935 0.030184984 -1.448064
000350 43 f4 c5 3e 58 77 4d 3e 14 27 86 3d b0 67 51 3f
       0.3866292 0.20065057 0.06550422 0.8179884
000360 f9 1a 4d bd 1e 06 b6 3c 3d c0 87 c0 1b 40 27 bf
       -0.05007455 0.022219714 -4.2422166 -0.6533219
000370 93 ef 87 be a3 af 44 3b cf b0 89 3e 9e 8a 5e be
       -0.26549968 0.0030011914 0.26892707 -0.21732566
000380 1a 5c 75 3e 85 f3 5c be 58 b7 32 3f 96 50 86 3e
       0.23960915 -0.2157727 0.6981101 0.26233357
000390 19 71 b0 bc a1 55 da bd 50 79 19 3e dc d5 e2 3e
       -0.021538304 -0.10660864 0.14987683 0.44303787
0003a0 b4 97 f7 3a 58 cc 2c bf 96 e0 ae be 59 6c 2c 3f
       0.0018889816 -0.67499304 -0.3415572 0.67352825
0003b0 16 ed 8d 3f c8 1c ac bf 43 bb 4e bd 64 11 5f 3f
       1.1087978 -1.3446283 -0.050471555 0.8713591
0003c0 34 ec 60 c0 74 27 be bf 6d 05 38 3f ee 09 35 be
       -3.5144167 -1.485579 0.7188328 -0.17679569
0003d0 54 62 46 3d 93 c6 34 bf 31 6a c4 3e 03 6b e4 3d
       0.048433617 -0.706155 0.38362268 0.11153223
0003e0 78 d8 19 bf 03 be 66 be 38 07 55 be f8 2d f5 3b
       -0.6009593 -0.22533421 -0.20803535 0.0074822865
0003f0 68 6e 41 3f a4 b2 d7 bf 50 85 56 be 7b 71 ad 3a
       0.7555909 -1.6851392 -0.20949292 0.0013232672

model.9.bias f4 [20]
000000 df e0 24 3f 17 47 c4 be 87 d4 05 3f 2a fa 03 3f
       0.64405626 -0.38335487 0.52277416 0.51553595
000010 60 05 8e 3e 26 3a cd be 3a 15 aa 3e 78 14 29 be
       0.27738476 -0.40083426 0.3321932 -0.16511714
000020 46 c2 ad 3e d6 90 39 3f 79 93 c5 3e b3 61 e7 3e
       0.3393728 0.7248663 0.38589075 0.45191726
000030 a0 af eb 3e e0 5a f8 3d 59 77 12 3e d4 8e 3b bf
       0.4603243 0.12126708 0.1430334 -0.73264813
000040 44 c9 8e 3f 98 ed 2c 3e 03 fe ea 3e 33 c7 db be
       1.1155171 0.1688751 0.4589692 -0.42925414

model.12.weight f4 [4, 20]
000000 c7 8e 83 3e 28 60 12 3e 97 59 69 be f4 af 59 3e
       0.25694868 0.14294493 -0.22788082 0.21258527
000010 86 ef 20 bf b8 fd 8d 3c 3c 47 e3 be 73 59 93 be
       -0.62865484 0.017332897 -0.44390285 -0.28779182
000020 1b 5a 9f bd ea 5f d8 bd 4f 0a be be d3 88 8e 3e
       -0.07780858 -0.10565169 -0.3711724 0.27838764
000030 98 e8 14 bf 48 74 e3 bd cd a5 38 be 6a 4e 67 be
       -0.5816741 -0.11106163 -0.18031998 -0.22588506
000040 a5 bf 32 3f fb 3f 21 3f 00 2a 64 3e 4d 47 69 3e
       0.69823676 0.6298825 0.22281647 0.22781105
000050 af 2d 02 3d 34 97 7c bd ae 19 c0 bd 78 a5 a5 bf
       0.03178185 -0.061667636 -0.09379898 -1.2941122
000060 52 92 06 3e 69 a8 66 bf 54 80 04 be d7 c8 2d 3f
       0.13141754 -0.90100724 -0.12939578 0.6788458
000070 f1 74 0c 3f 2f 74 81 bd aa f2 37 bf 3d e9 21 3f
       0.5486594 -0.063209884 -0.7185465 0.6324652
000080 45 7a f9 3e 96 92 9f be 18 aa 77 3d 74 15 b1 3d
       0.48726097 -0.31166524 0.06046495 0.0864667
000090 a2 ba 0a bf 4f 06 8e 3e 73 5c d2 be 1e b5 04 be
       -0.5419103 0.27739188 -0.41086158 -0.12959716
0000a0 25 ca 13 3f a0 ae 65 3e d4 c6 55 bf 14 f0 09 3f
       0.57730323 0.22429895 -0.8350651 0.53881955
0000b0 f1 66 4b 3f 30 86 35 be 9f 65 ed bf 33 80 ba be
       0.7945395 -0.1772697 -1.8546637 -0.36425933
0000c0 8a 4e 4b 3d db de 8b be bb f0 46 bf 6c 46 1d be
       0.049635448 -0.27318463 -0.77711076 -0.15358895
0000d0 b9 b5 05 bf 1b df 5e 3f 09 fb 99 be 68 5e 33 3f
       -0.5223041 0.8705918 -0.30074337 0.7006593
0000e0 96 8d 40 bf 73 69 28 3f 9a 2b 31 3e 38 99 78 3e
       -0.75216043 0.657859 0.17301789 0.24277198
0000f0 61 99 ea be b4 91 0c be cb 26 f3 be 12 47 c8 b9
       -0.45820144 -0.13727456 -0.47490534 -0.00038199924
000100 a7 74 db bd b1 f7 bc 3e 8f 97 71 bf 38 f6 86 3e
       -0.10715609 0.36907724 -0.94371885 0.26359725
000110 a3 58 55 bf 18 33 e3 3e 91 2f 8d be 6b 3b 5d be
       -0.83338374 0.4437492 -0.27575353 -0.21604697
000120 11 ea f7 bf a3 8b 0c bf 85 c3 1c 3f 66 67 1c bf
       -1.9368306 -0.5490057 0.6123584 -0.61095273
000130 44 64 d8 bd d2 02 f4 be 5c 5b bc 3e 35 42 91 bc
       -0.10565999 -0.47658402 0.36788452 -0.017731765

model.12.bias f4 [4]
000000 e2 37 09 3c c4 fb 4f 3e f8 10 fe bd ed ad 10 3f
       0.00837514 0.20310885 -0.1240558 0.5651539
