FullOrder/ReconstructORI/Run_20251027_172219_NoPhys_NoBatch_HD30_HL2_LR0.001_checkpoint.pth (torch, 279506 bytes, 80 tensors)

0.weight f4 [30, 2]
000000 68 08 e8 3e 32 c8 45 3f 1d d0 e3 bb c5 db 5f 3f
       0.45318913 0.772586 -0.0069522993 0.87444717
000010 ae 08 fb bd f4 e8 52 3e 08 5a a5 be df 83 00 3f
       -0.12257515 0.20596677 -0.3229525 0.5020122
000020 31 61 e1 3e b9 fb 38 bf 93 a7 05 3f 3e 54 6d 3e
       0.44019464 -0.722591 0.5220882 0.23176667
000030 69 81 54 3f 7b 91 a9 bc df 0e 07 3f 72 7b 5b be
       0.83009964 -0.020699253 0.52757066 -0.2143381
000040 f6 72 c8 3e a4 19 c9 3e 68 cd 14 bf 83 34 b2 3e
       0.39150208 0.39277375 -0.58125925 0.34805688
000050 75 8a 22 be 36 b6 e2 bd c3 d6 44 be 1f 27 0b 3f
       -0.1587313 -0.1106991 -0.1922255 0.5435657
000060 76 41 c4 be 6d c3 0b bf 0b fb b5 be 83 f0 15 bf
       -0.38331193 -0.5459507 -0.35543093 -0.58570117
000070 b8 c9 c0 3d 21 55 6f bf 9d 9d 5f 3f 6b ae 30 bf
       0.09413475 -0.9348927 0.87349874 -0.6901614
000080 76 75 e6 3e d9 c1 98 3e 3c 90 13 bd 4e bf ee 3e
       0.4501149 0.29835394 -0.036026224 0.4663033
000090 c6 f0 5c 3e b1 c2 24 3f 04 82 9e 3e 26 98 ba be
       0.21576223 0.64359576 0.3095857 -0.36444205
0000a0 0f a8 ac 3d 32 44 83 be f3 ef 99 3e a5 8b 1c 3f
       0.08430492 -0.25637966 0.3006588 0.6115058
0000b0 02 de d3 3e 3d a8 a1 be bb ba 0a 3f 79 fe 8c 3e
       0.41380316 -0.31573668 0.5419118 0.27537897
0000c0 ba 05 d1 3e fd 4e f1 be d4 60 7a bf a7 1e 0e be
       0.40824682 -0.47130576 -0.97804 -0.1387888
0000d0 5a 37 4d bf 51 c7 30 3f d4 b6 71 3e e2 fc e1 3e
       -0.80162585 0.6905413 0.236049 0.44138247
0000e0 9d 47 0f 3e 7d 5b 5f 3d 1b d7 af 3e 0b 76 31 bf
       0.13992162 0.05453061 0.343438 -0.69320744

0.bias f4 [30]
000000 a5 05 fa bd c2 4a 31 bf 90 aa 25 3d ca 8d 12 bf
       -0.12208108 -0.69254696 0.040445864 -0.572476
000010 e9 96 cb 3e b3 46 86 be 8a 8c 39 3f 71 11 27 bf
       0.39763573 -0.26225814 0.7248007 -0.6526099
000020 ca a5 27 bf 44 e3 42 bf fe 68 68 3f e0 28 af 3c
       -0.6548735 -0.7612803 0.90785205 0.021381795
000030 aa 8b 61 3f 9d ec d2 be 15 11 72 bf 92 f3 d6 be
       0.88103735 -0.41196147 -0.94557315 -0.41982704
000040 3b 99 14 bf c9 0c f6 3d f7 e3 b3 3d ba a1 1f 3f
       -0.5804631 0.12014157 0.08783715 0.6235615
000050 e2 74 83 be a4 94 02 bf 56 1a 14 3f df ad 7e be
       -0.25675112 -0.5100806 0.57852685 -0.24871014
000060 6a 53 29 3f 4c 71 d9 be 91 57 b3 3e f6 ff 30 bf
       0.66142905 -0.4246925 0.35027745 -0.69140565
000070 f1 24 fa be 22 2a f7 3e
       -0.4885631 0.48274332

2.weight f4 [30, 30]
000000 47 47 aa bb 84 ee 0e 3e 85 e7 3a 3d 5e 26 75 3e
       -0.005196485 0.13958174 0.04563095 0.23940417
000010 d9 d9 4b be be 11 25 be a1 7c 0f 3e c0 6e 85 3c
       -0.19907321 -0.1612005 0.14012386 0.016288161
000020 7d ab 51 be 0a d9 90 bd cb 59 b0 3d 49 fe b5 bd
       -0.20475574 -0.07072647 0.08610877 -0.08886392
000030 2d 7c 10 3e 0e e0 ef bd 18 bd 87 3e 5a 74 a4 3d
       0.1410987 -0.11712657 0.26511455 0.08030005
000040 90 2e 92 be 5e 18 7f be ac a0 80 be 3e 75 6c be
       -0.2855115 -0.24911639 -0.25122583 -0.230916
000050 47 3d 9a 3e 20 ac 09 bd fd 68 cb bc c7 ec 8a be
       0.30124876 -0.033611417 -0.024830336 -0.27133772
000060 b6 0b 81 be ff d1 ac bc 54 44 2d be 0a 18 a4 be
       -0.25204247 -0.021096228 -0.16920596 -0.3204959
000070 29 45 59 be 78 14 48 be 4e ae 05 3e f1 25 d1 3d
       -0.21217789 -0.19539058 0.13054773 0.10212315
000080 95 e3 0a 3e 89 c3 97 bc dc 56 86 be 13 13 19 be
       0.13563378 -0.018525856 -0.26238143 -0.14948682
000090 f0 6d 5d bd 5f e3 bb be e7 b2 0a 3e 10 a0 c3 3b
       -0.054059923 -0.36696908 0.13544808 0.0059700087
0000a0 b3 c1 8a 3e 6a ba 4e 3e cd ef 9d be e1 15 e2 3c
       0.27100906 0.20188299 -0.30847016 0.027598323
0000b0 94 9a 20 3b 7a 76 6f be 9a 73 6e be e4 f2 49 bd
       0.0024506198 -0.23385039 -0.23286286 -0.049303904
0000c0 61 ed 28 3e 73 d5 ee bd 43 f5 e0 bd 7a 8a fa bb
       0.16496803 -0.11661806 -0.1098428 -0.007645902
0000d0 30 e2 96 3d 37 72 38 be 22 f3 f5 bd 06 f7 c6 3d
       0.073673606 -0.1801232 -0.120092645 0.09715085
0000e0 f9 4a 82 3e d8 9e 83 3e 64 b6 8b bd 73 c5 8d be
       0.25447825 0.25707126 -0.068218976 -0.27689704
0000f0 4a 4f 6a 3e 73 75 39 3d 20 60 d2 3d fa fb 39 bd
       0.22881809 0.045278024 0.10272241 -0.04540632
000100 91 ef 41 3e 02 80 c8 bc c7 9e 33 3d d4 77 a8 3d
       0.18939044 -0.024475101 0.043852594 0.082259804
000110 b2 86 02 3e db d4 03 3d 02 3e 3f 3e b1 f7 b6 3d
       0.12746695 0.032185417 0.18675998 0.08933962
000120 be c8 1a bd 85 cb b4 be 72 77 28 bd 45 73 e1 3d
       -0.0377891 -0.35311523 -0.041129537 0.11008314
000130 af e5 52 bc ba 76 82 3e 08 da 4e 3e 01 e1 48 be
       -0.012872144 0.25481206 0.2020036 -0.19617082
000140 9a 39 61 be a1 15 e6 3d 86 8e fe 3a 92 97 51 3d
       -0.2199463 0.11234594 0.0019421137 0.05116994
000150 ab 8b 58 be fb 66 05 be d5 5c 85 be 92 d4 08 3e
       -0.21147029 -0.13027565 -0.26047388 0.13362339
000160 90 2b d2 3d ba 3b 38 be 5c 9f d7 3d 09 09 19 3e
       0.10262215 -0.17991534 0.10528442 0.14944853
000170 fb d0 ba 3d a6 a1 95 bc 20 7c 85 3d be de ae 3d
       0.09121891 -0.018265557 0.065178156 0.085385785
000180 93 de 90 3d 6b f8 d7 bd 1f 29 88 be 8a 75 b7 3d
       0.07073703 -0.10545429 -0.26593873 0.08957966
000190 9f 4c 3e 3e 77 23 b1 bc 69 d4 27 3e 2b a7 ba 3d
       0.18583916 -0.021623356 0.16389622 0.09113916
0001a0 39 1d 74 bd c3 28 ed bc 4e d0 35 be c9 ac f2 3c
       -0.05959818 -0.0289501 -0.17755243 0.029623406
0001b0 5a cb c7 3d 2f 0c f1 3b b8 62 69 be 88 ce d9 bc
       0.09755583 0.0073561887 -0.22791564 -0.02658774
0001c0 9b 99 d6 3d 4d 0b 2b 3d bc a7 7e bd 3a 7c fa bd
       0.10478517 0.041758824 -0.062171683 -0.122307256
0001d0 33 40 ef bd 40 5d 3a be 60 94 41 be cc 0e da 3c
       -0.11682167 -0.18199635 -0.18904257 0.026618384
0001e0 ba a5 fc 3d b3 db b7 3d dc a2 0b be 02 81 97 bd
       0.12336297 0.08977451 -0.13636345 -0.07397653
0001f0 64 3c 26 3d 1c 6b a1 3d 78 8f 5b be c6 f9 e4 3c
       0.040584937 0.078817576 -0.21441448 0.027951133
000200 a2 56 36 bd 26 34 ff 3d c5 92 05 3c 31 9b 1a 3d
       -0.044516213 0.124611184 0.008152668 0.03774566
000210 74 bd 0e 3d 39 90 a6 bd 5b a0 e9 bd ff 40 b7 3e
       0.034848645 -0.08132977 -0.114075385 0.35791776
000220 cc ed fe 3c d8 bb 3f 3b 4f 36 05 be 30 1a 70 be
       0.03111925 0.002925625 -0.13008998 -0.2344749
000230 95 39 16 be ea e2 b2 3d 0a 26 33 bc a8 ae 4f 3d
       -0.14670403 0.08734687 -0.010934362 0.050703675
000240 b5 67 cb 3c 1c 81 3f 3e 34 95 61 be 2e 32 6d be
       0.024829725 0.18701595 -0.22029573 -0.23163673
000250 24 eb 9c be 68 55 08 be d5 e7 de 3d 1b 53 2b bd
       -0.30648148 -0.1331383 0.10884062 -0.041827302
000260 2f 5f 18 bc 4f c1 a0 bd 23 d4 59 bd f4 53 34 be
       -0.009300037 -0.07849371 -0.053180825 -0.1761015
000270 79 aa 39 bc 6d 17 c1 3c 18 d5 3d be c4 a2 f3 3d
       -0.011332148 0.02357074 -0.1853832 0.118962795
000280 0f c9 bc 3d 48 f1 fe bd 18 07 5a 3e c5 37 0c be
       0.092180364 -0.124483645 0.21291769 -0.1369315
000290 dd de 56 bd bb cc 15 be d6 1a 55 bc 0a b2 e2 bd
       -0.052458633 -0.1462888 -0.0130068865 -0.110691145
0002a0 78 14 f4 3d 3c 16 d9 3d 2b c8 c3 3d ec 18 f5 bd
       0.119179666 0.10599944 0.095596634 -0.11967644
0002b0 d0 8c e9 3d c3 e2 50 be 88 b2 15 3d 06 bc e9 3d
       0.11403811 -0.20399003 0.036547214 0.11412816
0002c0 ef a1 43 bd b6 51 c5 bd 0d 84 0d be b1 35 33 be
       -0.047761854 -0.09634726 -0.13819905 -0.1750095
0002d0 c3 a9 e6 3d 18 8f ed bd e9 5c dd 3d 45 d1 2e 3e
       0.11262848 -0.115995586 0.10808737 0.17072017
0002e0 c5 9a 26 3e cf 62 ba bd c1 cd 08 be 2f b8 8c 3d
       0.16269977 -0.091008775 -0.13359739 0.06871068
0002f0 ab 28 62 bd 67 d1 fc bd b7 8b 34 3e 67 3f 0c be
       -0.055214565 -0.12344628 0.17631422 -0.13696061
000300 3b 09 cf 3d 7e 61 ca bd 8c 9a 45 3c d7 5e fb 3c
       0.101091824 -0.098818764 0.012060773 0.030684872
000310 ae b2 9b be 3e 78 02 3e be 36 1d 3e a3 56 89 bd
       -0.3040976 0.12741181 0.15352914 -0.06705978
000320 da 48 53 bc f6 d8 3d bd b1 e0 4c be 36 8f 91 be
       -0.012895787 -0.04634949 -0.20007588 -0.28429574
000330 8a f7 8a 3c eb aa c2 bd 22 7b 4a be a9 43 53 bd
       0.016963739 -0.09505256 -0.19773534 -0.051578198
000340 8d 24 1e be 0c 7d 9b bd 70 e9 e0 3c 01 fe 31 3d
       -0.1544363 -0.0759221 0.027455062 0.043455128
000350 bf 7c 2e bd 7e 2b 04 bd bd 6a 54 be 31 f8 28 3e
       -0.042599436 -0.03226804 -0.20743842 0.16500928
000360 6b bf cd bc 3e e1 c4 3c 1e 34 2d be 15 df 83 3d
       -0.02511569 0.024033185 -0.16914412 0.06439034
000370 33 e7 97 3e 8d 0a c9 3d 70 5e 3f be 8b d8 96 3d
       0.29668579 0.098164655 -0.18688369 0.07365521
000380 5a 52 63 3e 97 0f 5c 3d 44 ae f0 3c 9a 35 41 3e
       0.22199383 0.053725805 0.029379971 0.18868104
000390 4f d4 88 bc d8 79 8e bc 73 4d 11 be 25 0f 15 3c
       -0.0167028 -0.017392084 -0.14189701 0.009097849
0003a0 fc 09 bc 3d 0d 81 bc 3d c5 fb 33 be 50 2e 3e be
       0.09181592 0.09204302 -0.17576511 -0.18572354
0003b0 29 73 02 be fc c4 21 be 7a 0f 59 be 91 64 d6 bd
       -0.12739243 -0.157978 -0.2119731 -0.104684
0003c0 7e 76 13 3e 0a d4 be bd 4a db 09 be 45 bc 4b be
       0.1440067 -0.09317787 -0.13462558 -0.19896038
0003d0 41 c2 22 3e a8 ab 03 be 5c ad 11 be fb 39 ce 3d
       0.15894414 -0.1285845 -0.14226288 0.10069653
0003e0 25 fe 80 3b 34 98 86 bc 6a 97 5d be 78 3e 2c bd
       0.0039365464 -0.016429998 -0.21639791 -0.042051762
0003f0 72 cf 4d be ba 86 59 be 55 db 96 be ad af e1 bd
       -0.20098665 -0.212428 -0.29464212 -0.110198356

2.bias f4 [30]
000000 98 e0 9d 3d af a0 19 3e 6e 2f a4 3c 5f 9e 7c 3b
       0.077088535 0.15002702 0.020042147 0.0038546545
000010 a3 07 9f 3e d4 d1 4b 3d 62 c1 55 3e 1c 63 e2 3d
       0.31060514 0.049760655 0.20874551 0.1105406
000020 ce ce 8c be 6f 59 a0 3c 8c c7 9f 3e 18 57 42 be
       -0.2750153 0.019573895 0.3120693 -0.18978536
000030 1f cf b1 bd 31 81 4d 3e 56 e7 73 bd 16 4d 29 be
       -0.08682083 0.20068814 -0.05954679 -0.16533312
000040 24 db de 3d c6 b7 ac bd a4 fd 82 3d 06 b5 cd 3d
       0.108816415 -0.084334895 0.06396034 0.10044293
000050 0a 86 a2 bd f4 32 cf bc d5 25 f5 bd 6d 47 e3 bd
       -0.07935722 -0.025292851 -0.119701065 -0.11097608
000060 f8 e3 54 bc 21 26 08 bd 47 c6 ab 3d 8f 0b 0a 3e
       -0.012993805 -0.033239488 0.08387428 0.13480972
000070 2a 99 a4 3e c7 75 2d 3e
       0.32148105 0.1693946

4.weight f4 [5, 30]
000000 a0 d8 a7 be 1f b5 28 be 91 b6 71 be 90 0d 53 be
       -0.3278246 -0.16475342 -0.236048 -0.20610642
000010 87 9d e2 bc 44 63 d8 bd c3 90 ea bc 76 14 84 be
       -0.027663006 -0.105658084 -0.02863348 -0.2579686
000020 7a a3 58 3e 2a 4d 86 bd 89 3a c6 bd 86 e3 dc 3c
       0.21156111 -0.065576866 -0.096791334 0.02696396
000030 55 7c e5 3d 24 e7 73 be c2 be 0b 3d da f2 89 3e
       0.11205355 -0.23818642 0.034117468 0.26943094
000040 6d d9 74 3e 35 ab 28 bd b2 49 9f bc 62 0f cd 3d
       0.23911066 -0.0411789 -0.01944432 0.100127
000050 ea a8 98 be 50 59 8e 3e 80 6a d4 3d c1 56 60 3c
       -0.2981637 0.27802515 0.10371876 0.013692559
000060 52 c2 4d be 5a 91 7f 3d 06 a2 01 be aa 2d a5 3c
       -0.20093659 0.062394477 -0.12659463 0.020163376
000070 52 a6 5a 3d 37 70 8a be 8b 82 bb 3e d0 55 c9 bd
       0.05338127 -0.27038738 0.36623034 -0.098308206
000080 c2 50 b8 bb 50 4d 3f 3d b0 e6 68 3e 28 1e f9 3d
       -0.0056248615 0.04670459 0.2274425 0.12163955
000090 38 7a 8b 3e 1d 85 d5 3c 79 8e 55 be eb 88 80 be
       0.27241683 0.02606445 -0.2085513 -0.2510446
0000a0 bb 64 b7 bd 9b 42 7d 3b 98 19 17 3e 2b 35 dc 3e
       -0.0895476 0.0038644436 0.14755857 0.43009314
0000b0 4c be b7 be cf 2a 1e bd 55 7f 41 be 70 b3 c6 3d
       -0.35887372 -0.038615044 -0.1889623 0.09702194
0000c0 c0 3d 81 3e fb 8d 40 3e 51 9d d6 3e 8b 82 46 3d
       0.25242424 0.18804161 0.41916898 0.04846434
0000d0 c2 41 6f 3e 03 9e 0e 3d 7f 2d 18 3e e2 44 93 bd
       0.23364928 0.03481866 0.14861105 -0.07190873
0000e0 27 c6 1d 3e 31 3f 9f 3c 73 fb ad be 00 af e9 3d
       0.1540762 0.019439312 -0.33980903 0.11410332
0000f0 c8 69 ea 3c 16 76 97 3e 1d ba e0 be 28 3d 9a be
       0.028614894 0.2958228 -0.43891993 -0.30124784
000100 f7 21 82 be 20 f6 eb bd e5 5a da bd 94 5e a5 3e
       -0.25416538 -0.11521554 -0.10661868 0.3229872
000110 af fb b8 be 69 82 04 bf a9 01 4a 3e a9 08 c9 bd
       -0.3612952 -0.5176149 0.19727196 -0.09816105
000120 44 66 ca be 39 49 78 be f6 bb f1 3e 66 0e 85 3e
       -0.39531147 -0.24246682 0.47213715 0.25987548
000130 d4 65 76 be 41 35 c6 3e 2f 1d f2 bd d6 af 9a 3a
       -0.24062282 0.38712505 -0.118219726 0.0011801671
000140 92 bb 4c be ba 13 30 3e a7 0b e7 be 33 5d 02 3f
       -0.19993427 0.17195025 -0.45126078 0.5092346
000150 6e 1a 86 be 44 94 af 3d f5 3e a7 3e 84 04 93 be
       -0.2619204 0.08573201 0.3266522 -0.28714383
000160 11 a7 95 3e 1a 2e bf 3e 33 4e 86 be 7c 3a c7 be
       0.29229024 0.3733986 -0.26231536 -0.38911808
000170 4b f8 5f 3d 1c 61 5e 3e 1d 16 22 3d 6c 03 da 3c
       0.05468015 0.21716732 0.03957187 0.02661296
000180 ed 21 1c 3d 8c fe 5f 3e b3 a2 31 3e 41 f6 92 3e
       0.03811829 0.21874446 0.17347221 0.28703502
000190 f7 73 c5 bd 8b 10 10 be 84 e7 f0 3d f4 ef f6 bc
       -0.09641259 -0.1406881 0.11762908 -0.030143715
0001a0 c9 38 4b 3e 1d 96 97 be 20 c4 d5 3d 36 4b d5 3d
       0.1984588 -0.29606715 0.104377985 0.10414736
0001b0 4a 76 04 3c 80 ae 64 3d 70 ac 23 be cb 1b 51 3e
       0.008084843 0.05583048 -0.15983748 0.20420758
0001c0 fb cf 8f 3b 93 7e a9 be a3 44 88 3e 4e 10 d1 bc
       0.004388807 -0.3310438 0.26614866 -0.02552047
0001d0 91 ea be bd 82 fe b2 3e 06 49 e3 bd 04 5b 09 be
       -0.09322084 0.349598 -0.110979125 -0.13413626
0001e0 ed 57 9c bd aa d2 05 bd 62 cf 99 bd 23 0b 3c be
       -0.07633958 -0.032671608 -0.07510258 -0.18363623
0001f0 e6 3f de bd c6 1e a1 bd 31 10 27 be 31 af 8f be
       -0.108520314 -0.07867198 -0.1631477 -0.28063348
000200 88 16 73 3e 2c 53 b4 3d 87 36 87 be d3 fd 57 3e
       0.23739064 0.08804926 -0.2640879 0.2109292
000210 a3 76 22 3e 4d ca fc bd 12 00 6b bc 21 23 00 3e
       0.15865569 -0.12343273 -0.0143432785 0.125134
000220 ee 84 90 3e 1b 03 2d 3e 3c 6d 15 be 5f 81 72 3e
       0.28226417 0.16895716 -0.14592451 0.23682164
000230 1a 32 fe bd 71 65 43 3e 42 9c 38 3e 62 47 1c 3e
       -0.124119 0.19081666 0.18028358 0.15261605
000240 cf fb 85 be 00 c3 8f 3e db 0c 3f be 80 8f 42 bd
       -0.26168677 0.2807846 -0.18657248 -0.047500134
000250 93 b4 71 bd 74 16 23 be
       -0.0590101 -0.15926534

4.bias f4 [5]
000000 ed 6e 8a be 73 16 f0 3d fc c5 b9 bd 29 8f 4d 3d
       -0.27037755 0.11723032 -0.09070966 0.050185356
000010 85 69 c5 3a
       0.0015061354

0.weight f4 [30, 2]
000000 5b 29 9f 3e b3 c1 c5 3e 0e a2 cc 3d dd 88 20 3f
       0.3108624 0.38624343 0.09991847 0.62708837
000010 ab 16 33 be 10 fe 7e 3e 45 20 4a 3e c9 48 29 bf
       -0.17489116 0.24901605 0.19738872 -0.66126686
000020 cb 16 31 bf 79 9d 1e 3e 6d bc 9e be 35 2f e3 bd
       -0.69175404 0.15489759 -0.31003132 -0.110929884
000030 56 dc 25 be b7 61 8f 3e d6 88 d9 3e e6 f7 cd be
       -0.16197333 0.28004238 0.4248721 -0.40228194
000040 a5 45 14 3f 4f 95 24 3f 4f 11 1b bf 3f a5 29 bf
       0.5791877 0.64290327 -0.60573286 -0.6626777
000050 00 1f 01 bf 39 58 f6 be df 32 01 bf c7 2f 66 3e
       -0.5043793 -0.48114184 -0.5046825 0.22479163
000060 77 51 36 3d 88 cd 06 bf eb 4e 50 be dc ad fd be
       0.044511285 -0.52657366 -0.20342605 -0.49546707
000070 de 0c 31 3f cb 8a 97 be c2 71 cd be 42 cd bd 3e
       0.6916026 -0.29598078 -0.40125853 0.37070662
000080 92 2b 73 3d d6 81 1d 3f 8a d0 94 3e 6d 97 42 3f
       0.059367724 0.6152624 0.29065353 0.7601231
000090 5e 48 0a bf 46 43 1c 3f 77 3b 1a 3f 6b c9 11 bf
       -0.54016674 0.6104015 0.60246986 -0.56947964
0000a0 4a 17 bf 3e 72 4f 41 3f b7 84 73 3d 5e 5c c3 3e
       0.37322456 0.7551185 0.05945274 0.38156408
0000b0 b3 45 dc be 24 43 21 bf ee 8a 29 bd de 74 ba 3e
       -0.43021926 -0.62993073 -0.04139226 0.36417288
0000c0 54 53 f9 be aa 45 d7 3e f6 37 15 bf 6f 4d 40 3f
       -0.48696387 0.42045337 -0.58288515 0.75118154
0000d0 7d 25 78 3f 2a d4 35 3d ea 2b e2 be d0 bc 1b 3f
       0.969322 0.04439179 -0.4417413 0.6083498
0000e0 ab d5 c2 3d d0 20 86 3e f5 ad dc 3b 94 1a 54 3f
       0.0951341 0.2619691 0.0067346045 0.82853055

0.bias f4 [30]
000000 74 08 e6 be 51 2c c4 3d 0e 7f ac 3e 7e 23 b0 3e
       -0.44928324 0.09578765 0.33690685 0.34402078
000010 c5 88 2d 3f 89 58 38 bf 84 06 5d 3e 3a 8f 6a 3e
       0.6778682 -0.72010094 0.21584517 0.22906199
000020 c9 5a a8 be 48 2a 2e 3f 79 0e 36 3e b6 86 3e bf
       -0.32881764 0.68033266 0.17778958 -0.744243
000030 a9 5f b2 be 7b 05 b0 be af 80 93 3e 8b cd 87 be
       -0.34838608 -0.3437918 0.28809115 -0.26524004
000040 a0 1c 1f bf c8 c0 05 3e af b4 47 3e cb ed b5 be
       -0.62153053 0.13061821 0.19502519 -0.35532984
000050 66 91 38 3f 5b 8c 78 bd 18 5a f7 3e 53 08 7d 3e
       0.7209686 -0.06068073 0.48310924 0.24710207
000060 98 76 3b bf b0 7f e1 3e b7 9e 3a 3f 3a 20 1f bf
       -0.73227835 0.4404273 0.7289843 -0.6215855
000070 8a de 07 bf 2c b3 50 3f
       -0.5307394 0.81523395

2.weight f4 [30, 30]
000000 45 cf f6 3d 24 02 f3 bd 21 26 fd 3d 97 e0 21 bd
       0.12051252 -0.11865643 0.12360788 -0.039520826
000010 eb 15 fa bd f7 4b d3 3c 21 9e 9c 3d 45 86 01 be
       -0.12211212 0.025793059 0.07647348 -0.12648876
000020 ac b6 0f 3d 44 f3 04 be 11 31 1e 3e c2 8f 50 3e
       0.03508632 -0.12983423 0.15448405 0.20367339
000030 3e bd 00 3e 99 4d 54 3d ae c1 20 bc 5d 12 a3 bd
       0.1257219 0.051831815 -0.009811802 -0.07962487
000040 5f 34 ab bc fa eb 1b bd 8c b9 a0 bd 9f 2e 2b be
       -0.020898996 -0.03806684 -0.0784789 -0.16717003
000050 d6 8a bc 3d 32 7e e8 3d e0 3d 1f be 42 61 0e 3d
       0.09206168 0.11352195 -0.15550947 0.03476072
000060 17 0e 0d 3e 5e d9 27 3e 49 cb a2 3d fe 05 83 3e
       0.13774906 0.16391513 0.0794893 0.2559051
000070 a9 d3 a1 bd 47 0b 92 3d 44 31 cb 3d cb 29 86 be
       -0.07901699 0.07131057 0.09921506 -0.2620376
000080 fe 2a d6 be b0 42 c0 3d dd 35 a6 bd 87 c4 37 3e
       -0.41829675 0.0938772 -0.08115742 0.17946063
000090 11 2a 30 be 49 59 db 3d 5b e8 76 bc aa e4 55 bd
       -0.17203547 0.10710389 -0.015070046 -0.052220024
0000a0 a6 9d 2c 3e 50 1a b9 3e d6 97 64 bb 0e 87 0d 3e
       0.16857013 0.36152887 -0.003488054 0.1382105
0000b0 97 96 b5 3d 30 a1 12 bd 35 eb 14 3e 6e d7 16 bd
       0.08866613 -0.03579825 0.1454285 -0.036826544
0000c0 37 30 24 be 8a 65 ac 3e e5 6e 55 be a1 1a 08 be
       -0.16034018 0.33671218 -0.20843084 -0.13291408
0000d0 cb 65 85 3d 36 4c 87 be 0a af d1 3c f0 62 86 be
       0.06513556 -0.26425332 0.02559616 -0.26247358
0000e0 b6 02 a5 bd 11 30 d2 3b 51 79 88 bb 0d 0e ac be
       -0.08057158 0.0064144214 -0.0041648527 -0.3360447
0000f0 1e 2c 6c be 1f a4 0b 3c bf b3 1c bd 5f cd 09 be
       -0.23063704 0.008523016 -0.038257357 -0.13457249
000100 ab 71 d5 bd ea 47 02 bd 27 be 20 be a3 fb 52 3e
       -0.10422071 -0.031806864 -0.15697537 0.20603804
000110 d5 de 95 3d c9 06 a3 bd f5 bc 38 3e d3 5f 31 3e
       0.073178925 -0.079602785 0.18040831 0.1732171
000120 4d d6 cd 3d 4e 5d 90 3e 4c 5d fc bd cb ea b1 bd
       0.1005064 0.28196186 -0.123224825 -0.08687361
000130 87 32 c8 bd 39 69 57 bd 06 ed 0a bc 0a fe f7 3d
       -0.09775262 -0.052590583 -0.008479362 0.12109001
000140 86 74 5b be 61 60 1c be 52 43 e1 3d 5d 90 84 be
       -0.21431169 -0.1527114 0.109991685 -0.2589139
000150 f4 53 02 3c e1 80 b9 bd d9 75 02 be c0 b0 ef 3d
       0.007954586 -0.09057785 -0.12740268 0.11703634
000160 4f fb 16 bd 73 6b ab bc cc 2a c6 bd 0b 86 de bd
       -0.03686076 -0.02092526 -0.096761316 -0.108654104
000170 7a 18 a9 3e 4a 33 52 bd 36 da 04 b8 70 f6 e2 be
       0.33026487 -0.051318444 -3.1674477e-05 -0.44328642
000180 47 38 44 3d 13 bf 1d be d6 ac 45 ba f4 8c 42 3e
       0.047905233 -0.1540492 -0.0007540708 0.18999082
000190 1c 4a 09 be 54 04 a0 be 37 ec e1 bd 86 40 98 3d
       -0.13407177 -0.31253302 -0.110313825 0.07434182
0001a0 ad a5 89 3e d8 c4 ea 3b ce 02 88 3e 02 5d 76 bd
       0.26884213 0.007164579 0.2656464 -0.060147293
0001b0 0c f2 9a be 4c 2b 8d 3e 05 21 13 3e e1 f7 34 3e
       -0.30262792 0.27572095 0.14368065 0.17672683
0001c0 b3 56 a0 3c f5 96 40 3e 3b cb 76 3e f8 68 99 bd
       0.019572591 0.18807586 0.24100964 -0.07490724
0001d0 d5 76 0d bd 1a d7 9b 3e a1 02 98 be a2 70 bf 3c
       -0.034537155 0.30437547 -0.29689506 0.023369137
0001e0 d6 df 85 bd b4 10 4c be 4c c4 b7 3c 9a b3 89 3c
       -0.06536834 -0.19928247 0.022432469 0.016809274
0001f0 12 bb 54 be a3 33 95 bd 67 51 af bc 86 05 55 3e
       -0.20774487 -0.072852395 -0.02140112 0.20802888
000200 94 a9 d0 bd 36 a0 33 3e 10 81 86 3d ee 24 c6 3c
       -0.101885945 0.17541584 0.065675855 0.024187531
000210 1c 8b 8b 3d 60 9f c3 bd fb 31 c1 bd 27 ef f1 bd
       0.068136424 -0.09551883 -0.09433361 -0.11813193
000220 8c 02 7d be 1c 94 ee bd 42 de 3f bd 21 0a 80 bd
       -0.24708003 -0.11649343 -0.04684282 -0.06251932
000230 21 fc b2 bd 08 f3 a3 bd 14 43 12 3d 29 86 09 be
       -0.08739496 -0.08005339 0.035708502 -0.13430084
000240 1f 85 6b bd 6e 92 a3 bd 20 1f a0 3c de 6d 77 bd
       -0.0575 -0.079869136 0.019546092 -0.060407512
000250 66 be 65 be 46 e2 aa bd 57 eb c6 bd 8f d8 06 be
       -0.22435912 -0.083439395 -0.09712856 -0.13168548
000260 fb 1c 6d 3d b3 44 c6 3c 5d 68 73 bd b8 b1 15 bd
       0.057888966 0.02420268 -0.0594257 -0.03654644
000270 3e 04 12 3e 20 ea 1b 3d ed 71 4c be 06 c9 46 3e
       0.14259431 0.038065076 -0.19965334 0.19412622
000280 98 7c 8a bd 20 58 1c 3d c5 0a 41 bd 8e 5e bb bd
       -0.067620456 0.03816998 -0.04712941 -0.09148894
000290 e6 21 29 bd f7 cb fe 3d c9 40 08 3d c0 50 2d 3d
       -0.041292094 0.12441247 0.03326491 0.042313337
0002a0 f4 45 63 3d 8c 30 66 bc ae a8 9d 3d 2d de 96 3d
       0.055486634 -0.01404966 0.07698189 0.073665954
0002b0 f9 eb 47 3e a9 4d 16 be 8c b2 7b 3e eb 57 6b be
       0.1952361 -0.14678062 0.24579829 -0.22982757
0002c0 37 af 04 be 88 c7 9d 3d b0 c4 b4 be cd 6c 2a be
       -0.12957464 0.07704073 -0.3530631 -0.16643067
0002d0 92 42 15 be fe 5c 7b 3c e6 10 97 bd 39 07 1e be
       -0.14576176 0.015341995 -0.0737627 -0.15432443
0002e0 6e fd fd 3c c6 81 5d bc c7 83 94 be 2a 9d e4 3d
       0.031004634 -0.01351971 -0.29006788 0.11162789
0002f0 fe 99 fc 3d a8 69 85 3c be 00 9f bd 38 4c af bd
       0.12334059 0.016285732 -0.077638134 -0.085594594
000300 c4 d4 23 3e 08 f6 89 3e 0d ad f9 bd b7 00 40 be
       0.15999132 0.2694552 -0.1219121 -0.18750273
000310 bf 8d 39 3d c5 7a 92 bd 65 24 a5 3d 80 27 87 be
       0.045301195 -0.07152323 0.08063582 -0.26397324
000320 c0 22 82 be f2 2b 91 3d 26 59 c5 bc a0 ab 0c 3d
       -0.25417137 0.0708846 -0.02409036 0.03434336
000330 15 4c 84 bd dc 8f 4d 3e 85 36 b1 3d c7 77 2e be
       -0.06459824 0.20074409 0.08652977 -0.17037879
000340 50 6a a1 3d 26 ae a5 be 7a 1a 04 3e 01 e9 41 3a
       0.078816056 -0.32359427 0.12900725 0.0007397086
000350 94 27 bd 3d fd 72 08 bd 49 21 fb 3b c7 8f 4b bd
       0.092360646 -0.033312786 0.00766388 -0.049697664
000360 c6 59 e5 3d 30 8d fe bd 6a e6 8a bd 60 a6 d4 bd
       0.111987635 -0.12429273 -0.06782229 -0.10383296
000370 4a 2d e8 bd ac 71 ee bc fb be bd 3d f1 0b 32 bd
       -0.11336763 -0.029106937 0.09264942 -0.04346842
000380 43 67 56 3e 79 e5 78 bd b3 86 85 bd 87 e8 5e bd
       0.20937829 -0.060765717 -0.065198325 -0.054420974
000390 46 7f ab bd 07 f5 3e be 6d 4e 18 be 61 89 01 be
       -0.08373885 -0.18648158 -0.14873667 -0.12650062
0003a0 be a3 dc ba 52 5b 0f 3e 32 2a eb 3d e2 82 5d 3e
       -0.0016833467 0.1399968 0.114826575 0.21631959
0003b0 95 f8 9d 3d 13 3a 3e bb 63 5c 21 bd 4e ab cc 3d
       0.07713429 -0.0029026314 -0.039394747 0.09993611
0003c0 66 f5 ed bd 62 9f 1e 3e 85 e0 4b 3e 6f 87 92 3a
       -0.11619072 0.15490487 0.19909866 0.0011179278
0003d0 fb ac 66 3e 96 14 37 be 39 c3 95 3e e2 35 42 bc
       0.22526924 -0.17878947 0.29250506 -0.011853667
0003e0 84 58 3b 3e 84 cd 33 bd 95 57 60 3d ad a6 02 3d
       0.18295485 -0.043897167 0.054771025 0.031897236
0003f0 cc 11 69 ba 22 48 76 3d 4d 90 ff bd 54 26 52 3e
       -0.00088908966 0.060127385 -0.12478695 0.20522434

2.bias f4 [30]
000000 7d b9 b4 3d 81 3f 98 be 33 c8 8e be c1 56 dc 3e
       0.088244416 -0.2973595 -0.27887115 0.43034938
000010 d7 35 dc 3d e7 5b 2f 3e 43 1a 0c 3c d5 9c 2c be
       0.10752457 0.17124902 0.008551183 -0.16856702
000020 35 77 ba 3c 79 38 9a 3e 3c 77 7d bd a3 3a 7b 3e
       0.02276192 0.3012121 -0.06188129 0.24534087
000030 47 2e 7d 3d da 4e 55 3e 90 ed 91 3e 32 45 c8 3d
       0.06181171 0.2083086 0.28501558 0.09778823
000040 bb 69 18 be e5 02 c1 bd 44 84 dc be d7 b1 93 3d
       -0.14884083 -0.0942438 -0.4306966 0.07211655
000050 c0 8e 0c 3e 6b c8 92 be a0 fb 69 3e 60 16 bb be
       0.1372633 -0.28668532 0.22849894 -0.36540508
000060 b8 42 61 be ff fc 70 be 1d dc 8f be b7 7a 35 3c
       -0.21998107 -0.2353401 -0.2809762 0.011076621
000070 bc 71 71 be 9b 29 69 3d
       -0.23578542 0.056924444

4.weight f4 [5, 30]
000000 2f 97 47 be 37 38 15 3d b8 1e 28 3d a0 24 a6 bd
       -0.19491266 0.036430564 0.04104492 -0.081124544
000010 8d a2 89 3e 68 f9 66 3d 29 55 04 be 5c aa 2a be
       0.2688183 0.056390196 -0.12923111 -0.1666655
000020 28 04 a2 bd 13 5e 15 be 1f c7 5b 3e c2 7f 0a 3d
       -0.07910949 -0.14586668 0.21462677 0.033813246
000030 9b 8f c8 3d ce 5c 0a 3e 43 77 d3 bd aa c7 04 3d
       0.097930156 0.13511965 -0.10325482 0.032416977
000040 d5 15 19 3e a0 42 1b bc ee dd 92 3e c7 cc 72 be
       0.14949735 -0.009476334 0.28684944 -0.23710929
000050 2f 01 5e 3e 6e 25 1c bd 8b af 67 be 1a 7d 6e bd
       0.21680139 -0.038121633 -0.22625558 -0.058224775
000060 9a d0 fc 3d 25 19 49 3d 3a 14 ba 3d 40 14 20 bd
       0.12344475 0.049096245 0.09085889 -0.039081812
000070 1d 0e f2 3a 66 e2 73 bd 10 f4 b1 bb 91 f3 8a 3e
       0.0018467341 -0.059542082 -0.005430706 0.2713895
000080 d3 ed 5e 3e 44 cb e0 3e aa 60 3e be 7f 6a 2d 3e
       0.2177041 0.4390508 -0.18591562 0.16935156
000090 4e e4 09 be 5c 8c c7 bd 87 e5 b9 be 60 0d 89 bd
       -0.13465998 -0.09743568 -0.36307928 -0.06692004
0000a0 b2 83 9b be 28 b8 c2 3e ce 83 ae bc 66 70 39 be
       -0.30373913 0.38031125 -0.021303084 -0.18109283
0000b0 cc 22 29 be dc f0 7e bd 47 2c 84 be 93 d6 52 3e
       -0.1651718 -0.06224142 -0.2581503 0.20589666
0000c0 92 70 ab be df 43 93 3e 62 b3 d8 be 51 bf c9 be
       -0.33484322 0.2876272 -0.42324358 -0.39403775
0000d0 3b c4 6a bd 63 ce ca 3e b0 68 0c 3d ec b1 a0 be
       -0.057316046 0.39610586 0.034279525 -0.31385744
0000e0 5a 79 ae be 64 6d 19 3d 3f ae c5 be 7b e7 ef bd
       -0.3407696 0.03745784 -0.38609502 -0.11714073
0000f0 0d ec 91 3d 59 23 db bd d5 58 56 be b8 d0 3d bd
       0.07125101 -0.107001014 -0.20932324 -0.046341628
000100 01 52 ca 3c 69 ad 4c be 9b 37 c4 bd c2 70 fd 3d
       0.024697306 -0.19988026 -0.095809184 0.123750225
000110 68 7e 55 be b5 09 3d 3e b3 83 90 bd d6 20 cb bd
       -0.20849001 0.18460734 -0.0705637 -0.09918372
000120 fc 67 b0 be d8 87 08 3e 18 2f 89 3e 52 ff 91 bd
       -0.34454334 0.1333307 0.26793742 -0.071287766
000130 10 bb 53 3e 66 16 86 3d b2 5e b1 3d 75 79 04 3d
       0.20676827 0.06547241 0.0866064 0.032342393
000140 39 9e 42 be af 45 b7 bd 79 e5 ba be 0b e8 2c be
       -0.1900567 -0.08948838 -0.365032 -0.16885392
000150 19 63 68 3b 1d 4e 45 be 4f 8d 8e 3c 01 85 a7 be
       0.0035459457 -0.19268079 0.017401366 -0.3271866
000160 ab 65 5b bd cd b3 09 3e 93 78 3a bd b8 be 04 be
       -0.053563755 0.13447495 -0.045525145 -0.12963378
000170 81 b1 b8 be 43 30 3c 3e 4c 36 32 3e a2 2a d4 3e
       -0.36072925 0.18377785 0.17403525 0.41438776
000180 69 15 b4 be 3d cf 9f be 1b 78 5a be b5 0d 8e 3e
       -0.35172585 -0.31212798 -0.21334879 0.27744833
000190 ae cd f7 3e 99 2b 94 3e e0 6b cc be b8 11 d7 be
       0.4839911 0.28939512 -0.39926052 -0.42005706
0001a0 7a 18 cc be 37 18 66 3e 29 1c e4 bc 05 24 bd be
       -0.39862424 0.22470175 -0.027845459 -0.36941543
0001b0 0d cf 81 be 4e 1f 0d 3d c3 59 ca be 39 3d e6 3d
       -0.2535328 0.034453683 -0.39521608 0.11242146
0001c0 19 68 cb be a4 e5 ce be 5e 83 81 3e 63 0b 2c 3e
       -0.39727858 -0.40409577 0.25295538 0.16801219
0001d0 75 de b0 3d 2a a6 89 be 07 38 c4 3e 91 4d 91 3e
       0.0863618 -0.26884586 0.38323995 0.2837949
0001e0 6b 9f f2 bd fa 7e 63 be b5 7f 32 be ba a6 ac bc
       -0.11846813 -0.22216406 -0.17431529 -0.021075595
0001f0 3a 2a 4f be e5 c3 04 be cc 21 46 bd a8 cb 3e 3e
       -0.20230952 -0.12965353 -0.048372075 0.18632376
000200 b8 c6 69 3e 0c 95 1e 3e 24 2e 7a 3d e2 37 05 be
       0.22829711 0.15486544 0.06107916 -0.13009599
000210 fe 00 f8 3d c9 a5 bf bd d4 20 0d bd 04 e6 63 bd
       0.12109564 -0.09357793 -0.034455135 -0.055639282
000220 9a d8 1a bd 05 4b 76 be b9 45 35 3e b2 ce 23 3e
       -0.037804224 -0.24052055 0.17702378 0.15996817
000230 1b e3 ac 3c 37 81 be 3d 80 d6 ce ba d6 e4 07 be
       0.021104386 0.093019895 -0.0015780479 -0.13270888
000240 7e 9d 0c bd 66 7d 62 3e 6b 21 04 3e 9c 4d 2d be
       -0.034329884 0.22118148 0.12903373 -0.16924137
000250 af 7e 1c bd 08 da c8 3d
       -0.038206752 0.09807211

4.bias f4 [5]
000000 10 59 5c bd 6d c5 7b 3e 62 4e 07 bd 7a c9 3b bd
       -0.053795874 0.2458703 -0.033033736 -0.04584644
000010 73 ae 58 be
       -0.21160297

0.weight f4 [30, 2]
000000 b8 68 15 bf 92 63 4c 3e 79 d6 09 3d d4 2d 47 3f
       -0.58362913 0.19959858 0.033651803 0.77804303
000010 20 40 b1 be f1 8a 83 3e 00 bd fb 3e e3 84 21 3f
       -0.34619236 0.2569194 0.49167633 0.63093394
000020 44 79 88 3e 7c ef ed 3e ac 0c 9e 3e df 08 61 bf
       0.26655018 0.46471775 0.30869043 -0.8790416
000030 12 46 6b 3e d5 08 d2 be 2e ac a0 3e 37 1c 7a 3f
       0.22975948 -0.41022363 0.31381363 0.976993
000040 40 e7 db bd 4f b0 77 3f db 68 a5 be 9d 92 5b 3f
       -0.10737467 0.967534 -0.3230656 0.8577059
000050 c4 66 3f 3f 45 bd 94 be 43 45 23 bf 15 fb 5d bd
       0.7476618 -0.2905065 -0.6377756 -0.05419453
000060 52 c7 aa be 3e 52 a4 3d bf 8c 07 bf 85 7c 13 3e
       -0.33355194 0.08023499 -0.52949136 0.14402969
000070 f3 af cd be 3d 81 a5 be 82 b4 1c bf c7 d2 91 be
       -0.401733 -0.32325163 -0.61212933 -0.28481123
000080 cc 76 42 bf c2 b7 fa be ee 0c 01 be 53 81 35 3f
       -0.7596252 -0.4896832 -0.12602589 0.7090046
000090 50 26 57 3f 0e 98 37 bf bb 7c a3 3e d3 e6 20 bf
       0.84042835 -0.7171639 0.319311 -0.6285221
0000a0 41 66 21 bf 56 b1 86 3d a3 31 10 be 34 11 5c bf
       -0.6304665 0.06576793 -0.14081435 -0.8596375
0000b0 8e fa c7 be 12 12 50 bf fb 09 d3 3e 09 19 21 3f
       -0.39058346 -0.81277573 0.41218552 0.62928826
0000c0 e0 f3 1f be 39 ce 29 bf 4b 2c 51 bf 8b 47 31 bf
       -0.15620375 -0.66330296 -0.8170821 -0.6924979
0000d0 d1 02 33 be 9b fa 29 3f fc a6 dc 3c 20 9a de be
       -0.17481543 0.6639802 0.026935093 -0.43476963
0000e0 c0 65 5a 3f 7b c3 17 bf e3 34 59 bf 15 19 9f 3e
       0.8531151 -0.59282655 -0.84846324 0.31073824

0.bias f4 [30]
000000 a4 7b d4 be 55 82 e4 3c 48 d9 33 3f e7 36 67 be
       -0.4150058 0.027894178 0.7025342 -0.22579537
000010 61 e6 90 be 21 a0 92 bc 65 47 3d bf c3 04 3f 3f
       -0.28300765 -0.017898621 -0.73937064 0.7461664
000020 13 4b 66 bd 62 7f d2 3e d0 be 09 bf f3 0e 4c bf
       -0.05622394 0.4111281 -0.5380678 -0.7971031
000030 0c 66 81 3e 37 74 0d 3e 45 c6 39 3f 7d 7c 24 3f
       0.25273168 0.13813864 0.7256816 0.64252454
000040 8e e5 8d 3b ef bc 89 be 62 81 c0 3e 69 cd 94 be
       0.0043303436 -0.26901957 0.3759871 -0.29062966
000050 df 23 14 be 5a f8 36 bf e3 45 fb be 41 aa 90 3e
       -0.14466809 -0.71472704 -0.49076757 0.28254893
000060 4b 6e 18 bf 64 5b 26 3f f3 d8 b1 3e 1f f8 0e 3d
       -0.59543294 0.649832 0.34735832 0.034904595
000070 fa 76 21 3f 0a a4 0a bf
       0.6307217 -0.54156554

2.weight f4 [30, 30]
000000 94 ee b9 3d 90 74 20 bd 6d 87 88 3d 65 12 b0 be
       0.09078708 -0.039173663 0.066664554 -0.34389034
000010 94 75 87 bc 29 1a 29 3d 60 a8 b9 3a d6 e1 54 3e
       -0.016535558 0.041284714 0.001416456 0.20789275
000020 82 4d 42 be 30 0e 8d bd 7b 72 c5 bd 47 5b d8 3e
       -0.1897488 -0.06887472 -0.09640976 0.4225714
000030 5a 99 80 3e 21 f2 b5 3d e4 d5 08 be 27 4e 89 bd
       0.25116998 0.08884073 -0.13362843 -0.067043595
000040 bb 10 ba 3e 92 8d a1 3c cb 35 50 3e 53 5d cc bd
       0.3634089 0.019720826 0.2033302 -0.09978738
000050 a1 cf 8b 3e a3 ae bc bd 0c 17 37 3e 1d 0e db 3c
       0.27306846 -0.09212997 0.17879885 0.026740128
000060 5a 23 b7 3a 9b eb 65 bd 86 b6 10 3e f2 7c 9f bd
       0.0013972328 -0.056132894 0.14132127 -0.07787503
000070 28 76 72 3e 11 9f 2b be 10 5c d4 bd 28 14 a2 be
       0.23677886 -0.16759898 -0.10369122 -0.31656003
000080 29 e9 86 bd 6a 54 4f be 59 17 b3 be 0a b5 98 bc
       -0.065874405 -0.20247045 -0.3497875 -0.018641014
000090 74 c0 42 3e 53 ba 1a bd 90 d4 2b be d9 b2 77 be
       0.19018728 -0.03777535 -0.16780305 -0.24189319
0000a0 5a 6b d1 bd b8 3b 9f 3d 77 61 4c 3e c1 a4 57 bd
       -0.10225554 0.07775062 0.19959055 -0.052647356
0000b0 fd c3 32 3e 77 f3 ba 3d 8d e8 4a 3e f5 fd 37 bd
       0.17457576 0.091284685 0.19815274 -0.044919927
0000c0 5c 0f 3e 3e 78 78 06 3e 91 f1 8b bc 83 28 94 3e
       0.18560547 0.13131893 -0.017082961 0.28937158
0000d0 24 ee 59 3e 0e 95 85 be a9 09 68 3d 3a 14 7c 3e
       0.2128225 -0.26090282 0.056649838 0.24617091
0000e0 44 d2 dc bc 39 de 41 3e 32 b8 5f 3e 3b a1 7e bd
       -0.026955731 0.18932427 0.21847609 -0.06216548
0000f0 6c 69 b1 3d 72 22 c4 bd 06 f7 d4 bd 8a 25 d4 bd
       0.08662686 -0.095768824 -0.103986785 -0.103587225
000100 46 93 77 be 7a d4 10 be b9 7a 10 be 7c 93 ab bd
       -0.24177274 -0.14143553 -0.14109315 -0.0837774
000110 01 33 f0 3c f6 f1 48 bd d4 6c 99 3c 55 27 0b bb
       0.029321196 -0.049058877 0.018728651 -0.002123316
000120 dc e6 38 be 10 83 38 3c 8d 23 4b 3e 10 99 ee bd
       -0.18056816 0.0112617165 0.1983778 -0.11650288
000130 f7 5b c0 bd cd bb be 3d ce 1c 3f 3e 19 34 b3 3b
       -0.09392541 0.09313164 0.18663332 0.005468857
000140 bd 14 41 3d 06 2e ae bd 26 02 c5 bd cf 34 3c 3e
       0.04713892 -0.08504872 -0.096195504 0.1837952
000150 a5 68 15 3c b6 63 9b 3e 52 26 36 bc 90 ba 02 bd
       0.0091191875 0.3034951 -0.011117535 -0.0319162
000160 a7 41 18 3e ee 90 3b 3e 4d be 5f 3d e9 4a 6f be
       0.14868794 0.18317005 0.054624844 -0.2336842
000170 53 b7 1a bd e8 d3 6a be c2 1d b9 3d dc 20 3d 3e
       -0.037772488 -0.22932398 0.09038879 0.18469566
000180 20 1c 44 bc 35 4f ba 3e 1c 16 09 be 9b 7b 6e be
       -0.011969596 0.36388555 -0.1338734 -0.23289339
000190 97 57 e3 3d 07 17 90 3e f1 95 b1 bc 6a 78 1c 3e
       0.11100691 0.28142568 -0.021677943 0.1528031
0001a0 7d 71 6c bc f5 fe 03 3d be 50 86 bd 1c df 37 be
       -0.014431355 0.032225568 -0.06558369 -0.17956203
0001b0 89 91 27 bd 7c 84 4a 3e 62 40 45 3e cf 3b 89 be
       -0.040910278 0.19777101 0.19262841 -0.26803443
0001c0 d9 f9 80 bd db ca 85 3d 2d 26 e1 bd 6e 1c ad 3c
       -0.06297655 0.06532832 -0.109936096 0.02113172
0001d0 c5 32 a3 bd 49 00 f0 3d 6b 5d 50 3e 0b 73 d5 bc
       -0.07968668 0.117188044 0.20348136 -0.026055833
0001e0 92 b7 fe 3d 79 eb 53 3e 6f 1c 4c 3c e1 b6 60 3e
       0.12437357 0.20695294 0.012457951 0.21944763
0001f0 eb fe 1f 3e 4f 3d 8c bc ad f0 c0 3d c0 6b 53 3e
       0.15624587 -0.017119078 0.09420905 0.20646572
000200 df 5d 12 3e 94 34 ab bd ef ed dd 3d 31 8d 5e 3e
       0.14293621 -0.08359638 0.10836398 0.21733548
000210 28 a9 b1 bb 02 73 42 3e 58 e9 97 bd fa 0c 79 be
       -0.0054217763 0.18989184 -0.07417554 -0.24321356
000220 26 fa 4b be 65 07 81 3c b1 37 39 be 71 fa 88 3d
       -0.19919643 0.015750596 -0.18087651 0.06688393
000230 b1 ec 35 3e b5 2e 07 bc 46 26 33 3d e0 30 8d 3d
       0.17766072 -0.008250882 0.043737672 0.06894088
000240 33 f2 b7 bd ac 74 b5 bd 3b c3 c4 bc 20 c5 2c be
       -0.08981743 -0.08860144 -0.024018874 -0.16872072
000250 f1 d4 ae bc 50 42 09 3e 86 1d b5 bd 2c c5 7f bc
       -0.021341773 0.13404202 -0.08843522 -0.015610974
000260 aa 23 01 3e b3 39 75 bd 1f fa 90 3d 8b bb 77 3d
       0.12611261 -0.05986948 0.07078957 0.06048159
000270 47 13 36 3e 66 26 b4 3d db e5 cc 3d 10 d1 62 bd
       0.17780791 0.087963864 0.10004779 -0.05537516
000280 ef f6 60 be fc d0 91 3c 86 b3 fe 3d 63 97 0c 3e
       -0.21969198 0.017799847 0.12436585 0.13729624
000290 da a9 ce bd 71 1b 25 3e d7 37 0d 3e 35 23 99 bc
       -0.1009099 0.1612375 0.13790832 -0.018693546
0002a0 60 ed b2 3c 95 ea 8f bc c2 d7 43 3e fc e3 f3 3c
       0.021841705 -0.017567912 0.19125274 0.029771797
0002b0 9c 1a 2c 3e d9 ce 6e be 3f 77 78 bd 01 c4 af 3c
       0.16807026 -0.23321094 -0.060660597 0.021455767
0002c0 81 91 02 3e 5a 38 c5 3d 54 7c 98 3d c0 05 85 be
       0.12750818 0.09629889 0.07445589 -0.2598095
0002d0 38 9a 36 be ac 14 22 be e7 8b a3 be 39 5f 22 3d
       -0.17832267 -0.15828198 -0.31942675 0.039641593
0002e0 22 25 2d be b8 40 87 3e 20 dd 74 bd 16 4d ab 3d
       -0.16908696 0.26416564 -0.059781194 0.08364312
0002f0 93 e4 10 3d ee 9c 73 be 5a 40 b4 3e de 7f a4 bd
       0.035374235 -0.23790333 0.35205346 -0.08032201
000300 3c b1 17 be 81 bb 1b bd 83 d6 fc bd 82 40 48 be
       -0.14813703 -0.038020615 -0.12345602 -0.19555858
000310 40 f4 e6 3d 91 d8 a6 bd 94 2d 29 3e f3 49 89 3e
       0.11277056 -0.081467755 0.16521293 0.2681423
000320 e4 c5 87 be 24 45 a2 bc 33 db c1 3d 7d 92 c3 3d
       -0.26518166 -0.01980836 0.09465637 0.09549425
000330 84 d7 03 be 28 68 3f 3c 71 74 70 be bc 44 c8 3c
       -0.12875181 0.011682548 -0.23481919 0.024446838
000340 9e bd 92 3e 53 f6 53 be 21 44 0e be d3 92 6d 3d
       0.2866029 -0.20699434 -0.13893177 0.05800135
000350 d2 07 94 bd fa 6f 9b bc 19 a4 2d bd e3 56 8c be
       -0.07228054 -0.018974293 -0.042392824 -0.2741004
000360 fd 3e 05 3e 39 65 6a be b2 b8 e0 3d 89 85 0f 3d
       0.1301231 -0.22890176 0.10972728 0.03503946
000370 74 38 9a bd 23 ed 4f be e4 6f 9f be 50 16 23 be
       -0.07530299 -0.20305304 -0.31140053 -0.1592648
000380 6d eb 0d be 5e 78 a2 be 2c 5f 91 be ec ea 54 3e
       -0.13859339 -0.31732458 -0.28392923 0.2079274
000390 91 2e 60 bd 98 77 0d be 40 ac 2c be a4 ca 4e 3e
       -0.05473191 -0.13815153 -0.16862583 0.20194489
0003a0 44 55 05 bd 87 3d 25 be 6f ca b1 bd 55 f1 2b be
       -0.03255202 -0.16136752 -0.08681189 -0.1679128
0003b0 c2 8b 1c 3d af 2a 35 be 61 57 f9 3d c0 d6 5f be
       0.03821922 -0.17692064 0.12174869 -0.21859264
0003c0 3e 0d 84 3e 09 4c 14 be bc 84 45 bc a6 7a 88 3d
       0.25791353 -0.1448213 -0.012055572 0.06664018
0003d0 0b 03 c9 3c 1f d6 85 3e c2 6f 15 be 83 bf d0 3d
       0.024537584 0.26139924 -0.14593413 0.10192778
0003e0 77 7b 6b be 17 47 f4 bc a0 3b a2 3d ac 1a cd 3e
       -0.22996317 -0.029819055 0.07921529 0.40059412
0003f0 b2 f0 07 3e f7 3e 6c bd 7d 17 dd 3d 6d cd 1a 3d
       0.13275412 -0.057677235 0.10795496 0.037793566

2.bias f4 [30]
000000 0c 6d 2c be 2f bf cf 3d 5b bc 55 3e 7b 55 95 be
       -0.16838473 0.10143887 0.20872633 -0.2916678
000010 7c 8d 81 be 6f 12 4b bc d7 55 10 3d 7f b4 53 be
       -0.25303257 -0.012394532 0.035238113 -0.20674323
000020 0e d8 59 be e7 dd 9b be aa 9c 5c 3e db e7 1e 3e
       -0.21273825 -0.30442736 0.21544138 0.15518133
000030 71 7b 93 bd 56 e8 79 3e 24 a5 91 be 80 0a 53 3e
       -0.07201279 0.24405035 -0.28446305 0.20609474
000040 f5 a0 c3 3d 5b c1 3b be ea 9d 58 3d c7 60 04 3e
       0.095521845 -0.18335478 0.052884974 0.12927543
000050 94 98 4f be 61 24 d1 be 62 c7 96 bd 56 e0 29 3e
       -0.20273048 -0.40848067 -0.07362248 0.16589484
000060 33 ca 34 bb a4 03 62 bd 43 9c 82 bd db dd 9c bd
       -0.002758634 -0.055179253 -0.06377461 -0.07659503
000070 05 6b 9e 3d 79 72 8f 3e
       0.07735256 0.28017023

4.weight f4 [5, 30]
000000 b6 a8 50 bd b7 2e 4e be d2 8c 8e bc ea 37 78 be
       -0.050942145 -0.20135008 -0.017401133 -0.2424008
000010 39 8f 2d 3e 6a 7f c7 bc d4 18 26 be cd 8a 87 3e
       0.16949166 -0.024352748 -0.16220409 0.26473084
000020 98 eb 11 bd b6 f6 ad be 84 f9 0a be 91 32 16 be
       -0.03562507 -0.33977288 -0.13571745 -0.14667727
000030 4a 21 58 3d 55 cf 77 3e 0a 6a 90 be fd 84 84 be
       0.052766122 0.24200185 -0.282059 -0.25882712
000040 10 4e 89 3d 7c 98 20 be cf fc a2 3c 20 e9 73 bd
       0.06704342 -0.15683168 0.01989594 -0.059548497
000050 6c 28 a0 bd 68 12 d1 3d 4d 5e 6c 3e e7 ad 02 3e
       -0.0782021 0.10208589 0.23082848 0.12761651
000060 b2 d1 fd 3c b6 6b 40 bd aa 9f 7e 3c 33 c4 b2 bd
       0.03098378 -0.04697772 0.015540997 -0.08728828
000070 93 0b 10 3e a4 e0 ae 3d 22 b5 b4 be e6 f4 2e be
       0.14066915 0.085389405 -0.35294443 -0.17085609
000080 00 30 ac 3d 1b 97 49 be 48 fb ac 3d 69 9a 8a 3b
       0.08407593 -0.19686548 0.084463656 0.004229833
000090 ef 7e 89 3d 1b c6 fe bd 8c 08 c2 bd 3e 46 e5 be
       0.06713664 -0.12440129 -0.094742864 -0.44780153
0000a0 e7 2a 9a be 88 01 43 3e 79 e8 a4 be de fc ef bc
       -0.30110857 0.19043553 -0.32208613 -0.029295381
0000b0 4a bc 9e bc ef 14 2c be a2 fc 52 bc bd 84 a7 be
       -0.019376893 -0.1680486 -0.012877615 -0.3271846
0000c0 28 f2 ee bd b5 95 a9 bd d8 ca 81 3e e6 97 f0 3e
       -0.116672814 -0.082805075 0.2535007 0.4699089
0000d0 d3 d5 7c 3e 33 7d 88 3d d9 56 ec 3d 15 69 0c be
       0.24690942 0.06664505 0.115400024 -0.1371196
0000e0 20 89 df 3d 77 1f a7 bd 1b 0d 4c 3e da 3d da be
       0.109148264 -0.08160298 0.19926874 -0.42625314
0000f0 9c 5d 4c be d8 3d 8a be 57 00 8f 3e 27 12 4b 3e
       -0.19957584 -0.27000308 0.27929947 0.19831143
000100 4f 6a bb 3e 4c 61 c8 be 3c 5f f1 3e 2a 25 aa be
       0.36604545 -0.39136732 0.4714297 -0.3323148
000110 a3 59 c1 bd e4 a3 5c be d1 43 fe 3d 40 6d ff be
       -0.09440925 -0.21546894 0.12415279 -0.4988804
000120 67 c3 d2 be f0 b8 57 3e d1 ea 39 3e a5 72 d6 3e
       -0.41164705 0.21066642 0.18155982 0.41884342
000130 b1 c3 db 3d 87 a0 3a 3e 33 da 70 be 29 ca a5 be
       0.107306845 0.18225299 -0.23520736 -0.32380798
000140 d7 09 52 3e 6a b6 87 bd 6e bc c9 3d a7 4a b3 be
       0.20511566 -0.066265896 0.09850393 -0.35017893
000150 12 5d 85 be 7e 40 22 3e 65 fa d2 bd 2a d3 5c 3e
       -0.2604757 0.15844914 -0.10301665 0.21564928
000160 00 98 1c 3e ca 18 96 3e 1c 7d 01 3e 39 d3 9e 3d
       0.15292358 0.29315788 0.12645382 0.07755131
000170 49 88 00 3e d4 6a 14 3e 73 d0 bf 3e 2f 20 7d be
       0.12551989 0.14493877 0.37463722 -0.24719308
000180 9e 7f 5c be e5 86 45 bd 88 b7 ac 3c 6d 4f af 3e
       -0.21533057 -0.04822435 0.021083608 0.34240285
000190 6d bd f4 3e 23 b7 11 3d c1 01 32 be 7b 85 8d bd
       0.4780077 0.035575043 -0.17383482 -0.06910225
0001a0 5a fd 41 3e 2f 0e a0 3e 5e f3 ab be 33 80 50 3e
       0.18944302 0.3126082 -0.33584112 0.20361404
0001b0 d3 3a fd be a5 c3 71 be 26 47 6a 3e ef 24 8e be
       -0.49458942 -0.23609789 0.22878703 -0.27762553
0001c0 65 87 9a 3e 76 ad 7e be 32 fc ff 3b f2 f7 09 3e
       0.30181423 -0.24870858 0.0078120464 0.1347349
0001d0 64 f8 9e 3e c3 c8 48 3e ef 1d 07 3e 40 19 7a bd
       0.31048882 0.19607835 0.13195013 -0.061059237
0001e0 8f 91 46 be dc b6 7c be 48 1b 26 3e 45 41 45 be
       -0.19391464 -0.2467913 0.16221344 -0.1926318
0001f0 57 02 86 bd 19 0e 31 be dc e6 1a bd 37 af 80 3d
       -0.06543415 -0.17290534 -0.03781782 0.062834196
000200 eb 12 99 be d1 7d 58 be 8b 0c d5 be bb 72 18 be
       -0.29897246 -0.21141745 -0.41611132 -0.14887516
000210 24 6e ef bd 45 9d 11 3e be a2 af be f6 f5 55 be
       -0.116909295 0.1422015 -0.3430385 -0.20894608
000220 e9 30 93 3e 1c 11 a5 be fe 63 d2 3e be b0 ac 3e
       0.28748253 -0.32239616 0.41091913 0.33728594
000230 44 b0 90 be 8d f1 32 3e b0 51 35 3d 88 4a ad 3e
       -0.2825948 0.17474957 0.044267356 0.33845925
000240 06 ed 24 3e 3e 2f a6 be 07 a7 65 be 19 39 a9 be
       0.16106042 -0.32457918 -0.22426997 -0.33051375
000250 8a 35 d1 bd 6d df 1b bd
       -0.1021529 -0.038054872

4.bias f4 [5]
000000 53 b2 62 3e 83 95 9f 3e 94 2d f0 bc 0f 30 6d be
       0.22138338 0.31168756 -0.029318608 -0.23162864
000010 b3 63 f8 bc
       -0.030320978

0.weight f4 [30, 2]
000000 86 0b 65 be 03 66 50 3f f6 68 c8 3d fd 65 8f be
       -0.22367677 0.8140566 0.09785645 -0.28007498
000010 4c 45 f0 bd 65 d8 24 bf 58 73 c3 be 9e 50 0a 3f
       -0.11731967 -0.6439269 -0.38173938 0.5402926
000020 5a 4e bf 3e ba 41 17 3f cf 21 28 3e d3 fd b0 be
       0.37364465 0.59084666 0.16419147 -0.34568653
000030 4e 00 4d be b2 89 58 3f 11 b2 02 bf a6 24 77 3e
       -0.20019647 0.84585106 -0.5105296 0.24135074
000040 6b a2 c4 bd 50 79 4d 3f 97 ec 06 3f 60 08 12 be
       -0.09601291 0.80263233 0.5270476 -0.14261007
000050 b2 fc 17 bf 46 05 63 3e 24 b1 38 bf 88 eb 7d bd
       -0.5936996 0.2216998 -0.72145295 -0.0619922
000060 bd fb 25 3d e1 4c ee 3e 65 ab 8b bd bc c7 23 bf
       0.04052328 0.4654303 -0.068198 -0.63976645
000070 6a e6 23 bf c9 74 31 bf 94 77 05 bc c0 2c 05 bf
       -0.6402346 -0.69318825 -0.008146185 -0.5202141
000080 99 49 1a 3e f4 a8 9f be c5 23 7c be 72 21 1c 3f
       0.15067138 -0.31183589 -0.2462302 0.60988533
000090 03 a7 20 3f b9 6e 15 3f fb d2 37 3f 0f 67 22 bf
       0.6275484 0.58372074 0.71806306 -0.63438505
0000a0 a3 85 5e be 00 4a 2c bf 4d aa 90 3e 25 b2 15 3f
       -0.21730666 -0.67300415 0.2825493 0.5847495
0000b0 65 c4 9d 3e 27 bb 33 bf 44 dc f9 be b0 aa 3d 3f
       0.308139 -0.70207447 -0.48800862 0.74088573
0000c0 9e 99 03 bf 2f fd 11 bf 87 96 7e 3e 99 22 32 bf
       -0.51406276 -0.5702695 0.24862109 -0.6958404
0000d0 53 89 f6 bd ac b7 c9 3e 16 88 d2 3e 5c e1 15 3d
       -0.12037911 0.39397943 0.4111945 0.036591873
0000e0 c2 cf 09 bf 33 48 14 3f 1d 34 22 3f 11 7b 21 bf
       -0.5383264 0.5792267 0.6336077 -0.6307841

0.bias f4 [30]
000000 dd 20 9e be 49 3d 2a bf ff ab f1 be c3 1f 37 3e
       -0.30884448 -0.66499764 -0.47201535 0.1788321
000010 4b 13 6f 3e 22 17 ab 3e 78 9c 54 bf e0 9c bf be
       0.23347203 0.33416086 -0.8305125 -0.37424374
000020 2c ad 07 3f 05 b5 54 3e d7 5d 12 bf 5c ba ec be
       0.52998614 0.20772178 -0.5717444 -0.4623593
000030 fb 7a 1f 3f fe ac 1b bf db 53 2b bf cd 30 f9 3e
       0.6229703 -0.6081084 -0.6692483 0.48670045
000040 d9 44 24 bf 50 5c 1f 3f 83 d8 21 bf 6a 48 58 be
       -0.64167553 0.6225023 -0.63220996 -0.21121374
000050 46 92 99 be fd 8c 1d 3f be 7b 19 3f 18 dd 6e 3e
       -0.2999441 0.61543256 0.5995444 0.23326528
000060 07 59 75 3e 0f 42 3f be 83 99 c8 be 5b 11 9d be
       0.23959742 -0.18677543 -0.3917962 -0.30677304
000070 53 79 ca 3e aa 4b 20 be
       0.39545688 -0.15653864
