FullOrder/ReconstructORI/Run_20251027_172757_NoPhys_NoBatch_HD30_HL2_LR0.001_checkpoint.pth (torch, 279506 bytes, 80 tensors)

0.weight f4 [30, 2]
0.2904414 0.9819075 0.07954598 1.0091125 -0.12749955 0.27155516 -0.35304058 0.50342035
0.43932295 -0.86057043 0.78678805 0.08271301 1.5356846 -0.68887025 1.2000029 -0.6770916
0.51339555 0.8690342 -0.97765154 0.39637882 -0.660679 -0.19511634 -0.014958146 0.6311177
-0.100884505 -0.738652 -0.5194275 -0.77639735 0.18154949 -1.1472124 0.70470387 -0.79503036
0.32374015 0.35933566 0.047895674 0.5863846 0.11088389 0.7576888 0.43656552 -0.4155128
0.018162377 -0.37018344 0.24651562 0.6524819 0.6299268 -0.33443516 0.7128577 0.28562826
0.41409826 -0.50080067 -1.4681712 -0.10184749 -0.7503689 0.81641775 0.11617231 0.66803867
0.09293433 0.07563409 0.18306816 -0.8142619
00000000: bcb4 943e 4a5e 7b3f 01e9 a23d 992a 813f
00000010: 3e8f 02be 4709 8b3e bcc1 b4be 28e0 003f
00000020: f0ee e03e 584e 5cbf f16a 493f 7065 a93d
00000030: 5091 c43f cd59 30bf b299 993f e055 2dbf
00000040: e46d 033f 0679 5e3f 5f47 7abf 2af2 ca3e
00000050: 4222 29bf 94cc 47be 0313 75bc ee90 213f
00000060: 899c cebd 4c18 3dbf 33f9 04bf fac1 46bf
00000070: 1ce8 393e dbd7 92bf 7967 343f 1c87 4bbf
00000080: 45c1 a53e d8fa b73e 412e 443d 4d1d 163f
00000090: 1817 e33d e5f7 413f 8485 df3e 18be d4be
000000a0: 44c9 943c af88 bdbe 976e 7c3e 0e09 273f
000000b0: e242 213f 163b abbe d87d 363f de3d 923e
000000c0: b004 d43e 7934 00bf 09ed bbbf 6b95 d0bd
000000d0: 2d18 40bf c100 513f c0eb ed3d 9504 2b3f
000000e0: 5b54 be3d 0ce6 9a3d 3876 3b3e 7873 50bf

0.bias f4 [30]
-0.10358336 -0.75648636 -0.072704695 -0.74526215 0.45405236 -0.5736444 1.0525416 -0.5094879
-0.69760424 -1.2133275 1.1099627 -0.031235764 0.8680176 -0.45240086 -1.1035174 -0.4260355
-0.83094984 0.06017724 0.052772295 0.7306953 -0.14272916 -0.5324086 0.9221621 -0.27978033
0.8532739 -0.69215816 -0.19481595 -0.62525064 -0.584322 0.5539034
00000000: 8323 d4bd 17a9 41bf 33e6 94bd 80c9 3ebf
00000010: 8d79 e83e 5cda 12bf afb9 863f cd6d 02bf
00000020: 3196 32bf 514e 9bbf 4213 8e3f 25e2 ffbc
00000030: 6736 5e3f 16a1 e7be 0f40 8dbf 5321 dabe
00000040: 21b9 54bf 697c 763d c327 583d d90e 3b3f
00000050: 9827 12be ee4b 08bf d112 6c3f 5e3f 8fbe
00000060: 2970 5a3f 4731 31bf d57d 47be 6d10 20bf
00000070: 2096 15bf 9dcc 0d3f

2.weight f4 [30, 30]
-0.03370711 0.17543188 0.026229454 0.19902185 -0.14084871 -0.10442962 0.28474277 -0.06962366
-0.24815571 -0.18740104 0.201164 -0.12949681 0.16035289 -0.2621305 0.34717074 0.018253194
-0.3214609 -0.2743352 -0.2670127 -0.15139063 0.27802536 -0.034152076 0.05367225 -0.17460926
-0.20070796 -0.09664139 -0.12244451 -0.34232265 -0.31829458 -0.17731489 0.61116326 0.22935605
0.41359407 0.06073339 -0.42773762 -0.24065475 0.04269996 -0.8740527 0.39751378 -0.06588071
0.5362815 0.45348206 -0.51885384 -0.6899146 -0.37916192 -0.5368336 -0.22838877 0.21350731
0.5211031 -0.18305033 -0.46409363 0.13376004 0.068122745 -0.172989 -0.1683541 0.15321624
0.5257049 0.43534735 -0.2885247 -0.43463236 0.4523976 0.27652562 0.23337561 0.10964756
0.06511226 0.2911144 0.13520397 0.06809548 0.5572508 0.07962634 -0.052056946 0.22096476
-0.27110246 -0.4853783 0.040452152 0.12503906 0.23474394 0.39037672 0.33792087 -0.3180821
-0.32730377 0.3092337 -0.07410649 0.33234096 -0.3267903 -0.32934234 -0.20196417 0.37561598
0.3309272 -0.41665557 0.108699575 0.15258248 0.08451356 -0.011151295 0.07215523 0.1721993
0.040154412 -0.12969771 -0.34670684 0.12517057 0.16519967 -0.029103026 0.18348114 0.07763182
-0.045010168 -0.025525423 -0.2122312 0.024273468 0.09521209 -0.014537574 -0.2178486 -0.028426044
0.089867145 0.093921565 -0.070980504 -0.21664827 -0.119100496 -0.18903577 -0.18094565 0.027383944
0.13604152 0.10320104 -0.09618938 -0.010190003 0.14458571 0.06357683 -0.4978077 -0.09438715
-0.007309717 0.3868743 -0.11322037 0.0065558036 0.0069439365 -0.031594057 -0.11755281 0.3656886
0.06210833 -0.015622846 -0.14787444 -0.3643199 -0.08706517 0.10426778 -0.17392123 -0.0066955006
-0.050765846 0.11800038 -0.22618233 -0.19025883 -0.17337802 -0.08269586 0.12933248 -0.032105103
0.0071395542 -0.060308572 -0.07026423 -0.17017071 -0.052596536 -0.108939655 -0.18762937 0.13978623
0.13741314 -0.11704857 0.25153148 -0.14638282 -0.056127515 -0.19056153 -0.043274537 -0.1037907
0.12782837 0.042484127 0.086798735 -0.1157245 0.09459574 -0.2004724 0.019116623 0.02602376
0.008732463 -0.102261774 -0.15765019 -0.18580996 0.11762332 -0.13635941 0.09962377 0.16567469
0.18060511 -0.028305084 0.07413454 -0.09710986 -0.19696972 -0.16880472 0.4464267 -0.15439114
0.23795238 -0.10126809 0.014387845 -0.0029321942 -0.4771382 0.11432645 0.14327776 -0.061197374
-0.00046779553 -0.07284787 -0.18567923 -0.13101335 0.024495507 -0.34247297 -0.15792213 -0.118645534
-0.23487055 -0.051602073 0.022755643 0.04792852 -0.045516025 -0.022178665 -0.20884335 0.38850096
0.041181922 -0.06039695 -0.36474812 0.109590665 0.22691992 0.09307097 -0.14650826 0.05118483
0.24023384 0.04496558 0.007074637 0.18518533 -0.018497746 -0.04797781 -0.14000611 -0.0030149801
0.06758116 0.20214646 -0.19027612 -0.20613602 -0.14331992 -0.17991117 -0.2113445 -0.11409127
0.09626442 -0.10652207 -0.13239048 -0.1909308 0.16073574 -0.22191943 -0.25192475 0.2530813
-0.02433788 0.022947485 -0.20004278 -0.047336917 -0.14910915 -0.2665297 -0.36417443 0.012161058
00000000: 7710 0abd 6aa4 333e 27df d63c 62cc 4b3e
00000010: a53a 10be 32df d5bd cec9 913e d996 8ebd
00000020: 881c 7ebe 0fe6 3fbe f0fd 4d3e d09a 04be
00000030: 8c33 243e f835 86be 5dc0 b13e b987 953c
00000040: 8696 a4be aa75 8cbe e3b5 88be 2506 1bbe
00000050: 5759 8e3e 0ce3 0bbd 6fd7 5b3d c5cc 32be
00000060: 6386 4dbe eceb c5bd 30c4 fabd ea44 afbe
00000070: 82f7 a2be 0992 35be 3275 1c3f 50dc 6a3e
00000080: 9ac2 d33e 93c3 783d 6d00 dbbe 336e 76be
00000090: 27e6 2e3d ebc1 5fbf ed86 cb3e 77ec 86bd
000000a0: bf49 093f cd2e e83e 9bd3 04bf 3e9e 30bf
000000b0: 8321 c2be ed6d 09bf bfde 69be a9a1 5a3e
000000c0: 0367 053f 8c71 3bbe ae9d edbe 64f8 083e
000000d0: f083 8b3d 0724 31be 0465 2cbe b8e4 1c3e
000000e0: 9994 063f d9e5 de3e 82b9 93be 2288 debe
000000f0: a9a0 e73e c494 8d3e 04fa 6e3e e68e e03d
00000100: 9459 853d f20c 953e e972 0a3e a575 8b3d
00000110: fda7 0e3f 2213 a33d aa39 55bd 9644 623e
00000120: f1cd 8abe 8183 f8be 28b1 253d 3d0a 003e
00000130: b760 703e 75df c73e f703 ad3e a8db a2be
00000140: 5c94 a7be e153 9e3e 25c5 97bd 9828 aa3e
00000150: 0f51 a7be 8f9f a8be b2cf 4ebe bd50 c03e
00000160: 4a6f a93e e153 d5be e29d de3d 953e 1c3e
00000170: 7215 ad3d ecb3 36bc 1fc6 933d 0355 303e
00000180: f478 243d 7acf 04be 8f83 b1be b72c 003e
00000190: 1a2a 293e 7869 eebc 7be2 3b3e 6ffd 9e3d
000001a0: 955c 38bd b11a d1bc 2353 59be 27d9 c63c
000001b0: 8efe c23d 012f 6ebc b413 5fbe bcdd e8bc
000001c0: 440c b83d f359 c03d 3a5e 91bd 0bd9 5dbe
000001d0: f6ea f3bd 9892 41be d149 39be 4b54 e03c
000001e0: 784e 0b3e 115b d33d f0fe c4bd f8f3 26bc
000001f0: 470e 143e 9234 823d a7e0 febe 0d4e c1bd
00000200: 5a86 efbb 6314 c63e 15e0 e7bd 11d2 d63b
00000210: f689 e33b c568 01bd 87bf f0bd 893b bb3e
00000220: 4e65 7e3d f7f6 7fbc 666c 17be 2388 babe
00000230: 394f b2bd 598a d53d 6818 32be ee65 dbbb
00000240: d9ef 4fbd 2faa f13d 579c 67be 36d3 42be
00000250: 028a 31be 725c a9bd bc6f 043e a480 03bd
00000260: ecf2 e93b 1f06 77bd b1e6 8fbd 3b41 2ebe
00000270: 776f 57bd c11b dfbd ea21 40be 1f24 0f3e
00000280: 08b6 0c3e 29b7 efbd bcc8 803e 61e5 15be
00000290: f7e5 65bd 9022 43be a440 31bd 3890 d4bd
000002a0: 71e5 023e d603 2e3d 89c3 b13d f700 edbd
000002b0: 69bb c13d a348 4dbe 779a 9c3c c82f d53c
000002c0: 9b12 0f3c 9f6e d1bd 0d6f 21be f744 3ebe
000002d0: 7fe4 f03d cda1 0bbe 8c07 cc3d a0a6 293e
000002e0: 8cf0 383e 10e0 e7bc dad3 973d 89e1 c6bd
000002f0: 6eb2 49be 25db 2cbe 0a92 e43e b618 1ebe
00000300: caa9 733e a565 cfbd ffba 6b3c 0e2a 40bb
00000310: 754b f4be fc23 ea3d 68b7 123e 19aa 7abd
00000320: 7442 f5b9 4431 95bd b222 3ebe 5d28 06be
00000330: cdaa c83c 9e58 afbe 57b6 21be 6efc f2bd
00000340: e881 70be b25c 53bd 0b6a ba3c b250 443d
00000350: 036f 3abd 08b0 b5bc 08db 55be 99e9 c63e
00000360: 60ae 283d cb62 77bd 44c0 babe 1271 e03d
00000370: b25d 683e fe9b be3d 4306 16be 2fa7 513d
00000380: dcff 753e d42d 383d 5bd2 e73b 39a1 3d3e
00000390: 9688 97bc 6184 44bd c35d 0fbe f996 45bb
000003a0: fe67 8a3d 7bff 4e3e bed7 42be 5215 53be
000003b0: 75c2 12be a23a 38be b16a 58be afa8 e9bd
000003c0: 4826 c53d 3e28 dabd 5f91 07be 5d83 43be
000003d0: e997 243e d93e 63be 48fc 80be df93 813e
000003e0: 3c60 c7bc 5dfc bb3c 04d8 4cbe 5be4 41bd
000003f0: 12b0 18be 9576 88be 1275 babe 2d3f 473c

2.bias f4 [30]
0.21201868 0.24198437 -0.07706387 -0.007488238 0.08733191 0.061554614 0.3007734 0.12088116
-0.3823815 0.08210248 0.46374536 -0.2377533 -0.07631888 0.33159113 -0.18945517 -0.12463906
0.15065339 -0.12546907 0.10904144 -0.048563987 -0.22730233 -0.07260181 0.03274601 -0.114602044
-0.16952421 -0.11242772 0.17356364 0.08191658 0.52007943 0.22402056
00000000: 6d1b 593e c0ca 773e aad3 9dbd e55f f5bb
00000010: 13db b23d b120 7c3d f9fe 993e 8b90 f73d
00000020: 82c7 c3be 5825 a83d 0870 ed3e 9a75 73be
00000030: 134d 9cbd 50c6 a93e 8900 42be c342 ffbd
00000040: e244 1a3e f77a 00be 1e51 df3d 08eb 46bd
00000050: f1c1 68be 42b0 94bd ae20 063d 7ab4 eabd
00000060: c197 2dbe 8140 e6bd abba 313e e1c3 a73d
00000070: ed23 053f a565 653e

4.weight f4 [5, 30]
-0.38640705 -0.15918922 -0.12785721 -0.20844895 -0.05761978 -0.18122034 -0.017960785 -0.2458688
0.18594182 0.15045093 -0.18587685 0.009721113 0.19671105 -0.2315466 -0.10729309 0.28675646
0.300779 0.02516106 0.051448524 0.118114576 -0.22385867 0.3017094 0.014212218 0.0100984955
-0.18273683 0.0896291 -0.14432874 0.069046184 -0.07816783 -0.26567367 0.3435527 -0.21107395
0.09861111 0.28248128 0.1386811 0.22570923 0.5488315 0.1664355 -0.3490729 -0.2017176
-0.07321488 -0.19711639 0.11907354 0.5513911 -0.029667776 0.07481821 -0.21506731 0.2211438
0.28456056 0.19929484 0.6876097 0.2716069 -0.13791047 0.15494347 0.43792105 -0.27292767
0.39434838 0.3598949 -0.5161024 0.42788076 -0.009795025 0.28352603 -0.7909837 -0.43085042
-0.41683808 -0.26282126 -0.20534368 0.5158356 -0.5427688 -0.6457091 0.11392111 -0.22713758
-0.67899096 -0.30076036 0.8514495 0.49036404 -0.1471083 0.43230498 -0.2617853 0.060548052
-0.5590406 0.40985674 -0.8169752 0.67273676 -0.3825225 0.1626088 0.40554407 -0.6994344
0.5463682 0.6672274 -0.25745633 -1.2777597 0.11591015 0.32810095 -0.010237249 -0.00034036697
0.07783713 0.4983359 -0.02237896 0.82495815 -0.22765027 0.028558021 -0.51281554 0.35872012
0.65015906 -0.8879965 0.22604254 0.18999375 0.01778741 0.11674731 -0.7112309 0.7127944
-0.36537227 -0.2655453 0.32551268 -0.4027224 -0.0038861546 0.4517897 -0.30976474 -0.007489548
-0.05851785 -0.07061481 -0.161677 -0.19298512 -0.13454919 -0.046434928 -0.14691785 -0.23799519
0.23530392 0.04377508 -0.31476456 0.2185887 0.078781396 -0.19160628 -0.055272944 0.060837094
0.29029432 0.1680115 -0.1386732 0.24931937 -0.17575005 0.24641697 0.07312772 0.16297995
-0.28428385 0.26776585 -0.18801671 -0.04179316 -0.057145063 -0.13088344
00000000: 25d7 c5be 8002 23be 00ed 02be a473 55be
00000010: b802 6cbd d391 39be 7f22 93bc 08c5 7bbe
00000020: 8867 3e3e cf0f 1a3e 8056 3ebe 4e45 1f3c
00000030: 9f6e 493e 8d1a 6dbe 7bbc dbbd bed1 923e
00000040: b5ff 993e 911e ce3c b0bb 523d 0ee6 f13d
00000050: 353b 65be a879 9a3e 5dda 683c 2974 253c
00000060: 5d1f 3bbe 768f b73d eaca 13be 1668 8d3d
00000070: 7516 a0bd 6106 88be 24e6 af3e c523 58be
00000080: 9ff4 c93d 63a1 903e 6b02 0e3e 5220 673e
00000090: 3980 0c3f 116e 2a3e afb9 b2be 0f8f 4ebe
000000a0: aff1 95bd e1d8 49be d4dc f33d f827 0d3f
000000b0: d609 f3bc 4a3a 993d 9b3a 5cbe 8573 623e
000000c0: ecb1 913e f213 4c3e 3007 303f 0f10 8b3e
000000d0: 6738 0dbe 80a9 1e3e 3037 e03e 2dbd 8bbe
000000e0: 08e8 c93e 2544 b83e 491f 04bf 3013 db3e
000000f0: 507b 20bc 532a 913e e87d 4abf 6d98 dcbe
00000100: cd6b d5be 8290 86be 9d45 52be cd0d 043f
00000110: e5f2 0abf 314d 25bf 794f e93d c196 68be
00000120: 5ad2 2dbf 43fd 99be 98f8 593f ff10 fb3e
00000130: 8fa3 16be 1457 dd3e b908 86be 3c01 783d
00000140: 491d 0fbf bed8 d13e 4925 51bf 7a38 2c3f
00000150: fdd9 c3be ec82 263e 79a3 cf3e 220e 33bf
00000160: c9de 0b3f 6acf 2a3f 51d1 83be a18d a3bf
00000170: 4d62 ed3d d9fc a73e 22ba 27bc 4873 b2b9
00000180: 1369 9f3d e225 ff3e 1554 b7bc 7530 533f
00000190: 271d 69be 83f2 e93c e147 03bf 2aaa b73e
000001a0: d370 263f bd53 63bf b277 673e b98d 423e
000001b0: e7b6 913c 3719 ef3d 3a13 36bf b279 363f
000001c0: 1312 bbbe 8ef5 87be 99a9 a63e a131 cebe
000001d0: dbae 7ebb fb50 e73e 7c99 9ebe e26a f5bb
000001e0: 6ab0 6fbd 7f9e 90bd a88e 25be e49d 45be
000001f0: 43c7 09be 8d32 3ebd a271 16be 03b5 73be
00000200: 83f3 703e 804d 333d d228 a1be b7d5 5f3e
00000210: 2458 a13d 7034 44be e265 62bd 5130 793d
00000220: 75a1 943e 350b 2c3e 5900 0ebe 944d 7f3e
00000230: d2f7 33be bb54 7c3e fcc3 953d 37e4 263e
00000240: a78d 91be 9b18 893e 7487 40be 4e2f 2bbd
00000250: f110 6abd 4f06 06be

4.bias f4 [5]
-0.30346102 0.10116546 -0.15552858 0.02193926 -0.05152685
00000000: 3e5f 9bbe d62f cf3d e242 1fbe f7b9 b33c
00000010: d10d 53bd

0.weight f4 [30, 2]
0.06501599 0.43670157 0.06722384 0.7215536 -0.4116319 0.45297927 -0.024288688 -0.7542777
-1.3148218 0.51195323 -0.28030136 -0.11800507 -0.4290248 0.45482516 0.45637736 -0.49890324
0.79801404 0.8575915 -0.955944 -0.84980303 -1.7413205 -0.4894759 -0.9920554 0.57276404
0.2100083 -0.65069175 -0.1299224 -0.7599291 1.154959 -0.26843932 -0.3826883 0.44685668
0.13587724 0.8415927 0.26728725 0.87772477 -0.5210757 0.90947556 0.47395664 -0.8266981
0.19087385 0.93470293 0.098495536 0.51257193 -0.29582223 -0.8983766 -0.043323245 0.63750064
-0.62774444 0.52754545 -0.40813112 0.85790026 1.7735907 -0.38974896 -0.47960183 0.67061
0.31965443 0.43505746 -0.00040465023 1.052606
00000000: 1a27 853d 5997 df3e a7ac 893d bdb7 383f
00000010: 6bc1 d2be e6ec e73e 12f9 c6bc 5818 41bf
00000020: 154c a8bf 5e0f 033f a983 8fbe a4ac f1bd
00000030: 23a9 dbbe d8de e83e 4baa e93e 3f70 ffbe
00000040: a64a 4c3f 1e8b 5b3f bfb8 74bf b18c 59bf
00000050: 97e3 debf 969c fabe 58f7 7dbf aaa0 123f
00000060: 6a0c 573e bc93 26bf 610a 05be b78a 42bf
00000070: b2d5 933f e170 89be b9ef c3be 66ca e43e
00000080: 6723 0b3e 9f72 573f e0d9 883e 92b2 603f
00000090: 3865 05bf 64d3 683f 72aa f23e 7da2 53bf
000000a0: 6f74 433e b148 6f3f 07b8 c93d ea37 033f
000000b0: 0376 97be 02fc 65bf b773 31bd 3e33 233f
000000c0: dcb3 20bf 380d 073f 90f6 d0be 5a9f 5b3f
000000d0: 0505 e33f 2d8d c7be 5f8e f5be 19ad 2b3f
000000e0: bfa9 a33e dabf de3e 3c27 d4b9 cbbb 863f

0.bias f4 [30]
-0.6760382 0.12234117 1.0000294 0.5437498 0.84107643 -1.0326092 0.2868893 0.48339617
-0.3349891 0.9237604 0.00055610505 -1.0893191 -0.54721665 -0.57687414 0.39408043 -0.4780293
-0.66105765 0.06995983 0.52479315 -0.69758236 0.8962385 -0.043956738 0.46930084 0.41512066
-0.9357636 0.57169616 1.1046102 -0.8247318 -0.647467 0.99014044
00000000: d710 2dbf 028e fa3d f700 803f 3033 0b3f
00000010: c950 573f 8a2c 84bf 28e3 923e b47f f73e
00000020: b183 abbe 907b 6c3f 94c7 113a cf6e 8bbf
00000030: 6416 0cbf 06ae 13bf e9c4 c93e 42c0 f4be
00000040: 133b 29bf 1947 8f3d d858 063f c294 32bf
00000050: e36f 653f fb0b 34bd 3348 f03e b28a d43e
00000060: 348e 6fbf ae5a 123f de63 8d3f a021 53bf
00000070: 66c0 25bf d879 7d3f

2.weight f4 [30, 30]
0.1165394 -0.12635846 0.12900455 -0.044917848 -0.19179042 0.08506669 0.037824776 -0.106991485
0.017781796 -0.081312 0.20517373 0.3448056 0.14090993 0.08205188 -0.12070912 -0.09297374
-0.023620859 -0.040383033 -0.104524225 -0.1500773 0.06733553 0.10187878 -0.14336699 0.01205448
0.15980196 0.14176032 -0.08159745 0.25619853 -0.08363284 0.03596053 0.10230662 -0.28737894
-0.7055011 0.0869557 -0.05401031 0.39795274 -0.26473486 0.09204286 -0.01440702 -0.06864925
0.23815887 0.55413014 0.04982073 0.22681147 0.0020046553 -0.017388657 0.15400092 -0.060998403
-0.18375263 0.39030224 -0.2896598 -0.15486771 0.07096583 -0.34133407 0.06819267 -0.28746477
-0.09761938 0.049488347 0.012109152 -0.43518913 -0.23831435 -0.00026099928 -0.15974927 -0.1415109
-0.31790388 -0.032717228 -0.24283278 0.18445939 0.07363605 -0.083234295 0.19202572 0.2380913
0.12619197 0.3172899 -0.27667022 -0.0692986 -0.091810815 -0.05786587 -0.022891803 0.15252517
-0.24901678 -0.16335467 0.109161 -0.2897371 0.049571604 -0.099344805 -0.15923305 0.1561177
-0.04771783 -0.06708881 -0.31924915 -0.19120361 0.24812277 0.090890996 0.47794914 -0.66248125
-0.087332636 -0.14027834 -0.019174768 0.26785082 -0.16673309 -0.35867143 -0.06089926 0.09353297
0.30180505 -0.030176735 0.040571712 -0.15085688 -0.39871234 0.38463843 0.1605364 0.05054237
0.15877517 0.10153445 0.23352984 -0.13005197 0.039942976 0.29008442 -0.62153566 0.051140424
-0.10099895 -0.2094595 0.039965373 0.037202846 -0.15087818 -0.09320733 -0.014456555 0.22273736
-0.14035985 0.20742829 0.073022634 -0.004278007 0.066025935 -0.09623956 -0.067457244 -0.13471964
-0.31901616 -0.12859762 -0.04220884 -0.07103516 -0.07950618 -0.104777955 0.081687465 -0.13841686
-0.12963805 -0.07494575 0.005468686 -0.11546507 -0.3705623 -0.07684488 -0.19558805 -0.19475143
-0.096013635 0.054408323 -0.14468391 -0.14213243 0.014562485 0.044494044 -0.3145204 0.39074752
-0.09570866 0.23249364 0.015839038 0.04128526 -0.31723967 0.13219336 -9.025401e-05 -0.031943582
0.03152063 0.011078603 -0.04798894 -0.006796418 0.24408884 -0.25304285 0.41357073 -0.22929777
-0.5144026 0.094516866 -0.57977134 -0.29294887 -0.035693567 0.021092942 -0.30707696 -0.13222928
-0.6994355 0.07005318 -0.69653547 0.6087645 -0.0039121965 0.1376174 0.17553236 -0.2214869
0.1573668 0.3382154 -0.1608759 -0.61683846 0.08134846 -0.057922665 0.21862732 -0.41518143
-0.31654313 0.06004748 0.00021006394 0.0031779325 -0.29527447 0.28591424 -0.040121194 -0.56444514
0.3481877 -0.3868455 0.1349716 -0.007838563 0.0892198 -0.041725982 -0.4229442 0.0017231769
0.082161464 -0.13776465 -0.106417395 -0.037194613 -0.05686236 0.057644766 0.10343517 -0.021571705
0.069474645 -0.05096198 -0.056683794 -0.06732652 -0.10673265 -0.15486772 -0.16229384 -0.1313285
0.012093538 0.12509717 0.16396907 0.19562638 0.0433487 0.03336134 -0.048694924 0.082268625
-0.076794654 0.22804509 0.5184113 -0.034472905 0.46366173 -0.28768426 0.5002047 -0.082751125
0.2568201 -0.12863806 -0.004168418 -0.02660741 -0.08930105 -0.05720911 -0.12865688 0.235229
00000000: 35ac ee3d 1d64 01be c519 043e c7fb 37bd
00000010: b564 44be 7237 ae3d 27ee 1a3d 5a1e dbbd
00000020: 21ab 913c e886 a6bd 1019 523e 5c8a b03e
00000030: b14a 103e d10a a83d 5836 f7bd 0469 bebd
00000040: 8880 c1bc ae68 25bd cc10 d6bd ddad 19be
00000050: 36e7 893d d2a5 d03d ccce 12be 2780 453c
00000060: 20a3 233e 9e29 113e 901c a7bd 742c 833e
00000070: b247 abbd 594b 133d 2286 d13d 5523 93be
00000080: b89b 34bf d415 b23d ea39 5dbd 76c0 cb3e
00000090: 548b 87be f880 bc3d 6c0b 6cbc fa97 8cbd
000000a0: ebdf 733e 79db 0d3f d210 4c3d 4441 683e
000000b0: 8960 033b a872 8ebc 6bb2 1d3e 76d9 79bd
000000c0: a629 3cbe b2d5 c73e 4a4e 94be a495 1ebe
000000d0: 8856 913d 57c3 aebe 99a8 8b3d 952e 93be
000000e0: abec c7bd 4bb4 4a3d 7765 463c 1cd1 debe
000000f0: ad08 74be bbd6 88b9 5095 23be 3ce8 10be
00000100: 4cc4 a2be 8002 06bd 28a9 78be ece2 3c3e
00000110: 7fce 963d be76 aabd 64a2 443e 35ce 733e
00000120: 7838 013e d273 a23e b8a7 8dbe 6dec 8dbd
00000130: 4f07 bcbd c304 6dbd 9787 bbbc 8f2f 1c3e
00000140: 41fe 7ebe 7246 27be cd8f df3d 6c58 94be
00000150: 980b 4b3d 4a75 cbbd fd0d 23be 51dd 1f3e
00000160: c573 43bd dc65 89bd a074 a3be e1ca 43be
00000170: e513 7e3e 0f25 ba3d c0b5 f43e 5f98 29bf
00000180: 74db b2bd 20a5 0fbe 6714 9dbc be23 893e
00000190: 14bc 2abe c8a3 b7be 8171 79bd 378e bf3d
000001a0: 3186 9a3e 3335 f7bc 862e 263d 3a7a 1abe
000001b0: 0624 ccbe 54ef c43e a763 243e 8405 4f3d
000001c0: f595 223e 4bf1 cf3d 7222 6f3e 582c 05be
000001d0: 3f9b 233d f285 943e f61c 1fbf 9f78 513d
000001e0: 8ad8 cebd 8d7c 56be bbb2 233d 0362 183d
000001f0: cf7f 1abe 7ce3 bebd 30db 6cbc 4315 643e
00000200: 7eba 0fbe 1568 543e e48c 953d 862e 8cbb
00000210: 9b38 873d 3f19 c5bd 0627 8abd f2f3 09be
00000220: 1656 a3be 18af 03be 2de3 2cbd e27a 91bd
00000230: 23d4 a2bd d395 d6bd c24b a73d 26bd 0dbe
00000240: d6bf 04be 287d 99bd aa32 b33b f378 ecbd
00000250: 57ba bdbe d960 9dbd 3c48 48be eb6c 47be
00000260: cca2 c4bd 43db 5e3d 0528 14be 2a8b 11be
00000270: 7d97 6e3c 633f 363d d108 a1be 0f10 c83e
00000280: e702 c4bd d012 6e3e dfc0 813c bc1a 293d
00000290: 3d6d a2be b25d 073e c146 bdb8 46d7 02bd
000002a0: c71b 013d 0783 353c 0d90 44bd 7db4 debb
000002b0: 6df2 793e d58e 81be 8bbf d33e 09cd 6abe
000002c0: e4af 03bf 0f92 c13d e56b 14bf 65fd 95be
000002d0: 6b33 12bd 1bcb ac3c 3139 9dbe 1d67 07be
000002e0: 340e 33bf 0b78 8f3d 2650 32bf fed7 1b3f
000002f0: e231 80bb 93eb 0c3e c1be 333e 76cd 62be
00000300: c324 213e 922a ad3e a7bc 24be 20e9 1dbf
00000310: 059a a63d 5140 6dbd d7df 5f3e a992 d4be
00000320: f111 a2be 59f4 753d 9c44 5c39 dc44 503b
00000330: 372e 97be 5a63 923e 1f56 24bd 7a7f 10bf
00000340: a945 b23e 9d10 c6be ff35 0a3e 516d 00bc
00000350: dfb8 b63d dde8 2abd 248c d8be 39dc e13a
00000360: 4544 a83d 2d12 0dbe 5df1 d9bd 6159 18bd
00000370: 82e8 68bd eb1c 6c3d d2d5 d33d 25b7 b0bc
00000380: b948 8e3d 82bd 50bd 442d 68bd 7de2 89bd
00000390: a696 dabd a595 1ebe 5b30 26be fa7a 06be
000003a0: fa23 463c 7919 003e 82e7 273e 4852 483e
000003b0: 688e 313d e7a5 083d 5474 47bd 747c a83d
000003c0: 8446 9dbd a784 693e 9ab6 043f 7633 0dbd
000003d0: 1265 ed3e 5a4b 93be 6a0d 003f 6c79 a9bd
000003e0: ed7d 833e b2b9 03be 3997 88bb c8f7 d9bc
000003f0: 78e3 b6bd 1a54 6abd a1be 03be dfdf 703e

2.bias f4 [30]
0.084697716 -0.40313482 -0.2554586 0.62056017 0.12530518 0.2656407 -0.029002896 -0.2199129
0.0967881 0.36037663 0.07539269 0.2881073 0.16300347 0.35541996 0.47230268 0.17282572
-0.39380065 -0.036607083 -0.54344374 0.05015688 0.14219959 -0.33784062 0.4318292 -0.50731665
-0.21175425 -0.21526764 -0.30666974 0.082107455 -0.4397732 -0.055045854
00000000: ff75 ad3d b067 cebe 78cb 82be 08dd 1e3f
00000010: 0050 003e 0f02 883e 7b97 edbc d930 61be
00000020: d738 c63d 4983 b83e 7c67 9a3d cd82 933e
00000030: 62ea 263e 9bf9 b53e a8d1 f13e 3af9 303e
00000040: 3da0 c9be 4ff1 15bd 211f 0bbf 4d71 4d3d
00000050: c59c 113e 72f9 acbe b818 dd3e 81df 01bf
00000060: 1bd6 58be 1f6f 5cbe d103 9dbe f427 a83d
00000070: f429 e1be c377 61bd

4.weight f4 [5, 30]
-0.13982476 -0.020101564 0.030272525 -0.13297491 0.2891321 -0.063077 -0.006023925 -0.15439132
-0.16110846 -0.0921535 0.3842024 0.024244146 0.08867518 0.17159535 -0.021242578 -0.15224208
0.15965278 0.11476584 0.32870945 -0.2213428 0.18224473 -0.025364447 -0.13528793 -0.11430052
0.086398914 -0.048010804 0.026849512 -0.054725092 -0.060157314 -0.059536725 -0.0025382405 0.2880821
0.07406541 0.53486925 -0.17368639 0.0058757695 -0.04996925 -0.20286769 -0.4939089 0.14212728
-0.091246486 0.27345917 -0.06472406 -0.24365836 -0.3231995 -0.2181231 -0.38384688 0.24541108
-0.32620412 0.24657255 -0.40891322 -0.60952294 0.07457773 0.35165522 -0.39523494 -0.5875576
-0.393222 -0.04130802 -0.37214398 -0.11834881 0.100022785 -0.46964625 -0.39972052 -0.38618532
0.30534947 -0.43941593 -0.21794802 0.09785443 -0.7809812 0.5737571 -0.83766323 -0.8372764
-0.8653922 -0.37216872 0.17555262 -0.16185117 0.98588604 0.24129659 0.1557045 0.022396177
-0.26801336 -0.15247808 -0.9900254 -0.7669898 -0.4545679 -0.19792947 -0.24896353 -0.5400772
-0.35820317 0.2964501 -0.55578405 -0.09876255 -0.42335734 0.36916646 0.109944694 0.8106423
-0.6317827 -0.35926226 -0.14050199 0.2853359 0.79302156 0.27693763 -0.5413652 -0.75987464
-0.7291024 0.49245787 -0.13709348 -0.58034164 -0.4484207 -0.1420585 -0.33723414 -0.01575707
-0.069934465 -0.46862948 0.3816423 0.49281424 0.5122441 -0.5547956 0.86567867 0.3066825
-0.07665768 -0.20604752 -0.16869883 -0.04420527 -0.20465365 -0.14158385 0.022866251 0.22449896
0.15760008 0.14283322 0.13207313 -0.12746795 0.11192551 0.06944466 0.022529215 -0.16914167
-0.06919307 -0.18489525 0.17317075 0.21264614 -0.10807626 0.07730502 -0.024132729 -0.087864615
-0.054540217 0.14817098 0.10382621 -0.097712114 -0.09228267 0.05495129
00000000: 392e 0fbe 09ac a4bc 16fe f73c 932a 08be
00000010: 1f09 943e 842e 81bd 5864 c5bb c218 1ebe
00000020: 9ef9 24be f9ba bcbd 2db6 c43e a99b c63c
00000030: 559b b53d b1b6 2f3e ea04 aebc 59e5 1bbe
00000040: 057c 233e 5a0a eb3d 9b4c a83e b0a7 62be
00000050: 5d9e 3a3e 1ac9 cfbc eb88 0abe 6416 eabd
00000060: eaf1 b03d faa6 44bd 82f3 db3c 6b27 60bd
00000070: 8467 76bd c8dc 73bd 9c58 26bb 7f7f 933e
00000080: 9baf 973d 31ed 083f d8da 31be 8789 c03b
00000090: 8eac 4cbd 8cbc 4fbe a1e1 fcbe d089 113e
000000a0: 70df babd d702 8c3e 0c8e 84bd 9481 79be
000000b0: 687a a5be a95b 5fbe 9487 c4be 0b4d 7b3e
000000c0: 3a04 a7be 847d 7c3e 135d d1be b209 1cbf
000000d0: 35bc 983d 270c b43e 3c5c cabe 2d6a 16bf
000000e0: 6554 c9be 9932 29bd a889 bebe dc60 f2bd
000000f0: bfd8 cc3d 7975 f0be 2ba8 ccbe 15ba c5be
00000100: c456 9c3e 20fb e0be c42d 5fbe e767 c83d
00000110: 62ee 47bf bfe1 123f 1971 56bf bf57 56bf
00000120: 588a 5dbf e68c bebe 11c4 333e 50bc 25be
00000130: 0763 7c3f 7416 773e 0071 1f3e 3078 b73c
00000140: 0c39 89be 3723 1cbe 4e72 7dbf 7259 44bf
00000150: 20bd e8be 06ae 4abe 4cf0 7ebe 8042 0abf
00000160: 6866 b7be 4fc8 973e dd47 0ebf 0544 cabd
00000170: 4bc2 d8be 6303 bd3e af2a e13d 4186 4f3f
00000180: 83bc 21bf 39f1 b7be c1df 0fbe 8c17 923e
00000190: 7603 4b3f c5ca 8d3e e996 0abf 2587 42bf
000001a0: 74a6 3abf 7023 fc3e 3c62 0cbe 4591 14bf
000001b0: 6697 e5be c977 11be f4a9 acbe f914 81bc
000001c0: cd39 8fbd 34f0 efbe 9f66 c33e 2652 fc3e
000001d0: 6e22 033f 1607 0ebf 1e9d 5d3f 7d05 9d3e
000001e0: b4fe 9cbd 1ffe 52be 63bf 2cbe 9610 35bd
000001f0: ba90 51be 5bfb 10be 0152 bb3c 0ee3 653e
00000200: ea61 213e df42 123e 2e3e 073e f586 02be
00000210: 3439 e53d 0039 8e3d 308f b83c 7933 2dbe
00000220: 19b5 8dbd 2e55 3dbe ac53 313e e9bf 593e
00000230: 1657 ddbd 1852 9e3d 00b2 c5bc 5df2 b3bd
00000240: 9065 5fbd 22ba 173e d6a2 d43d 4a1d c8bd
00000250: b2fe bcbd 9b14 613d

4.bias f4 [5]
-0.06991797 0.34457633 -0.12812339 -0.00074381003 -0.24159382
00000000: 2731 8fbd 4f6c b03e c732 03be 3ffc 42ba
00000010: 5f64 77be

0.weight f4 [30, 2]
-0.92074406 0.23360297 -0.00843785 0.86389935 -0.52553207 0.3739653 0.9061207 1.0041445
0.68999743 0.710313 0.41444844 -0.97683716 0.34398073 -0.5561165 0.112848595 1.1047565
-0.21883458 1.0999513 -0.23568039 0.92097485 1.1934371 -0.26071605 -1.1619335 -0.10786699
-0.6062391 -0.047800526 -0.88196236 0.106966995 -0.82556546 -0.6235625 -0.8814685 -0.53382415
-1.2299112 -0.92998093 -0.18138431 0.86598796 0.7589526 -0.8622869 0.38720182 -0.678788
-1.0473284 0.020649394 0.07182636 -0.98492527 -0.68816537 -0.9323249 0.65964276 0.7396425
-0.15196162 -0.7407316 -1.1815431 -1.1366874 -0.18711185 0.7720387 0.15178838 -0.52365994
1.0127624 -0.46702456 -1.0872899 0.30643836
00000000: e2b5 6bbf 9e35 6f3e e83e 0abc 8228 5d3f
00000010: 4589 06bf 6178 bf3e 87f7 673f cf87 803f
00000020: aca3 303f 13d7 353f 9632 d43e 0012 7abf
00000030: 3e1e b03e a75d 0ebf 2a1d e73d a968 8d3f
00000040: 2c16 60be 34cb 8c3f 3356 71be 02c5 6b3f
00000050: 8cc2 983f 937c 85be 3dba 94bf 5ee9 dcbd
00000060: 7c32 1bbf 7cca 43bd 49c8 61bf 8311 db3d
00000070: 4258 53bf cba1 1fbf eba7 61bf b3a8 08bf
00000080: bb6d 9dbf 3b13 6ebf cfbc 39be 63b1 5d3f
00000090: b84a 423f d6be 5cbf 513f c63e 0dc5 2dbf
000000a0: db0e 86bf eb28 a93c b319 933d 1024 7cbf
000000b0: 9b2b 30bf d8ac 6ebf 59de 283f 3659 3d3f
000000c0: d49b 1bbe 96a0 3dbf ce3c 97bf f97e 91bf
000000d0: 409a 3fbe 54a4 453f 6a6e 1b3e 940e 06bf
000000e0: 33a2 813f d81d efbe 512c 8bbf 7de5 9c3e

0.bias f4 [30]
-0.8864176 -0.051778164 0.9673651 -0.54618335 -0.5614093 -0.03190447 -0.95400006 1.0043336
-0.10724018 0.4165831 -0.54718226 -1.1001817 0.35823777 0.07300326 0.8826837 0.96282196
0.36740285 -0.34392428 0.4927598 -0.3655212 -0.31981018 -0.97269094 -0.031071255 -0.04512849
-0.6279427 0.8008823 0.444176 0.17971271 0.89456105 -0.91308427
00000000: 44ec 62bf 5715 54bd 3da5 773f acd2 0bbf
00000010: 85b8 0fbf 43ae 02bd 5939 74bf 018e 803f
00000020: bda0 dbbd 614a d53e 2314 0cbf c1d2 8cbf
00000030: f16a b73e bc82 953d 8ff7 613f 807b 763f
00000040: 3a1c bc3e d816 b0be 034b fc3e 9825 bbbe
00000050: 29be a3be 4602 79bf 2589 febc a7d8 38bd
00000060: dac0 20bf 9f06 4d3f 096b e33e 9c06 383e
00000070: f401 653f e4bf 69bf

2.weight f4 [30, 30]
0.35931543 -0.19587088 -0.033374194 -0.9506234 -0.5690582 0.078429006 0.12814076 0.05194375
-0.26515156 -0.11142112 -0.13441007 0.81292605 0.47489223 0.21362917 0.41420266 0.3020921
0.9180087 -0.13505487 0.2046812 -0.05396584 0.63014424 0.028708752 0.5884942 -0.43219373
0.19309716 0.5725524 0.06734657 0.11865277 0.18272212 0.03779269 -0.003584442 -0.34651592
0.060257692 -0.5048364 -0.5672199 -0.015472607 0.090307675 0.02907636 -0.18400174 -0.23413941
-0.14061202 0.38643596 0.42454463 0.01176499 0.4625823 0.32440683 0.61450034 -0.0787028
0.16894236 0.11932265 0.17124419 0.2352762 0.28560817 -0.438048 0.022152947 0.5496518
-0.015197387 0.23245117 0.17425585 0.03195657 0.35280105 -0.031066228 -0.041095365 -0.16030435
-0.21160705 -0.21893191 -0.23296909 -0.006848761 0.11191357 0.0068242997 0.16374573 0.21061426
-0.24017575 -0.004549664 0.22943415 -0.057220247 -0.006548749 0.17771745 0.15462978 -0.06643024
0.0895895 -0.14814986 -0.20698407 0.28773883 -0.06822949 0.59170735 0.051998805 -0.10532316
-0.06418813 0.48824853 -0.034325805 -0.348804 -0.090852566 -0.27397928 0.04959684 0.25102353
-0.06662318 0.41853827 -0.22295062 -0.26526645 0.21841839 0.109586276 -0.11289803 0.1353392
0.18972223 0.18871887 0.07507851 -0.3087224 0.009962092 0.24607745 0.166782 -0.3267679
-0.064067766 0.10240351 -0.13555922 0.0896314 -0.11133139 0.1734827 0.24049284 -0.08202613
0.4818148 0.35493255 0.017738797 0.33177066 0.31252348 -0.13881114 0.059934046 0.18383437
0.2924649 -0.016744988 0.3455871 0.91129535 -0.16365385 0.12505342 -0.35457733 -0.58735114
-0.13032402 0.22659215 -0.18859059 -0.022678295 0.38095224 -0.009998862 0.26911506 -0.02977618
-0.11788158 -0.14992075 0.058682412 -0.33633184 -0.18795 0.42779917 0.083713815 0.02665572
0.12952544 -0.053930525 0.06320915 0.027369976 0.17096731 0.14202556 0.14085548 -0.028788384
-0.42396584 0.19870679 0.3477618 0.27235767 -0.036075372 0.20206027 0.1836738 0.029808225
-0.06693553 -0.050760884 0.5149953 -0.011474048 0.08193605 -0.20439729 -0.089872226 -0.17638053
0.16025683 0.049734488 0.019248275 -0.20648105 -0.1869725 -0.2103233 -0.67202383 -0.11370533
-0.2862578 0.33288258 0.04571579 0.17298377 -0.039210837 -0.24175428 0.5896464 -0.07810601
-0.4845977 -0.17567407 -0.059979834 -0.24386317 0.24685365 -0.18682018 0.27188802 0.3144489
-0.36424536 -0.08711134 0.12593985 0.04915146 -0.16503337 0.20073716 -0.2411301 0.08069495
0.29568082 -0.20009407 -0.30441073 0.11493091 -0.06072004 0.14465109 0.11694817 -0.3184785
0.062027223 -0.12255596 0.15852349 0.09348386 -0.11084903 -0.31776428 -0.5606803 -0.2405921
-0.37350422 -0.5554745 -0.49604768 0.22601476 -0.005281876 -0.19141895 -0.38162246 0.10619873
-0.14137316 -0.02404855 -0.15474096 -0.3720505 0.10406738 -0.21834226 0.28180206 -0.41856337
0.43566748 -0.19204186 -0.08897469 -0.5136261 -0.32435834 0.29347274 -0.07220244 0.040913228
-0.2744386 -0.05738808 0.10025681 0.8232155 0.19669932 -0.02491188 0.3364845 0.111039385
00000000: 31f8 b73e 6092 48be 61b3 08bd 0e5c 73bf
00000010: ccad 11bf 639f a03d 5537 033e f8c2 543d
00000020: f2c1 87be c230 e4bd cba2 09be ec1b 503f
00000030: 1325 f33e 9bc1 5a3e 5f12 d43e d1ab 9a3e
00000040: 9e02 6b3f d34b 0abe f397 513e 490b 5dbd
00000050: 2251 213f 9e2e eb3c 8ea7 163f 7f48 ddbe
00000060: 43bb 453e cb92 123f 00ed 893d 3900 f33d
00000070: 821b 3b3e 82cc 1a3d f5e8 6abb 896a b1be
00000080: c5d0 763d f53c 01bf 5335 11bf d180 7dbc
00000090: 3bf3 b83d 8c31 ee3c f46a 3cbe 3ec2 6fbe
000000a0: 99fc 0fbe efda c53e ea5d d93e f2c1 403c
000000b0: 96d7 ec3e a718 a63e e54f 1d3f ef2e a1bd
000000c0: 3aff 2c3e 6f5f f43d a35a 2f3e 3fec 703e
000000d0: 3c3b 923e d447 e0be 197a b53c fbb5 0c3f
000000e0: 76fe 78bc ae07 6e3e 2070 323e e4e4 023d
000000f0: 57a2 b43e 9a7e febc 9d53 28bd d326 24be
00000100: 85af 58be b02f 60be 738f 6ebe 926b e0bb
00000110: f132 e53d 609e df3b f6ac 273e 44ab 573e
00000120: a2f0 75be 5915 95bb c9f0 6a3e c75f 6abd
00000130: e396 d6bb 90fb 353e 4557 1e3e 940c 88bd
00000140: b37a b73d 99b4 17be a2f3 53be 8152 933e
00000150: e7bb 8bbd 227a 173f b3fc 543d abb3 d7bd
00000160: 1175 83bd b6fb f93e 3799 0cbd 7096 b2be
00000170: e910 babd 0347 8cbe 0e26 4b3d 2886 803e
00000180: bc71 88bd a64a d63e 2b4d 64be 01d1 87be
00000190: 12a9 5f3e c56e e03d 1537 e7bd 5c96 0a3e
000001a0: 8b46 423e 853f 413e c3c2 993d dd10 9ebe
000001b0: 0b38 233c bafb 7b3e e7c8 2a3e 1f4e a7be
000001c0: f635 83bd eeb8 d13d 09d0 0abe ab90 b73d
000001d0: b601 e4bd 73a5 313e c143 763e 51fd a7bd
000001e0: 6eb0 f63e b8b9 b53e f450 913c d8dd a93e
000001f0: 1403 a03e 8224 0ebe 677d 753d 143f 3c3e
00000200: f6bd 953e c92c 89bc cbf0 b03e a74a 693f
00000210: e094 27be 010e 003e 298b b5be a55c 16bf
00000220: a973 05be c607 683e e41d 41be d5c7 b9bc
00000230: 2c0c c33e 44d2 23bc 73c9 893e 2ded f3bc
00000240: e66b f1bd d384 19be f85c 703d b033 acbe
00000250: f775 40be 7e08 db3e 2672 ab3d 195d da3c
00000260: 51a2 043e 41e6 5cbd cd73 813d 0037 e03c
00000270: 0e12 2f3e 266f 113e 6b3c 103e 9ed5 ebbc
00000280: 0d12 d9be cb79 4b3e d60d b23e 7772 8b3e
00000290: c5c3 13bd e3e8 4e3e fc14 3c3e 6130 f43c
000002a0: 7f15 89bd a5ea 4fbd bbd6 033f a5fd 3bbc
000002b0: 16ce a73d 864d 51be ee0e b8bd 199d 34be
000002c0: 5e1a 243e 64b6 4b3d 8fae 9d3c c56f 53be
000002d0: b875 3fbe fe5e 57be c109 2cbf 57de e8bd
000002e0: 6290 92be 966f aa3e 7b40 3b3d a822 313e
000002f0: 8b9b 20bd 6f8e 77be 11f3 163f 0bf6 9fbd
00000300: 311d f8be e7e3 33be 6aad 75bd 44b7 79be
00000310: 34c7 7c3e ca4d 3fbe e834 8b3e 72ff a03e
00000320: 5e7e babe 6e67 b2bd 60f6 003e 0b53 493d
00000330: 82fe 28be 0b8e 4d3e cfea 76be 6543 a53d
00000340: 7a63 973e 76e5 4cbe b9db 9bbe e660 eb3d
00000350: 94b5 78bd 6a1f 143e 8682 ef3d 9d0f a3be
00000360: 4210 7e3d 9ffe fabd fb53 223e 7774 bf3d
00000370: d104 e3bd 00b2 a2be bf88 0fbf c75d 76be
00000380: f23b bfbe 9433 0ebf f6f9 fdbe 6a70 673e
00000390: 9613 adbb 5403 44be 0564 c3be b87e d93d
000003a0: 20c4 10be 7701 c5bc 6a74 1ebe 677d bebe
000003b0: 4721 d53d 1d95 5fbe 5c48 903e f04d d6be
000003c0: cf0f df3e 9fa6 44be 5d38 b6bd 007d 03bf
000003d0: 4c12 a6be 0f42 963e dfde 93bd a194 273d
000003e0: 3783 8cbe c30f 6bbd 7153 cd3d 40be 523f
000003f0: 8c6b 493e 0014 ccbc b247 ac3e 9e68 e33d

2.bias f4 [30]
-0.2618175 0.26351067 0.27202818 -0.18292561 -0.319495 -0.109212115 -0.1197854 -0.3584024
-0.29549193 -0.58049387 0.19140148 0.16904499 -0.23913765 0.30144757 -0.28345004 0.4230211
-0.06903973 -0.22939506 -0.035558358 0.2084807 -0.30914423 -0.5094562 -0.060181193 0.033128418
-0.14174548 -0.105496965 -0.059696864 -0.11105613 0.39827973 0.46995634
00000000: f20c 86be dfea 863e 4747 8b3e da50 3bbe
00000010: d994 a3be 9aaa dfbd 0c52 f5bd 8580 b7be
00000020: b84a 97be 3f9b 14bf c0fe 433e 211a 2d3e
00000030: 80e0 74be 5657 9a3e 5d20 91be 3996 d83e
00000040: b464 8dbd 8ae6 6abe a4a5 11bd f77b 553e
00000050: 2748 9ebe b96b 02bf 8e80 76bd aab1 073d
00000060: ba25 11be cb0e d8bd b384 74bd 6571 e3bd
00000070: 52eb cb3e 1e9e f03e

4.weight f4 [5, 30]
-0.40906343 -0.29839766 -0.0386731 -0.26919642 0.3554379 -0.0927163 -0.1917361 0.10194222
-0.081261195 -0.5155427 -0.20732576 -0.101780646 -0.4907191 0.10608407 -0.09357361 -0.24466226
0.09587204 -0.18721366 0.06251085 -0.07741119 -0.08002368 0.05887768 0.31131035 0.1017019
0.10524609 -0.09689902 -0.33062354 -0.113501236 0.35990965 0.024100967 -0.39381513 -0.030931115
0.18748103 -0.32473722 0.1390151 0.049163446 0.032619912 -0.050302353 -0.06281225 -0.35105363
-0.01616136 -0.008722314 -0.3046664 -0.12488818 0.059169825 -0.36441663 -0.00740434 -0.40256053
-0.33093905 -0.23282467 0.42261657 0.56586343 0.3670956 0.3375444 0.0821464 -0.27443996
-0.114100784 -0.05282792 0.22351082 -0.66113466 -0.7607802 -0.647888 0.6004184 0.2946691
0.59753937 -0.54408973 0.57394636 -0.61946243 -0.4763486 -0.6017392 0.022138732 -0.70685554
-0.86802167 0.5442974 -0.017910223 0.9509669 -0.1981452 0.07164352 -0.13203034 -0.118474685
-0.09697725 0.31712946 0.12157184 -0.7054506 -0.44034448 0.42187136 -0.24216935 0.16047204
0.18584059 0.55871946 -0.3145534 0.18930404 0.19881025 -0.031600017 0.6640853 -0.38591316
-0.562531 -0.25650606 0.015185181 0.7689611 0.7636386 0.2697756 -0.33664685 -0.2063747
0.3648926 0.4312679 -0.6754832 0.12768069 -0.80358875 -0.3765698 0.4007639 -0.60890204
0.52262956 -0.29826438 0.06598784 0.13055818 0.4910015 0.4383657 0.22145317 -0.37871227
-0.44905108 -0.28971678 0.2326051 -0.25078988 -0.12560208 -0.24728367 -0.08073347 -0.21024649
-0.44578856 -0.5614781 -0.49920794 -0.53853756 -0.2882988 0.13286005 -0.4155875 -0.27642545
0.23578338 -0.4700686 0.47714013 0.39334702 -0.33701274 0.34428564 -0.00032182186 0.40188718
0.18821503 -0.50780845 -0.3448 -0.3388062 -0.11668667 0.02776196
00000000: c370 d1be 94c7 98be af67 1ebd 1dd4 89be
00000010: f5fb b53e 0be2 bdbd 7856 44be 15c7 d03d
00000020: 456c a6bd 9bfa 03bf 344d 54be 5f72 d0bd
00000030: 893f fbbe 9b42 d93d 85a3 bfbd be88 7abe
00000040: 8f58 c43d f0b4 3fbe b005 803d c289 9ebd
00000050: 75e3 a3bd b929 713d 1264 9f3e 1649 d03d
00000060: 438b d73d fe72 c6bd 7d47 a9be 5673 e8bd
00000070: 1446 b83e 646f c53c 23a2 c9be 4063 fdbc
00000080: 07fb 3f3e f543 a6be f959 0e3e 9c5f 493d
00000090: 759c 053d d709 4ebd b5a3 80bd 4dbd b3be
000000a0: d464 84bc 09e8 0ebc 3cfd 9bbe 60c5 ffbd
000000b0: 0f5c 723d d194 babe 1ba0 f2bb 6a1c cebe
000000c0: d870 a9be 9769 6ebe 3361 d83e 6ddc 103f
000000d0: f4f3 bb3e 9fd2 ac3e 5f3c a83d 6583 8cbe
000000e0: acad e9bd 1762 58bd 05e0 643e 1f40 29bf
000000f0: 7ec2 42bf fddb 25bf 05b5 193f dede 963e
00000100: 57f8 183f 7749 0bbf 26ee 123f 1795 1ebf
00000110: f7e3 f3be 950b 1abf 495c b53c 7cf4 34bf
00000120: ab36 5ebf 1357 0b3f 76b8 92bc 9172 733f
00000130: 93e6 4abe d6b9 923d f632 07be dba2 f2bd
00000140: 029c c6bd cb5e a23e a8fa f83d 6998 34bf
00000150: d574 e1be 86ff d73e 3efb 77be c852 243e
00000160: ff4c 3e3e 3d08 0f3f 250d a1be ebd8 413e
00000170: ea94 4b3e 056f 01bd 7f01 2a3f 6996 c5be
00000180: 0802 10bf c354 83be 44cb 783c a2da 443f
00000190: d27d 433f 0720 8a3e fa5c acbe e453 53be
000001a0: 34d3 ba3e 25cf dc3e 78ec 2cbf babe 023e
000001b0: feb7 4dbf c2cd c0be ed30 cd3e 01e1 1bbf
000001c0: 0dcb 053f 1cb6 98be a224 873d 0bb1 053e
000001d0: 8c64 fb3e 7871 e03e 9fc4 623e 93e6 c1be
000001e0: 06ea e5be c255 94be 0830 6e3e 8867 80be
000001f0: d59d 00be ee37 7dbe 9757 a5bd db4a 57be
00000200: 663e e4be 07bd 0fbf 2f98 ffbe 99dd 09bf
00000210: e69b 93be 770c 083e e3c7 d4be a387 8dbe
00000220: 3371 713e d5ac f0be b64b f43e c864 c93e
00000230: ef8c acbe 3546 b03e 33ba a8b9 28c4 cd3e
00000240: 71bb 403e bcff 01bf a089 b0be 0278 adbe
00000250: 6cf9 eebd 0d6d e33c

4.bias f4 [5]
0.2994895 0.58820003 0.19346973 -0.24790758 -0.078504026
00000000: b056 993e 4794 163f ee1c 463e 7cdb 7dbe
00000010: b8c6 a0bd

0.weight f4 [30, 2]
-0.0030542975 0.9354097 1.1604873 -0.48282784 0.06731036 -0.73815805 -0.39269817 0.6965067
0.4448132 0.6951829 0.31462452 -0.3796367 -0.27948156 1.0464655 -0.5896489 0.38204646
-0.024779303 0.91029525 0.22088118 -0.18814383 -1.0292629 0.5255832 -1.2981572 -0.06133206
0.031467613 0.55714923 -0.1168697 -0.7995135 -0.77408063 -0.91745824 0.14687131 -0.6306188
0.60023856 -0.3378368 -0.13005547 0.7827745 1.201274 1.1241219 0.86623657 -0.87479067
0.026976248 -0.8290882 0.13876653 0.72867626 0.14687796 -0.8639981 -0.8245234 0.92549604
-0.54371667 -0.686737 0.17985196 -0.7700017 -0.36410102 0.45802253 0.67898536 0.2660718
-0.39525524 0.682608 0.803002 -0.6980965
00000000: 9c2a 48bb 0377 6f3f d98a 943f 3635 f7be
00000010: 04da 893d edf7 3cbf bc0f c9be 434e 323f
00000020: 8ebe e33e 82f7 313f 7716 a13e be5f c2be
00000030: 3518 8fbe 95f2 853f 3bf3 16bf 989b c33e
00000040: f7fd cabc 1c09 693f ad2e 623e c7a8 40be
00000050: e3be 83bf 9f8c 063f 042a a6bf 5337 7bbd
00000060: 2fe4 003d 55a1 0e3f 6259 efbd ebac 4cbf
00000070: 262a 46bf 8bde 6abf 6f65 163e 3c70 21bf
00000080: 3ca9 193f f2f8 acbe 432d 05be e963 483f
00000090: 59c3 993f 3ae3 8f3f aec1 5d3f 48f2 5fbf
000000a0: 4bfd dc3c 203f 54bf d018 0e3e 878a 3a3f
000000b0: 2d67 163e fb2e 5dbf f713 53bf 4fed 6c3f
000000c0: 0431 0bbf ffcd 2fbf 1d2b 383e d51e 45bf
000000d0: 736b babe ee81 ea3e fcd1 2d3f 903a 883e
000000e0: e55e cabe 66bf 2e3f 8a91 4d3f 74b6 32bf

0.bias f4 [30]
-0.56516075 -0.621925 -0.694973 0.26761207 0.3120933 0.45008412 -1.3283131 -0.88096374
0.7831194 0.5453163 -0.9680795 -0.6796459 0.6119454 -0.8880083 -0.8170154 0.60088336
-0.6387042 0.8500776 -0.623205 -0.0947182 -0.4657063 0.8740986 1.0971526 0.5124938
0.38078797 -0.22797291 -0.6118288 -1.0603955 0.75005484 0.47631305
00000000: 60ae 10bf 7a36 1fbf c0e9 31bf 7304 893e
00000010: b1ca 9f3e 6d71 e63e 2a06 aabf d786 61bf
00000020: 837a 483f d999 0b3f 0fd4 77bf 46fd 2dbf
00000030: 74a8 1c3f 8354 63bf ec27 51bf 7ed3 193f
00000040: 1e82 23bf b09e 593f 5d8a 1fbf 9efb c1bd
00000050: 0e71 eebe edc4 5f3f 7f6f 8c3f cb32 033f
00000060: a4f6 c23e bb71 69be d0a0 1cbf 0abb 87bf
00000070: 9803 403f 4edf f33e

2.weight f4 [30, 30]
0.047798038 -0.3278094 0.04480142 -0.18719546 0.07331244 -0.114663266 0.038840137 -0.049022738
-0.032968167 0.2062485 -0.23200642 -0.21753247 -0.13774492 -0.13449761 0.0050760163 0.1692756
-0.14281072 -0.03336795 -0.16339782 0.1417316 -0.016542964 0.16619842 0.16192456 0.04692476
0.20414378 0.13334124 0.010309981 -0.64101624 -0.12242255 0.04756471 0.33251375 -0.09615469
0.15030445 0.34407714 0.07857091 0.18838015 -0.051090878 -0.18313782 -0.057096805 0.35355484
-0.24825546 -0.5897414 -0.2280263 0.28968504 -0.17521481 0.036533974 -0.23068802 -0.045357093
-0.07653778 -0.3978802 0.051368244 -0.13600218 -0.027435312 0.5474136 0.06493971 -0.34850195
-0.32430986 0.2753319 0.23867737 -0.15794055 0.0085024405 0.092726186 -0.108479254 0.0047098715
-0.0137842 -0.18362255 0.06676023 0.1612481 0.10869516 -0.09223901 0.18520562 0.77721673
0.13349746 -0.011155722 -0.17444716 -0.082526825 0.0682449 -0.16743127 -0.08352067 0.030263422
0.16097178 -0.17000124 -0.22008352 -0.066915125 -0.26380852 -0.11940441 0.26431078 0.15680838
-0.1598286 0.029948639 -0.35980353 0.5994059 0.10347367 -0.38025793 -0.3113395 0.19006418
-0.035102114 -0.2596282 -0.19058153 0.32146263 -0.066686474 0.5232825 -0.28624022 0.2709922
0.37258083 0.2930256 0.1300708 -0.07408603 0.054574266 0.17794958 0.41337967 -0.2467083
0.3245123 -0.40296188 0.28994805 0.4093543 -0.3381217 0.037395846 -0.3607273 0.072798036
0.027468327 -0.099645644 0.056024555 0.08972977 -0.046368614 -0.00063893164 -0.13860191 -0.019414004
-0.25177085 0.047636013 -0.17756051 -0.07256552 -0.031489003 0.1210188 0.095086314 0.15943283
-0.079862654 -0.22966604 -0.1839633 -0.18920653 0.12777188 -0.16670518 -0.16221529 0.05621055
0.1877959 0.001409991 -0.22748773 0.0014379179 0.07251707 0.20792674 -0.029740797 0.12388576
-0.17652021 0.16368188 -0.18680778 -0.11245995 0.040428463 -0.036681857 0.13660558 -0.12211019
0.2021411 0.32599673 0.05033608 0.1277286 0.0053813336 -0.0011289474 0.049626622 0.122293636
-0.08505901 0.18074907 -0.07448679 -0.105146594 0.103479676 -0.17384876 -0.13275151 0.064672545
0.046967804 0.114852294 -0.03105849 -0.11242375 -0.08748213 0.14719963 -0.18164636 0.11569128
0.14453518 0.09487829 -0.07894703 -0.0115360785 -0.11432488 0.026682654 -0.172492 -0.171881
-0.113947056 0.132617 0.16869561 0.07246655 0.08924588 -0.036258575 -0.042201433 -0.17153123
0.03885974 0.065760225 -0.01191942 -0.09189714 -0.040602583 -0.14013782 0.0028085217 0.04387366
0.07917447 -0.2077588 0.43185765 -0.12197852 -0.07949901 0.32821634 0.23540281 -0.076898515
0.41096446 0.5030758 0.16557534 -0.07259549 0.47586384 0.037877277 0.21214874 -0.06879526
-0.113008015 -0.4474686 -0.01734845 0.2509694 0.17510797 -0.103578635 -0.08853506 -0.06385716
-0.38643909 0.082150616 -0.2956415 -0.080468245 0.46404457 0.3548336 0.2854394 -0.33730716
0.23475417 -0.48001233 -0.43173352 0.41759714 0.26843223 -0.14493842 0.026562957 0.23849167
0.51758355 -0.19644186 0.064665705 -0.19029854 0.42352095 -0.5035358 -0.17919953 -0.24410683
00000000: e0c7 433d a2d6 a7be b281 373d 2bb0 3fbe
00000010: d524 963d 93d4 eabd d616 1f3d 11cc 48bd
00000020: a109 07bd cf32 533e 1793 6dbe d5c0 5ebe
00000030: 010d 0dbe beb9 09be b654 a63b 9556 2d3e
00000040: f93c 12be d5ac 08bd c251 27be 1722 113e
00000050: 1c85 87bc eb2f 2a3e 8dcf 253e 2d34 403d
00000060: 110b 513e 9b8a 083e 32eb 283c a419 24bf
00000070: adb8 fabd 37d3 423d 3e3f aa3e c0ec c4bd
00000080: 69e9 193e e12a b03e c9e9 a03d bae6 403e
00000090: ab44 51bd 7b88 3bbe 57de 69bd 2405 b53e
000000a0: ae36 7ebe 4bf9 16bf ba7f 69be 9951 943e
000000b0: 836b 33be a6a4 153d 7b39 6cbe 5cc8 39bd
000000c0: d7bf 9cbd f4b6 cbbe 8267 523d 2844 0bbe
000000d0: 05c0 e0bc 4c23 0c3f 1cff 843d d96e b2be
000000e0: f10b a6be 4ef8 8c3e d767 743e 2bbb 21be
000000f0: d24d 0b3c 3ae7 bd3d 5f2a debd 4455 9a3b
00000100: 20d7 61bc 8d07 3cbe 96b9 883d 391e 253e
00000110: 919b de3d cee7 bcbd 8ba6 3d3e adf7 463f
00000120: 8fb3 083e 7dc6 36bc 47a2 32be d303 a9bd
00000130: fbc3 8b3d 1a73 2bbe e30c abbd ffea f73c
00000140: c9d5 243e ce14 2ebe 935d 61be cc0a 89bd
00000150: e911 87be 4d8a f4bd be53 873e 6092 203e
00000160: 1caa 23be d956 f53c 2b38 b8be aa72 193f
00000170: 01ea d33d 2bb1 c2be e467 9fbe 2fa0 423e
00000180: 3cc7 0fbd fded 84be ce27 43be c096 a43e
00000190: eb92 88bd d8f5 053f 148e 92be 7dbf 8a3e
000001a0: eac2 be3e 7407 963e 4831 053e 6bba 97bd
000001b0: 4489 5f3d 6a38 363e 80a6 d33e 1aa1 7cbe
000001c0: 7a26 a63e 0551 cebe 1274 943e e396 d13e
000001d0: 4a1e adbe 632c 193d 40b1 b8be 2317 953d
000001e0: 4205 e13c 0413 ccbd 017a 653d 3ec4 b73d
000001f0: 04ed 3dbd fa7d 27ba a9ed 0dbe 1e0a 9fbc
00000200: 1ce8 80be fb1d 433d 6cd2 35be 3b9d 94bd
00000210: 9dfa 00bd b4d8 f73d 9dbc c23d 5c42 233e
00000220: 088f a3bd 932d 6bbe e060 3cbe 5bbf 41be
00000230: a2d6 023e c3b4 2abe c41b 26be 093d 663d
00000240: 924d 403e 72cf b83a 8bf2 68be 8578 bc3a
00000250: d483 943d bfea 543e f9a2 f3bc d1b7 fd3d
00000260: b7c1 34be 399c 273e 8a4a 3fbe 6751 e6bd
00000270: 5198 253d b73f 16bd 55e2 0b3e e814 fabd
00000280: 14fe 4e3e 0be9 a63e 352d 4e3d 49cb 023e
00000290: e655 b03b 30f9 93ba 4945 4b3d 1675 fa3d
000002a0: 6b33 aebd 4916 393e 888c 98bd 1957 d7bd
000002b0: 27ed d33d 6905 32be 03f0 07be 0a73 843d
000002c0: 5061 403d ae37 eb3d 606e febc 6c3e e6bd
000002d0: d529 b3bd 80bb 163e 8101 3abe 8def ec3d
000002e0: 0801 143e 8d4f c23d fbae a1bd d201 3dbc
000002f0: 2a23 eabd 9595 da3c bea1 30be 9301 30be
00000300: 135d e9bd c0cc 073e 8bbe 2c3e 5869 943d
00000310: 8bc6 b63d df83 14bd 69db 2cbd e2a5 2fbe
00000320: 642b 1f3d 4cad 863d ac49 43bc 9134 bcbd
00000330: e54e 26bd 4a80 0fbe 2d0f 383b deb4 333d
00000340: 3926 a23d b9be 54be 721c dd3e e0cf f9bd
00000350: 61d0 a2bd f90b a83e 6f0d 713e f87c 9dbd
00000360: ef69 d23e 93c9 003f 958c 293e f2ac 94bd
00000370: 6da4 f33e 3425 1b3d 853d 593e 87e4 8cbd
00000380: bf70 e7bd 9b1a e5be 561e 8ebc 107f 803e
00000390: 814f 333e 0921 d4bd df51 b5bd 8bc7 82bd
000003a0: 58db c5be 953e a83d 535e 97be 89cc a4bd
000003b0: 4097 ed3e c0ac b53e 1d25 923e 86b3 acbe
000003c0: 6663 703e 2dc4 f5be 2d0c ddbe 4bcf d53e
000003d0: f36f 893e bd6a 14be 8f9a d93c 2937 743e
000003e0: 5b80 043f 0e28 49be 746f 843d 9fdd 42be
000003f0: bdd7 d83e b9e7 00bf 1580 37be 24f7 79be

2.bias f4 [30]
0.27875823 0.07112609 -0.39003316 -0.041259773 0.333677 -0.4207237 -0.7114822 -0.27293095
0.063001335 0.1819047 -0.14571396 0.14350784 -0.18680266 -0.19123878 -0.16338444 -0.22590652
0.75246155 -0.16589475 0.30353883 -0.08668514 0.41542262 0.061296586 -0.5249865 -0.6178783
0.18123575 -0.156048 -0.16379796 -0.007348114 -0.59227043 0.27886128
00000000: 66b9 8e3e 8eaa 913d 6db2 c7be 0200 29bd
00000010: b6d7 aa3e 1969 d7be b323 36bf 9bbd 8bbe
00000020: d806 813d 3a45 3a3e 0a36 15be b8f3 123e
00000030: 3249 3fbe 19d4 43be 404e 27be 0a54 67be
00000040: 52a1 403f 50e0 29be 7169 9b3e fb87 b1bd
00000050: 46b2 d43e 2112 7b3d 8465 06bf 462d 1ebf
00000060: dd95 393e 0ccb 1fbe a7ba 27be 73c8 f0bb
00000070: 099f 17bf e8c6 8e3e
