FullOrder/ReconstructORI/Run_20251113_220516_Phys_Batch_HD30_HL2_LR0.001_Pretrain50_checkpoint.pth (torch, 107034 bytes, 80 tensors)

0.weight f4 [30, 2]
0.50307006 0.4719205 -0.42586347 1.1650332 0.5236331 0.2441855 -0.08503535 0.14999071
-0.09815781 -0.7183652 0.41455832 -1.0729303 0.84360176 -0.41233414 -1.0515347 -0.7388867
-0.26968235 0.8514127 0.4809803 0.2040769 0.8222545 -0.27124935 -0.32166523 0.89538574
0.65697587 -1.7248356 -0.42964056 0.3248922 -0.1769533 1.1873428 -0.5087416 -0.07398
-0.19008052 0.3140271 1.5714256 -1.0106025 0.0642929 -0.26645833 0.5770116 -0.74717724
0.5444279 -0.011934465 0.08544504 -1.6259676 0.23169315 -1.6728814 0.09764053 0.027181117
-0.8013502 0.20665848 0.883231 -0.23127486 0.38588095 0.8899737 0.46646327 0.10647575
0.040583193 0.29138815 0.6352857 -0.8649006
00000000: 33c9 003f 909f f13e c70a dabe cf1f 953f
00000010: d20c 063f c40b 7a3e 0327 aebd 2a97 193e
00000020: f606 c9bd c8e6 37bf fd40 d43e c855 89bf
00000030: 49f6 573f 761d d3be b098 86bf ae27 3dbf
00000040: ce13 8abe 2ff6 593f 0d43 f63e 89f9 503e
00000050: 457f 523f 32e1 8abe 4eb1 a4be 0038 653f
00000060: 922f 283f 6ac7 dcbf d9f9 dbbe 4558 a63e
00000070: 3f33 35be d9fa 973f e43c 02bf d482 97bd
00000080: 78a4 42be 29c8 a03e 7924 c93f 6c5b 81bf
00000090: ffab 833d 3a6d 88be 08b7 133f 0247 3fbf
000000a0: a05f 0b3f c688 43bc cffd ae3d b51f d0bf
000000b0: f840 6d3e fa20 d6bf c2f7 c73d efaa de3c
000000c0: 4925 4dbf 489e 533e 6d1b 623f 51d3 6cbe
000000d0: 3092 c53e 51d5 633f 46d4 ee3e f50f da3d
000000e0: 903a 263d d430 953e 15a2 223f 206a 5dbf

0.bias f4 [30]
-0.3732471 -0.6113007 0.6916191 -0.16204427 -0.31345236 0.33749625 -0.6853707 1.6642793
-0.8675877 -0.14072937 -0.6486795 -0.17892003 1.3920312 -1.8163184 1.0323057 -0.5867531
-0.7009782 2.300589 0.56971276 -0.28640544 1.4860874 -1.4625258 2.0038285 -0.60136306
0.44787532 0.4842145 -0.38866568 0.5261565 0.7679086 1.8713238
00000000: 3e1a bfbe 347e 1cbf f30d 313f efee 25be
00000010: d47c a0be 4fcc ac3e 7474 2fbf 1b07 d53f
00000020: 3a1a 5ebf 5c1b 10be dc0f 26bf d036 37be
00000030: 142e b23f 1f7d e8bf 9822 843f 7335 16bf
00000040: 4f73 33bf da3c 1340 b2d8 113f bca3 92be
00000050: 1d38 be3f 0c34 bbbf ba3e 0040 eef2 19bf
00000060: ea4f e53e f7ea f73e 30ff c6be 31b2 063f
00000070: a895 443f 8a87 ef3f

2.weight f4 [30, 30]
0.03732802 0.28217456 0.50229484 -0.10556906 0.07047183 -0.17154977 -0.10151215 -0.20684245
0.13016857 0.32451352 0.05617113 0.17634097 0.012929778 -0.14654665 -0.032268126 -0.20937437
0.0070621395 0.024188723 -0.100154385 -0.104431935 0.15536961 0.31022698 -0.2450784 -0.014988524
0.11081744 -0.156456 0.044852242 0.26699105 0.034838967 -0.15127319 -0.17850788 -0.21925563
0.10659952 -0.29801342 -0.11711463 0.03215976 0.048030946 -0.19067208 0.13747326 0.105924174
-0.25987583 -0.10241109 -0.035916068 -0.29449233 0.16495071 -0.2034205 -0.09572925 -0.28696936
0.2951427 0.088014044 -0.113452524 -0.40644827 0.2628409 0.13680804 0.22977985 -0.22687228
0.25829414 0.17832968 0.11616553 0.19468795 -0.22933777 0.05818195 0.17403202 -0.34774262
0.2184411 0.09091367 -0.22492963 0.13037774 0.10148709 0.06885927 0.008939028 -0.047513634
-0.2516353 -0.055657472 -0.13022904 -0.13032979 -0.20809694 -0.18150264 -0.01343945 0.12054294
0.050762925 0.16523537 -0.044684272 0.033929303 -0.042734675 -0.15361409 -0.0062555866 0.196775
0.0065369774 0.029085072 -0.014358456 0.18996751 -0.012381795 -0.0042923265 -0.13219692 -0.10825199
0.04397871 -0.13075633 -0.012660803 0.09502941 -0.1488895 -0.12294694 -0.22516032 -0.20581211
0.15297748 -0.36084735 0.086279154 -0.0052231634 0.10397248 0.12631983 0.023361094 -0.13916925
-0.1261184 0.14634463 -0.103402734 0.17736293 0.1692622 -0.043099545 0.047340658 0.17593277
-0.04642852 -0.09609743 0.016364235 0.22924206 -0.1984009 0.10570772 0.083859906 -0.10644978
0.11942832 -0.0955512 -0.032058638 0.08197834 0.23611473 -0.056475244 0.026572341 -0.036763538
-0.09649354 0.14181454 -0.009776033 -0.11262713 -0.20674564 0.012780435 -0.039143633 -0.06491592
-0.1655202 0.07815167 0.20175071 -0.020416228 0.06582064 -0.19520423 0.30824536 0.021752218
-0.15673342 0.25707504 -0.1650653 -0.13109614 0.13247727 0.16420631 -0.009265915 0.057686493
0.039009087 -0.108468994 -0.047428202 0.09668769 -0.09465508 -0.008884805 0.053765997 0.093521364
-0.10310487 -0.06624197 -0.32907277 0.17701334 -0.0019359508 0.1953611 -0.081695266 0.16540134
-0.0609675 -0.23900218 0.038851134 -0.15734899 -0.26520434 -0.058895607 0.1955925 -0.06698654
0.19033226 -0.19101784 0.10815125 0.110020146 0.07941474 -0.020077145 0.012726956 0.04186179
0.100614406 -0.18033141 0.0544552 -0.023365764 0.0536312 -0.10690971 0.14042778 -0.08106886
0.10087574 -0.1156152 0.16631821 0.08467497 0.20224695 0.11833559 0.0044638882 0.18835738
0.047570564 0.09869122 -0.028284889 0.11168152 0.018669436 0.014291454 0.034115918 -0.0063712522
-0.116365075 0.007145792 -0.074921034 0.005413544 -0.1603377 0.039102226 -0.04160102 -0.23598233
-0.18476686 -0.17098422 -0.10855387 -0.13135026 -0.10042246 -0.0478315 -0.0013844082 0.16458178
0.15861665 -0.070798494 -0.09024143 -0.012704668 0.0034137012 0.047280096 -0.010705643 0.2920662
0.245147 -0.21841815 -0.45485538 0.34398663 -0.10187726 -0.093348704 -0.14132485 -0.004183158
-0.0025147095 -0.053463805 0.19732477 0.15239157 0.18663622 0.30400813 0.16800645 -0.05892665
00000000: 44e5 183d 2f79 903e 6596 003f 9734 d8bd
00000010: 8953 903d beaa 2fbe 9ae5 cfbd 82ce 53be
00000020: e94a 053e a326 a63e b313 663d ba92 343e
00000030: 6bd7 533c 5310 16be 952b 04bd 3c66 56be
00000040: 8569 e73b 6e27 c63c be1d cdbd 69e0 d5bd
00000050: 3619 1f3e 12d6 9e3e d5f5 7abe 6d92 75bc
00000060: 41f4 e23d 0036 20be fcb6 373d 0db3 883e
00000070: 4eb3 0e3d 5ce7 1abe c5ca 36be 8c84 60be
00000080: d950 da3d 3795 98be ccd9 efbd f4b9 033d
00000090: 19bc 443d 8b3f 43be cac5 0c3e c6ee d83d
000000a0: 720e 85be e8bc d1bd ba1c 13bd b3c7 96be
000000b0: d7e8 283e 774d 50be b20d c4bd a6ed 92be
000000c0: f21c 973e b540 b43d cc59 e8bd fd19 d0be
000000d0: 1593 863e 6817 0c3e 694b 6b3e 3551 68be
000000e0: 213f 843e 0e9c 363e 32e8 ed3d 475c 473e
000000f0: 85d7 6abe 3250 6e3d 7335 323e 520b b2be
00000100: 06af 5f3e f230 ba3d f453 66be be81 053e
00000110: 77d8 cf3d 1706 8d3d 0075 123c a89d 42bd
00000120: 58d6 80be 17f9 63bd c35a 05be 2c75 05be
00000130: 5d17 55be d4db 39be 2431 5cbc 38df f63d
00000140: c9ec 4f3d 7633 293e db06 37bd 74f9 0a3d
00000150: 8e0a 2fbd 034d 1dbe aafb ccbb 637f 493e
00000160: 2434 d63b d143 ee3c bb3f 6bbc d886 423e
00000170: 03dd 4abc a5a6 8cbb a15e 07be 38b3 ddbd
00000180: 0523 343d fde4 05be 426f 4fbc c89e c23d
00000190: 7d76 18be 9bcb fbbd 6d90 66be 69c0 52be
000001a0: 21a6 1c3e fcc0 b8be 20b3 b03d 1227 abbb
000001b0: 86ef d43d fc59 013e c45f bf3c 6282 0ebe
000001c0: 2f25 01be 5edb 153e d0c4 d3bd a19e 353e
000001d0: 1253 2d3e 2689 30bd 47e8 413d b827 343e
000001e0: d52b 3ebd bbce c4bd 4a0e 863c 6ebe 6a3e
000001f0: 9b29 4bbe 4a7d d83d bebe ab3d 5802 dabd
00000200: d696 f43d 59b0 c3bd eb4f 03bd 43e4 a73d
00000210: 0fc8 713e 9652 67bd 3dae d93c 5d95 16bd
00000220: 689e c5bd d537 113e a82b 20bc 0da9 e6bd
00000230: 21b5 53be 0865 513c 1355 20bd a3f2 84bd
00000240: 217e 29be fc0d a03d bd97 4e3e ef3f a7bc
00000250: f9cc 863d 9ee3 47be 56d2 9d3e b531 b23c
00000260: ba7e 20be 579f 833e e106 29be 113e 06be
00000270: 1fa8 073e b325 283e 10d0 17bc ac48 6c3d
00000280: fec7 1f3d fe24 debd 1344 42bd 3204 c63d
00000290: 86da c1bd 9391 11bc bc39 5c3d 2188 bf3d
000002a0: a528 d3bd dfa9 87bd 3a7c a8be fc42 353e
000002b0: bbbf fdba bd0c 483e d94f a7bd f85e 293e
000002c0: 0fb9 79bd fdbc 74be 5e22 1f3d 1820 21be
000002d0: ddc8 87be 853c 71bd 6649 483e 3d30 89bd
000002e0: 76e6 423e 2e9a 43be 677e dd3d 3e52 e13d
000002f0: 32a4 a23d d378 a4bc b984 503c 4577 2b3d
00000300: ed0e ce3d cca8 38be 6a0c 5f3d 8f69 bfbc
00000310: 64ac 5b3d 7af3 dabd 4dcc 0f3e 6e07 a6bd
00000320: f197 ce3d a9c7 ecbd 524f 2a3e 126a ad3d
00000330: d319 4f3e ee59 f23d cf45 923b c2e0 403e
00000340: 5ad9 423d 9f1e ca3d b6b5 e7bc 48b9 e43d
00000350: a5f0 983c b426 6a3c 22bd 0b3d f0c5 d0bb
00000360: d050 eebd 3f27 ea3b 3370 99bd 1964 b13b
00000370: 912f 24be a829 203d d565 2abd 5aa5 71be
00000380: 8633 3dbe 7d16 2fbe 7e51 debd af80 06be
00000390: 4aaa cdbd f7ea 43bd 0875 b5ba 2088 283e
000003a0: 676c 223e cdfe 90bd 80d0 b8bd 3d27 50bc
000003b0: 67b8 5f3b c6a8 413d b966 2fbc b389 953e
000003c0: d107 7b3e 02a9 5fbe cee2 e8be 041f b03e
000003d0: 06a5 d0bd 9b2d bfbd 76b7 10be df12 89bb
000003e0: d3cd 24bb ddfc 5abd 810f 4a3e 890c 1c3e
000003f0: 911d 3f3e f4a6 9b3e e209 2c3e 125d 71bd

2.bias f4 [30]
-0.29158607 -0.14859372 0.08734729 -0.34724605 -0.07443533 -0.09145175 0.025248578 0.09760314
0.14288601 -0.014505646 -0.22040081 -0.39063686 -0.22361173 0.18076038 0.014359119 -0.036753073
-0.43504137 -0.0019529221 0.1391615 -0.009012815 0.23539673 0.53556854 -0.10500205 -0.07021873
-0.2689661 -0.25618142 0.039443396 -0.21097913 -0.21287778 0.012497818
00000000: c54a 95be f428 18be 23e3 b23d 3cca b1be
00000010: 8d71 98bd 0e4b bbbd 1bd6 ce3c 28e4 c73d
00000020: b650 123e 17a9 6dbc c0b0 61be 8e01 c8be
00000030: 79fa 64be 4019 393e 8342 6b3c 648a 16bd
00000040: bebd debe 31f9 ffba 5a80 0e3e 7caa 13bc
00000050: d70b 713e 051b 093f 510b d7bd d6ce 8fbd
00000060: edb5 89be 362a 83be 668f 213d ea0a 58be
00000070: a2fc 59be a6c3 4c3c

4.weight f4 [5, 30]
-0.15386079 -0.06579541 -0.29751202 -0.112526976 0.12941778 0.18552716 -0.12586224 -0.21689032
0.14913815 0.26944506 -0.047960725 -0.08238662 -0.13438271 0.19107817 0.19706935 -0.15640101
0.07002472 0.24338315 0.2178445 0.051098023 0.15080623 -0.08917049 0.18341132 0.13879034
-0.20361832 -0.20840245 -0.104278475 -0.13120711 -0.11716705 -0.06977802 0.009267915 0.11833311
0.1468191 -0.21302325 -0.064917296 -0.04641862 0.07408269 0.016590536 -0.2007787 -0.1407365
-0.13752906 -0.13271685 -0.241869 0.10931921 -0.18599033 0.060463883 -0.13384762 0.06141724
0.15094103 0.17203486 0.24744357 0.3079375 0.012453552 0.06525897 0.41021022 0.07672401
-0.16259007 -0.045384757 0.30735528 0.1918051 -0.0728837 -0.6024662 0.035347342 -0.27829307
-0.031051872 0.41711637 -0.2365052 0.15242589 0.077984974 0.07708142 0.03564146 -0.5174123
0.07980145 -0.20685111 -0.35515356 -0.47218078 -0.04655087 -0.2983861 -0.0526212 -0.44374362
0.0403571 0.3875133 -0.05187719 0.023473462 -0.5898394 0.2038078 0.53751326 -0.35496393
-0.6978201 -0.2870641 -0.26458064 0.14845517 0.14131059 0.13552827 0.025674103 -0.14521459
-0.06464861 -0.14356835 -0.017566284 0.04018345 0.015415783 0.35848597 -0.08397094 0.01745215
-0.5673652 0.4351698 0.061903927 0.22508019 -0.13540012 0.3359139 0.096961424 -0.30680138
0.061326787 -0.2002274 -0.12963742 0.25696382 -0.40706044 0.15527087 -0.30320373 -0.23034197
-0.113789655 -0.29484046 -0.08714569 -0.05134131 0.20976847 0.12940489 0.13650742 0.52199435
-0.36404362 0.31161866 -0.21455157 0.04979377 0.21997619 0.11154405 0.23633164 -0.15860733
0.888932 0.29740053 0.29924726 -0.011700056 0.031158168 -0.0039268075 -0.25356665 -0.11340262
-0.24886996 0.4145993 -0.22935705 0.7616551 -0.13262966 0.12259414
00000000: af8d 1dbe bebf 86bd 7f53 98be 8b74 e6bd
00000010: 1886 043e d5fa 3d3e 08e2 00be 7f18 5ebe
00000020: acb7 183e b4f4 893e 7772 44bd 51ba a8bd
00000030: 9f9b 09be ffa9 433e 8ccc 493e 9627 20be
00000040: 1f69 8f3d 6f39 793e a112 5f3e 294c 513d
00000050: f36c 1a3e 059f b6bd 2dd0 3b3e 0e1f 0e3e
00000060: 5281 50be 7467 55be f48f d5bd 285b 06be
00000070: 47f5 efbd c7e7 8ebd 74d8 173c a158 f23d
00000080: bf57 163e c422 5abe 5cf3 84bd 7321 3ebd
00000090: aab8 973d e0e8 873c ee98 4dbe 3b1d 10be
000000a0: 6bd4 0cbe ede6 07be 82ac 77be c0e2 df3d
000000b0: 4074 3ebe faa8 773d 5a0f 09be a590 7b3d
000000c0: 4990 1a3e e829 303e d961 7d3e fca9 9d3e
000000d0: fc09 4c3c 7fa6 853d 1307 d23e 7a21 9d3d
000000e0: 037e 26be 5ee5 39bd ac5d 9d3e 8e68 443e
000000f0: 0d44 95bd 3a3b 1abf 60c8 103d 6e7c 8ebe
00000100: 7f60 febc 4790 d53e 6b2e 72be 8815 1c3e
00000110: 96b6 9f3d dddc 9d3d c8fc 113d 2275 04bf
00000120: f16e a33d c7d0 53be b0d6 b5be aec1 f1be
00000130: 20ac 3ebd 10c6 98be 5489 57bd 5d32 e3be
00000140: 7d4d 253d 2568 c63e 2d7d 54bd 6b4b c03c
00000150: b7ff 16bf feb2 503e 789a 093f d5bd b5be
00000160: 57a4 32bf 11fa 92be 1d77 87be a204 183e
00000170: b9b3 103e ecc7 0a3e 7f52 d23c 22b3 14be
00000180: 7e66 84bd 9503 13be 2be7 8fbc 6797 243d
00000190: 7b92 7c3c 798b b73e f5f8 abbd d0f7 8e3c
000001a0: d93e 11bf 93ce de3e f98e 7d3d 6c7b 663e
000001b0: 54a6 0abe e8fc ab3e b693 c63d 1215 9dbe
000001c0: cc31 7b3d 6908 4dbe acbf 04be c390 833e
000001d0: 3a6a d0be 54ff 1e3e 853d 9bbe c4de 6bbe
000001e0: 8d0a e9bd 54f5 96be 7179 b2bd 444b 52bd
000001f0: 8ccd 563e b782 043e 9ac8 0b3e 6ca1 053f
00000200: ed63 babe 7b8c 9f3e 68b3 5bbe 8df4 4b3d
00000210: 7041 613e 3571 e43d ec00 723e f669 22be
00000220: 0c91 633f e244 983e f036 993e 97b1 3fbc
00000230: 6a3f ff3c 73ac 80bb 7dd3 81be a23f e8bd
00000240: c4d7 7ebe 5c46 d43e 93dc 6abe d4fb 423f
00000250: 12d0 07be a312 fb3d

4.bias f4 [5]
0.06569558 0.14048462 -0.20425713 0.08004751 -0.84886116
00000000: 678b 863d 33db 0f3e c828 51be f3ef a33d
00000010: f74e 59bf

0.weight f4 [30, 2]
-0.62414384 -1.0691879 -2.2268722 0.75587976 0.24341407 0.11123378 0.6060449 0.5849484
0.3687423 0.1358312 0.46881318 0.72971267 0.07946315 -1.4035825 0.0436287 -0.1585727
-0.91172695 0.8293964 -0.5247144 -0.32152322 0.20909537 0.038130365 1.0423746 -1.6082426
-0.006320771 0.29747865 0.00043042118 -1.2069364 0.030917943 -1.1138922 -0.95602804 1.4759259
-0.6261718 0.9924753 -0.4861474 -0.5024125 0.46832016 -0.5253998 0.49988863 0.68095005
-0.47568467 0.11714527 0.17913729 -1.1465254 -0.095807746 1.45771 -1.1404662 0.39936966
-0.9193684 -0.10466677 -0.75933206 -0.85802734 0.6706015 -0.16676265 0.07964263 -0.14687243
0.8739578 -1.8340943 0.67556024 0.8095441
00000000: e4c7 1fbf 26db 88bf 1385 0ec0 5681 413f
00000010: 8a41 793e 89ce e33d c225 1b3f 2ebf 153f
00000020: cacb bc3e 5617 0b3e 4808 f03e 73ce 3a3f
00000030: 93bd a23d 97a8 b3bf 02b4 323d e260 22be
00000040: f066 69bf 5353 543f af53 06bf b19e a4be
00000050: 191d 563e 962e 1c3d 886c 853f e5da cdbf
00000060: 781e cfbb 1f4f 983e 27aa e139 e47c 9abf
00000070: a047 fd3c 0594 8ebf 41be 74bf 24eb bc3f
00000080: cc4c 20bf dc12 7e3f 50e8 f8be 1b9e 00bf
00000090: a9c7 ef3e 9a80 06bf 67f1 ff3e be52 2e3f
000000a0: f18c f3be dce9 ef3d c46f 373e 58c1 92bf
000000b0: da36 c4bd 3e96 ba3f ccfa 91bf 2e7a cc3e
000000c0: ba5b 6bbf 885b d6bd 9663 42bf aea7 5bbf
000000d0: 8aac 2b3f d4c3 2abe ad1b a33d ba65 16be
000000e0: b3bb 5f3f 9ac3 eabf 84f1 2c3f 483e 4f3f

0.bias f4 [30]
0.6171135 -2.445624 -1.014682 -0.60193956 -0.35251555 -0.20550424 -1.290609 -0.43164155
0.91574013 -0.7963903 -0.3457757 -1.288374 0.16381231 -1.016097 -0.60739774 2.3731825
0.60441726 -0.17328016 1.4543251 -0.24276213 -0.8108418 -0.8390936 -1.2190753 -0.6031153
-0.5585379 0.80450445 0.27406454 -0.01866338 0.91774935 -1.9896287
00000000: 26fb 1d3f 1b85 1cc0 1ae1 81bf b618 1abf
00000010: eb7c b4be b46f 52be ad32 a5bf 1f00 ddbe
00000020: f26d 6a3f 3ce0 4bbf 8309 b1be 70e9 a4bf
00000030: 6abe 273e 770f 82bf 6b7e 1bbf 39e2 1740
00000040: 17bb 1a3f 5b70 31be 5327 ba3f a396 78be
00000050: 5493 4fbf d7ce 56bf a90a 9cbf c465 1abf
00000060: 57fc 0ebf 01f4 4d3f 3052 8c3e f2e3 98bc
00000070: 9ff1 6a3f 27ac febf

2.weight f4 [30, 30]
-0.008467616 -0.12755665 -0.45444584 0.011388225 -0.2119113 -0.025765233 0.15325634 -0.07843742
-0.17145878 -0.1655003 -0.31695095 0.00034753437 0.02889729 -0.058706805 0.041187294 -0.15181676
-0.11424966 -0.008749193 -0.0866054 -0.17437825 0.09734249 0.062764734 0.06854927 0.09098989
0.0179301 0.23703985 -0.23936619 -0.21491809 0.023427764 0.17868118 -0.19807653 0.036821347
0.09479836 -0.19797982 0.15793337 -0.115406044 0.02898716 0.096728414 0.033516277 -0.09823493
-0.15398659 -0.25482136 -0.17255048 0.13418047 0.17734821 -0.09172222 0.12503307 0.11754127
0.19466847 0.16589749 -0.1262336 -0.09818912 0.22406144 0.028839016 0.03380527 -0.0501007
0.0051612775 0.13623041 0.24397849 -0.03256847 -0.17255133 0.095264636 -0.013977987 -0.1322895
-0.17590502 0.20975786 0.103884965 0.019633126 -0.054525256 0.1048591 -0.04183073 -0.27236354
0.1537058 0.059948113 -0.09271837 0.22913998 0.09295427 0.040356293 -0.32212925 -0.05262095
0.078564465 -0.19843991 0.09896086 -0.11809962 0.022106834 -0.23045157 0.0975441 -0.106795505
0.4234729 0.005009515 -0.4392564 0.48841748 0.15573007 0.28784013 -0.18752164 0.081982106
-0.062453575 -0.11609136 0.06970785 -0.35185385 -0.070190065 0.13730623 -0.09422291 0.060441002
-0.03702879 -0.21510188 -0.04433779 -0.21493505 -0.31820738 0.14317094 0.21190096 -0.010928554
-0.0016374182 0.19604966 0.041317105 -0.50151855 -0.31271172 0.00015389375 -0.30761084 -0.04321793
0.06961721 0.03093741 0.14722167 0.01798949 0.24095142 0.1021429 0.0065066474 0.20178062
-0.24258336 0.31810865 -0.08197408 -0.19312195 0.08731296 -0.042425185 -0.07707342 0.108737946
-0.12201514 0.022878129 -0.11027937 0.008442713 -0.11239917 -0.1592882 -0.20357957 0.048802353
-0.16026786 -0.2019477 0.019033778 -0.1261346 0.36949185 0.45657906 0.11499687 -0.18077725
0.44432098 0.2971079 0.5014768 -0.022636237 -0.21985725 0.13603829 -0.17859142 0.13838758
0.28777054 0.18123446 0.12784901 -0.12506571 0.019147411 0.0669241 -0.0030366918 -0.036438078
-0.021782348 0.14556402 -0.004310308 0.079206795 -0.059891827 -0.00073312194 -0.08036933 -0.1236012
-0.19389346 0.0730878 0.015710518 0.17847298 0.22703621 0.1618249 0.06850184 -0.26762328
0.05168485 -0.14205897 0.31302777 -0.032770265 -0.23719396 0.8749576 -0.18816088 0.4048437
0.059433766 0.35846135 0.32426828 -0.35491875 -0.038841605 0.3272983 -0.4297111 -0.17403197
0.3014649 0.044191796 0.11815829 -0.14613293 -0.023037089 0.28821912 0.12264113 0.083153546
-0.3244859 -0.08750461 -0.12213614 -0.31783667 -0.016294867 0.27161074 -0.0254907 0.013024354
-0.6072548 -0.3129857 0.05128986 -0.49658355 -0.17227817 -0.07680773 0.3065046 -0.33141476
-0.45961204 0.8974952 0.22474377 -0.32742766 0.12422591 0.17395557 -0.27774087 -0.1493397
-0.08588424 -0.2528778 0.014724639 -0.25988775 0.081187025 -0.021705322 0.078042954 -0.1289826
-0.08934551 0.25706062 -0.16746768 -0.11506191 0.001084337 -0.0011032966 0.020736348 -0.052660994
-0.009764268 0.13184327 -0.14771882 -0.09847297 0.09105331 0.16927198 -0.12537579 -0.08304537
00000000: c1bb 0abc 369e 02be 20ad e8be ad95 3a3c
00000010: 47ff 58be 9c11 d3bc 3bef 1c3e cca3 a0bd
00000020: e492 2fbe e978 29be 6547 a2be 4635 b639
00000030: 02ba ec3c 8c76 70bd 02b4 283d da75 1bbe
00000040: bafb e9bd c658 0fbc 2c5e b1bd 3690 32be
00000050: 805b c73d cc8a 803d 8f63 8c3d e858 ba3d
00000060: 25e2 923c 93ba 723e 691c 75be 7d13 5cbe
00000070: 95eb bf3c 33f8 363e 93d4 4abe fbd1 163d
00000080: a425 c23d 39bb 4abe 49b9 213e 015a ecbd
00000090: 7b76 ed3c 8c19 c63d 5d48 093d 652f c9bd
000000a0: a9ae 1dbe f277 82be 13b1 30be 9b66 093e
000000b0: c59a 353e dcd8 bbbd ab08 003e 7ab9 f03d
000000c0: 2c57 473e 08e1 293e 6143 01be 6117 c9bd
000000d0: 5d70 653e cd3f ec3c 6577 0a3d 6436 4dbd
000000e0: ef1f a93b fc7f 0b3e 7fd5 793e 8466 05bd
000000f0: 4cb1 30be 1b1a c33d ed03 65bc e676 07be
00000100: 7220 34be c4ca 563e a4c1 d43d a6d5 a03c
00000110: e055 5fbd 5ec0 d63d b356 2bbd 3c73 8bbe
00000120: 0e65 1d3e 278c 753d 21e3 bdbd aca3 6a3e
00000130: cf5e be3d a44c 253d 20ee a4be 1189 57bd
00000140: 68e6 a03d d533 4bbe feab ca3d 37de f1bd
00000150: 6419 b53c 7ffb 6bbe 33c5 c73d 9ab7 dabd
00000160: 71d1 d83e dc26 a43b 37e6 e0be db11 fa3e
00000170: b477 1f3e c85f 933e ac05 40be 3ce6 a73d
00000180: 52cf 7fbd 4fc1 edbd fdc2 8e3d 3026 b4be
00000190: cfbf 8fbd 019a 0c3e f1f7 c0bd fc90 773d
000001a0: 80ab 17bd ab43 5cbe 8b9b 35bd ef17 5cbe
000001b0: 14ec a2be 679b 123e 91fc 583e ae0d 33bc
000001c0: a39e d6ba 3ec1 483e 203c 293d 8563 00bf
000001d0: c01b a0be 8a5e 2139 2b7f 9dbe 4905 31bd
000001e0: 7893 8e3d 7470 fd3c 47c1 163e b25e 933c
000001f0: f8bb 763e 4c30 d13d b735 d53b 949f 4e3e
00000200: c667 78be 23df a23e 07e2 a7bd c3c1 45be
00000210: 23d1 b23d 08c6 2dbd abd8 9dbd 00b2 de3d
00000220: 13e3 f9bd ea6a bb3c 26da e1bd 4e53 0a3c
00000230: 8931 e6bd 721c 23be 2a77 50be fae4 473d
00000240: 421d 24be 61cb 4ebe baec 9b3c 6e29 01be
00000250: 092e bd3e bbc4 e93e 7b83 eb3d ac1d 39be
00000260: 0a7e e33e 871e 983e c960 003f a16f b9bc
00000270: 4222 61be 9f4d 0b3e abe0 36be 79b5 0d3e
00000280: a956 933e 8795 393e daea 023e 3a11 00be
00000290: 08db 9c3c 810f 893d 3c03 47bb 1840 15bd
000002a0: e570 b2bc bc0e 153e 7c3d 8dbb 2c37 a23d
000002b0: 2251 75bd fb2e 40ba ad98 a4bd a022 fdbd
000002c0: 028c 46be 0eaf 953d 58b3 803c 9fc1 363e
000002d0: 2e7c 683e 6db5 253e b14a 8c3d eb05 89be
000002e0: 7eb3 533d e877 11be 2d45 a03e 1d3a 06bd
000002f0: f9e2 72be 39fd 5f3f 3fad 40be ac47 cf3e
00000300: d270 733d 3f88 b73e 7e06 a63e e9b7 b5be
00000310: 6018 1fbd a593 a73e 1803 dcbe 7035 32be
00000320: 9b59 9a3e 7502 353d f9fc f13d dfa3 15be
00000330: 47b8 bcbc 7591 933e 462b fb3d 684c aa3d
00000340: 0423 a6be 9e35 b3bd 8322 fabd 7dbb a2be
00000350: d07c 85bc 9010 8b3e dfd1 d0bc 1a64 553c
00000360: 0d75 1bbf a93f a0be 5115 523d 3340 febe
00000370: b069 30be 5f4d 9dbd 2cee 9c3e 32af a9be
00000380: 4552 ebbe 3fc2 653f 3b23 663e 99a4 a7be
00000390: 276a fe3d 6921 323e 0d34 8ebe 82ec 18be
000003a0: 14e4 afbd 3379 81be 9d3f 713c 0210 85be
000003b0: 6245 a63d 5ccf b1bc fcd4 9f3d 0414 04be
000003c0: c7fa b6bd 739d 833e a67c 2bbe 94a5 ebbd
000003d0: 5020 8e3a 7e9c 90ba 46df a93c 0eb3 57bd
000003e0: 4ffa 1fbc ec01 073e 9a43 17be 32ac c9bd
000003f0: 287a ba3d a255 2d3e 8362 00be b113 aabd

2.bias f4 [30]
0.07063739 -0.15979163 -0.15799716 -0.20482807 -0.0480912 -0.118921876 0.039263375 -0.034654774
0.092329584 -0.1700472 0.03333404 0.04515165 -0.14194664 0.24038568 -0.29321104 0.19500911
-0.320401 -0.13897036 0.17051978 -0.17371364 0.041033376 0.02724466 0.059273634 0.22863522
0.13381219 -0.049809556 -0.14206706 0.17517541 0.25138214 0.01197177
00000000: 56aa 903d 6ba0 23be 02ca 21be 73be 51be
00000010: 47fb 44bd 508d f3bd a2d2 203d 2af2 0dbd
00000020: 4b17 bd3d da20 2ebe 4689 083d f0f0 383d
00000030: 765a 11be aa27 763e c21f 96be 78b0 473e
00000040: 9a0b a4be 3f4e 0ebe bd9c 2e3e fde1 31be
00000050: 9d12 283d 3130 df3c e9c8 723d 5a1f 6a3e
00000060: 1006 093e 1b05 4cbd 077a 11be 2f61 333e
00000070: 29b5 803e 3e25 443c

4.weight f4 [5, 30]
0.12207792 -0.28332362 0.14207628 -0.07415887 0.16310602 -0.012907592 0.17690034 -0.012158157
-0.16960023 -0.22425881 -0.04094989 0.054092452 0.17548227 0.26690644 -0.11579648 -0.19532326
-0.07003576 -0.12037806 0.10117665 0.25307614 0.34211028 -0.18834561 -0.2738724 0.20297521
0.28213298 -0.15677041 -0.2754116 0.33544898 0.0030399817 -0.07379435 0.21667348 -0.21554506
-0.13544409 0.19911848 -0.2697851 -0.44203702 0.25008792 0.012271112 0.069579706 -0.21213102
-0.22595397 -0.11913719 0.17802736 -0.13217032 -0.2708749 0.33058983 -0.17263798 0.24398679
-0.26283514 -0.060024153 0.10215117 -0.06833754 0.22132841 0.037014823 -0.15143019 -0.16435109
-0.02713995 0.46142757 0.37347725 -0.11855942 -0.07688078 -0.3468928 -0.38643792 -0.19788891
0.005362974 0.39926797 -0.32039827 0.51087004 0.16169688 0.24962859 0.22976543 0.54587525
0.5321515 -0.34421185 0.47211736 0.530013 0.12789968 -0.0327604 0.5911271 0.57650334
0.15740998 -0.46800482 -0.16853012 0.06295589 -0.3909876 -0.9548 0.15336226 -0.2401253
-0.015680473 -0.12573865 -0.20589738 -0.35501158 0.063759625 0.68688166 -0.33072147 -0.2551145
-0.34232166 0.15016767 -0.5338257 -0.4887074 -0.24347894 0.32764885 -0.45730677 -0.023822075
0.25807273 -0.29459518 1.2902341 0.9563954 0.4340263 -1.2797755 -0.015120207 0.011758753
0.15453738 -0.33027452 0.76908845 0.12923388 0.46432215 -0.15130112 -0.24570061 -0.0373149
0.05138713 0.10371264 -0.07804262 0.38415197 0.23861021 0.14469837 -0.088427596 0.18746862
-0.027883533 0.17805871 -0.039225295 -0.04887335 0.020543521 -0.15878898 0.07936601 -0.19339904
-0.25833386 -0.030652845 0.2384755 0.14975235 0.06896932 0.09292524 -0.022689786 0.271064
-0.024322622 0.20305575 -0.30467653 -0.1063252 0.019794498 -0.3159141
00000000: fd03 fa3d cb0f 91be 727c 113e 9be0 97bd
00000010: 4405 273e 5d7a 53bc 5d25 353e 0233 47bc
00000020: afab 2dbe 1aa4 65be 12bb 27bd 0c90 5d3d
00000030: a0b1 333e f6a7 883e b426 edbd d202 48be
00000040: e96e 8fbd c688 f6bd b435 cf3d 3293 813e
00000050: 1429 af3e acdd 40be 0139 8cbe bcd8 4f3e
00000060: bc73 903e 6c88 20be c002 8dbe f8bf ab3e
00000070: 6e3a 473b 7e21 97bd a7df 5d3e d8b7 5cbe
00000080: dbb1 0abe b7e5 4b3e 4621 8abe ad52 e2be
00000090: 860b 803e c60c 493c ce7f 8e3d e038 59be
000000a0: 7a60 67be 33fe f3bd ce4c 363e a857 07be
000000b0: 1db0 8abe 1243 a93e 03c8 30be acd7 793e
000000c0: 5492 86be e3db 75bd a234 d13d 8df4 8bbd
000000d0: eaa3 623e db9c 173d 8410 1bbe a74b 28be
000000e0: 9a54 debc 3c40 ec3e 6938 bf3e 48cf f2bd
000000f0: ac73 9dbd ef9b b1be 31db c5be 64a3 4abe
00000100: e3bb af3b da6c cc3e 3e0b a4be 61c8 023f
00000110: de93 253e a39e 7f3e a147 6b3e 7bbe 0b3f
00000120: 153b 083f 893c b0be 5eb9 f13e efae 073f
00000130: 22f8 023e c52f 06bd 1b54 173f b995 133f
00000140: 1530 213e 549e efbe 2993 2cbe 05ef 803d
00000150: 872f c8be c66d 74bf ff0a 1d3e 68e3 75be
00000160: 5674 80bc a2c1 00be c3d6 52be 14c4 b5be
00000170: 6894 823d 7ad7 2f3f 5354 a9be 5e9e 82be
00000180: c944 afbe 8ec5 193e cda8 08bf db37 fabe
00000190: 8b52 79be 97c1 a73e 1d24 eabe 8326 c3bc
000001a0: 1c22 843e 2ed5 96be 6426 a53f 54d6 743f
000001b0: b238 de3e afcf a3bf bfba 77bc c9a7 403c
000001c0: 0c3f 1e3e be19 a9be fbe2 443f e355 043e
000001d0: a2bb ed3e aeee 1abe f198 7bbe 82d7 18bd
000001e0: 507b 523d 4b67 d43d cfd4 9fbd 91af c43e
000001f0: 3c56 743e cf2b 143e 8719 b5bd c6f7 3f3e
00000200: 026c e4bc 0655 363e b4aa 20bd 6c2f 48bd
00000210: e34a a83c 9499 22be a68a a23d 660a 46be
00000220: 5644 84be ad1b fbbc ec32 743e ae58 193e
00000230: c93f 8d3d 974f be3d eedf b9bc e7c8 8a3e
00000240: 3c40 c7bc d9ed 4f3e 90fe 9bbe 07c1 d9bd
00000250: 1228 a23c 7ebf a1be

4.bias f4 [5]
-0.034918286 0.28335333 -0.025012176 -0.22455604 0.0809678
00000000: 7a06 0fbd b013 913e 56e6 ccbc 05f2 65be
00000010: 72d2 a53d

0.weight f4 [30, 2]
-1.1066056 -0.25376636 -0.72200304 0.019582605 -0.30659243 -0.8821459 -0.13365102 -0.50923145
-0.33598742 1.0345647 0.77725977 0.9983828 0.60454166 -0.56724405 0.12757424 -0.46670404
1.086731 -0.09207603 0.88068306 1.0834391 0.8984007 -0.55839026 0.09480323 -0.8286703
1.3659602 -0.42830727 0.7879402 0.9396862 0.6832888 -0.5423005 -0.35918972 -0.75242037
0.5020238 0.84313446 0.77331406 -0.5714841 1.0266582 -0.2151466 0.025632158 0.40807322
-0.3312933 0.73838925 0.3130923 -1.0445585 -0.8762464 0.4675701 -0.5658739 -0.9960286
0.5661537 0.78252614 -1.0919149 -0.66703516 0.33978602 0.9961861 0.06672465 0.63076514
-0.15050793 1.0835518 -0.6546943 -0.34577775
00000000: 41a5 8dbf aaed 81be 31d5 38bf b36b a03c
00000010: aff9 9cbe 50d4 61bf d0db 08be fe5c 02bf
00000020: 8b06 acbe 9e6c 843f 7ffa 463f 0496 7f3f
00000030: 3ec3 1a3f e836 11bf d2a2 023e d5f3 eebe
00000040: 001a 8b3f 5c92 bcbd 7274 613f 22ae 8a3f
00000050: 97fd 653f aaf2 0ebf 3228 c23d bd23 54bf
00000060: c9d7 ae3f 174b dbbe 73b6 493f 468f 703f
00000070: 04ec 2e3f 35d4 0abf b7e7 b7be 9f9e 40bf
00000080: a284 003f a9d7 573f e9f7 453f c84c 12bf
00000090: 8969 833f 644f 5cbe 88fa d13c f9ee d03e
000000a0: 479f a9be 1407 3d3f a24d a03e 18b4 85bf
000000b0: af51 60bf 5965 ef3e 1ddd 10bf bbfb 7ebf
000000c0: 73ef 103f a253 483f dec3 8bbf d1c2 2abf
000000d0: 6ff8 ad3e 0d06 7f3f efa6 883d d379 213f
000000e0: c01e 1abe d3b1 8a3f 0c9a 27bf c809 b1be

0.bias f4 [30]
-0.8786426 -1.4803604 -0.44528052 -0.067203484 -0.021651061 -0.3640259 0.52217615 1.0507007
-0.124580204 -0.52055794 0.3192382 -0.8067438 0.93514264 -0.6387474 0.44922215 -0.4352352
-0.60031676 0.5839435 0.6865329 0.24562006 0.5107468 0.42371723 1.2342633 -0.15400928
-0.5962805 1.1288049 0.37815785 0.42529815 -0.033104815 0.5071068
00000000: b9ee 60bf 737c bdbf cffb e3be fba1 89bd
00000010: 915d b1bc 9a61 babe 56ad 053f 5c7d 863f
00000020: e823 ffbd 4943 05bf 3073 a33e c386 4ebf
00000030: 8265 6f3f f384 23bf 7200 e63e 26d7 debe
00000040: 5cae 19bf 527d 153f 9fc0 2f3f d383 7b3e
00000050: 4dc0 023f 77f1 d83e 57fc 9d3f 9cb4 1dbe
00000060: d7a5 18bf ae7c 903f e89d c13e aec0 d93e
00000070: ea98 07bd c0d1 013f

2.weight f4 [30, 30]
0.541119 -0.14476398 0.30467337 0.69378096 0.06055305 -0.34558377 0.01480368 0.50988936
-0.16048276 -0.4045489 -0.4354708 0.31506526 -0.46467277 -0.30692708 -0.038584866 0.5884247
-0.39242876 -0.44045132 -0.27110162 -0.53774554 -0.22704862 -0.21068762 -0.3387973 0.5711607
-0.36373422 -0.18306918 -0.3630141 -0.5937679 0.19614132 0.0108720595 0.17890766 0.381065
0.069356516 -0.111109465 0.37880853 -0.038385157 -0.34421292 -0.08330808 -0.39148757 0.22038436
-0.51059633 -0.36434105 -0.25458857 -0.0018314269 -0.21034761 -0.16317001 0.26065037 -0.55780685
-0.14642906 0.2632709 0.35865656 -0.10999162 0.2846719 -0.011503059 0.004670435 0.15022394
0.08976211 -0.015880933 0.28854746 -0.043386426 -1.0405915 -0.6047769 -0.5762957 -0.5728814
-0.15565123 0.7500608 0.095691204 -0.55737686 0.7323763 0.6156614 0.27474496 -0.043433003
0.13870814 0.7947421 0.15160917 -0.69869506 0.66244245 0.053314097 0.7833092 0.4983507
-0.14066544 -0.12833348 0.3020554 -0.46214923 0.927493 -0.48006564 0.26037222 0.18933278
0.22396961 -0.7701151 -0.10166448 -0.08314742 0.16568641 0.5135175 -0.1581513 -0.24666858
0.24421032 -0.19234748 -0.08350237 -0.23149855 0.26853874 0.09543623 -0.01973532 -0.3467748
0.13222632 0.35841617 -0.2397754 0.04452106 -0.040435042 -0.1802104 -0.27515262 0.18123169
-0.50416183 0.3026438 -0.08026753 -0.14407836 -0.08701962 -0.35696882 -0.2528078 0.1394549
0.68742716 0.567931 -0.065073155 -0.0030835746 -0.13015458 -0.261401 0.00383578 0.026290324
-0.010844344 -0.0042993096 0.1788542 0.011746352 0.313507 -0.23801278 0.055465836 -0.033657063
-0.30658552 -0.010857466 -0.039034426 -0.07268098 -0.10000514 0.03472399 0.19954947 0.072384864
-0.03094298 0.39561328 -0.119464725 0.110549375 -0.008768859 0.57048243 0.039407168 -0.17235109
0.026528427 0.41378942 0.027419208 -0.85571975 -0.083966985 0.948534 -0.7173675 -0.8266514
-0.23813893 -0.15156882 -0.38800308 -0.86567795 0.026836433 -0.12880957 -0.711869 -0.23679318
-0.52483606 -0.35206473 0.090340115 0.14362504 0.5375619 0.31914377 -0.8233854 0.8196303
-0.113893434 -0.27576932 -0.31969902 0.74549174 0.21000965 0.63599986 0.3977872 0.5268239
-0.4218487 -0.020261882 0.41402665 -0.36917818 0.27670747 -0.17973681 0.36780682 0.32151076
0.31147003 -0.32869363 0.37430337 0.15163492 0.27736115 0.18798333 -0.22157244 -0.56353337
-0.43233436 0.115482 -0.62504727 0.22966926 0.07691287 0.004720438 -0.28455123 -0.38932022
-0.40680212 -0.09061106 0.15014423 0.5420014 0.33043236 0.17338319 -0.111323856 -0.60988194
0.12785847 -0.002522785 -0.099399045 -0.43833953 0.2438349 0.12917086 0.17406242 -0.41579804
0.06574476 0.21716255 -0.079158284 0.184293 -0.12431495 -0.0011013799 -0.1677155 0.27440983
-0.2640062 0.4991584 -0.5058679 0.57950395 -0.34448677 -0.2812863 -0.19034152 0.49486136
0.35857162 -0.14166968 0.10668112 0.34658825 -0.21863094 -0.73383355 0.47644877 0.26673824
-0.26947993 -0.6464617 0.08408647 -0.08423637 0.37025812 -0.55249447 0.46287754 0.33146703
00000000: c686 0a3f 023d 14be 26fe 9b3e a19b 313f
00000010: 7a06 783d 5bf0 b0be 228b 723c 1c88 023f
00000020: 9855 24be 0921 cfbe 07f6 debe 3c50 a13e
00000030: 97e9 edbe 8c25 9dbe 2a0b 1ebd 00a3 163f
00000040: 6cec c8be d682 e1be d5cd 8abe b1a9 09bf
00000050: 6f7f 68be 7fbe 57be d776 adbe 9637 123f
00000060: 5f3b babe 7d76 3bbe fcdc b9be 2c01 18bf
00000070: 45d9 483e b920 323c 9233 373e f41a c33e
00000080: ca0a 8e3d 5c8d e3bd 31f3 c13e c139 1dbd
00000090: ad3c b0be 6d9d aabd 0f71 c8be 70ac 613e
000000a0: 71b6 02bf e98a babe 6f59 82be 7d0c f0ba
000000b0: 5d65 57be 0a16 27be f773 853e 6ecc 0ebf
000000c0: 80f1 15be 72cb 863e d5a1 b73e 4943 e1bd
000000d0: 84c0 913e 5477 3cbc 730a 993b 4ed4 193e
000000e0: 32d5 b73d bb18 82bc 7ebc 933e f7b5 31bd
000000f0: 1a32 85bf a9d2 1abf 1d88 13bf 5ba8 12bf
00000100: 0963 1fbe fc03 403f c0f9 c33d 40b0 0ebf
00000110: 037d 3b3f fc9b 1d3f 5fab 8c3e cee6 31bd
00000120: 8209 0e3e 3874 4b3f 6f3f 1b3e aedd 32bf
00000130: d495 293f e25f 5a3d f486 483f d327 ff3e
00000140: 9a0a 10be da69 03be 01a7 9a3e d39e ecbe
00000150: 2e70 6d3f 2acb f5be 824f 853e 74e0 413e
00000160: 4a58 653e 4326 45bf 7835 d0bd 3249 aabd
00000170: b3a9 293e e275 033f 6af2 21be b096 7cbe
00000180: 4512 7a3e bdf6 44be 4a03 abbd f50d 6dbe
00000190: e97d 893e 1274 c33d f7ab a1bc 778c b1be
000001a0: 5666 073e 5382 b73e af87 75be b75b 363d
000001b0: 379f 25bd 1389 38be cee0 8cbe cd94 393e
000001c0: c010 01bf 21f4 9a3e 4e63 a4bd 4789 13be
000001d0: 5837 b2bd 9ec4 b6be 0670 81be 44cd 0e3e
000001e0: 3afb 2f3f ed63 113f 1345 85bd cc15 4abb
000001f0: 3e47 05be 5ad6 85be b661 7b3b ce5e d73c
00000200: 7aac 31bc 39e1 8cbb 8e25 373e c573 403c
00000210: fd83 a03e 9fb9 73be 2530 633d fddb 09bd
00000220: c7f8 9cbe 83e3 31bc 90e2 1fbd c4d9 94bd
00000230: 7fcf ccbd be3a 0e3d b256 4c3e 843e 943d
00000240: 227c fdbc d38d ca3e eca9 f4bd b667 e23d
00000250: 43ab 0fbc 230b 123f 6969 213d ce7c 30be
00000260: 2552 d93c 35dc d33e 3f9e e03c 7310 5bbf
00000270: e2f6 abbd 20d3 723f 65a5 37bf 6d9f 53bf
00000280: b1da 73be db34 1bbe 57a8 c6be 129d 5dbf
00000290: 14d8 db3c a8e6 03be 0c3d 36bf e979 72be
000002a0: a85b 06bf d441 b4be 3d04 b93d 7112 133e
000002b0: a89d 093f d066 a33e 63c9 52bf 4bd3 513f
000002c0: f640 e9bd a331 8dbe 97af a3be 8cd8 3e3f
000002d0: c50c 573e e3d0 223f c4aa cb3e eedd 063f
000002e0: 8efc d7be 3ffc a5bc 4dfb d33e ec04 bdbe
000002f0: 9aac 8d3e ed0c 38be 2d51 bc3e 0f9d a43e
00000300: 0079 9f3e 884a a8be b1a4 bf3e 2f46 1b3e
00000310: 4802 8e3e b47e 403e e3e3 62be b943 10bf
00000320: ee5a ddbe d481 ec3d 1903 20bf 6b2e 6b3e
00000330: 7f84 9d3d e7ad 9a3b b3b0 91be fb54 c7be
00000340: 5e48 d0be 4b92 b9bd 69bf 193e 9bc0 0a3f
00000350: 6e2e a93e 5d8b 313e c3fd e3bd 3921 1cbf
00000360: 55ed 023e 4f55 25bb ba91 cbbd 0a6e e0be
00000370: dbaf 793e 5e45 043e 6b3d 323e 7be3 d4be
00000380: 30a5 863d dc5f 5e3e bd1d a2bd 4eb7 3c3e
00000390: d698 febd 2d5c 90ba 9dbd 2bbe 727f 8c3e
000003a0: d22b 87be b191 ff3e 8f80 01bf 5f5a 143f
000003b0: 9260 b0be c204 90be e3e8 42be 785e fd3e
000003c0: b396 b73e db11 11be a27b da3d 0474 b13e
000003d0: cae0 5fbe 84dc 3bbf 18f1 f33e ea91 883e
000003e0: 46f9 89be 847e 25bf 8735 ac3d 1e84 acbd
000003f0: 7992 bd3e 4770 0dbf 49fe ec3e 0cb6 a93e

2.bias f4 [30]
-0.14949541 0.08233778 -0.08948068 -0.24037674 0.6881739 0.5770823 -0.29350182 -0.08015477
0.42304635 -0.09342657 0.8065794 0.31857526 -0.36600354 0.3392152 0.08330631 0.40766528
-0.35194966 -0.24885985 -0.2936869 -0.077023916 0.24492548 0.35676387 -0.17715383 0.19721545
-0.0035350737 -0.42368263 -0.027720422 0.48701555 0.13493061 -0.23313117
00000000: 5315 19be b6a0 a83d a641 b7bd 5225 76be
00000010: 2a2c 303f aabb 133f df45 96be 2f28 a4bd
00000020: 8899 d83e 6e56 bfbd fd7b 4e3f 4c1c a33e
00000030: d164 bbbe 9dad ad3e 809c aa3d 81b9 d03e
00000040: bf32 b4be 1ed5 7ebe 215e 96be b7be 9dbd
00000050: bfcd 7a3e c1a9 b63e d067 35be d9f2 493e
00000060: b2ac 67bb eeec d8be f015 e3bc 1a5a f93e
00000070: 402b 0a3e f0b9 6ebe

4.weight f4 [5, 30]
0.4958085 0.017180532 0.3704474 -0.23950598 -0.20575096 0.8280479 -0.024786398 -0.22311981
-0.66359484 0.116477944 0.057051744 -0.39026764 0.20125599 -0.22033443 -0.060651004 0.07518791
0.006251005 -0.11447357 -0.09893902 0.08253564 -0.45581177 -0.0020875942 0.53409976 0.15713714
-0.09044803 0.32967168 -0.19285801 -0.01497656 0.28927964 -0.012109938 0.046815418 -0.09358286
0.46230346 -0.121794835 0.11674533 0.530452 0.53327394 -0.02793928 -0.21041808 -0.16714954
0.32997856 0.37275591 -0.19252227 -0.6233674 0.11310168 0.065831706 0.04469806 -0.05637961
0.06836232 0.0042784647 -0.235431 -0.25491703 -0.0024166398 -0.11627289 -0.44078842 0.31211758
-0.48608133 -0.61441046 0.21575153 -0.119183145 0.27514938 -0.5942049 0.9028495 0.19590312
-0.46044508 0.8797572 0.23213235 0.3334685 -0.657477 0.4868293 0.9037703 -0.30407682
0.9117048 0.5017645 0.10870644 0.21898526 -0.4649779 0.15846756 -0.4902692 -0.17998593
-0.2038398 -0.022720728 0.22629811 0.29124758 -0.068171285 -0.87570274 0.34392086 0.39710844
-0.6704833 -0.34652713 -0.50250936 0.13538502 -0.018167676 0.3145753 -0.3151456 0.5215192
0.4496846 0.58266187 -0.6543688 0.28299144 -0.7678724 -0.12924957 -0.018718395 -0.478012
-0.2408772 -0.1310308 0.1653395 -0.45045143 0.64412844 0.26796573 0.51402605 0.7807177
0.663986 -0.66562974 -0.8965908 -0.40116102 -0.06514673 -0.28313968 -0.28919145 0.44221053
0.32708514 0.09049416 0.5980944 -0.42520863 -0.2894771 0.6753333 -0.1823658 -0.28068474
0.34026614 0.055957515 0.64739984 -0.23887077 0.23050046 -0.08960807 0.40171117 0.432627
-0.3088381 0.15585633 -0.2973583 0.21951292 -0.7071378 -0.32587853 0.14589435 0.2882885
0.47419667 -0.0073537985 -0.49160892 0.03468709 0.18979292 0.20434059
00000000: 9dda fd3e 30be 8c3c 48ab bd3e 0e41 75be
00000010: 61b0 52be f2fa 533f d80c cbbc 8579 64be
00000020: 5ae1 29bf fd8b ee3d 17af 693d 29d1 c7be
00000030: 0d16 4e3e 599f 61be 306d 78bd 1efc 993d
00000040: 3bd5 cc3b 1e71 eabd 8aa0 cabd 7208 a93d
00000050: 2960 e9be 05d0 08bb c3ba 083f 8fe8 203e
00000060: d13c b9bd baca a83e 927c 45be 3f60 75bc
00000070: 761c 943e c368 46bc 86c1 3f3d 5fa8 bfbd
00000080: 0ab3 ec3e 926f f9bd 2d18 ef3d b4cb 073f
00000090: a484 083f ebe0 e4bc d677 57be 4029 2bbe
000000a0: f3f2 a83e ddd9 be3e 8f24 45be 0295 1fbf
000000b0: dba1 e73d c6d2 863d 5015 373d 4eee 66bd
000000c0: 8b01 8c3d 5d32 8c3b d314 71be 7c84 82be
000000d0: 7d60 1ebb 7b20 eebd 05af e1be e0cd 9f3e
000000e0: a7df f8be 014a 1dbf f8ed 5c3e 4b16 f4bd
000000f0: 61e0 8c3e d01d 18bf 2521 673f d49a 483e
00000100: 75bf ebbe c537 613f 1ab4 6d3e 62bc aa3e
00000110: 6a50 28bf b141 f93e 7e5d 673f f5af 9bbe
00000120: 7c65 693f a373 003f 7ba1 de3d ac3d 603e
00000130: 9511 eebe 5245 223e 9104 fbbe 3b4e 38be
00000140: 61bb 50be d220 babc b1ba 673e 671e 953e
00000150: 639d 8bbd 0e2e 60bf 6516 b03e cc51 cb3e
00000160: cba4 2bbf 016c b1be 74a4 00bf 5fa2 0a3e
00000170: 61d4 94bc 0410 a13e c45a a1be 4882 053f
00000180: 0f3d e63e 5429 153f b784 27bf 41e4 903e
00000190: 4993 44bf 005a 04be 5257 99bc fdbd f4be
000001a0: 83a8 76be f02c 06be c24e 293e 92a1 e6be
000001b0: 9ae5 243f ce32 893e 3697 033f 1ddd 473f
000001c0: fdfa 293f b666 2abf fa86 65bf fa64 cdbe
000001d0: a66b 85bd aff7 90be e710 94be 6b69 e23e
000001e0: b477 a73e 0155 b93d b71c 193f f2b4 d9be
000001f0: 5836 94be a5e2 2c3f 1abe 3abe e9b5 8fbe
00000200: 5d37 ae3e b533 653d ffbb 253f 8a9a 74be
00000210: 5008 6c3e 7084 b7bd 16ad cd3e 4981 dd3e
00000220: 0720 9ebe cd98 1f3e 593f 98be ffc7 603e
00000230: fc06 35bf 8dd9 a6be 5465 153e 8d9a 933e
00000240: e8c9 f23e 22f8 f0bb 2ab4 fbbe 0d14 0e3d
00000250: 1359 423e a93e 513e

4.bias f4 [5]
0.10887303 0.28645328 -0.10805018 -0.1694503 -0.061085604
00000000: d3f8 de3d 01aa 923e 6a49 ddbd 6184 2dbe
00000010: e634 7abd

0.weight f4 [30, 2]
0.8717691 -1.6813203 0.36711133 0.5254422 0.5265121 0.1580074 0.9460522 -0.7970785
-0.07976912 0.43577567 0.40071303 0.034841705 1.0308071 -0.356158 -1.8146112 0.24982093
-0.18840471 1.6504898 1.0054255 -0.37356734 -0.45469987 -0.28726873 -1.7420917 0.29627624
0.2802138 0.101547986 -0.5068505 1.0916955 -0.34518495 -0.64327055 0.096596114 1.3388743
0.52632344 0.59633243 -0.34075117 0.85589 -0.58163875 -0.41935527 0.2699845 -1.6653317
-0.8666704 0.94248474 0.21587822 -1.3345064 -0.36451158 -0.2820846 0.2977832 0.51290196
-0.6780773 -0.19850244 -0.77272135 -1.0244614 0.20254347 -1.3011378 -0.19256042 1.2427576
-0.5889016 -0.64430875 0.18334958 -1.2419156
00000000: 422c 5f3f 8135 d7bf 04f6 bb3e 6183 063f
00000010: 7fc9 063f b1cc 213e 7a30 723f 560d 4cbf
00000020: fe5d a3bd fd1d df3e 422a cd3e 2db6 0e3d
00000030: 7df1 833f 575a b6be 2e45 e8bf 0fd1 7f3e
00000040: 2aed 40be 4043 d33f c8b1 803f 3844 bfbe
00000050: 6cce e8be e314 93be dcfc debf 85b1 973e
00000060: 2f78 8f3e 64f8 cf3d f4c0 01bf aebc 8b3f
00000070: 15bc b0be 61ad 24bf 2fd4 c53d 3c60 ab3f
00000080: 22bd 063f 3ea9 183f f076 aebe 9b1b 5b3f
00000090: 47e6 14bf bcb5 d6be 693b 8a3e 9729 d5bf
000000a0: 1dde 5dbf ae46 713f 2e0f 5d3e 1bd1 aabf
000000b0: 43a1 babe 656d 90be 0a77 983e 8b4d 033f
000000c0: 7996 2dbf 3944 4bbe 11d1 45bf 8d21 83bf
000000d0: 8e67 4f3e af8b a6bf 8f2e 45be ae12 9f3f
000000e0: 41c2 16bf 6bf1 24bf febf 3b3e 17f7 9ebf

0.bias f4 [30]
-0.9485608 -0.38528976 0.80113316 1.7002418 -0.47568682 0.5695343 0.643424 -1.6947262
0.7113924 -0.6397725 0.5922965 1.6028231 -1.2262131 -1.6231831 1.2503563 1.1394397
0.27639878 -0.7686478 0.93364143 -1.3742335 -1.8689141 -1.1114516 -0.424185 -0.82763916
-0.7315433 0.012238709 0.2696707 1.0367172 0.7194029 -1.1641593
00000000: e1d4 72bf b344 c5be 1017 4d3f 86a1 d93f
00000010: 398d f3be 00cd 113f 6fb7 243f caec d8bf
00000020: d01d 363f 21c8 23bf bea0 173f 4f29 cd3f
00000030: 8df4 9cbf 77c4 cfbf ad0b a03f 29d9 913f
00000040: 2484 8d3e 1ac6 44bf 2003 6f3f e2e6 afbf
00000050: 9438 efbf 0c44 8ebf c72e d9be 29e0 53bf
00000060: 6c46 3bbf de84 483c 4712 8a3e 26b3 843f
00000070: ca2a 383f 2c03 95bf

2.weight f4 [30, 30]
-0.1744078 0.07157737 -0.22743668 0.035118666 0.41412973 -0.31380942 -0.031203052 -0.14549105
-0.011594219 0.3100892 -0.09800773 -0.18980393 -0.15532668 -0.13131337 -0.52616197 0.2142943
-0.0017876071 0.06267097 -0.075215176 0.11201911 0.06230338 0.013589502 -0.013372998 0.4299428
0.033810716 0.34637645 -0.12127776 0.08210452 -0.025594534 -0.19318098 -0.26673058 0.4194265
0.20617501 0.24101226 0.0011335707 0.16140957 0.035745803 -0.15061004 0.44230184 0.15969504
-0.19372 -0.124644764 0.122756995 -0.09490364 -0.21871549 0.03349906 0.20540282 -0.13548085
0.030078204 -0.22235146 -0.14608043 -0.29581985 -0.019582141 0.22973895 -0.018446423 -0.440039
-0.25810105 -0.01576832 -0.5484893 -0.29729939 -0.109629855 0.13478436 -0.5707324 -0.117336184
0.28876582 -0.015310307 0.007883254 -0.036267433 0.11018811 0.2295266 0.14339648 -0.22725406
0.07923023 0.24455564 -0.10668795 0.11189944 0.008087713 -0.09469807 -0.24097078 -0.17842975
0.18064882 -0.15658925 0.16515712 0.27838418 0.20725219 0.108013004 0.2200042 -0.074397795
0.0043351986 0.12598893 0.025081519 0.23371987 0.039017133 -0.6901545 0.4359436 -0.22857931
0.21868213 0.6554143 -0.2798269 0.030473601 0.058967307 -0.13753445 0.18473397 0.6531636
-0.41915852 -0.13348626 0.14632316 0.48010468 -0.013104241 0.041706894 0.7476964 0.14739512
-0.25454706 0.113528684 0.173577 -0.4762327 -0.13246875 -0.025241425 -0.20225169 -0.07670645
0.356624 -0.122703366 -0.15137818 -0.28127554 -0.21209939 -0.12828943 0.033908185 0.25454757
-0.3132903 0.098618254 0.00491701 -0.038947817 0.22852366 0.08653865 0.2732145 0.26606905
0.01810401 0.14443697 -0.06968624 -0.24262656 0.058860328 -0.13752499 0.18536992 -0.12993184
0.12814046 -0.09081998 0.029791327 0.12689814 0.33653215 -0.10462178 -0.20153838 -0.048516367
-0.020589089 -0.10713888 -0.058703605 -0.039317854 -0.2522114 -0.11702319 0.18671556 -0.050375734
-0.10912184 -0.08852454 0.07049173 -0.2807396 -0.060178462 -0.2263284 -0.1912053 -0.053454034
-0.119378716 0.18221253 -0.19964321 0.008952753 0.106840864 0.040612172 -0.20644918 0.20258218
-0.3943288 -0.23188867 -0.0734599 -0.036249787 -0.18010375 0.16687912 0.13790001 0.059248183
0.049346287 -0.0953589 -0.16400638 -0.25325668 0.04433558 -0.09049605 -0.13241336 0.24927671
-0.2022153 0.0003182035 0.22502325 0.45709512 0.38966948 0.06414119 -0.096200876 -0.5283435
-0.047329344 -0.2287026 -0.201741 -0.016124379 -0.12660041 -0.13575988 0.068271495 0.50964874
0.093755245 -0.36095116 -0.059978396 0.029732965 -0.06433655 -0.09726469 -0.23080446 -0.12761019
0.11425986 0.13702303 -0.23810251 0.11801105 -0.15558879 -0.12387802 0.0909414 0.10798447
0.051964745 -0.4985409 -0.4020736 -0.06879587 0.04856345 0.34664264 0.053442042 0.28948632
0.11200223 -0.0538334 0.07216324 0.31549513 0.042727582 -0.26821792 -0.10871759 0.13133726
0.26845267 -0.0001474611 -0.5036905 0.17475672 0.29790795 -0.27612844 0.149095 -0.06836408
-0.34747267 -0.114033185 0.36398387 -0.16309324 -0.34791088 0.40891898 -0.1188246 0.02616076
00000000: f597 32be 2897 923d 29e5 68be 97d8 0f3d
00000010: d008 d43e a1ab a0be 8b9d ffbc 9bfb 14be
00000020: aef5 3dbc 03c4 9e3e 47b8 c8bd f65b 42be
00000030: f50d 1fbe 0377 06be 8db2 06bf f76f 5b3e
00000040: 244e eaba a359 803d 6a0a 9abd 466a e53d
00000050: d431 7f3d 81a6 5e3c 6b1a 5bbc 7621 dc3e
00000060: 1b7d 0a3d 4158 b13e 7960 f8bd 6a26 a83d
00000070: a1ab d1bc 3cd1 45be e990 88be 12bf d63e
00000080: 8b1f 533e ebcb 763e 5294 943a 8d48 253e
00000090: 316a 123d 8539 1abe 6375 e23e 1987 233e
000000a0: 895e 46be c145 ffbd 0568 fb3d d75c c2bd
000000b0: f4f6 5fbe 4f36 093d 1e55 523e 7ebb 0abe
000000c0: 9166 f63c 1ab0 63be 1c96 15be b375 97be
000000d0: ba6a a0bc b040 6b3e f41c 97bc cb4c e1be
000000e0: d225 84be 902c 81bc cb69 0cbf a037 98be
000000f0: 9e85 e0bd e904 0a3e 851b 12bf f44d f0bd
00000100: 1dd9 933e 15d8 7abc c428 013c 298d 14bd
00000110: 4eaa e13d 0509 6b3e 87d6 123e 4ab5 68be
00000120: 7543 a23d cb6c 7a3e 367f dabd 892b e53d
00000130: 5482 043c 10f1 c1bd 0bc1 76be 4ab6 36be
00000140: 01fc 383e ef58 20be f31e 293e 5f88 8e3e
00000150: eb39 543e ec35 dd3d c848 613e df5d 98bd
00000160: 480e 8e3b 3e03 013e c277 cd3c 4354 6f3e
00000170: 6ed0 1f3d f7ad 30bf 0034 df3e b210 6abe
00000180: 35ee 5f3e 3bc9 273f 7945 8fbe c6a3 f93c
00000190: b487 713d d5d5 0cbe e72a 3d3e bb35 273f
000001a0: f29b d6be 9fb0 08be bdd5 153e 48d0 f53e
000001b0: 2cb3 56bc d9d4 2a3d 0869 3f3f bfee 163e
000001c0: fe53 82be ba81 e83d 2bbe 313e c6d4 f3be
000001d0: e3a5 07be 1bc7 cebc 111b 4fbe 4518 9dbd
000001e0: 6c97 b63e e74b fbbd e202 1bbe 5903 90be
000001f0: 9530 59be 4e5e 03be 4fe3 0a3d 0f54 823e
00000200: 9667 a0be 5ef8 c93d df1e a13b bf87 1fbd
00000210: 1b02 6a3e 2d3b b13d c5e2 8b3e 343a 883e
00000220: dc4e 943c 49e7 133e a9b7 8ebd 1973 78be
00000230: 8717 713d 5ad3 0cbe 9dd1 3d3e da0c 05be
00000240: 4137 033e d3ff b9bd f10c f43c 96f1 013e
00000250: f14d ac3e f243 d6bd 1460 4ebe 19b9 46bd
00000260: 73aa a8bc a16b dbbd 3173 70bd c20b 21bd
00000270: da21 81be dba9 efbd 5d32 3f3e c956 4ebd
00000280: 457b dfbd 5b4c b5bd f85d 903d 1abd 8fbe
00000290: b17d 76bd a2c2 67be 52cb 43be 9ef2 5abd
000002a0: d47c f4bd ec95 3a3e 456f 4cbe 91ae 123c
000002b0: 62cf da3d f358 263d 6a67 53be b471 4f3e
000002c0: 77e5 c9be 3974 6dbe 2572 96bd a87a 14bd
000002d0: 1e6d 38be 5ce2 2a3e a935 0d3e 39ae 723d
000002e0: 551f 4a3d 874b c3bd 4af1 27be dcaa 81be
000002f0: 3a99 353d fe55 b9bd 5e97 07be 6542 7f3e
00000300: 8711 4fbe 8dd4 a639 7f6c 663e 5f08 ea3e
00000310: c282 c73e 755c 833d f704 c5bd 8541 07bf
00000320: 6adc 41bd 0431 6abe 3195 4ebe 4617 84bc
00000330: 8aa3 01be a304 0bbe edd1 8b3d 5778 023f
00000340: c002 c03d 97ce b8be e8ab 75bd 8c92 f33c
00000350: e2c2 83bd b632 c7bd 0158 6cbe 3fac 02be
00000360: 1301 ea3d c44f 0c3e 25d1 73be c7af f13d
00000370: ab52 1fbe c2b3 fdbd 7c3f ba3d f626 dd3d
00000380: fcd8 543d c140 ffbe 97dc cdbe d9e4 8cbd
00000390: 78ea 463d 257b b13e 0be6 5a3d 8d37 943e
000003a0: 6d61 e53d 6980 5cbd 52ca 933d 9488 a13e
000003b0: 1e03 2f3d dc53 89be 54a7 debd 467d 063e
000003c0: a172 893e ca9f 1ab9 dcf1 00bf 6df3 323e
000003d0: 6487 983e b560 8dbe 5cac 183e 7702 8cbd
000003e0: f0e7 b1be 3b8a e9bd 185c ba3e ea01 27be
000003f0: 6021 b2be d45d d13e 505a f3bd 174f d63c

2.bias f4 [30]
0.19261453 -0.12700912 -0.23224983 -0.042814676 -0.017144186 0.06672729 0.0832623 -0.13337085
0.26914907 0.06860778 0.4049612 0.20933004 -0.063242614 0.013738216 -0.26284692 0.21650371
0.09128567 0.27692038 -0.18386826 -0.21602203 0.29498354 -0.47498378 0.18706219 -0.08047053
-0.19858664 0.15811035 0.296331 -0.0020292492 0.52262753 -0.11910418
00000000: be3c 453e ae0e 02be e6d2 6dbe 715e 2fbd
00000010: f771 8cbc 51a8 883d 6d85 aa3d 5e92 08be
00000020: e8cd 893e 3c82 8c3d 1357 cf3e 9d5a 563e
00000030: 5885 81bd 4116 613c df93 86be 26b3 5d3e
00000040: fbf3 ba3d 82c8 8d3e f647 3cbe e134 5dbe
00000050: 1508 973e 1331 f3be 3b8d 3f3e bccd a4bd
00000060: 4c5a 4bbe aee7 213e b2b8 973e 27fd 04bb
00000070: ebca 053f e4ec f3bd
