FullOrder/ReconstructORI/Run_20251028_165647_NoPhys_NoBatch_HD30_HL2_LR0.01_checkpoint.pth (torch, 279386 bytes, 80 tensors)

0.weight f4 [30, 2]
000000 d1 50 ef 3e 1f 5d ea 3e ce 11 1b be 5d d2 5f 3f
       0.46741346 0.4577417 -0.1514351 0.87430364
000010 31 e2 ad 3e 5b ec d4 3e 21 89 b2 be a0 95 31 3e
       0.33961633 0.41586575 -0.34870246 0.17342234
000020 05 f6 ee bd 38 68 34 bf 23 a9 74 3e d4 75 55 bf
       -0.11668018 -0.70471525 0.23892646 -0.83382916
000030 6d 0e 6a 3f 0a be 38 bf 8b 11 3a bf 5f b0 f9 bd
       0.9142826 -0.72164977 -0.7268302 -0.12191843
000040 b0 bb a8 be cf d4 1e 3f b4 58 e9 3d d9 a1 d9 3e
       -0.32955694 0.6204347 0.11393872 0.42506292
000050 a2 59 60 3f ec 3e 84 bf 30 b1 3c be eb 57 d8 3e
       0.8763677 -1.0331702 -0.18426967 0.42254576
000060 b1 1e 68 3e 97 8e 81 bf ed 2b fd be 51 d7 39 3f
       0.22667958 -1.012164 -0.49447575 0.7259417
000070 60 51 3d bd 41 99 45 3f cc 90 15 bf 30 4c 07 3d
       -0.046220183 0.7718697 -0.5842407 0.033031642
000080 9c 2f 81 bd 52 11 2e 3f 73 ba 08 3f 39 f9 3e bf
       -0.06307909 0.6799518 0.534095 -0.74599034
000090 df 86 ee 3d d6 55 df be 24 d8 08 3f 2a 07 17 bf
       0.11646818 -0.43620175 0.53454804 -0.58995306
0000a0 4c ee 94 3f 73 ef ad be 1d 96 97 3c 99 a7 49 bf
       1.1635222 -0.33971748 0.018504197 -0.7877136
0000b0 eb f5 5d 3c 16 d0 82 bf 0c 4d 4b 3d bb 19 0b 3d
       0.013547401 -1.0219753 0.049634025 0.033960085
0000c0 ab b6 16 bf 63 cd 99 3d cd f7 0b 3f 1d 8c dc be
       -0.5887248 0.075098775 0.5467499 -0.43075648
0000d0 ce 62 89 3e b8 66 59 3f 16 b9 12 3f 57 f5 c1 bd
       0.26833194 0.8492236 0.5731367 -0.09470623
0000e0 47 16 1f be 82 37 3c 3f 53 f7 1c 3f 60 bf 2f bf
       -0.15535842 0.735222 0.61314887 -0.6865139

0.bias f4 [30]
000000 29 74 02 bf 6a 97 4d bf 90 12 4b 3f 51 aa 63 bf
       -0.50958496 -0.80309165 0.793252 -0.8893176
000010 1e cf 5e be a8 e3 b9 3e 10 8d cc be 76 11 6c 3f
       -0.21758696 0.363065 -0.39951372 0.92214143
000020 3d 85 61 bf 7c 20 42 3e 8b e9 de be 2d 64 85 bd
       -0.8809393 0.18957704 -0.43537554 -0.06513248
000030 bb 54 3c 3f 71 eb 73 bf ab ea 29 3f e5 ca 28 bf
       0.7356679 -0.9528113 0.663737 -0.6593459
000040 78 cf 18 bf cf 4b 78 3f 18 dd 05 3f 3a 69 01 bf
       -0.5969157 0.96990675 0.5229049 -0.5055119
000050 cd c1 a8 3f 68 6f 02 bf 4d 0e 55 3f 17 6c 20 bf
       1.3184143 -0.5095124 0.83224946 -0.6266493
000060 19 11 32 3f 5f f1 31 3f e2 27 d5 be f3 64 37 3f
       0.6955734 0.6950893 -0.4163199 0.7163841
000070 4c 7f 2b 3f f2 e9 8e 3f
       0.66991115 1.1165144

2.weight f4 [30, 30]
000000 66 d6 2d 3d d8 2f a3 3e 4b 3e 56 3e 44 a7 aa 3e
       0.042440794 0.3187244 0.209222 0.3333074
000010 66 3b 16 bd 9c 11 04 be d0 84 84 3d be 86 8d be
       -0.03667774 -0.12897342 0.064706445 -0.27641863
000020 2d 60 49 3e a4 39 85 3e 5e 46 cd 3d 03 57 f4 3d
       0.19665594 0.2602054 0.10023187 0.11930659
000030 91 32 ac bc 20 85 7a bd 50 5f 9c bb d8 c5 6f bd
       -0.021020206 -0.061162114 -0.0047721043 -0.058538288
000040 4f 89 25 3e 89 f9 5f 3c 1e c8 8a be 63 18 e3 b9
       0.1616566 0.013670334 -0.27105802 -0.00043314983
000050 2f c3 10 3d 55 2c 3e 3e fe 7d 89 be 1b fb 0b 3c
       0.03534239 0.18571599 -0.26853937 0.008543755
000060 da 45 25 3c 16 10 27 be f3 eb 51 3d fa f1 18 3e
       0.010087455 -0.1631473 0.05125041 0.14936057
000070 5b ff d3 3d f9 6a 49 be f2 79 0e 3e 59 04 f4 bd
       0.103514396 -0.19669713 0.13913706 -0.11914892
000080 45 b1 0f 3f 2f 93 a2 3d 62 cb e9 be 45 ba f5 bd
       0.56129867 0.07938229 -0.4566298 -0.11998419
000090 ec 7f ae be e6 28 5b 3e 69 23 72 3e a4 67 e6 3e
       -0.34081972 0.2140232 0.2364632 0.45000947
0000a0 fa 70 18 bf 09 3d 47 3e bf 61 19 be dd 72 fe bd
       -0.5954739 0.19456877 -0.14978693 -0.12424252
0000b0 ff 1f fa 3e 1c 44 84 be a1 3e fe 3d f4 0a ff bd
       0.48852536 -0.25833213 0.12414289 -0.12453261
0000c0 e9 5a 92 bc 63 89 e0 be f1 a2 d0 3d 48 21 12 bf
       -0.017865615 -0.43854818 0.101873286 -0.57082033
0000d0 9e 7b ed 3d cc 65 12 3d be e3 12 3f eb 7e 43 be
       0.11595844 0.035741612 0.57378757 -0.19091384
0000e0 4f a6 eb 3e 72 20 34 3e 6b 60 65 3f 2f 08 ef 3d
       0.4602532 0.17590502 0.8960025 0.11671483
0000f0 1c 72 8c be 46 9a c3 3d cd 5a a1 3e 3f ab da be
       -0.2743081 0.0955091 0.31514588 -0.42708775
000100 bf e7 71 3e c1 8b 8f 3d b8 61 83 be 12 26 86 3e
       0.2362356 0.07009078 -0.2566049 0.2620092
000110 66 99 dc 3d 36 1b 23 bb 4f 30 34 bd 6e 3e b2 bd
       0.10771446 -0.0024888045 -0.043991383 -0.08703314
000120 80 1a 67 be f0 9b fb 3d 37 ca 88 be c9 7a 37 be
       -0.22568703 0.12285602 -0.26716778 -0.17917933
000130 58 fb 11 be 8a b2 36 be 0e dd 31 3c cd 47 56 3d
       -0.14256036 -0.17841545 0.010855926 0.05231457
000140 7f c8 52 3d b0 d6 72 3e 1d 37 d0 bd 8b f6 21 be
       0.05146074 0.2371471 -0.10166762 -0.15816705
000150 b4 f1 63 3d 77 89 f2 bd 9c c0 ae bc c1 79 89 3e
       0.055650428 -0.118426256 -0.021332078 0.26850703
000160 49 09 39 3e c5 56 91 bd 34 08 52 3e d0 72 80 3e
       0.18069948 -0.07096628 0.20510942 0.25087595
000170 bb 00 5d 3e cd 42 90 3e 40 b5 6a be cc db e2 bd
       0.2158231 0.28175965 -0.22920704 -0.11077079
000180 77 83 c7 3d 17 62 41 bd fc 44 9d 3d f3 f1 89 bc
       0.09741872 -0.047212686 0.07679173 -0.016839003
000190 e1 9a 07 be ff b4 e0 bd 3f 62 7e be 9d 15 c1 bd
       -0.13242675 -0.10972022 -0.24842165 -0.094279505
0001a0 61 8a e9 3d ea 7a 8b be f4 15 5b 3e 50 54 52 3d
       0.11403347 -0.27242213 0.21395093 0.051349938
0001b0 53 ce 90 bd 5a 97 02 3e 86 e2 08 3c 04 1d 06 be
       -0.07070603 0.12753049 0.008354789 -0.13097006
0001c0 e0 4b 74 be 9f 77 d8 3d 43 b6 f5 bd 24 d0 1a 3e
       -0.23857069 0.10569691 -0.11997654 0.15118462
0001d0 0e e2 84 3e 95 f7 70 bd 11 1a 38 3e 95 84 92 3d
       0.25953716 -0.058829863 0.17978694 0.07154194
0001e0 58 0e 01 be 33 11 18 be ef 45 5c bd 6b 2c c2 3e
       -0.12603128 -0.14850311 -0.05377763 0.37924513
0001f0 3c c7 fa bd 43 29 0e 3e 52 12 48 3d bf 30 dc bd
       -0.12245032 0.13882928 0.048845597 -0.10751485
000200 a9 bb 41 3d 62 41 37 be 86 33 3e bd 83 10 67 3d
       0.047298107 -0.17896035 -0.046435855 0.05641223
000210 9c 89 84 3e 9a ab 61 be 45 67 fe bb 38 0e e3 3c
       0.25886238 -0.22038117 -0.0077637755 0.027716741
000220 62 79 68 be a8 a8 37 3e b4 c7 db 3d 45 71 c8 bd
       -0.22702554 0.17935431 0.1073145 -0.097872294
000230 63 09 7d be 5b 40 e2 3d 1b c1 44 3d 4e 20 cc 3c
       -0.24710612 0.11047431 0.048035722 0.024917748
000240 eb 21 aa bd 48 ed 92 3d c7 d3 28 3e 06 03 cc bd
       -0.083072506 0.07174164 0.16487037 -0.09961514
000250 d9 80 1d bd 06 71 aa bd f6 11 94 3c 6e 38 97 3c
       -0.038452957 -0.08322339 0.01807497 0.018459525
000260 53 59 f3 be da 56 09 3e 73 57 05 3e c8 1d b8 bd
       -0.47529086 0.13412037 0.1302164 -0.08990055
000270 9d 2c 95 3e 66 07 ec bd 86 09 53 bd d5 62 78 be
       0.291356 -0.11524849 -0.051522754 -0.24256451
000280 bc 03 8b 3e d4 36 a5 be f0 e5 96 bd aa 88 8b bd
       0.27151287 -0.32268393 -0.07368076 -0.06813176
000290 90 4c d1 be 78 fb 09 3d ba d3 06 be 82 83 f7 bc
       -0.40878725 0.033687085 -0.13166705 -0.030214075
0002a0 21 59 14 3e 4a ca 88 3e eb 65 8f be 57 eb d4 3e
       0.14487125 0.26716834 -0.28007445 0.415858
0002b0 27 ad cc 3d 34 e8 e8 3e db c3 8a be 07 2a 0e 3e
       0.09993964 0.45489657 -0.2710255 0.1388322
0002c0 6d 4e 68 be 00 22 87 be 8c ff 09 bf 4e 73 90 bd
       -0.22686167 -0.26393127 -0.5390556 -0.070532426
0002d0 a2 3d 80 be e7 5e 43 be 89 03 93 3e ef a7 fe be
       -0.25047022 -0.19079171 0.28713635 -0.49737498
0002e0 8d 70 1c 3e a4 b4 a6 3c 42 5f 97 3e ec 06 04 3e
       0.1527731 0.020349808 0.29564863 0.12893265
0002f0 90 3f ef bc 0a f3 d0 bb ed 48 c6 3d 7e ce b3 bd
       -0.029205114 -0.0063766288 0.09681878 -0.0877962
000300 4b 9c 8b 3e 46 1a 8c be e2 62 00 3d 05 de 01 be
       0.2726768 -0.27363795 0.031344302 -0.1268235
000310 fe 0e e1 3d c7 df 5a 3e d1 12 3c 3d 25 7c bc bc
       0.10989188 0.21374427 0.045916382 -0.023008415
000320 10 ae 9a 3c 92 02 cd bd 8e 17 f5 3d cd 97 33 3d
       0.018881828 -0.10010256 0.11967383 0.04384594
000330 59 77 63 3e f5 26 c0 3e 94 a1 01 3d 1d be ad 3e
       0.22213496 0.37529722 0.031648234 0.33934107
000340 39 a4 bf 3d db dd 3c 3e 35 af 3b be 9f 60 65 3e
       0.09357495 0.18444006 -0.18328555 0.2240014
000350 56 84 17 be c3 cd c2 3d 66 3a 8a 3e 7f 90 30 be
       -0.14796576 0.09511902 0.2699768 -0.17242621
000360 e3 aa 0c be 29 6d 1a bd bc 3e ac bc ef f3 5a be
       -0.13737063 -0.03770176 -0.021026008 -0.21382116
000370 6f d7 37 be 01 1f 41 be d8 92 10 be f6 01 67 bd
       -0.17953275 -0.18859483 -0.14118516 -0.056398354
000380 36 3b 20 bf b2 43 bc bd 6d ba e3 bc 4f 14 71 be
       -0.6259035 -0.09192599 -0.027798856 -0.23542903
000390 6b 75 ab bd db 78 03 3e f2 c8 31 3c d5 08 df 3e
       -0.08372005 0.12839071 0.010851132 0.43561426
0003a0 7a d9 3d 3d 5b 8c 7a bd 21 64 60 be 60 10 d6 bb
       0.04634998 -0.06116901 -0.21913196 -0.006532714
0003b0 d5 8e 3d be 4b 58 94 bc e0 71 0f bf c2 32 82 3e
       -0.18511517 -0.018108508 -0.56033134 0.2542935
0003c0 35 76 30 3e 0d 67 bc 3c 31 2e 97 bc c5 b3 30 3e
       0.17232592 0.022998357 -0.018454643 0.17256077
0003d0 7f a4 e3 3d 41 dc 3a be b1 01 a5 bc 65 3a 22 3d
       0.111153595 -0.18248083 -0.020142408 0.03960647
0003e0 52 0b 44 3e 9a d8 c2 bd 82 da 31 3e 38 3c 13 3e
       0.19144943 -0.0951397 0.1736851 0.1437844
0003f0 2c 0e 59 be 47 06 1e 3e 1c 6b ee bd 4a aa 47 be
       -0.21196812 0.15432082 -0.11641523 -0.19498554

2.bias f4 [30]
000000 05 0c 80 be 3d 14 03 bd 12 88 91 3e cf 2b 82 be
       -0.2500917 -0.032001723 0.28424126 -0.25424048
000010 f8 1c 5a be 82 8e c9 be d3 13 be 3d d2 81 bd 3d
       -0.21300113 -0.39366537 0.09281125 0.09253277
000020 58 31 8e 3d ba 98 bd be 3c e0 51 be b1 70 c8 be
       0.06943005 -0.37030584 -0.20495695 -0.39148477
000030 45 f4 02 bf ca 9b 1b 3e 19 f0 81 be 11 82 02 3e
       -0.51153976 0.15196148 -0.25378492 0.12744929
000040 c4 12 21 bf d8 1c f5 3d 9c 20 b0 3d 32 32 b1 be
       -0.6291926 0.11968392 0.0859997 -0.34608608
000050 b8 cf a5 3e e1 52 9e 3e bd a9 32 be ab 26 94 be
       0.3238504 0.30922607 -0.17447563 -0.2893575
000060 6a 76 90 be 62 27 3c be e8 48 cb 3d e4 00 85 be
       -0.28215343 -0.18374398 0.09926015 -0.25977242
000070 b9 95 8e be ac eb cc be
       -0.27848604 -0.40023553

4.weight f4 [5, 30]
000000 6f 5a 31 be 4a 85 f9 3d 1a 10 fd be 0c ad ad bd
       -0.17319654 0.12183626 -0.49426347 -0.08480272
000010 a3 32 c2 3d 21 a9 37 3d 20 64 bd bd 94 3e 91 be
       0.094823144 0.04483903 -0.09247613 -0.28368056
000020 ff 0d 16 bd 7d 9d 87 3e 8d 59 35 be aa 3a ee 3d
       -0.03663444 0.26487342 -0.17709942 0.11632283
000030 55 98 f0 3d 64 a8 28 3e 8f d4 3e 3d 26 f5 06 be
       0.11747805 0.16470486 0.04658943 -0.13179454
000040 88 6f a2 3d f7 41 6c 3e 9b 1c 8d 3e 8d 3e 11 3e
       0.07931429 0.23072039 0.27560887 0.14184017
000050 76 9a 50 3e f6 9d e5 bd b7 2c bb 3d c7 a3 4e 3e
       0.20371422 -0.11211769 0.09139388 0.20179664
000060 36 c6 bd be 35 de 6c bd a8 51 e2 bb b1 69 53 bc
       -0.37065285 -0.0578291 -0.006906707 -0.012903617
000070 43 e1 40 be 0d 93 9d 3d d0 f7 df bc 19 db 2a 3e
       -0.1883593 0.07694063 -0.027339846 0.16685142
000080 13 e6 ad 3e 0d 5a ea bd 6e bc 66 3d 3a d7 da 3d
       0.33964595 -0.11442957 0.056332044 0.106855825
000090 e4 7c 06 be 96 ab cb 3e 68 0d 1b be ea 51 4b be
       -0.1313358 0.39779347 -0.15141833 -0.19855466
0000a0 d8 8a 2a be 18 22 d4 be b0 ca 6e be ad a8 22 3d
       -0.16654527 -0.4143226 -0.23319507 0.039711643
0000b0 24 57 99 be 34 78 b0 3d 94 af 85 be 33 c8 f0 bd
       -0.29949296 0.08616677 -0.26110518 -0.11756935
0000c0 ae 81 b6 3e 4a cc 0e 3e 70 17 dc 3e 10 e0 38 3e
       0.35645813 0.13945118 0.4298663 0.18054223
0000d0 58 6f f5 3b a1 5d f7 3d 9f 35 36 3f 27 e5 04 3d
       0.00749008 0.12078405 0.7117557 0.0324451
0000e0 b6 40 85 be 2f 4d 23 3c b3 16 dc 3e 02 2d 40 3e
       -0.26025933 0.0099671325 0.42986068 0.18767169
0000f0 5b d4 4b 3d b1 e6 b0 be ac 6c cf 3d e1 47 10 bf
       0.049763065 -0.34551004 0.101281494 -0.5635968
000100 8e 3c d0 be be 30 45 3f c2 bd c4 be c3 a3 0a 3f
       -0.406712 0.770275 -0.38426024 0.5415613
000110 be ef 68 3e 2b 9e 3d 3d 74 3b fe bd f3 b7 98 bd
       0.22747704 0.04629342 -0.124136835 -0.074569605
000120 12 c0 01 3f fd d5 d1 be 0e a1 ac be db cc 7d be
       0.506837 -0.40983573 -0.33716625 -0.24785177
000130 db 6d e5 3d bc 26 fe be b4 11 ab be 1e ad 39 bf
       0.11202594 -0.49638927 -0.33411944 -0.7252978
000140 94 16 c3 bc 80 38 4e 3e 12 11 26 bd f9 8f 5c 3e
       -0.023814477 0.2013874 -0.040543623 0.21539296
000150 17 f2 f0 be af 26 fb 3d 45 16 b1 3e 53 38 08 be
       -0.470597 0.12263238 0.34587303 -0.13302736
000160 3d 4c 6b bf 24 37 79 bf 6b 36 ab be b2 27 51 3f
       -0.91913205 -0.9734976 -0.33439955 0.81701195
000170 4a 6f bc bd ed 01 a5 3e 0a 9c e2 3d e7 58 d4 be
       -0.09200914 0.32228032 0.11064918 -0.41474077
000180 de a9 a4 bd 05 75 0b be bc f4 e7 bd 62 db 15 3e
       -0.08040212 -0.13618858 -0.11325976 0.14634469
000190 9b c8 e1 be 7e 77 ac 3d c2 14 92 bd 3b dd c8 be
       -0.44098362 0.08421229 -0.071328655 -0.39231285
0001a0 b5 bd 81 bf 50 d4 9c 3e 6f 7f 28 be 77 51 b6 be
       -1.0136019 0.30630732 -0.16454862 -0.35609028
0001b0 29 4e 9e be e9 9e 46 3f f1 ef e9 3e ca 92 21 bf
       -0.30919006 0.7758623 0.45690873 -0.6311461
0001c0 9a 88 69 3f 3b bb 1d be 0f 30 b1 be 19 f1 1f 3f
       0.9122406 -0.15403454 -0.34606978 0.6247726
0001d0 b1 78 7d bf d4 08 02 3d 15 97 1f bf ce 38 9a be
       -0.99012285 0.0317467 -0.6233991 -0.30121464
0001e0 34 d2 db bd d3 82 1b bd ad f7 67 be cd 9b 56 be
       -0.107334524 -0.03796656 -0.22653075 -0.20957871
0001f0 28 99 e3 3d c4 22 ac 3c 7e c6 5b 3d 78 f7 88 bd
       0.111131966 0.021012671 0.053656094 -0.06687826
000200 5e 2a 29 be 3a 11 04 3e 83 07 26 be 73 56 db 3d
       -0.16520068 0.12897196 -0.16213803 0.10709848
000210 a4 a9 36 3e 6a 96 38 3e 2d 9f 32 bb c8 30 3e be
       0.1783815 0.18026128 -0.002725552 -0.18573296
000220 e1 57 09 3e 26 d2 e4 3d 45 55 57 3e c8 b8 ff bc
       0.1341243 0.11172895 0.21028621 -0.03121604
000230 ea d5 d3 3d d5 24 1e bd b0 5d 6a 3d e3 f7 95 3d
       0.10343535 -0.038609345 0.057218254 0.07322671
000240 33 9f b5 be a7 d1 5d 3d 06 0b 36 bd 0c 39 3f 3d
       -0.35473022 0.05415502 -0.044444107 0.046685264
000250 dd 26 1c be 61 7d a7 3c
       -0.152492 0.020445528

4.bias f4 [5]
000000 3f d2 21 be ed 4c f1 3e b6 22 57 be cb b1 9c 3d
       -0.15802859 0.47129002 -0.21009335 0.07651099
000010 3f 61 d5 be
       -0.41675755

0.weight f4 [30, 2]
000000 5d 7a 27 bf 78 cb 71 bf 1e 6c 87 bf aa 0d 33 3e
       -0.65421087 -0.94451094 -1.057987 0.17485681
000010 1f b6 35 3d a4 9f 81 3e 09 51 38 3f e0 6b 2d 3f
       0.044363137 0.2531711 0.7199865 0.6774273
000020 20 ec 40 3e a1 db 69 3e 78 5f ed 3e 97 85 59 3f
       0.18840075 0.22837688 0.463619 0.84969467
000030 92 b1 c4 3d 88 22 1e bf 00 aa 84 3e f5 56 f6 be
       0.09604181 -0.6177144 0.2591095 -0.48113218
000040 cc 21 4d be 53 0b 18 3f 6b 5e d6 bd cf 68 0f bf
       -0.20032424 0.5939228 -0.104672275 -0.560193
000050 90 03 20 3f 3d d1 0e bf cd c3 95 3e ee b2 57 bf
       0.62505436 -0.5578802 0.29250947 -0.842574
000060 1a 69 a9 3d 4e 02 eb 3e d3 37 83 3c 93 72 3f bf
       0.08272 0.45900196 0.01601783 -0.747842
000070 13 72 71 be 70 cc 37 bf 35 f9 d5 be 17 35 61 3f
       -0.23578672 -0.7179632 -0.41791692 0.87971634
000080 4c 96 2b bf 2f ae 72 3f 95 42 99 bd 56 91 1b bf
       -0.6702621 0.94797033 -0.07483403 -0.6076864
000090 7b 8b 8d 3f b2 db e8 be 58 16 68 be f4 38 27 3f
       1.1058191 -0.45480114 -0.22664773 0.6532128
0000a0 58 8e 4c bf 3a 15 0b 3f cd 58 c1 bc 4a d9 30 bf
       -0.799047 0.54329264 -0.023601914 -0.69081557
0000b0 71 fc 25 bc a0 31 4b 3f 19 b3 8b bf cb 50 02 3f
       -0.0101309875 0.79372597 -1.0914031 0.5090453
0000c0 c0 be b7 bf 11 16 d2 bd ec 3a d7 be 26 dc 64 bf
       -1.4355087 -0.10258115 -0.4203714 -0.8939842
0000d0 55 b8 50 3f 2e 28 e9 be a2 af 0f 3f d3 96 41 be
       0.8153127 -0.45538467 0.5612737 -0.18905191
0000e0 3f 8b d8 3e 2d 82 68 bf d3 4e d6 3e 9c b3 34 3f
       0.42293736 -0.9082363 0.41857013 0.7058656

0.bias f4 [30]
000000 ce 1e 62 3e 7f 02 b4 be d0 3c 67 bf e5 bd 12 bf
       0.22082064 -0.35158154 -0.9032717 -0.57321006
000010 ff 57 b8 be a5 1b 3d bd 92 6b 04 bf 4d e8 72 bf
       -0.36004636 -0.046168942 -0.5172664 -0.9488571
000020 f5 10 f8 3d 25 c4 2a bf 17 88 19 3f 1e 27 16 bf
       0.12112609 -0.6670554 0.5997328 -0.5865344
000030 c9 09 7c 3e 0d 25 3f bf 65 4f 9a be a9 7f 68 3f
       0.24613108 -0.7466591 -0.30138698 0.90819794
000040 c4 01 5a 3f c3 a1 a5 be 31 a5 88 3f 32 04 05 3f
       0.85158944 -0.32349977 1.0675412 0.51959527
000050 0a 2e 85 bf c2 84 ee bb 8c 7e ee be 82 c3 f6 3e
       -1.0404675 -0.0072790096 -0.46580923 0.48196036
000060 0e a6 1e bf 67 d8 54 3f c6 cc 64 3f 44 55 25 bf
       -0.6197213 0.83142704 0.8937496 -0.6458323
000070 b5 87 80 3f 1e c5 80 bf
       1.0041414 -1.0060155

2.weight f4 [30, 30]
000000 5e 16 51 bc 12 14 f7 bc 4e 03 58 be f8 63 af 3b
       -0.01276168 -0.030160937 -0.2109501 0.0053524934
000010 f9 fb f4 3c 4b 49 ce bd d9 b4 93 3e 35 4c 82 3e
       0.029905306 -0.10072573 0.28848913 0.25448766
000020 20 96 9c be 3b 00 01 bd f8 01 b2 be 99 05 e4 3d
       -0.30583286 -0.03149436 -0.34767127 0.1113388
000030 50 bb 4b be dd 59 9b 3d 1a a1 34 3e 97 c8 63 be
       -0.19895673 0.075854994 0.1763958 -0.22244488
000040 65 58 c6 be 66 7d ee 3d 72 f3 66 3d bf 4f a0 be
       -0.38739315 0.116450116 0.05638451 -0.3131084
000050 9e 20 b9 3d 6b 52 2e 3e f1 5e 08 bd 7a b6 bc be
       0.09039424 0.17023627 -0.03329367 -0.3685797
000060 fd a6 b7 bc 52 13 9a 3e 00 9e ce be 71 9b 1b 3e
       -0.022418493 0.30092865 -0.4035492 0.15196015
000070 a7 4d 75 3d c5 84 9e bc 1a 5f 50 be d0 10 57 3e
       0.05988851 -0.019350419 -0.20348778 0.21002507
000080 4d 02 46 3e aa 88 dd bd cf 99 22 3e 15 d7 1e bd
       0.19336815 -0.10817082 0.15878986 -0.038779337
000090 70 29 99 be f8 bd b6 be e8 b4 7b 3e 20 f4 6e be
       -0.29914427 -0.3569181 0.24580729 -0.23335314
0000a0 05 a2 e8 be 67 17 db be f1 c4 0a 3e 08 d4 d0 bd
       -0.4543611 -0.42791292 0.1355169 -0.10196692
0000b0 15 bb 80 bb 5f 49 9a 3e 0d e1 20 3f 16 8c 73 bd
       -0.003928552 0.30134103 0.628434 -0.05945977
0000c0 ef b8 8c 3d b9 fd 0c 3f b5 9a 7a bc 22 ee 89 be
       0.06871211 0.5507465 -0.015295674 -0.26939493
0000d0 d0 c5 93 3e 2e aa 02 3f c5 d0 9a 3d 49 51 23 be
       0.28861856 0.51040924 0.07559351 -0.15948977
0000e0 51 38 f7 bd 8c 39 e2 be 2f e9 1f 3c e9 e1 86 3d
       -0.120712884 -0.4418453 0.009760185 0.06586058
0000f0 03 f7 b2 bd 66 8e da 3d 1a bf e8 bd 85 6e 4c be
       -0.0873852 0.106716916 -0.11364575 -0.19964035
000100 64 81 4f be 9c 49 92 3d ac e4 70 3e 61 cf 48 3e
       -0.20264202 0.07142946 0.23524731 0.19610359
000110 72 76 ff bd 6c bb fc 3d 7b 19 1a be 73 fa 77 bd
       -0.124737635 0.123404354 -0.15048783 -0.06054158
000120 bf a4 c6 3d 9d fc 6c 3e 05 ed 10 3c 03 b7 fe 3c
       0.096993916 0.2314324 0.008845572 0.031093126
000130 cb 85 d9 3c 14 46 08 3e 70 b6 11 be 77 72 6f be
       0.026553055 0.13307983 -0.1422975 -0.23383509
000140 61 53 1e 3e 74 fb a9 bd f8 af 24 3e 15 6d 1d be
       0.15461494 -0.08299914 0.16082752 -0.15373643
000150 db 0b 04 bc 52 ef 1f be 99 63 9c bc 32 3b 8e 3d
       -0.008059467 -0.15618637 -0.01909046 0.06944884
000160 93 7a 1d 3e 5a fc 94 bd dc d8 9a bd 7a 66 dc b8
       0.1537879 -0.07274695 -0.07560894 -0.00010509505
000170 d6 e0 40 3e 9f d7 2f 3e 0a d8 95 bd 09 3a 58 bd
       0.18835768 0.17172097 -0.07316597 -0.05278972
000180 85 7d 69 be e1 d8 7c be a8 06 29 3e 2a db 65 be
       -0.22801788 -0.24692108 0.16506445 -0.22446886
000190 13 06 19 be 7a 3e 52 bd b2 62 70 bc 5b 95 a5 bd
       -0.14943723 -0.051329114 -0.014671968 -0.08085128
0001a0 c1 38 f2 bd e7 7f 32 bd d9 9d 0e 3d dc 2f 8c bd
       -0.11827231 -0.04357901 0.034818504 -0.06845066
0001b0 30 ea 1d be 7e 76 b6 3d bc 4d 67 3e 54 be 1c be
       -0.15421367 0.08909319 0.22588247 -0.1530698
0001c0 99 f4 4e 3c 8b 69 c6 3e 1f 97 b9 bd 8f 70 59 be
       0.012631559 0.38752398 -0.09062027 -0.21234344
0001d0 7b 7b 9d be 5a c6 08 be 1b 5e f6 bd cd 81 43 3d
       -0.3075827 -0.13356915 -0.12029668 0.04773121
0001e0 d1 71 32 bd 31 a6 9c 3d 52 22 1b 3e b3 c9 4a bd
       -0.043565575 0.07648886 0.15149811 -0.04950876
0001f0 96 2e 7c 3e b9 29 5d 3e 9f a4 f8 3c 3c 7e 9e 3e
       0.24627146 0.21597947 0.030351935 0.30955684
000200 a2 7b af bd 83 73 44 3e c2 18 1c be 24 4d b6 be
       -0.08568503 0.19184689 -0.1524382 -0.3560573
000210 c8 e3 48 3d ba 0a e5 bc df 68 0d be ba 1f ba 3e
       0.049045354 -0.027959216 -0.13809536 0.3635233
000220 de f8 79 3e 17 f2 68 bd d8 6d 89 be 53 3d 59 3c
       0.24411342 -0.0568715 -0.26841617 0.01325925
000230 d5 1e d2 3c 07 7e 86 be 95 dc 97 bd 65 46 22 3e
       0.025649467 -0.26268026 -0.074151196 0.15847166
000240 85 fc 61 be ab 07 86 be 37 7e 37 bd 5d e9 01 be
       -0.22068985 -0.26177725 -0.044798102 -0.12686677
000250 f9 1e 58 3e 3a 8f 89 3e ac d3 74 3d a1 2d 52 be
       0.21105565 0.26867086 0.05977218 -0.20525219
000260 99 7f 7b 3e 4b 2f a7 3e 9d 6b 96 3e 32 c3 fd 3c
       0.24560393 0.3265327 0.29378977 0.030976865
000270 db 1e 30 be a6 7f 37 3e 47 70 86 bd 1b 54 13 3c
       -0.1719927 0.17919788 -0.06564384 0.00899222
000280 e1 1d 87 3e d4 a7 8f 3d 9e 6e 23 3e f8 e5 e2 bd
       0.26389983 0.070144325 0.15960166 -0.11079019
000290 36 9a 8a bb 00 63 af 3c ca 63 ee 3d 4e 8a f9 bd
       -0.004229809 0.021409512 0.11640127 -0.12184583
0002a0 0b ed 66 be 16 66 15 3e 4f ea 5e 3e f1 06 1c 3d
       -0.22551362 0.14589724 0.21769069 0.038092557
0002b0 52 7d d0 bc 19 13 dc bb 47 87 ea bd 93 c7 64 be
       -0.025450382 -0.006716144 -0.11451583 -0.22341757
0002c0 99 6e 75 be 2c 16 c6 3d b8 5d 75 3c 9a 80 72 3e
       -0.23967971 0.09672198 0.014975958 0.2368187
0002d0 8f e5 0f 3e bd 32 32 3e d7 b6 23 3e 9c 95 72 be
       0.14052413 0.17402168 0.15987717 -0.23689884
0002e0 9f a9 6b 3d 52 4d 76 be 9e de a1 3e 8f d6 d5 3e
       0.05753481 -0.24052933 0.31615156 0.41765258
0002f0 c9 f9 5c be 4d 9e e8 3e 23 68 ba be 95 2b ae 3e
       -0.2157966 0.45433274 -0.36407575 0.34017625
000300 03 cc 65 be ff 58 be 3e 07 26 c5 3e 4c e6 3e be
       -0.22441106 0.37177274 0.38505575 -0.18642539
000310 67 b7 87 be 0b ba 77 3e 91 dc 50 be 16 f7 cf be
       -0.26507112 0.24192064 -0.2039664 -0.406182
000320 e0 17 a7 3e da fa 19 3d 8a 64 f6 bd d9 2c ec be
       0.32635403 0.037592746 -0.12030895 -0.46127966
000330 e9 71 8d 3d 5e 34 47 3e 90 5a 7f bd 70 06 02 3f
       0.06906492 0.1945357 -0.062342227 0.5079107
000340 f8 60 59 be ec d8 3b bd b3 33 ab bd 0c 48 23 be
       -0.21228397 -0.04586117 -0.0835947 -0.15945452
000350 95 9b a4 bc 3d 2d 8b 3e 37 88 ca 3c 62 2b f2 bc
       -0.020093719 0.27182952 0.024723155 -0.029561702
000360 fc f6 6b be 5e 7a d5 be 6a 1f 72 3d 0d b9 b3 be
       -0.23043436 -0.4169492 0.05911199 -0.3510212
000370 53 07 32 3d 59 66 d2 bb 42 23 a1 3e 8e 57 9b bd
       0.043464016 -0.006420892 0.31472212 -0.07585059
000380 1a 9a 8b be d0 a1 77 3e 11 b0 57 3e 2a 96 72 be
       -0.27266008 0.2418282 0.21063258 -0.23690096
000390 1f 76 50 bd 81 a9 9e 3d 8b ae 47 be 7e 39 54 bc
       -0.0508939 0.07747174 -0.19500177 -0.01295316
0003a0 23 ff 14 3e 02 c1 32 be 68 bf 9b bc ce 9a 6f be
       0.14550452 -0.17456439 -0.019012168 -0.23398897
0003b0 d4 da f6 3d 2f 71 d5 bd 02 24 94 bd 6a 03 99 bd
       0.12053457 -0.10421979 -0.072334304 -0.07471354
0003c0 f1 28 33 be 95 3c df 3c 87 99 fc 3c cc 9b 1f 3d
       -0.17496087 0.027250567 0.030834926 0.03896694
0003d0 d4 9a 1d 3e c2 a7 96 3d 9e d6 3b be bc e2 5b be
       0.15391093 0.07356216 -0.18343589 -0.21473211
0003e0 d6 ef 0c 3e 34 b3 e5 bd f4 6e 6f be dc ae 36 be
       0.13763365 -0.11215821 -0.23382169 -0.17840141
0003f0 ae 06 af 3e a0 c5 98 3b 99 65 8c be 74 9f f1 3d
       0.34184784 0.0046622306 -0.27421263 0.117979914

2.bias f4 [30]
000000 e1 2d 93 bd 0e d7 12 be c1 da 26 bd b7 6c 49 be
       -0.07186485 -0.1433985 -0.040735964 -0.19670378
000010 21 cb 6d be d1 8b 89 be 0f f1 17 be 28 d3 ae 3d
       -0.23222019 -0.26864484 -0.1483805 0.085363686
000020 7c d8 bd bd 44 d3 b4 be f1 d1 22 3f fa 44 6c 3d
       -0.09269807 -0.35317433 0.63601595 0.05768297
000030 a7 45 07 3e 3c e4 02 3f c9 2a cd be 1c 4a 7c 3e
       0.13210164 0.5112951 -0.40071705 0.24637645
000040 c0 ae 9d bd df d9 59 be 2d a4 67 3e df 40 14 bf
       -0.076993465 -0.21274517 0.22621222 -0.57911485
000050 40 e3 0f bf 86 6f 0d 3b 1e d2 1f be f4 25 e8 3e
       -0.5620613 0.0021581366 -0.15607497 0.45341456
000060 4f 49 b9 3e d2 ea 7d 3d 70 0e 15 3e b7 11 ff ba
       0.36188743 0.06199152 0.14556289 -0.0019460235
000070 af 0c 0c 3f c7 b6 4c 3e
       0.54706854 0.19991599

4.weight f4 [5, 30]
000000 8c 4c a9 bc dc 02 6d bd 68 e8 8e 3d 2b a4 2a bc
       -0.020666383 -0.057864055 0.06977922 -0.010415117
000010 11 46 a2 ba a5 24 42 bd 6f 3b a8 3d 5b e4 7c 3c
       -0.00123805 -0.04739823 0.08214461 0.015435304
000020 7d 74 13 be 1b c1 58 3d 83 01 37 3d 1b 77 28 3d
       -0.14399906 0.052918535 0.044679176 0.041129213
000030 be e6 a7 bd e9 bd 9d 3e 71 a3 01 bd 97 d4 0f bd
       -0.081983075 0.30808952 -0.03165001 -0.03511485
000040 50 63 33 3d da 61 69 bd a9 38 63 3d 8f a4 89 3d
       0.043795884 -0.056978084 0.055473957 0.0672084
000050 0a fa 2e 3e 69 8f 14 be f1 39 0a be ca b9 81 3d
       0.1708757 -0.14507832 -0.13498665 0.063342646
000060 8f 77 b8 3e ca 68 60 be 60 c7 b9 bb 1c 14 a9 bc
       0.36028716 -0.21914974 -0.0056695193 -0.020639472
000070 38 6c 35 be 34 cb bd 3d b4 d0 ed 3d cc 90 6a 3e
       -0.17717063 0.092672735 0.116120726 0.22906798
000080 b7 10 d6 bd 9f b6 87 3e d0 f5 9a be 5b 9a 8b be
       -0.10452407 0.26506516 -0.30265665 -0.272662
000090 d0 af 9a 3e 65 69 4c 3c 18 99 94 3e fe 9e 6a be
       0.3021226 0.0124763 0.2902305 -0.22912213
0000a0 ae 62 a0 b9 db 3c c8 3d 36 ae 57 3e 91 b1 f2 bd
       -0.000305911 0.09777232 0.2106255 -0.11850274
0000b0 46 fe ff bd 6f 06 9c 3e 35 b8 08 3e 7a 0e 2c 3e
       -0.12499671 0.30473658 0.1335152 0.16802397
0000c0 22 1f c7 be 57 0a 38 be e4 b3 dc 3d f3 b8 02 be
       -0.3889094 -0.17972694 0.10776499 -0.12765865
0000d0 9a 60 a8 3e d4 ff a9 be b0 a0 12 bd 7e cb ad be
       0.328862 -0.33202994 -0.035797775 -0.33944315
0000e0 d5 0d 10 3e 4c 0f 84 3e 2c de 8a 3e ca 80 05 bc
       0.14067777 0.2579292 0.2712263 -0.0081483815
0000f0 13 13 ab 3e 47 e2 d6 be 24 a5 98 be c7 01 10 3e
       0.3341299 -0.4196951 -0.29813492 0.14063178
000100 04 ff a6 bd 33 3d 88 3d 90 8f 2e bf f9 b1 03 3f
       -0.08154109 0.06652298 -0.6818781 0.5144344
000110 8d 63 ab 3e e7 51 45 3e f4 be 1a 3f 01 af 54 3f
       0.3347439 0.19269525 0.6044762 0.83079535
000120 0f 3e 72 bd 28 9f 18 3e f3 f8 a7 3e 91 47 1e 3d
       -0.059141215 0.14904463 0.3280712 0.03864247
000130 47 6f 7f bd 5d 1c d0 3e ff ec 4c 3f 49 f2 cc 3e
       -0.06236198 0.4064664 0.8004913 0.400286
000140 a6 0e 8b 3e 62 90 26 bf 91 ee 33 3e 65 dd af 3e
       0.27159613 -0.6506406 0.17571475 0.34348598
000150 ce ca 2e bf 7d 8a 70 bf e6 1a 54 3c 64 08 f8 be
       -0.68278205 -0.93961316 0.012945866 -0.48443902
000160 36 a1 78 bd c2 4f 82 bb 03 2b e2 bd 8a ba 2f bf
       -0.060700618 -0.003976793 -0.1104336 -0.6864401
000170 a8 43 01 be 73 9c 92 3e 1a 22 51 be fc 06 8c 3e
       -0.12623465 0.28634986 -0.20423165 0.2734908
000180 20 f9 97 be 87 d5 54 3e 31 10 7b be ec 6a 21 bf
       -0.29682255 0.20784579 -0.24517895 -0.63053775
000190 c4 a6 4b bf cf 52 bf 3d cb 10 88 be 4d c6 be bd
       -0.7955134 0.09341966 -0.26575312 -0.093151666
0001a0 0e 7f 29 be 2d 5f ec 3e 8f f4 0b 3f 76 d3 6b 3f
       -0.16552374 0.46166363 0.5467004 0.9211954
0001b0 8c 86 09 3f e4 93 a9 be ba 9b 7c be 20 ef c1 3d
       0.5372093 -0.33120644 -0.2466878 0.094694376
0001c0 90 1b fd be e2 d3 01 bf e9 d2 39 3f 39 b2 85 3e
       -0.4943509 -0.5071393 0.7258745 0.26112536
0001d0 b7 30 38 3e b5 4c d9 bd 0b 0a 4b 3f 2a 2a eb be
       0.17987333 -0.10610334 0.793122 -0.45930606
0001e0 95 02 0c 3d a6 8d de 3c f3 fa ba bd 93 68 d5 3d
       0.03418215 0.027167153 -0.09129896 0.104203366
0001f0 6e f2 5b 3e 80 ab 5d 3e 6b e7 52 be 44 91 05 3e
       0.21479198 0.21647453 -0.20596091 0.13043696
000200 5a ba a4 bd 79 42 30 3c de 15 90 3d 2c 51 04 be
       -0.08043356 0.010758036 0.07035421 -0.1292159
000210 bf 48 21 3e 89 fc 39 be c2 ee 07 3e 8a 44 e8 bd
       0.15750407 -0.18162741 0.13274673 -0.11341198
000220 b5 1c 21 be b8 d1 18 bd 7b 50 6b 3e 71 20 1b 3d
       -0.15733607 -0.03730938 0.2297992 0.037872735
000230 ba cd 21 3d b7 c9 61 bc 0c 2b c1 3d 6e 1d 46 bb
       0.039502837 -0.013781003 0.09432039 -0.0030229944
000240 82 19 81 3c 38 87 f8 3d a7 f8 2b be eb 32 8c bd
       0.015759233 0.12135166 -0.16794072 -0.06845649
000250 83 e3 d0 bd fd b6 ae bd
       -0.101996444 -0.08530996

4.bias f4 [5]
000000 7c 9e 8c be a0 ee 2e 3f a7 21 dc be e7 04 a1 bd
       -0.27464664 0.6833286 -0.42994425 -0.07862263
000010 62 77 c4 bc
       -0.023982707

0.weight f4 [30, 2]
000000 23 80 82 bf 80 ac ba 3c b0 46 c4 be 6a 03 c8 be
       -1.0195354 0.022787333 -0.3833518 -0.39065105
000010 e3 44 96 be 8d bb 6e bf e0 92 34 3c 26 6a 14 bf
       -0.2934943 -0.9325493 0.011021346 -0.5797447
000020 c1 77 07 bf a4 a3 91 3f a5 f5 3c 3f df 7e 8b 3f
       -0.52917105 1.1378064 0.73812324 1.0898093
000030 42 3e 3f 3f e3 3a 14 bf 8b 5b f1 bd 5f ca d5 3c
       0.7470437 -0.57902354 -0.117850386 0.026097475
000040 79 3c 20 3f f5 f2 7b 3e 9f a6 ab 3f f1 47 93 3f
       0.62592274 0.246044 1.3410224 1.150633
000050 57 5f 1c 3f db 04 2b bf 26 81 ea 3e a6 cf 3f bf
       0.6108298 -0.66804284 0.45801657 -0.7492622
000060 1d a9 bb 3f a7 b9 d9 be 44 e9 81 3f fe 2d 7d 3f
       1.4660984 -0.42524454 1.0149312 0.98898304
000070 34 ba 51 3f 66 c6 01 bf 2e 34 89 bf 23 64 0b bf
       0.8192475 -0.50693357 -1.0719049 -0.5444967
000080 fa fb e9 be 39 9f 60 3f 18 0a 2f 3f b1 9b 1e bf
       -0.45700055 0.87742954 0.68374777 -0.61956316
000090 92 7a 4e 3f 0a a6 68 bd 18 8d 9d be 16 14 dc 3e
       0.8065578 -0.056798972 -0.30771708 0.42984074
0000a0 68 5e 97 be 14 6a 43 3f 06 9d c3 3e ba 53 92 bf
       -0.29564214 0.7633374 0.38205737 -1.1431801
0000b0 50 e2 c3 be ba 87 11 3f bf 8c e4 be 2c ce 93 bf
       -0.382586 0.5684773 -0.4463863 -1.1547294
0000c0 95 74 1c 3f ef 7e 39 3f 96 fe 9b bf 42 15 0c bf
       0.6111539 0.7245931 -1.2187068 -0.54719937
0000d0 c8 ae 5e 3f c5 55 56 3f dd df 52 bd 95 73 44 3f
       0.86985445 0.83724624 -0.051483024 0.76738864
0000e0 2f d2 25 be 85 05 95 3f f9 75 6a bf 7b 3d 21 be
       -0.1619346 1.164231 -0.9158626 -0.15746109

0.bias f4 [30]
000000 46 ba 41 bf 05 3f 41 bf ce f2 e5 be ec ea 81 be
       -0.75674856 -0.75486785 -0.44911808 -0.25374544
000010 38 8a a2 3c 0b 45 86 be aa 7a 28 3f 3d c2 86 3f
       0.019841298 -0.2622455 0.6581217 1.0528027
000020 10 a1 b5 be 46 2a 26 bf c0 34 a8 3d 91 95 6f bf
       -0.35474443 -0.64908254 0.08213186 -0.93587595
000030 b2 a8 be 3f 2b d3 1d bf a8 9e d3 3e 09 4f c6 be
       1.4895232 -0.6165034 0.41331983 -0.38732174
000040 c8 83 89 bf ca 5a 43 3f 64 2c 10 3f 41 82 3c 3d
       -1.0743341 0.7631041 0.56317735 0.046022657
000050 45 f2 27 3f b7 3a f6 3e 5e 33 6f 3f 82 33 e4 be
       0.6560405 0.4809167 0.93437755 -0.44570547
000060 ec 7c 01 bf 45 80 5c 3f f1 e1 0e bf 08 35 13 3f
       -0.5058124 0.86133224 -0.5581351 0.57502794
000070 d5 c9 3e 3e 22 3c 58 3e
       0.1863168 0.21116689

2.weight f4 [30, 30]
000000 75 b0 65 bd ac f6 af be 10 b6 69 be dd 28 66 3e
       -0.056076486 -0.34367883 -0.22823358 0.22476526
000010 8b 86 2e 3e 99 4a 0d 3d 08 75 ac 3e 00 06 85 bd
       0.17043512 0.03449497 0.33683038 -0.06495285
000020 d9 62 23 3f 67 3f 29 bd d6 25 0d be a9 1f bc 3e
       0.63822705 -0.04132023 -0.13783965 0.36742905
000030 72 6f 3b bf 54 c2 f5 bb 68 53 76 3e ef da 83 be
       -0.7321693 -0.0074999724 0.24055254 -0.2575297
000040 d1 08 d8 bd 1c 62 88 bd dd 06 8d 3e ec 97 97 be
       -0.105485566 -0.06659338 0.275443 -0.29608095
000050 0d ca 5b be a6 47 b9 be 1c 68 95 be 8d c5 2a 3e
       -0.21463795 -0.36187476 -0.29180992 0.16676922
000060 be 6c e8 3d 4b ef 2c bf 05 a0 8f 3e 4b a1 82 be
       0.11348866 -0.6755263 0.28051773 -0.25513682
000070 06 9b c2 3e ac 50 1b bf a1 61 cb 3e 4d 9b c8 3e
       0.38008898 -0.6066997 0.39722922 0.39180985
000080 68 ec 3b 3e 3a 4d 46 be e9 c0 fe 3e 24 fb cc bc
       0.183519 -0.19365397 0.49756554 -0.025022097
000090 02 76 2c bf 3b 1e 47 be 86 2e a0 be 8f f4 ba 3e
       -0.67367566 -0.19445126 -0.31285495 0.36514708
0000a0 55 69 3f bf 6e d0 d7 be a2 65 0d bf 0e b8 21 3e
       -0.747701 -0.42151207 -0.55233204 0.15792868
0000b0 eb 13 05 bf 5f cd c5 3c f8 85 22 3f 98 96 57 bf
       -0.5198352 0.02414578 0.6348567 -0.8421416
0000c0 5f e2 88 be d9 7b 18 3f 0c c6 f3 3e c3 7e 8b be
       -0.26735207 0.59563977 0.47612035 -0.2724515
0000d0 45 40 8f 3d 73 0d ca 3d 2a af 39 3e e7 3c 24 3d
       0.0699468 0.098658465 0.18133226 0.040097144
0000e0 5d f9 b9 3d 84 46 b6 bb cb 72 a1 3e da fa 64 bd
       0.090807654 -0.0055626053 0.31532893 -0.055903293
0000f0 1c 14 6b bf f2 66 a1 be d8 23 16 bf 9f 38 ab be
       -0.9182756 -0.31523854 -0.58648443 -0.33441636
000100 ce bd 05 be e6 27 35 3f e1 85 99 3d e7 ae 48 be
       -0.13060686 0.70764005 0.074962385 -0.1959797
000110 04 e9 0f 3f 4d cb 38 3f c5 81 0c 3e 84 33 9f 3d
       0.5621493 0.7218521 0.13721378 0.07773498
000120 fe 9b 1f bd bc 5c 51 3f a3 20 2d 3e d3 4d 79 bf
       -0.038967125 0.81782126 0.16906981 -0.97384375
000130 eb 0f fb 3e 1d e3 c6 bd 39 2c 3d 3f 03 8c 94 3e
       0.49035582 -0.09711287 0.73895603 0.2901307
000140 7a 9e 5a be 7a 6d 3b be 94 07 02 3e c0 4d 8c be
       -0.21349517 -0.1830348 0.12698203 -0.2740307
000150 5a 22 41 3f 51 b8 93 be c5 5d 1c 3f 88 6a 26 bd
       0.7544304 -0.2885156 0.6108058 -0.04062894
000160 90 7c 2a 3e 9a 0e 27 bf 48 1f 44 be 0b 84 a1 bd
       0.1664908 -0.65256655 -0.19152558 -0.07886513
000170 c2 41 d0 3d f4 4d 0b 3f 1c 3c 7e be 56 72 97 be
       0.10168792 0.5441582 -0.24827617 -0.2957942
000180 46 0a 9e 3e 2a 6d 59 be 7a af 97 bd 74 e5 a9 be
       0.30867213 -0.21233049 -0.074065164 -0.3318287
000190 66 10 c0 3e 4d 63 2b 3e 8c b3 3c 3d a7 47 ea be
       0.3751251 0.16737099 0.046069667 -0.4575779
0001a0 55 15 45 3e 58 73 85 3e bc a6 ad be 58 bd 00 3e
       0.19246419 0.26064563 -0.3391627 0.12572229
0001b0 1c 76 e4 3a b3 24 7c be 5d 19 b8 be 61 dc 96 3e
       0.0017430219 -0.24623375 -0.3595685 0.2946501
0001c0 9a 27 98 be 15 33 a1 3e bd 4b 00 be a2 42 05 be
       -0.29717714 0.31484285 -0.12528892 -0.130137
0001d0 82 6b 39 3d 3b 13 d5 be 0b ac ad be 4d 36 27 3e
       0.045268543 -0.41616234 -0.3392032 0.16329308
0001e0 14 b4 20 3d aa 5c bd be f6 c6 26 bd 36 2b b4 3d
       0.039234236 -0.3698476 -0.040717088 0.08797304
0001f0 18 c5 46 be 64 ef 34 be 73 c9 d0 bc 96 d8 a0 3e
       -0.19411123 -0.17669445 -0.025486683 0.31415242
000200 c7 be 09 bd 22 e4 8d bd c8 99 78 3e 8c 90 76 3d
       -0.033629205 -0.069282785 0.24277413 0.060196444
000210 ca d9 70 3e 53 ea a1 be 1f 90 89 3d ce 60 c8 3d
       0.2352058 -0.31624088 0.06716942 0.09784089
000220 80 44 d5 be 12 25 57 bd 90 32 ab 3c 21 44 5f be
       -0.41653824 -0.052525587 0.020898134 -0.21803333
000230 9f e3 0d be 78 a2 d7 3d 4d 20 31 3e 12 63 52 3d
       -0.13856362 0.10529035 0.17297478 0.051364012
000240 2a 6a 17 be a1 53 3e 3e 76 ed 51 be 0f 3f bc 3d
       -0.14786592 0.1858659 -0.2050074 0.09191715
000250 25 ec e0 bc ca 08 87 3e c7 a1 0d bf 6f 22 b3 bd
       -0.027456352 0.26373893 -0.5532498 -0.08746802
000260 4e b1 37 3e 1e cf 83 3e 85 91 05 3f cd 6a 44 bf
       0.1793873 0.25743955 0.5217517 -0.76725465
000270 ae f0 29 3e 3c b3 a9 3e 20 17 9a 3d fd 73 bd be
       0.16595718 0.33144557 0.07523942 -0.37002555
000280 f6 09 ef be 53 7f 89 3b 59 36 39 3e 80 44 cf be
       -0.46687287 0.0041960864 0.18087138 -0.4048195
000290 16 a7 3d 3e ed 83 94 be 44 0e 2c bd 0c 59 3d 3e
       0.1852077 -0.290069 -0.042005792 0.18491
0002a0 af 9c 6c 3e ce 6f 9e be c0 5c 9a bd d4 1f c6 be
       0.23106645 -0.30944675 -0.07537222 -0.38696158
0002b0 19 81 64 3e 86 d4 0f 3f a5 19 0b be 15 31 08 bd
       0.22314872 0.5618366 -0.13584001 -0.033249933
0002c0 1a 78 b6 bd 7e a0 ce be 17 2f 52 bb 4e b8 4a be
       -0.08909626 -0.4035682 -0.0032071525 -0.19796869
0002d0 5b 29 0a 3e 15 e6 3d 3f c8 eb bc 3e 20 d1 1b 3f
       0.13492338 0.741792 0.36898637 0.60865974
0002e0 15 6e 07 bf 57 ac f1 bd bd 50 00 3f 56 aa e7 be
       -0.52902347 -0.11800449 0.50123197 -0.45247144
0002f0 e7 b2 a1 3c 05 4e 86 be 50 23 10 3f 14 b6 e9 3e
       0.019738628 -0.262314 0.5630388 0.45646727
000300 36 d8 e1 3e 1a 3f d4 be dd ef f0 3e 36 bf 84 3d
       0.44110268 -0.41454393 0.47058 0.06481783
000310 b2 ac 95 3e df e9 40 3e c2 32 46 be 0c 15 21 bf
       0.2923332 0.18839215 -0.193553 -0.6292274
000320 86 e6 19 bf 60 79 e7 3d e4 27 25 bf 13 2e 98 3e
       -0.60117376 0.11302447 -0.64513993 0.29722652
000330 25 f7 13 3e 91 f0 92 3c bb 71 18 be 72 13 04 bf
       0.14449747 0.017936977 -0.14887135 -0.5159217
000340 2b 1e 0c bf 99 22 28 bd 16 af 9e bd 09 04 82 3e
       -0.5473353 -0.04104862 -0.07748239 0.25393704
000350 a4 39 f0 3e 59 82 e8 3e f2 76 73 be 21 c3 28 bf
       0.46918976 0.45411947 -0.23775843 -0.65922743
000360 d3 6e 67 3e 3d 36 8d 3b e8 c4 e6 3c 48 91 f7 be
       0.2260087 0.004309444 0.028170064 -0.48353028
000370 e2 45 c1 3e 4b 66 75 3e cb 4c 86 3e 85 af e9 be
       0.3774863 0.23964803 0.26230463 -0.45641723
000380 bb 5a 25 3e 01 fd 68 3e 08 5d 97 bd ff f2 97 3e
       0.16147892 0.22752763 -0.07390791 0.2967758
000390 a0 10 9d bc 52 e8 97 be a3 e2 97 be 30 05 db 3e
       -0.019172966 -0.29669434 -0.29665098 0.42777395
0003a0 74 6f bc be 72 e0 1b 3f db f9 9a be f8 54 8b 3e
       -0.36803782 0.6088935 -0.3026875 0.27213264
0003b0 a9 55 e3 be 54 b8 04 bf 6a d3 a8 be 1c 14 10 3e
       -0.4440129 -0.5184376 -0.32973796 0.14070171
0003c0 43 5d b1 bd db 9f bc be 0a 03 a2 3c bc ba 27 3e
       -0.086603664 -0.3684071 0.01977684 0.16379827
0003d0 df 4e 38 bd 10 51 ec be 98 c5 3c 3f 58 58 b5 3e
       -0.044997092 -0.46155596 0.73739004 0.35418963
0003e0 81 b0 3b 3e ae 1a c6 be 94 e3 33 3e f3 9e 30 be
       0.1832905 -0.3869223 0.17567283 -0.17248134
0003f0 f1 c2 89 3e 01 84 86 be d8 19 17 3f 23 d6 6d bd
       0.2690654 -0.26272586 0.5902381 -0.058065545

2.bias f4 [30]
000000 a7 23 a9 3d bf 8a d9 bd 6e 46 2a 3e 08 d9 f7 bd
       0.08258753 -0.10622167 0.1662843 -0.12101942
000010 be 42 a1 3e e6 bd 8f 3e bc 25 bc be 4e 6c 89 be
       0.31496233 0.2807457 -0.3674754 -0.26840442
000020 5e 7e ee 3e f2 9c d7 be 48 90 4b 3f 25 95 33 3e
       0.46580786 -0.42111927 0.7951703 0.17537363
000030 25 ff dc be ae b0 e6 3e 74 2a ac 3c 68 d5 32 3e
       -0.4316341 0.4505667 0.021016337 0.1746422
000040 63 76 51 bd 05 df 73 3e 5b 83 fd bc 47 b6 17 3e
       -0.051138293 0.23815544 -0.030946424 0.14815627
000050 c8 d7 39 3e 33 b8 b8 3e df 1b 97 be 76 e9 ce 3e
       0.1814872 0.36078033 -0.2951345 0.40412492
000060 b2 ad 18 3d 20 69 b9 bd 2e 3d 08 be 6c 6b 77 3e
       0.037275024 -0.09053254 -0.13304588 0.24162072
000070 0b 6a 22 3e 7c c3 e9 bd
       0.15860765 -0.11414239

4.weight f4 [5, 30]
000000 92 70 6c 3e 99 cb 1e bd 31 3c be 3e f8 ce 7d be
       0.23089817 -0.038768385 0.37155297 -0.24785984
000010 f3 10 17 be 88 fd 5d 3e f5 ef 85 bb 9d 92 4f be
       -0.1475256 0.21678746 -0.004087443 -0.20270772
000020 d1 64 0b 3e 3b 9e 4a 3e 67 87 10 3f d8 cb f8 bc
       0.13612677 0.19786923 0.5645661 -0.030370638
000030 9e 3b 14 3e e3 a2 d7 be e0 a7 5b 3d a3 f7 85 3e
       0.14475867 -0.4211646 0.053626895 0.26165494
000040 29 1f f9 3c e9 0d b1 be 11 f1 f4 3c 61 49 d7 3d
       0.030410366 -0.34580925 0.029900106 0.10512043
000050 15 ba 11 be f2 70 76 bd d9 86 b9 3e 30 3f da 3d
       -0.14231141 -0.060166307 0.36235693 0.10656583
000060 ad 05 1b 3e a4 37 b1 3e 1a 3e 02 be d9 3e a8 bd
       0.15138884 0.34612763 -0.12719002 -0.08215112
000070 04 e2 b9 3d f2 6f c0 be ea f8 84 3e 8c 98 08 be
       0.09076312 -0.37585407 0.25971156 -0.13339442
000080 fe 50 43 3e 99 80 00 be 74 95 a8 3a d8 17 24 3f
       0.19073865 -0.12549056 0.0012861923 0.6409888
000090 2f 41 08 3f ad 73 65 bd ae c0 8e bb 16 69 94 3d
       0.5322446 -0.05601852 -0.0043564653 0.07246606
0000a0 0e 2e b6 3e 72 78 97 3e 96 a6 d9 bd e0 d7 0b bf
       0.35582012 0.2958408 -0.10627477 -0.54626274
0000b0 eb 65 aa 3d 22 a4 81 3d e5 99 68 3d 44 b1 96 be
       0.083202206 0.06330134 0.05678739 -0.29432118
0000c0 d8 13 93 be 3f 81 e2 bc 3d 90 a6 bc 52 cb d1 be
       -0.28726077 -0.02764952 -0.02033245 -0.40975434
0000d0 0f c2 e7 3e 4c 08 67 be 1c 8a 3e be 0a 67 d5 3d
       0.45265242 -0.22561759 -0.18607372 0.10420044
0000e0 ee e2 b7 bd 74 39 ea be f7 ba 3d 3e bc 24 bb be
       -0.0897883 -0.45746958 0.18528353 -0.36551464
0000f0 fc 59 aa 3e 89 8d 87 bf 6a 20 56 3f 1b 7c e2 3e
       0.33271778 -1.0590068 0.8364321 0.4423531
000100 0b 77 b4 bc 02 6d ff be 9a c0 7b 3d a7 ad 81 3e
       -0.02202942 -0.49887854 0.061462976 0.253278
000110 80 60 51 bf d2 9b 72 3f 53 23 90 3f 9f 67 ac be
       -0.8178787 0.9476901 1.126078 -0.33672807
000120 9a d9 93 be 56 8c 6e 3e 51 a2 75 3d 33 0d a3 3d
       -0.28876954 0.23295721 0.05996925 0.07961502
000130 95 1d 1b bd 49 c9 5a be 55 fe 73 3e 72 0c 7b be
       -0.03787001 -0.21365847 0.23827489 -0.24516466
000140 07 4f e3 bd 91 ea 19 bd 9b a5 c0 be 71 d9 02 3f
       -0.11099058 -0.037577216 -0.37626347 0.5111304
000150 47 e9 c7 bc a1 b6 00 bc c7 54 33 3f 17 8f 0d 3f
       -0.024403227 -0.007856042 0.70051235 0.5529646
000160 01 52 41 3e 75 7a 65 bf bc 2b 18 bf 2c be ec be
       0.18878938 -0.8963998 -0.59441733 -0.4623884
000170 11 75 08 3e 4a 6e b0 3e 93 76 d7 be 18 df c1 3d
       0.13325907 0.34459144 -0.42082652 0.0946638
000180 35 ac 07 3f 85 94 1e 3f 21 88 33 be 1e 9b cd 3c
       0.5299714 0.6194537 -0.17532398 0.02509838
000190 a3 0d 0e bf 21 8f 84 3e d2 4b db 3e 95 b6 10 bf
       -0.5548956 0.2589045 0.42831284 -0.565286
0001a0 84 c1 bf bd 87 96 0f be f1 93 22 3d cd 18 ef bd
       -0.09363082 -0.14022265 0.03969187 -0.11674652
0001b0 2b 2e ff 3e d8 b4 8d 3e 2a a9 32 3f fd fa 32 3f
       0.4983991 0.27677035 0.69789374 0.6991423
0001c0 64 18 7b 3e 97 92 fc be 08 ab 80 bf a2 3c 56 3e
       0.24521023 -0.4933059 -1.0052195 0.20921567
0001d0 7c 7e da bc 46 2d b4 bd 56 fb 61 be d6 b5 b9 bd
       -0.02667164 -0.08797698 -0.22068533 -0.090678856
0001e0 63 29 b7 3e e3 43 92 3d 65 1f 08 3f 24 75 f9 be
       0.35773763 0.071418546 0.53172904 -0.48722184
0001f0 af dd d2 bd f6 25 a2 3e ab 00 ab be 15 37 df be
       -0.10296189 0.31669587 -0.33398947 -0.43596712
000200 14 a9 ee 3e b7 4a d4 3e a7 69 6a 3f 11 16 e3 bd
       0.4661337 0.41463253 0.9156746 -0.11088193
000210 77 3e 44 be 0a fa 7e 3c a7 85 f3 3e 50 16 71 3e
       -0.19164453 0.015562544 0.47562906 0.23543668
000220 6a af ab be 06 dd 9e be ba eb fa 3c ca 13 45 be
       -0.33532268 -0.31028003 0.030629981 -0.1924583
000230 01 d6 ed be 6c 00 da be 7d 07 b1 3c d8 b3 d3 3e
       -0.46452335 -0.42578447 0.021610016 0.41348147
000240 31 be e2 3e a0 51 b3 bc 83 4e 94 be 56 98 be bd
       0.4428573 -0.021889508 -0.2896615 -0.093063995
000250 7b 7b 2e 3e d9 59 9e be
       0.17039292 -0.30927923

4.bias f4 [5]
000000 f2 04 cd 3e 79 c8 ad 3e 89 cd 12 3e 7f da 09 bd
       0.40042835 0.3394201 0.14336218 -0.03365564
000010 1e 03 41 3d
       0.047122113

0.weight f4 [30, 2]
000000 19 23 5a 3e b1 c7 84 bf 90 f2 9f 3e 83 d2 19 3f
       0.21302451 -1.0373441 0.31239748 0.6008684
000010 98 b1 dc 3e 2e ef 85 3e ac 3d 94 3e 0b 32 1c bf
       0.43104243 0.26159042 0.28953302 -0.6101386
000020 f6 3f 5a bd 90 70 e6 3e 44 bd 41 3f 74 74 6f be
       -0.053283654 0.45007753 0.7567942 -0.23384267
000030 1b 2b 77 3f 20 cc 28 bf e6 cf 87 bf c2 52 25 3e
       0.9655015 -0.6593647 -1.061032 0.16144851
000040 e5 f6 dc be 8c b6 7e 3f 93 e5 29 3f 41 cb 76 be
       -0.43157116 0.99497294 0.6636593 -0.24100973
000050 ad 12 0b bf 92 65 9b be db 49 93 bf 85 a5 d9 3e
       -0.5432537 -0.3035093 -1.1506914 0.42509094
000060 5c 99 67 3f 6c 28 a6 bd 1d 91 b3 be 8c ea 28 3f
       0.9046838 -0.081131786 -0.3507165 0.6598289
000070 4d 56 82 be 6c 99 21 bf f1 fe 9d 3e 77 af 60 3f
       -0.25456467 -0.6312473 0.30858567 0.8776774
000080 05 b1 a3 3e ee 85 2f 3f f0 55 51 bd d4 f1 08 3f
       0.31970993 0.68563735 -0.051107347 0.53494
000090 75 7a 0a bf 2a 04 d5 be 53 84 09 3e 1c e7 6f bf
       -0.54093105 -0.4160474 0.13429384 -0.9371202
0000a0 09 21 04 bf 86 66 e3 3e de 62 46 bd 47 55 18 bf
       -0.5161291 0.44414157 -0.04843413 -0.5950512
0000b0 77 66 93 be ff 96 d6 be 77 53 b0 3e 29 74 ff 3e
       -0.28789112 -0.41912076 0.3443868 0.4989331
0000c0 4d db 9c bf 5e ee d1 bd 02 c8 55 be 6a 1f 35 bf
       -1.2254425 -0.10250543 -0.20877078 -0.7075106
0000d0 9b df 27 3e 5d 44 6a bf 33 4b bc 3d a0 ce 50 3f
       0.16393892 -0.91510564 0.091940306 0.81565285
0000e0 ee a1 23 bf f6 36 27 bf 6d 68 b4 3e 9d d4 13 bf
       -0.6391896 -0.6531824 0.3523592 -0.577463

0.bias f4 [30]
000000 13 9c 65 be 3a a1 f8 be d3 2c 1b 3f 08 34 48 3f
       -0.22422819 -0.48560506 0.6061527 0.78204393
000010 59 8a 85 be d9 1b 49 3f d0 55 b5 3d f8 5b 8e bf
       -0.26082113 0.7855812 0.08854258 -1.1121817
000020 c0 13 38 3f e9 35 0e bf db 56 2d 3f 21 ee 2e 3f
       0.71905136 -0.5555101 0.67710656 0.68332106
000030 97 41 7e bf cb ab 87 bf e7 b0 28 3f c9 7d 58 3f
       -0.9931883 -1.0599302 0.6589493 0.8456693
000040 56 11 b9 3e 58 53 3f 3e 39 46 29 3f d3 00 6a bf
       0.3614604 0.18684137 0.66122776 -0.9140751
000050 a0 e9 5b bf 14 fe 99 3e 07 0f 02 bf 42 b3 e1 be
       -0.8590336 0.3007666 -0.5080418 -0.44082075
000060 d5 12 3d bf 50 20 78 3d cb ff 39 bd b8 94 32 3f
       -0.7385686 0.06057769 -0.04540996 0.69758177
000070 96 76 0f 3f 1a d8 1d bf
       0.5604032 -0.6165787
