FullOrder/ReconstructORI/The Oldest Model/Checkpoint_SEED1024_LR0.01_HD30_HL2_MO6_Epoch5000_WithPhysics0_WithBatch0.pth (torch, 101306 bytes, 80 tensors)

0.weight f4 [30, 2]
00000000: 9c4c a23f 7fa8 353e 56bc c8bd 28df 8c3f
00000010: f369 343f ae54 053f 8bac 21bd e864 d33e
00000020: 00c9 6abe afbf 6cbf 8d8e 883e fb34 a6bf
00000030: 7ee8 cf3f cb4e 4bbf a521 89bf 9d7c babe
00000040: 5185 543d f702 733f d3e1 6f3e 9cfe 053f
00000050: dafc b63f 6f95 ecbe 51f7 773e cc41 573f
00000060: 2329 b03f 38c1 fabe 2459 fabe 688c 8d3f
00000070: cb3a 58be 900b ba3f f3e0 84bf 1d50 2a3e
00000080: da31 ba3e 0fb9 8e3f b8c4 5d3f 2415 63bf
00000090: cfc8 b5be 1456 66bf 091e ab3e 13c6 a3bf
000000a0: 678f c73f cdbe 86be 6c90 1c3e 18d5 a6bf
000000b0: 424f 19bf 9bc0 a4bf 1605 a03e 87ee ce3e
000000c0: 83a0 56bf e6d7 453c 94e9 983f 73e9 43be
000000d0: a8fd 3e3f 5079 b93f 9e44 813f 104d 6f3e
000000e0: 00da 9f3d 3fcf 773f e924 403f 14f0 88bf
1.2679629 0.17740057 -0.09801547 1.1005602 0.70474166 0.52082336 -0.03947119 0.41287923
-0.22928238 -0.92479986 0.26671258 -1.2984918 1.6242826 -0.79417104 -1.0713392 -0.36423197
0.051884953 0.949264 0.23425989 0.5234163 1.4295914 -0.4620776 0.24215437 0.84084773
1.3762554 -0.4897554 -0.48896134 1.1058474 -0.21116178 1.4534779 -1.0381149 0.16632123
0.3636616 1.1150225 0.86628294 -0.88704133 -0.35504767 -0.89975095 0.33421353 -1.2794822
1.5590638 -0.26317444 0.15289468 -1.3033781 -0.5988656 -1.2871279 0.3125388 0.40416357
-0.8383867 0.0120754 1.1946282 -0.19132023 0.746058 1.4490147 1.0099065 0.23369241
0.07805252 0.9680061 0.7505632 -1.0698266

0.bias f4 [30]
00000000: ecdd b1be 8b43 8abf 93e4 203f e251 0abf
00000010: 8a65 9bbe 71f3 b43e 3f5b 1cbf 93ce 913f
00000020: a994 69bf 69f5 0a3e 4a6a a8be 7535 a33e
00000030: 762f ad3f 9e87 30bf 8d69 8e3f f922 47bf
00000040: d1da 2fbf a390 7d3f 0000 243f 16cb 83bf
00000050: 7e01 c73f 58bd 67bf 8f2a 613f de0a 48bf
00000060: b7db 393f 6b42 603f 6186 5abe ca61 3c3f
00000070: 8fa1 633f 82b6 923f
-0.34739625 -1.0801862 0.62848777 -0.54031193 -0.30350906 0.3534198 -0.6107673 1.1391166
-0.9124246 0.13570179 -0.32893592 0.31876722 1.3530109 -0.68956935 1.1125962 -0.7778774
-0.6869326 0.99048823 0.640625 -1.0296352 1.554733 -0.9052329 0.87955564 -0.7814158
0.72600883 0.87601346 -0.21340324 0.73586714 0.88918394 1.1461947

2.weight f4 [30, 30]
00000000: 9594 adbd 2a69 3f3f 5dbc c83e 8530 fc3e
00000010: bd9a 3ebe f136 1abf d622 08bf 62e2 c43d
00000020: d9f5 2b3f 6a6b e83e c8d3 45be 918b da3e
00000030: af59 913e c5eb a43e 8a04 2cbe f1f3 f4be
00000040: cb7c 343f e46c 5abb 68be 4dbf 5f29 75bd
00000050: 34b2 2f3f a087 8e3e d03a 3bbf 3373 e63e
00000060: e8a0 963d 45fa c63d 7be3 f43e 4e04 e23e
00000070: 438c bbbe af99 dfbe 5bf1 82be 3973 46be
00000080: e321 98bd b50c d43d 64ec 89bd 58db e63d
00000090: ba91 f13e 1a1f 65bb fe81 5c3d 8ed0 62bd
000000a0: 839d 46be 2be0 8ebe fb7a 39bf adef 85bd
000000b0: 54ce 90be 4b2c 793e 3e78 0abf 069f dabe
000000c0: dd0f 063f 6b6e 403e df62 34bf 53f3 2fbe
000000d0: 6770 263f 0ee4 23be e8dc d43e 4dfd f0be
000000e0: 2b8a 8e3e 6f6c 87bd d821 b63d 5ae3 17bc
000000f0: 4f53 bdbd 2d5e 363f 3e49 143e 76d1 c73e
00000100: 7423 c63d 0c91 45be 4af8 e7be ff3a 2e3e
00000110: fe72 4b3f 160a 253e 5c53 f4bd b5fd c73d
00000120: 33f8 3dbf 86c4 043f b9ed 26bd 4a1a dd3d
00000130: b0ab a03e 1b29 4cbf a04c 37bf e95c cd3d
00000140: 8c40 8bbe ec39 993c f840 19bf d1e5 123e
00000150: 6053 d53c d80a 12bf e61a d53d 138f 163b
00000160: 6fea 4a3d f439 77bf c31f cb3e ff99 0f3f
00000170: aa2e b03d 261f 2a3f 4309 a9be ad09 b5be
00000180: 650a 8d3e 5199 8abe 42ba 093f e32c 163e
00000190: 03b2 cd3d 13ea aa3d ea03 143c 896a abbc
000001a0: 061f 4c3e bccb 9ebe 7fc9 303f 6261 a63e
000001b0: 9375 14bf 8dea dd3d d1b5 fe3d 39ed 8bbe
000001c0: ae75 3abf 89ad 003f 270e 9abe 3ba2 ee3e
000001d0: 216a e53e 35fc 17bd 1fbf 31be bc89 6d3e
000001e0: 0cee 8fbd 3735 e2be 02a2 b03d b3f5 323e
000001f0: b557 adbd bb0e 123f c427 553f 5b96 a2be
00000200: 9781 1abe 744f 7abe 56af bd3e 9601 82be
00000210: 3ea5 0c3e df5e 0cbf 353d 44be 29eb 70be
00000220: b3bc 18bf 708e 1d3e cc93 c73e 3f4f 0b3f
00000230: d96f 1cbe bc92 0a3e 63a8 a23e 0f8e 8a3e
00000240: 2585 15bf f12a bc3e 3382 343c 86cb 803e
00000250: 0bb2 f0be a2b1 2a3d ce2d bcbd 29fe 82bd
00000260: f02f 8ebe 485f f33d 4bfc 3dbe b6b9 22bd
00000270: 5f78 af3e 85eb 423e e869 30bc f471 7abc
00000280: 57c2 fc3d 88d3 29be 0966 3ebe 9637 40be
00000290: 2571 6f3c 592b 99bd 5352 f4bd 23ad 92bd
000002a0: c7b5 473d fe4c 35bd 0a21 9cbe 8555 b73c
000002b0: 26fa 343e 7705 8d3e dc6a 3cbc d8ad c53c
000002c0: c5e0 a9bc 6c40 c3bd 76bc f0bd d635 afbd
000002d0: 015d 9fbe 626e c13d 18f3 ec3e 59fa 0b3e
000002e0: aa81 cebe 3a3b 03bf 16fe a8be cc2c 173f
000002f0: b11e 7d3e 8f42 e73e 1939 95be a21f 063f
00000300: b7cb 843d 5655 643e 1038 343f f748 3dbd
00000310: c765 d93e 6818 f9bd fd95 4fbe 27be 5cbf
00000320: 7698 5e3e c5f9 3fbf b4bc 2dbd 1be9 81bd
00000330: 7df0 333f 46c5 4a3e 607b b23e 1686 d23e
00000340: f5a2 193f 8ce8 a4bd f952 b4be 3473 013f
00000350: 3db5 c6bd f161 773f e4fa e2bd 9754 4e3e
00000360: d6ca 663e 6a9d a83c 1964 ee3e 6628 b7bd
00000370: 2852 d2bd e824 af3d 277e e2be e753 4fbe
00000380: 8c33 93be df08 c53e 4053 c33e 915a 12bf
00000390: e24a 28bf 2fba 4b3e da84 f2be d9df b53d
000003a0: d8ec b7be 111a ce3e edbf e2bd 4a43 c7be
000003b0: 3b50 993e b441 9cbe 5402 a2be 4325 79be
000003c0: 6415 eb3e 0534 76bf 37cc 9c3e 715e 34bf
000003d0: 4c00 95bc 0944 23bc 3b27 26be 716d a43d
000003e0: bf86 04bf 6535 183d 5a0c 673e 2bb3 783d
000003f0: 05bf 793f f2d7 83be 106e 3d3d 2b55 4fbf
-0.084756054 0.7476984 0.3920621 0.49255767 -0.18613715 -0.60240084 -0.53178155 0.096134916
0.6717201 0.4539445 -0.1931907 0.42684606 0.28388736 0.32211128 -0.16798607 -0.47842363
0.7050292 -0.0033329064 -0.8036866 -0.059853908 0.6863129 0.2783785 -0.73136616 0.45009765
0.07354909 0.09715704 0.47829804 0.4414391 -0.3663045 -0.4367194 -0.25574765 -0.19379891
-0.074283384 0.10353986 -0.06734541 0.11272305 0.47181493 -0.0034961165 0.053834908 -0.055374674
-0.19396023 -0.27905402 -0.7245328 -0.06539855 -0.28282416 0.24333303 -0.54089725 -0.4269945
0.52367955 0.18792121 -0.70463365 -0.17182665 0.6501526 -0.16004965 0.41574788 -0.47068253
0.2783979 -0.06612479 0.08893174 -0.009270513 -0.092444055 0.7123745 0.14481065 0.39026994
0.09674731 -0.19293612 -0.45306617 0.17014693 0.7947234 0.16117129 -0.11929962 0.09765188
-0.74206847 0.5186237 -0.040754054 0.1079603 0.31380987 -0.7975022 -0.71601295 0.10027487
-0.27197683 0.018704377 -0.5986476 0.1434548 0.026040733 -0.57047796 0.10405521 0.0022973462
0.04953998 -0.96572804 0.3967267 0.56094354 0.086026505 0.6645378 -0.3301488 -0.35358945
0.27546993 -0.27070096 0.5379983 0.1466556 0.10043719 0.08345427 0.009034136 -0.020924823
0.1993371 -0.31014812 0.6905746 0.32496172 -0.57991904 0.10835753 0.124370225 -0.27329424
-0.72835815 0.50264794 -0.30088922 0.46608147 0.44807532 -0.037105758 -0.17358063 0.23197073
-0.07027826 -0.44181225 0.086246505 0.1747654 -0.084639944 0.57053727 0.832638 -0.31755337
-0.15088497 -0.24444371 0.37047833 -0.25391835 0.1373491 -0.5483226 -0.19163974 -0.23527206
-0.5966293 0.15386367 0.38979948 0.54417795 -0.15277041 0.13532537 0.31769094 0.27061507
-0.5840629 0.36751512 0.01101737 0.25155276 -0.47010836 0.04167331 -0.09188424 -0.063961335
-0.27770948 0.11883408 -0.18553273 -0.03972789 0.34271523 0.19035156 -0.0107674375 -0.015285958
0.12341755 -0.16584599 -0.18593611 -0.18771204 0.014614378 -0.07478971 -0.119297646 -0.071619295
0.04875734 -0.04426288 -0.30493957 0.022379646 0.17673549 0.27543232 -0.011500087 0.024130747
-0.020737061 -0.09533772 -0.11754696 -0.0855519 -0.31125644 0.09444882 0.46279216 0.13669719
-0.403333 -0.5126225 -0.33006352 0.5905273 0.24718739 0.45167968 -0.29145125 0.5239202
0.06484168 0.22298178 0.70398045 -0.046212163 0.42460462 -0.12162858 -0.2027206 -0.8622765
0.21737847 -0.74990493 -0.04241629 -0.063432895 0.7028883 0.19801816 0.34859753 0.41117924
0.6001428 -0.08052167 -0.35219553 0.5056641 -0.09702537 0.9663382 -0.1108301 0.20149456
0.22538313 0.020582873 0.46560743 -0.08943252 -0.10269576 0.08551961 -0.44236872 -0.2024685
-0.28750265 0.3848333 0.38149452 -0.57169443 -0.6573926 0.19895242 -0.47366983 0.08880586
-0.35922885 0.40254262 -0.11071763 -0.38918525 0.29944023 -0.30518878 -0.316424 -0.2433062
0.45914757 -0.96173126 0.30624554 -0.70456606 -0.018188618 -0.009964951 -0.16225903 0.08028687
-0.51768106 0.037160296 0.22563305 0.060717743 0.975571 -0.2575069 0.046247542 -0.8098933

2.bias f4 [30]
00000000: 4e54 14bf 2fef 01be a9e9 d53c 5f97 22bf
00000010: 4fcc cdbe f403 70be 5e1d 1d3e 4774 9abe
00000020: c370 7c3e 4a45 f4be 4408 f7be b9a5 92be
00000030: 8204 04bf 8364 533e 875f 7cbe 47a3 9f3c
00000040: fc2d b3be 8e26 9e3e 5b01 a1bd 3f5e 103f
00000050: 792f da3e 6cc7 173f aac6 18bf f977 b0be
00000060: ad32 93bd 99d7 1ebd c424 2a3d 9a06 11bf
00000070: c3ec 953d c1fd 94bd
-0.5794114 -0.12688898 0.026112394 -0.63512224 -0.40194938 -0.23439008 0.15343234 -0.30166838
0.2465239 -0.47709113 -0.48248494 -0.2864206 -0.5156938 0.20643811 -0.24645816 0.019487036
-0.3499602 0.3088879 -0.07861587 0.5639381 0.42614344 0.5928867 -0.5967814 -0.34466532
-0.071874 -0.03877983 0.04153897 -0.566507 0.07320549 -0.07274962

4.weight f4 [6, 30]
00000000: 46c7 80be bbd3 1ebd 8ca3 e4bd 93b7 c43d
00000010: bbc7 2d3d 2b8e cd3d 5336 16be 99dc 0bbd
00000020: 54d7 c9bd 7ae8 443e 7c21 68bd 40b8 f33b
00000030: eefa ba3d 7867 5e3e caf8 003e 177b 85bd
00000040: edb9 f23d cf7a d23e 65a4 fa3d 0901 7ebe
00000050: 9a3a 223d 7919 a03c bcef 0b3e bf19 8bbd
00000060: e4c9 c2be 39c9 553d 48e9 a7bd 9fbe aa3d
00000070: ca92 72be f55f 3ebd f2a8 ad3e 6da6 953d
00000080: f191 883e e1e3 adbe a0cc 3a3e 2d96 623d
00000090: fc93 f63c 5c3b d73e 7f1d 233b 2075 dfbe
000000a0: aaf8 403e 18a2 b8bd 3935 aabd 75bb 853d
000000b0: d625 dfbd 6dbf c5bd cf01 af3d b33c 073c
000000c0: 78f4 0f3d e3b4 293e b6c1 d3bd 4cc5 f83d
000000d0: 3d9e bcbe b15f 863e c965 de3e 2f46 823d
000000e0: 425a ad3e 4cde 55be 1510 82be 3c86 18bd
000000f0: 6a54 bfbe a0ae ddbd 7415 b2be c578 bf3d
00000100: f36f e73e 420e c5bc 700a bbbe 02b5 c93e
00000110: e6de fdbe eebb 57bd a1b5 fd3e 8ecb 89be
00000120: ad25 893d e014 f0be 56f4 09bf 3732 4ebe
00000130: f0e7 c13e e700 46bd 8fd7 a6be 199a a33b
00000140: 1508 e4be 5eb0 763e 8dfd b9bd d47a cfbe
00000150: d121 5b3e 73f2 7e3e 759d 133f e1d2 d2be
00000160: be3e e5be 1273 8fbe 68a0 bcbe 033a d73d
00000170: 2b71 543f d267 143f 973e e33e 9e71 cdbd
00000180: e2c4 bbbe df10 d8be 1bc3 cd3e 9bee dabe
00000190: 29b6 7f3e 3e4c af3e 03d5 c7bc cc7b dd3d
000001a0: d0bc 24bf add5 8a3d a8aa 8a3e 0142 fe3e
000001b0: 5d74 6a3e 8470 443e 2821 c7bd cea8 1ebf
000001c0: e041 2f3c 3028 cebe 062b b13c 0c99 19bd
000001d0: 1e7c 00bf ce32 98bd 4ee7 a63e 6ab1 20bf
000001e0: 801f 16bd 8cde 78be b14b df3d 9d35 bebe
000001f0: ff52 053f a576 2a3e 62c5 183f a873 3bbe
00000200: 31c9 813f 085f 593d f741 443f aed8 f63d
00000210: 9230 e1be 902b f2be 37e5 60be 3086 e2be
00000220: 3270 203f 7404 98be e2be 223f 9b07 34be
00000230: eb62 5ebf bdc2 173e 826a 853e 4004 163f
00000240: b404 51bf 08f0 1d3e 7a13 53bf de59 d2be
00000250: 6459 62bf 37f6 d4bc dc11 4c3f a665 363f
00000260: 9da3 89be c6cf 2dbf 0d66 babe 634e 013e
00000270: e914 53bf bf0b 0f3f b833 343f e70f cf3d
00000280: 607d 59be 8c3c acbc 34fb da3e 9d07 35be
00000290: e1ff 143f c4cf 9abc 1710 60be 6d8c 4dbe
000002a0: ac43 58bf 9cb6 7c3e edc9 c0be 9ba6 b83d
000002b0: 8240 223e d7ee 10bf dd85 5ebf 35e0 033f
000002c0: ed5a 16bf 3bd9 f8bd 1173 9dbd 4245 21be
-0.25152034 -0.03877614 -0.111640066 0.096053265 0.042426806 0.10036882 -0.1466916 -0.034145925
-0.09855524 0.19229308 -0.05667256 0.007437736 0.09129892 0.21719158 0.12594905 -0.06517618
0.11851869 0.4110932 0.12238387 -0.24805082 0.039606668 0.019543396 0.1366567 -0.0679202
-0.38044655 0.052193854 -0.08198792 0.08337139 -0.23688808 -0.04647823 0.33917958 0.07307134
0.26673844 -0.3396292 0.1824212 0.055319 0.030099861 0.42037475 0.0024889407 -0.43644047
0.18844858 -0.09015292 -0.08310933 0.06529895 -0.108958885 -0.09655652 0.08545267 0.008254218
0.035145253 0.16572909 -0.10339682 0.121470064 -0.36839476 0.26244882 0.4343703 0.06361043
0.33857924 -0.20885581 -0.25402895 -0.03723739 -0.3736909 -0.10824323 -0.34781992 0.09349207
0.45202598 -0.02405465 -0.365314 0.3939591 -0.4958412 -0.052669458 0.49552634 -0.26913112
0.06696639 -0.46890926 -0.5388845 -0.20136343 0.37872267 -0.048340704 -0.32586333 0.004992735
-0.44537416 0.24090716 -0.09081564 -0.40523398 0.21399619 0.24897175 0.57662135 -0.41176513
-0.4477443 -0.2801748 -0.3684113 0.10509112 0.8298518 0.5797092 0.4438369 -0.100314364
-0.36673647 -0.42200372 0.40187916 -0.42760167 0.24971832 0.34237856 -0.024393564 0.10814628
-0.64350605 0.06779037 0.27083325 0.49659732 0.22895952 0.19183546 -0.09723121 -0.61976326
0.010696858 -0.40265036 0.02162696 -0.037499472 -0.5018939 -0.07431565 0.32598346 -0.6277071
-0.036651134 -0.24303645 0.10903109 -0.3715028 0.52079767 0.16646822 0.5967618 -0.18305838
1.0139524 0.053069144 0.76663154 0.12053047 -0.4398237 -0.4729886 -0.21962439 -0.44243002
0.62671196 -0.29690897 0.63572514 -0.17581026 -0.86869687 0.1482038 0.26057822 0.58600235
-0.816478 0.15423596 -0.82451594 -0.41084188 -0.8841765 -0.02599631 0.7971475 0.71248853
-0.2688264 -0.6789516 -0.36405984 0.12627558 -0.8245378 0.558773 0.70391417 0.10110455
-0.21239233 -0.021024965 0.42769778 -0.17678685 0.5820294 -0.018897898 -0.21881138 -0.200731
-0.8447826 0.24679035 -0.37654057 0.090161525 0.1584492 -0.5661444 -0.8692301 0.5151399
-0.5873249 -0.121508084 -0.07687963 -0.15749076

4.bias f4 [6]
00000000: 25d3 aebe 5afa 273e 863b 0b3a 2a8a fbbc
00000010: fa0d a0be ce73 d2be
-0.34145465 0.16404095 0.0005311299 -0.03070553 -0.31260663 -0.41103977

0.weight f4 [30, 2]
00000000: 4e80 b13e 462e 85bf 2d1b 1f3f dbe0 52bf
00000010: a6c3 e2bf b029 3e3f cb8a 8dbc d35d 763f
00000020: 58ea 943e cf7e 44bf c335 da3e 3238 be3e
00000030: a8d9 c7be 9937 3abf e85b e03e cbea 8dbf
00000040: b70f 613e a87c 86bf f283 1cbe 6f44 57bf
00000050: e245 15bf 3137 4a3f 9cb8 1bbf 8546 023f
00000060: 07bc d4bd 497e 853f 91af 5cbf 2cf9 4b3f
00000070: 00d6 f63f ae29 c13e 8d0f 6ebd 144c 23bf
00000080: ecdf 6fbf 2379 3ebf 0f4e 0abe 0a2d 4fbf
00000090: a9df a6bf 7086 953e 026f c3bf 3159 103e
000000a0: f64f 16bf 3a03 b83e 1dd7 6bbf 09b0 7dbf
000000b0: ac10 fe3e 62fb 863f 9bbf c8be c119 6c3f
000000c0: 3689 2d3f 0b44 62bf 3fff c73d f0bb 75bf
000000d0: bc8d 833f 06ca 773e d583 983f 5574 4dbe
000000e0: 465b 2bbe 488d a93f c563 bdbe 84e3 6bbf
0.346682 -1.0404747 0.6215084 -0.8237435 -1.7715957 0.7428236 -0.017278096 0.96236914
0.2908504 -0.76755995 0.42619142 0.3715225 -0.39033246 -0.72741085 0.4382012 -1.1087278
0.21978651 -1.0506792 -0.15284708 -0.84088796 -0.5830976 0.78990465 -0.60828567 0.50888854
-0.10387426 1.0429164 -0.86205393 0.7967708 1.9284058 0.37727112 -0.0581203 -0.6378796
-0.9370105 -0.7440359 -0.1350634 -0.809281 -1.3037006 0.2920413 -1.5268252 0.14096524
-0.5871576 0.35939962 -0.9212511 -0.99096733 0.49622095 1.0545466 -0.39208683 0.922268
0.6778749 -0.88385075 0.09765481 -0.95989895 1.0277629 0.2419816 1.1915232 -0.20063908
-0.16734037 1.3246241 -0.3699018 -0.92144036

0.bias f4 [30]
00000000: d99e 80bf 9ab9 88bf 2bde 633f d7f6 663f
00000010: c40a 6e3f 48b1 2c3f 8dbc 343e 5506 45bf
00000020: 9edb 36bf ff2e 05bf a64a 8abf b0d1 34bf
00000030: a2cf 63bf 1b9f 093e 3db0 ce3d bfd3 3e3c
00000040: d9e9 ae3e 3815 de3e 584e a5bf 31d2 80bf
00000050: eeda e7be 67e3 4c3f 9f11 b93e aaba 87bf
00000060: e5fb ae3f f19d 84bf 94a3 57bf 2a03 183f
00000070: e5bf 1c3f e460 ecbe
-1.0048476 -1.0681641 0.89010876 0.902204 0.9298518 0.6745801 0.17650051 -0.76962787
-0.7142886 -0.52024835 -1.0804031 -0.7063246 -0.889887 0.134396 0.100922085 0.011647164
0.34162787 0.43375564 -1.2914534 -1.0064145 -0.45284218 0.8003449 0.36146256 -1.060384
1.3670622 -1.03607 -0.84233975 0.5937983 0.6123031 -0.46167672

2.weight f4 [30, 30]
00000000: f3ff 0b3e c963 9b3d d819 3a3f 01f0 16be
00000010: 2910 a23d e9c9 afbd 54d7 813e 072b 21be
00000020: b323 e3bd a7ae 0c3e 4171 b1be d341 16bf
00000030: 2257 50be 8e73 b23e 8600 5f3e e94c bf3e
00000040: 6253 803d 0ee0 ed3e 190d f4bc f960 acbe
00000050: f8df b1be b0b9 50bd 0e57 76be cd0e 1fbe
00000060: fa49 a93e c328 453e 71a2 1dbd 873f 153f
00000070: b6cf fb3d f56d 083e af4a 2b3f 8973 023f
00000080: 1e9c 21bf 3bfa 69bf 34d1 493e f365 d5be
00000090: e42e a63e 7c4c eb3e f23c 3e3f 223c 143f
000000a0: 82b5 05be c311 4cbd 1c6a 773c 5e0c 88be
000000b0: 4e26 4dbc bad4 c33e 6362 4a3e f9dd 1e3d
000000c0: c986 b9bd 60b4 ba3e 89d2 95be a4d8 a63e
000000d0: 605d b9be 93c5 2cbe b747 0dbe 981c 533f
000000e0: c325 aa3e a3fb 25be bd37 10bf 5997 be3e
000000f0: 359c 86bd 4bd0 a3bd 7ffa 683e 8d6c 45bd
00000100: 9a35 18bf 3ccd 2d3b 5b2b fbbe 7918 5ebe
00000110: 42eb 92be c26e 66be 74db f13e 2d48 bc3e
00000120: 0de5 e83e 2fcb 873e ccd0 b63d 541a b1be
00000130: cb5a a9be 27ca e2be 22b7 833d f30b 1f3d
00000140: 58c2 943e 368d efbe c6ed e13e abdd f13e
00000150: 9bee 00bf 3bb8 37be 9675 8cbc e203 183e
00000160: 7bd8 4b3e 3bdc 02be 1a65 a43d 377a 50bd
00000170: 8094 c8be 23c8 2f3e 75f9 1b3f 55af a1bd
00000180: 4a82 e63e 5092 73be ef8a 653d 84f3 dcbc
00000190: fac4 27bf 5410 08bf 547a f3be 028d 83be
000001a0: 80d6 e7be fb47 ea3d 9729 c93e 1a4c aa3e
000001b0: 65cf 55be 5457 01be c76e ddbe 31a2 a33e
000001c0: 69ad 63bc 8153 29bf 8916 ac3e 0d30 02bd
000001d0: 0d45 14be 2172 31bd 6c37 3d3e eced 9e3e
000001e0: d6f7 8e3e 1e61 8d3e 5f5a 43bd aa63 87be
000001f0: a5e6 ed3d 73ea f0be 2ae5 3d3f a694 d43d
00000200: 9abf ce3e e01f 3c3f 14e8 233c 7dba 1dbe
00000210: de61 21be 834d 26be dcc9 20bf bb19 b43e
00000220: 5b35 053f 8645 aa3e 6c5a d33d c257 cfbd
00000230: e0a1 d7bd ec26 903e 87cd 3cbf cf39 18be
00000240: b862 0e3d 5036 943e 702a 233d 15e1 52be
00000250: c185 a8be c624 263f dc49 f5bd d991 e63d
00000260: 8f4e 8ebe d0c8 903e 8cc2 99be 9ae9 a43e
00000270: c339 f9be 3b4c 51be 9520 18bd 283a a5be
00000280: 4de3 903e bd94 a83e 98d1 b73e ba65 193e
00000290: be7a dd3e af24 16bd 9047 0abf 87f4 c7be
000002a0: c19c 42bd 22fb 77bd 010c 483c 7377 09bf
000002b0: 7cdf 393e f1a0 973d e04e f6bd a4c3 a53c
000002c0: f8c6 943e 563a 743d 94ba 2d3e 75d9 29be
000002d0: 0400 c2bc 8163 2cbe 21ca 9d3e 4ed9 34bd
000002e0: df95 26bf c022 183e b938 1ebf 578c dabd
000002f0: a29c 673d 3361 8fbe 0922 063f 8fa7 f33d
00000300: 66e0 363f af74 4d3e 86a1 113f 346f d9bd
00000310: 075c 10bf a29b 35bf b81a f7be 8e58 09bf
00000320: 4e6d 153e d232 33bd a0ac 56be 182e 253f
00000330: 9417 10bf abbd b33d 0195 e33d 95ea 9a3e
00000340: a7af 89be 4923 c83b ea94 8d3e fe43 563c
00000350: c744 79be 7d0f ec3c e358 aa3c f60d 593d
00000360: 8f66 f43e 1191 4a3e d274 903e ab24 d7bb
00000370: 5bd7 86ba 9242 cdbd 2a51 b03c b3c7 eebe
00000380: 5b82 3cbf 423a eb3d 34c4 983f ca5e 0d3f
00000390: f5dc b53e 7162 1c3f 02d4 ec3c 38f6 733f
000003a0: 026c 41be 0e09 c93d 76c8 e43c 8f6e ffbd
000003b0: 0939 b2be 956c ebbe 0d47 fdbd 41bc 803d
000003c0: 1deb 96be da5b e4be 8bbf e63c 5f53 be3d
000003d0: c1f5 d3bc 02f8 07bf 31b5 a9bd b063 f6be
000003e0: 73aa 1bbf 0adc 03be b1fa 0dbd 153b 54be
000003f0: afd3 40be 1fb1 1e3f 349a 0a3f c345 35bd
0.13671856 0.07587392 0.72695684 -0.14739992 0.079132386 -0.08583433 0.25359595 -0.1573907
-0.110907935 0.137385 -0.34656718 -0.5869419 -0.20345739 0.34853786 0.21777543 0.37363365
0.06265904 0.46460003 -0.029791402 -0.33667734 -0.34741187 -0.050958335 -0.24056646 -0.1553299
0.33064252 0.1925383 -0.038484994 0.5830006 0.12295477 0.13323195 0.66910833 0.5095754
-0.6312884 -0.91397446 0.19708711 -0.41679344 0.3245765 0.4595679 0.74311745 0.57904255
-0.13057521 -0.049821626 0.015100982 -0.26571935 -0.01252134 0.38248235 0.19764094 0.03878591
-0.09058911 0.3646574 -0.29262188 0.3258716 -0.36204052 -0.16872244 -0.13796888 0.82465506
0.33231935 -0.16209273 -0.5633505 0.37224844 -0.06572763 -0.07998713 0.22751807 -0.048199225
-0.5945679 0.0026520034 -0.49056515 -0.21689023 -0.28695112 -0.22503188 0.47237742 0.36773816
0.45487252 0.26522204 0.089265436 -0.345904 -0.33077082 -0.44294855 0.06431414 0.038829755
0.29054523 -0.46787423 0.4412672 0.47239432 -0.50364083 -0.17941372 -0.017145913 0.14845231
0.199068 -0.12779324 0.08027096 -0.050897803 -0.39175797 0.1716619 0.60927516 -0.0789477
0.45021278 -0.23786283 0.0560407 -0.026971586 -0.6553494 -0.53149915 -0.47554266 -0.25693518
-0.45280838 0.114395104 0.39289543 0.33261186 -0.20879896 -0.1263097 -0.4324858 0.3195968
-0.013896325 -0.6614304 0.33610943 -0.031784106 -0.14479466 -0.043321732 0.18478173 0.31040895
0.2792346 0.27613157 -0.047693606 -0.26443225 0.116162576 -0.4705387 0.741778 0.10379915
0.40380555 0.7348614 0.010004062 -0.15403171 -0.1575999 -0.16240506 -0.6280801 0.3517588
0.5203454 0.33256167 0.10319981 -0.1012416 -0.10528922 0.28154695 -0.7375111 -0.14865802
0.034762114 0.28947687 0.039835393 -0.20593674 -0.32914546 0.6489986 -0.11976978 0.11258287
-0.2779431 0.28278208 -0.3003124 0.32209474 -0.4867688 -0.20439236 -0.037140448 -0.32270932
0.28298417 0.32925978 0.35902095 0.14980212 0.43257707 -0.036656078 -0.54015446 -0.39053747
-0.047512773 -0.060542233 0.012209893 -0.5369789 0.18151659 0.07403744 -0.12026763 0.02023489
0.2905805 0.059625946 0.16965705 -0.1658686 -0.023681648 -0.16834833 0.30818275 -0.04415255
-0.65072435 0.14857006 -0.618053 -0.10671299 0.05654586 -0.28003845 0.52395684 0.11897194
0.71436155 0.20064043 0.5688709 -0.106169134 -0.5639042 -0.709406 -0.48262572 -0.5365075
0.14592478 -0.043749638 -0.20964289 0.6452346 -0.5628598 0.08776411 0.111124046 0.30257097
-0.26891825 0.006107722 0.27652675 0.013077734 -0.24342643 0.02881598 0.020794338 0.05299183
0.47734496 0.19781901 0.28214127 -0.0065656505 -0.001028757 -0.10022463 0.021523077 -0.46636733
-0.73636407 0.11485721 1.1934876 0.5522276 0.3552014 0.6108771 0.028909687 0.95297575
-0.18888858 0.0981618 0.027927618 -0.12472259 -0.3480914 -0.4598128 -0.123670675 0.062859066
-0.29476252 -0.44601327 0.028167507 0.092932455 -0.02587402 -0.53112805 -0.08286513 -0.4812293
-0.6080696 -0.12876907 -0.034662906 -0.20725663 -0.18830751 0.61989015 0.54141545 -0.044255983

2.bias f4 [30]
00000000: 9ee7 1dbe a403 48bd 470a 82be 6763 6c3e
00000010: d033 e2bd 95ec 31be c85f 4c3d 44e9 4a3e
00000020: 2f37 3abf 98da 85be 3e2e 023f 839e 36be
00000030: 7c5e a83e fa54 c73d d497 c2be 4d1a afbd
00000040: c0d9 dfbe d810 073f 4167 033f 59a5 7f3e
00000050: f010 0abf aaff 24bf 6abb 1ebd 0daf 803e
00000060: ef95 d2be b30c 503e 3b1c 083d 0a47 0dbe
00000070: b852 e8bd 5aaa f83e
-0.15420386 -0.048831597 -0.25398466 0.23084794 -0.11045039 -0.17375405 0.04989603 0.19815546
-0.72740453 -0.26143336 0.5085181 -0.17833905 0.32884586 0.09733005 -0.3800646 -0.08549938
-0.43720818 0.52760077 0.5132943 0.24965419 -0.53932095 -0.6445261 -0.03875295 0.25133553
-0.41130015 0.20317344 0.033230048 -0.1379663 -0.11343902 0.48567468

4.weight f4 [6, 30]
00000000: 0085 f63c 5f44 98bc dbaa 393e 87ae 2cbe
00000010: 8d01 88bd f0f8 dc3d b582 a43d f05e 103e
00000020: 5578 aa3d 07ee 3ebe 7114 3dbe 2803 b4bd
00000030: d881 30be 10c4 293d 9abc 7ebd 4081 15be
00000040: 6339 31bc c84d 16bd 5fa8 f83d 8d65 8c3d
00000050: 14b4 ebbb 7a18 333e d219 d23b d48c 493d
00000060: ca70 74bd 83fa 48bd e09d b93c 884b 633b
00000070: 57b3 efbd 93f7 e03c 5f9c 913d 2525 4a3e
00000080: 6969 123e 1ec4 04be 6763 003e 828a 8bbe
00000090: 7ff7 843e cc51 9abb 9a28 c0be 6493 bc3d
000000a0: 71df dd3e 81df 663e 5fde 893d b7fa dd3e
000000b0: a015 603e b6d4 d2bb 62e9 173e e4f5 31be
000000c0: cad7 0f3e d776 f43d 31c7 6cbe f8d7 3ebe
000000d0: fb39 063e b3e0 df3d 9043 e4bd a023 91bc
000000e0: 7a44 2c3e 0502 b83d ca63 60be bf4d 3bbd
000000f0: fae7 e6bc bd8c 313f c286 d63e 312c 93bd
00000100: 7067 0bbf cf53 8dbe d0a9 b23d 6b5a 5cbe
00000110: 910b d83d 8991 17bf b191 24bd a8c6 3ebf
00000120: aca9 063e ea95 043f f3c4 bc3d d8a0 ca3e
00000130: cc67 233d 4c7c d73b ad57 1f3e b511 683d
00000140: bfd2 09bd 7a3b a13d 12ce bdbe 1ff0 273f
00000150: 02bb 4b3d 9f86 8c3c b3ad 1cbf 5c93 a8be
00000160: 0152 e23d 20d2 82be 499f 41bd 2b7c 78bd
00000170: a4c7 b23e 837d e23e b16b 453e e35c b63c
00000180: 3c0e bd3d 100c 00be e2f2 403e f79f f53e
00000190: 7791 edbe 9d21 fb3e f64e 4fbe 3564 033f
000001a0: 7b9d 00bf 880c e23d 91ca 3cbe 04cb 3a3f
000001b0: b5a5 ad3e 8358 033f ef78 d6bc 7e68 7ebc
000001c0: f98b 1abd d2dc cdbd 0c82 5d3e 0a7c cfbd
000001d0: 257a 8cbe 4ab4 dabe 3d01 b5be f1ba 26be
000001e0: de8a 163f 9dcb 27bf d066 993e 2236 243e
000001f0: d19f 093f 46f5 973e c24d 35bf e4bc ffbc
00000200: 0ac7 ee3e a750 42be 9f5c e6bb 35e7 af3d
00000210: 8712 25bf 3a76 983e d5eb 7a3f 22a2 d5bc
00000220: 9a80 c1be 1e26 46bf 8445 383f 5abb 1dbf
00000230: 4213 e63e f517 c03d d3f1 1c3f 5703 f43d
00000240: 3631 9e3e 6c86 12be 66a3 1e3f b591 0bbf
00000250: 97bf 3d3f e6c4 4fbe ba9d 0f3f 7596 493f
00000260: 18d4 d1be 423e 16bf 47b2 17bf 3bc3 26bf
00000270: 8e2a 37be 3939 2bbf 7bce 3d3f 5633 343d
00000280: 7b09 d23d 67c5 1a3e a977 1c3f 22f9 653e
00000290: f067 f23e 77df 5c3e 4233 46bf 7ac5 86bf
000002a0: e63b 453f befe bbbd 2966 073e c97f 7d3e
000002b0: ecba fd3e 6592 ae3c 374c 0bbe 0c20 37bf
000002c0: 33a7 e93e 6601 06bf 33b3 0abf e9ae 8bbe
0.030092716 -0.01858729 0.18131582 -0.16863452 -0.06640921 0.107896686 0.08032743 0.14098716
0.08323733 -0.18645488 -0.18464829 -0.087896645 -0.17237031 0.041446745 -0.062191583 -0.14600086
-0.010816905 -0.03669527 0.12141489 0.06855307 -0.007193098 0.17489806 0.0064117694 0.04920657
-0.059677877 -0.04906703 0.022658288 0.0034682471 -0.11704128 0.027461803 0.071099035 0.19740732
0.14298023 -0.12965438 0.12537919 -0.2725411 0.25970075 -0.004709458 -0.37530977 0.092078
0.43334535 0.22546197 0.06731867 0.43355343 0.2188325 -0.0064340485 0.14835122 -0.17378956
0.1404716 0.119367294 -0.2312286 -0.18637073 0.13108055 0.1093153 -0.11145699 -0.017717183
0.16822997 0.0898476 -0.21913067 -0.04572844 -0.028186787 0.69355375 0.41899687 -0.07186163
-0.5445471 -0.27603003 0.087237954 -0.21518867 0.10549081 -0.59206444 -0.040178005 -0.74521875
0.13150662 0.5179125 0.092172526 0.3957584 0.03989391 0.0065760966 0.1556079 0.05665751
-0.03364825 0.078726724 -0.37071282 0.6560077 0.04973889 0.017154036 -0.61202544 -0.32924926
0.11050797 -0.25550938 -0.047271047 -0.06066529 0.3491794 0.44236383 0.19279362 0.022261089
0.092312306 -0.12504601 0.18842652 0.47973606 -0.46400043 0.49049082 -0.20244965 0.5132478
-0.50240296 0.110375464 -0.18436648 0.7296603 0.33915487 0.51306933 -0.026180713 -0.015527843
-0.037731145 -0.10051884 0.2163164 -0.101310804 -0.2743694 -0.42715675 -0.35352507 -0.1628225
0.58805645 -0.65545064 0.29961252 0.16036275 0.53759485 0.29679316 -0.70821774 -0.031218
0.4663623 -0.18976079 -0.0070300843 0.08589021 -0.64481395 0.297777 0.980161 -0.026078288
-0.37793428 -0.7740191 0.7198107 -0.61614 0.44936568 0.093795694 0.61306494 0.119146995
0.3089692 -0.1430909 0.61968076 -0.54519206 0.7412047 -0.20289955 0.56100047 0.78745204
-0.40982127 -0.5868875 -0.59256405 -0.6514165 -0.17887327 -0.6688419 0.7414319 0.04399427
0.102557145 0.15114366 0.61120087 0.22458318 0.47344923 0.2156962 -0.77421963 -1.0529015
0.7704452 -0.091794476 0.13222565 0.24755777 0.49556673 0.02131004 -0.13603292 -0.71533275
0.45635375 -0.52345884 -0.54179686 -0.27281883

4.bias f4 [6]
00000000: 618b c33d ea99 b13e d594 97be a054 39be
00000010: 417d 8cbe 3dc3 8ebe
0.09548069 0.3468774 -0.29605737 -0.18098688 -0.2743931 -0.2788333

0.weight f4 [30, 2]
00000000: 6899 b1be 061c eebe a08c 7ebf 8b69 4e3e
00000010: 046c 303f e185 7e3f 4247 833e dbb7 87bf
00000020: 3182 523f a617 0cbf 6245 6f3f 12ac 55bf
00000030: cedf 843e f36b a6bf 5b91 48bf aeb7 a73f
00000040: 693c f23e d4f5 d63e bedd b13f 5dd9 7d3f
00000050: 19d8 4f3f 533d 2bbf db89 b7bf 7bc7 c43e
00000060: 25f5 563e f483 be3d f709 94be 2042 5f3f
00000070: f422 fa3d 2657 7bbf 10f5 dabf 867f 2f3f
00000080: df20 c5be 4499 c6be c6bf b73f d425 7e3f
00000090: f273 8a3d 3318 42bf d21a c5be 5647 a13f
000000a0: dc52 72bf b19e 44bf f49d f73e a551 593f
000000b0: dca6 99bf 4f25 9ebf eeb1 9d3f 8771 a4be
000000c0: 5d6a 9fbe 1523 e5be 61b5 08bf 6b87 563f
000000d0: cac9 ecbf 4e7e 73bf 5be4 953e ca20 bdbf
000000e0: b9ef 9f3f f3f7 91bf 3538 913f 4294 0cbf
-0.34687352 -0.46505755 -0.99433327 0.20157449 0.6891482 0.99423033 0.25640303 -1.0602983
0.82229906 -0.54723585 0.93465245 -0.83465683 0.25952 -1.3001693 -0.78346795 1.310293
0.47311714 0.41984427 1.3895795 0.99159795 0.81189114 -0.6689045 -1.4338945 0.38433442
0.20991953 0.09302512 -0.28913853 0.87210274 0.12213698 -0.9817985 -1.7106037 0.6855396
-0.3850164 -0.38788807 1.43554 0.9927647 0.06760396 -0.75818175 -0.38497025 1.2599895
-0.94657683 -0.76804644 0.48362696 0.84890205 -1.2004046 -1.2355136 1.2319925 -0.32117864
-0.31135836 -0.44753328 -0.5340176 0.8380038 -1.8499081 -0.951146 0.29275784 -1.4775631
1.2495033 -1.1403793 1.1345278 -0.54913723

0.bias f4 [30]
00000000: f202 0d3f 0360 c0be 7d08 803f f182 7ebf
00000010: 0c16 3e3f 3cd0 ad3b 129f 99bf 0119 7b3f
00000020: 619e 8bbe d798 6dbf 276d 6f3f 1a18 33bf
00000030: 299a 803f b466 46bf 7bb9 5d3f 70df 64be
00000040: 7a60 1f3f 9e01 86bc aca5 323f bf59 8a3f
00000050: 32ab 333f 3854 9ebe b174 e13e 522f 633f
00000060: 4344 3c3f 1b35 92bf a7d1 523f 0266 afbf
00000070: c550 72bf ad9a 393f
0.5508262 -0.3757325 1.000259 -0.9941855 0.7425239 0.0053043645 -1.200167 0.9808503
-0.2726927 -0.9281134 0.9352593 -0.6995865 1.0047046 -0.7750046 0.86611146 -0.2235086
0.62256587 -0.016358193 0.69784045 1.0808638 0.701831 -0.3092363 0.4403434 0.8874408
0.7354166 -1.1422457 0.82351154 -1.3703005 -0.94654495 0.7250164

2.weight f4 [30, 30]
00000000: 4383 123e 1e69 2b3c b89c 313e 9c10 49be
00000010: 0a0b 833d 2c14 79bd 5b5c 293d 558c eabd
00000020: f960 693c 7627 e23d 7fff e4bc b91e 733e
00000030: 6b12 393f ada2 21bf 2ea2 bf3d ca59 94bd
00000040: 8a29 cb3e 3ecd 3c3f 07f6 b0bd 87b3 bfbd
00000050: 5ce7 823c a51c b63d fbe9 adbe f5fe 523e
00000060: acce b73e c5a8 8cbe 759d 863e 0658 a83d
00000070: 61a5 b0bd 1dfc 41bd 21b9 d7bd 43ed 143f
00000080: 284a 4e3e e1f9 80be f52e b5be 4bf9 2fbf
00000090: a5e8 f1be b00a b33e de69 f33d 3bb3 1f3e
000000a0: 2f43 20bf b5e0 343e f154 853d 0b22 103f
000000b0: 1bfe 0cbf e6d0 a83e 27c7 793d 3e4a a43e
000000c0: a73e ffbe 5ddc ca3e 3cc9 7ebe 6cfa ef3e
000000d0: 25c5 29be 48d5 e4be b901 1dbe 0ba2 af3e
000000e0: 7436 77be d937 1cbe 902a f4be 7ad5 0fbf
000000f0: aa49 8f3d 8acc 0f3f d096 923c 5504 9abe
00000100: d0a6 06be 8435 73be 962d 54be 24a6 383f
00000110: e097 cebc 6950 83be 7c23 cc3d e966 e5bd
00000120: 07d2 cc3d d8ee ac3e b8a5 52be 8494 1fbe
00000130: ef91 cf3d c06c 8dbe 57cc 05be ff29 9c3e
00000140: 27a3 473e 318f 033e 09f6 ca3e d091 c1bc
00000150: 4a33 9b3d 2b0c 5b3e 593f c63e 2cfa 42be
00000160: 4623 8abf d358 3ebd 8a64 f43e 148c 593e
00000170: 205b 413e e898 e93b 989f 04bd d97a c93e
00000180: 0bc8 113e c079 dabe 3ceb 2cbf b1d6 20bf
00000190: dd71 813d dbc7 3fbd b581 293e 8a8c 77be
000001a0: 052b 433e a84f 22bd 73e0 a33e a8ff 04bf
000001b0: 4a29 bc3e 1791 acbe ae3c 583f 1d02 b1be
000001c0: 3c2d 203f 778a 95be 46f3 523f 0e3e dcbd
000001d0: 8b20 ed3e 739a e23e c137 d63e 94cb 8f3d
000001e0: 9f3b 023f 1a6b 983e 1a69 c8be ee59 473e
000001f0: 9ee5 30bc 613a 67be 9c75 3ebe f0d0 90be
00000200: 66b1 ccbe 6b70 eb3e 109f 43be 9080 0f3e
00000210: 86d6 a63e 95ca f4be 892e a63e aede dd3e
00000220: 996c 743e d3e0 1cbf 2bd2 c03c 25fc 183c
00000230: 57d3 a9bc 27fc da3d 73bd 8b3e 89ce 68be
00000240: 350f 4b3f 9890 563d 9854 84bf b807 ccbd
00000250: 0d2e 0d3f 028e c8bd 4bb7 bbbe 8837 d5bd
00000260: a8c7 74be 2fd4 f9bd 0e59 8d3e e6db 8f3e
00000270: dfeb f0bd 44a1 ee3d 0285 1a3f 8d1d 2f3f
00000280: ed97 bb3e b8e3 92be d466 7cbe 29a4 f6bc
00000290: 44eb 9d3e 8312 c8bd 26b0 e2be 70dc 413e
000002a0: 3a5c 3e3c a76f a53e 7234 43bf 28c1 843e
000002b0: ef08 f5be cbc8 e43e 0498 0abf ab83 71be
000002c0: f9fb 51bf 3db2 29be 49c6 7bbe fdd6 c13e
000002d0: de79 8c3c 6946 01bf f68a 183d 3d9c f33d
000002e0: b2b1 233f c2e6 1b3f b6fe 903e b5c7 66be
000002f0: 88e2 d3bd 0ec3 4abe 88d1 0d3f a453 b9be
00000300: d2af 013e 5e7f 72bf b884 193f aa54 21bf
00000310: 7cc8 c33d 02e1 cbbd a340 053f 386a a4be
00000320: f47c 823e 5a3b cbbe fd64 cfbc 7936 483f
00000330: 20dc 053e 77dc 37bf 9747 f23e eb9a 5abd
00000340: e130 173f ec5e 1d3f 0c9d 69be 9a1c 9e3c
00000350: b4c4 573e 956d 83be 209d f2be f837 50be
00000360: 7be0 303d 98e9 8abe a84e 373e 2137 e63e
00000370: 185b f9be 3193 2c3e 0682 2cbd 2a33 493f
00000380: 5860 2abf 3d83 cb3d 0adb 50be 576e 943e
00000390: ea3a b5be e783 473d 03a1 afbe 9882 ef3e
000003a0: 56c6 ccbe 38a8 00bf c26e 43bf ba0e 0d3f
000003b0: f80a cfbe 46f1 583e 6a2c 153e a92e f8be
000003c0: 7812 523e 4441 68bd 83ab 3e3f f61e 2fbf
000003d0: e7f4 c3bb 6c15 83be 9af3 73bf 202d 3f3f
000003e0: 199d 143e e65d 823e 16e9 103d 9ef2 24be
000003f0: 4782 943e 28e3 a0be 0875 803e 5c6a 193e
0.14307885 0.010462074 0.1734494 -0.19635242 0.0639859 -0.060810253 0.041347843 -0.114525475
0.0142443115 0.11042683 -0.027953861 0.23742189 0.7229373 -0.6313885 0.09357105 -0.072436884
0.3968013 0.73750675 -0.08640676 -0.09360414 0.015979461 0.08892182 -0.33967575 0.20605071
0.35899866 -0.2747251 0.26292005 0.08219914 -0.086252935 -0.047359575 -0.105333574 0.5817453
0.20145476 -0.25190642 -0.35387388 -0.68739766 -0.47247806 0.3496909 0.11885427 0.15595715
-0.62602514 0.17663844 0.06510342 0.56301945 -0.55075234 0.32971877 0.060980942 0.32087892
-0.49852487 0.3962125 -0.24881452 0.46870744 -0.16579111 -0.4469397 -0.15332688 0.34303316
-0.24141866 -0.15255679 -0.47688723 -0.56185114 0.06996472 0.56171477 0.017894179 -0.3008143
-0.13149571 -0.23750883 -0.20720515 0.7212851 -0.025218904 -0.25647286 0.099677056 -0.11201269
0.10000997 0.33775973 -0.20571029 -0.15583998 0.101352565 -0.27622032 -0.1306623 0.3050079
0.19495831 0.12847592 0.39640835 -0.0236291 0.07578142 0.2139136 0.38720205 -0.19040745
-1.0792015 -0.046471428 0.47732955 0.21244842 0.18882418 0.0071288235 -0.032378763 0.39351538
0.14236467 -0.42671013 -0.6754644 -0.62827593 0.06320546 -0.046821456 0.16553386 -0.24174705
0.1905938 -0.039626747 0.3200718 -0.519526 0.3675025 -0.33704445 0.8446759 -0.34571925
0.6256902 -0.29207203 0.82402456 -0.107540235 0.4631389 0.4425846 0.41839412 0.07021251
0.50872225 0.29769212 -0.39142686 0.19467899 -0.0107969325 -0.22580864 -0.18599552 -0.28284407
-0.39979094 0.45984206 -0.19103646 0.14013886 0.32585543 -0.47810808 0.32457379 0.43333954
0.23869552 -0.61280555 0.023537716 0.00933746 -0.020730658 0.106926255 0.27292976 -0.22735037
0.7932008 0.05238399 -1.0338316 -0.0996241 0.5514839 -0.09792711 -0.3666328 -0.10410982
-0.23904288 -0.12198674 0.27607006 0.28097457 -0.11763739 0.11651853 0.60359204 0.68404466
0.36639348 -0.2868936 -0.24648601 -0.030107575 0.30843556 -0.09769156 -0.44275016 0.18931746
0.011618668 0.32311746 -0.762519 0.25928617 -0.47858378 0.44684443 -0.5413821 -0.23585384
-0.82025105 -0.16571899 -0.24587359 0.37859336 0.017147955 -0.5049806 0.0372419 0.118950345
0.63943017 0.60898983 0.2831933 -0.2253712 -0.10345942 -0.1980097 0.55397844 -0.36196625
0.12664726 -0.94725597 0.5996814 -0.6301981 0.09559724 -0.09955026 0.5205175 -0.32112288
0.25485957 -0.3969372 -0.02531671 0.7820812 0.13072252 -0.7182078 0.47320244 -0.053370398
0.5905896 0.61472964 -0.22813815 0.019300748 0.2107113 -0.25669542 -0.47385502 -0.2033385
0.04318283 -0.27131343 0.17901099 0.44963935 -0.48702312 0.16853024 -0.042116188 0.78593695
-0.6655326 0.09937141 -0.20396057 0.28990433 -0.3539651 0.048709776 -0.3430253 0.46779323
-0.39995068 -0.5025668 -0.7634088 0.55100596 -0.40438056 0.21185789 0.14567724 -0.484731
0.20514858 -0.056702867 0.74480456 -0.6840662 -0.0059801224 -0.2560228 -0.9529358 0.7467823
0.14513053 0.25462264 0.035378538 -0.16108176 0.29005644 -0.31423306 0.25089288 0.14981979

2.bias f4 [30]
00000000: 585f 2a3f 5999 bbbd e1e1 c5bd baed c73e
00000010: 6e2f 173f a465 6abe 9dad e83d f06c 6ebe
00000020: fb07 ea3e ba48 c13e 789d edbe 9669 ac3d
00000030: fa52 bf3d 94b9 bd3e 8588 a73e 02f8 77be
00000040: 3c94 4a3e ca87 2bbe 0bfa 80bd 11fb 36be
00000050: 2f5d 1e3d bdce aebe f870 82bd ca01 a3be
00000060: a731 ecbe 5090 4ebe b681 423e 52eb d13e
00000070: dbe1 3f3d 8743 dbbe
0.66551733 -0.09160108 -0.096622236 0.39048558 0.59056747 -0.22890335 0.11361239 -0.23283744
0.45709214 0.37750798 -0.46409202 0.084185764 0.093419984 0.37055647 0.32721344 -0.24215701
0.1978311 -0.16751018 -0.06297692 -0.17869212 0.038663086 -0.34142104 -0.06369203 -0.31837302
-0.46131632 -0.20172238 0.18994793 0.40999848 0.046846252 -0.42824957

4.weight f4 [6, 30]
00000000: 57c3 103e c9d1 923e 1932 e93e 6eab ddbe
00000010: 97f9 3abd 5864 b6be d833 56bd 2ca6 c93d
00000020: 6c23 4bbe 38b9 9fbd c475 0f3e 40b8 eebd
00000030: 2903 07be 5c54 9b3d 230d e5be 31f8 13be
00000040: 5a2a 8abe 1b75 933d 9cfb 36be 8dbd 13be
00000050: 2b73 45be 98d1 bf3c 4f92 e53d 3e92 7ebe
00000060: f636 24be 38d4 923d 2675 80be 155f 163e
00000070: 6b1d 883e 4654 a93d 3e01 d23e 6e95 f83e
00000080: 8bbd 313e 4c0b ccba 7f76 bdbe 5114 19be
00000090: d96a 01be 16c6 033e 1549 71be b1ce aabd
000000a0: 7fb0 953e b839 94be 25a1 23bc 8fef 8cbe
000000b0: 6b61 49be cdb5 a0bd 3469 433e 718e 86bd
000000c0: 930e 963e 1c31 cd3d 6315 fe3e f64a 2abe
000000d0: 62be 95bc 41c7 fcbd 991e 29be 672f a1be
000000e0: 1ac8 54be e0b7 013f 23dd cb3d 3343 6cbe
000000f0: a0e1 113f 8896 f5be 3003 8ebe 4fc4 dabe
00000100: 66a2 d6be 1bfe 12bf f9fb 3f3f ebac aa3d
00000110: cc3c 743d 845c 8fbe 27f2 0e3f ca44 b3bc
00000120: 62fb 1e3f 5b30 763e 6985 68bf f296 243e
00000130: eb88 033e df75 7cbe 8cbd c3be 9eae 95be
00000140: 4e5c bebd ec1a 0f3e d2b0 153e d156 38bf
00000150: fcd1 3cbe 9f97 133e b1f7 f03e 731b 1d3f
00000160: 2033 983e cdcf b03e 3898 74be 0384 3c3d
00000170: 518d 593e 0cd6 193f 6fbf bebe bcbb 373f
00000180: 959f e83d 6cb9 063f d70b 3e3f 0721 ed3e
00000190: bc2e 7dbf 519d 213f 8d19 003f 68d2 6bbd
000001a0: a34b 10bf 8578 843e 21c3 0ebf 977a f1be
000001b0: bfff 903e f474 86be 09dd 663f 2f1f e43c
000001c0: 2886 d8be 98f9 09be ae5e 00be 279b 15bf
000001d0: 5b26 8b3e 19e5 4d3e 1f0c 3cbf 64da 9f3d
000001e0: eeb8 0dbf 2f8e ce3e b990 b1be 460e 75bd
000001f0: 8bc2 9a3e 54aa dd3c 1d7a a73e 2a59 b7be
00000200: f8b4 b83e ef9e 42bf 6f58 adbf ad9d 7a3e
00000210: 903e 63be 7136 323f 1360 a93e f5af 093e
00000220: 807d 85bf 6c33 fc3d 52b3 23be 03a4 97be
00000230: 17db 993d 5db5 19be 2894 84bc 7085 26bf
00000240: 57eb 47bf bf96 1c3e 4b41 1fbf 5004 833e
00000250: 5cc5 fabd ae27 5cbf 3c97 a13d 35a9 343f
00000260: d8f8 c63e bd63 b9be aaa2 09bf 2ebe dabe
00000270: ff48 1f3f efc0 19bf a23b b33e 513a 4ebf
00000280: fefd 0a3f 3ea0 9c3e d8c8 143d 4f62 983e
00000290: 0fb7 05bc 5716 fabe 4def fcbe b66c f03e
000002a0: 596d d93e 357f 3abd 9c76 e83e ab98 113f
000002b0: af2e fcbe 7d58 0ebf a935 d23e d99b 72be
000002c0: b9d9 49bf cc40 a53e 5716 d43e ab21 6f3e
0.14137016 0.28675678 0.45546034 -0.43294853 -0.045648184 -0.3562343 -0.052295536 0.09846148
-0.19837731 -0.077989995 0.14009768 -0.11656237 -0.13184799 0.0758445 -0.44736585 -0.14450146
-0.26985437 0.072000705 -0.17869419 -0.14427777 -0.19282214 0.023415372 0.11209547 -0.24860474
-0.16036591 0.07169384 -0.25089377 0.14684708 0.26584944 0.08268027 0.41016573 0.48551506
0.17357461 -0.0015567332 -0.37004468 -0.14949156 -0.12638415 0.12868533 -0.23563035 -0.083402045
0.29236218 -0.28950286 -0.00998715 -0.2752652 -0.19666068 -0.07847176 0.190831 -0.06570137
0.29307994 0.100191325 0.49625692 -0.16630158 -0.018279258 -0.12342692 -0.16515578 -0.31481478
-0.20779458 0.50671196 0.09954288 -0.2307251 0.569849 -0.4796641 -0.27736807 -0.42727897
-0.41920775 -0.57418984 0.74993855 0.08333763 0.059628293 -0.2800027 0.55838245 -0.021883387
0.6210233 0.24041884 -0.9082857 0.16073206 0.12845199 -0.24654339 -0.3823055 -0.29234785
-0.092949495 0.13975114 0.14618233 -0.7200747 -0.18439478 0.14413308 0.47063974 0.6137001
0.29726505 0.3453354 -0.23886192 0.046024334 0.21245314 0.60092235 -0.37255427 0.71770835
0.11358563 0.5262668 0.74236816 0.4631426 -0.98899436 0.6313067 0.5003899 -0.057573706
-0.5636541 0.258732 -0.55766493 -0.4716384 0.2832012 -0.26261103 0.9018102 0.0278469
-0.42289853 -0.13474119 -0.12536117 -0.5843987 0.271777 0.20106925 -0.73455995 0.078053266
-0.55360305 0.40342852 -0.34680727 -0.059828065 0.3022655 0.027058758 0.32710353 -0.35810214
0.36075568 -0.76023763 -1.3542613 0.24474211 -0.22191834 0.6961432 0.3308111 0.13446029
-1.0428925 0.123144954 -0.15986374 -0.2961732 0.07512491 -0.15010591 -0.016183928 -0.6504736
-0.78093475 0.1529188 -0.62209004 0.25589228 -0.122446746 -0.85998046 0.07890174 0.7057069
0.38861728 -0.36208907 -0.5376383 -0.4272322 0.6222076 -0.6006002 0.35006434 -0.80557734
0.5429381 0.30591005 0.036324352 0.29762504 -0.00816132 -0.4884517 -0.49401322 0.4695794
0.42466238 -0.04553147 0.45402992 0.5687358 -0.49254367 -0.5560377 0.41056564 -0.23692264
-0.78847843 0.32276 0.41423294 0.23352687

4.bias f4 [6]
00000000: ea55 093f a1ef cf3e 5c73 903e 9d20 cfbd
00000010: ce25 57be 54e8 d8be
0.5364672 0.4061251 0.28213012 -0.10113642 -0.21010515 -0.42364752

0.weight f4 [30, 2]
00000000: ad57 f2be 12a8 613f b715 96bf 82fc 72bf
00000010: 6d17 0ebf 303e 29bf 52f0 203f da39 a0bf
00000020: d362 18bf 1bb6 1ebf c780 3cbf d699 7cbf
00000030: 47b9 a2be 81c1 b43f ba93 85bf a56d 82bf
00000040: 0583 103e 7e46 893f 7c76 2c3f 93cb 6d3f
00000050: aa4c 0a3f 3c62 89bf a14f cbbe 4e68 723f
00000060: a077 003e 49cd 053f 19b9 08bf 697c ccbe
00000070: 6129 663f d5d7 733f a71b 893e d0a7 88bf
00000080: 6e25 113f 44bd ad3e 4f56 2b3e a22c 953f
00000090: cf59 993f b291 b7be bb4b f8be 299f 8d3f
000000a0: 1523 8d3c 11dc 59bd ba90 b0bf 872d 95be
000000b0: 2de1 6dbf a0a0 9b3f d59c d0be 886d 9fbe
000000c0: ad28 15bf f9ac 5e3f d361 65be b060 803f
000000d0: 5f4f eb3d 9791 92bf 8c79 afbf e4b4 803e
000000e0: 8d6b 8cbf ad0e 35bf f607 493f 537f 5cbf
-0.47332516 0.8814708 -1.1725377 -0.94916546 -0.55504495 -0.66110516 0.628667 -1.2517655
-0.59525794 -0.6199662 -0.73634 -0.98672235 -0.3178198 1.4121553 -1.0435708 -1.0189711
0.1411248 1.0724638 0.6736829 0.92888755 0.5402323 -1.0733104 -0.3970919 0.94690406
0.12545633 0.52266365 -0.53407437 -0.39938667 0.8990689 0.9525121 0.2677891 -1.0676212
0.5669774 0.3393346 0.16732143 1.1654246 1.1980532 -0.35853344 -0.48495278 1.1064197
0.017228642 -0.053188387 -1.3794167 -0.29136297 -0.92921716 1.2158394 -0.40744653 -0.31138253
-0.5826519 0.86982685 -0.22400598 1.0029507 0.11489748 -1.145068 -1.3708968 0.2513801
-1.0970322 -0.7072552 0.7852777 -0.8613178

0.bias f4 [30]
00000000: 7d0a 6ebf 6c81 083f 9dd9 0d3f f97d 1f3d
00000010: 407d 06bd a0b8 be3e b69b 843f d8dd 443f
00000020: 158c 15bf d046 eebe 1a06 a03f ff7e 283f
00000030: f8a3 a03e 3f74 453f 78aa 38bf a475 44bf
00000040: 4a34 70bf d5c8 9a3f f3e4 56bf 9a7e 1d3f
00000050: 8bf3 5d3f 2271 50bf b838 7ebf 28f2 513f
00000060: 2691 89bf 957c 4a3f 5955 893f ca6a 9dbf
00000070: 219b 02bf 7f96 b23f
-0.92984754 0.5332248 0.55410177 0.038938496 -0.03283429 0.37250233 1.0360019 0.76901007
-0.58416873 -0.465384 1.2501862 0.6581878 0.31375098 0.771305 -0.72135115 -0.76742005
-0.93829787 1.2092539 -0.839431 0.61521304 0.8669974 -0.81422627 -0.99305296 0.82010126
-1.0747421 0.7909635 1.0729171 -1.2298214 -0.5101796 1.3952178

2.weight f4 [30, 30]
00000000: 9c49 903d 4f0d a3be 9365 febe dc00 4b3e
00000010: 49ae acbe 784f 1bbf 9d16 0c3f 9ff5 e8be
00000020: 0839 af3e 4bb2 2d3f 1d78 9abd 636f 9fbc
00000030: 9832 91bd 2234 14bf feed 2a3f 27e1 a2be
00000040: dae3 cf3e bd5a d33e 9a70 ba3d 76d3 19be
00000050: 1be8 fabe f16e cc3d 2e39 dd3c c52a c5be
00000060: ce26 483d d1db 433e 6ccb c9be 0011 9f3e
00000070: b62f 03be 1dd8 9dbe b374 bdbe 8a30 1fbe
00000080: 19f9 adbc 1fae 023f 1d4e 3a3e 54d3 40be
00000090: 05f6 b63d dfe0 a53c 5b26 31be a190 e53d
000000a0: deeb 083f f845 4ebe 1796 2bbd 5244 ce3d
000000b0: e1b5 0e3e 3113 0b3e 4cbb 7abe 0340 9cbe
000000c0: 7c8d 4ebd 1506 6bbe f302 153e e0cd a03d
000000d0: 1792 0cbf eae3 243c 3959 debe b002 b0bc
000000e0: 4cf3 9c3d c816 16be 1eaf 8b3b e789 923e
000000f0: dc5c 0e3e 8bd9 42be 2c8f 30be 9d8b 00bf
00000100: ac4e 36be b783 0ebd b3ee 6cbd a08a 67be
00000110: 56b6 0b3d 4f8a 8b3e efbd ddbe 5dc0 07bc
00000120: 4690 6ebe a514 36be caac af3d 6ce1 293d
00000130: 1d97 753e 1402 2cbe 9aea 833d 4dae 883e
00000140: 96e0 45be f2f8 9dbd 0b8a d73e cd32 a8be
00000150: 7ce6 573e 2e7a d0bd 2453 85be 6811 3dbe
00000160: 073f d93d 4d09 9dbe 0508 5a3f 5d67 55be
00000170: 01c8 99be 6afb ecbe 6a72 fcbd 9400 49be
00000180: aa0d f63d 4285 c0be 0809 283f 5eac 7f3e
00000190: 0fae 0ebf f1c1 bd3e 73de 6b3d 197c 81bd
000001a0: 8995 5b3e d6d0 aabe a4a2 3d3e 45ef e9bd
000001b0: 58b7 0abd dbd2 893e ed5b 57bd ddc1 633e
000001c0: 8d3d 543f 4a0a a53c db1f 4c3f 5778 c03e
000001d0: e1b2 59bf d1ab 013f 4fcc b03e a28b 1abf
000001e0: a618 703e 77d1 3bbd 9cad 953e db6f 413e
000001f0: 134b 413e 1ee9 99bd 0083 79be a3c0 ecbc
00000200: 9d2c 0ebd 0ee9 32bd 4f87 9abe c339 d4be
00000210: 5cf9 59be 2ca7 6c3e bda7 91bd edf6 5e3f
00000220: f0f2 75be 4e96 d1bc cb83 64be 1be5 08bf
00000230: cfbd c53e 178b 903e 5e98 983e 10db f43e
00000240: 7cb9 093f 90d8 1fbf 91fe 89be a6e1 7d3e
00000250: 4087 333c 8220 40bf d8f8 b93e c27f 643d
00000260: f08b e43d 3640 c9be 819f 6abe be3e e9bd
00000270: ed65 9abc c9a9 06bd 8dd5 af3c decf 96bd
00000280: 4520 f7bd 01d7 f23e e2a5 f03d f8da 613e
00000290: 58d6 093e 0dc5 4bbe 4707 12be df32 4c3e
000002a0: bfbe 51be 4c04 f53e 0aef ee3d b087 4bbe
000002b0: b514 e53e 7960 483e 5e7f e93d a2ab 153e
000002c0: 3221 51bd 5d63 f43e d532 78bd a5d0 46be
000002d0: 3ff1 6bbd c275 703e a18c c03e 32ac 92be
000002e0: f013 923e 28e8 d13e ba71 0ebf 82ce eb3d
000002f0: 9ee3 dbbe 90be e1be f141 b0be 152c 05bf
00000300: 4363 05bf 5c0e d03d 42fa 69be 80da 273f
00000310: 2d23 a3be b572 2bbf 2173 303e b13e bbbe
00000320: e869 cd3d 4d1b db3e 9faf 9e3e 07b8 a93d
00000330: 0a4d 303e a11c 08bf cba9 063e 31b2 6f3e
00000340: d8b3 e03e 2538 23bd 1263 f2be c9f8 89be
00000350: d896 81be 3990 183f 17d6 84be 31b5 22be
00000360: b6ed fbbb 2b0a 94be 49c7 04be cb04 8f3e
00000370: 2df4 613f 42b1 27ba e447 793d 78ea 083d
00000380: 0774 f93e 8d74 ad3d 1d9e 36bd b114 ab3e
00000390: be83 cebd 1e5b 4dbd b8a9 ca3e e30b 10bf
000003a0: 9172 80bf 2d50 84bd 2e8d 90bf 9be3 293c
000003b0: 4a3d 1c3e 9c4c 95bf 99f2 83be 356c 8d3f
000003c0: f3a8 423e bee2 0d3f 6f84 233f aba4 28be
000003d0: 3cda 2a3f a04f 043f ff90 09bf ee73 373f
000003e0: be63 0abd 8ccf 6cbf f4eb acbd 817f 2cbe
000003f0: aa5c cebe f744 a23e 0de8 01bf 87ac 493e
0.0704529 -0.3184609 -0.4968687 0.19824547 -0.3372672 -0.60668135 0.54722005 -0.45499894
0.342232 0.6785018 -0.07542441 -0.019462293 -0.07089728 -0.5789205 0.667694 -0.31812403
0.40603524 0.41280165 0.09103508 -0.15022072 -0.49005207 0.09982098 0.027004804 -0.38509193
0.048865132 0.19126822 -0.3941301 0.31067657 -0.12811169 -0.30828944 -0.37003097 -0.1554586
-0.021236943 0.5104694 0.1819386 -0.18830615 0.08933643 0.020248828 -0.17299788 0.112092264
0.53484905 -0.20143878 -0.041891184 0.10071625 0.13936569 0.1358154 -0.2448551 -0.30517587
-0.0504279 -0.22951539 0.14551906 0.078517675 -0.54910415 0.010064105 -0.43427446 -0.021485656
0.07663593 -0.14657128 0.004262819 0.28620836 0.1390261 -0.19028299 -0.17242116 -0.5021303
-0.17803448 -0.03479358 -0.05784483 -0.22611475 0.034109436 0.2725396 -0.4330897 -0.008285609
-0.23297223 -0.17781313 0.08577879 0.041474745 0.23983426 -0.16797668 0.06441231 0.2669548
-0.19323954 -0.07713498 0.42097506 -0.32851258 0.21084017 -0.10179554 -0.26039994 -0.18463671
0.10607725 -0.30671158 0.85168487 -0.20840211 -0.30035403 -0.46285564 -0.1232651 -0.19629127
0.12014325 -0.37601668 0.6563878 0.24968097 -0.5573434 0.37062028 0.05758519 -0.06322498
0.21443762 -0.33362454 0.18519074 -0.1142259 -0.033866256 0.26918682 -0.0525779 0.22241922
0.8290642 0.020146508 0.7973611 0.37591812 -0.8503857 0.50652796 0.34530875 -0.6036931
0.23446903 -0.045854058 0.29234016 0.18890326 0.18876295 -0.07515167 -0.24366379 -0.02890045
-0.034710515 -0.04367929 -0.30181357 -0.4145032 -0.2128653 0.23110646 -0.07112072 0.8709553
-0.24018455 -0.025584366 -0.223159 -0.5347459 0.38621375 0.28231117 0.29803747 0.4782338
0.5379865 -0.62439823 -0.2695203 0.2479311 0.010957539 -0.75049603 0.36322665 0.0557859
0.111595035 -0.39306802 -0.22912408 -0.1138892 -0.01884743 -0.032876763 0.021464134 -0.07363866
-0.12066702 0.4742966 0.1175039 0.22056186 0.13460672 -0.19899388 -0.14260589 0.19941281
-0.2048292 0.4785484 0.11666687 -0.1987598 0.4474236 0.19568051 0.114012465 0.14616254
-0.05105705 0.47732058 -0.060595352 -0.19415529 -0.057603117 0.23482421 0.3760729 -0.28647
0.28530836 0.40997434 -0.5564228 0.115139976 -0.42947096 -0.440907 -0.3442531 -0.5202039
-0.52104586 0.10158989 -0.22849372 0.6556778 -0.31862774 -0.66971904 0.17231418 -0.36571267
0.10029966 0.42794266 0.30993363 0.082870536 0.17216888 -0.53168684 0.13150708 0.23407818
0.4388721 -0.039848465 -0.4734121 -0.2694762 -0.25310397 0.59595066 -0.25944588 -0.15889432
-0.0076882495 -0.28914008 -0.12966646 0.27933344 0.8826321 -0.0006396958 0.060859576 0.03342673
0.48721334 0.08469496 -0.044584382 0.33414224 -0.100837216 -0.050135724 0.3958261 -0.5626814
-1.0034963 -0.06460605 -1.1293085 0.010369207 0.15257755 -1.1664004 -0.25771025 1.1048647
0.19009762 0.55424106 0.6387395 -0.16469066 0.6673925 0.51684 -0.5373687 0.7166127
-0.033786528 -0.9250419 -0.08443442 -0.16845514 -0.40305072 0.3169324 -0.50744706 0.1969472

2.bias f4 [30]
00000000: 9b08 2fbe bd9a abbc 3931 2abe 4a24 1f3d
00000010: 20ef 833e 10d1 c43c 0627 443e 914e e23e
00000020: 472b 633e 1977 9a3d 77f3 6b3e d8fb 5d3e
00000030: c641 833e 6044 333e 7070 093e 700f b53e
00000040: 28ec c0be 2938 d3bc 8a4b edbd e1d6 87be
00000050: 5ec9 a63d 8498 b7be 6a7b 04be cb7f 483e
00000060: 0919 86be f950 c6be bc14 133d 3047 7c3e
00000070: cffc fbbd 526d 6a3c
-0.17093126 -0.020947808 -0.1662034 0.038852967 0.25768375 0.02402547 0.19155511 0.44200566
0.22184478 0.07542247 0.23042093 0.21678102 0.2563612 0.17506552 0.13421798 0.3536334
-0.37680173 -0.025783615 -0.115866736 -0.26531127 0.081438765 -0.35858548 -0.12937704 0.19579999
-0.26190975 -0.38733652 0.035908446 0.24636531 -0.12304079 0.014308291
