FullOrder/ReconstructORI/The Oldest Model/Checkpoint_SEED1024_LR0.001_HD30_HL2_MO6_Epoch4000_WithPhysics0_WithBatch1.pth (torch, 101418 bytes, 80 tensors)

0.weight f4 [30, 2]
0.86187357 0.8061854 -0.042517513 0.9990592 0.3849279 0.8338079 -0.6579265 0.4231476
-0.25359255 -0.9385341 0.44034916 -1.0587696 0.8120655 -0.4552398 -0.8161489 -0.4379235
0.13458318 0.7450984 0.36332732 0.8455926 1.4986249 -0.7867124 0.2048391 0.78130966
0.46790758 -0.9929127 -0.7348746 1.071865 -0.34102923 1.0739894 -0.63956124 0.024066437
0.07555028 0.85857624 0.6585867 -0.85598093 -0.38906935 -0.75271165 0.23949912 -0.7290518
1.320569 -0.07512625 0.120022684 -1.1391585 -0.26962304 -1.1506689 0.5409145 0.38292077
-0.7414594 -0.30397657 0.9375081 -0.25051767 0.6246002 1.1221884 0.74717623 0.19400248
0.20635164 0.8535339 1.0978737 -0.6563184
00000000: bfa3 5c3f 2b62 4e3f d826 2ebd 58c2 7f3f
00000010: 4515 c53e 6f74 553f df6d 28bf cda6 d83e
00000020: e2d6 81be c543 70bf 7275 e13e c385 87bf
00000030: 86e3 4f3f 3115 e9be 22ef 50bf 8237 e0be
00000040: 2cd0 093e c5be 3e3f 0a06 ba3e c278 583f
00000050: f1d2 bf3f fc65 49bf 57c1 513e e903 483f
00000060: 9591 ef3e 872f 7ebf be20 3cbf df32 893f
00000070: 629b aebe 7c78 893f 49ba 23bf fa26 c53c
00000080: 1bba 9a3d a7cb 5b3f 2399 283f 9121 5bbf
00000090: 1934 c7be b6b1 40bf 423f 753e 24a3 3abf
000000a0: 6808 a93f cbdb 99bd 74ce f53d f2cf 91bf
000000b0: 080c 8abe 1e49 93bf 5f79 0a3f 310e c43e
000000c0: 49d0 3dbf d1a2 9bbe 8800 703f da43 80be
000000d0: cce5 1f3f dfa3 8f3f f146 3f3f 96a8 463e
000000e0: d84d 533e 3381 5a3f 2087 8c3f 7c04 28bf

0.bias f4 [30]
-0.4032068 -0.8396356 1.0738261 -0.9041981 -0.3620759 0.57430553 -1.6648997 1.1132078
-0.78161883 -0.103911124 -0.27730036 0.055885542 1.0830595 -0.7921842 0.5646609 -0.6413061
-0.6284829 0.8645163 0.65005684 -0.86535865 0.7884395 -0.4364045 1.0206945 -0.9741481
0.79922694 0.6857319 -0.42655933 0.43714488 0.9648789 1.0407033
00000000: 1f71 cebe 5cf2 56bf 2273 893f 8779 67bf
00000010: 0362 b9be b005 133f 6f1b d5bf 987d 8e3f
00000020: 2c18 48bf 5bcf d4bd 50fa 8dbe 3de8 643d
00000030: b2a1 8a3f 95cc 4abf 9e8d 103f a32c 24bf
00000040: 41e4 20bf f150 5d3f 206a 263f 2588 5dbf
00000050: 2cd7 493f 6970 dfbe 1ea6 823f c561 79bf
00000060: 239a 4c3f 208c 2f3f fc65 dabe 74d1 df3e
00000070: 4e02 773f c435 853f

2.weight f4 [30, 30]
0.006210704 0.5043039 0.53181046 0.8233055 -0.34530327 -0.4888327 -0.4822082 0.33760786
0.44365042 0.51483494 -0.45352098 0.4893771 -0.18933919 0.32015553 0.48252818 0.15878677
0.37984648 -0.31737664 -0.4589605 -0.5085716 -0.09620149 -0.24322617 -0.374299 -0.3189115
0.7098605 -0.59367967 0.17292273 0.2354282 0.49606806 -0.50595576 -0.24381916 -0.5592413
0.11546985 -0.5241775 0.10209948 0.0715272 0.5332858 -0.07766631 -0.27640396 -0.15586704
-0.14207928 -0.46618822 0.00265094 0.12345387 -0.103605546 -0.14063929 -0.62509316 -0.24636064
0.73420763 0.2868576 -0.2477304 -0.08575523 0.8018191 -0.40220127 0.24657005 -0.11357115
-0.15613097 0.09115723 0.20131826 -0.020771645 -0.17860612 0.39228317 0.19817504 0.20418705
0.1042085 0.17476459 -0.011025644 -0.034528136 0.58135957 0.252261 0.26411402 -0.03596215
-0.4787083 0.15305133 -0.19921547 0.046260193 0.04103291 -0.32735106 -0.28198615 0.23467402
-0.13281256 0.09413967 -0.39567968 0.097649515 -0.18376677 -0.57419276 0.14191675 0.052954026
0.027555827 -0.24923983 0.12937865 0.42673174 -0.09333789 0.35002455 -0.01002463 -0.13517384
0.35751098 -0.14068149 0.61788464 -0.10382625 0.18214518 -0.15050057 -0.05797766 -0.44303796
-0.09353069 0.014730339 0.36073333 0.31323013 -0.2657368 0.31418493 -0.051559955 0.021526763
-0.37982795 0.43509454 -0.24063872 0.2420114 0.08830655 -0.20571417 -0.22021244 0.25902897
0.39503756 -0.21686739 0.017221956 -0.0012942671 -0.48252627 0.18865739 0.27997324 -0.43936437
0.1571583 0.34863487 0.33990797 0.3657933 0.31218332 -0.47206506 0.25652575 -0.08437644
-0.152465 0.09682654 -0.21776263 -0.062737495 -0.54533505 -0.22035937 0.019780328 0.35383862
-0.55377924 -0.14232682 0.67367953 0.2308905 -0.12150058 -0.46740094 -0.34128094 0.1736824
-0.099489786 1.2292485 -0.45923454 -0.29763615 0.3739456 0.20569348 0.4130253 0.45749092
0.21713752 0.11235668 -0.40479547 0.08988069 0.05584335 0.4503161 0.17861024 -0.4960011
-0.066153385 0.111992046 -0.9075273 -0.12207137 0.052427128 0.5467663 0.07801856 -0.49495935
0.21625488 -0.6614456 -0.14977571 -0.72205037 -0.12542093 0.17269991 0.3007243 0.6818432
-0.07993365 -0.4877665 -0.2019571 0.59673417 0.45325395 0.16557924 -0.49441585 0.29272017
-0.0750252 0.20444223 0.36351877 0.013411043 0.4192967 -0.23895401 -0.21297567 -0.3784763
0.14201063 -0.40958375 -0.068860285 -0.119542606 0.49246466 0.018051203 0.1510066 0.26773915
0.25665164 -0.03293923 0.46723613 0.25490367 0.11482298 -0.050267868 -0.29419318 0.013512747
0.091340065 -0.28859016 0.40541312 0.4579638 0.09245824 0.26802683 -0.11274011 -0.18227483
0.057318892 -0.18501225 0.22533041 -0.26121274 -0.80444866 -0.053702716 -0.22624461 -0.18001816
-0.2417826 0.09948217 -0.41477513 0.020312255 0.42069155 0.42055702 0.098835774 0.068426386
0.37556395 -0.009008841 -0.29029542 -0.4467108 0.23561688 -0.5059321 -0.16662684 0.04786777
0.40787604 -0.111714944 0.08843925 0.095131174 0.04560679 0.24137156 0.13923757 -0.41119012
00000000: 2983 cb3b 0f1a 013f bb24 083f 26c4 523f
00000010: 97cb b0be 4848 fabe fee3 f6be f0da ac3e
00000020: 2626 e33e 39cc 033f e733 e8be a38f fa3e
00000030: 22e2 41be 6deb a33e ef0d f73e 0099 223e
00000040: 3d7b c23e 317f a2be dffc eabe c031 02bf
00000050: 4905 c5bd 4810 79be 1ea4 bfbe 5e48 a3be
00000060: 6bb9 353f 64fb 17bf a812 313e 1714 713e
00000070: a2fc fd3e 5186 01bf bbab 79be 702a 0fbf
00000080: 757b ec3d 7f30 06bf 8819 d13d da7c 923d
00000090: 6b85 083f 840f 9fbd d284 8dbe 9c9b 1fbe
000000a0: 3b7d 11be 39b0 eebe 65bb 2d3b 62d5 fc3d
000000b0: 252f d4bd bf03 10be 1b06 20bf f745 7cbe
000000c0: 08f5 3b3f 00df 923e 0aad 7dbe 70a0 afbd
000000d0: 0444 4d3f 53ed cdbe dc7c 7c3e fe97 e8bd
000000e0: cce0 1fbe a4b0 ba3d 6026 4e3e 4c29 aabc
000000f0: 86e4 36be 57d9 c83e 66ee 4a3e 6916 513e
00000100: 446b d53d 7df5 323e e7a4 34bc 606d 0dbd
00000110: fbd3 143f 5b28 813e f439 873e 0c4d 13bd
00000120: 4119 f5be 7db9 1c3e 24ff 4bbe 547b 3d3d
00000130: 2012 283d 8f9a a7be 7d60 90be 634e 703e
00000140: 0400 08be 4dcc c03d 8796 cabe 78fc c73d
00000150: 5b2d 3cbe 4cfe 12bf a052 113e 52e6 583d
00000160: c2bc e13c ba38 7fbe d67b 043e 957c da3e
00000170: f027 bfbd 6b36 b33e 593e 24bc 036b 0abe
00000180: ae0b b73e cf0e 10be b02d 1e3f dba2 d4bd
00000190: 4484 3a3e d21c 1abe fc79 6dbd dfd5 e2be
000001a0: 058d bfbd 8557 713c 0ab2 b83e b35f a03e
000001b0: a70e 88be d9dc a03e 8830 53bd e558 b03c
000001c0: cf78 c2be b6c4 de3e ff69 76be d6d1 773e
000001d0: 11da b43d bca6 52be 5f7f 61be 729f 843e
000001e0: 5d42 ca3e 7c12 5ebe 0f15 8d3c 66a4 a9ba
000001f0: af0d f7be 672f 413e a758 8f3e 5ef4 e0be
00000200: 1bee 203e 4580 b23e 6b08 ae3e 4249 bb3e
00000210: 7ed6 9f3e 83b2 f1be 5857 833e 8ecd acbd
00000220: c91f 1cbe fe4c c63d 2bfd 5ebe 847c 80bd
00000230: 149b 0bbf e3a5 61be 5b0a a23c 562a b53e
00000240: 7ac4 0dbf 1fbe 11be 4376 2c3f 8f6e 6c3e
00000250: 4cd5 f8bd 2d4f efbe 60bc aebe cdd9 313e
00000260: 4dc1 cbbd 0458 9d3f ca20 ebbe c463 98be
00000270: cc75 bf3e 50a1 523e 0d78 d33e 403c ea3e
00000280: 4c59 5e3e 421b e63d 5a41 cfbe 5e13 b83d
00000290: ffbb 643d d58f e63e 9ae5 363e dbf3 fdbe
000002a0: 6d7b 87bd 165c e53d b653 68bf 8e00 fabd
000002b0: d4bd 563d e0f8 0b3f 32c8 9f3d 506b fdbe
000002c0: eb71 5d3e 8054 29bf ce5e 19be 4bd8 38bf
000002d0: 586e 00be 3fd8 303e 89f8 993e 478d 2e3f
000002e0: 41b4 a3bd 88bc f9be d8cd 4ebe 92c3 183f
000002f0: e710 e83e 9b8d 293e 1324 fdbe 6bdf 953e
00000300: d0a6 99bd 4e59 513e 221f ba3e feb9 5b3c
00000310: 0fae d63e 5cb0 74be 4b16 5abe a5c7 c1be
00000320: 3c6b 113e f6b4 d1be 9f06 8dbd c1d2 f4bd
00000330: 5424 fc3e 1ee0 933c 79a1 1a3e 1b15 893e
00000340: d867 833e 49eb 06bd 9339 ef3e bc82 823e
00000350: 4f28 eb3d aee5 4dbd 7da0 96be 9264 5d3c
00000360: 8010 bb3d 17c2 93be 4f92 cf3e 3b7a ea3e
00000370: bf5a bd3d d03a 893e 49e4 e6bd 41a6 3abe
00000380: 37c7 6a3d da73 3dbe 04bd 663e adbd 85be
00000390: 59f0 4dbf 61f7 5bbd abac 67be ae56 38be
000003a0: dc95 77be 4fbd cb3d 685d d4be e365 a63c
000003b0: e264 d73e 4053 d73e 696a ca3d 2223 8c3d
000003c0: eb49 c03e d199 13bc 9aa1 94be 47b7 e4be
000003d0: 8d45 713e c484 01bf 3aa0 2abe ff10 443d
000003e0: 21d5 d03e ceca e4bd a31f b53d 22d4 c23d
000003f0: 2fce 3a3d 1b2a 773e 4b94 0e3e 8387 d2be

2.bias f4 [30]
-0.09196648 0.089057334 0.07594711 -0.4622712 -0.32151076 -0.45571336 0.042266812 0.10422032
-0.11335748 -0.14930817 -0.11846061 -0.36053246 -0.19608842 -0.04387941 0.020786703 -0.05975789
-0.54928744 0.091227874 -0.16960546 0.5503973 -0.008765896 0.3372139 -0.48424086 -0.27525002
-0.05638253 -0.035804745 -0.14518042 -0.10695154 -0.022496562 0.25057098
00000000: ec58 bcbd b163 b63d 298a 9b3d d0ae ecbe
00000010: 0f9d a4be 4353 e9be f71f 2d3d 7771 d53d
00000020: f727 e8bd 3ee4 18be 7a9b f2bd b697 b8be
00000030: 67cb 48be e5ba 33bd e048 aa3c b0c4 74bd
00000040: 1a9e 0cbf aed5 ba3d 0ead 2dbe d6e6 0c3f
00000050: d59e 0fbc 4da7 ac3e 6bee f7be 92ed 8cbe
00000060: 5ef1 66bd ffa7 12bd 2daa 14be 6909 dbbd
00000070: b64a b8bc d74a 803e

4.weight f4 [6, 30]
-0.10854613 0.12745732 -0.28669366 -0.022302158 0.23406014 0.110994704 -0.12582119 -0.04284598
0.0921897 0.21171345 -0.07104348 -0.35490713 -0.054327082 0.052352875 0.122648574 -0.014896188
0.10955463 0.17365497 0.05853893 -0.49462065 -0.115621194 -0.17266883 0.044562895 0.12244407
-0.34442768 -0.33271596 -0.074404106 -0.026363695 -0.21108478 0.039023936 -0.05545056 -0.028871348
0.3023836 -0.37361208 0.038844418 -0.016144557 -0.11772386 0.25938 -0.50996137 -0.2689566
-0.11549056 -0.07094694 -0.2626421 0.1650227 -0.46285683 0.098492 0.09315206 0.009521895
0.18937401 0.36391252 0.33249396 0.24746548 -0.018385885 -0.06081639 0.28610554 0.25611055
0.17000473 -0.22603263 -0.04905508 0.120212756 -0.2922771 0.12472066 0.37331203 0.042534012
0.42255148 0.31708688 -0.39308476 0.55514175 -0.32918817 -0.40112045 0.37652457 -0.20031174
0.069168225 -0.46890986 -0.5202793 -0.19980559 -0.11757557 -0.5021288 -0.51098686 -0.18668082
-0.5502377 0.49639887 -0.24409041 -0.43176854 5.9352205e-05 0.64405 0.15356176 -0.23305848
-0.45337635 0.32465628 -0.81637335 0.6707961 0.16444282 0.5714447 -0.21141034 -0.48248768
-0.8070532 -0.076327436 0.039766412 0.31060204 -0.25195447 0.048466343 -0.29373923 -0.65326
-0.014978736 0.8096567 -0.69513047 -0.068778366 -0.396049 -0.10140328 -0.19123083 -0.49644095
-0.14777364 -0.35966566 0.61461073 -0.09007321 -0.69646657 0.05006565 -0.14622094 -0.41021952
-0.2669893 0.12903056 0.6801111 -0.36860117 -0.15610093 -0.43026337 0.1963843 0.41009113
-0.50362206 -0.2953317 -0.047874145 0.4079696 -0.7252269 -0.041141123 -0.27710316 -0.88997185
0.0063290847 0.5229435 0.5070679 -0.17867385 0.0046704123 -0.8592112 -0.9281579 -0.6487466
-0.5575621 0.50653124 -0.27521637 -0.29959643 -0.6745582 -0.80562085 0.2575624 -0.35785818
0.1868084 0.38884276 -0.8569012 -1.0114002 -0.57134676 -0.3738623 -0.6120549 -0.5104492
0.56671983 0.66535354 0.81187344 -0.36348733 -0.38172078 0.16198467 0.8549299 0.2923556
-0.14532688 -0.20162036 -0.41185445 0.047633886 1.003332 -0.42133424 -0.72584534 0.5159372
-0.59115267 -0.6233477 -0.5878214 0.5341979
00000000: 6f4d debd 2c84 023e 83c9 92be 04b3 b6bc
00000010: 76ad 6f3e 3151 e33d 45d7 00be 447f 2fbd
00000020: f4cd bc3d 69cb 583e 3e7f 91bd 63b6 b5be
00000030: 1386 5ebd f86f 563d 2d2f fb3d 240f 74bc
00000040: 2e5e e03d 9cd2 313e 84c6 6f3d eb3e fdbe
00000050: ceca ecbd 19d0 30be 9587 363d f5c3 fa3d
00000060: d358 b0be bf59 aabe 2e61 98bd adf8 d7bc
00000070: 9c26 58be 90d7 1f3d 2020 63bd 9b83 ecbc
00000080: 06d2 9a3e 154a bfbe 531b 1f3d 9741 84bc
00000090: 3519 f1bd 75cd 843e d48c 02bf aeb4 89be
000000a0: 5186 ecbd a14c 91bd 0679 86be b6fb 283e
000000b0: 92fb ecbe 2cb6 c93d 82c6 be3d b901 1c3c
000000c0: 43eb 413e be52 ba3e a63c aa3e 9767 7d3e
000000d0: ff9d 96bc 9b1a 79bd 6d7c 923e ec20 833e
000000e0: b815 2e3e 1975 67be fbed 48bd 1b32 f63d
000000f0: 58a5 95be 8c6d ff3d c122 bf3e 2538 2e3d
00000100: ab58 d83e 3659 a23e 6842 c9be c51d 0e3f
00000110: 5a8b a8be a95f cdbe d4c7 c03e 851e 4dbe
00000120: 12a8 8d3d f414 f0be 0631 05bf d699 4cbe
00000130: 76cb f0bd 838b 00bf 09d0 02bf 4229 3fbe
00000140: 61dc 0cbf fe27 fe3e d6f2 79be c410 ddbe
00000150: f2f0 7838 76e0 243f 4b3f 1d3e e2a6 6ebe
00000160: f220 e8be 5939 a63e d8fd 50bf 4bb9 2b3f
00000170: b363 283e 334a 123f f47b 58be a008 f7be
00000180: 0a9b 4ebf 8f51 9cbd 1be2 223d 3b07 9f3e
00000190: 2d00 81be a584 463d fd64 96be 0c3c 27bf
000001a0: 5f69 75bc a945 4f3f 12f4 31bf acdb 8cbd
000001b0: efc6 cabe 86ac cfbd 04d2 43be 822d febe
000001c0: f951 17be 1926 b8be 2157 1d3f 4e78 b8bd
000001d0: a24b 32bf a411 4d3d f1ba 15be 4b08 d2be
000001e0: d2b2 88be 9620 043e c31b 2e3f 4bb9 bcbe
000001f0: ecd8 1fbe 7b4b dcbe f718 493e 77f7 d13e
00000200: 60ed 00bf b735 97be ae17 44bd 64e1 d03e
00000210: 78a8 39bf 9883 28bd 77e0 8dbe 32d5 63bf
00000220: 3664 cf3b a0df 053f 34cf 013f 47f6 36be
00000230: 420a 993b 44f5 5bbf c29b 6dbf 4214 26bf
00000240: 64bc 0ebf 08ac 013f 29e9 8cbe b464 99be
00000250: d9af 2cbf 2b3d 4ebf 38df 833e 3039 b7be
00000260: b44a 3f3e 6616 c73e e15d 5bbf 9075 81bf
00000270: c843 12bf e16a bfbe a1af 1cbf ccac 02bf
00000280: 8d14 113f 9c54 2a3f f0d6 4f3f 031b babe
00000290: e870 c3be 4fdf 253e b0dc 5a3f a2af 953e
000002a0: 92d0 14be 9175 4ebe 96de d2be c01b 433d
000002b0: 2f6d 803f 1fb9 d7be 00d1 39bf 7614 043f
000002c0: c855 17bf b793 1fbf 777b 16bf 32c1 083f

4.bias f4 [6]
-0.15048225 0.24572073 -0.20520769 -0.006626924 -0.18504828 -0.29581854
00000000: 0518 1abe 379e 7b3e f721 52be ab26 d9bb
00000010: 4c7d 3dbe 8775 97be

0.weight f4 [30, 2]
0.648373 -0.89078695 0.75636137 -0.679441 -1.3713773 0.5052107 -0.3105161 0.8363914
0.16646558 -0.8429566 0.28530395 0.38450915 -0.1853522 -0.57311803 1.1993603 -1.1979272
0.16173498 -0.93016076 -0.1614802 -0.73891336 -0.92450863 0.8000372 -0.99795425 0.53423226
-0.17725167 1.0308385 -1.641882 1.1060015 1.4921274 0.4032 0.007996517 -0.64614266
-0.96975726 -0.74219346 0.070336506 -0.969389 -1.0767521 0.3736345 -1.1641866 0.28224614
-0.20393646 0.7297345 -1.0562043 -0.9853503 0.68762565 0.9797389 -0.17600416 1.17428
0.16957381 -1.1478685 -0.008477592 -0.8341094 1.0782323 0.16334717 1.0666977 0.19672278
-0.10158123 1.1750678 -0.55201846 -1.0325426
00000000: c6fb 253f 9d0a 64bf e6a0 413f d8ef 2dbf
00000010: 4b89 afbf 7d55 013f f7fb 9ebe bf1d 563f
00000020: f475 2a3e 01cc 57bf 5c13 923e 62de c43e
00000030: f8cc 3dbe ddb7 12bf a384 993f ae55 99bf
00000040: db9d 253e 041f 6ebf 115b 25be 6d29 3dbf
00000050: 99ac 6cbf 3dcf 4c3f ee79 7fbf 72c3 083f
00000060: 7681 35be 84f2 833f 3029 d2bf 7591 8d3f
00000070: 08fe be3f 3b70 ce3e d303 033c 9b69 25bf
00000080: 0342 78bf 6400 3ebf 960c 903d e129 78bf
00000090: 03d3 89bf 054d bf3e 1104 95bf 9182 903e
000000a0: b8d4 50be e1cf 3a3f b431 87bf eb3f 7cbf
000000b0: 3c08 303f 2bd0 7a3f 6f3a 34be cf4e 963f
000000c0: c2a4 2d3e 5bed 92bf 99e5 0abc 3288 55bf
000000d0: 8403 8a3f 7b44 273e 8d89 883f b271 493e
000000e0: d209 d0bd 9f68 963f 1551 0dbf 5b2a 84bf

0.bias f4 [30]
-1.0542593 -1.1048362 0.67441493 0.79214066 0.67337805 0.6318245 0.0699665 -0.27899152
-0.674579 -0.4746577 -0.8684944 -0.6318637 -0.86441135 0.14178017 0.17453742 0.3330639
0.43130758 0.90305716 -1.0223428 -0.9728927 -0.40734813 0.7858856 0.44992626 -1.1464168
1.1289779 -0.85748667 -1.0367287 0.3804043 0.5520931 -0.32679838
00000000: f8f1 86bf 466b 8dbf 75a6 2c3f bbc9 4a3f
00000010: 8162 2c3f 40bf 213f 994a 8f3d fad7 8ebe
00000020: 36b1 2cbf 5606 f3be a655 5ebf d2c1 21bf
00000030: 104a 5dbf d22e 113e f0b9 323e 5a87 aa3e
00000040: 59d4 dc3e c12e 673f 21dc 82bf 7f0f 79bf
00000050: ef8f d0be cc2f 493f bc5c e63e c9bd 92bf
00000060: 5982 903f 3f84 5bbf 87b3 84bf 5ac4 c23e
00000070: f955 0d3f 1e52 a7be

2.weight f4 [30, 30]
0.1964073 0.67754376 -0.3684396 -0.13328029 -0.05100442 -0.04269285 0.02359523 -0.5932267
-0.13208823 -0.081149615 -0.26790845 -0.6607383 -0.09489464 0.8243306 -0.037720475 0.12247223
0.00636173 0.23523587 0.058472525 -0.1850966 -0.20119199 -0.09950047 -0.007039963 -0.06344602
0.09718974 0.0722613 0.56190753 0.24939115 0.13122298 -0.1466999 0.569148 0.31404105
-0.6219818 -0.74694246 0.12691376 -0.40512455 0.33945552 0.2810973 0.54912204 0.39293838
-0.07913043 -0.13706668 0.122757085 -0.26919913 0.27654624 0.26493168 0.56436235 -0.093111776
-0.20929784 -0.0007307448 -0.35667768 0.49498466 -0.24774578 -0.023461109 -0.25111523 0.55840445
-0.23501955 0.2308889 -0.43993983 0.23921059 -0.015866626 -0.11044149 0.21732752 -0.22183703
-0.52128005 -0.19792908 -0.25612345 -0.326611 -0.09120664 0.03905977 0.30557916 0.04270749
0.34039363 0.23262718 0.032141034 -0.28088722 -0.10886219 -0.41203433 -0.23705916 -0.11646409
0.47435018 -0.21740589 0.1046248 0.38164157 -0.5055978 0.02466279 0.31641883 0.18274252
0.0017367124 0.12687069 -0.041659895 -0.18704852 0.022389008 0.2271491 0.4638918 0.053479545
0.31845567 -0.29782856 0.11575507 0.0005650166 -0.51079834 -0.43884194 -0.31658033 -0.105597004
0.68084854 0.12891872 -0.91233754 0.26693705 -0.7809477 -0.9567073 -0.52385277 -0.454099
-0.1099605 -0.4395546 0.16716892 -0.014632001 -0.24785918 0.7450259 0.09877068 0.3742161
-0.039768893 0.0546149 0.16387491 0.0408697 -0.03272192 -0.43056354 0.2628749 -0.32837537
0.086168125 0.36565882 0.19590782 0.27640188 -0.10709322 0.2038363 0.19692478 0.05590522
-0.29474586 0.038040873 0.26245657 0.1967723 0.073866956 -0.12911138 -0.21719149 -0.06047315
-0.016534496 0.02135234 0.09307979 0.03189827 -0.004201251 0.13281964 -0.14538856 0.10331722
-0.19046019 0.20887917 -0.23392178 0.007457313 -0.23382126 -0.14485334 0.038712434 -0.18966398
0.17808934 0.14419578 0.2362795 0.10807685 0.29726863 0.041608553 -0.35527328 -0.29832953
-0.0028817917 0.13657168 0.110155545 -0.35135576 -0.02146031 -0.006363039 -0.015292311 0.11928541
0.35694358 -0.057807475 0.10577259 -0.029104533 -0.31253782 -0.498603 0.549337 0.09698952
-0.7184808 0.17066066 -0.4593947 -0.5358533 -0.06003188 -0.2908368 0.5618186 0.7129734
0.5903036 0.38644484 0.23909095 -0.46163085 -0.3086767 -0.6226599 -0.1334506 -0.1925997
0.7819183 -0.09203011 -0.07109255 0.5792269 -0.63718987 0.14322038 0.07467346 0.03446012
-0.10170119 -0.10612657 0.60277134 0.25360206 -0.42668664 -0.35501093 -0.08230953 0.16189481
0.3038053 -0.10780546 0.35791358 0.08462929 -0.00049095356 0.09748161 0.16069715 -0.10924191
-0.6952068 0.09784746 0.9323574 0.26752615 0.24744761 0.4669609 -0.11171681 0.604626
0.0072540045 0.18252373 0.055872172 0.10813184 0.22221424 -0.6080521 -0.028267214 -0.035877828
-0.3673457 -0.5630409 0.3102228 -0.028887399 0.4222806 -0.33869892 0.11908092 -0.45017147
-0.3053906 0.012122525 -0.063517965 0.16723278 -0.26679304 0.5227411 0.30035335 0.11126964
00000000: ff1e 493e 8273 2d3f 1ea4 bcbe a17a 08be
00000010: 03ea 50bd b3de 2ebd c94a c13c b4dd 17bf
00000020: 2342 07be c531 a6bd 4c2b 89be 2526 29bf
00000030: 1f58 c2bd 5507 533f c980 1abd b8d2 fa3d
00000040: 0f76 d03b ace1 703e e380 6f3d f789 3dbe
00000050: 4605 4ebe e7c6 cbbd 7daf e6bb fdef 81bd
00000060: 6a0b c73d bcfd 933d 2cd9 0f3f 6560 7f3e
00000070: 515f 063e 8038 16be afb3 113f fdc9 a03e
00000080: 333a 1fbf 9f37 3fbf aef5 013e 7c6c cfbe
00000090: 1dcd ad3e fceb 8f3e 4393 0c3f 382f c93e
000000a0: 230f a2bd 355b 0cbe 1168 fb3d 78d4 89be
000000b0: 7897 8d3e 20a5 873e 0d7a 103f 63b1 bebd
000000c0: 2c52 56be 748f 3fba 759e b6be a16e fd3e
000000d0: 12b1 7dbe 8331 c0bc 2d92 80be 98f3 0e3f
000000e0: f7a8 70be 246e 6c3e cb3f e1be 9ff3 743e
000000f0: bafa 81bc 262f e2bd 1b8b 5e3e 3f29 63be
00000100: 9c72 05bf ecad 4abe 9d22 83be 8f39 a7be
00000110: 8cca babd 23fd 1f3d df74 9c3e 0dee 2e3d
00000120: 1348 ae3e d235 6e3e 51a6 033d 73d0 8fbe
00000130: 24f3 debd 2af6 d2be a3bf 72be ba84 eebd
00000140: 07de f23e a69f 5ebe 8745 d63d 8666 c33e
00000150: db6e 01bf 9f09 ca3c a601 a23e db20 3b3e
00000160: 66a2 e33a 64ea 013e 91a3 2abd a689 3fbe
00000170: 2769 b73c c699 683e 3a83 ed3e 5e0d 5b3d
00000180: 9f0c a33e fc7c 98be fe10 ed3d 9f1d 143a
00000190: aec3 02bf e4af e0be d116 a2be 3e43 d8bd
000001a0: 174c 2e3f 4503 043e f48e 69bf f9ab 883e
000001b0: 30ec 47bf c5ea 74bf 371b 06bf aa7f e8be
000001c0: f832 e1bd 4d0d e1be 542e 2b3e 0fbb 6fbc
000001d0: ccce 7dbe 04ba 3e3f 4848 ca3d 4199 bf3e
000001e0: b5e4 22bd e0b3 5f3d d3ce 273e fd66 273d
000001f0: 6c07 06bd d372 dcbe 8a97 863e d120 a8be
00000200: ea78 b03d a237 bb3e 0f9c 483e 8c84 8d3e
00000210: b153 dbbd 77ba 503e a6a6 493e dffc 643d
00000220: eee8 96be bfd0 1b3d b560 863e ae7e 493e
00000230: 8f47 973d c635 04be 7267 5ebe b2b2 77bd
00000240: 5a73 87bc 1aeb ae3c 9ea0 be3d c3a7 023d
00000250: a6aa 89bb df01 083e bde0 14be fb97 d33d
00000260: ff07 43be 6ce4 553e 3189 6fbe 7a5c f43b
00000270: d76e 6fbe 6f54 14be ee90 1e3d 4637 42be
00000280: 0d5d 363e 0fa8 133e 41f3 713e 6557 dd3d
00000290: 9833 983e bb6d 2a3d 61e6 b5be a6be 98be
000002a0: 71dc 3cbb 72d9 0b3e 3b99 e13d e7e4 b3be
000002b0: 88cd afbc 0a81 d0bb 9a8c 7abc e94b f43d
000002c0: 4fc1 b63e 88c7 6cbd 4d9f d83d a16c eebc
000002d0: f504 a0be e448 ffbe 5aa1 0c3f 71a2 c63d
000002e0: 5cee 37bf abc1 2e3e c835 ebbe af2d 09bf
000002f0: fde3 75bd 90e8 94be 58d3 0f3f 6d85 363f
00000300: 231e 173f 19dc c53e 42d4 743e e15a ecbe
00000310: df0a 9ebe a466 1fbf 46a7 08be db38 45be
00000320: cc2b 483f 487a bcbd f998 91bd 3748 143f
00000330: e01e 23bf 5da8 123e 66ee 983d 0e26 0d3d
00000340: b748 d0bd e358 d9bd 394f 1a3f 21d8 813e
00000350: ac76 dabe fec3 b5be e691 a8bd c1c7 253e
00000360: 5e8c 9b3e 1cc9 dcbd 7340 b73e 1f52 ad3d
00000370: 56b3 00ba 70a4 c73d cb8d 243e 39ba dfbd
00000380: 13f9 31bf 4064 c83d f9ae 6e3f 30f9 883e
00000390: e862 7d3e 8015 ef3e c8cb e4bd c5c8 1a3f
000003a0: 00b3 ed3b 80e7 3a3e 38da 643d 3a74 dd3d
000003b0: 218c 633e 4da9 1bbf a590 e7bc a1f4 12bd
000003c0: bc14 bcbe 7323 10bf 86d5 9e3e 44a5 ecbc
000003d0: 2a35 d83e f269 adbe b3e0 f33d e07c e6be
000003e0: 285c 9cbe 8e9d 463c b515 82bd 123f 2b3e
000003f0: 1999 88be 5cd2 053f eac7 993e 56e1 e33d

2.bias f4 [30]
-0.2424134 -0.27117044 -0.2142386 0.62902015 0.04205795 -0.19422996 -0.09611274 0.24370404
-0.42370278 -0.18773712 0.30808347 -0.24669999 0.12775806 -0.18073867 0.06856849 -0.049712323
-0.42775202 0.48004997 0.43704802 0.38257405 -0.2917149 -0.60892916 0.4290394 0.11356699
-0.31836843 -0.091229126 0.1714998 -0.43056667 -0.2816625 0.5286022
00000000: 383b 78be dad6 8abe 5d61 5bbe 7707 213f
00000010: f544 2c3d 38e4 46be c2d6 c4bd 8d8d 793e
00000020: 92ef d8be 293e 40be 1ebd 9d3e ec9e 7cbe
00000030: 02d3 023e 8f13 39be a36d 8c3d 269f 4bbd
00000040: 5002 dbbe 1cc9 f53e c2c4 df3e bfe0 c33e
00000050: a85b 95be c8e2 1bbf 0dab db3e cf95 e83d
00000060: 3001 a3be 56d6 babd a59d 2f3e 3c73 dcbe
00000070: 1136 90be 7952 073f

4.weight f4 [6, 30]
-0.03438139 -0.24730323 0.25935254 0.083730735 0.016931225 0.24662894 0.06405276 -0.029719522
0.23482278 -0.18487097 -0.059153143 -0.024003161 -0.19152941 0.0616227 0.055682518 -0.06792326
0.04192312 -0.041426953 -0.06367435 0.19810906 -0.04014461 0.22638822 -0.015766498 -0.10506071
-0.07077962 0.01775679 0.041987475 0.031398166 -0.11518561 0.068438396 -0.29304346 -0.1605063
0.05590371 -0.06431177 0.0866436 -0.13641936 0.22057645 0.3318733 -0.27442908 0.24773996
0.33385548 0.4852359 0.039068073 0.36916038 0.1463335 -0.055395328 0.07327744 -0.033015355
0.1652846 0.53988266 -0.22300343 -0.32265592 0.071847126 0.23896092 -0.005693776 -0.09300085
-0.28520235 0.19592094 -0.26168728 0.2568407 -0.44292787 0.87414205 0.13713007 -0.4451725
-0.12553911 -0.31783953 0.57632303 -0.4362451 0.45870158 -0.50532776 -0.045106385 -0.6533272
0.14186895 0.5457563 -0.39229915 0.55481535 0.27540624 0.0666941 0.12087321 -0.013017241
0.17311789 0.4439224 0.11868076 0.010563021 -0.43188486 -0.017267458 -0.5760761 -0.2977362
0.0756046 -0.08760982 -0.103038296 -0.014408399 0.2811763 0.46315983 0.32217467 -0.08554162
0.5400162 -0.13568534 0.0694503 0.36367226 -0.82366556 0.343505 0.13232571 0.24977586
-0.2955072 -0.013832282 -0.27263725 0.48523414 0.30844837 0.18435422 0.19052503 0.37144002
0.3618293 -0.37477356 0.24148177 -0.09593549 0.057391267 -0.40368748 -0.19573408 -0.6854491
0.9998555 -0.7204281 0.06911055 -0.59838957 0.13619547 -0.48302507 0.31092393 -0.68282896
0.378518 -0.18775554 -0.20767094 -0.3638112 0.11778688 0.7524403 0.26961994 0.9492306
-0.45088843 -0.71573097 0.5698086 -0.07483433 0.40612268 0.40745133 0.415173 1.2060258
0.56556433 0.6384437 0.8359843 0.29286453 0.62950736 -0.6221672 0.20799865 0.8050994
-0.3161877 -0.8289307 0.32502615 0.6032954 -0.65412 -0.47073314 0.8001653 0.26847857
0.7389775 0.43339655 0.4001195 -0.3470751 -0.6974782 -0.55548316 -0.73797 -0.7720951
0.75411975 -0.18411794 0.51412463 0.5597279 0.9034358 0.06045669 -0.5880324 -0.8103664
0.00030330094 0.8246879 0.5207625 -0.11594765
00000000: 80d3 0cbd 0f3d 7dbe dbc9 843e 057b ab3d
00000010: 5ab3 8a3c 4c8c 7c3e 182e 833d 5b76 f3bc
00000020: 6275 703e d14e 3dbe 914a 72bd 47a2 c4bc
00000030: 4920 44be 1668 7c3d 5a13 643d 5a1b 8bbd
00000040: 94b7 2b3d 4faf 29bd b367 82bd 1add 4a3e
00000050: ad6e 24bd 50d2 673e be28 81bc 122a d7bd
00000060: e8f4 90bd b076 913c 0ffb 2b3d 5d9b 003d
00000070: 6fe6 ebbd 6e29 8c3d cb09 96be c35b 24be
00000080: 4afb 643d e4b5 83bd 3372 b13d 84b1 0bbe
00000090: cbde 613e 4ceb a93e f881 8cbe 8baf 7d3e
000000a0: 1bef aa3e d770 f83e d805 203d 9702 bd3e
000000b0: 73d8 153e 36e6 62bd 7c12 963d 1c3b 07bd
000000c0: 5e40 293e c035 0a3f 035b 64be 2833 a5be
000000d0: 9624 933d 2cb2 743e db92 babb 3b77 bebd
000000e0: 0b06 92be 809f 483e e0fb 85be a080 833e
000000f0: 71c7 e2be c6c7 5f3f d36b 0c3e a6ed e3be
00000100: 538d 00be ddbb a2be e889 133f 855b dfbe
00000110: efda ea3e 295d 01bf 79c1 38bd 7440 27bf
00000120: 1846 113e afb6 0b3f 6fdb c8be 6108 0e3f
00000130: 0c02 8d3e eb96 883d 608c f73d 4446 55bc
00000140: d145 313e cc49 e33e e60e f33d 8510 2d3c
00000150: 0320 ddbe 7c74 8dbc b979 13bf e170 98be
00000160: 96d6 9a3d c76c b3bd be05 d3bd 3511 6cbc
00000170: 57f6 8f3e 4923 ed3e 14f4 a43e 7230 afbd
00000180: 803e 0a3f 19f1 0abe f53b 8e3d 4033 ba3e
00000190: bfdb 52bf e3df af3e 6480 073e 3ec5 7f3e
000001a0: b84c 97be cca0 62bc 1c97 8bbe 9c70 f83e
000001b0: f2ec 9d3e 5ac7 3c3e fe18 433e 632d be3e
000001c0: b141 b93e 52e2 bfbe ff46 773e d479 c4bd
000001d0: 1b13 6b3d 20b0 cebe 846e 48be 9879 2fbf
000001e0: 88f6 7f3f fa6d 38bf d589 8d3d 0f30 19bf
000001f0: d376 0b3e 104f f7be 6c31 9f3e e1cd 2ebf
00000200: 1ccd c13e fd42 40be b1a7 54be 7645 babe
00000210: 3f3a f13d ed9f 403f a00b 8a3e c700 733f
00000220: d9da e6be 253a 37bf fade 113f be42 99bd
00000230: 50ef cf3e 769d d03e 8e91 d43e 0e5f 9a3f
00000240: d3c8 103f 0c71 233f 1103 563f 57f2 953e
00000250: 6527 213f 5a46 1fbf 99fd 543e ff1a 4e3f
00000260: 5be3 a1be cd34 54bf d469 a63e 9171 1a3f
00000270: 6974 27bf ef03 f1be a2d7 4c3f 0676 893e
00000280: a12d 3d3f 27e6 dd3e 77dc cc3e d4b3 b1be
00000290: ee8d 32bf 2534 0ebf 9aeb 3cbf 06a8 45bf
000002a0: fe0d 413f 6a89 3cbe ac9d 033f 544a 0f3f
000002b0: 9247 673f 6fa1 773d 4b89 16bf 2c74 4fbf
000002c0: 5d04 9f39 bf1e 533f b150 053f f675 edbd

4.bias f4 [6]
0.0664619 0.36065143 -0.416735 -0.19513406 -0.18670432 -0.4384017
00000000: 2d1d 883d 4ea7 b83e 4a5e d5be 39d1 47be
00000010: 6b2f 3fbe 3076 e0be

0.weight f4 [30, 2]
-0.5521806 -0.4333135 -0.5086722 0.30152884 1.0654767 0.6705329 -0.19042683 -0.89270616
0.9657508 -0.65425295 0.9813969 -1.0354893 0.27900237 -1.0851482 -0.57906514 1.0644295
0.6539088 0.35718173 1.2487254 0.97406447 1.1554062 -0.9377854 -1.1616727 0.464133
0.07388523 0.18706428 -0.4523785 0.67807055 -0.03413207 -0.9381915 -0.73561186 0.5984421
-0.9107466 -0.1696302 1.3787391 0.908257 -0.09248362 -0.92102534 -0.5641334 0.95141584
-0.949226 -0.6602523 0.35921502 0.83591247 -1.084359 -0.9667543 1.3981197 -0.258894
0.34085432 -0.25716174 -0.088218205 1.0024849 -1.4388114 -0.93222237 0.22845581 -1.1176851
1.4015186 -0.5765389 1.0553509 -0.6391282
00000000: b55b 0dbf 44db ddbe 5738 02bf fd61 9a3e
00000010: 8a61 883f 0ba8 2b3f 40ff 42be 6488 64bf
00000020: 723b 773f 1f7d 27bf d43c 7b3f ea8a 84bf
00000030: 66d9 8e3e 23e6 8abf 9d3d 14bf 3a3f 883f
00000040: 9166 273f 86e0 b63e 3cd6 9f3f 4a5c 793f
00000050: 5ae4 933f b412 70bf b1b1 94bf d7a2 ed3e
00000060: 2451 973d c78d 3f3e 289e e7be 0896 2d3f
00000070: 12ce 0bbd 512d 70bf 0f51 3cbf 8033 193f
00000080: b026 69bf 8ab3 2dbe 867a b03f 8883 683f
00000090: 0d68 bdbd 51c8 6bbf 0c6b 10bf fd8f 733f
000000a0: 7a00 73bf 4b06 29bf 08eb b73e 5cfe 553f
000000b0: 47cc 8abf 367d 77bf 96f5 b23f c18d 84be
000000c0: 7584 ae3e b4aa 83be bfab b4bd 6d51 803f
000000d0: f92a b8bf 20a6 6ebf 52f0 693e 4e10 8fbf
000000e0: f664 b33f 0e98 13bf bd15 873f e89d 23bf

0.bias f4 [30]
0.7762661 -0.10070716 0.42468056 -0.6590534 0.5856917 -0.043209195 -0.936261 0.6588026
-0.5795016 -0.94929695 0.5894028 -0.7506688 1.0699676 -1.0284705 0.9570476 -0.39719704
0.9816276 0.12967308 0.6864694 0.5886834 0.57262796 -0.19183926 0.40424627 0.5167977
0.81113935 -0.947148 0.9497177 -1.1032106 -0.16395007 0.9617756
00000000: 60b9 463f 8e3f cebd bb6f d93e b9b7 28bf
00000010: e4ef 153f 20fc 30bd cdae 6fbf 4aa7 283f
00000020: 385a 14bf 2005 73bf 1ae3 163f d52b 40bf
00000030: b3f4 883f eca4 83bf 1201 753f 695d cbbe
00000040: f24b 7b3f 05c9 043e 75bc 2f3f f5b3 163f
00000050: bf97 123f 8371 44be 5ef9 ce3e db4c 043f
00000060: d4a6 4f3f 4b78 72bf b320 733f 0136 8dbf
00000070: 87e2 27be ed36 763f

2.weight f4 [30, 30]
0.05776611 -0.0053931866 -0.002922211 0.23132056 -0.17254138 -0.10027385 0.3014813 -0.2153305
-0.088579305 0.16425815 -0.23406148 0.2354002 0.24371123 -0.13690649 -0.10173949 -0.10211564
0.16919203 0.27334753 -0.2259461 -0.21934521 0.23310988 0.10432938 -0.20785499 0.14578307
0.1392671 -0.031817663 0.13616009 0.28172904 0.17695142 -0.28969535 -0.2648163 0.40115854
0.41281012 -0.41493022 -0.076307006 -0.4486277 -0.5635704 0.26181737 0.33873782 0.06528418
-0.34317106 0.0076206434 0.22346689 0.34331444 -0.35090455 0.11927843 -0.2746115 0.34335068
-0.33458441 0.38178778 -0.2793014 0.38794523 -0.10515299 -0.25290707 0.09941956 0.1603257
-0.14031795 -0.26797515 -0.29172328 -0.29084432 -0.4386367 -0.27693447 -0.0731232 -0.14191845
-0.022222951 0.018729659 -0.04492672 0.3197459 0.61179 -0.0011906562 0.07552114 -0.20998043
-0.05299657 0.083979696 -0.32291242 -0.18351151 -0.5508433 -0.172119 -0.20322347 0.0456014
-0.1476607 0.20233676 0.16430655 0.2403271 -0.3432205 0.22612321 0.02575876 0.008649153
-0.48354712 0.18959077 -0.47803333 -0.38865635 0.25005293 -0.3234984 0.49526137 0.07447244
-0.28300545 0.08643551 0.21186955 0.36027917 0.4959053 -0.5871343 0.06907746 -0.22060722
-0.19977126 -0.27823094 -0.29265007 0.21701847 -0.30060902 0.1457421 -0.6393372 0.23002632
-0.2612909 0.5235593 0.24377796 0.19038005 -0.45097685 -0.0060206936 -0.00057103956 0.66089356
-0.08019829 -0.4329737 -0.14263186 0.16233908 0.485376 -0.104206845 -0.3345616 0.22620296
0.3254238 0.5328587 0.33412325 -0.59091187 0.35946333 -0.4481455 0.3611215 -0.24459483
-0.52647334 -0.19788468 0.08905793 0.18426065 -0.7594792 -0.025730228 0.15203899 0.4961036
0.47358498 -0.103374414 -0.86720836 -0.31931275 -0.1362283 0.46001267 -0.28514355 -0.39521268
0.36269066 -0.38365087 0.3374974 0.35245255 -0.0867442 -0.2530205 0.5775808 0.6194151
0.35674334 -0.29886088 -0.004634702 -0.026413845 0.059802033 -0.0854867 -0.36801362 0.61920303
-0.18234415 0.085727915 -0.636561 0.5032583 -0.61135256 0.4603305 -0.25509742 0.058156006
-0.6163638 -0.1008873 0.24498355 0.3054098 0.22991018 -0.40869445 -0.29930237 0.14473888
0.37660787 0.37503722 0.27772462 -0.18964687 -0.3822685 -0.09476024 0.30519366 -0.08709224
0.22608963 -0.44738874 0.2621301 -0.3644972 0.18463968 -0.4271383 0.33536258 -0.33809987
0.36340606 -0.4105736 0.124064974 0.54319876 0.23799361 -0.46869954 0.28349936 -0.12395756
0.62441576 0.22425576 0.63638866 0.15729313 -0.028705584 -0.036010742 -0.20023063 0.16340835
0.31769353 -0.4192075 -0.72983456 -0.48890567 -0.16992259 0.08283345 0.16335864 0.17829438
-0.091333255 -0.0022543443 0.60723376 0.04538038 0.15232044 -0.16083054 0.74433607 -0.12654637
0.31226203 -0.5092194 0.2779847 0.014570475 0.5704701 0.27680302 0.18615414 -0.28594774
0.27048087 0.49532437 0.5686581 -0.349219 -0.19177641 -0.2031757 -0.5689202 0.4113254
-0.06534008 -0.049984764 -0.12379742 -0.052987408 0.125077 -0.17655155 0.16737643 0.13269018
00000000: 289c 6c3d 54b9 b0bb 9182 3fbb 4cdf 6c3e
00000010: b0ae 30be 605c cdbd c25b 9a3e 997f 5cbe
00000020: 1169 b5bd 4a33 283e d0ad 6fbe c00c 713e
00000030: 708f 793e 3731 0cbe cb5c d0bd 0122 d1bd
00000040: ad40 2d3e 35f4 8b3e 6a5e 67be 089c 60be
00000050: 5bb4 6e3e a4aa d53d f0d7 54be 2848 153e
00000060: 099c 0e3e 3d53 02bd 8d6d 0b3e ca3e 903e
00000070: c132 353e f352 94be 0196 87be a764 cd3e
00000080: d95b d33e bc71 d4be d946 9cbd 88b2 e5be
00000090: 2646 10bf ed0c 863e 0b6f ad3e b6b3 853d
000000a0: 1eb4 afbe 97b6 f93b 81d4 643e e9c6 af3e
000000b0: c3a9 b3be 4048 f43d e199 8cbe a9cb af3e
000000c0: a64e abbe b079 c33e 9800 8fbe c2a0 c63e
000000d0: 735a d7bd 097d 81be 7b9c cb3d 6c2c 243e
000000e0: 82af 0fbe 0a34 89be c15c 95be 8ce9 94be
000000f0: fd94 e0be 5bca 8dbe 9ec1 95bd 1253 11be
00000100: e80c b6bc f16e 993c 1505 38bd bcb5 a33e
00000110: 459e 1c3f cb0f 9cba d4aa 9a3d 1c05 57be
00000120: ee12 59bd 8cfd ab3d c754 a5be 71ea 3bbe
00000130: 1104 0dbf f73f 30be d019 50be 89c8 3a3d
00000140: 5e34 17be 5e31 4f3e fa3f 283e 4f18 763e
00000150: 99ba afbe d88c 673e 0904 d33c 2db5 0d3c
00000160: 7d93 f7be 1524 423e c9c0 f4be f7fd c6be
00000170: f006 803e 95a1 a5be e692 fd3e 0285 983d
00000180: 17e6 90be 1a05 b13d 55f4 583e 8376 b83e
00000190: 4de7 fd3e 6f4e 16bf 7c78 8d3d dce6 61be
000001a0: d690 4cbe 4974 8ebe 3bd6 95be 173a 5e3e
000001b0: 6de9 99be 6b3d 153e 9aab 23bf 058c 6b3e
000001c0: ecc7 85be fb07 063f eea0 793e fdf2 423e
000001d0: 70e6 e6be 3d49 c5bb d1b1 15ba 5230 293f
000001e0: 003f a4bd bbae ddbe 160e 12be 373c 263e
000001f0: 3483 f83e 666a d5bd a84b abbe c0a1 673e
00000200: f39d a63e 6e69 083f 3412 ab3e 0046 17bf
00000210: 940b b83e 5473 e5be ebe4 b83e 1177 7abe
00000220: f5c6 06bf 48a2 4abe 0164 b63d d3ae 3c3e
00000230: 3b6d 42bf 33c8 d2bc 1cb0 1b3e 4b01 fe3e
00000240: bb79 f23e f7b5 d3bd 5e01 5ebf f67c a3be
00000250: 6e7f 0bbe c886 eb3e 56fe 91be 5159 cabe
00000260: 97b2 b93e e36d c4be 76cc ac3e a974 b43e
00000270: f1a6 b1bd e78b 81be 56dc 133f fd91 1e3f
00000280: 10a7 b63e 4b04 99be b3de 97bb d961 d8bc
00000290: faf2 743d a713 afbd 486c bcbe 1784 1e3f
000002a0: 6db8 3abe 1e92 af3d a9f5 22bf 89d5 003f
000002b0: 9a81 1cbf 70b0 eb3e 219c 82be fe34 6e3d
000002c0: 05ca 1dbf 009e cebd f8dc 7a3e ac5e 9c3e
000002d0: 936d 6b3e 6640 d1be 293e 99be 6e36 143e
000002e0: bfd2 c03e e104 c03e ec31 8e3e ca32 42be
000002f0: b2b8 c3be a811 c2bd 5842 9c3e 6b5d b2bd
00000300: 0a84 673e 2310 e5be eb35 863e 619f babe
00000310: 2f12 3d3e dfb1 dabe a5b4 ab3e 6d1b adbe
00000320: 5c10 ba3e b436 d2be c715 fe3d 130f 0b3f
00000330: 99b4 733e 63f9 efbe d426 913e 76dd fdbd
00000340: b6d9 1f3f 4da3 653e 5eea 223f 7311 213e
00000350: f927 ebbc 0080 13bd 4209 4dbe 8554 273e
00000360: baa8 a23e 5ea2 d6be 70d6 3abf d851 fabe
00000370: 3000 2ebe 95a4 a93d 7d47 273e cd92 363e
00000380: ee0c bbbd 9fbd 13bb ac73 1b3f c7e0 393d
00000390: e4f9 1b3e c3b0 24be cf8c 3e3f 5f95 01be
000003a0: cfe0 9f3e 345c 02bf 0354 8e3e 00b9 6e3c
000003b0: 540a 123f 20b9 8d3e 319f 3e3e be67 92be
000003c0: 787c 8a3e 289b fd3e 9493 113f d5cc b2be
000003d0: 0961 44be 4a0d 50be c1a4 11bf 3e99 d23e
000003e0: 05d1 85bd d3bc 4cbd 8089 fdbd 5309 59bd
000003f0: 2f14 003e eec9 34be ba64 2b3e efdf 073e

2.bias f4 [30]
0.26305333 -0.050061297 -0.21208921 0.15765749 0.33157572 -0.11113114 0.26023105 0.19698772
0.3424367 0.3277602 0.024527272 -0.053192984 0.109740645 -0.3911674 -0.2330635 -0.07824053
0.46486136 0.2510771 -0.06424734 -0.25386858 -0.07383739 -0.3542893 0.17562944 0.020563262
-0.28705725 -0.096614845 0.1421475 0.223476 -0.14977449 -0.44190273
00000000: edae 863e 130d 4dbd ea2d 59be f770 213e
00000010: 4bc4 a93e b998 e3bd 013d 853e 26b7 493e
00000020: dd53 af3e 2fd0 a73e 6bed c83c e3e0 59bd
00000030: b4bf e03d 1847 c8be 33a8 6ebe 923c a0bd
00000040: 4f02 ee3e 2d8d 803e 1c94 83bd 10fb 81be
00000050: 0f38 97bd 6865 b5be 34d8 333e 4974 a83c
00000060: 2bf9 92be 01de c5bd 1d8f 113e e4d6 643e
00000070: 7c5e 19be 1341 e2be

4.weight f4 [6, 30]
0.4872239 0.18969873 -0.036442854 -0.21788439 -0.068511575 -0.43692687 -0.48240644 0.24963833
0.053768188 -0.088889524 0.36361575 -0.22235054 0.12590478 -0.0016431654 -0.1708114 -0.4589583
0.45719114 0.19855082 -0.35723975 -0.22634146 -0.030132089 0.032203827 0.09788957 -0.113628425
-0.048716854 0.31099516 -0.39561975 -0.17274162 0.018454716 0.16237368 0.2950032 0.6189477
0.18969034 0.034916803 -0.46571082 -0.008125514 -0.20408857 0.5061887 -0.29677534 -0.0781155
-0.19772673 -0.17335822 -0.1023596 -0.20806256 -0.104695894 -0.09366824 0.5515756 0.11128451
-0.0009214279 -0.09103392 0.5325349 -0.17828134 -0.5513017 -0.29727572 -0.5158239 0.116469
-0.22289023 0.021437204 0.19855088 0.05327277 0.11075138 -0.31630766 -0.50702995 -0.6421109
-0.545256 -0.5859948 0.46403214 0.6882229 0.031293046 -0.5832664 0.21721455 0.14572214
0.74263316 0.5344684 -0.5282703 -0.19578348 0.11002148 0.23936039 -0.5906935 -0.5204671
0.027935714 0.16124903 0.1804371 -0.5895549 -0.4556483 -0.018901525 0.54411477 0.18205288
0.14555703 0.5192415 -0.26747409 0.06533733 0.33900127 0.2142914 -0.1935569 0.837666
-0.18694048 0.4910207 0.6511957 -0.38826567 -0.93369174 -0.14785738 -0.0871437 0.04046514
-0.16322333 0.57312626 -0.6123579 -0.50518996 0.30883908 -0.06945254 0.5953965 0.57326627
-0.23056944 -0.08327087 0.046405643 -0.71985257 -0.012846719 -0.009207748 -0.59747773 0.36891165
-0.11698585 -0.27572006 -0.6044148 -0.11330866 -0.08161491 0.009023234 -0.23689947 -0.059615154
0.27911794 -0.2087538 -0.12466065 -0.49302483 0.19511618 0.18734336 0.27318594 -0.017049812
-0.13582 0.37563345 -0.18772936 0.09647944 0.15629053 0.06210286 -0.05194322 -0.29045683
-0.63757354 0.12980606 -0.73277235 -0.27913338 -0.019487573 0.0069638495 -0.44031316 0.58401364
0.07212931 -0.44017735 -0.48430613 -0.32767382 0.4980544 0.55658025 0.18019013 -0.806203
0.009472865 0.43841192 -0.38873598 0.1631552 0.5521389 -0.837052 0.36789706 0.79438263
-0.28778693 -0.33220088 0.34612304 0.60761184 -0.7595936 -0.7345626 0.09796127 0.5186886
-0.6087373 -0.59247434 0.057062328 0.6926708
00000000: 6975 f93e 6240 423e 1a45 15bd 161d 5fbe
00000010: cc4f 8cbd e1b4 dfbe fafd f6be 31a1 7f3e
00000020: 083c 5c3d b60b b6bd d82b ba3e dcaf 63be
00000030: 2fed 003e 7b5f d7ba 2fe9 2ebe 95fc eabe
00000040: f514 ea3e e850 4b3e 21e8 b6be 0ec6 67be
00000050: 92d7 f6bc 29e8 033d 547a c83d 05b6 e8bd
00000060: 538b 47bd c23a 9f3e ac8e cabe 2ee3 30be
00000070: 582e 973c 4945 263e a90a 973e 5b73 1e3f
00000080: 2f3e 423e ec04 0f3d a671 eebe e020 05bc
00000090: 98fc 50be 9595 013f f0f2 97be 05fb 9fbd
000000a0: e078 4abe d184 31be e9a1 d1bd 5a0e 55be
000000b0: cd6a d6bd 22d5 bfbd 0f34 0d3f 22e9 e33d
000000c0: fb8b 71ba fe6f babd 3554 083f 628f 36be
000000d0: 1c22 0dbf 8634 98be 090d 04bf 4d87 ee3d
000000e0: 563d 64be 139d af3c ec50 4b3e 8c34 5a3d
000000f0: 9fd1 e23d 14f3 a1be b7cc 01bf 6161 24bf
00000100: e695 0bbf c103 16bf 9f95 ed3e 602f 303f
00000110: 232d 003d f250 15bf 7e6d 5e3e 2f38 153e
00000120: 351d 3e3f ecd2 083f b93c 07bf 777b 48be
00000130: f152 e13d e41a 753e b037 17bf 553d 05bf
00000140: 70d9 e43c 771e 253e 81c4 383e 12ed 16bf
00000150: bc4a e9be 5fd7 9abc 1b4b 0b3f 126c 3a3e
00000160: e70c 153e 03ed 043f 5df2 88be 94cf 853d
00000170: 9391 ad3e 346f 5b3e c833 46be 4771 563f
00000180: 536d 3fbe 1167 fb3e c3b4 263f c2ca c6be
00000190: 6c06 6fbf ed67 17be 6578 b2bd c6be 253d
000001a0: 0424 27be 67b8 123f 7dc3 1cbf 2154 01bf
000001b0: 2820 9e3e 223d 8ebd e86b 183f 94c1 123f
000001c0: 651a 6cbe eb89 aabd d813 3e3d 4248 38bf
000001d0: 0b7b 52bc 18dc 16bc 4df4 18bf fde1 bc3e
000001e0: 4796 efbd 2e2b 8dbe eeba 1abf 5f0e e8bd
000001f0: b825 a7bd 30d6 133c c695 72be 052f 74bd
00000200: 8ce8 8e3e 8ec3 55be 154e ffbd c06d fcbe
00000210: 89cc 473e f0d6 3f3e 07df 8b3e 0cac 8bbc
00000220: 6614 0bbe 0753 c03e 203c 40be 0397 c53d
00000230: a00a 203e 925f 7e3d 6ac2 54bd c2b6 94be
00000240: 0538 23bf e1eb 043e f896 3bbf 92ea 8ebe
00000250: 67a4 9fbc 0131 e43b ba70 e1be eb81 153f
00000260: 88b8 933d ed5e e1be f9f6 f7be ddc4 a7be
00000270: fc00 ff3e 0b7c 0e3f c383 383e 5263 4ebf
00000280: 1334 1b3c 8777 e03e 6708 c7be 2812 273e
00000290: fa58 0d3f 0a49 56bf 015d bc3e a95c 4b3f
000002a0: cf58 93be 3c16 aabe 0a37 b13e 738c 1b3f
000002b0: ba74 42bf 4b0c 3cbf eb9f c83d c7c8 043f
000002c0: 35d6 1bbf 66ac 17bf 30ba 693d e052 313f

4.bias f4 [6]
0.41881874 0.26003134 -0.11267668 -0.23793617 -0.04565807 -0.24106419
00000000: 696f d63e d422 853e 08c3 e6bd 8aa5 73be
00000010: f503 3bbd 88d9 76be

0.weight f4 [30, 2]
-0.5927181 0.87767464 -0.18168062 -1.3751923 -0.34461272 -0.4300687 0.90037656 -1.1925092
-0.5705322 -0.4985416 -1.3161168 -0.9937123 0.033663556 1.201526 -0.99459124 -0.9402645
-0.18136792 0.9235435 -0.10197602 0.88324404 0.5333352 -1.0556499 -0.52261406 0.84431183
1.0895321 -0.3293418 -0.55872184 -0.36019334 1.0548005 0.8740242 0.18841016 -0.9712136
0.47066668 0.3742244 0.5828307 1.2258956 1.40727 -0.5516852 -0.635271 0.9781257
0.02698199 -0.1387917 -0.68387824 -0.2410497 -0.91833144 1.2131538 -0.21911828 -0.7524696
-0.8263132 1.1164831 -0.20501962 0.90275043 0.07928753 -1.1535904 -0.8444606 0.6002735
-0.6909683 -1.0341331 0.8090392 -0.7694551
00000000: 60bc 17bf 49af 603f 7c0a 3abe 4d06 b0bf
00000010: 1471 b0be f731 dcbe 147f 663f 24a4 98bf
00000020: 660e 12bf d840 ffbe 8476 a8bf ee63 7ebf
00000030: cce2 093d 9bcb 993f 889d 7ebf 2db5 70bf
00000040: 83b8 39be 596d 6c3f ced8 d0bd 481c 623f
00000050: a888 083f 891f 87bf 09ca 05bf d224 583f
00000060: ca75 8b3f 7d9f a8be 6508 0fbf 436b b8be
00000070: b403 873f 0dc0 5f3f 98ee 403e 74a1 78bf
00000080: 39fb f03e 579a bf3e 6534 153f 26ea 9c3f
00000090: 6c21 b43f 3e3b 0dbf 1fa1 22bf 7266 7a3f
000000a0: 5609 dd3c 691f 0ebe a512 2fbf bcd5 76be
000000b0: c517 6bbf a048 9b3f 8b60 60be d9a1 40bf
000000c0: 4389 53bf ebe8 8e3f aaf0 51be a71a 673f
000000d0: 8061 a23d daa8 93bf 922e 58bf 86ab 193f
000000e0: 4ce3 30bf 795e 84bf 311d 4f3f 02fb 44bf

0.bias f4 [30]
-0.8549617 0.90780574 0.70683336 -0.13818783 0.14816111 0.606389 1.0181971 0.67340267
-0.794534 -0.8070617 1.0156907 1.0798515 1.0665337 1.0762223 -0.54518235 -0.4284503
-0.86440337 0.24808666 -0.6417735 0.30138004 0.89930755 -0.59927243 -1.0366122 0.88417965
-0.8046253 0.8260937 0.9884807 -1.2180518 -0.31695908 1.2484636
00000000: c5de 5abf f565 683f 08f3 343f 1c81 0dbe
00000010: 8cb7 173e 4f3c 1b3f 4854 823f 1e64 2c3f
00000020: 9566 4bbf 989b 4ebf 2702 823f 9338 8a3f
00000030: 2d84 883f a7c1 893f 1291 0bbf d65d dbbe
00000040: 8a49 5dbf 6e0a 7e3e 454b 24bf 7c4e 9a3e
00000050: 0539 663f eb69 19bf b5af 84bf 9959 623f
00000060: ecfb 4dbf e07a 533f 120d 7d3f 1fe9 9bbf
00000070: 7648 a2be a8cd 9f3f

2.weight f4 [30, 30]
-0.079849504 0.20404753 -0.34312832 0.60227555 -0.27246478 -0.53306293 0.30985788 -0.30062544
-0.10231833 0.22332923 -0.051192317 -0.71706384 -0.551731 -0.48588285 0.46350586 0.40755787
0.2867179 0.5579703 0.5294951 -0.62137 -0.45147815 0.18806128 0.17787638 -0.29223314
0.12783174 -0.3811557 0.15548377 0.4428002 -0.31920853 -0.4157628 -0.16517276 -0.18775879
0.0033909127 0.15371402 0.14035298 -0.12515663 0.16428962 0.06504707 -0.096595116 0.15907288
0.35680515 -0.18176544 0.43154413 0.060418554 0.08704167 -0.027201988 -0.19971642 0.0039428016
0.13642034 -0.041466773 0.161139 -0.09844 -0.6468294 0.04577577 -0.52960664 0.14687139
-0.11585461 0.091858156 -0.05717903 0.030939767 -0.04193073 -0.11710276 -0.15882905 -0.6373695
-0.1753793 0.059677478 -0.02210155 -0.12770559 -0.0056659793 0.2269709 -0.09623597 0.47457078
-0.27582383 -0.13618547 0.0018166666 -0.4308835 0.20883293 -0.14914377 0.016519042 0.39815572
-0.012828656 -0.08149198 -0.030523185 -0.31262803 -0.30211416 0.03439243 -0.15338685 -0.25772113
0.14015433 0.024776533 -0.47928885 0.41378608 0.020779807 -0.54421175 -0.4022024 -0.8298791
0.15086798 -0.5746382 -0.44414136 -0.60827214 0.5638569 0.66882473 0.7490843 0.22590873
0.56951433 -0.6129084 -0.120903865 -0.19668719 -0.39425635 0.3807528 0.27732998 -0.23969184
0.34836277 0.3082798 0.059969727 0.5581883 0.5134102 -0.81856847 0.3088029 0.79784393
-0.44450784 -0.006651102 0.20463854 0.6769249 0.13611257 -0.17860322 0.1000087 -0.1649942
-0.25732085 -0.14203548 0.4335349 -0.35385102 0.11052344 0.1263553 0.029847698 0.57453865
-0.13327704 0.15257931 -0.012281261 -0.7602515 0.16219941 -0.13300076 -0.09745436 0.3955888
-0.12322401 -0.17919299 0.11938105 0.058222823 -0.116619624 0.040982515 0.23883753 0.0026325379
-0.19893122 -0.3442198 -0.25630838 -0.39000398 -0.17934522 -0.24438871 -0.0031753897 -0.026196225
-0.083901234 0.19956857 0.96412134 0.04936182 0.42426997 -0.10514554 -0.040532507 0.005969328
-0.17524719 0.35982057 0.11069477 -0.173496 0.37828425 -0.19564152 0.12014249 -0.08798206
0.026501322 -0.4779544 0.1381382 0.015255464 0.19746025 0.06868024 0.35171798 -0.29904002
0.09521956 0.35624352 -0.18140362 0.086817786 -0.20203985 -0.16366513 -0.5071492 -0.73605084
-0.46399006 0.10923393 -0.19603583 0.3809601 -0.31267127 -0.32945424 -0.10618242 -0.31736857
0.16524114 0.14894246 0.56737566 0.17432624 0.4210487 -0.3400004 0.018025374 0.21253514
0.22397639 -0.31723058 -0.4471575 0.0038701645 -0.27815157 0.30170086 -0.27865636 -0.28275836
-0.076211706 -0.30808356 -0.19762918 0.0008956423 0.52186507 0.13057585 0.8983151 0.031852264
0.5145994 0.20736258 -0.018425927 0.23110628 0.051324833 0.01951175 0.25790918 -0.58903486
-0.6388469 -0.19834423 -0.65667516 0.24603716 0.0021517156 -0.76917726 -0.038059074 0.9992088
0.49361908 -0.2931361 0.5053035 0.065409124 0.25170168 0.27616 -0.6865264 0.4130942
0.48343727 -0.025606316 -0.21241589 -0.47653502 -0.47342455 0.28893042 -0.141103 0.40016264
00000000: 2388 a3bd d6f1 503e 84ae afbe bb2e 1a3f
00000010: 8180 8bbe d076 08bf b1a5 9e3e 94eb 99be
00000020: 468c d1bd 6bb0 643e 09af 51bd 7f91 37bf
00000030: 3e3e 0dbf a3c5 f8be a450 ed3e 6dab d03e
00000040: b0cc 923e 24d7 0e3f fe8c 073f 1b12 1fbf
00000050: 2528 e7be 2393 403e 3a25 363e 959f 95be
00000060: 53e6 023e d726 c3be 2337 1f3e b5b6 e23e
00000070: 4d6f a3be ddde d4be 0c23 29be d743 40be
00000080: 133a 5e3b 3567 1d3e b1b8 0f3e 0f29 00be
00000090: 8a3b 283e 6637 853d a9d3 c5bd 00e4 223e
000000a0: 2aaf b63e b820 3abe 5af3 dc3e 7279 773d
000000b0: e742 b23d b4d6 debc 7682 4cbe 9e32 813b
000000c0: c6b1 0b3e 10d9 29bd 9f01 253e e99a c9bd
000000d0: 9d96 25bf 607f 3b3d 4d94 07bf 7465 163e
000000e0: 2f45 edbd 2120 bc3d 8f34 6abd 6575 fd3c
000000f0: 8fbf 2bbd 92d3 efbd 15a4 22be a62a 23bf
00000100: a296 33be 5f70 743d 4f0e b5bc 41c5 02be
00000110: aea9 b9bb 0f6b 683e 5d17 c5bd f1fa f23e
00000120: c838 8dbe 3474 0bbe 371d ee3a c39c dcbe
00000130: 4dd8 553e 25b9 18be f152 873c 11db cb3e
00000140: 482f 52bc 44e5 a6bd c20b fabc c810 a0be
00000150: b5ae 9abe 14df 0c3d 7111 1dbe 06f4 83be
00000160: 9e84 0f3e 28f8 ca3c 5965 f5be c5db d33e
00000170: 6a3a aa3c 7651 0bbf 79ed cdbe f572 54bf
00000180: 237d 1a3e 7d1b 13bf 7f66 e3be b9b7 1bbf
00000190: ed58 103f 1938 2b3f fdc3 3f3f 9e54 673e
000001a0: b1cb 113f 91e7 1cbf 729c f7bd 5e68 49be
000001b0: f8db c9be 08f2 c23e 32fe 8d3e c771 75be
000001c0: 9b5c b23e dad6 9d3e d1a2 753d 6ee5 0e3f
000001d0: da6e 033f b48d 51bf 6a1b 9e3e 803f 4c3f
000001e0: 8896 e3be 7df1 d9bb c48c 513e f34a 2d3f
000001f0: 1861 0b3e c3e3 36be 5cd1 cc3d 3df4 28be
00000200: 8fbf 83be c071 11be 49f8 dd3e f62b b5be
00000210: 1d5a e23d 4963 013e 2983 f43c f714 133f
00000220: c779 08be c03d 1c3e 5837 49bc d89f 42bf
00000230: 9a17 263e 5a31 08be 2796 c7bd 9d8a ca3e
00000240: df5c fcbd 5e7e 37be 0d7e f43d 0e7b 6e3d
00000250: 45d6 eebd 48dd 273d d391 743e a886 2c3b
00000260: a0b4 4bbe 943d b0be da3a 83be 9aae c7be
00000270: 46a6 37be 0941 7abe 331a 50bb 7799 d6bc
00000280: 69d4 abbd b45b 4c3e a8d0 763f 9f2f 4a3d
00000290: ea39 d93e 8b56 d7bd 6a05 26bd 5a9a c33b
000002a0: 0074 33be 673a b83e f1b3 e23d efa8 31be
000002b0: 79ae c13e 4056 48be 440d f63d f02f b4bd
000002c0: 4d19 d93c 70b6 f4be 1a74 0d3e 0ef2 793c
000002d0: 0533 4a3e 3aa8 8c3d 6114 b43e c61b 99be
000002e0: 7902 c33d 8d65 b63e dfc1 39be 86cd b13d
000002f0: 89e3 4ebe d597 27be 88d4 01bf d46d 3cbf
00000300: 1b90 edbe 0ab6 df3d 9ebd 48be 340d c33e
00000310: 7316 a0be 3aae a8be 2b76 d9bd 227e a2be
00000320: f934 293e 5f84 183e 883f 113f 9482 323e
00000330: b293 d73e 8814 aebe f3a9 933c d0a2 593e
00000340: 115a 653e 0c6c a2be d4f1 e4be 96a2 7d3b
00000350: e269 8ebe 8978 9a3e 0cac 8ebe b4c5 90be
00000360: e214 9cbd 21bd 9dbe 4e5f 4abe 8ac9 6a3a
00000370: f398 053f adb5 053e faf7 653f 8577 023d
00000380: c9bc 033f db56 543e f8f1 96bc 20a7 6c3e
00000390: fd39 523d 1bd7 9f3c ac0c 843e fdca 16bf
000003a0: 788b 23bf c01a 4bbe dd1b 28bf 2af1 7b3e
000003b0: cc03 0d3b cde8 44bf d5e3 1bbd 26cc 7f3f
000003c0: a4bb fc3e ef15 96be 925b 013f 38f5 853d
000003d0: 0bdf 803e d864 8d3e 32c0 2fbf 1581 d33e
000003e0: 1785 f73e 56c4 d1bc 8d83 59be 66fc f3be
000003f0: b464 f2be b0ee 933e 4e7d 10be 1ee2 cc3e

2.bias f4 [30]
-0.24973398 0.18710178 -0.08694669 0.30156597 0.22345917 0.12526006 0.6150962 0.6709735
0.42699206 -0.041503146 0.22150093 -0.11524318 0.10971409 -0.01802818 0.021849655 0.2180103
-0.43023613 -0.17028397 -0.20015417 0.17026915 -0.082441956 -0.41959417 -0.03344466 0.27218884
-0.18124576 -0.21742788 -0.45362732 0.11656807 0.22123712 -0.019291451
00000000: 44ba 7fbe 9c97 3f3e 1b11 b2bd db66 9a3e
00000010: 7bd2 643e 2c44 003e f276 1d3f ebc4 2b3f
00000020: b49e da3e 34ff 29bd 24d1 623e 9e04 ecbd
00000030: c8b1 e03d d5af 93bc 0cfe b23c 183e 5f3e
00000040: e947 dcbe ec5e 2ebe 37f5 4cbe 095b 2e3e
00000050: 54d7 a8bd 0cd5 d6be 45fd 08bd 565c 8b3e
00000060: 7d98 39be 6aa5 5ebe d741 e8be 3ebb ee3d
00000070: fc8b 623e 1b09 9ebc
