FullOrder/ReconstructORI/The Oldest Model/Checkpoint_SEED1024_LR0.001_HD30_HL2_MO4_Epoch124_WithPhysics1_WithBatch1_Pretrain100.pth (torch, 101066 bytes, 80 tensors)

0.weight f4 [30, 2]
000000 20 a3 4c 3f 51 7a e1 3e 2c 89 83 be 5b dd 82 3f
       0.7993641 0.44038633 -0.2569059 1.0223802
000010 8a 0b 05 3f 81 b8 5e 3d 6e c9 2b be 13 3f 17 3e
       0.5197073 0.054375175 -0.16776058 0.14770155
000020 56 8e 82 be 3f 8f 8e bf 04 ed c3 3e 21 26 97 bf
       -0.2549922 -1.1137465 0.38266766 -1.1808511
000030 df fd 4c 3f 6d be 4c bf f2 db 89 bf 96 8b c9 3e
       0.80074877 -0.79978067 -1.0770247 0.39364308
000040 33 4f af be 87 c4 07 3f 3e 88 ea 3e 7c 83 2f 3f
       -0.34240112 0.5303425 0.4580707 0.68560004
000050 3f fe 67 3f f3 cc 89 be 57 9c e3 bd e2 b5 57 3f
       0.90622324 -0.26914176 -0.11113804 0.84261906
000060 9c 8b ae 3e be 3c 96 bf 1c c5 56 bf c8 e1 9f 3f
       0.34090889 -1.1737287 -0.83894515 1.2490778
000070 c0 57 c6 be 50 b9 9a 3f fa f2 d0 be f7 6c 28 3d
       -0.38738823 1.2087803 -0.40810376 0.041119542
000080 4b c3 84 bd 8c 5f 6e 3f 94 7a 44 3f 3e 84 43 bf
       -0.06482562 0.9311454 0.7674954 -0.7637366
000090 3f 59 da bd eb 5b 14 bf 73 51 a0 3e ad 30 43 bf
       -0.106615536 -0.57952756 0.3131214 -0.7624615
0000a0 ff 87 ea 3f ed 77 98 3e 62 93 20 be 03 47 a1 bf
       1.8322753 0.29778996 -0.15681222 -1.2599796
0000b0 f8 82 ac bc 67 ec b4 bf 26 f1 86 bd 33 71 80 3e
       -0.021058545 -1.4134644 -0.06588964 0.25086364
0000c0 70 d9 5b bf 59 38 42 3e 4b c9 6b 3f d6 a7 97 be
       -0.8587866 0.18966807 0.92104024 -0.29620236
0000d0 1c 4d 26 3f 16 71 8a 3f a3 94 ef 3e dd c9 62 3d
       0.6496141 1.0815761 0.46793088 0.055368293
0000e0 f7 01 08 bd a6 50 64 3f 03 41 23 3f d8 7c 6a bf
       -0.033205 0.8918556 0.63771075 -0.91596746

0.bias f4 [30]
000000 18 b1 01 bf 4e d4 3b bf 88 5b 8d 3f 36 fc c8 be
       -0.5066085 -0.73370826 1.1043558 -0.39254922
000010 40 92 c1 be f8 99 a5 3d c7 54 d6 be b5 d9 5f 3e
       -0.37806892 0.08086008 -0.41861555 0.21860392
000020 23 63 5e bf f0 c7 67 be f7 96 33 bf d4 53 58 3e
       -0.8687002 -0.22634864 -0.7015223 0.21125728
000030 2a 46 b6 3f b5 d5 56 bf e6 e4 40 3f 52 27 5b bf
       1.4240162 -0.8391984 0.7534927 -0.85606873
000040 d9 2a f4 be e9 c5 60 3f 26 3e 49 3f 0c 2b 4f bf
       -0.4768894 0.87801987 0.78610456 -0.8092506
000050 92 09 db 3e 32 d9 b1 be 49 6a a3 3f 7a e6 3c bf
       0.4278074 -0.3473602 1.2766811 -0.7378918
000060 a3 e0 1e 3f cd 2e 39 3f 07 ef 8e be ed b0 4b 3f
       0.6206152 0.7233704 -0.27916738 0.7956684
000070 dd 93 39 3f c6 43 07 3f
       0.72491246 0.5283779

2.weight f4 [30, 30]
000000 61 50 60 bd cb f4 1e 3f b0 e4 8a 3e 09 25 c0 3d
       -0.054764155 0.62092274 0.271276 0.09382064
000010 d6 45 22 be 3a dc 1c bf b6 72 e6 be 6d fc e0 3d
       -0.15846953 -0.6127354 -0.45009392 0.109856464
000020 ed 1d 90 3e 16 ee 88 3e 40 a9 37 be 69 12 31 3f
       0.28147832 0.26744145 -0.17935658 0.69168717
000030 b6 c6 ef bc 48 29 1f 3e 32 29 ff 3e 9a c1 80 bd
       -0.029269557 0.15543091 0.49836117 -0.062869266
000040 ca 3c c8 3e 9c 20 74 bd 3f e6 93 be 89 80 c1 be
       0.39108878 -0.05960141 -0.288866 -0.37793377
000050 4e fa 62 3d 6b c9 a4 bd df e1 97 be 3d 75 b1 bd
       0.05541449 -0.0804623 -0.29664513 -0.086649396
000060 0f e9 9a 3e d0 f7 89 be a8 fb 4b 3d 59 64 3d 3e
       0.30255935 -0.26946878 0.049800545 0.18495311
000070 31 2e 07 3f a6 23 93 be 34 6e 70 be fc 29 04 3e
       0.5280486 -0.28738135 -0.23479539 0.12906641
000080 7d 16 d5 3e ed 02 a6 be 13 27 8d 3e d2 ca 90 3d
       0.4161872 -0.32424107 0.27568874 0.07069935
000090 0d 2d 7a 3d c8 90 51 bd 75 67 99 3e 73 0b ec 3c
       0.06107812 -0.051163465 0.29961744 0.028814053
0000a0 ed a7 54 be 55 16 ba be 10 fa 14 bf ab de 7a be
       -0.20767184 -0.36345163 -0.58194065 -0.24499004
0000b0 da f6 b0 be b6 9e a9 be 19 87 9f bc dd 96 88 be
       -0.34563333 -0.331289 -0.0194736 -0.266776
0000c0 45 10 8d 3e 83 65 68 3e e5 1d c6 be 1b 26 4e 3e
       0.27551475 0.22694974 -0.38694683 0.20131724
0000d0 bf ee d7 bd 89 7c fa bb 72 27 41 3e d0 6d 81 be
       -0.10543584 -0.0076442403 0.18862703 -0.25279093
0000e0 6c 9a 62 3e e6 a9 b5 3e d3 d8 44 ba a9 ef ba 3d
       0.2212922 0.35481185 -0.0007509116 0.09127743
0000f0 d8 b3 4c be 1d 81 37 3f fe 9a 98 3e 62 b2 0b be
       -0.1999048 0.71681386 0.2980575 -0.13642266
000100 87 ed a0 bd 0a 94 6d be 40 3a 97 be 6a 19 91 3e
       -0.07857805 -0.23201004 -0.2953663 0.28339702
000110 cc 84 27 3f f7 86 83 3e 9d 2a c9 bc 66 c7 b0 3e
       0.65437007 0.25688908 -0.024556452 0.3452713
000120 ba 2b 2c bf 5c ad 18 3f e6 05 a8 bd 11 9b 86 bd
       -0.6725422 0.59639525 -0.0820425 -0.06572545
000130 16 ea b7 3e cd 49 0f bf 3e 6a eb be f3 30 e3 3d
       0.3592078 -0.55971986 -0.45979494 0.11093321
000140 e5 4e 86 be 6e 1a 2d be 98 16 0b bf fd f3 42 3e
       -0.26232067 -0.16904613 -0.5433135 0.19038387
000150 b6 7f 88 bb 55 b1 d3 be 6d 17 24 3e 73 f9 34 3e
       -0.004165615 -0.4134623 0.16024561 0.17673282
000160 20 b4 52 3e 66 5c 0d bf 01 b1 4f 3e d1 96 a2 3e
       0.20576525 -0.55219114 0.20282365 0.3175569
000170 64 aa 76 3d aa ea 35 3d 91 16 c6 bd 59 dd a3 be
       0.06022109 0.044413246 -0.09672273 -0.32004812
000180 09 96 00 bd c5 a3 09 3d f5 b9 bc bc 8a 59 42 bc
       -0.031393085 0.03360345 -0.02303789 -0.011862168
000190 c7 a7 0d be 8f c4 c1 bd 9b 67 52 be 48 a7 2a bd
       -0.13833533 -0.09461319 -0.20547335 -0.041663438
0001a0 09 18 49 3e b6 43 34 be bc 90 91 3e 48 0b 26 3e
       0.19638075 -0.17603955 0.28430736 0.16215241
0001b0 36 2a 28 be 2f 9e 74 3e 35 c5 24 bc ef 41 b4 bd
       -0.16422352 0.23888467 -0.010056783 -0.08801638
0001c0 31 ce ac be da 29 3d 3e 89 eb b6 bd db 0a 81 3e
       -0.33751062 0.18472996 -0.089316435 0.25203595
0001d0 e1 82 7d 3e b7 69 ee bd 7b f6 72 bd c6 8b 47 3e
       0.24756958 -0.11641257 -0.059317093 0.19486913
0001e0 14 14 03 be 7a 9f 8d be 8d 3e 4d 3e 19 e8 d2 3d
       -0.12800628 -0.27660733 0.20043392 0.10298175
0001f0 9d 0a a8 be e8 af 59 3e d2 7e e8 3d 10 2f 9f be
       -0.32820597 0.21258509 0.11352314 -0.31090593
000200 7d 1f f3 3d fe 09 96 bd 2c 9d b5 3d d2 2c 22 3e
       0.1187124 -0.073261246 0.08867869 0.1583741
000210 9d 1a ad 3e 0d 2c ec be 33 0c 25 3e 08 6b 53 be
       0.33809367 -0.46127358 0.16117935 -0.20646298
000220 19 97 87 be 28 63 8f 3e 82 0a fa 3d fa bb 72 be
       -0.26482466 0.28005338 0.122090355 -0.2370452
000230 ba bc 02 be c4 bd 31 bd 66 27 09 3e e1 a1 f5 3d
       -0.12767306 -0.043393865 0.13393936 0.119937666
000240 84 d8 af be 43 81 39 3e 17 bc 83 3e 1e 8b 1c 3e
       -0.34344876 0.18115716 0.2572944 0.15287444
000250 39 7a 4e 3e de 87 e9 bb f3 3b bd 3d c2 7a f5 3b
       0.20163812 -0.0071267923 0.0923995 0.0074914405
000260 5c b2 65 be ea ee 85 3e 09 2a 70 be 0d 61 f8 bd
       -0.2243132 0.2615884 -0.23453535 -0.12127886
000270 d2 c6 d4 3d aa 30 7a 3d 2f 26 41 3e dd 04 68 3d
       0.103894845 0.061081566 0.18862222 0.056645263
000280 d4 b3 63 3d 36 5d 82 bd 98 9a 19 be 65 9f 1a be
       0.05559142 -0.06365435 -0.15000379 -0.15099867
000290 83 3e 14 3d 1a a7 37 bd bc c2 79 bc ab 71 81 bd
       0.03619243 -0.044837095 -0.015244182 -0.063205086
0002a0 f0 10 7f bd 36 ad ce bd 9c a2 8d be 61 05 64 3d
       -0.062272012 -0.10091631 -0.27663124 0.055669192
0002b0 0b e0 f8 3c b5 69 9a 3e 40 58 d7 bd 9a b8 59 3b
       0.03038027 0.30158773 -0.10514879 0.0033221603
0002c0 3a eb cd 3d 30 bb 85 be 3c 35 70 3c 8c fc f5 bd
       0.100546315 -0.26119375 0.01466113 -0.1201106
0002d0 b1 9f f2 bd d7 56 a4 3e 7d 5e 2c 3e 94 df 67 3e
       -0.11846865 0.32097504 0.1683292 0.22643882
0002e0 32 8f 2c 3d e5 1a 32 bf a6 77 27 be b8 7c 86 3e
       0.04212875 -0.6957229 -0.16354236 0.26267028
0002f0 06 56 c7 3e 17 89 b9 3d cf 87 0b be 39 e0 f5 3e
       0.38932818 0.09059351 -0.13626026 0.4802263
000300 2e e5 27 bc 56 00 41 3e 45 0e dd 3e ff db ba 3d
       -0.010247512 0.18847784 0.4317495 0.09123992
000310 70 e3 fe 3e f9 80 0a be af bd 22 be 56 d6 9a be
       0.49782896 -0.13525762 -0.15892671 -0.3024165
000320 cb 07 84 3c 06 2f a5 be e2 3e f6 bd be a4 55 3e
       0.016116997 -0.3226244 -0.12023713 0.20863625
000330 66 a8 3e 3e 3b b2 55 3d 05 f8 1c 3e 0b 7c 12 3e
       0.18618926 0.052171927 0.15328987 0.14305131
000340 0d 92 7b 3e 4a 95 0b be 01 5d 61 3d ad 5d f4 3d
       0.24567433 -0.13631168 0.055020336 0.1193193
000350 00 24 93 3e 66 ec f0 3d fe 29 b0 be 59 ad 81 3e
       0.28738403 0.117638394 -0.34407037 0.25327566
000360 62 0d 24 3e 32 3a e8 bd 98 a6 28 3e 2c 0b d0 3e
       0.1602073 -0.11339225 0.164698 0.40633523
000370 30 8c ab 3c 1a 0e 1e 3e 8b ae 1b be 1e 8a d7 be
       0.02094087 0.15435067 -0.15203302 -0.42097563
000380 89 dd 1f bd 1e 98 04 be a7 f3 c4 3d f9 5a 15 be
       -0.03902963 -0.12948653 0.096167855 -0.14585485
000390 86 c3 c5 be 2a 30 b8 bb 10 28 92 be 78 30 5e be
       -0.38625735 -0.005620976 -0.2854619 -0.21698177
0003a0 0f a2 c4 bd 88 94 85 bc 1a c4 2f be 2d 3d 92 bd
       -0.09601223 -0.016306177 -0.1716465 -0.071405746
0003b0 c3 f6 31 3f a1 fc 89 3d 24 0b d2 3d 35 23 49 3e
       0.69517154 0.06737638 0.10256031 0.19642337
0003c0 1c eb 96 3e d6 7c e7 bd 69 99 8b be 4e e8 f2 3d
       0.2947625 -0.113031074 -0.2726548 0.11860715
0003d0 60 1a 52 3e e3 5a cd be da b9 36 be 08 af a0 3d
       0.20517874 -0.40108404 -0.17844334 0.078458846
0003e0 73 db 73 3d 0a 72 4c bd 5f 06 05 3e 7f b1 15 3e
       0.059535455 -0.049913444 0.12990712 0.1461849
0003f0 c2 ab 73 3d ec 82 19 3e 39 10 c6 3d 9b 66 a5 bd
       0.059489973 0.14991349 0.09671063 -0.08076211

2.bias f4 [30]
000000 7e 5f 37 be f8 c2 05 be c6 1b 23 3c c9 eb b4 be
       -0.17907521 -0.13062656 0.009955352 -0.3533614
000010 72 b1 73 be 32 de 11 be cc 96 54 bd 48 96 ce bd
       -0.23798159 -0.14244917 -0.051901624 -0.100872576
000020 45 3f 0a 3c e2 78 d3 bc ae e3 02 bc 4f 5c b4 be
       0.008437936 -0.025814477 -0.007988853 -0.35226676
000030 c2 5d 88 be e6 c9 da 3e 98 b9 8b 3c 54 c4 7b 3e
       -0.26634032 0.4273216 0.017056271 0.24586612
000040 46 12 97 be a7 af 92 3e 17 0a eb 3d 1c e3 7b 3e
       -0.2950613 0.28649637 0.11476534 0.24598354
000050 0b 99 e6 3e 28 88 cf 3e 39 54 1c be 0f 25 96 be
       0.45038638 0.40533566 -0.15266503 -0.29325148
000060 e8 b7 ba be 83 d5 76 be 12 3a 47 3e 7e b9 30 be
       -0.36468434 -0.24104886 0.19455746 -0.1725826
000070 d9 51 c9 3d 67 43 8f bb
       0.09830064 -0.0043720487

4.weight f4 [4, 30]
000000 df 94 d6 bd bb f9 38 be 16 17 a0 be ad 8a e2 bd
       -0.10477614 -0.18064015 -0.31267613 -0.110616066
000010 b2 29 2d 3e 22 91 57 3e e3 e1 cb bd 0a 3a a3 bd
       0.16910437 0.21051458 -0.09955194 -0.079700544
000020 a8 5e 21 3d 8a f8 93 3e aa f4 4f 3c 1e 1d 5b be
       0.03939691 0.28900558 0.01269261 -0.21397826
000030 89 9f 79 3d dc b5 7c 3e 6a 08 67 3e 48 d6 1f be
       0.06094316 0.24678749 0.22561803 -0.15609086
000040 d7 9d 6f 3e bb 2d 80 3e 7e 19 f8 3d c8 57 74 be
       0.23400055 0.2503489 0.12114237 -0.23861611
000050 6f 07 91 3d 36 b3 98 bd a3 c3 aa 3e be ad 74 3d
       0.07081496 -0.07456057 0.33352384 0.059736006
000060 1a c5 b0 be 46 5d 45 be 29 fe 8a 3c 47 98 48 be
       -0.34525377 -0.19273862 0.016966896 -0.19589339
000070 6e 39 05 be 19 51 0c be f9 d6 1c bd a1 9f fc 3e
       -0.13010189 -0.13702811 -0.03829095 0.49340537
000080 83 81 6b 3e 0e 34 69 be 33 94 ea 3d 88 b1 07 bd
       0.22998624 -0.22773764 0.11454048 -0.03312829
000090 56 77 af bd c3 f3 3e 3e c5 09 9a be 62 6d 3b be
       -0.085676834 0.18647675 -0.3008558 -0.18303445
0000a0 d9 ec a6 bd 18 27 52 be 69 af a0 be 20 2a 28 3c
       -0.08150644 -0.20522726 -0.31383827 0.01026395
0000b0 34 ba 75 be 4a a0 8c 3d e7 0d 8d bd f1 1c 81 ba
       -0.23996812 0.0686651 -0.06887417 -0.0009850544
0000c0 ad e3 0e 3e 94 f5 77 3e 75 62 0a 3e 7b 09 28 3e
       0.13954039 0.24214774 0.13514121 0.16409867
0000d0 f8 d0 77 be 4e 84 79 3d af 5c 1e 3f 25 39 94 3e
       -0.24200809 0.06091719 0.61860174 0.28949848
0000e0 d1 61 a3 3d 9b ae 1e be 9d 8d 47 3e d5 49 46 3e
       0.079776414 -0.15496294 0.19487615 0.19364102
0000f0 7f f5 f3 be 19 3a 7b 3e b0 41 d8 3d ad cc d9 bd
       -0.47648236 0.24533881 0.10559404 -0.10634742
000100 a4 32 a9 3e 7d d4 41 3e 97 28 70 be 3d ce 05 3f
       0.33046448 0.18928714 -0.23452984 0.5226782
000110 84 c4 9c be 0d bd cb bc fd 8c b2 3e 9f 47 e6 be
       -0.3061868 -0.02487042 0.3487319 -0.44976518
000120 f5 40 b0 3e a2 c1 d5 be 40 a1 e3 be e0 b0 b9 be
       0.34424558 -0.41749293 -0.4445896 -0.36267757
000130 5c 66 44 3e f5 3e bd be 7e 7b e6 be b3 74 46 3d
       0.19179672 -0.36962095 -0.45016092 0.048451137
000140 29 2a 99 be 35 8d a6 3e b4 59 2c be 12 cd ce be
       -0.29914978 0.32529607 -0.16831094 -0.4039083
000150 5a 4e b6 3e f6 6f e4 3e 17 d0 a2 3e 64 da 8c be
       0.35606652 0.4461667 0.31799385 -0.2751037
000160 f3 07 e0 be 1c c2 1b be 4e ee 4f bf c1 a7 d3 be
       -0.43756065 -0.15210766 -0.81223 -0.41338924
000170 a6 f7 5b 3f 06 9e 2a be 80 96 1b be 58 56 69 be
       0.85924757 -0.16661844 -0.1519413 -0.22786844
000180 51 31 21 bf 1e 0a 30 be cc dc ad bd 66 f8 d8 3d
       -0.62965876 -0.1719136 -0.08489379 0.10594253
000190 17 95 76 3e 92 52 82 3e 1b ea c7 be 48 8e 6a 3d
       0.24080311 0.2545362 -0.39045796 0.057264596
0001a0 ae e5 e2 3c 16 ff f6 3e e8 a2 a5 be 8c ca 74 3e
       0.02769741 0.4824149 -0.3235085 0.2390539
0001b0 b1 45 80 be 0d 66 7b 3e e9 23 30 3e 6d eb fa be
       -0.2505317 0.24550648 0.17201199 -0.4900774
0001c0 6d 38 27 3e 74 c5 fe be 22 f5 af be 74 57 cc 3e
       0.16330118 -0.4976002 -0.3436671 0.3991047
0001d0 13 91 54 bf 1b 96 8b 3d 3f ed f6 be 5c a0 b3 be
       -0.83033866 0.0681574 -0.4822788 -0.35083282

4.bias f4 [4]
000000 95 12 e9 bd 99 97 cf 3c 52 5b 8d bd 6a a3 fe bd
       -0.11380497 0.025340842 -0.069021836 -0.124335125

0.weight f4 [30, 2]
000000 41 1e fe 3e de 51 ac 3e 5a 66 b1 bd af 40 b0 3e
       0.49632457 0.3365621 -0.086621 0.3442435
000010 13 05 80 bf c9 f0 96 3f fd d3 8b be 3a 37 12 3f
       -1.0001549 1.1792232 -0.27310172 0.5711552
000020 0c 8b 69 be ba 6d 82 3f e5 c2 89 3d 8d 4f 8a bf
       -0.22806948 1.0189736 0.06726626 -1.0805527
000030 ca 29 63 bc 51 82 01 3f 24 82 d4 3e 95 96 5a 3f
       -0.013864944 0.5058947 0.4150554 0.8538602
000040 cc 09 ee 3e c2 2c dd bd 70 3d bb 3d 04 ff 89 be
       0.4649185 -0.107995525 0.09142578 -0.26952374
000050 5f f0 4b bd 2b a4 7a 3f ed 0f 12 bf 6f f9 4c be
       -0.049789783 0.9790675 -0.5705555 -0.20017026
000060 fb c8 f8 bc ff f0 98 3e 51 e2 e7 3e 10 6a 74 bb
       -0.030369272 0.29871365 0.45289853 -0.0037294663
000070 fc c7 70 bf 79 e6 38 3f 5c 1e 56 bf 1b 12 2c bf
       -0.9405515 0.72226673 -0.83640075 -0.67215127
000080 83 0e 78 bf 74 01 49 bf 1c bb 74 be 5f 3e 8f 3e
       -0.96897143 -0.7851784 -0.23899502 0.27977273
000090 22 16 4b 3e d3 58 67 3f 89 69 dc 3e 3a fa f3 3e
       0.19832662 0.9036991 0.43049267 0.47651845
0000a0 28 8f e5 3d b5 d4 13 3f a9 57 ea 3f 0d 87 a8 ba
       0.112089455 0.5774644 1.8308002 -0.0012857631
0000b0 35 0c d9 be c9 cf 18 3f d9 fd 4c bd 91 16 38 bf
       -0.42392126 0.59692055 -0.050046775 -0.71909434
0000c0 17 bd d2 3e 15 e5 17 bf 0b 44 1b be 2d 0c 2a 3f
       0.4115989 -0.59333926 -0.15162675 0.6642483
0000d0 2b 1c 69 3c 6c eb d7 3e fc 9d 80 bf a9 6d e1 3e
       0.014227907 0.421718 -1.0048213 0.44028977
0000e0 98 93 84 bd 7e 50 93 be b1 f1 f5 be db a4 df be
       -0.06473464 -0.28772348 -0.48035958 -0.43680462

0.bias f4 [30]
000000 c4 1b 31 bf f4 6a 2e bf 47 ab cd 3d 0c 15 25 bf
       -0.6918299 -0.6813195 0.10042434 -0.6448524
000010 4c f2 5b 3e 69 fa 45 bf e9 2b d8 be 70 36 48 3f
       0.21479148 -0.7733522 -0.42221 0.78208065
000020 55 b8 df be ca a6 14 3f f7 35 07 3f 6e 53 60 bf
       -0.43695322 0.58067 0.5281672 -0.87627304
000030 74 87 1d 3e 04 71 7e 3f 97 61 9c bf 19 32 45 be
       0.15383703 0.993912 -1.2217282 -0.19257392
000040 7f 8e 2f 3f c8 4f 77 bf d9 66 0f 3f 16 b5 51 bf
       0.68576807 -0.9660611 0.5601631 -0.8191694
000050 e2 36 f8 be 22 67 bc be 65 03 84 bf 2c 5c 46 3f
       -0.48479372 -0.36797434 -1.0313536 0.77484393
000060 00 73 9a be 44 3b b9 3d 66 38 5d be 42 d6 9a 3f
       -0.30165863 0.09044507 -0.21603546 1.2096636
000070 ad a9 82 bf 54 0c 31 3f
       -1.0208031 0.69159436

2.weight f4 [30, 30]
000000 22 0e 9b 3e 72 b5 95 3d 43 70 4f bc ed 4e 29 bc
       0.3028422 0.073099986 -0.012661043 -0.010333759
000010 14 62 3c be 83 29 67 3e 5b 5e d8 bd bd ea 89 be
       -0.18396789 0.22574429 -0.10564872 -0.26936904
000020 92 c3 0b bb e3 c9 12 3d ff da b2 be 3f d8 34 3d
       -0.0021326286 0.035837065 -0.34932706 0.04415154
000030 15 bd a9 be ce 01 cd bd 88 e2 cd 3d f1 13 7e bd
       -0.3315207 -0.1001011 0.10052973 -0.062030736
000040 ae a9 1d 3e 47 38 93 3e f9 2a 94 be 8d 94 63 3e
       0.15396759 0.28753874 -0.28939036 0.22224636
000050 f1 84 a3 3d 63 79 08 bc 12 17 5a 3e 17 ec ab bd
       0.07984341 -0.008329722 0.21297863 -0.0839464
000060 4e 90 3d 3e 16 4f 32 be 2c af 92 bc ea ea 27 be
       0.18512079 -0.17412981 -0.017905794 -0.16398206
000070 b4 c9 5c 3e d7 de af 3d ce 95 da bd 30 ec 60 be
       0.21561319 0.08587425 -0.10673104 -0.21965098
000080 23 5c 16 bf bb d6 f8 bd 04 f6 a0 be ed 69 34 3f
       -0.5873434 -0.121503316 -0.31437695 0.7047413
000090 6d a9 63 be 29 b0 fa bd a5 86 da 3d c1 c6 cf bd
       -0.222326 -0.12240631 0.10670213 -0.10145331
0000a0 da 33 35 bf 8c ed fd bd 17 3b d5 be 1f ab 0f be
       -0.70782244 -0.12398824 -0.41646644 -0.14030121
0000b0 cf 43 6d 3c 3e a4 65 3d 6d 4b 63 3e cf a9 37 3d
       0.014481499 0.056064837 0.22196741 0.044839676
0000c0 c5 9d ce be 38 2d 11 bd 2d 98 98 be 70 38 22 3e
       -0.40354744 -0.035443515 -0.298036 0.15841842
0000d0 04 12 26 3e 7e f5 82 3e 88 85 c8 3e 86 85 07 bf
       0.1621781 0.2557792 0.39164376 -0.52938116
0000e0 a9 97 16 be 35 9a d1 be 50 57 de 3d 22 25 01 3e
       -0.14706291 -0.40937963 0.10856497 0.12611821
0000f0 94 75 1b 3e 57 6b 83 be 4c 35 89 bd 94 5c 14 3e
       0.15181571 -0.2566783 -0.06699619 0.14488441
000100 8b 2c ab bd 1f 33 40 3d d3 90 80 be a0 80 78 3d
       -0.08358105 0.046923753 -0.25110492 0.06066954
000110 f8 cd c1 3d eb f8 d2 3d 82 74 13 3c b9 e8 76 bd
       0.094631135 0.103013836 0.008999946 -0.060280535
000120 d6 71 5d be d0 56 b6 be b3 a9 62 3e 20 e6 b7 3d
       -0.21625456 -0.35613108 0.22135048 0.0897944
000130 49 c2 b8 bd 82 a5 00 bc 65 df 10 3e 91 b0 db 3d
       -0.09021432 -0.00785196 0.14147718 0.10727037
000140 1e 5a e0 3d 89 c6 d3 bc ce 7c b7 3c 38 f4 25 3e
       0.109546885 -0.025851505 0.022398379 0.16206443
000150 59 52 9d bd 2f 8f b5 3d 93 07 0e be 1b 5c 40 3d
       -0.07681722 0.08865201 -0.13870077 0.04696284
000160 0d 58 8b 3e ad 8d 12 3e a6 bc 83 be 1a b3 1c bf
       0.27215615 0.14311858 -0.25729865 -0.6121079
000170 fa f7 13 be d6 3d 4b be da d4 40 be 1f 10 37 be
       -0.14450064 -0.19847807 -0.18831196 -0.17877243
000180 57 fb 85 be 5d 82 bb 3e 12 15 b3 3d 5e b4 c0 3e
       -0.2616832 0.36622897 0.08744253 0.3763761
000190 24 38 d6 3d 3a 83 55 be 91 6c 69 be c5 1a 64 3e
       0.10459927 -0.2085084 -0.22795321 0.22275837
0001a0 21 f5 ac 3e 4a 30 0e bc 52 88 c4 3e a1 53 90 be
       0.3378077 -0.008678505 0.38385254 -0.28188804
0001b0 17 db 0f 3e b1 c1 de be 99 ad 12 bf 44 d0 9a 3d
       0.1404842 -0.4350715 -0.5729614 0.07559255
0001c0 3b e5 d7 bd 26 40 2a 3f 8f 54 a3 3c ca c7 46 be
       -0.10541769 0.6650413 0.019937782 -0.19412151
0001d0 a9 a9 dd be 1f 94 87 3d 06 45 e1 bc 10 ab ba 3e
       -0.43293503 0.06620049 -0.027498733 0.36458635
0001e0 7e c5 d6 3d dd f8 e1 bd 2a 76 88 3e 23 22 7f 3d
       0.104868874 -0.11033795 0.26652652 0.062288415
0001f0 1e 21 12 3e c7 29 26 be 88 6d 7d be f4 57 59 be
       0.14270446 -0.16226874 -0.24748814 -0.21224958
000200 d7 cd 11 be 1f f9 31 3e 0a 29 b5 bd 71 4c c6 bc
       -0.14238678 0.17380188 -0.08845718 -0.024206372
000210 1d d0 f2 bd 93 dc 87 be 29 c5 ee 3c aa 66 5e bd
       -0.11856101 -0.26535472 0.029146748 -0.054297127
000220 24 7c 29 be 7a 1d 41 be 0b 36 60 bd 44 3c b7 3d
       -0.16551262 -0.188589 -0.05473904 0.08947042
000230 b0 1d 8e bd fe 23 30 3d 7f a8 c5 bd 4f 67 a2 bd
       -0.06939256 0.043003075 -0.09651279 -0.07929861
000240 c5 0e 47 3d 69 7f 3d 3d 20 74 6e be d0 3a 13 bd
       0.04859807 0.046264086 -0.23286486 -0.03594476
000250 6d 25 83 3e 68 70 9c bd ce 14 85 bd 07 90 a2 3c
       0.2561449 -0.07638627 -0.06498109 0.019844068
000260 cd 00 17 3e 76 7d 80 bd c6 c2 0a be 23 0b f1 3d
       0.14746399 -0.0627393 -0.13550863 0.11769702
000270 27 aa 52 3e b4 4a 0b 3e ec 64 69 3e 0f 39 37 be
       0.2057272 0.13602716 0.22792405 -0.1789286
000280 50 50 08 3e 7d ca dc be 62 0a be bd 6e 88 8c 3e
       0.13311887 -0.43123236 -0.09279324 0.27447838
000290 c9 48 61 bd 08 d6 77 be c2 5b 07 3e 3e 6f f6 bd
       -0.055001054 -0.2420274 0.13218597 -0.120329365
0002a0 f7 f4 18 3d ca 8f a9 bd b8 4b e3 bc 21 cb a0 bd
       0.03734299 -0.08279379 -0.027746066 -0.07851244
0002b0 b6 5f 43 be 00 da a1 bd fd 88 50 3d 38 b6 e4 bd
       -0.1907948 -0.07902908 0.050911892 -0.11167568
0002c0 99 0a 6e bd 66 a0 ba bd ab b8 8e be dc b9 3b 3e
       -0.058115575 -0.09112625 -0.27875265 0.18332618
0002d0 af ee b8 3d 85 9c a6 3e 18 aa bf bd fe 76 54 bc
       0.090299 0.3254129 -0.09358615 -0.012967823
0002e0 46 30 27 3e f8 17 10 3e 99 30 11 3d f8 c7 32 be
       0.16327009 0.14071643 0.035446737 -0.17459095
0002f0 03 01 9b 3d c7 f7 9a be 33 09 0c ba 6d d1 95 3e
       0.07568552 -0.30267164 -0.0005341947 0.29261342
000300 97 00 9b 3e 54 3a ef 3d 3a 71 90 be c4 18 3c 3e
       0.30273888 0.11681047 -0.28211385 0.18368822
000310 0f ff c2 bd 5c f8 ea 3d 99 77 52 bd 12 1d 87 bd
       -0.09521305 0.11473152 -0.05138359 -0.065973416
000320 b9 06 10 3e 25 e7 0a bc 28 76 a9 3d f9 31 1e be
       0.14065064 -0.008477961 0.0827449 -0.1544875
000330 f3 16 bc bd 99 70 a9 bb 97 aa e6 3c e6 71 a0 be
       -0.09184065 -0.0051708934 0.028157515 -0.31336898
000340 f5 ba 01 be 83 ea c2 3d 31 48 1d bd 28 a9 96 bc
       -0.12668975 0.09517386 -0.038398925 -0.018391207
000350 4a 1a dd be fc c6 67 3e ea 43 b7 be cf d5 3e 3e
       -0.4318412 0.226345 -0.35794002 0.18636249
000360 27 34 74 bd 0b fe e8 3d 2c c8 70 be e5 31 f7 bd
       -0.05962005 0.1137658 -0.2351386 -0.120700635
000370 26 55 f3 3b 1b 22 98 bd ac ca 01 3e 36 03 1d be
       0.007425922 -0.0742838 0.1267497 -0.15333256
000380 be 8b 46 3e 91 a9 72 3d 50 9b 87 3e 4d 6e 69 3e
       0.19389245 0.059243742 0.26485682 0.22795983
000390 52 ec 23 3e ba 74 47 be 36 aa 36 be 03 ff 36 3e
       0.16008118 -0.19478121 -0.17838368 0.17870717
0003a0 07 a1 2c 3d e7 ca 3c bd 81 1a 13 3d 7f 63 4c be
       0.042145755 -0.04609194 0.035913948 -0.1995983
0003b0 d1 31 0d 3e 7a 8c 8c 3e 20 b0 38 3e 36 a5 63 bd
       0.13788535 0.27450925 0.18035936 -0.05557748
0003c0 6d 7f 83 3d 5b b0 a5 3d 31 da 99 3e b2 9a 20 be
       0.06420789 0.08090278 0.3004928 -0.15684012
0003d0 4f f3 02 3e c4 b9 92 3d 24 7d ec bd 69 87 6f be
       0.12788127 0.07164338 -0.11547306 -0.23391499
0003e0 b3 da a5 bd 66 ef 73 bd fd 8a 56 be cf d3 60 be
       -0.08098354 -0.05955448 -0.20951457 -0.21955799
0003f0 a1 cb e9 3d 4d ba 8d 3e 22 11 b1 3b 40 0f 9c 3c
       0.11415792 0.276812 0.0054036537 0.01905024

2.bias f4 [30]
000000 9f 03 48 be b9 ed 9b bd 38 9b 4f bd 94 a4 66 3e
       -0.19532631 -0.076137014 -0.050685138 0.22523719
000010 e2 3e 57 3a ed c8 d3 3d 2f 78 65 3e 81 6a 59 3e
       0.00082109694 0.10341058 0.22409128 0.21232034
000020 dd 85 4d be d5 29 d4 3d 69 e7 0d 3e 6a 72 31 bd
       -0.20070596 0.10359541 0.13857807 -0.043322004
000030 47 a5 66 bd ef dd 51 bd df 7f 75 be ce 1e 2b bb
       -0.056309965 -0.051237043 -0.2397456 -0.002611089
000040 c5 7e 13 be 9c 5a 23 3e 8b c0 b7 be 60 c4 3d be
       -0.14403827 0.15952533 -0.35889086 -0.18531942
000050 b1 fa 9a 3e 7b 53 90 be 4a 16 92 3e c2 25 c2 3d
       0.30269387 -0.2818869 0.2853263 0.09479858
000060 11 c3 4a 3d a0 9d f7 be 12 d9 32 3e 49 62 a0 3b
       0.049502436 -0.48362446 0.17465618 0.004894529
000070 14 eb 47 be 82 30 da 3e
       -0.19523269 0.42615134

4.weight f4 [4, 30]
000000 5e da 69 be e9 f9 2d be 58 84 b4 be c6 76 80 be
       -0.22837207 -0.16989864 -0.3525722 -0.25090617
000010 cf 36 92 be bf fe aa 3e b8 ff 7b 3e ef 13 a9 bc
       -0.2855744 0.3339748 0.24609268 -0.020639388
000020 e2 bc c0 3d 48 3c 4c 3d d1 48 d3 bd 5f 75 50 3d
       0.094110265 0.049862176 -0.10316623 0.050893184
000030 84 c8 3b bd 3d 74 9a be 52 94 35 3e d9 53 74 be
       -0.045845523 -0.30166808 0.17732361 -0.2386011
000040 ad be 53 3e 4e 47 4d be 48 89 a3 be d5 35 8a bd
       0.20678206 -0.20046732 -0.31940675 -0.06748549
000050 1b 26 48 be 54 81 68 3d d6 06 62 3e 21 52 bf bb
       -0.19545786 0.056763962 0.2207292 -0.005838648
000060 16 04 61 3e 51 5f ab bd ae fd 08 be f8 cf 12 3e
       0.21974215 -0.083677895 -0.13378021 0.14337146
000070 a3 6c 46 be 67 5f 1f 3e 96 19 51 3e e1 91 87 3d
       -0.19377379 0.15563737 0.20419917 0.06619621
000080 74 cc 20 3d 68 5a 79 3e 5c 16 ad 3c 92 e5 a5 3e
       0.03925748 0.24350893 0.021128826 0.3240171
000090 d3 f6 8f be e6 65 06 bd 24 4c 67 3d b5 1b 31 be
       -0.28118 -0.03281202 0.056469098 -0.17295726
0000a0 f3 ba b6 be 74 59 05 3c c0 37 da 3d dc 1b 51 3e
       -0.35689506 0.008139003 0.10655165 0.20420784
0000b0 7f 5a 43 3e e9 43 9b 3e 45 26 99 be 71 be 8f be
       0.1907749 0.3032525 -0.2991201 -0.28074983
0000c0 c1 5e b8 3b 98 01 87 3e d0 70 3d 3e 7e a0 e8 3e
       0.00562653 0.26368403 0.18500066 0.45434946
0000d0 81 56 b7 be d2 da c1 be 92 c5 92 bd 13 4b b1 3e
       -0.35808185 -0.3786226 -0.0716659 0.3462759
0000e0 0a 27 78 be ff b8 ad be 93 04 76 3e e5 87 9b bd
       -0.24233642 -0.33930203 0.24025182 -0.07594279
0000f0 43 d7 9a bd 7a fe 0f 3f b6 69 17 3e b6 a5 b3 be
       -0.07560589 0.56247675 0.1478642 -0.35087365
000100 c2 72 b8 3d fa fa 4a be 69 85 87 be 81 52 bd 3e
       0.09006263 -0.19822302 -0.2646897 0.36977008
000110 77 74 11 bc 5d fe 6b 3e 2d a0 43 be bd e9 d5 be
       -0.008877865 0.2304625 -0.19104071 -0.4177989
000120 6e 15 ac be 65 a3 17 3e 49 f5 a3 be 55 48 c7 3c
       -0.336101 0.14808424 -0.32023075 0.024326483
000130 b2 1c 35 3d 8e b3 88 be b0 cc 82 3e e7 4e 79 be
       0.04421682 -0.2669949 0.2554679 -0.24346505
000140 67 9e 93 3d 18 e5 d6 3e df 7f 99 3d 25 7e 30 3e
       0.07207947 0.4197166 0.074950926 0.1723562
000150 6e bf 30 3e ca 09 11 bf f5 48 13 be ac c6 6e be
       0.17260525 -0.5665556 -0.143833 -0.23317975
000160 6a ef 2a bd 13 72 6d 3e 99 d4 65 3e c4 b5 c1 3d
       -0.04173223 0.23188047 0.22444381 0.09458497
000170 d4 24 66 bd c0 75 82 be ae c0 9e 3e 20 2d d0 bc
       -0.056187466 -0.2548046 0.31006378 -0.025412142
000180 cd 91 7f 3d aa 4e c7 be 8a 1c ad 3e e4 d5 84 3e
       0.062394906 -0.38927203 0.33810836 0.25944436
000190 49 c4 a2 be be 78 e4 3e 49 4b 03 3f 7c 15 d9 3e
       -0.3179038 0.4462337 0.5128675 0.42399204
0001a0 77 ca f7 be 3a ee 00 3f 52 e7 86 3e 1c 12 c3 3e
       -0.48396656 0.50363505 0.26348358 0.38099754
0001b0 0f 3a b2 3e a4 dd a8 3e b6 95 0a 3f b4 6a 09 3f
       0.3480992 0.32981598 0.5413469 0.5367844
0001c0 49 08 f2 be 9c d8 a9 3d 3d 05 a7 bd 46 e8 db 3e
       -0.47271946 0.08293268 -0.08155296 0.42950648
0001d0 e0 cd 2b 3d 2a c1 ac 3d 87 18 6e 3e e0 34 30 3f
       0.041944385 0.084352806 0.23251544 0.6883068

4.bias f4 [4]
000000 0c fd 05 be 56 c7 cb bb d6 a1 f1 bb d4 40 b0 3c
       -0.13084811 -0.006218831 -0.0073740287 0.021515287

0.weight f4 [30, 2]
000000 07 28 83 be d6 33 ce bf 3d c9 07 bf a4 3c ff be
       -0.25616476 -1.6109569 -0.5304144 -0.49850953
000010 70 ab 65 3f b6 58 f2 be f5 29 39 bf b7 93 d8 be
       0.8971472 -0.47333306 -0.72329646 -0.42300197
000020 62 b7 97 3f 7b 7c 6f bf 61 0f 9c bd 06 b0 ab be
       1.1852839 -0.9354932 -0.07620121 -0.33532733
000030 bd 06 09 bf 12 d9 9c 3f 00 9a ce 3f 53 3a 8f 3f
       -0.53525907 1.2253745 1.6140747 1.1189674
000040 98 e6 dd be 48 a8 2b 3f d3 8d 47 be 88 10 84 3e
       -0.43339992 0.6705365 -0.19487695 0.25793862
000050 ec 11 28 bf d4 88 17 3f f0 97 d8 3e 04 db 4e bd
       -0.65652347 0.5919316 0.4230342 -0.05050184
000060 26 cc 49 bf 13 0c 9b bf db c9 28 3f 97 c4 19 bf
       -0.7882713 -1.211306 0.65933007 -0.600656
000070 c3 9e 53 3e 7a 7a c5 be 04 45 e4 3f a0 4c 63 3f
       0.20666032 -0.38570005 1.7833562 0.88788795
000080 df dc 07 3f 77 63 3b bf 0f a2 73 3f 4e 3b 24 3f
       0.530714 -0.73198646 0.95169157 0.6415299
000090 95 8f 38 3e 16 53 b9 be c9 6e 23 bf 0c aa 67 3e
       0.18023522 -0.36196202 -0.6384092 0.22623461
0000a0 bd 71 99 bd 14 1b 4e 3f f5 84 34 be c4 f0 ff be
       -0.07492397 0.8051007 -0.17628844 -0.49988377
0000b0 eb eb 12 bc 88 9c 07 3f c0 80 40 3f 52 7a 97 3e
       -0.00896738 0.5297322 0.75196457 0.2958551
0000c0 15 6c 4c 3e dd ad fe 3e e7 1e 17 be aa a3 89 3e
       0.19963105 0.49742022 -0.14757882 0.26882678
0000d0 c1 9c c3 3e e7 93 83 bf 52 ab 6f be 19 3d ae be
       0.3820553 -1.0279511 -0.23405197 -0.3403099
0000e0 59 0d 34 bf b4 35 4d bf 54 88 ff 3f cf d6 23 bd
       -0.70332867 -0.8016007 1.9963479 -0.03999978

0.bias f4 [30]
000000 d5 4e 01 3f 23 1b 0b 3f 5c 73 a5 bf 0d 8c 13 be
       0.50510913 0.5433828 -1.292583 -0.14408894
000010 79 29 4d 3d b0 46 03 bf 71 38 1a bf 44 19 6b be
       0.05008838 -0.51279736 -0.6024237 -0.22958857
000020 d4 10 84 be 6a 3b 5f bf 72 91 cd 3d 47 09 75 3f
       -0.2579409 -0.87200034 0.10037507 0.9571728
000030 02 12 fe 3e c4 c4 86 3f ab 53 a2 3e b3 2e 41 bf
       0.49623114 1.0528798 0.3170446 -0.7546188
000040 ad 19 55 bf 56 20 9d be c8 56 63 3f 98 f2 0c 3f
       -0.83242303 -0.30688733 0.8880429 0.5505767
000050 25 65 67 3f 8b 41 56 3f 58 81 4f 3f cd 0b 20 bf
       0.9038871 0.8369376 0.8105674 -0.62518007
000060 57 41 8a 3f c3 63 50 bf 12 0b 0a 3f 88 8c 0b bf
       1.080119 -0.81402224 0.5392314 -0.5451131
000070 f8 05 a0 3f 27 ef 3a 3f
       1.2501822 0.7302117

2.weight f4 [30, 30]
000000 93 3f 23 be 77 99 8a be 3c a9 9d bd 56 d1 3c be
       -0.1594222 -0.2707021 -0.076982945 -0.1843923
000010 1a 18 af bb 14 82 8d 3d 8a bd b5 3e e9 17 b6 3c
       -0.0053434493 0.06909576 0.3549617 0.022228198
000020 5f d6 9b 3e dc fe 68 3e ae 6b 98 3d ff 5f ec bd
       0.3043699 0.22753471 0.07442413 -0.11541747
000030 a4 22 83 be 21 2c cd bd db 0e 3f be df 8a c9 bd
       -0.25612366 -0.100181825 -0.1865801 -0.09840941
000040 50 e2 80 bd d5 0c e4 3d 62 9a ec be 61 71 19 be
       -0.06293166 0.1113526 -0.46211535 -0.14984657
000050 d9 7d 92 3d 67 b8 07 be 7c b6 43 be f5 c3 91 3d
       0.0715291 -0.13253938 -0.19112581 0.07117454
000060 da 52 dc 3d 04 04 97 3e f7 b3 82 be b5 5a bf 39
       0.1075799 0.2949525 -0.25527927 0.0003649794
000070 fe cc 52 be 52 9b de 3c d7 fb 37 bd 57 73 ef 3e
       -0.20586011 0.027173672 -0.044917908 0.46767685
000080 05 e0 5b bd bc f6 a8 3e 03 5e a6 be 91 d0 3f 3d
       -0.05368044 0.33000743 -0.324936 0.046829764
000090 55 fa cf 3c 59 a8 5e bf 84 b9 93 3e c9 58 a6 3e
       0.025387922 -0.8697563 0.28852475 0.32489613
0000a0 0f ae 3f 3e e6 91 a8 bb 0c 2c 0f 3f de a1 00 bf
       0.18718742 -0.0051443456 0.55926585 -0.5024699
0000b0 fa a4 1c 3b cb 11 8b bf 9c cb 78 bd 2e e6 6b bf
       0.0023902045 -1.0864805 -0.060741052 -0.921481
0000c0 a3 6a 9e be e0 32 1e 3f 89 f4 4c bd 80 01 a5 3e
       -0.30940732 0.6179638 -0.050037894 0.32227707
0000d0 c9 cc e3 3d b8 a4 b2 be 15 a5 2b 3e 50 10 0e be
       0.11123044 -0.34891295 0.16762193 -0.1387341
0000e0 6e 3e 90 be 40 42 d3 3e 41 40 20 3f 18 35 ea be
       -0.2817263 0.41261482 0.62598044 -0.45743632
0000f0 36 a4 49 be 51 0d ba bd bc 5d 10 3b 28 4e b8 bd
       -0.19691548 -0.09084571 0.0022028526 -0.08999282
000100 fd 96 af be 28 fe 07 3e 53 e7 99 3e dd bb 28 3d
       -0.34294882 0.13280547 0.300593 0.041194785
000110 6b 82 df 3e b1 4b b0 3e 41 6a 74 3e 86 aa 8c be
       0.4365419 0.34432748 0.23868658 -0.2747385
000120 51 1e 7a be 81 a8 93 bd d2 ea b5 be 3a b4 dd bc
       -0.24425627 -0.07209874 -0.35530716 -0.027063478
000130 40 96 1e be d2 a5 47 3e 20 6e ff be 66 8d 3b bc
       -0.15487003 0.19496849 -0.49888706 -0.011447286
000140 2d 45 31 3e d6 00 2d be 55 b0 57 3d e9 40 0b 3e
       0.17311545 -0.1689485 0.052658398 0.1359898
000150 e1 66 7e bd 9f ed 4e 3e a2 fc 19 bf cc fa dd bd
       -0.06210983 0.20207833 -0.6015111 -0.10838851
000160 da 3b 19 be eb e9 b7 be f5 13 36 3e d2 45 f6 bc
       -0.14964238 -0.35920653 0.1778105 -0.03006259
000170 31 a7 95 3b ad 7b 11 be 7c 6d 01 3e 56 66 99 3e
       0.00456705 -0.14207335 0.12639421 0.2996089
000180 a1 c3 a5 3e 57 5c 94 bd 6b 58 0e 3e ab f1 32 be
       0.32375816 -0.07244175 0.13900916 -0.17475002
000190 12 ef bd bd 52 83 8a 3e e4 26 27 be 58 a9 29 be
       -0.09274115 0.27053314 -0.1632343 -0.16568506
0001a0 32 cc 1d 3e 87 97 14 be 02 65 ea 3d 13 eb 1e be
       0.15409926 -0.14510928 0.11445047 -0.15519361
0001b0 6d 75 d7 3e bd d2 7e bd e8 8d fa 3c 6b ff 3c 3e
       0.42081776 -0.062212694 0.030585244 0.18456809
0001c0 43 2a bc bc 56 be 8f 3d 17 42 46 be 8c 97 0c be
       -0.02296937 0.070187256 -0.19361149 -0.13729686
0001d0 5f 6b b5 bd 9d e5 20 3e cd 0b 43 3e b1 cc 9a be
       -0.0885837 0.1571259 0.1904747 -0.30234292
0001e0 82 fc a3 3e 2c a9 8b bd 3c 25 fc be 75 f6 b9 3e
       0.32028586 -0.06819376 -0.49247158 0.36320844
0001f0 b8 de 84 be 9f dd af 3d e2 b4 ff bc d8 a9 8d be
       -0.2595117 0.08587193 -0.031214181 -0.27668643
000200 b9 04 3f bd de 8e 2a bd c7 84 fe 3d e4 6d c5 be
       -0.046635363 -0.041640155 0.12427669 -0.38560402
000210 88 05 ec 3e fc 78 81 3d 9d 6e 3c be 67 de 0d 3e
       0.4609797 0.06321904 -0.1840157 0.13854371
000220 0a 54 bd bd 3a 99 a3 be 29 78 d0 bc dc e9 0b 3d
       -0.09244545 -0.3195284 -0.025447922 0.034158573
000230 33 98 7a 3e 64 60 e4 3d 99 44 33 bd 1f 9c ac bd
       0.24472122 0.111511976 -0.04376659 -0.08428215
000240 a2 34 9f 3d 12 a1 8b bd bf 0e 36 3e 38 45 98 3e
       0.07773711 -0.06817831 0.17779063 0.2974031
000250 74 98 83 be ef 4f 05 3e 83 00 02 3f b1 72 a6 3e
       -0.2570225 0.13018773 0.5078203 0.32509378
000260 42 46 49 be 49 5a ac 3e fa f6 2d bc 71 64 c6 3e
       -0.19655707 0.33662632 -0.010617966 0.38748506
000270 de 09 44 be ff 39 40 bf 3f 5a 0b 3d 43 e3 14 be
       -0.19144389 -0.75088495 0.034021612 -0.14539818
000280 d5 33 43 be b3 cf 92 be fa fd 4b 3f b6 c7 0c be
       -0.19062741 -0.28674087 0.7968441 -0.13748059
000290 b1 9b 89 bd 4d 99 07 bf 28 f2 8b bc 20 fe bf be
       -0.06719149 -0.52968293 -0.017083243 -0.3749857
0002a0 bf 9b 96 bc bf b2 4e 3b d1 7b ce bd 73 2b a1 3e
       -0.018384812 0.0031539646 -0.1008221 0.31478462
0002b0 3c 79 aa bd 16 cd b6 be b1 af 2d be 9b 0e d9 3d
       -0.08323905 -0.35703343 -0.16961552 0.10598489
0002c0 59 32 9f 3e 8b fc c5 3d 7b 90 13 3f aa 82 73 be
       0.310931 0.096673094 0.57642335 -0.23780313
0002d0 df f4 4d 3d 5a d9 22 3e bb 80 d7 bb 73 d7 db 3d
       0.050282355 0.15903226 -0.006576625 0.10734453
0002e0 60 4c 12 3e 58 94 3c 3f 73 fc 26 3d 21 89 2c be
       0.14286947 0.73663855 0.040768098 -0.16849186
0002f0 c5 be b8 bd 6a d5 33 3e 1d 80 22 bd f7 df 55 be
       -0.090207614 0.1756188 -0.03967296 -0.20886217
000300 12 73 01 3e eb b7 35 be b7 79 23 3e 71 5a d4 bd
       0.12641552 -0.1774594 0.159644 -0.10368813
000310 c2 a5 35 3d 4c 9f ad 3d 51 d9 49 bd 37 98 cf bd
       0.044347532 0.08477649 -0.049279515 -0.101364546
000320 32 d6 c7 be 8d 7b cd bd 86 57 b1 be 31 21 eb bd
       -0.39030606 -0.10033331 -0.34637088 -0.1148094
000330 03 5f 03 bf 8f 3f 2d 3e 60 4f 08 3e ae 40 8d 3e
       -0.5131685 0.16918777 0.13311529 0.2758841
000340 71 e7 29 be ca 1a a1 bd 5f 47 c4 3e ce b3 0a 3f
       -0.16592194 -0.07866438 0.38335702 0.5418061
000350 7d 78 be be f1 13 01 3f 93 5d 89 3e 28 a9 13 bd
       -0.372013 0.50421053 0.26829204 -0.03604999
000360 85 b0 a5 3d 60 34 78 bf 9c a3 b6 3b dc e9 89 3d
       0.08090309 -0.9695492 0.005573703 0.06734058
000370 8c 8c 16 be 12 5d cd 3d 12 b8 ad 3e 83 b4 ed bd
       -0.14702052 0.100275174 0.33929497 -0.116066955
000380 72 6c 0a 3d a3 99 43 bf 33 57 d1 bd 8d d5 a2 bf
       0.033794828 -0.76406306 -0.1022171 -1.272142
000390 4d 2c d4 3d f5 56 9f 3e 28 e2 22 be 3e dc 9b 3e
       0.10360012 0.3112103 -0.15906584 0.3044147
0003a0 00 a3 36 3e 55 36 fb be 14 4f 81 bd 72 ad cb bd
       0.17835617 -0.4906489 -0.06313911 -0.099451914
0003b0 29 cb d7 3c 1c 8e 21 3f d2 bc fe 3e ed 73 2a be
       0.026341991 0.63107467 0.49753433 -0.16645785
0003c0 63 85 2e be 7f 5e c2 3d 48 ad 0c be 99 97 dc bb
       -0.1704307 0.0949068 -0.13737977 -0.006731939
0003d0 4e 1e fe 3d a7 60 da 3e f4 29 2b 3e fa 70 a5 3e
       0.12408124 0.42651865 0.16715223 0.32312757
0003e0 d8 39 98 3e 0e 4c bf bd b1 cd a0 3d 9e 15 10 3e
       0.2973163 -0.09340678 0.078517325 0.14070746
0003f0 b2 ca 52 be ca 40 77 be ae c9 c1 3d da 51 ef bd
       -0.20585135 -0.24145809 0.094622955 -0.11685534

2.bias f4 [30]
000000 16 4c 72 be 06 ca 19 3c 11 e5 3f bc e8 d2 7e bd
       -0.23661837 0.009386545 -0.0117123285 -0.062212855
000010 68 b0 86 3d 0d 2d fa 3d 37 54 8d be 9a 67 5f 3d
       0.065766156 0.12215624 -0.27603313 0.05454216
000020 76 74 2f be f2 b6 71 3d 5f 96 89 bd 81 49 be 3c
       -0.1713427 0.05901236 -0.06718134 0.023228409
000030 96 0c 1b 3e 36 5b 92 bd 1a e6 42 3d 83 02 a7 bd
       0.1514152 -0.07146303 0.047582723 -0.08154776
000040 99 63 63 3c be 5a 23 be 40 ae 23 3e cf 82 a0 bc
       0.013878726 -0.15952584 0.1598444 -0.019593624
000050 86 41 ed 3d c1 ce a1 3e ed c8 59 bd b0 8f 80 be
       0.11584763 0.31603053 -0.053170133 -0.25109625
000060 1c 73 94 be ce 1b 59 3e f7 13 bb 3e 1c 9e 13 3e
       -0.2899407 0.21202013 0.3653867 0.14415783
000070 48 44 59 be f7 82 80 bd
       -0.21217453 -0.062749796

4.weight f4 [4, 30]
000000 10 e8 2b 3e dd f9 a9 3e 45 af 85 3e f6 87 9f bc
       0.16787744 0.33198443 0.26110283 -0.01947401
000010 9a 27 30 bd 6f ec 83 be ad e4 b1 bd 1d 0e 80 bb
       -0.043006517 -0.25766322 -0.086861946 -0.0039079324
000020 68 d0 5e 3d bf 74 41 be 64 54 ea bc d4 3a 80 be
       0.05439797 -0.18892191 -0.028604694 -0.25044882
000030 df 6e 9d 3e 4f ab b2 be f7 2c 84 be 76 54 84 3e
       0.3074865 -0.34896323 -0.25815555 0.2584569
000040 66 b0 8a 3d da 6c 95 3d 06 47 84 3e 30 5b 91 be
       0.067719266 0.072961524 0.25835437 -0.28389883
000050 c6 ac 83 3c cb 96 88 3e 1b f6 9d 3e 28 3b f7 3d
       0.016073596 0.26677546 0.30851826 0.1207183
000060 b3 c8 17 be 6d 7e 28 3e 68 29 c3 3c b9 c9 52 bd
       -0.14822654 0.16454478 0.023823455 -0.05146191
000070 c2 bc 3b 3e 03 1b 73 3e 15 c9 75 be e7 ca 62 be
       0.18333724 0.23740773 -0.24002488 -0.22147714
000080 a1 e8 be 3d c9 8a 27 3f ac f3 51 3b 10 d4 dd 3d
       0.09321714 0.65446144 0.003203611 0.10831463
000090 50 ec 06 3f 4d d9 27 3f c5 34 40 3f ee ec 8d be
       0.52704334 0.6556595 0.7508052 -0.27719826
0000a0 d7 7a 69 3e d9 e1 31 bf 4f fd 43 3f 31 09 1e 3d
       0.22800766 -0.6948524 0.76558393 0.038582984
0000b0 c3 03 26 bf 8a c2 38 bc 56 71 9a be fc e1 d9 3e
       -0.6484949 -0.0112768505 -0.30164593 0.42555225
0000c0 4d 97 19 3f 7d d4 02 bf c0 f2 84 bd 01 2a 5b 3f
       0.5999649 -0.5110548 -0.064916134 0.8561097
0000d0 cd e1 c9 3e 8b 75 bc 3e 4e e4 61 be eb 78 35 3f
       0.39430085 0.36808428 -0.22059748 0.7088763
0000e0 a6 08 01 3e 8e d9 21 3e 61 33 b3 be 6c 94 51 3e
       0.12600955 0.15805647 -0.35000136 0.20466775
0000f0 d9 26 55 3d 55 5f 43 3f 4f dd 2b be 4b 38 ca 3d
       0.052039 0.7631734 -0.16783641 0.09874018
000100 1b 27 06 bf 94 61 ec be 6b f2 b9 3c 8b 89 29 3e
       -0.5240342 -0.46168196 0.022698602 0.16556375
000110 2e 84 df 3d 65 1b 2a bf 77 fa e8 be f6 e5 64 3e
       0.10913883 -0.6644805 -0.4550359 0.22353348
000120 d7 be 0a 3e 85 98 12 be 44 5a b0 be 23 b8 8c be
       0.13549362 -0.14315994 -0.34443867 -0.27484235
000130 e5 91 03 be ed fd a0 be 1a 74 11 3f a4 d2 8b bd
       -0.12848623 -0.3144373 0.5681778 -0.06827286
000140 64 bb e3 be 52 2f 3d be 70 95 d4 3c d6 fb b7 3d
       -0.44478905 -0.18475083 0.025950164 0.08983581
000150 26 fc d5 3e 50 32 c3 be 2f 0e 5f bf d4 59 92 3e
       0.41793936 -0.38124323 -0.8713102 0.28584158
000160 c5 94 0e 3f cf 71 8c 3e ed 33 8b 3e 23 c5 f8 be
       0.55695754 0.2743058 0.27188054 -0.48587903
000170 af 75 2f 3e f9 8f b4 bd 3e 76 14 3e b8 24 3b 3e
       0.17134736 -0.08816523 0.14498231 0.18275726
000180 1c 2d 37 bd f8 1c d5 3e ae 99 2c 3e c8 5b a8 be
       -0.044720754 0.41623664 0.16855499 -0.32882524
000190 3d 0b b1 3d 06 7f 7c be 25 d2 c7 3c b3 f8 ce 3e
       0.08644722 -0.2465783 0.024392197 0.40424117
0001a0 a3 34 a4 be 86 4b 2c be 02 1c 99 bb e1 c3 92 be
       -0.3207141 -0.16825685 -0.0046725282 -0.2866507
0001b0 79 66 96 3d 4f 93 86 3d ee 1d 6c 3d 58 22 3a bd
       0.07343764 0.06571066 0.05764573 -0.04544291
0001c0 92 71 c6 bd 39 63 33 bf a4 4a 95 3e 51 f7 c8 bd
       -0.096896306 -0.70073277 0.2915851 -0.09812797
0001d0 8d cb a5 bc 7d 35 14 be 50 f9 94 be 18 06 b3 be
       -0.020238662 -0.14473529 -0.2909646 -0.34965587

4.bias f4 [4]
000000 39 69 af 3d a8 0c e8 3d 41 d0 34 be 1f c4 62 be
       0.085649915 0.11330539 -0.17657568 -0.22145127

0.weight f4 [30, 2]
000000 a8 5a 00 3f 1d d0 51 3f ea 0f 4b 3f b0 5d 8a bf
       0.5013833 0.8195818 0.7932116 -1.0809841
000010 53 4b 9f 3a 08 81 26 bf 8f 44 ec be 7d f5 94 3f
       0.0012153186 -0.65040636 -0.46146056 1.1637417
000020 36 6c 57 3f d6 4f d8 3d aa ca 16 3f e1 08 af be
       0.8414949 0.105621025 0.5890299 -0.34186462
000030 77 7c 93 3f 18 17 03 be 77 69 9e bf e6 36 03 3f
       1.1522359 -0.12801778 -1.2375935 0.51255643
000040 2b 44 3c 3f 91 85 0e be 40 46 3d bf fd b3 5a bf
       0.73541516 -0.13918139 -0.7393532 -0.8543089
000050 67 ba c0 bd f8 aa 7a 3f 9c 7a 1e 3e 70 dc 81 bf
       -0.094105534 0.9791713 0.1547646 -1.0145397
000060 72 52 61 3e 9f 2d 9f 3f 70 cc 17 bf 45 f8 29 bf
       0.22004107 1.2435797 -0.5929632 -0.66394454
000070 3a 90 d3 bd d3 74 89 3f 4f 52 16 3f 59 b3 10 3f
       -0.103302434 1.0738777 0.5871934 0.5652366
000080 58 7f bd be 37 72 88 3f 91 b9 f0 bc 0b 3b 8b 3f
       -0.37011218 1.0659856 -0.02938536 1.0877393
000090 9a 9e 86 be e6 f2 67 3f 9e b6 11 bf 6a 3f df 3e
       -0.26292878 0.9060501 -0.56919277 0.4360307
0000a0 28 68 b6 bd 6b d3 2b bf 67 5b 4c 3e 0b bc f2 bd
       -0.08906585 -0.67119473 0.19956742 -0.118522726
0000b0 1e 2d 37 3e 68 0d 40 bf 7c eb f2 3e 7f 92 05 3f
       0.17888305 -0.75020456 0.47445285 0.5217666
0000c0 33 2a 28 3e f1 b1 0a 3f b0 18 06 3f 63 bb b0 bf
       0.16422348 0.5417777 0.5238142 -1.3807186
0000d0 fc 2c 83 bf b3 00 ea 3e 8d 84 93 be a1 a4 e9 be
       -1.0248103 0.45703658 -0.28812066 -0.45633414
0000e0 5f 80 08 be 9e 23 66 3f f4 3a ca 3e 24 08 91 be
       -0.1333022 0.898981 0.39498103 -0.28326523

0.bias f4 [30]
000000 d8 63 67 3e 45 46 7c bf f4 34 18 bf cf cf 08 be
       0.22596681 -0.9854472 -0.594558 -0.13360523
000010 e7 ba 2e 3f 56 43 51 bf 3a e4 89 3f 63 4e 29 be
       0.6825394 -0.8174337 1.0772774 -0.16533808
000020 a0 e6 4d 3f 50 f9 cd be 03 26 4c bf e7 4a db bd
       0.8043003 -0.40229273 -0.797455 -0.10707646
000030 35 43 62 3f ad 50 68 3f 92 da 78 bf 60 5c d8 be
       0.883838 0.907481 -0.9720851 -0.42257977
000040 c9 51 de be 23 f7 6c 3f e1 4f 56 bf f7 51 84 bf
       -0.43421772 0.925646 -0.83715636 -1.0337514
000050 c8 91 85 3f e7 74 31 3f 41 46 38 3f d9 28 17 bf
       1.0435114 0.69319004 0.719822 -0.59046704
000060 94 88 b3 be 11 64 57 be 08 c6 d0 3f 03 a2 21 3f
       -0.35065138 -0.21034266 1.6310434 0.63137835
000070 63 6a 45 3f bf da 26 3f
       0.7711546 0.6517753

2.weight f4 [30, 30]
000000 a1 9f 93 bd 3f 9b 5e be 42 d4 04 bc 56 fc d6 3e
       -0.07208181 -0.21738909 -0.008107247 0.41989392
000010 25 bf 4e 3e 16 07 82 bd 0c fb 17 3f 8d 55 bd 3e
       0.20190103 -0.06349008 0.5936744 0.36979333
000020 05 b9 da 3e 51 05 7f 3e db 60 cb be 37 d8 c0 bd
       0.42719284 0.24904372 -0.39722332 -0.0941624
000030 05 ec 4e bd df ea 0d bc 79 fb c8 be 4e 8d 8f 3e
       -0.050518055 -0.008661955 -0.39254358 0.28037494
000040 ac 44 22 bd af da 2d be 96 c0 cb be 72 df 3c bf
       -0.03961627 -0.16977952 -0.3979537 -0.7377845
000050 17 a2 f9 3e 20 dd fa 3e 2a f1 ee 3e c8 17 03 bc
       0.48756477 0.4899683 0.4666837 -0.008001275
000060 93 a0 5d be 3d aa fd be f1 70 ca bc 27 fb 00 3d
       -0.21643285 -0.49543944 -0.024712058 0.031489518
000070 40 d5 eb ba 4b 8f 05 3f 98 c2 cf 3d 04 e9 19 be
       -0.0017992631 0.5217177 0.10144538 -0.15030295
000080 19 ba 40 be 84 16 a4 bd 67 ab 1a 3e e7 3c f9 3d
       -0.1882099 -0.08012107 0.15104447 0.12169819
000090 2a d3 24 3e 31 68 9b bd 8c e0 e2 3d 25 83 57 be
       0.16096178 -0.07588232 0.11077985 -0.21046121
0000a0 81 cc 0a be 44 4f 84 3d de 2d fe bd 0c 76 0c bc
       -0.13554575 0.06460431 -0.12411092 -0.008573066
0000b0 31 ec 9e bc 08 f4 ba 3d 3f ee 8d be 86 f9 16 3d
       -0.019399734 0.091285765 -0.2772083 0.036859058
0000c0 2d a9 1d be 26 e5 43 3e 38 e7 2f 3e 6b b4 fc bd
       -0.15396567 0.19130382 0.17178047 -0.123390995
0000d0 b6 1b 5c bc 80 d6 18 be c2 29 29 be 4b 92 5c 3e
       -0.013434341 -0.14925575 -0.16519836 0.21540181
0000e0 21 83 28 be 3b 9a f0 3d 89 b5 24 3e 12 2e 6b be
       -0.16456272 0.11748167 0.16084875 -0.22966793
0000f0 9f f9 4a 3e a7 0e 03 3e 94 84 8a be 9a 30 c8 bd
       0.19821785 0.12798558 -0.27054274 -0.09774895
000100 53 68 41 bd c2 66 d9 3d 57 f7 e3 bc 47 e1 94 be
       -0.047218632 0.106153026 -0.027827902 -0.29078123
000110 9f 60 c5 bd d7 90 fe be f9 6c a1 3e f4 02 2e 3d
       -0.0963757 -0.4971988 0.31528452 0.042483285
000120 6a 39 88 3d e4 65 33 be e1 01 1d 3f 45 84 fa 3d
       0.06651576 -0.17519337 0.6133099 0.1223226
000130 90 4b 3c bd 85 cb 3c 3e 0f 7f 02 3f 3a 2a dc 3e
       -0.0459705 0.18437012 0.50975126 0.43000966
000140 99 b1 98 be ae 55 83 bc 4b c5 0f bf f8 78 7b 3e
       -0.29822996 -0.016032066 -0.5616042 0.24557865
000150 c5 35 c3 3e 4a fa 76 3d de e4 27 be f3 67 80 be
       0.3812696 0.060297288 -0.163959 -0.25079307
000160 75 58 dc 3d f6 78 82 be f0 76 f8 3d f1 30 8d 3e
       0.10759059 -0.2548291 0.121320605 0.27576402
000170 ca 31 b1 bd 5d 4c 21 be 18 4a 33 be e2 eb f5 3b
       -0.08652075 -0.15751787 -0.17508733 0.007504926
000180 52 18 9c bd 09 75 2c be 7b 4f 29 be fd c6 6e be
       -0.07621826 -0.1684152 -0.16534226 -0.23318096
000190 f7 7c 11 be 6b 7f 11 3e db 34 57 3e 6d 3e 42 be
       -0.14207827 0.14208762 0.21016257 -0.18969126
0001a0 5c 56 39 be 64 4a f3 bd 44 b9 91 be c3 94 7a bd
       -0.1809935 -0.11879423 -0.2846166 -0.061177026
0001b0 bb fb 88 3c e6 2d 82 3e 1c a5 4f be 16 b7 56 be
       0.016721597 0.25425643 -0.20277828 -0.20968279
0001c0 3a c4 9a 3c 76 da 13 3e ae 61 08 3e 0d f5 a3 3e
       0.018892396 0.14438805 0.13318512 0.32022896
0001d0 c3 55 bd 3e b2 12 11 be 24 ca b9 bd 16 a0 61 3b
       0.36979493 -0.14167288 -0.090717584 0.0034427694
0001e0 78 cc 49 bc 67 97 74 3d d7 0f fd 3b 6b 29 10 bf
       -0.012316816 0.0597147 0.0077228355 -0.563132
0001f0 d6 2d 57 3e cc f9 1e 3e d6 e5 a2 3e df 9a 86 be
       0.21013579 0.15524977 0.31815976 -0.26290032
000200 a2 89 89 3e 4c 93 87 3d 7c bd cb be 44 a3 34 3f
       0.26862818 0.066198915 -0.39793003 0.70561624
000210 15 5e 52 3e 0c c0 c6 3d 31 79 1a bf 8d 7b 94 3d
       0.20543702 0.09704599 -0.60341173 0.07250128
000220 38 e7 1b bf b7 c4 12 3e 4c 1f 15 bf e8 e0 ad be
       -0.60899687 0.14332853 -0.5825088 -0.33960652
000230 d9 ec fb 3d 68 30 7b 3e c4 80 cf 3e c0 5c f2 bd
       0.123010345 0.24530184 0.40527928 -0.11834097
000240 30 13 8b be e7 eb 17 3f e6 76 cd bd 91 9e 10 3e
       -0.27163076 0.59344333 -0.10032444 0.14122988
000250 c2 cf b3 be b0 7a 42 3d 59 51 18 be 31 15 02 3e
       -0.35119444 0.047480285 -0.14874782 0.12703396
000260 af 42 af bd c2 6a 61 be 8d 4c e9 bc 4b 71 8c bd
       -0.08557641 -0.22013381 -0.028478885 -0.068575464
000270 f4 43 72 be c3 b9 71 3d c9 c3 02 3e 86 8b 33 bd
       -0.23658735 0.059015047 0.12769999 -0.04383423
000280 d7 98 87 bd 78 21 40 3e 7f 6a dd 3d 32 0b 63 3e
       -0.06620949 0.18762767 0.10811328 0.2217224
000290 4e 34 55 be 8c 93 ee bd 31 85 c8 3d 0b 08 b8 3d
       -0.20820734 -0.11649236 0.09791029 0.08985909
0002a0 5b 67 84 3d f2 6c 8c 3e bb 8d d6 bc 6b 51 ca bd
       0.06465026 0.2742687 -0.02619063 -0.098788105
0002b0 b6 76 9f bd 1a 36 dc 3d 71 c5 71 be fb a3 07 3e
       -0.07786314 0.107525066 -0.23610474 0.13246147
0002c0 3b 4e c4 3d 8a 34 d6 bd d9 05 0e be 33 eb e0 3d
       0.09585234 -0.1045924 -0.13869418 0.10982361
0002d0 55 79 0e bd 04 7d b4 3d a2 66 16 3e e8 be fe bc
       -0.03478368 0.08812907 0.14687589 -0.03109689
0002e0 87 09 28 be 2e 39 2d 3d 04 38 85 be 89 0d 43 3e
       -0.16409884 0.04229086 -0.260193 0.19048132
0002f0 d2 39 1e be ef 70 73 3e 8c 1c cf 3d 5c 90 4d be
       -0.15451744 0.2377355 0.10112867 -0.200746
000300 ee 23 85 3d 15 e3 3e be 99 a3 0e be cb 76 b1 3e
       0.06500994 -0.18641312 -0.13929595 0.34660944
000310 c4 57 fe bc 43 5d bc bd 85 02 40 be 4a 4a 95 bd
       -0.03104771 -0.09197476 -0.18750961 -0.0728956
000320 e0 92 50 bc aa 19 4a be e1 54 3b bd 3c e2 93 3e
       -0.01273033 -0.19736353 -0.045735244 0.2888354
000330 5c 1f 7b 3e 8d 63 82 be 47 c6 56 bd f5 3a c2 bc
       0.24523681 -0.25466576 -0.052435186 -0.023709754
000340 db dc ad 3c 5e ef 35 be 21 0e 8b bd 50 35 13 3d
       0.021223476 -0.17767093 -0.06789804 0.035939515
000350 6c 1c 02 be ab 2e 9f bd 04 8a b7 3d 32 15 e5 bd
       -0.12706155 -0.07772573 0.08961871 -0.11185683
000360 31 55 45 be ca 52 5c be fa 48 f1 bd 08 4d 03 be
       -0.19270779 -0.21515957 -0.11781497 -0.12822354
000370 b6 8a fb 3c 33 ef 5c bd 94 58 e3 3d 38 a7 87 3e
       0.030705791 -0.053939056 0.11100879 0.26494765
000380 53 db 39 be 51 45 33 3c b5 6f 74 3d 0b 1e ac bd
       -0.18150072 0.010941819 0.059676845 -0.08404168
000390 9d a5 22 3e 03 bf 7b bd 7d 46 06 3f 77 16 d5 3e
       0.15883489 -0.06146146 0.52451307 0.41618702
0003a0 75 d3 03 3d 8f 48 82 be 8c 19 bf be 5a b1 91 3e
       0.032184083 -0.25445983 -0.37324178 0.2845562
0003b0 41 2e ae 3d 8a cb 74 3e 73 dd 50 be 99 11 7f 3d
       0.08504916 0.23905769 -0.20396976 0.06227264
0003c0 32 41 4f 3d 6f 26 cd 3d 15 23 0b be 04 0c 8e 3c
       0.050599284 0.10017096 -0.13587601 0.017339714
0003d0 4e 37 18 bd 29 0c 9e bd e8 28 c8 bd aa 90 93 3c
       -0.037162118 -0.07717163 -0.09773427 0.018013317
0003e0 b4 35 17 bc e6 19 2a bd c1 a0 9b bd 19 99 ce 3c
       -0.009229112 -0.041528605 -0.07599021 0.025219487
0003f0 45 3c 9d bc f2 c6 2c be f0 8e 59 bc d6 b5 31 3e
       -0.019193778 -0.16872767 -0.013278708 0.17354521
