model_summon/ReconstructORI/Checkpoint_SEED42_LR0.001_HD30_HL2_Epoch5000_WithPhysics0_WithBatch0.pth (torch, 101687 bytes, 80 tensors)

0.weight f4 [30, 2]
0	0x3e704c78	0.2346667
1	0x3f639e0f	0.88913053
2	0xbe830175	-0.2558705
3	0x3f7fa423	0.9985983
4	0xbea90a7e	-0.33015817
5	0x3e7a13da	0.24421635
6	0xbe6c212d	-0.2305953
7	0x3f3b2a49	0.731114
8	0x3ec36e11	0.38169912
9	0xbf2e4b20	-0.6808338
10	0x3f9be307	1.2178658
11	0x3ec55de5	0.38548198
12	0x3f92ab17	1.1458462
13	0xbc60f70c	-0.013730776
14	0x3e608c74	0.21928579
15	0xbf1cfb35	-0.6132081
16	0x3fc2b459	1.5211288
17	0x3ee22074	0.44165385
18	0xbf425e1e	-0.7592486
19	0x3e83ac50	0.25717402
20	0xbbcef7ad	-0.0063161463
21	0xbef12707	-0.47100088
22	0xbec3fa13	-0.3827673
23	0x3f324cf5	0.6964868
24	0xbf17e002	-0.59326184
25	0xbf4fcbe7	-0.81170505
26	0xbf13e5bb	-0.57772416
27	0xbf48681f	-0.78283876
28	0x3e30e30e	0.17274114
29	0xbf80a30d	-1.0049759
30	0x3f53d78f	0.8275079
31	0xbf5dcd9a	-0.8664185
32	0x3e9965ef	0.29960582
33	0x3f19d875	0.6009591
34	0x3cdf95ca	0.027293105
35	0x3f1de677	0.61679786
36	0x3ea649ca	0.32478172
37	0x3f3489fb	0.7052304
38	0x3e9ae16e	0.30250114
39	0xbefb4eda	-0.49083596
40	0x3e0cd42e	0.13752815
41	0xbeae0c3d	-0.33993712
42	0x3d6dc4ff	0.0580492
43	0x3f5404d0	0.82819843
44	0x3ed96496	0.42459553
45	0xbf0c6831	-0.54846483
46	0x3f0cf9de	0.5506877
47	0x3ef01eba	0.46898443
48	0x3edbbb61	0.42916396
49	0xbf31d7fe	-0.694702
50	0xbf877a9c	-1.0584292
51	0xbeac2f08	-0.33629632
52	0xbf5f16e3	-0.871443
53	0x3f66b379	0.90117604
54	0xbca47d26	-0.020079207
55	0x3f3c078e	0.7344903
56	0x3e93a905	0.2883989
57	0xbd8376cf	-0.06419145
58	0x3e0958e8	0.13412821
59	0xbf5fcb9b	-0.8742005

0.bias f4 [30]
0	0xbef62529	-0.48075226
1	0xbf3a141b	-0.7268693
2	0x3d06a9aa	0.032876648
3	0xbf20a780	-0.62755585
4	0x3f0a8ffe	0.54125965
5	0xbf2880a9	-0.6582132
6	0x3f91602d	1.1357476
7	0xbf374426	-0.7158836
8	0xbf372eaf	-0.7155561
9	0xbf61bad3	-0.88175696
10	0x3f63aeee	0.88938797
11	0x3bd02d01	0.006353021
12	0x3fa12f5c	1.2592578
13	0xbebd238f	-0.36941192
14	0xbf878606	-1.0587776
15	0xbec8e6be	-0.39238542
16	0xbf48b83d	-0.78406125
17	0x3ea2d6ed	0.318046
18	0x3e3db72d	0.18526907
19	0x3f0331d4	0.51247907
20	0xbeaa2880	-0.33234024
21	0xbf184ee2	-0.59495366
22	0x3f41228a	0.7544333
23	0xbf2f8302	-0.6855928
24	0x3ee751a0	0.45179462
25	0xbd0e67ec	-0.034767076
26	0x3da5ce7f	0.08096027
27	0xbf10c86c	-0.5655582
28	0xbf30d2d1	-0.6907168
29	0x3ee62245	0.4494802

2.weight f4 [30, 30]
0	0x3c88e6e6	0.016711663
1	0x3c91cd65	0.017798135
2	0x3d2e1be2	0.04250706
3	0x3e5925bb	0.212058
4	0xbe6cf9b5	-0.2314213
5	0xbd35351c	-0.044240102
6	0x3e86e282	0.26344687
7	0x3db2bdc7	0.087276034
8	0x3cdc39e4	0.026883073
9	0xbe11f60b	-0.14254014
10	0x3c1bd4d8	0.009511195
11	0x3d88224a	0.06647165
12	0x3dd6cb29	0.104879685
13	0xbe1204f0	-0.14259696
14	0x3e0371b1	0.12836339
15	0xbe48b6cf	-0.19600986
16	0xbe8d74dc	-0.2762822
17	0xbe07f4b6	-0.13276944
18	0xbe3d5d64	-0.18492657
19	0xbe71dec9	-0.23620142
20	0x3e810db5	0.2520577
21	0x3d1a5615	0.03767975
22	0xbd906531	-0.07050551
23	0xbe8da09c	-0.27661598
24	0xbe5cd552	-0.2156575
25	0xbdedaad9	-0.11604852
26	0x3ddb9e0e	0.10723506
27	0xbe1f111b	-0.15533869
28	0xbe135b9c	-0.14390415
29	0xbe577694	-0.21041328
30	0xbdc2c829	-0.09510834
31	0x3ea78a37	0.32722637
32	0xbda456da	-0.08024378
33	0x3dc9c75d	0.09852479
34	0xbe98953b	-0.29801354
35	0xbe079126	-0.13238963
36	0x3edd470b	0.43218264
37	0xbea753d5	-0.32681146
38	0x3cb7e9f5	0.022450427
39	0xbee8ea02	-0.45491034
40	0x3f088d7c	0.5334089
41	0x3e9bcb32	0.30428463
42	0x3e30ac99	0.17253341
43	0x3e5790f9	0.21051396
44	0x3e91da07	0.28486654
45	0xbf03f861	-0.5155087
46	0xbef07867	-0.4696686
47	0xbe888e2e	-0.26670974
48	0xbe23fd6c	-0.16014642
49	0x3e23f8c7	0.1601287
50	0x3cff6bc5	0.031179318
51	0x3e0b97fb	0.13632195
52	0x3ea3b8fe	0.31977075
53	0xbf02bd0d	-0.5106972
54	0xbe4b26ad	-0.19838972
55	0xbf03a415	-0.51422244
56	0x3ef9c1e7	0.48780748
57	0x3d819f71	0.06329239
58	0xbe830aa0	-0.25594044
59	0xbef13711	-0.47112325
60	0xbe6b453e	-0.22975633
61	0xbea99130	-0.33118582
62	0xbdf52d5d	-0.11971543
63	0xbebbfbfa	-0.3671568
64	0x3eb3a065	0.3508331
65	0xbedc29be	-0.43000597
66	0x3f07529a	0.52860415
67	0xbc8cf8be	-0.017208453
68	0xbeacb818	-0.33734202
69	0xbeba917f	-0.3643913
70	0x3edb4bb1	0.42831185
71	0xbd61e6f3	-0.05515189
72	0x3ea05492	0.31314522
73	0xbe123db5	-0.14281352
74	0xbd1c081d	-0.038093675
75	0xbc95c9cd	-0.018284703
76	0xbe782d03	-0.2423592
77	0x3dd2012d	0.102541305
78	0xbd7b2a5a	-0.061319686
79	0x3e8293f8	0.25503516
80	0xbda66ed6	-0.08126609
81	0xbeacb134	-0.33728945
82	0x3eab0965	0.33405605
83	0xbe636d5f	-0.2220969
84	0x3e03982c	0.12851018
85	0x3cd7b8eb	0.026333293
86	0xbe3ab530	-0.1823318
87	0xbeee6b59	-0.46566275
88	0x3d0ddf29	0.03463665
89	0x3cddd777	0.02708028
90	0x3a8453ac	0.0010095737
91	0x3de26600	0.11054611
92	0x3d4ce676	0.050024472
93	0xbdc911bc	-0.09817836
94	0x3db0dc2e	0.08635746
95	0x3f0b6e3e	0.5446509
96	0x3eb83531	0.35978082
97	0xbe37c965	-0.1794792
98	0x3f42aa64	0.76041245
99	0xbe7b7cc3	-0.24559312
100	0x3ef7b721	0.48381904
101	0xbc985825	-0.018596718
102	0xbe545e1d	-0.20739026
103	0x3e9796cb	0.29607233
104	0xbc906d2c	-0.017630182
105	0xbe124775	-0.14285071
106	0x3d207f73	0.039184045
107	0xbcb6cf4e	-0.022315647
108	0xbd048f44	-0.03236319
109	0x3e5c4b5a	0.2151312
110	0xbe53522a	-0.20636812
111	0xbd9a5807	-0.07536321
112	0x3e8abfb8	0.27099395
113	0x3e887201	0.26649478
114	0x3cbdc6f6	0.023166161
115	0xbe79139b	-0.24323885
116	0xbc16bbb5	-0.009200026
117	0xbe5ec1a5	-0.21753557
118	0xbea0cba9	-0.3140538
119	0x3d9d573a	0.07682653
120	0x3ed5a478	0.41727042
121	0x3e8eb550	0.27872705
122	0xbe3a9cd4	-0.18223888
123	0x3d11f839	0.035637114
124	0xbdc265c0	-0.094920635
125	0x3e8a032a	0.2695554
126	0xbd9b5528	-0.07584602
127	0xbd4fc416	-0.05072411
128	0x3e4a7d31	0.19774319
129	0x3d7a2017	0.06106576
130	0xbe09a6f2	-0.13442591
131	0x3db340f7	0.087526254
132	0xbdee736b	-0.11643108
133	0xbf22f53d	-0.63655454
134	0xbb57012d	-0.0032807097
135	0x3ec3d29c	0.3824662
136	0x3e38b628	0.18038237
137	0x3e29e2a9	0.1659037
138	0x3e94fb77	0.29098102
139	0xbeb7ead5	-0.3592135
140	0xbe4f684e	-0.20254633
141	0x3ecd9056	0.40149182
142	0xbd4058e8	-0.046959788
143	0x3e794221	0.24341632
144	0xbd4c6b9f	-0.049907323
145	0xbc53bb02	-0.012923004
146	0xbe832d01	-0.25620273
147	0x3d1706aa	0.03687159
148	0xbe0f5db0	-0.14000583
149	0xbe9932ed	-0.29921666
150	0x3d64f97a	0.055901982
151	0xbdcabf65	-0.09899787
152	0x3d742eb4	0.059614852
153	0xbd8ccb48	-0.0687471
154	0xbd9a6b9a	-0.075400546
155	0xbf1fb1e5	-0.6238082
156	0xbf3af683	-0.730324
157	0x3cafa02c	0.02143868
158	0xbf08fd28	-0.53511286
159	0x3f03f09c	0.51539016
160	0x3d8bd482	0.06827642
161	0xbe07f844	-0.132783
162	0x3ec5a1fd	0.3860015
163	0xbe247d3d	-0.160634
164	0xbde42760	-0.11140323
165	0xbce2d368	-0.027688697
166	0xbe95878b	-0.29204974
167	0xbdbea7cc	-0.093093485
168	0x3e130a52	0.14359406
169	0xbdd18d44	-0.102320224
170	0x3dac88a0	0.08424497
171	0xbe3d7cf9	-0.18504705
172	0xbd342f0d	-0.043990184
173	0xbefbd858	-0.49188495
174	0x3b867ef6	0.0041044904
175	0x3f0e39da	0.55557024
176	0xbe0ae2a2	-0.13563016
177	0xbdf5cedb	-0.12002345
178	0xbda17f3f	-0.078855984
179	0xbe2fd81c	-0.17172283
180	0x3e73b6dc	0.23800224
181	0xbe0dfe36	-0.13866505
182	0x3e35f041	0.17767431
183	0x3e23ffcf	0.16015552
184	0x3e3db896	0.18527445
185	0x3deb0577	0.11475652
186	0x3eacdb10	0.3376088
187	0xbe1e8145	-0.15479
188	0x3e847109	0.2586749
189	0xbe7ba348	-0.24574006
190	0xbc2af977	-0.010435454
191	0xbdab463c	-0.083630055
192	0xbdf7f04c	-0.1210638
193	0xbe94e906	-0.29084033
194	0xbe46400c	-0.1936037
195	0x3b983a37	0.0046456116
196	0x3db4a316	0.08820169
197	0x3e8004fe	0.2500381
198	0x3e953c35	0.29147497
199	0xbd78154b	-0.06056718
200	0xbe15e18a	-0.14636818
201	0x3cd9a411	0.02656749
202	0xbe2f9071	-0.17144944
203	0x3dab54ca	0.083657816
204	0x3d1504fe	0.036381714
205	0xbe7245fd	-0.23659511
206	0xbe47042d	-0.19435187
207	0x3dcae255	0.09906451
208	0xbe48c360	-0.1960578
209	0xbda99eed	-0.08282266
210	0x3d69910f	0.057023104
211	0xba2b231a	-0.0006528363
212	0xbb5b9c64	-0.0033509964
213	0xbd6180ee	-0.055054598
214	0xbe29126c	-0.16510934
215	0x3de27011	0.11056531
216	0xbe6436de	-0.22286555
217	0xbd9aa77d	-0.07551477
218	0xbccf9f7d	-0.025344605
219	0x3db58933	0.08864059
220	0x3e9ac2a1	0.30226615
221	0x3d90c1b7	0.07068198
222	0xbe67629d	-0.22596212
223	0x3d03ac87	0.032146957
224	0x3e065883	0.13119702
225	0x3e029590	0.12752366
226	0x3e2fb123	0.17157416
227	0x3e626a0d	0.22110768
228	0x3c9a1b1b	0.018811753
229	0x3b912b8e	0.004430241
230	0xbe56a128	-0.20959914
231	0xbb0aacc3	-0.0021160103
232	0x3d9ccc34	0.07656136
233	0x3dfe7e20	0.124264
234	0xbe15ec54	-0.14640933
235	0xbc835b88	-0.016034856
236	0xbe5894df	-0.2115054
237	0xbe229771	-0.15878083
238	0xbe9dba40	-0.3080616
239	0xbd8c227f	-0.06842517
240	0x3e242be5	0.1603237
241	0x3d0e37e8	0.034721285
242	0xbdb79cf2	-0.08965482
243	0xbdd99835	-0.10624734
244	0x3d2e6829	0.042579804
245	0x3cb649af	0.022251932
246	0x3ed6a220	0.41920567
247	0x3d9f6cd7	0.077844314
248	0xbe039f3c	-0.12853712
249	0xbde331e1	-0.11093498
250	0xbf019b0d	-0.50627214
251	0x3d526185	0.051362533
252	0xbf140bec	-0.5783069
253	0xbe24c8a7	-0.16092168
254	0xbe86186a	-0.261905
255	0xbe93fdad	-0.28904477

2.bias f4 [30]
0	0x3da24742	0.079237476
1	0x3ef8f8ef	0.4862742
2	0x3e761954	0.240331
3	0x3e013d5c	0.12621063
4	0x3e406798	0.18789518
5	0xbe24df55	-0.1610082
6	0x3e5dc6a4	0.21657807
7	0x3e525d4b	0.20543401
8	0xbeaf0615	-0.34184328
9	0xbe8c0517	-0.27347633
10	0x3ea384de	0.31937307
11	0xbe7aa089	-0.24475302
12	0xbde5ded6	-0.11224143
13	0xbdfccd3c	-0.12343833
14	0xbe26c9da	-0.16287938
15	0xbe3581d7	-0.17725311
16	0x3e5e7e60	0.21727896
17	0x3e2a81dd	0.16651101
18	0x3dca1b0b	0.09868439
19	0x3daba373	0.08380785
20	0xbeb8f5d6	-0.36125058
21	0xbebe92e2	-0.37221438
22	0xbed0f9cb	-0.40815577
23	0xbeae3a0a	-0.34028655
24	0x3d36aa91	0.04459626
25	0xbd64cc40	-0.05585885
26	0x3e4186b8	0.18899047
27	0xbe7d4f74	-0.2473734
28	0x3e6117f5	0.21981795
29	0x3e917999	0.28413084

4.weight f4 [5, 30]
0	0xbd9c62b6	-0.07636015
1	0x3e2d0b13	0.16898756
2	0xbeb7b49e	-0.35879987
3	0x3d48ad83	0.0489936
4	0x3e4a3b2d	0.19749136
5	0xbd05ddad	-0.03268211
6	0x3e39e2b0	0.1815288
7	0x3e17553f	0.14778613
8	0xbe30207c	-0.17199892
9	0xbe9fce84	-0.31212246
10	0x3eaf5781	0.34246448
11	0xbe3bfa74	-0.18357259
12	0xbe15d31d	-0.14631315
13	0xbe87ee7a	-0.2654913
14	0xbe022dfd	-0.12712856
15	0x3e54af67	0.20770036
16	0xbd899876	-0.06718533
17	0xbe327785	-0.17428406
18	0x3e8ffda3	0.28123197
19	0xbdf41e2b	-0.119198166
20	0x3e6f35cf	0.2336037
21	0xbe0dec47	-0.13859664
22	0x3bac0c6a	0.0052505033
23	0xbb5e2d44	-0.0033901492
24	0x3d0c9ac4	0.034327284
25	0xbe79fbf0	-0.24412513
26	0x3e6ad85a	0.22934094
27	0x3e3841b9	0.17993821
28	0x3d692b29	0.056925926
29	0xbda4ae81	-0.080410965
30	0x3ed527b9	0.41631868
31	0x3e06426a	0.13111272
32	0xbf08c0f7	-0.5341944
33	0xbdb045f1	-0.0860709
34	0x3e8dfc7f	0.27731702
35	0x3e0e0e6d	0.1387269
36	0xbe7a96ff	-0.24471663
37	0xbdbbd9b7	-0.09172385
38	0xbeb0dbec	-0.34542787
39	0xbf0fcdfc	-0.5617368
40	0x3cee8ea7	0.029120756
41	0x3d9658bf	0.07341146
42	0x3ea4a628	0.32158017
43	0x3f1da892	0.6158534
44	0xbeb9a718	-0.36260295
45	0x3e5a1a97	0.21299206
46	0xbe22881b	-0.15872233
47	0x3cd70136	0.026245695
48	0x3e6e54be	0.23274514
49	0x3e413178	0.18866527
50	0x3e3ac53f	0.18239306
51	0x3e970615	0.29496828
52	0xbe16927a	-0.14704314
53	0x3e799aaa	0.24375406
54	0xbcbbc720	-0.022922099
55	0xbe58d38f	-0.21174453
56	0x3e500f03	0.20318227
57	0x3e52cc23	0.20585684
58	0xbea9b475	-0.3314549
59	0x3e36f793	0.1786788
60	0xbed3e1df	-0.41383263
61	0xbeea5de2	-0.45774752
62	0xbf15dd2f	-0.58540624
63	0xbf2bb947	-0.67079586
64	0x3e82504e	0.25451893
65	0x3f509e6f	0.8149175
66	0x3f146e6e	0.57981
67	0x3e272e55	0.16326268
68	0xbecb2a99	-0.39680937
69	0x3ebe9411	0.3722234
70	0xbb723761	-0.0036959278
71	0x3f4f2f17	0.8093123
72	0xbdb04c95	-0.08608357
73	0x3e8f0a70	0.2793765
74	0x3dab4181	0.08362103
75	0x3e976c8d	0.29575005
76	0xbe540479	-0.20704831
77	0x3e9168ef	0.2840037
78	0x3ee728c1	0.4514828
79	0x3ec2fa9d	0.38081828
80	0xbf470070	-0.7773504
81	0x3f1a6eb0	0.60325146
82	0xbea1650a	-0.315224
83	0x3ede0590	0.4336362
84	0xbdf81706	-0.12113766
85	0x3f0a1052	0.5393115
86	0xbe8664e4	-0.26248848
87	0xbe855c23	-0.26046857
88	0xbd5c5c47	-0.05379894
89	0x3f344071	0.7041083
90	0xbedc1be8	-0.4299004
91	0xbf549567	-0.8304047
92	0xbf243226	-0.6413902
93	0x3f6a3fce	0.9150361
94	0x3d474164	0.048646346
95	0xbf0af469	-0.5427919
96	0xbf1308ff	-0.574356
97	0x3f1549bc	0.58315635
98	0x3e69881a	0.22805825
99	0x3d5dea8e	0.054178767
100	0x3e58b892	0.21164158
101	0xbf37d4bf	-0.71809
102	0xbdf47366	-0.11936073
103	0xbd450594	-0.048101023
104	0x3f07f96d	0.5311497
105	0xbf55de61	-0.8354245
106	0xbe97bb31	-0.29635003
107	0x3f49d868	0.78845835
108	0xbed658ee	-0.41864723
109	0x3ef91a96	0.48653096
110	0xbf4e109f	-0.8049411
111	0x3f8953d9	1.0728713
112	0xbdd42bf0	-0.10359943
113	0xbf568e62	-0.8381101
114	0x3f88952f	1.0670527
115	0x3e49e618	0.1971668
116	0x3e452d7d	0.19255634
117	0x3f708e4c	0.9396713
118	0x3e23eab3	0.160075
119	0x3db08cea	0.08620627
120	0xbcb1a58a	-0.02168538
121	0xbd9acd81	-0.07558728
122	0x3e8ac6ae	0.27104706
123	0xbd0f804f	-0.035034474
124	0xbdda4482	-0.10657598
125	0xbd5e2cd0	-0.054241955
126	0xbe013884	-0.12619215
127	0xbe9eec05	-0.31039444
128	0x3eb100a5	0.34570804
129	0x3e69c3e3	0.22828631
130	0xbe8ec178	-0.2788198
131	0x3e34b610	0.17647576
132	0x3e06025f	0.13086842
133	0x3d808782	0.06275846
134	0xb9da9e04	-0.0004169793
135	0xbda3715e	-0.079806075
136	0x3e904af7	0.28182194
137	0x3e31d8d1	0.17367865
138	0xbe3dda16	-0.18540224
139	0x3e4b7f9d	0.198729
140	0xbc9d0ad2	-0.019170199
141	0x3d9398a3	0.072068475
142	0x3e7465c3	0.23866944
143	0x3dbbfdce	0.09179269
144	0xbe62f5b6	-0.22164044
145	0x3e8682b8	0.26271605
146	0xbe47c9c5	-0.19510563
147	0xbb99c947	-0.0046931836
148	0xbd6d5897	-0.057945814
149	0xbe39aaff	-0.18131636

4.bias f4 [5]
0	0x3e75f991	0.24020983
1	0x3ea306a8	0.31841016
2	0x3e65a1f1	0.22425057
3	0x3e90eaf9	0.2830427
4	0xbcd7d9b6	-0.02634893

0.weight f4 [30, 2]
0	0x3f125c2c	0.57171893
1	0x3f0dbb61	0.5536404
2	0x3e8767e1	0.2644644
3	0x3f2f5cb2	0.68500817
4	0xbe7faa3a	-0.2496728
5	0x3f2b8780	0.6700363
6	0xbea3477b	-0.31890473
7	0xbf5d256c	-0.86385226
8	0xbfb07421	-1.378544
9	0x3f06ee4e	0.52707374
10	0xbec5bbc1	-0.38619807
11	0xbdc420b9	-0.09576554
12	0xbea0516f	-0.3131213
13	0x3f01ed44	0.50752664
14	0x3f622df1	0.8835135
15	0xbf0b15dd	-0.54330236
16	0x3f9fe61e	1.2492101
17	0x3f9470c5	1.1596915
18	0xbef0ba0c	-0.47016943
19	0xbf0fd5d0	-0.56185627
20	0xbfe5927a	-1.7935326
21	0xbee5ae27	-0.4485943
22	0xbf191f3a	-0.5981327
23	0x3ed43eba	0.41454107
24	0xbe428a75	-0.1899813
25	0xbf1c1577	-0.6097025
26	0xbe75cb11	-0.24003245
27	0xbf360462	-0.7110044
28	0x3f6f2940	0.9342232
29	0xbe1076d2	-0.14107826
30	0xbef40691	-0.4766126
31	0x3eda47eb	0.42632994
32	0xbda1a097	-0.07891958
33	0x3f4f3e66	0.8095459
34	0x3ea5ac27	0.32357904
35	0x3f49487d	0.78626233
36	0xbf89d3c6	-1.0767753
37	0x3f35e671	0.7105475
38	0x3f372d5f	0.71553606
39	0xbf75205b	-0.95752496
40	0x3eb23a52	0.3481012
41	0x3f5c9fc6	0.86181295
42	0x3ebebbe0	0.37252712
43	0x3f0d053f	0.5508613
44	0xbe3cae5e	-0.18425891
45	0xbf4639a9	-0.7743173
46	0xbdf8f6a9	-0.12156422
47	0x3f0ae73f	0.54259104
48	0xbeb72ed8	-0.35777926
49	0x3f3d8f9b	0.7404725
50	0xbec10c57	-0.37704727
51	0x3f5e1244	0.8674662
52	0x3f203dc3	0.6259424
53	0x3e40ec78	0.18840206
54	0xbed16eab	-0.40904745
55	0x3f0d0098	0.5507903
56	0x3e0f0a18	0.13968694
57	0x3f1236ee	0.57115066
58	0xbd1ff6f8	-0.039053887
59	0x3f851896	1.0398128

0.bias f4 [30]
0	0xbee83252	-0.4535089
1	0xbd3430d2	-0.04399187
2	0x3f39f060	0.7263241
3	0xbda5d0d4	-0.080964714
4	0x3f211193	0.6291744
5	0xbf83fb90	-1.0311146
6	0x3eb7bab1	0.35884622
7	0x3e59bfb5	0.21264537
8	0xbeaa1757	-0.33220932
9	0x3f704f88	0.93871355
10	0x3e28f84f	0.16500972
11	0xbf702dde	-0.9381999
12	0xbc381549	-0.0112355435
13	0xbf2251a4	-0.63405824
14	0x3f2b1230	0.66824627
15	0xbdb2cf25	-0.08730916
16	0xbf42fca5	-0.76166755
17	0x3d6a6f86	0.057235263
18	0x3e1b16ff	0.15145491
19	0xbf050f0d	-0.5197609
20	0x3f3c3107	0.7351231
21	0xbe0fcc42	-0.14042762
22	0x3f5778a8	0.8416848
23	0xbe03e8dd	-0.12881799
24	0xbf88f122	-1.0698588
25	0x3f09b669	0.5379396
26	0x3f8cd923	1.1003765
27	0xbf585ef8	-0.8451991
28	0xbf2e5513	-0.6809856
29	0x3f86b30b	1.052339

2.weight f4 [30, 30]
0	0x3defd93f	0.11711358
1	0xbe023d1f	-0.12718628
2	0x3e291b4e	0.16514322
3	0xbb2c2aa9	-0.0026270545
4	0xbe0b246b	-0.13588111
5	0xbc02ed07	-0.007991082
6	0x3d968d6f	0.07351195
7	0xbd8e9b28	-0.069631875
8	0x3d2dd055	0.04243501
9	0xbdfa52c9	-0.12222821
10	0x3e1261b9	0.1429509
11	0x3e0905e6	0.13381156
12	0x3e05d99d	0.13071294
13	0x3d61cc29	0.055126343
14	0x3c6b1a78	0.014349572
15	0xbe1069bd	-0.14102836
16	0xbd1b72d9	-0.037951324
17	0xbd34a2a7	-0.04410043
18	0xbdca6af9	-0.09883685
19	0xbe89e5e7	-0.26933214
20	0x3dad3aff	0.08458518
21	0x3dd7ec0a	0.10543068
22	0xbe1ca749	-0.15298189
23	0x3cf9b26a	0.030480582
24	0x3e101cba	0.14073458
25	0x3e3a646f	0.18202375
26	0x3dd8a14f	0.10577642
27	0x3e4c9b43	0.19981103
28	0xbde25535	-0.11051408
29	0x3da3401a	0.07971211
30	0x3da75028	0.081695855
31	0xbe9d3e1f	-0.30711457
32	0xbf2c438c	-0.6729057
33	0x3e4ef025	0.20208795
34	0xbe09e15c	-0.13464874
35	0x3e6e12a0	0.23249292
36	0xbea506df	-0.32231805
37	0x3e76d228	0.24103606
38	0xbd3139a5	-0.043267865
39	0xbd2cdbb1	-0.0422017
40	0x3e418714	0.18899184
41	0x3ecc2c21	0.39877418
42	0x3d4b2c7b	0.049602967
43	0x3e7d3010	0.24725366
44	0x3e30de1f	0.17272232
45	0xbe1199bb	-0.142188
46	0x3e1d5c45	0.1536723
47	0xbdafc2f8	-0.08582109
48	0xbe49d554	-0.19710284
49	0x3ee1860b	0.4404758
50	0xbe9689fa	-0.29402143
51	0xbe38772c	-0.1801421
52	0x3d9e9677	0.07743543
53	0xbea0365b	-0.3129147
54	0x3d2c26d7	0.042029228
55	0xbeb0cfbb	-0.34533486
56	0xbe281a1b	-0.16416208
57	0xbd076d00	-0.033062935
58	0xba8dd708	-0.0010821531
59	0xbedf1ed5	-0.4357821
60	0xbe275e51	-0.16344573
61	0x3d26b2e0	0.040697932
62	0x3e1f8334	0.15577394
63	0xbdf5f65d	-0.12009881
64	0x3db452c2	0.08804847
65	0x3e135644	0.14388376
66	0x3d309e57	0.043119755
67	0x3c9806bb	0.018557897
68	0x3e2edec5	0.17077167
69	0xbe16a9cb	-0.14713208
70	0x3e21c55f	0.15797947
71	0x3e799533	0.24373321
72	0x3d6ac140	0.057313204
73	0x3e8aded9	0.27123144
74	0xbe821c78	-0.25412345
75	0x3c9836dd	0.018580848
76	0xbde8fc9f	-0.11376309
77	0xbcc35812	-0.023845706
78	0x3e1ce011	0.1531985
79	0xbdd9f502	-0.10642435
80	0xbe442ca1	-0.1915765
81	0xbdf81767	-0.12113839
82	0x3dab06cd	0.083509065
83	0xbe40644e	-0.18788263
84	0xbd9bec6d	-0.07613454
85	0x3ca97239	0.020684348
86	0xbe852d00	-0.26010895
87	0x3d9bb3bb	0.0760264
88	0x3daa1cc3	0.08306267
89	0x3d89a5aa	0.06721051
90	0x3e61672d	0.22012015
91	0x3d3f62c9	0.04672507
92	0x3ea12751	0.3147531
93	0xbe45c9f3	-0.19315319
94	0xbe3f6417	-0.18690525
95	0x3dfb4008	0.12268072
96	0x3e854293	0.26027355
97	0xbcb6246f	-0.02223417
98	0x3ed2cfbf	0.41174123
99	0xbdb6bd80	-0.08922863
100	0xbe8021c3	-0.25025758
101	0x3e9bb065	0.30408016
102	0xbebe17e0	-0.3712759
103	0xbe432758	-0.19057977
104	0x3eb77a58	0.35835528
105	0xbe02b21a	-0.12763253
106	0x3e8963eb	0.26834044
107	0x3e0fbf0c	0.14037722
108	0xbf2001e6	-0.62502897
109	0x3f33a102	0.70167553
110	0x3ef113f4	0.47085536
111	0x3eee5b48	0.46554017
112	0xbe2babf1	-0.16764809
113	0x3edbc5f0	0.42924452
114	0xbddf0226	-0.10889082
115	0xbe30fc99	-0.17283858
116	0xbde79eae	-0.113095626
117	0xbd8b27a1	-0.06794668
118	0x3e059f6a	0.13049093
119	0x3f2a336b	0.6648471
120	0xbda62ce6	-0.081140324
121	0xbe507736	-0.20357975
122	0x3c2d2d74	0.010569919
123	0x3a1ec297	0.0006056218
124	0xbd8c7851	-0.06858886
125	0xbd382823	-0.044960152
126	0xbc8d1d4c	-0.017225884
127	0x3d014d28	0.031567723
128	0xbe115149	-0.14191164
129	0x3e48fb97	0.19627224
130	0x3d8598d1	0.06523288
131	0x3cf7b0ad	0.030235613
132	0x3d9ba864	0.07600477
133	0xbdba289a	-0.090897754
134	0xbefd2064	-0.49438775
135	0xbd4e65c6	-0.050390027
136	0xbe4f7290	-0.20258546
137	0xbe03e5ee	-0.1288068
138	0x3d5f60bf	0.054535624
139	0xbe003fc4	-0.12524325
140	0xbdab19d3	-0.08354535
141	0xbd9e8b31	-0.077413924
142	0x3d315ed6	0.043303333
143	0xbe15e866	-0.14639434
144	0x3e5d3728	0.21603072
145	0xbd8fe2d8	-0.07025689
146	0x3cd9bbed	0.026578868
147	0x3e0de47c	0.13856691
148	0xbe916a77	-0.2840154
149	0xbe045b7c	-0.12925524
150	0xbb3ae654	-0.0028518634
151	0xbdcb55d6	-0.09928481
152	0x3e7064cd	0.23475952
153	0xbd36b22c	-0.04460351
154	0x3eb6f182	0.3573113
155	0xbe03fbd9	-0.12889041
156	0x3e563985	0.2092038
157	0xbca79747	-0.020457877
158	0xbe00a9bc	-0.12564749
159	0x3e8123c3	0.25222597
160	0xbeb0c77a	-0.3452719
161	0xbe0380d5	-0.12842114
162	0xbdd3b17f	-0.10336589
163	0xbe60902b	-0.21929996
164	0x3e8f6b94	0.28011763
165	0x3dfe279b	0.12409898
166	0xbc4c6dae	-0.012477322
167	0x3dcc6bcd	0.09981499
168	0x3e3660df	0.17810391
169	0xbdb59ffb	-0.088684045
170	0x3e5e6840	0.21719456
171	0x3e1d096c	0.15335625
172	0x3e721f81	0.2364483
173	0xbdfd8594	-0.12378994
174	0x3eb00599	0.3437927
175	0xbe59a925	-0.2125593
176	0x3de63366	0.11240272
177	0x3d4ddb22	0.05025781
178	0xbed2cad1	-0.41170362
179	0xbe1c70e8	-0.15277445
180	0xbd84e28e	-0.064885244
181	0x3e34bc0b	0.17649858
182	0x3ecf1128	0.40442777
183	0xbe96f95c	-0.2948712
184	0xbe56c4dc	-0.20973533
185	0x3dd0fb71	0.10204209
186	0x3e913396	0.2835967
187	0xbe646943	-0.22305779
188	0x3e46097a	0.19339553
189	0xbd635679	-0.05550239
190	0xbe02919d	-0.1275086
191	0x3e7a10f6	0.24420533
192	0xbcc6eadd	-0.024281913
193	0x3ddfbea7	0.10925036
194	0xbeefe70f	-0.4685597
195	0x3e4737ab	0.1945483
196	0x3ea23a5c	0.3168515
197	0x3d94c972	0.07264985
198	0x3e8b07ce	0.27154392
199	0xbea4404f	-0.32080314
200	0xbdde7f60	-0.108641386
201	0x3e9b1c07	0.3029482
202	0xbe3687c9	-0.17825235
203	0x3e7ec62a	0.24880281
204	0x3f0f39ca	0.55947554
205	0x3e79038e	0.24317762
206	0xbd8246f9	-0.06361193
207	0x3ecfeaa5	0.40608707
208	0x3e8a8ea2	0.27061945
209	0xbe27d75b	-0.16390745
210	0x3dc51254	0.096226364
211	0xbc64f7fe	-0.013975142
212	0x3e4ae4fb	0.19813912
213	0xbcad1cd8	-0.021131918
214	0xbdae253c	-0.08503196
215	0xbe2b24a3	-0.16713195
216	0x3e301d6e	0.17198727
217	0xbe3f9ee9	-0.18712963
218	0xbd930d6d	-0.07180295
219	0xbdba159b	-0.09086152
220	0xbd4a925e	-0.049455993
221	0xbd23e53d	-0.04001354
222	0x3dcd74ec	0.10032067
223	0xbd54545c	-0.051838264
224	0x3ea3a049	0.31958225
225	0xbd104b98	-0.03522834
226	0xbdf5a3ec	-0.11994156
227	0xbd9ca6d8	-0.076490104
228	0xbdab4269	-0.08362276
229	0xbe559d52	-0.20860794
230	0xbe36b1bd	-0.1784124
231	0xbe21e761	-0.1581092
232	0x3cacfa86	0.021115553
233	0x3e0e7d8f	0.13915084
234	0xbd71516e	-0.058915548
235	0x3e792eb4	0.24334222
236	0x3da1baaf	0.07896935
237	0xbdc13846	-0.094345614
238	0xbdcb1eeb	-0.099180065
239	0x3e069e45	0.13146313
240	0xbe097cb9	-0.13426484
241	0x3e201b00	0.156353
242	0x3ef8d7d8	0.48602176
243	0xbd0ddeca	-0.034636296
244	0x3eccde2f	0.40013263
245	0xbe5a7175	-0.21332343
246	0x3eeccbc4	0.4624921
247	0xbe27ec34	-0.16398698
248	0x3e221e61	0.15831901
249	0xbc2118cf	-0.009832575
250	0x3dccf003	0.10006716
251	0x3d5dbf5e	0.05413758
252	0xbc402736	-0.011728099
253	0x3c20dd98	0.009818457
254	0xbe529690	-0.20565248
255	0x3e9742cd	0.29543152

2.bias f4 [30]
0	0x3df49888	0.119431555
1	0xbedc0a92	-0.42976815
2	0xbe7a5942	-0.24448112
3	0xbe39369d	-0.1808724
4	0x3dedab38	0.11604923
5	0x3e594baf	0.21220277
6	0xbc23078c	-0.00995053
7	0xbd8e5416	-0.06949632
8	0x3dc37b80	0.0954504
9	0x3eb88e6b	0.36046156
10	0x3e86e45f	0.26346108
11	0xbde964af	-0.11396157
12	0xbe11dbe1	-0.14244033
13	0xbea82344	-0.32839406
14	0x3e9a6c73	0.30160865
15	0xbef5231f	-0.47878358
16	0x3e8c0a56	0.27351636
17	0xbe769f34	-0.24084169
18	0xbeee8ee7	-0.465934
19	0x3da10c61	0.07863689
20	0x3e48c217	0.1960529
21	0xbef455a6	-0.47721595
22	0xbeb5dc8e	-0.35519832
23	0xbf1f36aa	-0.62192786
24	0xbed72846	-0.42022914
25	0xbf21c98a	-0.6319815
26	0xbe878fa2	-0.2647677
27	0x3d9fa485	0.077950515
28	0xbeb253bb	-0.34829506
29	0xbdadc34d	-0.08484516

4.weight f4 [5, 30]
0	0xbe678146	-0.22607908
1	0x3d4611a8	0.048356682
2	0x3da2dfe7	0.07952862
3	0x3e0781ef	0.1323316
4	0x3e4379ad	0.19089384
5	0x3db03037	0.08602946
6	0xbe1860ba	-0.14880648
7	0xbe36805f	-0.17822407
8	0xbdbff181	-0.09372235
9	0xbdf22475	-0.1182336
10	0xbda0f716	-0.07859628
11	0x3e6f7070	0.23382735
12	0x3e6deece	0.23235628
13	0x3e12da45	0.14341076
14	0xbe11b309	-0.14228453
15	0xbe916891	-0.2840009
16	0x3e033d0a	0.12816253
17	0x3da03a91	0.07823671
18	0x3e3375e4	0.1752544
19	0xbe811550	-0.25211573
20	0x3e73db35	0.2381409
21	0x3c9b267b	0.018939247
22	0xbec2e10d	-0.38062325
23	0x3e1dbcb9	0.15404023
24	0x3e386d39	0.18010415
25	0x3e06c01e	0.13159224
26	0x3e49e8d2	0.1971772
27	0xbd9ba433	-0.07599678
28	0xbe04e701	-0.12978746
29	0xbe23f11e	-0.16009948
30	0xbd8e6937	-0.06953662
31	0xbef80e87	-0.48448583
32	0x3e4efed8	0.20214403
33	0x3e9e3081	0.3089638
34	0xbe75735f	-0.23969792
35	0xbdaabc48	-0.08336693
36	0xbe4761d8	-0.19470918
37	0x3da4f5a6	0.08054666
38	0xbece6366	-0.4031021
39	0x3e85a69a	0.2610367
40	0xbe3e7bbb	-0.18601887
41	0x3e951e4e	0.29124683
42	0x3e93c0a0	0.288579
43	0xbe1af103	-0.15131001
44	0xbe3eda78	-0.18638027
45	0xbf390dba	-0.7228657
46	0xbd7b4c45	-0.061352033
47	0xbe095bac	-0.13413876
48	0xbddb4d89	-0.10708148
49	0x3d41fe5b	0.047361713
50	0xbe97cb3e	-0.2964725
51	0x3e8ac1c0	0.27100945
52	0xbcce12a1	-0.025155367
53	0x3f11c65b	0.5694329
54	0x3bb85bfc	0.0056261998
55	0xbef5f857	-0.4804103
56	0x3d96dff8	0.073669374
57	0xbe8bfc07	-0.2734072
58	0xbe8dc2e2	-0.27687746
59	0x3e03a2ed	0.1285512
60	0x3e00338c	0.12519664
61	0x3d8d1750	0.06889212
62	0xbec887bd	-0.3916606
63	0xbf2f7b70	-0.68547726
64	0xbdaf2c5b	-0.08553382
65	0x3dabb822	0.0838473
66	0xbeea2953	-0.45734653
67	0xbd969985	-0.073535
68	0x3f1351aa	0.57546484
69	0xbe40b15a	-0.18817654
70	0xbea2abee	-0.31771797
71	0xbefa8f12	-0.4893728
72	0xbf41fe82	-0.75778973
73	0x3e47cb49	0.19511141
74	0xbda3dfbd	-0.08001659
75	0x3e607f41	0.21923544
76	0x3ce6e8cb	0.028187176
77	0x3f4fa069	0.8110414
78	0xbcf1590b	-0.029461404
79	0x3d20e9d7	0.039285507
80	0xbecda8d3	-0.40167865
81	0xbee3c07a	-0.44482785
82	0xbf947be1	-1.1600305
83	0xbf146536	-0.57966936
84	0xbf8a4fee	-1.0805643
85	0xbe0df09e	-0.1386132
86	0xbebeb2cb	-0.37245783
87	0xbe3818d5	-0.17978223
88	0x3d75bb27	0.059992936
89	0x3f25206c	0.64502597
90	0x3d47673a	0.04868243
91	0xbdc0cbb6	-0.09413855
92	0xbec425bf	-0.38310048
93	0x3df6287c	0.120194405
94	0x3d706510	0.05869013
95	0x3f293e74	0.6611092
96	0xbf0b7ab6	-0.5448412
97	0xbee2ff5a	-0.44335443
98	0xbe45a957	-0.1930288
99	0x3e8b06b4	0.27153552
100	0x3f588bd9	0.8458839
101	0x3e8079fc	0.25093067
102	0xbf19e95e	-0.60121715
103	0xbed936cd	-0.42424622
104	0xbefc3e25	-0.49266163
105	0xbe8d1585	-0.2755548
106	0xbeed9fb1	-0.46410897
107	0xbf0118d1	-0.5042849
108	0xbf3a829a	-0.7285553
109	0x3e82d581	0.25553516
110	0xbf243000	-0.6413574
111	0xbd315163	-0.043290507
112	0xbf6efc6d	-0.9335392
113	0xbf171d26	-0.5902885
114	0x3ec5969a	0.38591462
115	0x3e445394	0.19172508
116	0x3f39f93b	0.7264592
117	0xbe8f12a5	-0.27943912
118	0x3f3e56bc	0.74351096
119	0x3eb0f5d4	0.34562552
120	0xbdeade11	-0.11468137
121	0xbe867fbc	-0.2626933
122	0xbe46e3ff	-0.19422911
123	0x3c78b398	0.015179537
124	0xbe69f3d0	-0.22846913
125	0xbe14effe	-0.14544675
126	0xbdfe08f8	-0.124040544
127	0x3e5a618c	0.21326274
128	0x3dfa1354	0.12210718
129	0x3e35c366	0.1775032
130	0xbde47733	-0.11155548
131	0xbd6f9beb	-0.058498304
132	0x3d9c1e1f	0.07622933
133	0xbe1ebf35	-0.15502627
134	0xbd37584d	-0.044761945
135	0xbd95b45c	-0.073097914
136	0xbcc8ad24	-0.024496622
137	0xbe7343de	-0.23756358
138	0x3e3bca74	0.18338948
139	0x3e1be490	0.15223908
140	0x3d2e9c62	0.042629607
141	0x3d55c3e9	0.052188788
142	0x3d047dfe	0.032346718
143	0x3e6709b2	0.22562292
144	0xbcf6afe6	-0.030113172
145	0x3e6903f6	0.22755417
146	0x3e1c25c7	0.15248786
147	0xbe852cfa	-0.26010877
148	0xbd5e40d6	-0.05426105
149	0x3e2019a6	0.15634784

4.bias f4 [5]
0	0xbd99f759	-0.07517881
1	0xbeb10b7e	-0.3457908
2	0x3e024860	0.12722921
3	0xbc6dab06	-0.014506107
4	0xbe13687c	-0.14395326

0.weight f4 [30, 2]
0	0xbfa02f9a	-1.2514527
1	0x3d7a84f8	0.061161965
2	0xbda9fa3e	-0.08299683
3	0x3f54e45a	0.83160937
4	0xbdfbf086	-0.123017356
5	0x3df76e88	0.12081629
6	0x3ef72b65	0.48275295
7	0x3f6e141d	0.9299944
8	0x3daa0d56	0.08303325
9	0x3f5d3ceb	0.8642108
10	0x3eaacf2e	0.3336119
11	0xbf92d392	-1.1470816
12	0x3f283a23	0.6571371
13	0xbedfff9e	-0.43749708
14	0x3f6ba398	0.920465
15	0x3f8c460e	1.0958879
16	0xbe7ef2fd	-0.2489738
17	0x3f903820	1.1267128
18	0xbf2b6b4e	-0.6696061
19	0x3f8b3709	1.087617
20	0x3f965cf6	1.174712
21	0xbddfd346	-0.10928969
22	0xbfb1fc7a	-1.3905175
23	0xbdcf61f6	-0.101261064
24	0xbf0bed29	-0.5465875
25	0x3da555d2	0.080730096
26	0xbfb474f0	-1.4098186
27	0xbe68eda6	-0.22746906
28	0x3e1d83e2	0.1538234
29	0xbef918e6	-0.48651809
30	0xbf84e242	-1.0381548
31	0xbf253fb8	-0.6455035
32	0xbf779e3c	-0.9672582
33	0xbf34687e	-0.7047194
34	0xbe3c5f15	-0.18395646
35	0x3f7d7a2b	0.9901454
36	0x3faa1f3c	1.3290782
37	0xbf7b99cb	-0.98281544
38	0x3e57dc34	0.21080095
39	0xbf6b48a5	-0.9190772
40	0xbf43dd1b	-0.76509255
41	0xbda6a0d7	-0.081361465
42	0x3c99b208	0.01876165
43	0xbf89362e	-1.0719659
44	0xbfba55bf	-1.4557418
45	0xbf7d7754	-0.99010205
46	0x3f8cf605	1.1012579
47	0x3ed2ba6c	0.41157854
48	0xbf14005a	-0.57813036
49	0xbf20536d	-0.626273
50	0xbfa83f4c	-1.3144317
51	0xbf83fa80	-1.0310822
52	0xbdb4a546	-0.08820586
53	0x3f2ad24c	0.6672714
54	0x3f050b39	0.5197025
55	0xbeb85657	-0.36003372
56	0x3e115b5e	0.1419501
57	0xbf781730	-0.9691038
58	0xbf9fb387	-1.2476662
59	0x3ea4a6e1	0.32158569

0.bias f4 [30]
0	0xbf819a37	-1.0125188
1	0x3f06af04	0.526108
2	0x3f7d800a	0.990235
3	0xbee70367	-0.45119783
4	0xbf30bcc4	-0.69038033
5	0x3ee0a84a	0.43878394
6	0xbf7a3178	-0.97731733
7	0x3f4e2ff0	0.80541897
8	0xbf01d812	-0.5072032
9	0x3f083f82	0.53221905
10	0xbf9e914e	-1.2388093
11	0xbf280316	-0.6562971
12	0xbd0ecc81	-0.034863
13	0x3ecfd62c	0.40593088
14	0x3f5b7ee0	0.8574047
15	0x3f7f3c71	0.997016
16	0x3e8c79f9	0.27436808
17	0xbf0e406e	-0.5556706
18	0xbd62da71	-0.055384103
19	0xbf3f6f07	-0.7477879
20	0x3e858c58	0.26083636
21	0xbf8b6607	-1.0890511
22	0xbc2091d4	-0.009800393
23	0x3f0e4a1f	0.5558185
24	0xbea5d118	-0.32386088
25	0x3f598fa5	0.8498481
26	0x3d77d42d	0.06050508
27	0x3f296e42	0.66183865
28	0x3f2fe6bc	0.6871145
29	0xbf108e01	-0.5646668

2.weight f4 [30, 30]
0	0x3f1828b9	0.5943714
1	0xbce07210	-0.02739814
2	0xbd71ba76	-0.059015714
3	0xbef761f1	-0.4831691
4	0xbd56f0f6	-0.052475892
5	0x3e03d500	0.12874222
6	0x3c53361b	0.012891318
7	0x3e36e359	0.17860164
8	0xbe69bc50	-0.22825742
9	0xbe5d3b77	-0.21604715
10	0xbe1af153	-0.1513112
11	0x3ee3b7c7	0.44476148
12	0x3f3198c2	0.69373715
13	0xbe126623	-0.14296775
14	0xbe4ec6f3	-0.2019308
15	0x3ebeaaed	0.3723978
16	0x3ed82d65	0.42222133
17	0xbd45352c	-0.04814641
18	0x3ec6731f	0.38759705
19	0xbda372e0	-0.07980895
20	0x3f40b381	0.752739
21	0xbdae8284	-0.08520988
22	0x3ee97fd6	0.45605344
23	0xbdb88ab1	-0.09010828
24	0x3dd740ab	0.10510381
25	0x3e6883ab	0.22706477
26	0x3d829f69	0.06378061
27	0xbdfc2dc7	-0.12313419
28	0x3edbcd02	0.42929846
29	0xbed019e8	-0.40644765
30	0x3efe2fca	0.49645835
31	0xbf0376be	-0.5135306
32	0xbea07b18	-0.31343913
33	0xbe96e2bc	-0.2946986
34	0x3d2f7132	0.04283256
35	0xbd5419cf	-0.051782425
36	0x3ebbbc71	0.36667207
37	0x3dd5b08d	0.10434065
38	0xbd9dbc2e	-0.07701908
39	0xbeed8504	-0.46390545
40	0x3c7ceab1	0.015436814
41	0xbd86f390	-0.065894246
42	0x3e2d8217	0.16944157
43	0xbecaf184	-0.39637387
44	0xbe687098	-0.22699201
45	0x3e9054df	0.28189752
46	0x3d09ff96	0.03369101
47	0x3b017aeb	0.0019757103
48	0x3eaf26ad	0.34209195
49	0x3ef06ebf	0.46959493
50	0xbe5bec5e	-0.21476886
51	0x3f174e7b	0.59104127
52	0xbd9b15fd	-0.07572553
53	0xbb2017f5	-0.0024428342
54	0x3daf3e68	0.08556825
55	0x3f1461c1	0.5796166
56	0xbe3bd43d	-0.18342681
57	0x3dab7d88	0.083735526
58	0x3ddcd323	0.10782459
59	0xbaf58d61	-0.0018734151
60	0x3d97e160	0.07416034
61	0xbe05a2e8	-0.13050425
62	0xbe1a2587	-0.15053378
63	0xbded6e14	-0.11593261
64	0xbea9dc3e	-0.33175844
65	0xbe079fdf	-0.1324458
66	0xbe1099eb	-0.14121215
67	0xbe3327f2	-0.17495707
68	0x3c4bb112	0.012432354
69	0xbd3a14b1	-0.04542989
70	0x3de209b4	0.11037007
71	0x3e04300f	0.12908958
72	0xbee11188	-0.43958688
73	0x3ddaf83c	0.10691878
74	0x3e9f7fa6	0.31152076
75	0xbea6cd5f	-0.3257856
76	0x3b8dfa61	0.004332826
77	0x3dac0707	0.08399778
78	0x3e3959f5	0.18100722
79	0x3c4e720c	0.012600433
80	0xbe8a035b	-0.26955685
81	0xbd84cab0	-0.06483972
82	0xbe27dec2	-0.16393569
83	0x3e2c58f2	0.16830805
84	0x3d64a6e9	0.05582324
85	0x3e4c1e62	0.19933465
86	0xbce34b67	-0.027745916
87	0x3b9fd1cd	0.004877305
88	0x3e4e85b3	0.2016819
89	0x3eb00599	0.3437927
90	0x3e5fbe78	0.21850002
91	0x3c09ff35	0.0084226625
92	0xbedce4c6	-0.4314329
93	0x3ee51d77	0.44749042
94	0x3f277d5a	0.65425646
95	0xbe82471a	-0.2544487
96	0x3e714908	0.23563015
97	0x3e7d01e8	0.24707758
98	0x3ed1a072	0.40942723
99	0xbe0f9a18	-0.14023626
100	0x3f00d288	0.50321245
101	0x3e1cd491	0.15315463
102	0xbcc44b9d	-0.023961836
103	0xbdbfa751	-0.09358085
104	0xbecec46d	-0.40384236
105	0xbf1da1d1	-0.6157504
106	0xbef65788	-0.48113656
107	0x3e935d28	0.2878201
108	0x3b83a843	0.004017861
109	0x3df0873b	0.11744543
110	0xba76f778	-0.0009421031
111	0xbd48b153	-0.048997235
112	0xbd7d66f8	-0.061865777
113	0x3dbe9a46	0.09306769
114	0xbe123ea9	-0.14281715
115	0xbeff19eb	-0.4982446
116	0x3e2807a3	0.16409163
117	0xbdd22436	-0.10260813
118	0xbe9e9d82	-0.30979544
119	0x3daf0a2e	0.085468635
120	0xbf2c8c5a	-0.6740166
121	0x3f04dfe4	0.5190413
122	0x3ec4e7c1	0.38458064
123	0x3f19487f	0.59876245
124	0x3e8fc051	0.28076413
125	0x3d260740	0.040534258
126	0xbee8e64c	-0.45488203
127	0x3f1e2586	0.61776006
128	0x3d7f0f9f	0.062270757
129	0x3e776874	0.2416094
130	0xbf05d049	-0.5227094
131	0xbf1b7830	-0.60730267
132	0x3e9ef279	0.31044367
133	0x3eb954fb	0.36197647
134	0x3d767732	0.060172267
135	0x3e52b694	0.2057746
136	0xbeb9060b	-0.36137423
137	0xbbb526b7	-0.005528297
138	0xbe3aed1c	-0.18254513
139	0xbecafdad	-0.39646664
140	0x3e774705	0.24148186
141	0xbeee65f1	-0.4656215
142	0xbe5159b1	-0.20444371
143	0x3eac9806	0.33709735
144	0xbeebc6b4	-0.46050036
145	0x3dc7da64	0.097584516
146	0x3eaa533a	0.33266622
147	0xbdd105f2	-0.10206212
148	0x3e3676dc	0.17818779
149	0xbeb9a133	-0.36255798
150	0x3dbfcddf	0.09365439
151	0x3ce9470f	0.028476266
152	0x3e145136	0.14484105
153	0x3e550468	0.20802462
154	0x3ec2b282	0.38026816
155	0x3e0de0a6	0.13855228
156	0x3e3f0bc1	0.18656828
157	0x3e45999b	0.19296877
158	0x3d1168eb	0.03550045
159	0xbdbc398e	-0.09190665
160	0xbe56dd27	-0.209828
161	0x3c1879f5	0.009306421
162	0x3e812187	0.25220892
163	0x3c40f8ca	0.011778066
164	0xbe465136	-0.19366917
165	0x3e07c4ea	0.1325871
166	0x3d59ec53	0.053203892
167	0xbd299812	-0.04140479
168	0x3daaae3c	0.08334014
169	0xbcb3d80f	-0.02195361
170	0x3eb51d17	0.35373756
171	0xbccc3d5c	-0.024931602
172	0x3e77f0ab	0.24212901
173	0xbe7bbc56	-0.24583563
174	0xbdedc02c	-0.116089195
175	0xbed45de0	-0.4147787
176	0x3e0f9b53	0.14024095
177	0x3c368681	0.011140467
178	0x3debb56c	0.11509213
179	0xbf0a4efe	-0.5402678
180	0x3f08492e	0.53236663
181	0xbea333e3	-0.31875524
182	0x3e4cf2fc	0.20014566
183	0xbf224aa9	-0.6339517
184	0xbf1f383e	-0.62195194
185	0xbb7ff79f	-0.0039057506
186	0xbeb0d3e8	-0.34536672
187	0xbecd7dcd	-0.4013504
188	0x3e4c8758	0.19973505
189	0x3cef1ec2	0.029189471
190	0xbe94a0c9	-0.2902892
191	0x3edc5580	0.4303398
192	0x3f2a1c29	0.6644922
193	0x3f4a39cf	0.7899446
194	0x3f065b98	0.5248351
195	0x3f23593c	0.63808036
196	0x3f4dd336	0.8040041
197	0x3d84b518	0.064798534
198	0xbebabbd0	-0.36471415
199	0x3e9adc0e	0.30246013
200	0x3f0c991c	0.54921126
201	0x3eaef274	0.34169352
202	0x3f3aa595	0.7290891
203	0xbeb90837	-0.3613908
204	0x3e819a58	0.25313067
205	0x3f4c96e4	0.7991774
206	0xbe44a06b	-0.1920182
207	0xbec73b2b	-0.3891233
208	0xbd49282c	-0.049110577
209	0x3f0799e9	0.52969223
210	0xbf0d037e	-0.55083454
211	0x3d893a02	0.06700517
212	0xbd5eb5c2	-0.054372557
213	0x3e89dd05	0.26926437
214	0x3b5aff63	0.0033416383
215	0xbe33939a	-0.17536774
216	0x3d9b95a8	0.07596904
217	0xbad354d0	-0.0016123299
218	0x3cd322d5	0.025773445
219	0xbccca6eb	-0.024981936
220	0x3d88943a	0.06668897
221	0xbecd6187	-0.4011347
222	0xbf19b842	-0.6004678
223	0xbef8bb7b	-0.48580536
224	0xbeaa18d4	-0.33222067
225	0xbf4b6f31	-0.7946654
226	0xbf189486	-0.5960163
227	0x3e18230a	0.14857116
228	0x3d204f41	0.039138082
229	0xbe032e0a	-0.12810531
230	0xbf0f99e4	-0.56094193
231	0x3d46696a	0.048440374
232	0xbeee3d9c	-0.4653138
233	0x3db4dee6	0.08831577
234	0xbe7b1597	-0.24519955
235	0xbf0a4dbb	-0.5402486
236	0x3c576bdc	0.013148274
237	0xba208277	-0.00061229564
238	0x3e1eec8f	0.15519927
239	0xbf0e4d72	-0.5558692
240	0x3e46586f	0.19369672
241	0xbe936321	-0.28786567
242	0xbe084720	-0.13308382
243	0xbe9cc808	-0.30621362
244	0xbee6533c	-0.44985378
245	0x3ed87178	0.4227407
246	0x3b40ea8a	0.0029436671
247	0xbe128ee9	-0.14312328
248	0xbeca9c35	-0.39572302
249	0xbdecebcf	-0.115684144
250	0x3ea2fd58	0.3183391
251	0x3e876ed4	0.26451743
252	0xbe1aa76f	-0.15102933
253	0xbe49a581	-0.19692041
254	0x3e79ba50	0.24387479
255	0xbcaab79c	-0.020839505

2.bias f4 [30]
0	0xbe34797a	-0.17624465
1	0xbe244ecf	-0.16045688
2	0x3d732dd8	0.059369892
3	0xbed9dcfd	-0.42551413
4	0x3e02c8fb	0.1277198
5	0x3d5679a1	0.052362088
6	0x3ea1c5d9	0.31596258
7	0xbe63b319	-0.22236289
8	0xbe30296d	-0.17203303
9	0xbe3ae35b	-0.18250792
10	0xbd16829f	-0.036745664
11	0xbddbbc9f	-0.10729336
12	0x3e20ed7d	0.15715595
13	0xbcba5c85	-0.022749195
14	0xbea11e26	-0.31468314
15	0x3e40ba0f	0.18820976
16	0xbe67d578	-0.22640026
17	0xbe0222a2	-0.12708524
18	0x3e9f2495	0.31082597
19	0xbe7a946b	-0.2447068
20	0xbd77c403	-0.060489666
21	0xbee0caaa	-0.4390462
22	0x3e681074	0.22662526
23	0x3e9ef099	0.31042936
24	0xbe98f78e	-0.2987637
25	0x3e740cfd	0.2383308
26	0x3dc23111	0.09482015
27	0xbdbf1325	-0.093298234
28	0xbb9080c7	-0.0044098827
29	0x3d8fa5a5	0.07014016

4.weight f4 [5, 30]
0	0x3e8c50fd	0.2740554
1	0xbb9ff4cc	-0.004881477
2	0xbe6ab424	-0.2292028
3	0x3d274d69	0.04084531
4	0x3e0b5901	0.13608171
5	0x3e941d24	0.28928483
6	0xbe8c7290	-0.27431154
7	0x3edd64fb	0.43241104
8	0x3c6c5511	0.014424578
9	0xbf254f24	-0.64573884
10	0x3e2c0e0e	0.16802236
11	0xbd992198	-0.074771106
12	0x3da061ea	0.078311756
13	0x3e835950	0.25654078
14	0xbd8d3239	-0.06894345
15	0xbf184c66	-0.59491575
16	0xbe9bdff7	-0.3044431
17	0xbb0db867	-0.0021624805
18	0xbece8723	-0.40337476
19	0xbee18662	-0.44047838
20	0x3d9b7743	0.07591107
21	0x3e91cabd	0.2847499
22	0xbd0db613	-0.034597468
23	0xbe00110d	-0.12506504
24	0x3e52fcbc	0.20604223
25	0x3e0de4ac	0.13856763
26	0x3d3dfba8	0.046382576
27	0x3d9bdef2	0.07610883
28	0x3e664116	0.22485766
29	0x3e725fa8	0.23669302
30	0xbe0460e3	-0.12927584
31	0xbf31305a	-0.69214404
32	0xbbc5388b	-0.0060187033
33	0xbe031891	-0.1280234
34	0x3ea604ad	0.32425442
35	0x3e8ed962	0.27900225
36	0x3e364c2a	0.17802492
37	0xbcae7f7c	-0.021301024
38	0x3ef7abee	0.4837336
39	0xbe968d88	-0.29404855
40	0xbf03b22e	-0.51443756
41	0x3eb09a0c	0.34492528
42	0xbed7e0d2	-0.42163712
43	0xbeac87c5	-0.33697334
44	0xbe7e5dd4	-0.2484048
45	0xbe94c766	-0.2905838
46	0xbdbdf6e1	-0.09275604
47	0x3e68458d	0.22682782
48	0xbe218ab5	-0.15775569
49	0xbe6e50d9	-0.23273028
50	0x3e9c7412	0.30557305
51	0x3ef5164e	0.4786858
52	0x3e5c5231	0.21515729
53	0xbe027ddf	-0.12743329
54	0x3eb5c6ea	0.35503322
55	0xbec40ef4	-0.38292658
56	0xbe75386d	-0.23947306
57	0xbec68ebd	-0.38780776
58	0x3f22f059	0.6364799
59	0xbe8cfbfa	-0.27535993
60	0xbf666132	-0.8999206
61	0xbe97f768	-0.29680943
62	0x3e9f97d6	0.3117053
63	0xbe19784d	-0.14987297
64	0xbbacf9a6	-0.005278784
65	0xbee40369	-0.44533852
66	0x3f5cc783	0.8624193
67	0xbf3e52cc	-0.7434509
68	0xbe6fb121	-0.23407413
69	0x3e790b34	0.2432068
70	0x3e3f0adc	0.18656486
71	0xbf63af35	-0.8893922
72	0xbeb8e056	-0.36108655
73	0x3e189ff3	0.14904766
74	0x3e11ae5a	0.14226666
75	0x3f889adf	1.0672263
76	0xbc982a0a	-0.018574733
77	0xbd6bb8a1	-0.057549123
78	0xbf0a7e71	-0.54099184
79	0xbf217d01	-0.63081366
80	0x3f1cb001	0.6120606
81	0xbeb7a995	-0.35871568
82	0xbf785c39	-0.9701572
83	0x3e93ed7c	0.28892124
84	0xbeaf3cfe	-0.3422622
85	0x3d4ca2dc	0.049960002
86	0xbe187e07	-0.14891826
87	0xbdb43a24	-0.08800152
88	0xbe21458f	-0.15749191
89	0x3eab226d	0.33424702
90	0x3ef94078	0.48681998
91	0x3ee78a08	0.45222497
92	0x3e56351c	0.20918697
93	0x3eff9978	0.49921775
94	0x3f4da796	0.8033384
95	0xbea6c689	-0.32573345
96	0xbf3dcccf	-0.7414064
97	0x3e6f04d4	0.23341686
98	0xbe275b57	-0.16343437
99	0x3d153ccc	0.036434934
100	0x3f25803c	0.64648795
101	0xbd6533bf	-0.055957552
102	0xbe9cb891	-0.30609563
103	0xbeb7ebe6	-0.35922164
104	0x3f19faf3	0.60148543
105	0x3ea776e8	0.32707906
106	0xbe966970	-0.29377317
107	0x3e96f2d6	0.29482144
108	0xbf352b54	-0.7076924
109	0xbe7fbcfe	-0.24974439
110	0x3e18f732	0.14938048
111	0xbf498618	-0.78720236
112	0xbe3e43a4	-0.1858049
113	0xbd61b146	-0.0551007
114	0x3e6ef01e	0.23333785
115	0x3ec926b0	0.3928733
116	0x3f3d07fc	0.7384031
117	0x3e9ed408	0.31021142
118	0xbdd6d200	-0.10489273
119	0xbcc496d5	-0.023997704
120	0xbeea5192	-0.45765358
121	0xbe96319a	-0.29334718
122	0x3e51ab6a	0.20475546
123	0xbe4891dd	-0.19586892
124	0xbe80e759	-0.25176504
125	0xbea5d304	-0.32387555
126	0x3ee1f7c0	0.4413433
127	0xbf0284b1	-0.5098372
128	0xbeeb0fa2	-0.45910364
129	0x3e2e11ad	0.1699893
130	0xbeb44930	-0.35212088
131	0xbde0fa20	-0.109852076
132	0xbdadad1a	-0.08480282
133	0x3e722b75	0.2364939
134	0xbebbaef5	-0.3665692
135	0x3f2c532f	0.6731443
136	0x3e94cd0a	0.29062682
137	0xbeeb3efe	-0.45946497
138	0x3ede8578	0.43461204
139	0x3ea65ccb	0.3249267
140	0xbec60be3	-0.38680944
141	0xbec70ca5	-0.38876835
142	0xbcf2dc30	-0.02964601
143	0x3f09afc7	0.5378384
144	0x3e17cf47	0.14825164
145	0xbeec548a	-0.46158248
146	0xbea0a1b6	-0.31373376
147	0xbebf7132	-0.3739105
148	0xbe3052ce	-0.17219087
149	0xbebae23c	-0.36500728

4.bias f4 [5]
0	0xbe445be3	-0.19175677
1	0x3b005915	0.0019584347
2	0xbd89b5bd	-0.06724117
3	0xbecfc42a	-0.4057935
4	0xbda80d0e	-0.08205615

0.weight f4 [30, 2]
0	0x3c8add46	0.016951215
1	0x3f8df5f4	1.1090684
2	0x3f9e4151	1.2363683
3	0xbec551b6	-0.38538903
4	0xbe504b26	-0.20341167
5	0xbf423a15	-0.75869876
6	0xbe9de02b	-0.3083509
7	0x3f14edef	0.5817556
8	0x3e8d3f95	0.27587572
9	0x3f2c2f7b	0.6725995
10	0x3de20e06	0.11037831
11	0xbed9c2a7	-0.4253132
12	0x3e041544	0.12898737
13	0x3f971c1b	1.1805452
14	0xbf198dfa	-0.59982264
15	0x3e93c6b2	0.2886253
16	0xbe1daaf3	-0.15397243
17	0x3f7bb519	0.9832321
18	0x3f01ab73	0.50652236
19	0xbe3235be	-0.17403314
20	0xbf642554	-0.8911946
21	0x3edb5451	0.42837766
22	0xbf99c045	-1.2011801
23	0xbe0b8efc	-0.13628763
24	0xbd64fc42	-0.055904634
25	0x3f12b43f	0.57306284
26	0x3d6b0a56	0.057382904
27	0xbf64a8b7	-0.8931994
28	0xbf48f13a	-0.7849308
29	0xbf6966e7	-0.9117264
30	0xbc852d0e	-0.016256835
31	0xbf3385c0	-0.7012596
32	0xbe5e065c	-0.21682113
33	0xbecea344	-0.40358937
34	0xbf23cc2b	-0.6398341
35	0x3f36eb4c	0.71452785
36	0x3f8a58fb	1.0808405
37	0x3f59c755	0.8506978
38	0x3f0a7dc4	0.54098153
39	0xbf323c25	-0.69623023
40	0xbe35c9c2	-0.17752746
41	0xbf49722e	-0.7868985
42	0x3edfc2eb	0.43703398
43	0x3f43de73	0.76511306
44	0x3ed4343f	0.4144611
45	0xbf48326e	-0.7820195
46	0xbebd5719	-0.36980513
47	0x3f5328be	0.8248404
48	0xbebde179	-0.37086084
49	0xbf2b6a37	-0.66958946
50	0x3e3e0c6e	0.18559429
51	0xbf6907ed	-0.9102772
52	0xbe1de253	-0.15418367
53	0x3ef7c32b	0.4839109
54	0x3f9db4a1	1.2320749
55	0xbc81d0cd	-0.015846634
56	0xbef8bb52	-0.48580414
57	0x3f657078	0.8962474
58	0x3efc4866	0.49273986
59	0xbf452a8e	-0.7701806

0.bias f4 [30]
0	0xbe82b855	-0.2553126
1	0xbf4fdc68	-0.8119569
2	0xbe33abda	-0.17546025
3	0x3e9a81b0	0.3017707
4	0x3d623b68	0.055232435
5	0x3eba1468	0.36343694
6	0xbf241d0e	-0.64106834
7	0xbf632568	-0.8872895
8	0x3f42695a	0.75942004
9	0xbe9914b9	-0.29898623
10	0xbf972500	-1.1808167
11	0xbf3e8967	-0.7442841
12	0x3f253507	0.6453404
13	0xbf6ceb5f	-0.9254665
14	0xbf700eb6	-0.9377245
15	0x3f118be0	0.5685406
16	0xbf36a614	-0.71347165
17	0x3e8e60f6	0.2780835
18	0xbf7630eb	-0.9616839
19	0xbeec51f5	-0.46156278
20	0xbe8ab6a6	-0.27092475
21	0x3f06d52f	0.5266904
22	0x3f9e6cbc	1.2376933
23	0x3ed3f9cb	0.41401514
24	0x3ec622fb	0.38698563
25	0xbf23a503	-0.6392366
26	0xbf176f29	-0.5915399
27	0xbec31957	-0.3810527
28	0x3f265dc9	0.64986855
29	0x3d5e8c67	0.054333117

2.weight f4 [30, 30]
0	0x3d12c441	0.035831694
1	0xbcce9ab1	-0.025220247
2	0xbbdc54c4	-0.006723972
3	0xbe42cc06	-0.19023141
4	0x3db734c7	0.08945613
5	0xbe089183	-0.13336758
6	0xbd0cfa50	-0.034418404
7	0x3e982efd	0.2972335
8	0xbc67a6ed	-0.014138919
9	0x3e751acb	0.23936002
10	0x3f195d61	0.5990811
11	0x3e171a9f	0.14756249
12	0xbded70b9	-0.11593766
13	0xbe33e5da	-0.1756815
14	0x3d0545b5	0.03253718
15	0x3e24dc45	0.16099651
16	0xbe23cedd	-0.15996881
17	0xbd9d70ab	-0.07687505
18	0xbddfd71e	-0.10929702
19	0x3e8fc969	0.2808335
20	0xbd896e86	-0.06710534
21	0x3e734c08	0.23759472
22	0x3dd903ab	0.10596403
23	0x3c350302	0.01104808
24	0x3e22ab53	0.15885668
25	0x3de63e80	0.1124239
26	0x3d1e7ec2	0.038695104
27	0x3e19e06e	0.1502702
28	0xbe51c6c2	-0.20485976
29	0x3db31970	0.08745086
30	0x3dc371c8	0.095431864
31	0xbd4ad39d	-0.049518216
32	0x3d03e31e	0.032199018
33	0x3e7e517f	0.24835776
34	0x3dabea93	0.08394351
35	0x3e10f3aa	0.1415545
36	0xbe5b3be5	-0.21409567
37	0x3cdfa150	0.0272986
38	0x3de7dee0	0.11321807
39	0x3e699ff3	0.22814922
40	0xbe2d9cd8	-0.16954362
41	0xbd180f32	-0.037123866
42	0xbdb5fb7f	-0.0888586
43	0xbbc6e395	-0.0060696104
44	0xbd86947a	-0.065712884
45	0x3e922d4d	0.28550187
46	0xbdba58a1	-0.09098936
47	0x3cd93be7	0.026517821
48	0x3e518481	0.20460702
49	0xbe9705c1	-0.29496577
50	0xbcb16bfc	-0.021657936
51	0x3cce0d92	0.025152955
52	0x3e11473b	0.14187329
53	0x3e82b8b2	0.25531536
54	0x3d674db4	0.056470588
55	0xbea50af0	-0.32234907
56	0xbe87bcdf	-0.26511285
57	0x3e7a5dc9	0.24449839
58	0x3e12f048	0.14349473
59	0xbde36bb3	-0.11104526
60	0xbdb5cef2	-0.08877362
61	0xbe44c414	-0.19215423
62	0xbe2c0580	-0.16798973
63	0x3d2af31b	0.04173575
64	0xbb49ed20	-0.0030811504
65	0xbdf204ab	-0.118172966
66	0xbe01bf35	-0.12670596
67	0x3d943c2f	0.072380416
68	0x3e2de8bd	0.16983314
69	0xbd982344	-0.074286014
70	0x3d87369b	0.06602212
71	0x3b2b5e10	0.0026148595
72	0x3e860207	0.26173422
73	0xbe16db97	-0.14732204
74	0xbe44fa82	-0.19236186
75	0x3cf3b47c	0.029749148
76	0xbcdfde32	-0.02732763
77	0xbe0ae27f	-0.13562964
78	0xbe1235f5	-0.14278395
79	0x3cafe0f8	0.021469578
80	0x3df598ea	0.11992057
81	0xbdc01fe4	-0.09381083
82	0xbdeec95f	-0.11659502
83	0xbd99827c	-0.07495591
84	0xbe58f766	-0.21188125
85	0xbe13c8b8	-0.14432037
86	0x3e374752	0.178983
87	0x3eaa5d2f	0.33274218
88	0xbe1ad41f	-0.1511998
89	0x3d040435	0.032230575
90	0xbe1701a4	-0.1474672
91	0x3f130533	0.5742981
92	0x3dd085ed	0.10181794
93	0xbea65e5e	-0.3249387
94	0xbe7c6d23	-0.24651007
95	0x3d32e1fc	0.043672547
96	0x3e7c6326	0.24647197
97	0x3e8e4d66	0.27793425
98	0xbe6c742e	-0.23091194
99	0x3ec923ad	0.3928503
100	0x3ecf3a62	0.4047423
101	0x3e835a54	0.25654852
102	0xbec1648d	-0.37772027
103	0x3ebf8c15	0.37411562
104	0x3e9dc696	0.30815572
105	0x3d6a8e6a	0.057264723
106	0x3e7427fc	0.23843378
107	0xbd8476e9	-0.06467993
108	0x3db67fd6	0.089111015
109	0x3e31d324	0.173657
110	0x3eb5864d	0.35454026
111	0xbe89e5a0	-0.26933002
112	0xbca70e12	-0.020392451
113	0xbea09330	-0.31362295
114	0x3e6e8fc2	0.23297027
115	0x3ed346ff	0.41265103
116	0xbdca7908	-0.09886366
117	0xbe707fe4	-0.23486286
118	0xbece145f	-0.40249917
119	0x3d01d184	0.03169395
120	0xbddc6de5	-0.10763148
121	0x3ebd156c	0.36930406
122	0x3db2ec5a	0.08736487
123	0xbd0f60bc	-0.035004362
124	0xbdbaf3c1	-0.091285236
125	0x3da914f1	0.082559474
126	0xbea5c5fc	-0.32377613
127	0x3da70a62	0.08156277
128	0xbea13108	-0.3148272
129	0x3e7dc899	0.24783553
130	0x3f1c1eba	0.60984385
131	0x3d23783d	0.03990959
132	0xbd139a79	-0.03603599
133	0x3e097b4c	0.1342594
134	0x3e3bd850	0.18344235
135	0x3e911d82	0.28342825
136	0xbd81e286	-0.06342034
137	0xbeb5c357	-0.35500595
138	0xbe0af540	-0.13570118
139	0x3dca7488	0.09885508
140	0x3e2ad5c0	0.16683102
141	0xbe403584	-0.18770415
142	0xbd604ea8	-0.054762512
143	0xbdf88153	-0.12134042
144	0x3e4e2545	0.20131405
145	0x3dc7623e	0.09735535
146	0xbeb0cde0	-0.3453207
147	0x3f0dd956	0.55409753
148	0xbe37d559	-0.1795248
149	0x3eafff88	0.34374642
150	0x3c71f0d9	0.014766895
151	0x3ec1a556	0.37821454
152	0xbdf83e02	-0.12121202
153	0x3ddb0077	0.10693448
154	0xbe143c7b	-0.14476196
155	0xbd9d7b67	-0.07689553
156	0x3e0610a6	0.13092288
157	0xbd9ccb2f	-0.07655942
158	0x3d750870	0.0598225
159	0x3d8fe8fe	0.070268616
160	0x3e48e0fa	0.19617072
161	0x3e9a8952	0.30182892
162	0xbcdaff11	-0.026732953
163	0x3e6ca9c2	0.23111632
164	0xbda52040	-0.08062792
165	0xbc6209db	-0.013796295
166	0x3e02f88d	0.12790127
167	0x3d1ef331	0.038806144
168	0xbcf973e2	-0.030450765
169	0x3e3786e4	0.1792255
170	0xbcbc7020	-0.023002684
171	0xbe0c389a	-0.13693467
172	0x3db90261	0.09033657
173	0xbe38741c	-0.18013042
174	0xbe355f7d	-0.17712207
175	0x3ddfd4ab	0.10929235
176	0x3c196c09	0.0093641365
177	0x3ebc9b66	0.3683731
178	0xbd8d4409	-0.06897742
179	0xbdb688b6	-0.08912794
180	0xbda8a92d	-0.08235393
181	0x3e4cf007	0.20013438
182	0xbe55f409	-0.20893873
183	0x3e020a2d	0.12699194
184	0x3e4223d2	0.18958977
185	0x3daac9d0	0.08339274
186	0xbd75a9a3	-0.05997623
187	0x3c85c100	0.016327381
188	0xbd98e3cd	-0.074653246
189	0x3d990a8b	0.07472714
190	0xbd474867	-0.048653033
191	0xbe2f49bb	-0.1711797
192	0xbd8e3a5f	-0.06944727
193	0x3da57b78	0.080801904
194	0x3df37853	0.118881844
195	0x3d7cc435	0.061710555
196	0x3deb00fb	0.114747964
197	0xbc3f4f46	-0.011676615
198	0xbcf57fc6	-0.029968154
199	0xbe3af43e	-0.18257234
200	0x3c41ac53	0.01182087
201	0x3d9dc4ee	0.07703577
202	0xbba21650	-0.0049465075
203	0xbd9a1225	-0.07522992
204	0xbd48f5ac	-0.049062416
205	0xbe2af26d	-0.1669404
206	0x3cb0ed3d	0.021597499
207	0x3d830d29	0.063989945
208	0x3ddbe11f	0.10736298
209	0xbe6552b8	-0.22394836
210	0x3ec68a2d	0.38777295
211	0x3b7c8892	0.003853355
212	0xbcc58e87	-0.024115814
213	0x3e854054	0.2602564
214	0x3e19af42	0.15008262
215	0xbd3705da	-0.044683315
216	0x3ecf74a3	0.40518674
217	0x3f429c72	0.76019967
218	0x3ddbcb15	0.10732094
219	0xbd3122b7	-0.043245997
220	0x3ea0c85c	0.31402862
221	0x3c993520	0.01870209
222	0x3e0949f2	0.13407114
223	0x3c4d7906	0.012541061
224	0xbcc6b2a4	-0.024255104
225	0xbec32c03	-0.38119516
226	0x3c5e89c4	0.013582651
227	0x3e791a78	0.24326503
228	0x3d596205	0.053071994
229	0xbdcc999c	-0.09990236
230	0x3a0b73aa	0.00053196645
231	0xbe1640bb	-0.1467313
232	0xbeaefdca	-0.34178
233	0x3d7ccabf	0.06171679
234	0xbe38bbed	-0.18040438
235	0x3cb2c056	0.021820229
236	0x3ed81e5b	0.4221066
237	0xbdc000c3	-0.09375145
238	0x3e8eaee9	0.2786782
239	0xbeb206a8	-0.34770703
240	0x3e8a5fbf	0.27026173
241	0xbea9c967	-0.3316147
242	0xbec80938	-0.39069533
243	0x3ea34d2c	0.31894815
244	0x3e986548	0.2976477
245	0xbe2f30a0	-0.17108393
246	0x3e4f33ea	0.20234647
247	0x3e1cc5f1	0.15309884
248	0x3eea6885	0.45782867
249	0xbe934c63	-0.28769216
250	0xbda518de	-0.08061384
251	0xbe95dca8	-0.2926991
252	0x3eaa74b0	0.3329215
253	0xbedf4ae2	-0.4361182
254	0xbe4f1aa7	-0.20225011
255	0xbe9892db	-0.29799542
