model_summon/ReconstructORI/Checkpoint_SEED42_LR0.001_HD30_HL2_Epoch5000_WithPhysics1_WithBatch0.pth (torch, 101687 bytes, 80 tensors)

0.weight f4 [30, 2]
00000000: 7f21 0e3f d2bc 1740 ef90 53bf 2863 3e40
00000010: c9b5 53be 6dee 803e 0acf f5be f69a 6e3f
00000020: d048 653f 7264 0fbf f89d fe3e d624 943e
00000030: 9dc2 fe3e 7a31 9d3d fdc9 133e c9bb 2bbd
00000040: d007 ee3e 6e5c 883e 05be 84be 54a2 243e
00000050: f936 7dbe d5bd 30be ec03 abbe 0f6f 9f3f
00000060: 21b4 9abf 6e67 37bf 29c5 dcbd 5051 bfbe
00000070: c368 b93c c949 b5bf 6a8f 5f3f f3ec 49bf
00000080: a241 973f 1025 523f 0097 a5be 0ac3 683f
00000090: d5b5 71bd c402 c53f 1352 643e 0d0d 7abe
000000a0: a3ad 003e 2eae 82be 89a5 ae3e 503e 513f
000000b0: 643d 2d3f 1da7 1fbf 5de8 cf3e 36ce 623e
000000c0: 5fdb 843e 8c79 99be 7f02 32bf bac5 94be
000000d0: 6c00 4abf 439b 3c3f 6c75 c53e 95e2 433e
000000e0: 9d97 9f3e 11e2 293e 9649 2d3f 0106 2fbf
0.5551986 2.3708997 -0.82643026 2.974802 -0.20674814 0.25181904 -0.4800952 0.932052
0.8956423 -0.5601264 0.49729896 0.28934354 0.49757853 0.076754525 0.14432521 -0.041927133
0.46490335 0.26633018 -0.25926223 0.16077548 -0.24728002 -0.17259915 -0.3340143 1.2455767
-1.2086221 -0.71642196 -0.10779793 -0.37366724 0.022632962 -1.4163142 0.8732821 -0.7887718
1.1816905 0.820878 -0.32341766 0.90922606 -0.0590113 1.5391469 0.22296934 -0.24419041
0.12566237 -0.25523514 0.34110668 0.81735706 0.676718 -0.6236437 0.40606967 0.22148976
0.25948617 -0.29975545 -0.6953506 -0.29057103 -0.78906894 0.7367441 0.38566148 0.19129403
0.3117036 0.16590144 0.6769041 -0.68368536

0.bias f4 [30]
00000000: d97a ccbf abaa 25c0 a75f 573d f4bd 27bf
00000010: 4576 a03f 8a49 ad3d f33c a53f 9b93 4ebf
00000020: 63b2 febe 6ce1 4dbf d920 353f 3aad 8fbd
00000030: fbe9 103f 183a 30bf 18bc 95bf 5625 25bf
00000040: 70e9 6dbf ed81 113f 1f6f a83f f69b 763f
00000050: 8947 dabe d87c 2fbf 343f 313f 7c28 e2be
00000060: e353 a53f 7ccc a2be 4462 edbd 23dc 76bf
00000070: 6e80 51bf 03e9 ae3f
-1.597499 -2.5885417 0.052581456 -0.6552422 1.2536093 0.08461292 1.2909225 -0.8069398
-0.49745473 -0.8042209 0.70753247 -0.07015462 0.56607026 -0.68838644 -1.1698027 -0.64510095
-0.9293432 0.56838876 1.3158911 0.9633173 -0.42632702 -0.6854987 0.69237065 -0.44171512
1.2916225 -0.31796634 -0.11591008 -0.9642965 -0.81836593 1.366486

2.weight f4 [30, 30]
00000000: ba6d 7638 700b 52be 7b8c 363e 6094 803d
00000010: 62cc efbc 6ecf 0ebe c2fa ce3d e1dd dbbd
00000020: 16f1 06be ecc7 b2bd 3251 d2bc 5a53 34bd
00000030: b4f1 cc3c 6fc7 5cbe eb3f ae3d a542 f7bc
00000040: 1621 50be 58f5 10be d070 4dbe 6362 4fbe
00000050: 8d5b 033e 2ccf c2bb f1b0 d93d 89e9 71be
00000060: e2da 53be 1e63 a9bc 7d29 d7bd 7543 79be
00000070: 9f6c 1bbe 6c89 5bbd da95 c33e 2bc7 06bf
00000080: ae90 a53d 9c7e 16be 1e22 143e a9b6 bcbd
00000090: 6b13 01be d515 4dbe 285c f33d 7803 013e
000000a0: b498 663e 355c b93e bb97 0abe c995 ea3d
000000b0: 0bea 893e 4a9f 35be a25e 6bbe e116 48be
000000c0: d227 bbbd 114d 90be 9c18 853c 9494 173e
000000d0: b323 6a3e 8ba5 34be 31e3 8abe 360f 00bd
000000e0: 6433 d2bc 8ce8 ba3d 7c8f a43d fa5b c3bb
000000f0: dfd5 b73c 0f4c 7dbe 7b29 e33d 670b 23be
00000100: 3b2c 6f3e fb32 1cbe 051e f5bc fa37 a43d
00000110: 9539 873d 3ca6 b53d 31f2 313e 07ef 5cbc
00000120: e94e b8bc b5e2 8dbe aeca f93c ad10 133b
00000130: 6ddb 5ebd 3893 4c3e a1c2 a13d 243d adbe
00000140: 79a9 54be 0af4 903c 573e d93d a9f8 47bd
00000150: d26a a2be 0a46 0ebd ac92 5cbe 02e6 a13d
00000160: aa34 093e 56e7 2ebe 29e4 a5bb 5c91 513e
00000170: 15e3 1a3e 0188 a0bd 09c0 bf3e bd68 3f3e
00000180: a243 e4bd 2d3c 51bd 296f 683d 6c01 113e
00000190: 4689 04bd f5f5 bdbd 7e36 8cbe 2a73 ab3d
000001a0: 376c 633d 9d4a 2cbe 55e5 8f3e 38ae d93c
000001b0: 6290 30bd f9da c4bd 367d 91be 9705 d63d
000001c0: 80ed 823e 5a82 0d3e 2f9e 41be 5a52 5fbe
000001d0: 4bc4 1cbd 0b34 19be 6313 88bd 684a 863e
000001e0: 48a7 bc3e ae0c be3e 46ea 86be 48ac 95bd
000001f0: b67f b7bd e3e8 883e 175a 693e d8e7 52bd
00000200: 697c b23d 22b7 70be 0670 06be 04c9 383e
00000210: 2c0f 15bd 52e4 91bc 1573 b0bd ee8c 323e
00000220: 4a9a f33d 5575 e73b 4d03 fbbd d0ce 043c
00000230: 8f60 5fbd ce9f b23e afc2 a03d d427 383e
00000240: fbf5 853e 7fda d5bc bcc3 ccbc ce24 1abe
00000250: 6ef2 12be d4ef 46be efff ed3d 65b6 81be
00000260: 3408 4fbd 573f 4fbe 957c 88bc cc3a 89bd
00000270: 19c1 afbd 158a 113e 1ab8 f83c a127 eb3d
00000280: 596c 10be d3bf 80be f1d6 e5bd e018 2ebe
00000290: 2c88 7cbe 09ba a0bc cbff 4c3e 4692 dfbd
000002a0: bfea 753e 7f3b 563c b228 073e 9d41 00be
000002b0: b525 503e bef6 5dbb 06b1 983c ac6c fb3d
000002c0: eb51 4abe 14e0 e43d ec98 443d 5bed 20be
000002d0: 2150 963f 4241 ce3e fa47 56bd 20cc c63d
000002e0: 8fef 873e 6c1e d53e 23d7 c63e 4778 4f3e
000002f0: 4761 d73e ad56 33bf ef56 93be 80bb debd
00000300: 711e a0be 5a9a 19be 641f ffbe f263 f2bd
00000310: a7ed 953d 5993 a33e e0d9 fb3e 233b ec3e
00000320: 194c 3e3d 049f 003f 736c a9bc 3aaf 143e
00000330: d4c6 113f 7bed 1fbf 72f4 98be 1ea4 8d3e
00000340: 3b6c 433e c3e8 26bd 4c75 53bd 4dd1 8a3d
00000350: 7a34 b3bc a665 dbbd 5664 07be def9 2c3e
00000360: 0f88 0abe bfcb a43d b80d d0ba 9e90 8a3d
00000370: 8a77 003e 3f36 cebc 9ea4 94be 3d52 ce3c
00000380: 25fc d63d 63da a33d 93eb 6e3e 4cd4 543e
00000390: fcde c23c e1cb 5cbd c7a2 2ebe 8fa7 9539
000003a0: cfad 173e 3d23 133e 99af 73be 60ae 15be
000003b0: 8e9a 20be a481 f5bd 4de9 c4bd 0154 7cbd
000003c0: 8e98 f5be 36a3 29bf b1e6 a1be ae09 07bf
000003d0: f1c1 223f ac4c d0bd 6164 f63d 8ee3 7f3d
000003e0: 3657 54bd 85bd 00bf 1aa6 e13c 24b9 903c
000003f0: 2c25 98be 2477 2abe 7750 02bf fd87 bdbe
5.875316e-05 -0.20512176 0.17827027 0.062783 -0.029272262 -0.13946316 0.10106422 -0.107356794
-0.13177904 -0.08729538 -0.025673483 -0.044024803 0.025017597 -0.21560453 0.08508285 -0.030183146
-0.20325121 -0.14156091 -0.20062566 -0.20252375 0.12827893 -0.005945107 0.10629452 -0.23624243
-0.20688966 -0.020677146 -0.1050596 -0.24342139 -0.15178154 -0.053597853 0.38200265 -0.52647656
0.08084236 -0.14696735 0.1446614 -0.09214527 -0.12605064 -0.2002786 0.11882812 0.1259898
0.22519189 0.3620316 -0.13534443 0.114543505 0.26936373 -0.17736545 -0.22985318 -0.19539978
-0.091384545 -0.28183797 0.016247086 0.14802772 0.2286518 -0.17641275 -0.27126458 -0.031264506
-0.02565927 0.09126386 0.0803518 -0.005961892 0.022440849 -0.24736045 0.11091896 -0.15922318
0.23356716 -0.15253823 -0.029921541 0.08018489 0.0660278 0.08869597 0.17377545 -0.013484723
-0.022498565 -0.27712026 0.030492153 0.002244036 -0.05440848 0.19978034 0.07898451 -0.3383571
-0.20767774 0.017694492 0.106075935 -0.048821125 -0.31722122 -0.034734763 -0.21540326 0.07905199
0.13398996 -0.17080435 -0.005062599 0.20465606 0.15125687 -0.07838441 0.374512 0.18692298
-0.111457124 -0.05108278 0.056746636 0.14160699 -0.032357477 -0.09275428 -0.27385324 0.08371575
0.055523124 -0.16825338 0.28104654 0.026572332 -0.043106444 -0.09612078 -0.2841584 0.10450285
0.25571823 0.13819256 -0.18907999 -0.21808758 -0.038273137 -0.14961259 -0.06644323 0.26228642
0.36846375 0.3711905 -0.2635061 -0.07308251 -0.08959906 0.26740178 0.22788273 -0.051490635
0.087151356 -0.2350736 -0.13128671 0.18045431 -0.036391422 -0.017809067 -0.086157 0.17436573
0.11894663 0.0070635476 -0.12256489 0.008105949 -0.054535445 0.34887546 0.07849633 0.17983943
0.2616423 -0.026105164 -0.024995677 -0.15053102 -0.14350292 -0.19427425 0.11621081 -0.25334468
-0.050544932 -0.20239006 -0.016660968 -0.06700668 -0.08581752 0.1421283 0.030361224 0.11482168
-0.14103831 -0.2514635 -0.112226374 -0.17001677 -0.2466132 -0.019619958 0.20019452 -0.10916571
0.2401533 0.013075708 0.13199118 -0.1252503 0.20326884 -0.0033868994 0.018639099 0.12276587
-0.19757812 0.11175552 0.0479974 -0.15715544 1.1743203 0.40284163 -0.052314736 0.097069025
0.26549956 0.41624773 0.3883601 0.20260726 0.42066404 -0.7005413 -0.28777263 -0.108756065
-0.31273225 -0.15000287 -0.49828637 -0.11835469 0.07320719 0.31948355 0.49189663 0.46138868
0.04645929 0.5024264 -0.020681595 0.14519969 0.5694401 -0.6247174 -0.29873997 0.27664274
0.19084255 -0.040749323 -0.051625535 0.06778202 -0.021875609 -0.10712747 -0.13221869 0.16892192
-0.13528465 0.08046674 -0.0015873229 0.06765865 0.125456 -0.02517235 -0.29031843 0.025185699
0.104973115 0.08000638 0.23332052 0.2078411 0.023787968 -0.05390537 -0.17054282 0.00028544336
0.14812396 0.14368911 -0.23797454 -0.146173 -0.15683958 -0.119876176 -0.09614811 -0.06160355
-0.47967952 -0.66264665 -0.31621316 -0.52749145 0.6357718 -0.10170874 0.120308645 0.062472872
-0.051840983 -0.50289184 0.027545024 0.017666407 -0.2971586 -0.16647011 -0.5090403 -0.37017813

2.bias f4 [30]
00000000: 3bfa a03d 59c3 403e 037c 08b8 0411 83bd
00000010: ccee 113e f806 2cbe 3e2c 42be 0b24 8fbb
00000020: ba71 d63d 4e5a 45be d8ed f73c f4eb 24be
00000030: 45e4 dd3b e460 af3d 323c edbd 5d5f b8bd
00000040: 3b9a 95bd 52ad 1abd b532 273e b9a4 4bbd
00000050: 9caa e93d 2bc6 1dbe b31b 14be 7c44 73be
00000060: 3777 0a3c e90d b33d 6122 37be 500a 74bb
00000070: 9da7 083e b74d 013d
0.07860228 0.18824519 -3.254042e-05 -0.0639973 0.1425125 -0.16799533 -0.1896219 -0.0043683103
0.1047091 -0.1927273 0.03026478 -0.16105634 0.0067715966 0.08563402 -0.11583747 -0.09002564
-0.07304808 -0.037762947 0.16327937 -0.04971764 0.11409494 -0.15407626 -0.14463691 -0.23756593
0.008451275 0.087428875 -0.17884208 -0.0037237592 0.1334519 0.031568255

4.weight f4 [5, 30]
00000000: 6576 38be e97e 09be 2512 eabe 5b08 d6bd
00000010: f4d9 323e 5509 d6bd 282c de3d 0df4 04be
00000020: 3d96 7abc be77 9cbe 3280 023e af89 06be
00000030: 569c ebbd 8ad5 3ebe 1b95 423d 502d 713e
00000040: 19ca ab3d 3820 07be a5f4 723a 7054 5abd
00000050: 22aa 13be 8eb3 a33e 45bf 95bd cc41 d53d
00000060: feb3 edbd f2ea 44be 8078 403e 0fe3 4d3e
00000070: 9b1f 893c 67e8 ac3c 410b 9b3e 6b19 20bc
00000080: 9372 88bd 2e87 5bbe 4b80 963e 8ac9 51bd
00000090: 5df3 f33d 3cc7 6bbe 9c1b 84be d291 d0be
000000a0: d04d 5dbe 480d 043d f384 823e 70f8 863e
000000b0: fbfb 0ebe 8fb0 d33d 15bb 2abe b633 ca3d
000000c0: 80d9 9c3e 8de3 6b3e c284 693e 7e23 433e
000000d0: a8ac 07bd 6a62 873e 3955 2cbc e73c 8dbc
000000e0: e479 62bd 70c9 01bd 4371 90be 41a8 da3c
000000f0: e831 22be bf04 4cbe 3a42 76bc fd96 b6be
00000100: c38f 223e 96ad c73e 4c1d 263f 7568 af3c
00000110: 3215 b2be d3e0 0f3d 026b 7ebd 89b9 c83e
00000120: f6f0 8cbe 8659 cb3d 3234 063f e214 d23d
00000130: f8a3 4dbe 0125 673e de42 6e3e 092f 913e
00000140: 3fc6 95be 45b1 493e 1ae0 96be 22d0 263f
00000150: 489e 0abe 01af 8d3e 5dbe c83d 7f4c 88bc
00000160: fc6d c4bc 18f4 9e3e 023c e6bd 9efd 9bbe
00000170: 3c80 2cbe 4b22 5e3e b5ef acbd 4cab 01bd
00000180: 128b 30be 70b8 5a3e e6eb 773e a0c6 533d
00000190: 9cc4 a6be 709d a3be f448 91bd 4808 66be
000001a0: d3e6 c03e 5991 94be b6a1 a23c 47f1 e13e
000001b0: 9aa4 bc3d a5bf 9b3e c1b3 42be 705d f43e
000001c0: d910 fcbd 3e2d b6be 685a 963e 8158 92be
000001d0: 7b0f 0b3e 8b70 bc3e e9b7 04be c82a 1cbe
000001e0: 39bd 98be c1a6 acbd fb76 2bbf b962 b3be
000001f0: 7357 8abd 787b 853e 309f 4bbd 4ad3 b4be
00000200: 5a60 893e 42c7 1b3f f865 efbd a478 813e
00000210: 8668 da3d fcb7 cfbe 8d43 d2bd 299f 91be
00000220: 4d61 9f3e 31d9 363d a4da 9dbe 2f9b e63d
00000230: c781 fcbe d9b6 383e fc67 973e f2b0 8b3c
00000240: fb75 01bf e01f fd3e ef3f 56be 86fa 44bd
00000250: 0e06 b3bc fa8c 1ebf
-0.18013914 -0.13427319 -0.45716968 -0.104508124 0.17465955 -0.10450999 0.10848266 -0.12983723
-0.015294609 -0.30560106 0.12744215 -0.1313846 -0.11504428 -0.18636146 0.04750548 0.23552442
0.083881564 -0.13195884 0.0009268022 -0.053303182 -0.1442037 0.31972927 -0.073118724 0.104129404
-0.116065964 -0.1923025 0.18795967 0.20106147 0.016738703 0.021106912 0.30282024 -0.009771685
-0.06662478 -0.21438286 0.29394755 -0.051217593 0.11911652 -0.2302522 -0.25802314 -0.40736252
-0.21611714 0.03223923 0.25492057 0.26361418 -0.1396331 0.1033641 -0.16672929 0.09873144
0.3063469 0.23036022 0.2280455 0.19056508 -0.033123642 0.2644227 -0.010518366 -0.017240955
-0.055292025 -0.031686246 -0.28211412 0.026691558 -0.1583935 -0.19923685 -0.015030438 -0.3566207
0.15875153 0.38999623 0.64888453 0.021412114 -0.34781796 0.03512652 -0.06211377 0.39204052
-0.2752759 0.099291846 0.52423394 0.10257889 -0.2008208 0.2257271 0.23267695 0.28356197
-0.29252812 0.19696529 -0.2946785 0.65161335 -0.13536942 0.2767258 0.09801934 -0.016638039
-0.023978226 0.31045604 -0.11241914 -0.30466932 -0.16845793 0.21692769 -0.08444158 -0.031657502
-0.17240551 0.2135942 0.24211082 0.051703095 -0.32571876 -0.31956053 -0.07093993 -0.22464097
0.37676105 -0.2901714 0.0198525 0.44129393 0.09211083 0.3041965 -0.19013883 0.47727537
-0.12307901 -0.35581392 0.2936585 -0.28583148 0.13580124 0.36804613 -0.12960781 -0.15250695
-0.29831865 -0.08430243 -0.66978425 -0.35036257 -0.06754961 0.26070762 -0.04971236 -0.3531745
0.26831323 0.6085092 -0.11689371 0.25287354 0.106644675 -0.40570056 -0.102667905 -0.28441742
0.31128922 0.044640724 -0.30830872 0.11260068 -0.49317762 0.18038501 0.2957152 0.017052148
-0.5057065 0.4943838 -0.20922826 -0.04809048 -0.021853473 -0.61933863

4.bias f4 [5]
00000000: 6c39 38bc a63e 2c3d e7e0 f5bd 51c3 343a
00000010: d390 0ebf
-0.011244159 0.042051934 -0.12005787 0.00068955595 -0.55689734

0.weight f4 [30, 2]
00000000: 44cb e33e 6fcb 833e 4a81 a13e 8c60 873f
00000010: 0d99 d0bd 4c1c 6c3d 0e70 803d d14e b3bf
00000020: 6ad8 b8bd fa75 b23a 1b06 84be 03b2 0b3e
00000030: 292f 12be dc1b 4a3a 10b6 4b3f b453 66be
00000040: 750a 613f 9335 693f 6600 26bf f339 d5be
00000050: e619 18bf a041 c9be 173d aabe f84d 54bd
00000060: 406a 4ebe 4cc2 18bf a447 d3bd 8f99 8abe
00000070: 345e be3f bb5c c3be 47c1 f7be 7aa0 5b3f
00000080: 19af bdbd 9058 9f3e fb10 da3e 63c5 743f
00000090: 8cf3 27bf c06a 563f 7eae 893f d056 b5be
000000a0: 455b 213f 9ae3 513f 7273 8cbd 933f 703e
000000b0: b548 2e3f 1e25 10c0 9db1 6f3d d61a 963e
000000c0: ea1b b1be c135 053e 8336 71bf 7ba0 893f
000000d0: bd1b 393f f1d0 4f3e 5f6f 83bf 6ad4 433f
000000e0: b48f 473e 8d1e 3c3d 4276 f3bd 3219 c23f
0.44491017 0.25741145 0.31543952 1.0576339 -0.10185442 0.057644174 0.06271373 -1.4008428
-0.09025653 0.0013615482 -0.25785908 0.13642125 -0.14275803 0.000770984 0.7957468 -0.22492868
0.8790658 0.9109737 -0.6484436 -0.41645774 -0.5941452 -0.3930788 -0.33249733 -0.05183217
-0.20157719 -0.59671474 -0.10316399 -0.2707028 1.4872499 -0.38156685 -0.48389646 0.8579174
-0.09261913 0.31122255 0.4259108 0.9561369 -0.65606 0.8375664 1.0756376 -0.35417795
0.6302989 0.8198792 -0.06857957 0.23461752 0.6807969 -2.2522655 0.058518995 0.2931735
-0.3459161 0.13008787 -0.94223803 1.07521 0.7230795 0.20294549 -1.0268363 0.76495993
0.19488412 0.045927573 -0.1188779 1.5163939

0.bias f4 [30]
00000000: e10f 6dbf c28e f6be 31e0 ed3e d546 93bf
00000010: 03a1 b63f dcd4 4fbf bbb5 d13e f448 183e
00000020: 4f54 1cbf beeb aa3f 7ea5 0e3e bc7b 2abf
00000030: 4693 0fbe 34bd 19bf 2469 e43f 7202 01bf
00000040: 99f1 8dbf 7c40 9dbe 3fd5 cfbf 053f 72bf
00000050: 1782 143f 7bc5 21be 8699 973f d608 8e3e
00000060: a52c 9dbf 4df9 643e c0ac b03f 0df9 963e
00000070: e922 22bf 68bc ca3f
-0.92602354 -0.4815579 0.46460107 -1.1505991 1.4267887 -0.8118417 0.40958962 0.1487158
-0.61066145 1.3353193 0.13930318 -0.66595054 -0.14021024 -0.60054326 1.7844586 -0.50394356
-1.1089355 -0.3071326 -1.6236953 -0.9462741 0.58011 -0.15797989 1.1843727 0.27741116
-1.227925 0.22360726 1.3802719 0.29486886 -0.6333452 1.5838747

2.weight f4 [30, 30]
00000000: 0b13 973e 568c 1b3e 2673 733d 14f9 bebd
00000010: 5bc1 5bbe c3a4 133d 14bf 383c 06b2 fbbd
00000020: f66a 043e eede bbbe c1e7 883d e04f 3b3e
00000030: bfe2 143d f72d 873d fb92 53bd 1f59 a53d
00000040: 50d1 9a3c 6b1b 1e3e a744 4a3d d0fd d2bd
00000050: f4ba 1e3e c038 123e 035d 61bf 89a2 9c3d
00000060: fc67 8b3d 47fc c13e a19a 9a3d a5d0 903e
00000070: 733e 03bc 3cf1 7d3d 4be4 66bd a9be 39bf
00000080: bc1d 8abe a32c 533f 28b3 9b3d a051 7abd
00000090: 020e 91bc 20dc 9b3e 5e8a d6be 1f3b 3b3e
000000a0: 7c29 9e3e 4487 943e 10ac a83e d95b bb3e
000000b0: 6e23 e33b df07 99be 9b66 f33c 217a f5be
000000c0: e564 0dbe fa6e 103f 4c00 c4be 7971 a6be
000000d0: 87d4 9b3e fa16 13bf 0a11 2c3e b45b 4abf
000000e0: 1ea0 27be 4a24 fbbe 8e60 7abd e3c0 60bf
000000f0: 36f7 6dbd 3480 0d3d b610 0f3d 0691 53be
00000100: 27e9 9cbc 49b5 30be b03a aebd 01de 593e
00000110: c562 0f3e c323 8ebe 789b 9b3d 3676 103e
00000120: 224a 623d cade 873e b185 d1bd 5806 18be
00000130: 565e a8bd 1288 1d3c 7325 dcbd f8e0 4d3d
00000140: 1872 57be 0012 06be 54c0 523d 1a7f 61be
00000150: 2118 72bd abf0 b2bd dd2f 2ebe af62 d23c
00000160: 898f ca3d 0561 403e 1d37 df3c 66f3 1abe
00000170: 24b3 0f3e 33f6 92bd 679d 8abd 01f0 42bd
00000180: b781 663d e261 f0bd 97fc 6a3e 1b40 8c3c
00000190: 9c76 5ebe 2306 3a3c a8b9 44be e9c3 d13d
000001a0: 3349 b83e ab55 f5bd 57a2 a93e 72f4 a5bd
000001b0: b659 04bf 0205 933d daa9 283c 6274 8f3e
000001c0: bd69 8cbc 1129 5b3e 5226 4a3e d7b9 6c3e
000001d0: 3534 c4be 3b83 3e3d 005f 18be 4027 b23e
000001e0: 2600 d7bd 4b75 71be 586d 093e d2bc 343e
000001f0: 8e78 0cbe 0179 bb3c a72a b33d f461 323e
00000200: 2d7c 1dbe 9452 6e3e 8f34 c43d 9e43 c23d
00000210: b745 be3d 2a20 d7bd 556e b7bd bf71 eebd
00000220: db80 89bd c6c6 41be 9fa9 9a39 4953 93bc
00000230: 1899 d8bd 90f6 60bc 23d0 943c bc68 dbbd
00000240: fe2f 493e b2e9 8bbe 51d6 08bd b17b 5dbc
00000250: 3db0 07be c81a 69be 9386 abbd f464 75bd
00000260: 843e 6d3d 2b3f d03d 68bd aa3d adcc 713d
00000270: 8de5 383e bd05 a33c d9c1 9ebd ac28 663e
00000280: 41c2 24be 437a 6bbc 7459 e2bd 4a06 ebbd
00000290: 3ae1 29bc ca6f 2f3e 93e9 2c3e 43f3 033e
000002a0: 2299 a33e 17f1 28be b140 983e 8eda 213e
000002b0: 2c32 543e 7001 ccbd bfd0 6d3e e86f 9dbe
000002c0: a680 0b3c 0ea2 a7bc f3f5 32be 0903 55be
000002d0: af62 a4bd 649c c03e b23b 7b3e f82c 9bbe
000002e0: 4fe5 10ba 9622 b63d 9c62 2cbd 5fd3 16be
000002f0: 2138 163e a332 a4bd c049 b9bd 4546 043e
00000300: 0837 28bc 4f01 dc3d b010 99be 2278 a13e
00000310: 1bbe 073e d50c 383e d122 a73e a21a 57be
00000320: 4535 88bd 59f6 913e 6a62 77bf 9185 5b3e
00000330: f1b1 8a3e f467 1a3f 6740 f9bc 6cf8 d73e
00000340: a728 863d fc9d 02be e8f4 f03d 68ef b6bd
00000350: 78c6 9f3d 3169 2bbd c2de 91bd 33b5 a539
00000360: 8855 cc3d 0484 19be dbf1 3dbe 4175 f3bd
00000370: 6be0 8fbc ada2 ef3d a57a 363e 7994 513d
00000380: 6ab5 273e b356 babd da3d ddbd 501f 27be
00000390: 83d0 62be c862 efbd c22b a8be 31b7 53be
000003a0: 61d8 62bd aa1c 383d 3418 d93d 8cdb 883e
000003b0: 28d3 5ebd 6bb6 ba3a b6a5 dabd b899 6b3c
000003c0: 018e 42be 9639 613e cd0f 6b3e 5ef9 31be
000003d0: a941 4f3e 10af d3bd 18f6 9e3e 14d3 69bc
000003e0: 5986 143e 54b6 72bc a39a 0f3e b2f9 023e
000003f0: b475 02bc b652 533d 95e1 b7bd c5df 823e
0.29506716 0.15190253 0.059435986 -0.09324852 -0.21460478 0.0360458 0.011276025 -0.12289815
0.12931427 -0.3669352 0.066848285 0.18292189 0.036349054 0.06600564 -0.051653843 0.08073639
0.018898636 0.15440147 0.04938188 -0.10302317 0.15501004 0.14279461 -0.8803255 0.076481886
0.06806943 0.37887785 0.075490244 0.28284183 -0.0080104945 0.061997637 -0.05637006 -0.7255655
-0.2697581 0.82489985 0.07602531 -0.061113 -0.017706875 0.3044138 -0.4190244 0.18284272
0.30891025 0.2900945 0.32943773 0.36593512 0.006931714 -0.29888818 0.029712012 -0.4794474
-0.1380802 0.56419337 -0.38281476 -0.32508448 0.30435583 -0.57456934 0.16803375 -0.7904618
-0.16369674 -0.49051124 -0.061127238 -0.8779432 -0.058097087 0.034546092 0.034928046 -0.20660791
-0.019154144 -0.17256655 -0.085072875 0.21276094 0.14002521 -0.2776166 0.07598013 0.14107594
0.05524648 0.26537162 -0.10230578 -0.1484617 -0.08221118 0.009614961 -0.1074933 0.050263375
-0.21039617 -0.13092804 0.05145295 -0.22021142 -0.059105042 -0.0873731 -0.17010446 0.025681822
0.098906584 0.1878701 0.02724796 -0.15131912 0.1403318 -0.07175865 -0.06768303 -0.047592167
0.05627605 -0.1173742 0.22947918 0.017120412 -0.21724933 0.011354002 -0.19211447 0.10242445
0.35993347 -0.119792305 0.33131668 -0.08103265 -0.5169939 0.071786895 0.010294402 0.2801848
-0.017140264 0.21402384 0.1974118 0.23117767 -0.3832108 0.04651187 -0.1487999 0.3479557
-0.10498075 -0.235799 0.13420618 0.17650154 -0.13717863 0.022884848 0.0874837 0.17420179
-0.153794 0.23273689 0.09580337 0.09485553 0.09290641 -0.10504182 -0.08956591 -0.11642789
-0.0671403 -0.18923482 0.00029499547 -0.01798405 -0.10576075 -0.01373066 0.018165654 -0.10713336
0.19647214 -0.27326733 -0.033407513 -0.01351826 -0.13250823 -0.22764122 -0.08375277 -0.05991073
0.057920948 0.10168298 0.083369076 0.059033085 0.18056317 0.019900197 -0.07751817 0.22476453
-0.16089727 -0.014372411 -0.11052218 -0.11475809 -0.01036864 0.17132488 0.16885976 0.12885766
0.3195277 -0.16498218 0.29736856 0.15806028 0.20722264 -0.09961212 0.23224162 -0.3074944
0.008514559 -0.020463016 -0.17476635 -0.20801939 -0.08026635 0.37619317 0.2453449 -0.30307746
-0.00055273337 0.088933155 -0.04208623 -0.14729069 0.14669849 -0.08017471 -0.0904727 0.1291743
-0.010267027 0.10742437 -0.29895544 0.31536967 0.13256113 0.17973645 0.3264375 -0.21006253
-0.06650785 0.2850826 -0.9663454 0.2143767 0.27088884 0.6031487 -0.030426217 0.42181718
0.065507226 -0.12755579 0.11765462 -0.08932382 0.07801527 -0.041848365 -0.07122566 0.00031606256
0.09977251 -0.14991766 -0.18549292 -0.11887599 -0.017563066 0.1170095 0.17820223 0.051166985
0.16377798 -0.09098568 -0.10802813 -0.16320539 -0.22149853 -0.11688763 -0.32845885 -0.2067535
-0.055382136 0.04494921 0.106003195 0.2673 -0.054400593 0.0014245039 -0.10676138 0.014379911
-0.18999483 0.21994624 0.22955246 -0.17380282 0.20239891 -0.10336125 0.3104713 -0.014271516
0.14504375 -0.014813978 0.14023833 0.12790564 -0.007962633 0.05159255 -0.08978573 0.25561348

2.bias f4 [30]
00000000: a569 34bd ad24 6bbe cc0d 24be 822e c13d
00000010: 8436 0e3e b5ae 9d3d b99b dc3c 8cea 2cbe
00000020: 76ed 883d b8fa 413e c668 153e 8e64 eabc
00000030: 33d7 99bc c467 f63d c8c5 8e3e 4ad5 d4be
00000040: 4325 853e 673a 93bd 015d e0bd daed 77bc
00000050: b8f0 603e d58c 003d c177 323e 8af8 b1be
00000060: cc3c 99be 1119 52bd 7c9d 023e acb4 263e
00000070: 2bb1 3a3d a64c 54bc
-0.044046063 -0.2296321 -0.16020888 0.09432699 0.13887984 0.07699338 0.026929723 -0.16886348
0.06685917 0.18943298 0.14590749 -0.028612401 -0.018779373 0.120315105 0.2788527 -0.41568977
0.2600499 -0.07188874 -0.10955239 -0.015132392 0.21966827 0.031384308 0.17428495 -0.34759933
-0.29929197 -0.051293436 0.12755388 0.16279858 0.045579117 -0.012957728

4.weight f4 [5, 30]
00000000: 6816 45be fc10 403d 80fa 3cbd 0314 773e
00000010: 6bd8 183e b4a9 ef3d 7ed0 01be f038 bebd
00000020: 451b b8bd 041c 34be 44ba f73d af97 483d
00000030: eff4 d33d fefa 393e 89a9 79bb f94e 24be
00000040: 8c14 aa3e 75d2 553c 713b 983e 4b81 86be
00000050: 208e 8e3e 8b5b 76bd 0e1c cbbe a042 12be
00000060: 0762 b83d 0fd5 453e 6266 8d3d 576b e8bc
00000070: b2b2 7a3c d0c4 5bbd 121f 8fbc d4dd 963c
00000080: a807 8b3e 9de7 053e c9b3 17be 3584 cbbd
00000090: a4cd 31be 0d87 443d 35fe 96be 3f07 4dbd
000000a0: 8e7b 98be aabd 983e cb07 813e aa41 3cbe
000000b0: 9bf3 6fbe 5c5b 3dbf ae3d 43be 3400 abbd
000000c0: f4b2 38bd 04e8 013e 3591 93be 10d9 6dbe
000000d0: cebd 01bf 5d11 703e 03ef 2e3e 9120 4cbe
000000e0: 0551 a1bd d88c 91be 8983 8bbe 9aef 0b3e
000000f0: 8027 6abe f4dd 67bf 0ebe 10be e400 c2be
00000100: 4103 7bbe 1dd7 e9bc 3ed8 b9be 9cdb 07be
00000110: 8036 1abd 66b6 443f 1417 803e 8a95 963e
00000120: bb33 0fbf f6cc 893e 4da6 603e dabb 4e3f
00000130: 8fda d23e 5478 e43e 8ebf 2ebd dc08 9b3d
00000140: 2576 52be 309c d53b 8618 fcbe 822a 40be
00000150: f0d1 71be 570f ccbe 3e39 f1be 6622 33be
00000160: 39ce 1e3e cd10 723f c607 08bf 8bff 4f3e
00000170: a68f 38be 8d81 50bf 677e 993e db62 013f
00000180: 2e68 cdbe 18a6 2abf 0d28 35be 3a45 3fbe
00000190: a20a 2c3f 75c3 993d 9d67 0abf 5534 07bf
000001a0: 5eef bebe 97ea f1be 1064 e3be b6ac aebe
000001b0: 1ffb 07bf 3640 433f fe0c 75bf f66f f0bc
000001c0: 8bb6 6fbd 64a0 11bd 361a d23c f87d 57bc
000001d0: 08b0 e1be 1a34 7c3e 8b7e fb3e aeae 8e3f
000001e0: e364 0fbe 6914 80be ec21 10be 855b 2c3d
000001f0: 9190 79be 8e2c 7ebe b4f2 87be 9c8d 963d
00000200: 308b 38be 4a2f 623e c7fa ea3c 686e 62bd
00000210: 426f 703e 105f 61be fdb8 6dbb 292e 8dbe
00000220: d3cb c0be 7d2a 8ebe e4ef 8a3e 09ed 77bd
00000230: 7f0e 773c b13f b2bb 3e73 3cbd 9273 00be
00000240: 62bb 083e 555d e73e b80f 593e 3ffa f3bd
00000250: 6df7 abbd 562b 293d
-0.19246829 0.046891198 -0.046137333 0.24128728 0.14926307 0.1170229 -0.1267719 -0.09288204
-0.08989576 -0.17588812 0.12096074 0.04897278 0.10349452 0.18162152 -0.0038095436 -0.1604575
0.332188 0.013050665 0.2973285 -0.26270518 0.27842808 -0.060145896 -0.39669842 -0.14283228
0.09003072 0.19319557 0.069042936 -0.028371496 0.015301393 -0.053654492 -0.01747087 0.018416323
0.2715428 0.13076635 -0.14814676 -0.09937326 -0.17363602 0.047980357 -0.2949082 -0.05005574
-0.29781765 0.29832202 0.25201258 -0.18384424 -0.23432772 -0.7396753 -0.19066498 -0.08349648
-0.045092538 0.12686163 -0.28821722 -0.23227334 -0.50680244 0.23444124 0.17083363 -0.19934298
-0.078767814 -0.28427768 -0.2724879 0.1366562 -0.2286663 -0.9057305 -0.14135 -0.37891304
-0.2451296 -0.028544957 -0.36297792 -0.13267368 -0.03764963 0.7684082 0.25017607 0.29410964
-0.5593831 0.26914185 0.21938439 0.8075539 0.41182372 0.44623053 -0.04266315 0.07570049
-0.20552881 0.006518863 -0.4923746 -0.18766215 -0.23615241 -0.39855453 -0.47113985 -0.1749359
0.15508355 0.94556886 -0.5313686 0.20312326 -0.18023548 -0.8144768 0.2997925 0.50541466
-0.40118545 -0.6665969 -0.1769106 -0.18678752 0.67203724 0.075079836 -0.5406435 -0.5281423
-0.37291998 -0.4724929 -0.4441228 -0.34116143 -0.53117555 0.76269853 -0.9572295 -0.029350262
-0.058523696 -0.03555335 0.025647264 -0.013152592 -0.44079614 0.2462925 0.49119982 1.1147058
-0.14003329 -0.25015572 -0.1407544 0.042079467 -0.24371554 -0.24821684 -0.26552355 0.073512286
-0.18021846 0.22088352 0.028684033 -0.055281073 0.23479941 -0.2200892 -0.0036273592 -0.2757428
-0.37655506 -0.2776679 0.27136147 -0.06052879 0.01507914 -0.0054397215 -0.04600834 -0.12544087
0.13352731 0.45188394 0.21197402 -0.11912965 -0.08396802 0.041301094

4.bias f4 [5]
00000000: 8d50 0e3d f09d 20be 0534 3a3d ddff 2cbe
00000010: ba4f 7fbe
0.034744788 -0.15685248 0.045459766 -0.16894479 -0.24932757

0.weight f4 [30, 2]
00000000: 5f41 cabe c64f bc3e 6f85 d3bd ed36 893f
00000010: 8299 583a 821f ab3e 39f0 4b3f 67dc f43e
00000020: 7c15 66be f380 2a3f cd6e ff3e 2d23 b8bf
00000030: e8de 2e3e 9bed 0bbf 2e79 2b3f a8d8 873f
00000040: f5f5 02be 4b8f bf3f 0725 66bf d1bb 9f3f
00000050: 6e02 c03f 27bf 4bbd 185a 72bf 8496 ad3d
00000060: ad2b 0dbf d079 e03d 9aba f1bf 7455 1bbf
00000070: 2d81 1dbf c6dc acbe 58dd 7abf 8b6f d2be
00000080: 580b 57bf f0e9 b0be 9082 84be 3680 9f3f
00000090: de0c 8f3f efb8 a8bf 8e81 d63d 8c62 a3bf
000000a0: 472b 05bf 1617 383e 0313 22bd 8b39 b8bf
000000b0: c1eb a3bf 934b 11bf f45a 823f 94e8 463f
000000c0: df6b 67be 5b88 23bf c952 8cbf 86e7 3bbf
000000d0: 1805 42bf 64b1 053f 92c4 913e 86d7 9dbe
000000e0: 2b0f 08be 9f70 afbf 2db3 cdbf 3798 983e
-0.39503 0.36779612 -0.10328185 1.0719887 0.00082626205 0.33422476 0.79663426 0.47824404
-0.22469133 0.6660301 0.49889222 -1.4385735 0.1707722 -0.5465943 0.6698178 1.0612993
-0.12789138 1.4965605 -0.8990025 1.2479192 1.5000741 -0.049742844 -0.9466872 0.08475974
-0.5514477 0.10960734 -1.8885071 -0.60677266 -0.6152523 -0.33762187 -0.97993994 -0.41100726
-0.84001684 -0.3455348 -0.2588086 1.2461002 1.1175802 -1.3181437 0.10473929 -1.2764449
-0.5201916 0.17977557 -0.039568912 -1.4392561 -1.2806321 -0.5675594 1.0184007 0.77698636
-0.22599743 -0.63879937 -1.0962764 -0.7340015 -0.7578902 0.522238 0.28470284 -0.30828494
-0.13287036 -1.3706244 -1.6070305 0.2980363

0.bias f4 [30]
00000000: 6876 8cbf 04a9 463f bb3f 923f 4a9e 2cbf
00000010: a245 26bf be2c ec3e 7157 8dbf 835b 333f
00000020: 7a2a 02bf 8f72 033f f8dd 09bf 20e2 8bbf
00000030: 1129 a0bd dd2c 713e 881f 3b3f 5d1c 8e3f
00000040: eb59 b9be 50f3 5fbf 00d1 203e a89e 82bf
00000050: 9280 b3be 09b1 adbf ab41 f0be 2b1f c9bd
00000060: 7ee0 00bf ddc2 873f 587b 473f 11e3 7c3f
00000070: c0ab 663f 5035 80bf
-1.0973635 0.7760165 1.1425699 -0.6742903 -0.6495 0.46127886 -1.104231 0.7006151
-0.50846064 0.5134668 -0.5385432 -1.0928383 -0.07820333 0.2355227 0.7309499 1.1102406
-0.36201414 -0.8748064 0.15704727 -1.0204668 -0.3505903 -1.3569652 -0.469251 -0.09820398
-0.5034255 1.0606343 0.7792258 0.98783976 0.9010582 -1.001627

2.weight f4 [30, 30]
00000000: 1eaf 943e ac55 db3b 0f23 043e f486 86be
00000010: fdd1 8d3e 2153 b53d 6eb1 ef3b fc9c 983e
00000020: 09d1 8bbb 2a49 75be 6890 e73d def2 8a3e
00000030: 6ff9 ba3e 1a89 ebbe bd10 1d3e 5d4e df3d
00000040: b45c df3d 7b49 313d 7679 bd3e bb48 e8bc
00000050: 1def 9d3e 09ce 3dbd 36a7 3d3e 7d73 7e3e
00000060: 1044 f0bd 5236 4dbd 45a9 10bd 51d6 88be
00000070: f4af 16be 0a94 bcbe 4c95 93bd fd86 19bf
00000080: 5b3c d9bd c686 18bf b448 d8be 1f00 2cbc
00000090: 3541 793e 2bce 63be 8d77 73be 648e eebe
000000a0: 3435 45be be8b 683d b657 753e fe66 b33c
000000b0: 9602 c03e 09ea bd3e 27c6 393e d680 21be
000000c0: ec3d 8a3e c199 d13e 85bd c63d b76b 043f
000000d0: a625 973e 81c2 e3be 31dd 6c3e c0ad 433f
000000e0: 7da7 9fbd e673 393e bf52 0c3e 596b 923d
000000f0: 1d49 233f c467 29be 2d1c 56be 56fc d4be
00000100: eb9f 24be 7421 03be 5780 36bd 2dd5 0dbe
00000110: 60ec 2dbb 6389 01be 609b 07bf 1cdd eb3e
00000120: 59bf f13e 2749 593f e00e e53e 75b3 ce3e
00000130: 4c4d 993e c727 cf3d de21 803e 4ca2 ac3d
00000140: 9c1d 233f 276f 6abc 3771 be3d 53f5 7bbc
00000150: 367b be3d e84d 123f b029 edbc 8c6d 6bbe
00000160: a686 193d 82ad 5f3f c2a8 bfbd 6c7c c4bd
00000170: bb37 19be 0531 4b3e 7348 4a3e b787 a6be
00000180: 3987 243e cced 8c3e 39a5 f53e cdfe f1bd
00000190: 12af 293e e0f0 993d 9afd 50be f7be 183e
000001a0: 4a6d 5fbe 0052 9abe 5a57 bfbe ca9b 943e
000001b0: 5145 1fbe bc6d 833d 419b 373d 3e1d 84bb
000001c0: d2ff e9bc ff1b 7bbd b5b0 683b af74 c0be
000001d0: 7746 cd3d 0758 fd3d 51ed 09bf 83bd 5c3e
000001e0: 8eef 18be bef8 3f3f 1293 d53e fc45 09bd
000001f0: 4f7a c0bd 19ac 643e b68d 12bf c00f 533f
00000200: bbdd c2bd 02b9 b73e 8d79 49be 49be 3a3e
00000210: 350a b63e 52c7 213e f281 953e fc36 e53d
00000220: 589a 3ebe bdfc c939 bf48 b5be c136 26bf
00000230: 2ee4 693e 1e38 3cbf f833 90be 0e48 fc3e
00000240: c7d3 25bf 751c 2b3e 1ea3 0c3f 92b6 d7bd
00000250: 50a2 a23e 2eb7 603e 9c0b a73e 2e96 513d
00000260: c521 aa3c 7f70 08bb 0038 413f adfa a13d
00000270: b2fa 823e c605 c63d 6b59 3c3d a287 7dbd
00000280: b648 c9be 5b6e 4b3d 99eb da3e af93 25be
00000290: 299c 9a3d c521 913e 1439 fe3d 9dfe 0a3d
000002a0: c76d 36be e835 9abc 3f0c 023f 25a5 74bd
000002b0: 8a19 aa3e 83b1 40be e63b 05be 114a 94bd
000002c0: ee71 0c3d 6e9e 26be 55a3 99bd ed60 0fbf
000002d0: 3e66 5abd a95a 8bbd 36e8 363e 0c02 a6be
000002e0: c537 84be 7a7d 313d 6737 8bbe e46d a7be
000002f0: 6560 5f3e e86a 0a3e 6c1a 6abe f9db f4bc
00000300: 006b 123e 010e 813f da0b 773e 41b8 563e
00000310: 18f0 e73e db57 dd3d dc90 7dbe 3930 823e
00000320: 4d94 0bbd a543 a73e 590c b83e 59a0 2ebe
00000330: 4ef2 d0bd 8d12 a93e 538b 2bbe e9c0 4abd
00000340: 3420 2d3e 56a9 d23e 4eb9 6ebf 4213 983d
00000350: 3814 c13c 9b74 e6bd d2d6 38bf 0a21 e73d
00000360: 578a 653d 0b4a 5abe 1b05 bdbe 54e6 943d
00000370: 9eb8 f13d fc9e babe db88 bebe ee62 2bbf
00000380: 43f6 453e 9b8a 1fbe f4f7 9ebe 8d2b 52be
00000390: eb76 48bd b2cd 76be 6309 b1be a3cb afbd
000003a0: 1edd 28be 433f 73be 6b52 aebd 407c fdbd
000003b0: b376 18be 46be ce3e 4cce 563f cdc8 56bf
000003c0: 0cc8 153f a509 b4bc 5c8a c3bb bfe6 543d
000003d0: f8ab dc3e c559 923e 864f 27be 1963 333e
000003e0: 5fe2 abbd d6cf 95bc e8b8 fc3d 9c5e e63e
000003f0: ab83 cb3e 278b 00bf ce0d b23e 8c66 b63d
0.29039854 0.0066935625 0.12903999 -0.26274836 0.2769927 0.08853746 0.0073148524 0.2980727
-0.0042668623 -0.23953691 0.1130684 0.27138418 0.36518428 -0.46003038 0.15338416 0.109036185
0.109063536 0.043282967 0.3700673 -0.028354993 0.3084649 -0.04633907 0.18520817 0.24848743
-0.11731732 -0.050100632 -0.035317678 -0.2672601 -0.14715558 -0.36831695 -0.072062105 -0.599716
-0.10607215 -0.5958065 -0.42242968 -0.010498076 0.24341281 -0.22246616 -0.23776074 -0.4659301
-0.19258577 0.056773894 0.2395924 0.021899696 0.37501973 0.37092617 0.18141995 -0.15771803
0.27000368 0.40937617 0.09704117 0.5172686 0.2952091 -0.44484332 0.23131253 0.76436996
-0.07795618 0.18110618 0.1370344 0.07149381 0.63783437 -0.1654349 -0.20909186 -0.41598767
-0.16076629 -0.1280573 -0.04455599 -0.13850851 -0.0026538596 -0.12650065 -0.5297146 0.4606713
0.472163 0.84877247 0.4473791 0.4037129 0.29941785 0.10115009 0.2502584 0.08429393
0.63717055 -0.014308727 0.09298938 -0.015378314 0.09300844 0.57150126 -0.028950542 -0.22991008
0.037481926 0.87374127 -0.0935836 -0.09594044 -0.14962666 0.19842918 0.197542 -0.32525417
0.16067208 0.27525175 0.47977617 -0.118161775 0.1657069 0.075166464 -0.20409241 0.14916597
-0.21819034 -0.30140686 -0.3737133 0.29025108 -0.15553786 0.064174145 0.044825796 -0.0040318063
-0.028564367 -0.061305996 0.0035505716 -0.37589023 0.10023206 0.123703055 -0.5387774 0.21556668
-0.14935133 0.74988925 0.41713768 -0.033514008 -0.093983285 0.22331275 -0.57247484 0.8244591
-0.09514948 0.35883337 -0.19675274 0.1823665 0.35554662 0.15798691 0.29200703 0.11192128
-0.18613565 0.00038526012 -0.35407063 -0.649273 0.2284095 -0.7352313 -0.2816465 0.49273723
-0.6477627 0.16710074 0.549364 -0.105328694 0.3176446 0.21944878 0.32626045 0.051168613
0.020768056 -0.0020819006 0.75476074 0.07909141 0.2558189 0.0966907 0.045983713 -0.061896928
-0.39313287 0.04966579 0.42757872 -0.16169618 0.075493164 0.28346077 0.124132305 0.033934224
-0.17815314 -0.018824533 0.50799936 -0.059727807 0.3322261 -0.18817715 -0.1301113 -0.072406895
0.03428834 -0.16271374 -0.07501856 -0.5600727 -0.053320162 -0.068044014 0.17862019 -0.32423437
-0.258238 0.043332554 -0.27190706 -0.32701027 0.21814115 0.13517344 -0.22861642 -0.029890047
0.1429863 1.0082399 0.24125615 0.20968725 0.45300364 0.10807773 -0.2476229 0.25427416
-0.034076978 0.32668796 0.3594692 -0.17053355 -0.10202466 0.33021966 -0.16752367 -0.04950038
0.16906816 0.41144818 -0.932515 0.07425548 0.023569211 -0.112527095 -0.7220279 0.112855986
0.056040134 -0.21317308 -0.36917958 0.07270494 0.11802791 -0.3644942 -0.37213787 -0.6694783
0.19332223 -0.15580218 -0.31048548 -0.20524426 -0.048941534 -0.24101904 -0.34577474 -0.085837625
-0.164906 -0.23754601 -0.08511814 -0.123772144 -0.1488903 0.40379542 0.83908534 -0.8390015
0.5850837 -0.021977255 -0.0059674215 0.05197787 0.43099952 0.28584114 -0.1633893 0.17518272
-0.08392786 -0.01828758 0.123399556 0.44994056 0.39748892 -0.5021233 0.34776157 0.08906278

2.bias f4 [30]
00000000: 9316 033e e9b7 653d fd7d 61bc fc61 7ebe
00000010: d67f fe3d 980d 033d e04b bb3e aa18 bf3e
00000020: 69ca 09bd 011c 2dbe 5cfd b53d 26e0 863a
00000030: 3db0 313e 9ec0 473e 49a8 90be 7d3a ce3d
00000040: 84e5 88be 873d e03d d0ee 8d3e 4254 c6be
00000050: 743d 283c 1feb b9be cdf7 9a3d b6b1 023e
00000060: 8995 07be 676d 273e 9dcd 93bd 7672 1dbf
00000070: 2fba 7cbd ea48 9d3d
0.1280158 0.056083594 -0.013762948 -0.24842066 0.124267265 0.031995386 0.36581326 0.37323505
-0.0336403 -0.16905214 0.08886215 0.001029019 0.17352386 0.19507071 -0.2825339 0.100697495
-0.26737607 0.109492354 0.27721262 -0.3873616 0.010268558 -0.36312196 0.075667955 0.12763104
-0.13240637 0.16350327 -0.07216952 -0.6150278 -0.061700996 0.07679923

4.weight f4 [5, 30]
00000000: bc40 973e 99b4 0e3e 9523 d1bd 4b05 bb3b
00000010: ee2b 623d d929 943e 5baf 5fbe def4 7c3e
00000020: 8b7b ba3e 53dc 9bbd a6ac a83e 9bd9 40be
00000030: c8a6 273e 004b 703d cdd4 32be fa2c fabe
00000040: c1bc 0dbf 0f39 473d dd4f c2be f05b 21bf
00000050: 48af aebc 080b 003e ff97 8fbd e163 25be
00000060: ba7d ee3d 35f1 6f3d cb0d af3d 826d b23d
00000070: aa79 c13d 333e b43e 63b8 733d 186d c7be
00000080: 7ecd e0bd 09f0 ec3d 1c24 653e 3557 8b3e
00000090: 250e 123d 6859 f93c a289 0e3e e84c 20be
000000a0: 2c5d e9bd cb67 8b3e d81b 7fbe 3293 783d
000000b0: 7160 bbbd a081 a9be ba36 29be ab04 043e
000000c0: 1adb 3dbb a8e5 a4be d64a c53e 345d a63e
000000d0: 54b1 253e 3562 19bd f2dd a53e f682 44be
000000e0: 64ea 22bd b6a2 34bf ddd2 2c3f aca2 58be
000000f0: d1d6 87be d456 b7be 2280 583f 8cb3 a2be
00000100: 8355 273c d01a 13bf 0954 233f 9acc 6cbf
00000110: 2f4c f9be 9814 1bbe 513d 5dbc a2e9 f7be
00000120: e8ea b3be 6667 da3e 19a1 103f 8f49 923f
00000130: b475 ce3d 0e77 54be cf40 c9be bc92 3cbf
00000140: 3968 ac3e 966c f2be 9506 e33c c484 1f3f
00000150: 8525 f8be 70b6 0d3e 69e6 bfbe 49b4 3fbe
00000160: ec1c 1fbe 79ce fa3d b97d 733d ee21 223f
00000170: 4082 603e f14b 163f 45c0 5d3f 53aa 9dbe
00000180: c5b7 0ebf ea1e ffbd 34c1 6f3c 8138 5b3f
00000190: aa74 523e 6c17 be3e 7a21 09bf 5e4e 01bf
000001a0: d252 d13e c0eb b4bd a426 9bbe b5e2 46bd
000001b0: a4b3 25bf 0043 2ebe 48b4 e23d a51f bdbe
000001c0: dd31 193e 14fc b2be 05f5 483e 702d d83e
000001d0: 0ba8 2a3f 2928 563f ec91 393d 287a c4bd
000001e0: 4c63 f9be 97fa a9be 0354 9f3e 5f72 68be
000001f0: ca43 ecbe 64ee 8bbe cb72 fc3c 8248 17bf
00000200: ee59 0cbf d26a c23d f22c 11bf 03d4 5c3e
00000210: 8338 2abe 953b 283e 826c 0abf 99bc 5e3f
00000220: b715 903e 25a5 3ebf 175d 873e 43fe a63e
00000230: cbf3 d2be e216 83be 99c9 3d3e e50d a53e
00000240: 6eab e53d c124 ccbe 1d8c b5be 9a22 01bf
00000250: b5e7 1bbd 1a77 0fbf
0.29541576 0.1393608 -0.10211865 0.005707418 0.055217676 0.28938177 -0.21844237 0.24702784
0.3642238 -0.07610383 0.3294422 -0.1883301 0.16372216 0.058665276 -0.1746399 -0.4886244
-0.5536614 0.0486384 -0.37951556 -0.6303091 -0.021323815 0.12504208 -0.07011413 -0.16151382
0.11645074 0.058579642 0.08547553 0.08712293 0.09447034 0.35203704 0.059502017 -0.3895042
-0.109766945 0.115692206 0.22377056 0.2721497 0.03565802 0.03043814 0.1391969 -0.15654337
-0.11394724 0.27227625 -0.24912965 0.06068725 -0.09149254 -0.3310671 -0.16524783 0.12892406
-0.0028969706 -0.32206464 0.38533658 0.32492983 0.16180927 -0.037447173 0.32395893 -0.19190583
-0.039774314 -0.7056078 0.6750925 -0.21155804 -0.2653108 -0.35808432 0.84570515 -0.31777608
0.010213259 -0.5746279 0.638001 -0.924997 -0.48690936 -0.15144575 -0.0135033885 -0.48420435
-0.35140157 0.42657012 0.56495816 1.1428698 0.10081044 -0.20748541 -0.39307258 -0.736614
0.33673266 -0.4734847 0.0277131 0.6231196 -0.48466125 0.13839126 -0.37480476 -0.18721117
-0.15538377 0.12246413 0.05944607 0.6333302 0.21924686 0.5870963 0.86621505 -0.3079401
-0.5574916 -0.12457068 0.014633466 0.85633093 0.20552316 0.37127244 -0.53566706 -0.50510204
0.408835 -0.08834028 -0.30302918 -0.04855605 -0.64727235 -0.17017746 0.11069542 -0.36938205
0.14960428 -0.34957945 0.19624718 0.42222166 0.66662663 0.8365503 0.045305178 -0.09593612
-0.4870857 -0.33198997 0.31118783 -0.22699879 -0.4614547 -0.27330315 0.030816456 -0.59095013
-0.5482472 0.094930306 -0.56709206 0.21565251 -0.1662312 0.16428979 -0.5407182 0.8700653
0.28141567 -0.7447074 0.2643821 0.3261586 -0.41201624 -0.25603396 0.18533935 0.32237163
0.11214338 -0.3987179 -0.3545846 -0.5044342 -0.03806277 -0.5604111

4.bias f4 [5]
00000000: 1da5 91bd affd f23d 58bc 0fbe 7345 acbe
00000010: 7292 23be
-0.07111571 0.118647926 -0.14036691 -0.33646736 -0.15973833

0.weight f4 [30, 2]
00000000: a21b 26bf fe97 9e3f a125 0fbb b48c 23be
00000010: 4392 cfbe 0142 54bf 4f5d f7be f85e 5c3f
00000020: 2e3f 0b3f bcdb 7a3f 02a3 1f3e 9bba 6ebe
00000030: 3e10 acbe 6140 2240 0559 cdbf b5b3 43bf
00000040: b8d4 0e3d de2d a83f a30d 333e b0ba 21be
00000050: 7342 0abf 179f 86bd 619a 2abf bed4 1ebe
00000060: 2980 fb3d bfad 163f 2966 89bc 8c5f d1bf
00000070: b520 81bf 7a24 88bf 9e19 1abd 6889 09bf
00000080: 4ae1 70bd 1b4b 85be 73d9 93bf 0612 9c3f
00000090: 2fa2 023f 5787 373f 1b03 1840 44a9 8b3e
000000a0: 41c3 a6be 30ee 4abf 76cd 423f 170f 1b3f
000000b0: 1127 6e3f 7b6e f6bf 0576 0bbf b2e3 903f
000000c0: 5d81 22bf 5919 28bf a5bb be3d 66b2 d8bf
000000d0: 7e3b e5bd 1166 043f 3977 ce3e 4142 3d3e
000000e0: e70c a3bf 4c15 963e 42ea 573f f27c febe
-0.64885914 1.2390134 -0.0021842497 -0.15971643 -0.40541276 -0.82913214 -0.48313376 0.8608241
0.5439328 0.9799154 0.15589526 -0.23313372 -0.33606142 2.5351794 -1.6042792 -0.76446086
0.034870833 1.3138998 0.17485671 -0.15793872 -0.54007643 -0.06573313 -0.66641814 -0.15510842
0.12280304 0.58858865 -0.016772347 -1.6357284 -1.0088106 -1.0636132 -0.037622087 -0.5372529
-0.058808602 -0.26033863 -1.1550735 1.2193 0.5102872 0.7169089 2.3751895 0.27277577
-0.32570842 -0.79269695 0.7609476 0.605699 0.9302836 -1.9252466 -0.5447696 1.1319487
-0.6347864 -0.6566368 0.09313134 -1.6929443 -0.11192988 0.5171824 0.40325335 0.18482305
-1.2738312 0.29313123 0.84341824 -0.497047

0.bias f4 [30]
00000000: 2ce7 01c0 ab61 50bf d2ea 593e 5a31 7c3f
00000010: a8cb 81be be21 503f 237a 94bf 6954 46bf
00000020: 2751 0f3f bd2b f93e 6d86 27bf cef6 65bf
00000030: 625c 183f 09d8 80bf 43d8 4cbf 7e0b 603f
00000040: 4b94 31bf 6969 aa3f ca49 c4bf 41a1 ef3f
00000050: 5498 b53d 305d 3b3f b4ea 863f 498f 763e
00000060: 73ca 113f 4105 b9bf 1f09 38bf 79ef bcbe
00000070: 3586 893f 1bfd be3e
-2.0297346 -0.8139903 0.21280983 0.98512805 -0.2535069 0.81301486 -1.1599773 -0.7747255
0.55983204 0.48666182 -0.6543949 -0.8982972 0.59515965 -1.0065929 -0.8001749 0.87517536
-0.693669 1.3313419 -1.5335019 1.8721086 0.08866945 0.7318907 1.0540376 0.24078096
0.5694954 -1.4454728 -0.7188892 -0.36901453 1.0744082 0.3730248

2.weight f4 [30, 30]
00000000: b62a af3e bfb8 443d 8f71 0fbd 98d1 38be
00000010: 59ae 723e 3055 3ebd 04fe 8bbe b876 303e
00000020: d270 a2bd bdea ef3d 0fe1 863c eed6 dbbd
00000030: e703 1bbe 3d1e 02be a7dc 3ebe 5eeb 743e
00000040: a143 9bbd 4573 c0bd 0a57 dbbe 7789 bebd
00000050: d017 b2bd f1fe b03e dfc4 2d3e 28a3 333d
00000060: 6d7b 943e 9b57 373e bd10 b23d 57c1 23be
00000070: 2fcc d9bd b713 d73d 359c 913e a344 77bd
00000080: 48a9 a53d 1200 303e aa84 bb3d 2f03 ac3d
00000090: 5b19 81be 79b1 363e b184 b9bd 2633 0f3e
000000a0: 23fc 33bc 9703 44bd 45d7 2cbe 7e8f fa3d
000000b0: 5b14 d7bc 16ef 223e c5e5 eebd 1a44 4dbe
000000c0: a599 53be 2520 72be e9dc 1d3d 0dd1 1d3c
000000d0: 504c 3cbd 0b46 af3d eb28 9a3e ba44 41be
000000e0: 3c46 82bd 2e0d 9c3d a417 b4bc 12bc ad3d
000000f0: 0528 103e 5817 493e 7176 52be 0aa8 823d
00000100: 9748 f93d 6c93 a33d 8269 1bbe f538 5f3d
00000110: 0656 5d3e c4bd a63d af0b 15be 7252 11bd
00000120: 611f 2b3e 9cd1 52be 41d0 a7be 92ca 083e
00000130: e6be fa3d a636 1abe ef9a 33be 70b8 52be
00000140: 5056 bf3d 0434 f1bc 0efa 08be c90d 98bd
00000150: 078d 80be e076 b0be 7bde ad3d 63e3 853e
00000160: c77a 55bd 3e00 23bc c252 b53d 5281 0e3f
00000170: 9540 803e d42b 58bf 7249 44be 12c4 41be
00000180: 7009 1c3f 24b9 b2bd d40d 0ebf da73 0e3e
00000190: 06f4 8b3c 97ef ec3d 2707 16bf 4fcb 593f
000001a0: 2c39 463e 374c ffbd 258b 063f 1cd3 90be
000001b0: 9706 8c3e 0549 29be 19c8 b63e 688f ccbd
000001c0: d4a4 74be 8415 e8be 678b 733d 3374 8e3f
000001d0: 835b 633c 8c13 5bbc 1196 39bf 36a0 4e3d
000001e0: 6a9b b9be e31b 913e 1d92 b93e e4ab 08bf
000001f0: 94e4 7cbe 8240 1b3e a486 54bf 3915 4d3c
00000200: bee0 38bf 8be5 333e 4096 513d 8e53 94bc
00000210: f7de a0be fea3 103f f86f b33e a44b fe3e
00000220: 0327 143e 0123 6dbf 07df a8be 658e 3b3d
00000230: a54a e63e d742 abbe f8b8 b93e ef4c 2abf
00000240: 4792 233e 0422 f13e 06ba 1dbf 55eb 4d3d
00000250: 37e3 13bf 916d 3e3f a7eb 0a3d 00e6 783b
00000260: db08 31be 9af5 1b3e 006e 93bd 9cbf bcbe
00000270: 9ca0 b13c ecd7 3f3d f37f 923d 607a 7bbe
00000280: 71c6 823e 650b a03e 5e7f da3d 60be 333e
00000290: b7c1 9abd e7bf 59be 4a13 63bd 46cb 963d
000002a0: e6b0 a1bd c5a6 c33d 168e d0bd c923 0fbe
000002b0: 7ab1 8d3d f376 63be d3e9 21be 0deb 293e
000002c0: 0336 853e 89cd 5e3b 3cd2 adbd 8ee2 adbd
000002d0: 31a9 b43b ca0b b73e fc55 44be df1d 123e
000002e0: 3741 3e3e 02a0 773e 72eb 933d cf9a e7bd
000002f0: 47e1 abbd e6a4 473e 08af 93be 909a a2be
00000300: 7f4e 12be 14c0 b63d 3b25 1e3d 2cee 223e
00000310: b41e 603e 4d69 adbb 4b08 9cbd e701 87be
00000320: 854e 273d 89e8 ee3d 6981 1abe a825 2dbd
00000330: 6344 55bb 364d 71be 8db6 77bd f62f 803d
00000340: 73ce 163e 9a34 9bbe 2e8e d53e 0d26 213d
00000350: 2145 aa3c 8aa7 543e 5062 073d b8e4 e63d
00000360: 952c 253f bb3f 233e 6945 183e da82 083e
00000370: 758c b4bd 256d febd e334 bf3d 2a81 823c
00000380: 6d4e cbbc 7bd7 7fbe e34d d23d fdea 423e
00000390: 52c0 513e f628 10be 366d e23c 6d34 43be
000003a0: f2d3 ddbe 2cbb d53d f41a 8ebd 4457 313d
000003b0: 1f40 6e3e 41f3 973d cc15 2a3e 64a3 b3be
000003c0: 8cc5 2fbd 65a8 28be 9a1a 0cbe 4a2f 603d
000003d0: a0c9 803d b7b1 84be 72c2 e4bd edac 273e
000003e0: 371f 463e 7eec 71bd 3666 ea3d 6a16 0a3e
000003f0: 0baa cb3d 20f9 e9bd 6576 5f3e b0d1 aebe
0.34212273 0.04802775 -0.035020407 -0.18048704 0.23699321 -0.04646796 -0.27342236 0.17232788
-0.07931675 0.11714695 0.016464738 -0.10734354 -0.15138207 -0.12706847 -0.1863886 0.2391791
-0.075812586 -0.09396986 -0.42839843 -0.09303563 -0.08695948 0.34569505 0.16969632 0.04385677
0.29000416 0.17904513 0.08694599 -0.15991722 -0.10634648 0.10501807 0.2843949 -0.06036819
0.080889285 0.17187527 0.09156163 0.08399045 -0.25214657 0.17841138 -0.09058512 0.13984355
-0.010985407 -0.047854986 -0.16878994 0.122344 -0.026254823 0.15911517 -0.11664919 -0.2004551
-0.2066408 -0.23645075 0.038540754 0.009632361 -0.045971215 0.085582815 0.30109343 -0.18873873
-0.063610524 0.07619701 -0.021983929 0.08483137 0.14077766 0.19637811 -0.20552994 0.06379707
0.121720485 0.07987103 -0.15176967 0.054497678 0.21614847 0.08141664 -0.14555238 -0.035479017
0.16711189 -0.20587772 -0.32776073 0.13358524 0.12243442 -0.15059909 -0.17539571 -0.2057817
0.09342635 -0.029443748 -0.13376638 -0.07424504 -0.25107595 -0.34465694 0.084897004 0.26150045
-0.052119043 -0.009948788 0.088536754 0.5566608 0.25049272 -0.84441876 -0.19168642 -0.18922451
0.609519 -0.08726719 -0.5548985 0.13911381 0.017084133 0.11569136 -0.58604664 0.8507585
0.19357747 -0.12465709 0.5255607 -0.28286064 0.27348778 -0.16531761 0.35699537 -0.0998829
-0.23891002 -0.45328915 0.059459116 1.1129211 0.013876799 -0.01337136 -0.7249461 0.050445758
-0.36251384 0.28341588 0.36244288 -0.53387284 -0.2469657 0.15161327 -0.83017945 0.012517267
-0.7221793 0.17568032 0.05116868 -0.018106248 -0.3142011 0.5650023 0.35046363 0.49667084
0.14468007 -0.92631537 -0.32982656 0.045790095 0.44978824 -0.33449432 0.36273932 -0.6652364
0.15973769 0.47096264 -0.61611974 0.05027326 -0.5776858 0.74385935 0.03391614 0.0037978888
-0.17288534 0.15230408 -0.07198715 -0.36864936 0.02168303 0.04683678 0.071533106 -0.24558401
0.25542024 0.31258693 0.106688246 0.17553091 -0.075564794 -0.21264611 -0.055438317 0.0736299
-0.07895069 0.09553293 -0.10183351 -0.13978495 0.069186166 -0.22213344 -0.15811853 0.16593571
0.2601777 0.003399702 -0.08487365 -0.084904775 0.0055133332 0.35751182 -0.19173425 0.14269207
0.18579565 0.24182132 0.07222642 -0.11308824 -0.083925776 0.19496498 -0.28844476 -0.31758547
-0.14287756 0.08923355 0.038609724 0.15911168 0.21886712 -0.005292094 -0.07618769 -0.2636864
0.040846366 0.11665446 -0.15088429 -0.04227224 -0.0032541982 -0.2356461 -0.06047683 0.06259148
0.14727192 -0.3031357 0.41710037 0.03934293 0.020784916 0.20767036 0.033052742 0.112740934
0.6452115 0.1594228 0.14870228 0.13331166 -0.088158526 -0.124231614 0.09336259 0.01593073
-0.02481767 -0.24984543 0.10268762 0.19034953 0.2048352 -0.14078125 0.027639966 -0.19062968
-0.43325764 0.10436091 -0.06938735 0.043296114 0.23266648 0.07419444 0.16609877 -0.35085595
-0.042913005 -0.16470487 -0.13682023 0.0547326 0.06288457 -0.25916836 -0.111699 0.1637456
0.19347845 -0.059063427 0.114452764 0.13485113 0.099445425 -0.1142447 0.21822508 -0.34144354

2.bias f4 [30]
00000000: 9c49 42be 0b05 50be 1b89 98be 4eb4 c0be
00000010: 421a a23d 53f7 12be 03c6 67be 7624 82be
00000020: 756d d2bc 2bf4 ad3d d3a0 a4bd 0e62 a83b
00000030: cd16 25bd 1510 d2bd e73f 22bd 88e2 6b3d
00000040: 7967 653e 8e9b ba3d dba8 833e 3d5c 6f3e
00000050: cf1f 78bb 8d93 903d 110e 60be 1239 0a3e
00000060: 3864 6cbd 20d4 743d af5c c13e 24fd be3d
00000070: ed6c 26bc 6a2e 273e
-0.18973392 -0.20314424 -0.29792103 -0.37637562 0.079151645 -0.14352159 -0.22634129 -0.25418442
-0.025686959 0.08493837 -0.08038487 0.005138642 -0.040304948 -0.10256974 -0.039611723 0.057589084
0.22402753 0.09111701 0.25714764 0.2337503 -0.0037860756 0.07059393 -0.21880366 0.13498333
-0.057712764 0.05977261 0.37766024 0.093256265 -0.010157806 0.163263
