model_summon/ReconstructORI/Checkpoint_SEED42_LR0.001_HD30_HL2_Epoch5000_WithPhysics1_WithBatch0.pth (torch, 101687 bytes, 80 tensors)

0.weight f4 [30, 2]
00000000: efb2 f53e 4141 e93f c229 48bf eac2 4040
00000010: dfd4 3bbe 7af4 873e eb1c febe 208b 793f
00000020: 68d4 703f 0472 13bf 89a3 ff3e ebe1 923e
00000030: 08eb fc3e 4fd0 ac3d 6bdf 1a3e 2688 0fbd
00000040: aca9 ef3e 9af2 883e f455 84be ae4a 223e
00000050: dddf 82be fe6f 2dbe de30 b3be 56de a73f
00000060: 0dc6 94bf aa59 33bf 67bb dabd c1fe b9be
00000070: bc1e f33b 873b babf 0506 643f 28b0 51bf
00000080: d0af 893f edef 423f 2109 a7be 94ae 6e3f
00000090: 9e69 79bd df14 bb3f dfa5 683e 8f23 7bbe
000000a0: 3338 eb3d 5bed 81be ad3c af3e c62a 563f
000000b0: 5c83 343f 1f73 2dbf c659 ca3e b133 613e
000000c0: f9f4 873e 758c 9cbe 9c0b 32bf 29b3 94be
000000d0: 481e 50bf a3a7 463f afda be3e 46bc 3f3e
000000e0: 27af 9a3e 0e91 303e 499d 263f 28f0 32bf
0.47988078 1.8223039 -0.7818872 3.0118966 -0.18342923 0.26553708 -0.49631438 0.9747791
0.94074106 -0.5759585 0.49929455 0.28687987 0.49398065 0.08438169 0.1512429 -0.03504195
0.46809137 0.2674759 -0.25846827 0.158488 -0.2556142 -0.16937253 -0.3499822 1.3114727
-1.162294 -0.7005869 -0.106802754 -0.36327174 0.0074194353 -1.4549416 0.89071685 -0.8190942
1.0756779 0.7614735 -0.32624152 0.93235135 -0.06089174 1.4615744 0.22719525 -0.24525283
0.114853285 -0.253764 0.3422598 0.8365902 0.7051294 -0.67753786 0.39521617 0.21992375
0.26554087 -0.3057591 -0.69548965 -0.29042938 -0.81296206 0.77599543 0.37276217 0.18724164
0.30211756 0.17242834 0.6508375 -0.698977

0.bias f4 [30]
00000000: cb1f a4bf 0e2b 2dc0 3e02 3cbc bb62 32bf
00000010: f308 aa3f 9654 cf3d 0948 a43f bbe4 43bf
00000020: 7d4c efbe 5700 53bf 2715 343f 0159 8ebd
00000030: 762a 173f 00f3 33bf 8719 9dbf eb8b 2cbf
00000040: 72a4 69bf 3d9c 1f3f 23dd 993f c185 7b3f
00000050: 4bb2 dfbe 0dd2 2cbf 7f2c 413f 5e2b ccbe
00000060: fe4f aa3f b4c9 a4be 404e 15be dd7d 77bf
00000070: fc58 53bf 6677 b03f
-1.2822202 -2.7057528 -0.011475144 -0.696819 1.3283981 0.10123555 1.2834483 -0.7652089
-0.46738043 -0.82422394 0.70344776 -0.0695057 0.59049165 -0.70292664 -1.2273415 -0.67401
-0.9126655 0.62347776 1.202061 0.9825097 -0.43690714 -0.6750801 0.7545852 -0.39876837
1.3305662 -0.32185137 -0.14580631 -0.9667643 -0.82557654 1.3786438

2.weight f4 [30, 30]
00000000: eb0a 3ebb aa32 47be f102 373e a36f 833d
00000010: aff1 0fbd 86fe 0cbe 51fa ce3d 56c0 dbbd
00000020: 16d6 05be b8e3 a8bd 6b63 d3bc 4e76 32bd
00000030: be96 013d 1f2c 5cbe 33e8 b23d 613e ebbc
00000040: d2f1 58be b64d 10be bcf6 4ebe db2e 53be
00000050: c7b3 023e ff97 8a3b 320f d73d 7d30 71be
00000060: cd09 57be 7e4f 9fbc 8ed8 d1bd f042 7abe
00000070: b401 1dbe 4598 7dbd 339e b53e 7823 febe
00000080: dee5 c43d 50b4 0dbe 2fa5 0e3e 00e5 b5bd
00000090: f682 0abe 2e56 42be 2e45 093e 2bd9 103e
000000a0: 5364 543e f9dd ce3e 59ed 0dbe 9903 e73d
000000b0: 6a43 6b3e d056 5cbe ee5c 64be 6ea7 27be
000000c0: 00ee 1fbc 8f2e 91be 0a85 0d3c 7808 4b3e
000000d0: 6554 623e bc32 27be 7100 8cbe 5464 fabc
000000e0: 6d09 8abb 07c4 e53d a57d c63d ae4c dabc
000000f0: 7c5b 0c3d b085 76be 5310 e43d 4ea3 25be
00000100: 2940 6d3e 1dcd 1fbe d181 15bd 29c6 983d
00000110: 170d 793d 252e b23d 2dd6 383e a13a 58bc
00000120: 30cb 85bc a6c1 8ebe e8bc 043d 55af 2abb
00000130: a144 82bd a099 4d3e 2103 a43d 021e aabe
00000140: 112b 56be 26a5 e23c 6fcc dc3d 87f4 60bd
00000150: 147f a0be dc78 02bd 3bf6 58be 6931 933d
00000160: a94a 013e dc34 33be 151a 403e b948 1d3e
00000170: 204a 183e 7890 bdbd 4ee4 c03e 6d57 4f3e
00000180: f410 00be 809d 62bd b906 813d af7d 1d3e
00000190: e4b2 01bd adf3 d9bd 8cb9 85be 234d 903d
000001a0: a145 5f3d e6f5 12be 6804 843e 8695 8a3c
000001b0: 8bea 3dbd bb6b debd 0c7b 91be 4664 ee3d
000001c0: 6d5b 883e e9dd 103e ef94 53be 95e7 62be
000001d0: f381 6ebd 8ac7 1dbe 372a 8fbd f0e9 773e
000001e0: ff13 bf3e 9385 c93e 402f 82be b4a1 7fbd
000001f0: 5356 c8bd 2650 913e d125 7c3e cc8d 54bd
00000200: 7d93 c83d 3d6e 6abe cd8c 0abe 2696 413e
00000210: 5176 52bd 25e1 efbc 7085 dabd 13bb 2f3e
00000220: 5cca 0a3e ff2e 8c3c 1b9d d3bd 89cc 26bb
00000230: 4d5b 83bd 2f0d cd3e 3b4c 8f3d 59cc 443e
00000240: 48d5 803e 709b 26bd 5771 98bc 1727 17be
00000250: 5760 0ebe 71ad 4bbe 1d47 053e 30b4 84be
00000260: 3fd2 48bd 1cd9 57be 0706 80bc 8e66 6abd
00000270: cec2 a8bd 888c 183e 94a9 2b3d d46b ef3d
00000280: 9a90 1abe a8b0 85be 05be 02be 90f7 2bbe
00000290: 9faf 7fbe 54ae e7bc ffe8 5d3e a78a d5bd
000002a0: 196d 733e 8467 853c 66d0 043e 6f60 e8bd
000002b0: ab69 563e 3501 d33b f066 b13c ab41 ec3d
000002c0: 07b9 4bbe 8e51 f93d c4fb 623d d58f 1bbe
000002d0: e804 6d3f ff78 013f d273 37bd 452a 113e
000002e0: f839 583e b9f8 e13e 23a3 c53e 4587 4f3e
000002f0: f604 dc3e 2784 2dbf 14bb 94be 0b68 ccbd
00000300: 43a5 a7be 7c32 10be b7b6 f1be 2c48 d6bd
00000310: 3b51 b13d d25c 9d3e e8a5 e23e dc29 e03e
00000320: 5400 3c3d c971 013f 1679 8ebd 962d 1d3e
00000330: 52cc 0a3f 012d 1fbf 0076 8bbe f6b3 8d3e
00000340: 966b 3f3e 85e6 b5bd 0e02 553b 49fe 263d
00000350: 8ff5 ddbc 09d5 ebbd a306 03be 63ca 303e
00000360: edbf 01be 051c ab3d a2c7 8cba a835 7a3d
00000370: 8cfe fa3d 2bb6 e6bc daa7 90be 30d8 cf3c
00000380: 4848 db3d 9581 a43d 452e 633e 3c45 533e
00000390: 2db2 343c b5b2 3bbd d40a 2bbe d31e 02bb
000003a0: b3ac 1e3e a465 133e aae9 6abe fdf8 17be
000003b0: 9c81 25be 54a5 f1bd af27 c4bd 43b6 6cbd
000003c0: bbab b6be fb95 4cbf 4393 adbe 9825 19bf
000003d0: 37ef 263f 2466 eabd 974a f43d 490c 903d
000003e0: 5911 6ebd 5383 08bf 4d2a f63c 8b49 6a3c
000003f0: c8cb 92be 428b 2fbe 631a 05bf 0fd8 babe
-0.0028998207 -0.1945292 0.17872216 0.064177774 -0.035142597 -0.13768968 0.10106338 -0.107300445
-0.13069949 -0.08246559 -0.025804242 -0.043569855 0.0316379 -0.21501206 0.08735695 -0.028716268
-0.21185997 -0.14092144 -0.20211309 -0.20623343 0.12763892 0.004229545 0.10500945 -0.23553653
-0.20999832 -0.019447085 -0.10246383 -0.24439597 -0.15332681 -0.061912794 0.3547226 -0.49636436
0.09614156 -0.13838315 0.139302 -0.08881569 -0.1352652 -0.18978187 0.13405296 0.14145343
0.20741396 0.40403727 -0.13860072 0.11279983 0.22974935 -0.21517491 -0.22301075 -0.16372463
-0.009761333 -0.28355834 0.008637676 0.1982745 0.22102506 -0.16327947 -0.27344087 -0.030565418
-0.0042125494 0.1121903 0.096919335 -0.026647892 0.034266934 -0.24074435 0.11135926 -0.16175577
0.23169006 -0.15605588 -0.036500756 0.07459671 0.0608035 0.087002076 0.18050452 -0.013197572
-0.016332239 -0.27882117 0.032406718 -0.0026044447 -0.06360746 0.20078135 0.08008409 -0.3322602
-0.20914866 0.02766664 0.1078118 -0.0549207 -0.31346953 -0.03185354 -0.2118768 0.071871586
0.12626137 -0.17500633 0.1875995 0.15359773 0.14872026 -0.09256071 0.37674183 0.20248194
-0.12506467 -0.055325985 0.0630011 0.15379976 -0.031664744 -0.106421806 -0.26118124 0.07045963
0.054509763 -0.14351615 0.25784612 0.016917001 -0.046366256 -0.10860392 -0.2841419 0.116402194
0.26632252 0.14147152 -0.20662282 -0.22158654 -0.058229398 -0.1540815 -0.06990474 0.24210334
0.37319943 0.39359722 -0.25426674 -0.06241007 -0.0978209 0.2838146 0.24623801 -0.05189304
0.09793756 -0.22893615 -0.13530274 0.18904933 -0.051382367 -0.029282162 -0.106699824 0.17161207
0.13553756 0.017112253 -0.103327 -0.0025451502 -0.064138986 0.4004912 0.06996962 0.19218577
0.2516272 -0.04067558 -0.018608732 -0.14761005 -0.13903938 -0.19890381 0.13015409 -0.25918722
-0.04902863 -0.21078914 -0.015627874 -0.05722671 -0.08240281 0.14897358 0.04190977 0.116904885
-0.15094224 -0.2611134 -0.12767799 -0.16793656 -0.24969338 -0.028281368 0.21670912 -0.104268365
0.23772086 0.016284712 0.12970123 -0.11346518 0.20938747 0.006439353 0.02165553 0.11535963
-0.19894801 0.121737584 0.055415884 -0.15191586 0.9258561 0.5057525 -0.04478819 0.14176281
0.21115863 0.44135073 0.38601026 0.20266445 0.42972535 -0.67779773 -0.2904898 -0.09980782
-0.32743272 -0.14081758 -0.47209713 -0.104629844 0.086580716 0.3073488 0.442672 0.43781936
0.04589875 0.5056425 -0.06956689 0.15349421 0.5421802 -0.62178046 -0.27238464 0.27676362
0.18693385 -0.08881859 0.0032502445 0.04076985 -0.02709463 -0.115152426 -0.127955 0.17264704
-0.1267087 0.08354954 -0.0010740648 0.061086327 0.12255582 -0.028163036 -0.2825306 0.02537164
0.10707146 0.08032528 0.22185619 0.2063188 0.011028809 -0.045824725 -0.1670335 -0.0019854798
0.15495567 0.14394242 -0.22940698 -0.14841075 -0.16162723 -0.11799112 -0.095778815 -0.057791006
-0.35677895 -0.7991635 -0.33901414 -0.5982299 0.6520876 -0.11445263 0.119282894 0.07033593
-0.058122013 -0.53325385 0.030049467 0.014299761 -0.28671098 -0.17142966 -0.5199339 -0.36492965

2.bias f4 [30]
00000000: 2eef a33d 3d8e 2a3e e805 2a3c 40bf 5fbd
00000010: b6da 123e 139c 31be eff6 40be f9f8 cabb
00000020: e9bd d33d c09f 4abe 4cf1 ef3c e347 30be
00000030: c90b 123c 476f b83d 7cc9 e9bd 006e bbbd
00000040: deb2 99bd a6ff 15bd e507 203e e01a 30bd
00000050: b706 f73d 51b2 24be dd48 fcbd a2c2 64be
00000060: e8c0 14bc 6828 b03d a5e4 37be 4677 21bc
00000070: e801 133e cd54 473d
0.08004604 0.16655822 0.010377385 -0.05462575 0.14341244 -0.17344694 -0.18844198 -0.0061942306
0.10338957 -0.19787502 0.029289864 -0.17214923 0.008913943 0.090055995 -0.11415383 -0.0915184
-0.07504819 -0.03662076 0.15628012 -0.04299438 0.12061828 -0.16083647 -0.12318585 -0.22339872
-0.009079196 0.08601457 -0.17958315 -0.009855097 0.14356196 0.048664857

4.weight f4 [5, 30]
00000000: 3a6d 36be 36cc 09be 50d0 dfbe e78b d0bd
00000010: bc2c 253e ee76 d7bd 349d e83d 4c02 f7bd
00000020: 4bcf 69bc 0f1f 8cbe 9180 e63d 3317 09be
00000030: 1b0c e9bd 3a0a 42be 63a5 4c3d e7e2 663e
00000040: 8138 ab3d 6c16 06be 5b2f b53b 113c 48bd
00000050: fa03 14be 84d4 9e3e a231 8cbd b718 d03d
00000060: 2757 e8bd 7200 44be e33a 453e e207 573e
00000070: 065a 623c 6438 063d cfe0 993e 3a90 9ebc
00000080: 3e4c 76bd 14c9 5abe 887d a63e 1a2a 62bd
00000090: 33be d83d d9d3 6ebe fd40 83be 7458 d2be
000000a0: dd74 5fbe 57b9 1f3d 5607 803e 2f45 843e
000000b0: 8f9d 13be 6e08 e73d 1a41 22be 27bd d13d
000000c0: bade 9a3e 0492 673e 70f8 643e 72da 393e
000000d0: b889 21bd 7a2f 833e b0a9 4abc 0a05 9ebc
000000e0: fe70 16bd 82c1 d2bc d859 90be 4453 e33c
000000f0: c7f8 27be 5d17 50be 0593 07bd 1cc2 bcbe
00000100: 96d4 403e 95dd c43e ff6f 1e3f 5fb6 d93c
00000110: c36e b1be 71fe d83c 39a3 8cbd 591c bd3e
00000120: bb2b 91be 1a1f b63d 9f66 0b3f aa16 c93d
00000130: 305d 46be 3086 5d3e ad81 6b3e 2e69 843e
00000140: 3447 97be 3bdd 3b3e 46ba a0be 2c88 183f
00000150: 7617 02be aa9b 883e 4fd7 df3d 5782 a0bc
00000160: ae55 f9bc d22c b83e 51c1 e4bd 3ef2 9abe
00000170: 6dc9 21be 195c 5e3e c1e5 8ebd 84a2 c7bc
00000180: 2502 2dbe b16b 443e c033 813e 32da 2a3d
00000190: 91ca 9dbe 1236 9abe f9a7 aabd cbbd 54be
000001a0: ed1b c83e df3f 97be 8624 a03c 40dd d73e
000001b0: 1c74 b53d 099f 8d3e 45d1 3bbe e9cb e53e
000001c0: 68be 0bbe a3e0 a9be 1dd4 8f3e 6741 8abe
000001d0: 397f 1a3e 7842 bd3e fa88 f4bd 3317 40be
000001e0: 7dc0 90be b19c 11be 3017 3bbf cb5d b5be
000001f0: c967 00be d71d 783e d70c e3bb 068a b2be
00000200: d8f9 a63e fca7 233f c75d 3fbe 786f 9e3e
00000210: 1d97 043e 6cba adbe d3a0 debd bbc0 9abe
00000220: d83f 9a3e 6d46 373d 478b 98be 4372 103e
00000230: e09d 00bf 0a37 163e 3fdc 943e 45a9 3f3d
00000240: 73d9 fabe 2214 fc3e 6a51 4ebe 07cc c9bc
00000250: 5127 82bd 0de7 1abf
-0.17815104 -0.13456807 -0.43713617 -0.10182934 0.16130346 -0.10520731 0.11358109 -0.12060985
-0.014270614 -0.27367446 0.11254991 -0.13387756 -0.11379262 -0.18949214 0.049962413 0.22547494
0.08360387 -0.13094491 0.005529327 -0.04888541 -0.14454642 0.31021512 -0.06845404 0.10160964
-0.11344748 -0.19140795 0.19260745 0.20999101 0.013815409 0.032768622 0.30054328 -0.019355882
-0.060131304 -0.21365768 0.32517648 -0.055215932 0.105831526 -0.23323001 -0.2563552 -0.4108311
-0.21821924 0.038995113 0.25005597 0.25834033 -0.14415573 0.11280905 -0.15845147 0.10241156
0.30248052 0.22614294 0.22360396 0.18149737 -0.03943798 0.2562216 -0.012369558 -0.019289512
-0.03672885 -0.025727037 -0.28193545 0.027749665 -0.16403495 -0.20321412 -0.033099193 -0.36866844
0.18831095 0.38450304 0.6188964 0.02657622 -0.34654817 0.026488515 -0.0686707 0.3693569
-0.28353676 0.08892651 0.5445346 0.09818776 -0.19371486 0.2163322 0.22998686 0.25861496
-0.2954651 0.18346111 -0.31392115 0.5958278 -0.12704262 0.26681262 0.10929739 -0.0195934
-0.030436363 0.35971695 -0.11169685 -0.3026294 -0.15799494 0.2171482 -0.06977416 -0.024369486
-0.1689535 0.19181706 0.25234795 0.041711994 -0.30818608 -0.30119377 -0.083328195 -0.20775525
0.39083806 -0.29540917 0.019548666 0.42160988 0.08860037 0.27660397 -0.18341549 0.44882134
-0.13646853 -0.33179197 0.28091517 -0.27003023 0.15087594 0.36964774 -0.11940189 -0.1875885
-0.28271857 -0.1421993 -0.73082256 -0.3542312 -0.12539591 0.24230133 -0.006929021 -0.3487093
0.3261249 0.639282 -0.18688117 0.3094442 0.1294827 -0.3393129 -0.108705185 -0.30225167
0.30126834 0.044744898 -0.2979376 0.14106087 -0.502409 0.14669433 0.29074284 0.046792287
-0.48994026 0.4923411 -0.20148245 -0.02463342 -0.06355155 -0.60508806

4.bias f4 [5]
00000000: dfbf 36bc 6152 193d dc69 01be b951 02bc
00000010: eec5 0ebf
-0.011154144 0.03743208 -0.12638038 -0.0079540545 -0.55770767

0.weight f4 [30, 2]
00000000: 79f9 de3e 53d7 813e d93a 943e 9212 833f
00000010: cbc0 cfbd 2591 4a3d cf52 463d d87c babf
00000020: 2af6 c0bd 2637 cbb8 8889 82be 2389 0b3e
00000030: 3b13 0dbe ef1b 29b8 b4dd 493f 52b3 6bbe
00000040: c41a 4e3f 7233 5e3f a0b2 1ebf 132c d2be
00000050: 59b6 17bf 7a6b cfbe d759 a8be 9054 61bd
00000060: dec8 5abe 6754 10bf 7813 d2bd f9e2 8bbe
00000070: 0c1f be3f 51bc c4be b3d4 01bf 2aa3 613f
00000080: 0a58 c0bd 9ec4 a03e cc4c d83e a9d8 723f
00000090: 2987 28bf 01d1 5d3f d5ab 893f 795d b3be
000000a0: ba22 233f 6cf7 4f3f 9bf6 89bd f667 703e
000000b0: ca98 323f d08a 16c0 5c14 543d 64d3 8c3e
000000c0: 046c b3be 2157 143e 85ca 74bf 2595 893f
000000d0: 9182 383f 25e0 4c3e 92d6 8ebf ce8d 5a3f
000000e0: 86fc 413e c5f1 523d 9cc7 f8bd d936 cc3f
0.43549708 0.25359592 0.28951147 1.0240042 -0.10144194 0.049454827 0.048418816 -1.4569349
-0.09421952 -9.6900665e-05 -0.25495553 0.13626532 -0.13776867 -4.0318755e-05 0.7885392 -0.23017624
0.8050959 0.8679725 -0.6199131 -0.4104925 -0.59262615 -0.40511686 -0.32881042 -0.055012286
-0.21365687 -0.5637879 -0.102576196 -0.27321604 1.4853225 -0.38424924 -0.5071518 0.88139594
-0.09391792 0.31400007 0.4224609 0.9486185 -0.6583124 0.8664704 1.0755564 -0.3503225
0.63724864 0.8123691 -0.067364894 0.23477158 0.6976439 -2.3522224 0.05177723 0.27505028
-0.35043347 0.14486362 -0.9562152 1.074864 0.7207423 0.2000738 -1.1159232 0.85372627
0.18943986 0.0515001 -0.121474475 1.5954238

0.bias f4 [30]
00000000: 4d12 67bf 1969 00bf 9c74 e53e 12c8 9abf
00000010: 68f5 b63f 48ea 52bf 4d99 c33e 6423 0f3e
00000020: c902 0cbf c90d a23f 27dc ac3d 161e 2cbf
00000030: fba6 1cbe c497 17bf a584 e83f ab39 05bf
00000040: 200f 8ebf 42de 9bbe f182 d3bf 97ad 6ebf
00000050: 944b 153f b1c3 25be f684 9f3f 9753 8a3e
00000060: 1b43 a0bf c1c5 4a3e 97bd af3f 5401 963e
00000070: 32d1 22bf 1dc6 da3f
-0.902623 -0.50160366 0.44815528 -1.2092307 1.4293642 -0.82388735 0.38202897 0.13978344
-0.5469175 1.2660457 0.08440428 -0.6723341 -0.15298073 -0.5921595 1.816548 -0.5204112
-1.1098366 -0.30443007 -1.6524335 -0.9323363 0.5831845 -0.16187932 1.2462451 0.270169
-1.2520479 0.19802 1.3729733 0.29297888 -0.63600457 1.7091709

2.weight f4 [30, 30]
00000000: bee9 963e ebdc 293e 6821 7b3d bed7 ccbd
00000010: 66ae 5abe cc53 2a3d fe93 773c 0f7b 05be
00000020: 4d75 153e 5091 bbbe 68c4 843d 859a 3e3e
00000030: 19e2 0c3d 464d 7f3d 15b7 7ebd 3255 e33d
00000040: cb18 bc3c f833 2f3e 7c0a 883d 8954 e7bd
00000050: f5c7 2b3e eca7 1c3e 5d20 65bf 3a01 a93d
00000060: 04b9 a03d bddc ca3e f8f6 933d 85f1 a33e
00000070: f32c ffbb f5c4 8b3d 1b6a 83bd e060 3bbf
00000080: 5145 80be d538 583f 7a1b 9b3d 1f61 4fbd
00000090: a620 f7bb a7a1 953e 19a1 dabe db27 413e
000000a0: e163 a13e a8e7 9d3e bcdc ab3e 0e98 bf3e
000000b0: fef8 27bc ddf6 90be 6ef6 df3c 0500 fbbe
000000c0: 4b7b ffbd 4f0f 0e3f 0de3 c6be eecc a8be
000000d0: 3aa4 973e bbea 14bf 0ee2 403e 6cb2 48bf
000000e0: 0dc3 39be feee ffbe b1ba 91bd 6d02 60bf
000000f0: ce83 84bd 143e 083d e8b5 fd3c f28c 4ebe
00000100: ee91 c5bc 6b11 2abe 251f b5bd 2b58 523e
00000110: 9593 003e 7153 87be 6632 9f3d 3374 143e
00000120: 3768 813d 174f 883e ce4a d5bd f223 1abe
00000130: 06b4 9cbd c29d 9f3b 424c e2bd c4d1 273d
00000140: 2551 69be 3775 02be e68f 6e3d 3758 61be
00000150: 754e 78bd 5d78 9bbd 063a 34be 06db c73c
00000160: 7b1a d23d 7559 403e 1b8b fb3c 8d0a 1abe
00000170: e80a 063e 914c 6fbd 99af 9bbd 2cd2 2ebd
00000180: 4d6b 483d 85c1 e4bd 31c1 7d3e 6a1d 713c
00000190: 223c 67be edd3 1b3c 4b12 41be 0619 d73d
000001a0: 222c b73e c9bf e2bd 7617 ae3e ad30 a7bd
000001b0: fa0b febe 7600 a33d 536a 0f3d 601f 8f3e
000001c0: 1e5c 8ebc 843c 593e 75a0 3c3e a68e 643e
000001d0: 1952 c1be 6e59 443d e2c6 0ebe 76bd ac3e
000001e0: a8be d5bd 6175 7abe f364 033e ea5f 3c3e
000001f0: 570f 10be 1ff0 fa3c f9a5 ab3d cfb7 3a3e
00000200: 7e31 24be 6e35 6f3e 4f7b cb3d b515 dd3d
00000210: 6e31 c83d 7945 cfbd 62e6 b8bd b307 f8bd
00000220: 4d48 5fbd 40d6 4dbe 0a30 6fbb 6a2b 1dbc
00000230: d35e f2bd 3963 58bc 2979 c93b 676c e2bd
00000240: 8959 4f3e 77ae 91be 195f 3dbd f6d3 dbbc
00000250: f39b 06be 2076 70be c9b1 9abd f9e6 83bd
00000260: c642 723d 2144 cd3d 9b68 a83d 98ca 803d
00000270: 028f 373e 17f5 c43c 04aa a9bd a6f0 563e
00000280: 7968 1dbe 7232 aabb b677 d7bd f1aa e3bd
00000290: 0073 b1bb 617a 2a3e 7abb 2e3e b658 f73d
000002a0: a21f a23e 4bc2 18be 8d05 933e daf3 203e
000002b0: 72b3 483e ccf9 d1bd 1dd3 763e e927 a6be
000002c0: 862c 1e3b 0c4b fdbc e837 31be 52d0 4fbe
000002d0: 583c b2bd c088 c93e bcd3 7c3e 0517 93be
000002e0: 3539 cd3b 291d bd3d 139b 14bd cea0 19be
000002f0: d546 263e 6ff5 8dbd 4d47 b8bd 5128 0a3e
00000300: 77aa e5ba 6a2d de3d ea07 9fbe a94d b23e
00000310: 9147 043e 6002 433e 0656 a93e 7d5a 64be
00000320: dd71 78bd fe7f 933e ae8a 79bf 4bf6 5a3e
00000330: 2661 903e 056e 1b3f 24d6 1cbd fb53 eb3e
00000340: 42b4 743d 5a04 06be ac57 e63d 9c70 b8bd
00000350: b9bb 9b3d c4cc 3fbd 564a 9abd cce9 973b
00000360: 9819 c93d e7d5 1bbe 1c48 54be b5bf dbbd
00000370: 6435 a7bc 46a5 f33d ea6b 343e 135b 4e3d
00000380: 3cf9 203e 7f2e afbd 2a44 d7bd f684 27be
00000390: 7f4a 5abe 4f46 fdbd 0947 a3be 31a5 50be
000003a0: b359 3cbd ec6f 3f3d f79d d93d fb87 8c3e
000003b0: 766a 69bd 3c29 2c3c f5be d8bd 0a36 8d3c
000003c0: fc2c 47be de2b 743e 34c9 753e 563e 52be
000003d0: 42a3 5b3e e98d e1bd 8516 a53e b678 69bc
000003e0: 69be 1c3e 7f44 45bc 46c1 0e3e ecd5 073e
000003f0: 441e aebc 5fe6 323d 852e c9bd e191 923e
0.29475206 0.1658818 0.061311156 -0.10002087 -0.2135559 0.04158382 0.015110968 -0.13035224
0.14595528 -0.36634302 0.06482774 0.18613632 0.03439531 0.062329553 -0.06218632 0.11100234
0.022961041 0.17109668 0.06642625 -0.11295421 0.16775496 0.15298432 -0.8950251 0.08252187
0.07847789 0.39621535 0.0722484 0.32020202 -0.007787341 0.06824676 -0.064167224 -0.73194695
-0.25052884 0.8446172 0.075736 -0.05062973 -0.007541734 0.29224893 -0.42701033 0.1886286
0.31521514 0.30840802 0.33566844 0.37420696 -0.010252235 -0.28313342 0.027339187 -0.49023452
-0.12474688 0.5549211 -0.388451 -0.3296885 0.29617482 -0.5817067 0.18836233 -0.7839725
-0.18140812 -0.49987024 -0.07115687 -0.875037 -0.06470452 0.033262327 0.030970529 -0.20170954
-0.024117436 -0.16608207 -0.08843831 0.20541446 0.12556298 -0.26430848 0.077732846 0.14497451
0.063187055 0.2662284 -0.104146585 -0.15052775 -0.07651524 0.004871101 -0.11049701 0.040971532
-0.2278486 -0.12740026 0.0582427 -0.22006308 -0.060621697 -0.07591317 -0.17600259 0.02439643
0.10258957 0.18784125 0.03070598 -0.15043087 0.13090098 -0.05842263 -0.07601852 -0.042680904
0.048930455 -0.111697234 0.24780728 0.0147164855 -0.22581533 0.009510976 -0.18854634 0.1050282
0.35775858 -0.11071736 0.34002274 -0.08163581 -0.49618512 0.07959072 0.035013508 0.27953625
-0.01737791 0.21214491 0.18420584 0.22320041 -0.37757948 0.04793685 -0.13943055 0.33738297
-0.104367554 -0.24458839 0.12831478 0.18395963 -0.14068352 0.030632077 0.08381266 0.1823418
-0.16034505 0.23360226 0.099356286 0.10795156 0.09775053 -0.10120673 -0.09028317 -0.121108435
-0.05451231 -0.20101261 -0.003649714 -0.00959287 -0.118344925 -0.01320725 0.0061484766 -0.11055832
0.20248999 -0.2845342 -0.04623327 -0.02683447 -0.13145427 -0.23482561 -0.07553441 -0.06440539
0.05914571 0.1002276 0.08223077 0.06288642 0.17925647 0.02404265 -0.08284381 0.20990238
-0.15371884 -0.005194002 -0.1052088 -0.11116589 -0.0054153204 0.16648246 0.17063704 0.12077467
0.3166476 -0.14917867 0.28715172 0.15718022 0.19599703 -0.10252723 0.24103971 -0.32452324
0.0024135425 -0.030919574 -0.17306483 -0.20294312 -0.08702916 0.39362144 0.24690145 -0.287285
0.006262923 0.092340775 -0.036280703 -0.15002748 0.16237958 -0.06931578 -0.089979745 0.13491942
-0.0017522116 0.10848506 -0.31060725 0.34824875 0.12917925 0.19043875 0.33073443 -0.22300144
-0.060655463 0.28808588 -0.97477233 0.21383016 0.28199118 0.6071475 -0.038290158 0.4596251
0.05974222 -0.13087597 0.11247191 -0.090058535 0.07604165 -0.04682614 -0.0753371 0.004636025
0.09819335 -0.15218316 -0.20730633 -0.107299246 -0.0204112 0.11896758 0.17619291 0.050379824
0.15720075 -0.0855379 -0.10511048 -0.16359314 -0.2131748 -0.12366926 -0.31890133 -0.20375516
-0.04598398 0.046737596 0.106258325 0.27447495 -0.056986295 0.010507878 -0.10583297 0.017237682
-0.19450754 0.23844859 0.24002534 -0.20531592 0.21448997 -0.11013395 0.32243744 -0.014249971
0.1530701 -0.0120402565 0.13940915 0.13265198 -0.021254666 0.04367673 -0.09823326 0.28626922

2.bias f4 [30]
00000000: c5c3 36bd 4b3e 68be 6e23 2abe 1a84 ac3d
00000010: 3e5c 093e 5c50 9e3d 2e51 063d 7a78 32be
00000020: 2983 a13d 5364 413e e38d 023e e174 e6bc
00000030: 122b 80bc b815 063e 45da 8d3e c0fa d7be
00000040: fff0 883e 9ca7 7fbd af07 e1bd eb35 46bc
00000050: 7f48 463e 41fe eb3c a16d 2f3e a5dc b8be
00000060: d237 99be 1213 63bd 6159 c73d b803 2b3e
00000070: c3a3 253d 1cff 48bc
-0.044620294 -0.22680013 -0.16615078 0.08423634 0.13414094 0.07730171 0.032792263 -0.1742877
0.07886345 0.18885927 0.12749438 -0.028131904 -0.015645538 0.13094223 0.2770559 -0.42183495
0.26746365 -0.062415704 -0.10987794 -0.012097816 0.19363593 0.028807761 0.17131664 -0.36105838
-0.299254 -0.05543811 0.097338445 0.16700637 0.04043938 -0.012267854

4.weight f4 [5, 30]
00000000: 9df1 44be aa57 243d dce6 3ebd eb1f 773e
00000010: 7055 1d3e f8f4 e73d 3860 febd 0e4d aebd
00000020: 5910 b9bd 2a56 2dbe af6b 083e 5831 223d
00000030: ed7a d73d 353a 433e 00ab df3b 39b7 1ebe
00000040: 7739 a83e 220e f23b 9aeb 973e f483 85be
00000050: 8f5b 863e 101c 51bd a093 c8be 0a1b 11be
00000060: a7d9 b73d ad8e 413e 09ee a23d 8fb4 02bd
00000070: 1db4 d93b 938a 77bd 7657 f9bc a841 00bc
00000080: 943a 863e 6a13 063e ec4b 14be 424b cfbd
00000090: 0cda 46be 332a 863d 02b9 98be 199c cdbc
000000a0: 7afe 9cbe c050 9d3e 07de 843e 0432 5cbe
000000b0: f211 77be f88b 31bf a05d 5bbe a38c 95bd
000000c0: 6518 2abd bf48 ff3d 7859 86be c0c4 6cbe
000000d0: a430 05bf fff9 753e 39db 303e 2010 47be
000000e0: 4235 96bd 8ca9 94be 0b0b 88be add2 183e
000000f0: 29fd 7bbe f4cd 64bf b916 0dbe 8721 cbbe
00000100: 7263 9ebe 706b 55bd 94bd bebe a455 01be
00000110: 85fd 30bd 94ce 423f ae5f 5d3e 8c40 503e
00000120: d49f 0dbf f79d 913e 9146 503e 1fdc 493f
00000130: f67f f43e 36ba e43e a9b3 5bbd 0724 a93d
00000140: 6eab 44be 99c8 c33a 33df e1be 84e6 51be
00000150: e322 72be 17e2 c9be 8c87 dbbe 6004 3bbe
00000160: 6d4c 413e 28e7 673f e5f0 08bf 8f9c 2d3e
00000170: c131 38be 0137 4dbf f07a 8c3e a8f5 003f
00000180: 3547 cebe 8ec9 2ebf ff76 3ebe 24b7 39be
00000190: fb48 283f 0e12 803d 5b94 14bf f9e6 14bf
000001a0: 4cef bcbe caa5 eebe 0bd7 dcbe 0f03 b6be
000001b0: 3e71 0abf 2c26 473f 6ca6 6bbf 55a0 34bd
000001c0: 72bb 2cbd 77bb 6bbd d55f b23c 4f31 363c
000001d0: 0b17 e1be a133 6a3e a616 0f3f 4545 893f
000001e0: 9ca9 19be 06dd 81be 5841 06be 9249 153d
000001f0: d177 6dbe 2ad4 83be f1bf 79be 7935 a43d
00000200: 84ce 29be 2fb7 553e 7f6d b23c 4f39 e1bc
00000210: 5176 6a3e dd08 4fbe 8108 ddbb 7202 89be
00000220: 8af2 c4be 1bcf 89be 6e1a 8a3e 069b bdbd
00000230: 94ba db3c 6424 9aba 2cd8 55bd 46d2 e2bd
00000240: 46fd 173e 34dc d73e dae1 5b3e cf1b 09be
00000250: dcc6 94bd ee40 a93d
-0.19232793 0.040122665 -0.046606883 0.2413327 0.15364623 0.11326021 -0.12420696 -0.08510791
-0.09036321 -0.169274 0.13322328 0.03959784 0.10521493 0.19065173 0.0068258047 -0.15499581
0.32856342 0.0073869387 0.29671937 -0.26077235 0.2624173 -0.051052153 -0.3917513 -0.14170471
0.08977061 0.18902083 0.07955558 -0.031910475 0.0066437856 -0.06043489 -0.030437212 -0.007828154
0.26216567 0.13093343 -0.14482087 -0.10121776 -0.19419116 0.065510176 -0.2982865 -0.025098847
-0.306629 0.3072567 0.25950643 -0.21503454 -0.2412794 -0.693542 -0.21422434 -0.07302215
-0.04152717 0.12465047 -0.26240134 -0.23121929 -0.52027345 0.24021147 0.17271127 -0.19439745
-0.07334377 -0.29035604 -0.26570925 0.14924116 -0.24608292 -0.8937676 -0.137782 -0.39674017
-0.30935246 -0.052104414 -0.37254012 -0.12630326 -0.043210525 0.76096463 0.2161853 0.20337123
-0.55322003 0.2844083 0.20339419 0.78851503 0.47753876 0.44673318 -0.053638134 0.08258825
-0.1920602 0.0014937102 -0.441156 -0.20498091 -0.2364612 -0.39430305 -0.42876852 -0.18263388
0.1887681 0.9058709 -0.53492576 0.16954254 -0.1798773 -0.80162054 0.27437544 0.5037484
-0.40288702 -0.682763 -0.18600081 -0.18136269 0.6573636 0.06253444 -0.5803887 -0.58164936
-0.3690132 -0.46610862 -0.43132815 -0.3554921 -0.54079044 0.7779262 -0.92050815 -0.044098217
-0.04217095 -0.057551827 0.021774212 0.0111201545 -0.43962893 0.22871257 0.55893934 1.0724264
-0.15006107 -0.2536394 -0.13110864 0.036447115 -0.23190238 -0.25747806 -0.24389626 0.080180116
-0.16582686 0.2087066 0.021780727 -0.027493147 0.22896697 -0.20218225 -0.0067453985 -0.26759678
-0.38466293 -0.2691582 0.2697329 -0.09258084 0.026822366 -0.0011760113 -0.05220811 -0.11075263
0.1484271 0.4216019 0.21472874 -0.13389514 -0.07264492 0.082643375

4.bias f4 [5]
00000000: 6657 1f3d 73fa 23be 26ef 383d 6c11 21be
00000010: a45e 7dbe
0.03890171 -0.16013508 0.045149945 -0.15729302 -0.24743134

0.weight f4 [30, 2]
00000000: b82d ecbe b792 cc3e 59b0 b2bd cd68 773f
00000010: 0c0b b33d 4838 953e cdae 3b3f 33c3 0d3f
00000020: 0e12 67be 96ba 493f 5dd0 aa3e 1b16 a7bf
00000030: a574 053f 548b 4ebf b4c9 083f 7b07 8c3f
00000040: 5e70 a2bd 8e81 ac3f ecea f4be 2df6 943f
00000050: 6888 b53f 909c b0be d40d a5bf 7302 96bd
00000060: 8cc2 25bf 0736 083e dbf7 cdbf e4ee ddbe
00000070: bcac 2fbf e1b4 c2be 99d0 76bf 4c58 05bf
00000080: 94ba 6abf 6628 dcbe db26 86be bea4 973f
00000090: 67a8 853f 6d78 9dbf 8c91 ae3c deb0 84bf
000000a0: b54d 57bf 7027 2f3d 229c bfbd d56f 9fbf
000000b0: 3667 b3bf a232 3abf dd50 1c3f 8f43 763f
000000c0: 9092 8cbe 010e 23bf d14d 8cbf 9e1f 3abf
000000d0: 695d 97bd 5f43 393f d3e5 c73e 4f54 dcbe
000000e0: 7a59 afbd 71c1 91bf efc5 b2bf 43cd 973e
-0.4612863 0.39955685 -0.08725042 0.9664429 0.087423414 0.29144502 0.733136 0.55375975
-0.22565481 0.7880033 0.33362094 -1.3053621 0.5213111 -0.8068135 0.53432775 1.0939783
-0.079315886 1.3477037 -0.4783548 1.1637627 1.4182253 -0.34494448 -1.2894845 -0.07324686
-0.6474998 0.1330186 -1.6091264 -0.43346322 -0.68622947 -0.38028625 -0.96412045 -0.52087855
-0.91690946 -0.42999572 -0.2620152 1.184715 1.0442017 -1.2302376 0.021309637 -1.0366476
-0.84102947 0.04276222 -0.09355952 -1.2456003 -1.4015872 -0.7273351 0.6106089 0.96196836
-0.27455568 -0.63693243 -1.0961248 -0.72704494 -0.073908634 0.72368425 0.3904253 -0.43033072
-0.08561988 -1.1387159 -1.3966655 0.2964879

0.bias f4 [30]
00000000: b176 86bf ef5c 143f 61de 983f 500a 21bf
00000010: cd2e 89bf d75b 173f b458 5cbf 43aa 5d3f
00000020: d0be 97be dcf2 8f3e fda5 e9be 3119 72bf
00000030: 3469 fabd 9823 443e 11b0 4e3f e1f8 793f
00000040: a6d8 42bd 2142 45bf d178 483e bba9 60bf
00000050: faa1 4cbe 7073 9bbf 99cb 32be a736 773e
00000060: 4d2c d9be 82fa 533f abc5 b83e d6b8 5a3f
00000070: d51e 323f 23ca 61bf
-1.0504972 0.57954305 1.1942865 -0.6290636 -1.0717407 0.5912451 -0.8607285 0.86587924
-0.29637766 0.28114974 -0.45634452 -0.9456969 -0.12227097 0.19154203 0.80737406 0.97645384
-0.047569893 -0.7705403 0.19577338 -0.8775899 -0.19983664 -1.2144604 -0.17460479 0.24141942
-0.4241661 0.8280412 0.3608831 0.8543829 0.69578296 -0.8819906

2.weight f4 [30, 30]
00000000: 1724 a13d 7435 cc3c ebe1 943d 59ca 46be
00000010: 7257 7b3e b3ad 1d3e cedb 603e 0b1b 963e
00000020: f917 36be 6112 3fbe 2c46 643d 9506 7e3e
00000030: b1fe a33e c54a b5be bbc0 763d dc42 26bd
00000040: c1f9 ed3d 66d0 06bd 7e22 8f3e 76d0 bebd
00000050: 6a7a 8f3e 9f08 d6bd d369 513e 7d73 9f3e
00000060: f408 b9bd 0e72 d5bd 5768 013e fd1d 04be
00000070: ddd0 013e 7cae acbe f84a 10bd 02fb 02bf
00000080: c45e 5ebe c077 12bf 674d b0be 3062 243d
00000090: 8de1 9e3e fbcd 3fbe c7fa 8fbe 715e bfbe
000000a0: 3aff fcbd a7f4 0e3e 199b 973e e95a 953d
000000b0: d967 a63e 941f a83e 1cdf 953e 17a0 19be
000000c0: 7646 813e c438 b93e bda3 5a3e a55a f33e
000000d0: d5bd a93e 43f1 cabe 0b50 753e d905 343f
000000e0: d51d 27be 2c6f 3d3e 1c36 da3e 2a32 b53d
000000f0: 418d 3a3f 46ed 92bd 6477 6ebe 4523 60be
00000100: b748 4f3e 20e9 1cbe 3e21 04be 2292 d2bd
00000110: 672a 1a3d 4c8e 98bd 9d0b 74be 1d50 ed3e
00000120: 5ad0 153f 3399 173f c5fa 293e af09 5f3e
00000130: 8be9 503e 58bc 203e ab73 293e d2c0 79bd
00000140: 56bb 2d3f 0a37 21be 8d44 f33c 49ca 1a3d
00000150: 2d7a c83c 9473 c53e 3f05 883d e4de a1be
00000160: 2373 bcbd 2b19 513f eacd 98be 2a61 41be
00000170: d3c4 56be 569f 8ebd f2c4 62bd c1b5 aebd
00000180: ebb8 c33c 041f 193e e5ae 0c3e 477b cdbe
00000190: dde8 233c 872a 543d fbb7 88bd 8405 743e
000001a0: ff3c 04bd 7223 bbbd 6423 96be d00c aa3d
000001b0: 838c 9aba 05d9 c33d c23a 113e c9d8 76bd
000001c0: dff8 febc 4fe2 98bd 62be f73d 0b20 12be
000001d0: a699 003d 739c 8b3e a442 77be 5623 723e
000001e0: 4630 15be 7f10 273f efb9 da3e c452 4fbd
000001f0: 7347 4ebe 5b03 1e3e 1a94 1ebf d131 3f3f
00000200: 79f5 42bd f846 8e3e 54a6 84be d6e0 973c
00000210: 888c c03e e664 493e b09d c43e 72af 333e
00000220: 309c 8cbe 219f 86bd f435 bdbe ce3b 0bbf
00000230: ec77 723e a4d7 20bf 42ad 9abe 2a0d fc3e
00000240: ac0d 11bf 8e2b 8a3e eebf d63e 1cdc b0bd
00000250: 5501 983e 27e6 543e 8505 6c3e a08d 7a3d
00000260: be5b 263e 976f 9a3e 176b 123f 99b1 803e
00000270: af59 8b3e f736 293e eaa8 89bd 61cc 46bc
00000280: f0db 93be 1d68 5d3d 3b96 963e 7acd 17be
00000290: 5d3f 9cbc 653f 933d 6069 63bc 6d5f fabd
000002a0: a979 38be 7728 41bd a273 be3e f6c3 80bd
000002b0: 51fa 593e 7167 02bd e3bf 32be 9779 b7be
000002c0: 3486 163e 955f 9fbd 8de1 0d3e 5eb9 cfbe
000002d0: b792 00be fa92 46be e7fe 3d3e fabf f2be
000002e0: 4155 d7be 4433 dcbb ef2c 8ebd 90d5 94be
000002f0: dc4c 8f3e 13a5 573c cf2a bebc b456 253e
00000300: 2fae 313e 6a49 743f 0b80 c53e 3abc b23e
00000310: d0cd 1a3f 340f e03d 91e0 3abe 1654 ae3e
00000320: ed51 b73d 7560 a73e 5a6a 033f c740 2dbe
00000330: 35c8 df3b 4315 fd3e 9106 7bbe 2821 773c
00000340: 5e25 013d 754c 1d3f 4e7a ccbe 3fc5 c23d
00000350: b912 59bb efa8 d13e 04f0 c73d faa9 71be
00000360: a6f6 3a3b 0800 463d 0f8c c83d 44ce 09bd
00000370: 4c66 ae3e fed3 bebe 15ab 2abf 1bb8 41bf
00000380: aadf 0bbf 2872 52bf 26bb 20bf 9b78 623e
00000390: 99f1 cf3c 426e 1fbe 4ded 09bf f67d 8c3c
000003a0: 42b5 02bf e5cf 363e b729 98be 9633 16bf
000003b0: 0a99 173d 5ebd 9abd d7f2 d33d 72be 2abf
000003c0: dd8f d03e 77f1 13be 0ea6 1f3c f02e 66be
000003d0: e2a5 533e 3d2f c73e 1d3a 16be 049b b03d
000003e0: 9911 a9be 173e 97bd 172b d73d ae56 ea3e
000003f0: ac43 9c3e e36d 47be bdd5 d23e c3f8 543e
0.07868212 0.024927832 0.07269653 -0.19413127 0.24545076 0.15398292 0.21958849 0.29317507
-0.17782582 -0.18659355 0.055730984 0.24807198 0.32030252 -0.35408607 0.060242396 -0.040591106
0.116199024 -0.032913588 0.27956003 -0.093171045 0.28023082 -0.10450863 0.20450525 0.31142798
-0.09034911 -0.10422145 0.12637459 -0.12902065 0.12677331 -0.3372687 -0.035227746 -0.5116426
-0.21715838 -0.57213974 -0.34434053 0.0401327 0.31031457 -0.18730919 -0.28121015 -0.3737674
-0.12353368 0.13960515 0.29610518 0.0729273 0.32501104 0.32836592 0.2927178 -0.15002476
0.2524907 0.3617612 0.21351524 0.47530094 0.33152643 -0.39637193 0.23956315 0.7032142
-0.16319974 0.1849944 0.42619407 0.08847459 0.72871786 -0.071741626 -0.23287731 -0.21888454
0.20242582 -0.15323305 -0.12903306 -0.10281779 0.037638094 -0.07449016 -0.23832555 0.46350184
0.58521044 0.5921814 0.16599567 0.21781038 0.2040159 0.15696847 0.1654803 -0.060974903
0.67863977 -0.15743652 0.029695773 0.03779057 0.02447232 0.38564742 0.066416256 -0.31615365
-0.09201648 0.8167903 -0.298446 -0.18884721 -0.2097352 -0.06963985 -0.055363603 -0.085307606
0.023891887 0.14953238 0.13738592 -0.40133116 0.010004249 0.05179837 -0.066757165 0.23830229
-0.032284733 -0.0913762 -0.29323876 0.08303225 -0.0011791143 0.095628776 0.1418257 -0.060265336
-0.03112453 -0.0746504 0.120968595 -0.14270036 0.03139653 0.272678 -0.24146515 0.23646292
-0.14569196 0.65259546 0.4271998 -0.05061604 -0.20144443 0.15430968 -0.61944735 0.7468539
-0.047597382 0.2778852 -0.25908148 0.018539827 0.37607217 0.19667396 0.38401556 0.17547396
-0.27462912 -0.0657332 -0.36955225 -0.5438813 0.23678559 -0.6282904 -0.3021031 0.49228793
-0.56661487 0.26986355 0.41943306 -0.086357325 0.29688516 0.20790921 0.2304898 0.06117022
0.16245934 0.3016326 0.57194656 0.25135496 0.2721686 0.16524874 -0.06721671 -0.012133689
-0.28878736 0.05405437 0.29411492 -0.14824477 -0.019073183 0.07189826 -0.013880104 -0.12225232
-0.1801516 -0.04715773 0.37197596 -0.062873766 0.21286894 -0.03183693 -0.17456011 -0.35834953
0.14699632 -0.07781903 0.13855572 -0.4057111 -0.12555967 -0.19392005 0.18554269 -0.47412091
-0.4205723 -0.0067199785 -0.06942164 -0.29069185 0.27988327 0.013161915 -0.023213772 0.16146356
0.17351602 0.9542452 0.38574252 0.3490923 0.60470295 0.109404 -0.18249728 0.34048527
0.08951173 0.32690778 0.51334155 -0.16919242 0.0068292865 0.49430284 -0.24514224 0.015083589
0.031529777 0.6144479 -0.3993706 0.09510278 -0.0033122732 0.409492 0.09762576 -0.23599997
0.0028528362 0.048339874 0.09792339 -0.033643976 0.3406242 -0.37271112 -0.666673 -0.7567155
-0.5463816 -0.8220544 -0.62785566 0.2211632 0.025383757 -0.15569404 -0.5387772 0.017149907
-0.5105783 0.17852743 -0.29719326 -0.58672464 0.037011184 -0.0755565 0.103490524 -0.66696846
0.4073476 -0.1444758 0.00974418 -0.22478843 0.20668748 0.38903227 -0.14670606 0.08623317
-0.33021238 -0.073848896 0.105062656 0.45769256 0.3052038 -0.19475512 0.41178694 0.2079802

2.bias f4 [30]
00000000: 1886 103e 5a7c 78bd f6b7 bdbd 9a1f d5bd
00000010: 3baa 2e3e c071 c33d a8b4 cf3e d5a5 38be
00000020: 7bcf 27bd 5045 3bbe e892 723d 16c2 92bd
00000030: a2d9 e13d 03e9 8d3e 50e4 7cbe 324e cc3d
00000040: e7f3 5bbe f911 9a3d f654 b53e 57b5 a6be
00000050: c962 1e3d a3fd abbe 1f45 913e fe95 623e
00000060: a268 6cbe 66ee 413e 51bb fb3d 7951 ffbe
00000070: 8cc2 8cbd d1f5 bb3c
0.14113653 -0.060665466 -0.092636034 -0.10406418 0.17057125 0.095431805 0.40567517 -0.1803201
-0.040969353 -0.1828816 0.059222132 -0.07165925 0.11027838 0.27716836 -0.2469647 0.09975852
-0.2147976 0.07522959 0.35416383 -0.32560226 0.038668428 -0.33591947 0.28373048 0.2212753
-0.23086789 0.18938598 0.12291587 -0.49866846 -0.06873044 0.022944363

4.weight f4 [5, 30]
00000000: 1288 7e3e b6d9 f93d 4c4a 48be 8b13 febd
00000010: cc03 2bbd 94ae b43e 69e9 a0be f090 a53e
00000020: 98a0 953e 2767 ba3d 283d 963e 01cb 1cbe
00000030: e197 823d 6e0e c83d 218e 1ebe 4479 ddbe
00000040: 5187 11bf cede 063e f88b ccbe cce0 1fbf
00000050: 8529 973d 4828 493e 0065 71bc ea9c ecbd
00000060: 9b42 513e 6353 413d fcd4 d03d 5bca d1bc
00000070: 6dc0 2fbd 61ff cb3e 1aa8 cc3d 9170 c4be
00000080: 20aa aabd f1a1 1b3e 4715 f03e 6ddb 313e
00000090: 49ed 4bbc d187 1abe c8fd 0d3e 9da9 35bd
000000a0: d68e 52be 2bff ce3e b4ef f8be ae4d e3bc
000000b0: f670 5fbd 71df cabe 6522 3cbe 0b82 3f3e
000000c0: 6d36 863d 1808 b9be 41d7 e73e 9b88 f13e
000000d0: 3212 733e d862 653c aed2 873e ed66 7dbe
000000e0: 43d5 a1bc 2724 35bf 96ff 413f f474 9cbe
000000f0: 319d a8be 03d6 94be 2ec7 2f3f ed6e 83bd
00000100: cf93 0e3d f3ed 00bf d1a5 363f 1f2d 50bf
00000110: 6f26 0fbf 506d b9be f6c5 9639 410e 2dbf
00000120: 20d7 a7be e5f5 e83e 4bf7 1c3f d062 953f
00000130: 6b28 a23d 43cc 78bd c7a8 07bf 076b 1dbf
00000140: 7f0a d23e e158 bcbe a9bd 0ebf 8417 033f
00000150: e58a c7be 849a 193e 6f33 61be 775e 4fbd
00000160: d5b7 a2be afc0 c23e f998 8cbb 65d6 0d3f
00000170: 1dc1 8c3e dac7 d33e bdf5 5c3f af6e 26bf
00000180: 9e1b 00bf 28bd a03e aa02 633c 8f9b 413f
00000190: 42d4 8f3e 14ca 773e ea41 14bf 739e f4be
000001a0: 4022 3d3e 661a 9ebd 6bcf 2ebe a3b9 e3be
000001b0: f7aa 41bf 81a3 e6bd 43bc 303b c4cb 24bf
000001c0: f44e 40be c3fa edbd 4c83 813e 50a3 9c3e
000001d0: 32b7 3c3f c42d 2e3f 0ef5 423d f604 a0be
000001e0: f248 cabe 48bd a7be 3d01 c13e c9a0 d4bd
000001f0: ff82 bbbe 84ae aebe 2d9e ca3d 332c 16bf
00000200: ca8c d5be 81c6 e8be 4646 c4be adca 823d
00000210: f442 2fbe c631 543e b018 f6be f10c 4d3f
00000220: d0fe 9e3e dc1a 1cbf d1e5 8d3e 381f ba3e
00000230: e070 c3be 99ee 83be 15a2 05bd 7ca4 cc3e
00000240: f475 fc3d 31a4 9bbe 112a c4be 074d c9be
00000250: d028 f7bd e832 ecbe
0.24856594 0.12199728 -0.19559592 -0.12406071 -0.041751668 0.35289443 -0.31428078 0.3233714
0.29224086 0.09101706 0.29343534 -0.15311815 0.06376625 0.09768377 -0.15483905 -0.4325658
-0.568471 0.1317093 -0.39950538 -0.6245239 0.07380966 0.19644272 -0.014733553 -0.115533665
0.20435564 0.047198664 0.101968735 -0.025609186 -0.04290812 0.39843276 0.09993 -0.3836713
-0.0833323 0.15198494 0.46891233 0.1736886 -0.01244671 -0.15090872 0.13866341 -0.04435121
-0.205623 0.40429053 -0.4862038 -0.027747001 -0.054551087 -0.39623597 -0.18372495 0.18701951
0.0655335 -0.36138988 0.45281413 0.47174534 0.2373741 0.014000617 0.26527923 -0.24746294
-0.019755011 -0.7075829 0.7578062 -0.30557978 -0.32932428 -0.29069528 0.686633 -0.06417642
0.03480893 -0.5036308 0.71346766 -0.8131885 -0.5591802 -0.3621621 0.00028757722 -0.67599875
-0.32781315 0.45500103 0.6131484 1.167078 0.07917865 -0.060741674 -0.5299191 -0.61491436
0.41023633 -0.3678656 -0.5575815 0.51207757 -0.38973156 0.1500035 -0.21992277 -0.050627198
-0.31780878 0.3803763 -0.0042906967 0.55405265 0.27491084 0.41363412 0.86312467 -0.6501264
-0.5004214 0.31394315 0.013855616 0.7562799 0.28091627 0.2419818 -0.57913077 -0.47777137
0.18470097 -0.07719879 -0.17071311 -0.44477567 -0.75651497 -0.11261655 0.0026967681 -0.6437342
-0.18780118 -0.116200946 0.25295484 0.30593348 0.73717034 0.6803858 0.047596984 -0.31253785
-0.39508778 -0.32761598 0.37696257 -0.1038223 -0.3662338 -0.3411752 0.09893451 -0.5866119
-0.41708976 -0.45463946 -0.38334864 0.063863136 -0.17115384 0.20722112 -0.4806571 0.8009787
0.31053782 -0.60978484 0.27714399 0.36351943 -0.38172054 -0.25767973 -0.032625277 0.39969242
0.12327185 -0.30398706 -0.38313344 -0.3931658 -0.12068331 -0.46132588

4.bias f4 [5]
00000000: 5aae 5cbd 0b2e 173e d2fc dabd a9d2 c3be
00000010: 7caa 0ebe
-0.053877212 0.14763658 -0.10692753 -0.38246658 -0.13932222

0.weight f4 [30, 2]
00000000: bfda 9dbe 98b8 c63f f92c 37bb e33d 24be
00000010: 28e1 d0be a649 5bbf 93cd 01bf 75f3 593f
00000020: aa61 0b3f 0298 7d3f d150 213e 0030 75be
00000030: 2930 8bbe cf3e 1a40 5fba e6bf 0a50 54bf
00000040: 0b58 db3a ab0f a43f 686a 3a3e ef13 22be
00000050: 99ea 0bbf 7041 83bd 1e82 2bbf 0556 1cbe
00000060: 69b9 e33d 94d4 1a3f 74d9 b33b d9ac d2bf
00000070: 083f 80bf 4db0 88bf 1cc2 f3bc 7f1d 10bf
00000080: 826b 65bd fec6 85be 706b 82bf 629b 9c3f
00000090: f505 083f 7a75 3a3f 675e 0b40 947b 2a3e
000000a0: 1bd6 9dbe 7f06 4dbf 4949 413f 6008 193f
000000b0: 0012 7c3f cf7e f7bf b004 01bf 7500 8e3f
000000c0: cfca 20bf 4f42 24bf 4d54 933d 9495 d7bf
000000d0: 61a0 0abe e6ba 003f 9cc7 c53e 0a5b 3f3e
000000e0: cddf abbf b1d1 833d ad0e 563f 9158 00bf
-0.30830953 1.5525084 -0.002795039 -0.16039233 -0.4079678 -0.85659254 -0.50704306 0.8513711
0.544459 0.9906007 0.15753485 -0.23944092 -0.2718518 2.4100835 -1.8025626 -0.8293463
0.0016734613 1.2817281 0.18204653 -0.15827917 -0.5465484 -0.064089656 -0.6699542 -0.15267189
0.111193486 0.6048062 0.005488569 -1.6458999 -1.0019236 -1.0678803 -0.029755645 -0.5629501
-0.05601073 -0.26128381 -1.0189037 1.2234919 0.5313409 0.72835505 2.1776369 0.16648704
-0.30827412 -0.8008804 0.7550245 0.59778404 0.98464966 -1.9335574 -0.5039778 1.109389
-0.6280946 -0.6416368 0.071938135 -1.6842523 -0.13537742 0.50285184 0.38628852 0.18687072
-1.3427674 0.0643648 0.83616143 -0.5013514

0.bias f4 [30]
00000000: ebbe f7bf 47d4 56bf a6b0 423e a2a5 803f
00000010: 13eb 5abe 1301 503f b83c 8abf fe10 69bf
00000020: ddd0 283f 0486 f83e 6d5d 2ebf 5cac 6dbf
00000030: d4b9 143f ab96 89bf e089 4cbf 360c 5c3f
00000040: 05b6 32bf c126 9c3f 5b26 bcbf 37e7 e73f
00000050: f111 933d 7d37 493f 84bb 913f b2d0 8b3e
00000060: 7244 183f 6660 babf cce4 2dbf 092c c2be
00000070: c8e8 303f 26b4 e33e
-1.9355139 -0.8391766 0.19012699 1.0050547 -0.21378736 0.8125164 -1.079978 -0.91041553
0.659437 0.48539746 -0.68111306 -0.92841125 0.5809605 -1.0749105 -0.7989788 0.8595613
-0.6980899 1.2199327 -1.4699205 1.8117436 0.071811564 0.78600293 1.138535 0.2730766
0.5947944 -1.4560668 -0.6792724 -0.3792422 0.69105196 0.4447338

2.weight f4 [30, 30]
00000000: ab62 aa3e bcc2 3c3d 5bb9 8fbd e3be 44be
00000010: 7e01 943e e544 ddbc 73f6 6dbe 97fe 223e
00000020: f320 55bd aaea 0d3e 23cb fabc 1592 25be
00000030: 9f05 05be 2216 19be f206 81be 2957 753e
00000040: e8fa a9bd eacc c9bd bb9a d5be 202f fcbc
00000050: 0e77 f3bd b190 d33e cf21 3e3e 4f5a d73c
00000060: bc14 6a3e b887 263e 600d 9b3d 32cd 04be
00000070: aae0 16be ac16 0b3e cd74 813e 01f2 76bd
00000080: 7489 9f3d 5523 393e d498 cb3d 0e58 a23d
00000090: e455 67be ac68 4b3e 5721 a7bd 4ab7 0a3e
000000a0: dc40 dfbb 6066 34bd c8c9 2bbe 20c3 ef3d
000000b0: 87a8 10bd 4d06 263e bd22 f0bd 0da5 31be
000000c0: da31 48be 3350 71be 6c86 1c3d 3688 523c
000000d0: 093a 38bd ee47 b63d 066a 903e 50a6 48be
000000e0: 8de2 90bd 2840 953d 45c9 e2bc 02dc 9b3d
000000f0: bb24 003e 2f08 553e 98f8 40be 49b2 693d
00000100: a7af d13d 6b95 aa3d fda0 1fbe 029b 5c3d
00000110: b709 593e f954 ab3d 12a7 12be ef86 1abd
00000120: 5b3d 213e eb31 49be 77df a3be 58e3 1e3e
00000130: 6413 083e 1fe9 23be 0534 54be ec6a 41be
00000140: ecb0 e43d d540 f9bc 08ac 07be e5c5 9ebd
00000150: 71c7 62be 8e16 acbe 8c63 943d 8195 813e
00000160: b753 8ebd 62da 8cbc 2ce7 903d 6365 103f
00000170: 9a15 833e e809 58bf 27b9 4abe 8826 3fbe
00000180: 58a5 1b3f 89bf 21bd 16b3 0dbf 07df 103e
00000190: 516d d03c 7044 fd3d 74ef 13bf 9876 573f
000001a0: 1e0f 5c3e f1a0 00be a5a7 053f b000 77be
000001b0: bfd7 8c3e 6f78 18be 3ddc b83e 8375 05be
000001c0: 9d2c 69be 0163 eebe 21b2 713d bed8 8c3f
000001d0: 22ca 713c 58e4 84bc 0587 2bbf a0a8 323d
000001e0: ee24 b3be 495c 993e f6bd b23e 150b 0bbf
000001f0: dce3 62be 5d1b 0d3e b32e 55bf 7755 313c
00000200: 85ab 38bf 9c24 2e3e 33a3 693d 7e76 9cbb
00000210: a258 a7be 083a 133f 1d8e b63e 81ff f53e
00000220: 3e2c 213e cb06 72bf 7d4c 99be 27d6 8b3c
00000230: da87 dd3e 0bfb b1be 121c b53e 0c46 2bbf
00000240: 2d66 ff3d 6501 f73e fb76 1bbf 8ce2 8e3d
00000250: 50cd 1dbf 58f4 3f3f 2a81 1c3d e6a7 c6ba
00000260: 0500 2fbe 2268 1d3e 87b4 94bd e6f3 bcbe
00000270: c455 b23c d5dd 3a3d 4c28 933d 980c 7fbe
00000280: 8772 843e 4d79 a23e 4ec5 da3d d244 333e
00000290: 1b81 a3bd 669a 58be 2fb4 67bd 6fb2 9d3d
000002a0: 5785 b9bd 46c4 c13d b239 d0bd 88af 10be
000002b0: 75f3 903d 4fd6 60be a2de 22be 54a7 293e
000002c0: c25e 853e 9c4c c139 6c4a 95bd 3585 bfbd
000002d0: 0a77 0f3c bd1d b83e 03b7 4bbe 334e 133e
000002e0: 8523 483e 46c7 753e 71e8 953d 3786 debd
000002f0: d4c7 a2bd 7244 483e a414 96be 2b1a a6be
00000300: 607d 0ebe ff07 b03d 357c e23c bff6 1f3e
00000310: 9180 5e3e cd42 91bb 090b 86bd 4849 85be
00000320: 4f2c 103d 050e 063e 4885 1bbe 92e0 2abd
00000330: 0283 7abc 9e84 73be 69c3 71bd 4333 873d
00000340: 91d0 0f3e 6ce0 97be 6c06 e23e 740c 233d
00000350: 980e fe3b 5048 5a3e 15e6 4d3d ae85 dd3d
00000360: cc57 293f 25fc 143e 1c1d 223e f0b6 083e
00000370: eb9f c2bd b5dc 09be a0bf d63d bba2 f33b
00000380: cca9 1ebd d555 86be 96d8 c63d d11b 503e
00000390: 11db 523e 3fc4 1bbe 71c9 6c3c f62d 31be
000003a0: 7134 f2be 715c e43d 2be9 b5bd 4450 143d
000003b0: ad55 7c3e a2d7 a73d 6319 523e c131 bbbe
000003c0: ce39 e4bc e1cd 2abe f056 0fbe 3390 673d
000003d0: 3ab6 853d 602f 82be 6cd5 cfbd 48af 183e
000003e0: 6ae0 473e f951 69bd 7465 f03d 80c8 0f3e
000003f0: 00c2 cf3d 4b06 f2bd d7e7 683e aaa2 b0be
0.33278403 0.04608415 -0.070177756 -0.19213443 0.28907388 -0.02701039 -0.23238544 0.15917431
-0.052033376 0.13859048 -0.030614441 -0.16169007 -0.12990426 -0.14949849 -0.2520061 0.2395903
-0.0829981 -0.098535374 -0.41719612 -0.03078419 -0.11887942 0.41321328 0.18567584 0.02628818
0.22859472 0.1626271 0.075709105 -0.12968901 -0.1473414 0.13582867 0.25284424 -0.060289387
0.07789889 0.18079884 0.09941259 0.07926951 -0.22591358 0.19864148 -0.08160656 0.13546482
-0.0068131518 -0.044042945 -0.16776192 0.11707139 -0.03531697 0.16213341 -0.11725376 -0.17348118
-0.19550267 -0.2356575 0.038214132 0.012849858 -0.04497722 0.08900438 0.2820589 -0.19594693
-0.07074461 0.072876275 -0.027683863 0.076103225 0.12514012 0.20803903 -0.18844831 0.05705479
0.10238581 0.083292805 -0.15588756 0.053858764 0.21195112 0.083658166 -0.14321545 -0.03772634
0.15746062 -0.19647948 -0.32006428 0.15516412 0.13288647 -0.16006897 -0.20722969 -0.18888444
0.11166558 -0.030426422 -0.13249218 -0.07752589 -0.22146393 -0.33610958 0.072455496 0.25309375
-0.06949561 -0.017193977 0.070753425 0.56404704 0.25602418 -0.84390116 -0.19797193 -0.18667042
0.6079917 -0.039489303 -0.5535139 0.14147578 0.025442751 0.12366569 -0.5778725 0.84165335
0.21490142 -0.12561394 0.5220893 -0.24121356 0.2750835 -0.14889692 0.36105528 -0.13033108
-0.22770925 -0.4655991 0.059007768 1.1003644 0.014757665 -0.016222164 -0.670029 0.043617845
-0.34989113 0.2995322 0.34910554 -0.54313785 -0.22157234 0.1377997 -0.8327438 0.010823599
-0.7213672 0.17006153 0.057040405 -0.0047748676 -0.3268481 0.57510424 0.356553 0.48046497
0.15739533 -0.94541615 -0.29941168 0.01706989 0.4326771 -0.34761843 0.35372978 -0.6690376
0.1247066 0.4824325 -0.60728425 0.06976804 -0.61641407 0.74982214 0.038209118 -0.0015156239
-0.17089851 0.15371755 -0.07260995 -0.3690483 0.021769412 0.04562171 0.071854204 -0.24907148
0.25868627 0.3173317 0.10682164 0.17506722 -0.07983609 -0.21152648 -0.05656832 0.07700049
-0.09058636 0.09461264 -0.101672545 -0.1412946 0.07077686 -0.21956752 -0.1590524 0.16567737
0.26048857 0.00036868907 -0.072895855 -0.09351579 0.0087564085 0.35960189 -0.19894032 0.143853
0.195448 0.24001798 0.07319725 -0.10865443 -0.079482704 0.1955736 -0.29312623 -0.3244184
-0.13915014 0.08595275 0.027647117 0.1562147 0.21728732 -0.004433012 -0.065450735 -0.26032472
0.035198506 0.13091286 -0.15187562 -0.041718073 -0.015290024 -0.23781058 -0.05902425 0.06601574
0.14044406 -0.29663408 0.44145525 0.039806798 0.0077532046 0.21316648 0.05026825 0.10816513
0.6614959 0.1454931 0.15831417 0.13351035 -0.09503158 -0.134631 0.10485768 0.0074351705
-0.03873615 -0.2623736 0.09709279 0.20323111 0.2059138 -0.1521158 0.014452324 -0.17302689
-0.47305635 0.11150444 -0.08882364 0.03620936 0.24642058 0.081954256 0.20517497 -0.36561397
-0.027859595 -0.16680099 -0.13998008 0.056534003 0.065288976 -0.2542677 -0.10148129 0.14910614
0.19519201 -0.05696294 0.11738101 0.14041328 0.101444244 -0.118176065 0.2274469 -0.34499103

2.bias f4 [30]
00000000: 8e9e 47be d804 57be 1f07 9dbe 0099 c2be
00000010: 76f8 773d c760 0fbe f5f6 6bbe dbb4 83be
00000020: 9745 a0bc 4fa2 c23d e087 97bd 4a8e f9ba
00000030: 322d 50bd 0f17 d7bd 8854 21bd aa64 883d
00000040: 28f9 883e 5aad ad3d b59e 803e 572f 6e3e
00000050: f682 86bc 909c a03d be73 63be 6079 083e
00000060: 4be6 73bd 34ae 823d 804c bb3e cbb2 c83d
00000070: 752c 0bbc 2714 233e
-0.19494078 -0.20997941 -0.30669495 -0.38007355 0.060539685 -0.14001761 -0.23043425 -0.2572392
-0.019564433 0.09503614 -0.07398963 -0.0019039598 -0.05082435 -0.10502445 -0.039387256 0.06659825
0.2675259 0.0848033 0.25121084 0.23260246 -0.016419869 0.07842362 -0.22212121 0.13327551
-0.059545796 0.06380883 0.36581802 0.09799727 -0.008494486 0.15925656
