model_summon/ReconstructORI/Checkpoint_SEED42_LR0.01_HD30_HL2_Epoch63_WithPhysics1_WithBatch1_Pretrain50.pth (torch, 102695 bytes, 80 tensors)

0.weight f4 [30, 2]
0	0x3f856119	1.0420257
1	0x3f75dc94	0.960397
2	0xbf3f3fc1	-0.74706656
3	0x4003782d	2.05421
4	0xbec555f1	-0.3854213
5	0xbf12c15c	-0.57326293
6	0xbe8e10d0	-0.27747202
7	0x3fa962ad	1.3233238
8	0x3e9c3c19	0.305146
9	0xbf29bd7b	-0.6630475
10	0x3f1a6adf	0.6031932
11	0x3eb5736b	0.3543962
12	0x3f14a804	0.5806887
13	0xbefc8cac	-0.49326074
14	0xbfa1a582	-1.2628634
15	0xbd35af0b	-0.044356387
16	0x3eabbaff	0.33541104
17	0x3e53fdee	0.20702335
18	0xbebd1181	-0.36927417
19	0x3ef5c058	0.4799831
20	0x3d54475f	0.051825877
21	0xbf0d77a4	-0.5526068
22	0xbd034c24	-0.032055035
23	0x3f890875	1.0705706
24	0xbf6b6e3e	-0.9196509
25	0xbf17fb64	-0.59367967
26	0xbe721848	-0.23642075
27	0xbf13fcf3	-0.57807845
28	0x3dfa11a4	0.12210396
29	0xbff5cfb9	-1.9204017
30	0x3ffb0759	1.9611617
31	0xbfbacec7	-1.4594353
32	0x3e7ffa36	0.24997792
33	0x3f2d533b	0.67705125
34	0x3e0b5569	0.136068
35	0x3f0fbac9	0.56144387
36	0x3f63019f	0.8867435
37	0x3ed61547	0.41813108
38	0x3ebb5c44	0.3659383
39	0xbec8a359	-0.39187124
40	0x3c5f1d0a	0.013617763
41	0x3eefc467	0.4682953
42	0xbda8fbfd	-0.08251188
43	0x3f5d2bd2	0.8639499
44	0x3f0ccae3	0.5499708
45	0xbf79cd56	-0.9757894
46	0x3ef00cad	0.4688467
47	0x3e96deb1	0.29466775
48	0x3e7ad65f	0.24495839
49	0xbf0dafd4	-0.5534642
50	0xbf51d63e	-0.8196753
51	0x3c7e67d4	0.015527684
52	0xbfdc8729	-1.7228748
53	0x3f233aee	0.63761795
54	0xbe4df5dd	-0.2011332
55	0x3f8620ad	1.0478722
56	0xbf25b8c6	-0.64735067
57	0xbd8f3ace	-0.06993638
58	0x3e82cce2	0.25546938
59	0xbf9c032b	-1.2188467

0.bias f4 [30]
0	0xbf828547	-1.0196923
1	0xbfccbfd3	-1.599604
2	0xbee67d49	-0.4501746
3	0xbf91e106	-1.1396797
4	0x40074f9b	2.1142337
5	0xbfc3f766	-1.5309875
6	0x4033181e	2.798347
7	0xbe7467c6	-0.23867711
8	0xbfceb181	-1.614792
9	0xbff995b5	-1.9498812
10	0x3f4f5c99	0.8100067
11	0x3ebfcfda	0.37463266
12	0x3f3b2087	0.7309651
13	0xbf15059d	-0.5821169
14	0xc005b52a	-2.0891824
15	0xbfef28cb	-1.8684324
16	0xbe8ddc37	-0.27707073
17	0x3e9b7814	0.3036505
18	0xbed07822	-0.40716654
19	0x3fd1d398	1.6392698
20	0xbe249def	-0.16075872
21	0xbfb0d471	-1.3814832
22	0x3fd401e4	1.6563077
23	0xbf980137	-1.1875371
24	0x3fd94cc9	1.6976558
25	0xc005e7ab	-2.092265
26	0x3f7119f5	0.9418023
27	0x3f962adf	1.1731833
28	0x3b9fd56a	0.004877736
29	0x3f8d857d	1.1056362

2.weight f4 [30, 30]
0	0x3f03b72c	0.51451373
1	0x3e6294ca	0.22127071
2	0x3f0ca2bd	0.5493582
3	0x3eced614	0.40397704
4	0xbf06b9c5	-0.5262721
5	0x3d01a3a0	0.031650186
6	0xbdc08738	-0.09400791
7	0x3e91bf9f	0.28466508
8	0x3d5fdd12	0.05465419
9	0x3d82dcf3	0.06389799
10	0xbe83bd08	-0.25730157
11	0x3de68d95	0.112574734
12	0xbf3fa2e5	-0.7485793
13	0xbf0076be	-0.50181186
14	0x3e4eaa17	0.20182072
15	0xbe841352	-0.2579599
16	0x3f1ec713	0.62022513
17	0x3eaef897	0.34174034
18	0x3e9c167d	0.30485907
19	0xbf32863a	-0.69736063
20	0x3d750870	0.0598225
21	0x3f3bd85e	0.73377025
22	0xbe64f173	-0.2235773
23	0xbb9d60bc	-0.0048027914
24	0xbf01ab7e	-0.506523
25	0xbd1f4bd6	-0.038890682
26	0x3e380b5a	0.1797308
27	0xbdf507f5	-0.11964408
28	0x3e38b4d4	0.1803773
29	0xbed90435	-0.42386022
30	0xbf55dc90	-0.83539677
31	0x3ea35b8a	0.31905776
32	0xbb1c14f1	-0.0023816193
33	0x3dea821d	0.114505984
34	0x3e99c801	0.30035403
35	0x3d2cc990	0.042184412
36	0x3f215313	0.63017386
37	0xbd8a62d1	-0.06757129
38	0x3ebd3749	0.36956242
39	0xbf153a8e	-0.5829247
40	0x3f244837	0.6417269
41	0x3d08b118	0.033372015
42	0x3ee4575f	0.4459791
43	0x3f8452cf	1.0337771
44	0x3f3c46e1	0.7354565
45	0xbf85a81b	-1.0441927
46	0xbf4b991f	-0.7953052
47	0xbf520a15	-0.82046634
48	0xbec84e33	-0.3912216
49	0x3ede17f1	0.4337764
50	0x3dc739ae	0.097277984
51	0xbf36b190	-0.7136469
52	0x3ebd9026	0.3702404
53	0xbd1201b8	-0.03564617
54	0x3ebf1583	0.373211
55	0xbedcfd5a	-0.43162042
56	0x3f5758e0	0.8411999
57	0xbe3119bf	-0.17294978
58	0xbd908d63	-0.070582174
59	0xbe8a63ce	-0.2702927
60	0xbdf194a3	-0.11795928
61	0xbf0694cc	-0.52570796
62	0xbf16a1db	-0.5884072
63	0xbfcdaa58	-1.606761
64	0x3fbc8626	1.4728439
65	0xbe048cca	-0.12944332
66	0x3eb53e2f	0.35399005
67	0xbf15ed8a	-0.5856558
68	0xbde2daf3	-0.110769175
69	0xbefbd15c	-0.49183166
70	0x3f652ab2	0.8951827
71	0xbefb8291	-0.49123052
72	0x3da929f0	0.08259952
73	0x3d88714e	0.06662236
74	0x3ea713c0	0.32632256
75	0xbefb1930	-0.49042654
76	0xbe645dc3	-0.22301392
77	0xbe2e2802	-0.1700745
78	0xbd827b0f	-0.06371128
79	0x3f7b8cc0	0.9826164
80	0x3dfeab13	0.124349736
81	0xbf3470c9	-0.70484596
82	0x4037ba48	2.8707447
83	0xbdd84ece	-0.10561906
84	0x3f910d61	1.1332208
85	0xbec81a2a	-0.39082462
86	0x3e40c14d	0.18823738
87	0xbf4a1231	-0.7893401
88	0xbfb08754	-1.3791299
89	0x3f610385	0.87895995
90	0x3f3214b4	0.6956284
91	0x3dfd8b9f	0.12380146
92	0x3ee366f7	0.44414493
93	0xbf04586a	-0.5169741
94	0x3e6051bd	0.2190618
95	0x3f7f3768	0.9969392
96	0x3f24b243	0.64334506
97	0xbfaac856	-1.3342388
98	0x3f13d92d	0.5775326
99	0xbefab36d	-0.48965016
100	0x3e25ea4e	0.16202661
101	0x3e87c725	0.26519123
102	0xbf47e09b	-0.78077096
103	0xbdd42925	-0.1035941
104	0xbeca5918	-0.39521098
105	0xbf50c64b	-0.8155257
106	0x3ea7e3f3	0.327911
107	0x3e713b2a	0.23557726
108	0x3f317f1b	0.6933457
109	0x3e2c0256	0.16797766
110	0xbef372a0	-0.4754839
111	0x3dc21b86	0.09477906
112	0x3f8aff44	1.0859151
113	0x3f5e396c	0.8680637
114	0x3d6bd59c	0.05757676
115	0xbf62d95d	-0.8861292
116	0xbd28404d	-0.041076947
117	0xbdb79ce3	-0.08965471
118	0x3d087aa6	0.03332009
119	0x3f2f2a0f	0.6842355
120	0x3ce15f15	0.027511159
121	0x3f2b5a19	0.66934353
122	0xbe5cb9d5	-0.21555264
123	0x3ea07623	0.3134013
124	0x3e333b29	0.17503037
125	0x3f29521e	0.66140926
126	0x3ef5d1e1	0.48011687
127	0xbe1cdd0c	-0.15318698
128	0x3f17a46c	0.5923526
129	0xbeada97f	-0.33918378
130	0x3c4fa92c	0.012674611
131	0x3e36cfbb	0.1785268
132	0xbef795f7	-0.48356602
133	0xbf0b3235	-0.54373485
134	0xbe865368	-0.2623551
135	0x3eedb6e2	0.4642859
136	0x3ef937b5	0.48675314
137	0x3e90c23f	0.28273198
138	0x3e497a78	0.19675624
139	0x3d539ca8	0.05166307
140	0xbd0c549e	-0.034260385
141	0x3d29c74a	0.041449822
142	0xbd9158e5	-0.070970334
143	0x3f256f2b	0.64622754
144	0x3d8c6d50	0.06856787
145	0xbf358113	-0.70900077
146	0xbeef12f8	-0.4669416
147	0xbe100825	-0.14065607
148	0x3c116c91	0.008875982
149	0xbef63912	-0.48090416
150	0x3e7ff812	0.24996975
151	0xbf97d54f	-1.1861972
152	0xbebcddf9	-0.36888102
153	0xbf14b16b	-0.5808322
154	0xbe59f17b	-0.21283524
155	0xbf707157	-0.9392294
156	0xbf6809bf	-0.9063987
157	0xbe8678c8	-0.26264024
158	0xbf78e23e	-0.9722022
159	0x3f28247f	0.6568069
160	0x3db35406	0.087562606
161	0xbe8d6e52	-0.2762323
162	0xbd8263c1	-0.06366683
163	0xbe8cdb50	-0.27511072
164	0xbe2fe38b	-0.17176645
165	0x3db0d3f6	0.08634178
166	0xbab756b2	-0.0013987629
167	0x3c777883	0.015104416
168	0x3d861805	0.0654755
169	0xbe12621b	-0.14295237
170	0x3e3a6290	0.18201661
171	0xbe2464e5	-0.16054113
172	0x3e54bc86	0.20775041
173	0xbf5a1fa0	-0.85204506
174	0xbde4f817	-0.11180132
175	0x3f9e5897	1.2370785
176	0xbee88196	-0.45411366
177	0xbe1fe4f1	-0.15614678
178	0xbe6222e3	-0.2208362
179	0x3e77682b	0.2416083
180	0xbe4d66ca	-0.20058742
181	0xbeceaf24	-0.40367997
182	0xbe9e02a4	-0.3086139
183	0xbd930ff6	-0.07180779
184	0x3f26c069	0.65137345
185	0xbda65115	-0.08120934
186	0x3f428c22	0.75995076
187	0xbe6bd1d6	-0.23029265
188	0xbd022e48	-0.03178242
189	0xbf49fecf	-0.7890443
190	0x3ec8f71e	0.39251035
191	0xbe80ef62	-0.25182635
192	0x3edff96b	0.43744978
193	0x3ef000f8	0.4687574
194	0xbe9fdf22	-0.31224924
195	0xbd97c9fc	-0.07411572
196	0xbf00733e	-0.50175846
197	0xbea36495	-0.31912675
198	0xbec4c01a	-0.38427812
199	0x3f0dbfc8	0.5537076
200	0x3e65dec1	0.22448255
201	0xbf0e4e07	-0.5558781
202	0x3dffd702	0.12492181
203	0xbe1ea946	-0.1549426
204	0x3f067a2e	0.5253018
205	0xbe0ff185	-0.14056976
206	0xbd6ffd05	-0.058590908
207	0xbe0374d2	-0.12837532
208	0xbebca2ec	-0.3684305
209	0x3e3eb1e7	0.18622552
210	0xbef1598b	-0.47138628
211	0xbf2e86d9	-0.6817451
212	0xbda0274f	-0.078199975
213	0xbf89a498	-1.0753355
214	0xbda9e3c4	-0.08295396
215	0xbd42d2e6	-0.04756441
216	0xbe8e0b73	-0.2774311
217	0xbf8006bd	-1.0002056
218	0xbe5e630b	-0.2171747
219	0x3e0d01b5	0.13770182
220	0x3f3b237f	0.7310104
221	0xbf876360	-1.0577202
222	0x3e78f89d	0.24313588
223	0x3f046809	0.51721245
224	0x3fa31c85	1.2743078
225	0x3f635e79	0.8881603
226	0xbee8eb13	-0.45491847
227	0xbee904f3	-0.45511588
228	0xbea52c4d	-0.3226036
229	0x3e2f7824	0.17135674
230	0xbeacae41	-0.33726695
231	0xbe3615fc	-0.17781824
232	0x3ecf3b70	0.40475035
233	0xbe349ad7	-0.17637192
234	0xbd1f550b	-0.038899463
235	0x3e6e8d8b	0.23296182
236	0xbef99591	-0.48746923
237	0xbf8faf73	-1.1225418
238	0xbf322f41	-0.69603354
239	0x3f5ffec1	0.874981
240	0x3ebe8f69	0.37218788
241	0x3f172d92	0.5905391
242	0x3e9966fb	0.2996138
243	0x3ea81678	0.32829642
244	0xbee8e2aa	-0.4548543
245	0x3d6d55b0	0.057943046
246	0xbe2afba7	-0.1669756
247	0x3f00b867	0.50281376
248	0x3cefc2cc	0.029267691
249	0x3ebb2014	0.3654791
250	0xbf1b936e	-0.60771835
251	0x3eddf4b9	0.4335077
252	0xbec20159	-0.37891653
253	0xbf033dfd	-0.5126646
254	0xbf322f0b	-0.6960303
255	0xbf14a369	-0.58061844

2.bias f4 [30]
0	0xbe9641d7	-0.29347107
1	0xbec44f1a	-0.383416
2	0x3f324995	0.6964353
3	0xbec37b91	-0.3818021
4	0xbe7d4366	-0.24732742
5	0x3f6c5d96	0.923303
6	0x3e1628d9	0.1466402
7	0x3caef069	0.02135487
8	0xbde0eff2	-0.10983266
9	0xbed77c3d	-0.42086974
10	0xbe33c1c6	-0.17554387
11	0x3d02a78a	0.03189806
12	0xbdc23269	-0.09482271
13	0x3f3a10fa	0.72682154
14	0x3ef12fcc	0.4710678
15	0x3e601f67	0.21886979
16	0x3f0ce5f2	0.5503837
17	0x3e94d340	0.2906742
18	0x3e1e4a9b	0.15458147
19	0x3e27d44d	0.1638958
20	0x3f0f553a	0.5598942
21	0xbf21aa37	-0.6315035
22	0x3ead451f	0.33841798
23	0xbf52edd5	-0.8239415
24	0xbddb3ae7	-0.10704594
25	0xbe53a565	-0.20668562
26	0x3f146fd3	0.5798313
27	0x3dd16b26	0.10225515
28	0x3df03308	0.117284834
29	0xbd834927	-0.06410437

4.weight f4 [5, 30]
0	0xbe9e7160	-0.30945873
1	0x3e8fd269	0.28090218
2	0xbe36bdfa	-0.17845908
3	0xbd6c52a4	-0.057696
4	0x3e2c92af	0.1685283
5	0xbec3110c	-0.38098943
6	0x3d85c2a9	0.06531269
7	0xbd8b08bb	-0.067887746
8	0xbe9cea98	-0.3064773
9	0xbe4cfd0d	-0.20018406
10	0x3dbf571a	0.09342785
11	0x3e119134	0.14215547
12	0x3e050c38	0.12992942
13	0xbde2e2e9	-0.11078436
14	0xbe26c471	-0.16285874
15	0x3ea78406	0.32717913
16	0xbd23b956	-0.039971672
17	0xbe170d31	-0.14751126
18	0xbcd33648	-0.02578272
19	0xbd4f9154	-0.050675705
20	0x3ddc3ff8	0.107543886
21	0x3e1cb79b	0.15304415
22	0xbdbb241e	-0.09137748
23	0xbd7ea17d	-0.062165726
24	0x3de3ed36	0.11129229
25	0xbdbe553c	-0.09293601
26	0xbdc87ef6	-0.09789841
27	0x3e7d3ab7	0.24729429
28	0xbd4c2a76	-0.04984518
29	0x3e42182f	0.18954538
30	0x3eda4b48	0.4263556
31	0x3dffedff	0.12496566
32	0xbee5e991	-0.4490476
33	0xbe6a200e	-0.2286379
34	0xbc01578a	-0.007894406
35	0x3d82a9ec	0.06380066
36	0x3df6adb1	0.12044848
37	0x3e07e33d	0.13270278
38	0x3d2cacb6	0.042156897
39	0xbe7f6af6	-0.24943146
40	0xbd158263	-0.0365013
41	0xbe5a5205	-0.2132035
42	0xbe5bff38	-0.21484077
43	0x3d8a39cd	0.06749306
44	0xbde4140f	-0.111366384
45	0x3e2e807f	0.17041205
46	0xbe320158	-0.17383325
47	0xbcb5faea	-0.022214372
48	0x3e54f1c4	0.20795351
49	0x3d582eb4	0.052778915
50	0x3ea9f7a5	0.3319675
51	0x3e34d12c	0.17657918
52	0x3d807fa5	0.06274346
53	0x3e08a1b6	0.13342938
54	0x3e0f6689	0.14003958
55	0xbc702207	-0.01465655
56	0x3deacde9	0.114650555
57	0x3e40e4c1	0.18837263
58	0xbd39cab1	-0.045359317
59	0xbe1985b4	-0.1499241
60	0x3e155236	0.14582142
61	0xbec3452a	-0.38138705
62	0xbf1bbebe	-0.60837924
63	0xbea51795	-0.32244554
64	0x3e5179c8	0.20456612
65	0x3e8d8fe0	0.2764883
66	0x3f40dfee	0.7534169
67	0x3eb890e8	0.36048055
68	0x3e3f4f83	0.18682675
69	0xbeeff7d8	-0.46868777
70	0x3eb34091	0.35010198
71	0x3e0c2199	0.13684691
72	0xbf0740d9	-0.52833325
73	0x3d81d14e	0.0633875
74	0x3d807ce5	0.06273822
75	0x3e4514e8	0.19246256
76	0xbeecc920	-0.46247196
77	0xbdea7722	-0.11448504
78	0x3da494ba	0.0803618
79	0x3e0917c7	0.13387977
80	0xbeac5573	-0.33658943
81	0x3d59b8ab	0.05315463
82	0xbef5b437	-0.47989056
83	0x3f284e2f	0.657443
84	0xbd42a5c9	-0.047521386
85	0x3e130508	0.14357388
86	0xbc9f7b44	-0.019467957
87	0xbd101ba4	-0.03518261
88	0x3cf41e59	0.029799627
89	0x3d2a9a93	0.04165132
90	0x3e326f80	0.17425346
91	0xbec8f9ba	-0.39253026
92	0xbdb213fe	-0.086952195
93	0x3efd36e1	0.49455932
94	0x3e2a4f2f	0.16631769
95	0xbe2e0c05	-0.16996773
96	0xbd500862	-0.050789244
97	0x3ec2761c	0.37980735
98	0x3ec619c2	0.38691527
99	0x3dd1972e	0.10233913
100	0x3c293193	0.010326761
101	0xbe98bf2b	-0.2983335
102	0xbd7d9e5a	-0.061918594
103	0xbd89d6c5	-0.06730417
104	0x3c846acc	0.016164206
105	0xbc20daa2	-0.009817751
106	0xbe0e3cae	-0.13890335
107	0x3f001d15	0.50044376
108	0xbe57427f	-0.2102146
109	0x3e720cb9	0.23637666
110	0xbec1cb31	-0.37850335
111	0x3f25df4d	0.64793855
112	0x3c406636	0.011743119
113	0x3d32c3e1	0.043643836
114	0x3f0c8812	0.54895127
115	0xbe909072	-0.28235203
116	0x3ea73c20	0.3266306
117	0x3f0c6c07	0.54852337
118	0x3eb01685	0.3439218
119	0x3d35ac26	0.044353627
120	0xbe8ac38a	-0.2710231
121	0xbc1c3559	-0.009534203
122	0x3e6adf99	0.22936858
123	0xbc129721	-0.008947165
124	0xbded332a	-0.115820244
125	0x3dc4e1fb	0.09613415
126	0xbe00e4d7	-0.12587295
127	0x3e1fbe96	0.15600047
128	0xbe679924	-0.22617012
129	0xbd89e4d0	-0.06733096
130	0x3ab9e3a7	0.0014182226
131	0x3e54d4d6	0.20784315
132	0x3df9cd37	0.12197345
133	0xbba617bf	-0.0050687487
134	0xbd5ecbbe	-0.054393522
135	0x3f0cfe5a	0.5507561
136	0x3cd1beb0	0.025603622
137	0x3e730aa0	0.23734522
138	0x3eaf3751	0.3422189
139	0x3ad03609	0.0015885244
140	0xbd17eb24	-0.037089482
141	0x3e10258c	0.14076823
142	0xbd00541c	-0.031330213
143	0x3e0dbd35	0.13841708
144	0xbeddc0dc	-0.43311203
145	0x3cb98e98	0.022651002
146	0xbed85835	-0.42254797
147	0x3e9262d2	0.2859102
148	0x3efe9dc2	0.49729735
149	0x3e17aa1b	0.14810984

4.bias f4 [5]
0	0x3daca7d1	0.08430446
1	0x3e994c13	0.29940853
2	0xbc501138	-0.012699418
3	0x3e9127d6	0.28350705
4	0xbf8600c5	-1.0468985

0.weight f4 [30, 2]
0	0x3ecdab15	0.40169588
1	0x3df0fce8	0.11766988
2	0x3e87d943	0.26532945
3	0x3fce1878	1.6101217
4	0xbe678991	-0.22611071
5	0xbd59bfae	-0.053161316
6	0xbe493e5d	-0.19652696
7	0xbfa9a58f	-1.325365
8	0xbe05ffe2	-0.13085893
9	0xbd4fb821	-0.05071271
10	0xbd15578a	-0.036460437
11	0x3f062129	0.5239435
12	0xbd618b7d	-0.055064667
13	0x3f9f0805	1.2424322
14	0x3fc5fcfc	1.546783
15	0xbfba9fca	-1.4580014
16	0x3e5e4548	0.21706116
17	0x3f2ba83b	0.67053574
18	0xbf2824ba	-0.6568104
19	0xbee4f08c	-0.44714773
20	0xbdf57786	-0.11985688
21	0xbf1e0719	-0.6172958
22	0xbe3ac53c	-0.18239301
23	0x3ef11641	0.4708729
24	0xbcd6ae51	-0.026206167
25	0xbf647a76	-0.8924936
26	0xbf0207e7	-0.5079331
27	0xbe32b5d7	-0.17452179
28	0x3efc948b	0.4933208
29	0xbf3f006f	-0.74610037
30	0xbe6170ae	-0.2201564
31	0x3fb70bc0	1.4300461
32	0xbe331090	-0.17486787
33	0x3f3e4635	0.7432588
34	0xbd03ef22	-0.032210477
35	0x3fb99fd2	1.4501898
36	0xbfc284c7	-1.519677
37	0x3e349595	0.17635186
38	0x3fdc1d0a	1.7196362
39	0xbff60bca	-1.9222348
40	0x3e626567	0.22108994
41	0x3f1aa6e0	0.6041088
42	0xbd774648	-0.06036976
43	0x3f201ba4	0.62542176
44	0xbef8d8f3	-0.4860302
45	0xbea768ce	-0.32697147
46	0xbe6f5111	-0.23370768
47	0x3f429c59	0.7601982
48	0xbf0bd856	-0.5462698
49	0x3fb1981a	1.3874543
50	0xbf693c76	-0.9110788
51	0x3ff28591	1.8947011
52	0x3ebeecc2	0.37290007
53	0xbed41a1f	-0.4142618
54	0xbf40d4f7	-0.7532496
55	0x3f5a45bf	0.85262674
56	0xbe96442f	-0.29348895
57	0xbdc03fd3	-0.093871735
58	0xbd67c8a8	-0.056587845
59	0x3ffa7a6b	1.9568609

0.bias f4 [30]
0	0xbdcf1a5d	-0.1011245
1	0xbff2b5c0	-1.8961716
2	0x3f07628e	0.5288476
3	0xbf13e22c	-0.57766986
4	0x3ffef305	1.9917914
5	0xbfc06fc2	-1.5034106
6	0x3f082059	0.5317436
7	0xbf274312	-0.65336716
8	0xbeeb1305	-0.45912948
9	0x3f887a63	1.066235
10	0xbe6c3db2	-0.2307041
11	0xbfcf11c5	-1.6177298
12	0xbf9b3369	-1.2125064
13	0xbf2b50f4	-0.669204
14	0x3f95975f	1.168682
15	0xbf7be841	-0.98401266
16	0xbfe3545a	-1.7760117
17	0x3fcf420e	1.6192033
18	0xbfa99ba1	-1.3250619
19	0x3f20e5ce	0.62850654
20	0x40130990	2.2974586
21	0xbf87ad47	-1.0599755
22	0x40142e6e	2.3153338
23	0xc00391d4	-2.0557756
24	0xc01e5abd	-2.4742882
25	0x40076b52	2.1159253
26	0x400e287e	2.2212214
27	0xbfe166b7	-1.7609471
28	0xbd971395	-0.07376782
29	0x3fd28508	1.6446848

2.weight f4 [30, 30]
0	0x3eea1426	0.45718497
1	0xbe156d9a	-0.14592591
2	0xbeb94995	-0.3618895
3	0xbdcef293	-0.10104861
4	0xbf048fa9	-0.5178171
5	0xbe7157c0	-0.2356863
6	0x3d239821	0.039940003
7	0xbbef8b19	-0.007310283
8	0x3e360801	0.17776491
9	0xbf0920cb	-0.53565663
10	0xbe3bf4f4	-0.18355161
11	0xbd778882	-0.06043292
12	0x3cbc7e2e	0.023009386
13	0x3db5f8a8	0.08885318
14	0x3ea26dc8	0.3172438
15	0xbe077c27	-0.13230954
16	0xbd316785	-0.043311615
17	0x3e4ee43f	0.20204256
18	0xbec00a32	-0.37507778
19	0x3e74c9c7	0.23905097
20	0x3e190145	0.1494189
21	0x3d740830	0.05957812
22	0xbee74d72	-0.45176274
23	0x3c3fcef1	0.0117070535
24	0x3e350f20	0.17681551
25	0x3ea55243	0.32289323
26	0x3e866300	0.26247406
27	0xbe0defc3	-0.13860993
28	0x3e715d7c	0.23570818
29	0x3ebbf4c3	0.36710176
30	0x3e1583fb	0.14601128
31	0xbee5b816	-0.4486701
32	0xbf2ea8bf	-0.68226236
33	0x3f438792	0.7637874
34	0xbe467b8c	-0.19383067
35	0x3e8501aa	0.25977832
36	0xbf030474	-0.5117867
37	0x3f7542cd	0.95805055
38	0xbecc0a7a	-0.39851743
39	0x3ea0e2d2	0.3142305
40	0x3ecca9fd	0.3997344
41	0x3f1a70a9	0.60328156
42	0x3f19e104	0.6010897
43	0xbe8907a8	-0.26763654
44	0x3ed83cdc	0.42233932
45	0xbe76854a	-0.24074283
46	0x3dc930fb	0.098237954
47	0xbf1c7d1b	-0.61128396
48	0xbf840a3d	-1.0315624
49	0x3fa7a701	1.309784
50	0xbf30e371	-0.6909705
51	0xbe338a8a	-0.17533317
52	0x3e4022d6	0.18763289
53	0xbdef8f24	-0.11697224
54	0x3e9816c9	0.29704884
55	0xc0042854	-2.0649614
56	0xbeae3fe5	-0.34033123
57	0xbeab68a2	-0.33478266
58	0xbeb4e8c3	-0.35333833
59	0xbf936bcd	-1.1517273
60	0xbeb4efe2	-0.35339266
61	0x3efb56c6	0.4908964
62	0x3d317683	0.043325912
63	0xbf1826c5	-0.5943416
64	0xbd69ed68	-0.057111174
65	0x3f4760cc	0.77882075
66	0x3ef49dfd	0.47776785
67	0xbe1967c7	-0.14980994
68	0x3d94a238	0.07257503
69	0x3b8cb7d5	0.0042943754
70	0x3dcfad6a	0.10140498
71	0x3f8147d2	1.0100043
72	0xbede396b	-0.4340318
73	0x3d28ba71	0.04119343
74	0xbdbc74f5	-0.09201995
75	0x3eed99c1	0.46406367
76	0x3ed5b93a	0.4174288
77	0x3ee22998	0.4417236
78	0x3d72937f	0.059222694
79	0x3e6281ca	0.22119823
80	0x3e802fa2	0.2503634
81	0x3eeca14f	0.4621682
82	0x3e9c1c4b	0.30490336
83	0x3eca6b35	0.39534917
84	0x3ef4f16f	0.4784045
85	0x3ee1042c	0.43948495
86	0xbee7b804	-0.4525758
87	0x3f18ede2	0.5973798
88	0xbe29b3a4	-0.16572434
89	0x3efeebe1	0.49789336
90	0x3f32fab0	0.6991377
91	0x3dbf62f6	0.09345047
92	0xbf3d9067	-0.74048465
93	0x3cc0a782	0.023517374
94	0xbf877c91	-1.058489
95	0x3d31fbff	0.043453213
96	0xbd1847e8	-0.03717795
97	0xbdf02ba6	-0.11727075
98	0x3e43f069	0.19134678
99	0xbf201d49	-0.62544686
100	0xbe4a1d0f	-0.19737647
101	0x3dff1e87	0.124569945
102	0xbe62956e	-0.22127315
103	0x3d60a775	0.0548472
104	0x3f026da4	0.5094855
105	0x3dd72b5d	0.10506318
106	0x3e467438	0.19380271
107	0x3d364f11	0.044508997
108	0xbf19ec95	-0.6012662
109	0x3edf22a7	0.43581125
110	0xbe26bf99	-0.16284026
111	0x3e8bff1c	0.2734307
112	0xbf055515	-0.5208295
113	0x3ddc97ec	0.10771164
114	0xbd5f5316	-0.054522596
115	0x3e4ac555	0.19801839
116	0xbe6e8d62	-0.23296121
117	0xbe024387	-0.12721072
118	0x3e63b02f	0.22235177
119	0x3ea4ffce	0.32226413
120	0xbe3a7696	-0.182093
121	0xbf136344	-0.5757334
122	0x3d51780f	0.051139887
123	0x3f13c541	0.5772286
124	0xbe73f5dc	-0.23824257
125	0x3df559a9	0.11979992
126	0xbf1530e8	-0.5827775
127	0x3f7a06c3	0.9766657
128	0xbf01cbeb	-0.5070178
129	0x3eeb0e12	0.45909172
130	0x3eee3cf6	0.46530885
131	0x3e898b7c	0.2686423
132	0x3f430a8f	0.76187986
133	0x3e21c550	0.15797925
134	0xbe57edc4	-0.21086794
135	0xbef9c53c	-0.4878329
136	0xbee188f7	-0.44049808
137	0xbf812e34	-1.0092225
138	0xbec4419b	-0.38331303
139	0x3f214f16	0.630113
140	0xbf093033	-0.5358917
141	0xbecf737b	-0.40517792
142	0x3e6f311b	0.23358576
143	0xbec7a94b	-0.38996348
144	0x3db0b10a	0.086275175
145	0xbf65217b	-0.8950421
146	0xbe81fbe2	-0.25387484
147	0x3edee7db	0.43536267
148	0xbe81297a	-0.25226957
149	0xbf955468	-1.1666384
150	0xbdb8fd32	-0.09032668
151	0xbe59aae6	-0.21256599
152	0x3d9735bd	0.07383297
153	0x3dedb160	0.11606097
154	0x3e19fd14	0.15037948
155	0xbea6e37b	-0.3259543
156	0x3dbd0df3	0.09231176
157	0x3dc24466	0.09485702
158	0xbe863b14	-0.26216948
159	0x3e646d77	0.22307383
160	0xbcc4132b	-0.023934921
161	0xbed5a204	-0.4172517
162	0x3cd69bff	0.026197432
163	0xbd9f16e4	-0.07768038
164	0x3e5eb06f	0.21746992
165	0x3d1303f1	0.03589243
166	0xbd0503fa	-0.032474495
167	0xbd73b014	-0.059494093
168	0x3d3de26b	0.046358507
169	0x3c086c6d	0.008326632
170	0x3d912765	0.07087592
171	0xbcc1bf3c	-0.023650758
172	0x3e905696	0.2819106
173	0xbe678dd2	-0.22612694
174	0x3e87263c	0.26396358
175	0xbf331d4e	-0.6996659
176	0x3f276aef	0.6539754
177	0xbede03a1	-0.43362144
178	0xbe470ef3	-0.19439296
179	0xbe8ad997	-0.27119133
180	0xbe4833bf	-0.1955099
181	0xbe03ae4b	-0.12859456
182	0x3d0cc3d3	0.03436644
183	0x3cee7ecd	0.029113198
184	0x3ca61a2d	0.020276153
185	0xbdfb1eb7	-0.12261718
186	0xbe8db3b7	-0.27676174
187	0x3e3554ad	0.17708082
188	0xbe3abcd7	-0.18236099
189	0x3e2b0757	0.16702019
190	0x3ecfe01b	0.40600666
191	0xbde287f2	-0.11061086
192	0x3e7f5ed7	0.24938522
193	0x3ebd76bc	0.3700465
194	0x3de24a0b	0.11049279
195	0xbe7f5485	-0.24934585
196	0xbd8a8d0e	-0.06765185
197	0xbe423f7c	-0.1896953
198	0xbe30b402	-0.17256168
199	0xbd8a3829	-0.06748993
200	0xbe855c91	-0.26047185
201	0xbd8e7e48	-0.0695768
202	0x3e335483	0.17512707
203	0xbd6950dd	-0.056961883
204	0x3dcf1f5b	0.101134025
205	0xbe97af1c	-0.29625785
206	0x3e91b236	0.28456277
207	0xbe4d34c0	-0.20039654
208	0xbdb1e68f	-0.08686554
209	0xbeb68f43	-0.35656175
210	0x3eadc892	0.33942086
211	0x3de33f04	0.11096004
212	0x3e9ad2d4	0.30238974
213	0xbe9daef6	-0.30797547
214	0x3e41de87	0.18932544
215	0x3f071746	0.5276989
216	0x3e8bf45b	0.27334866
217	0x3e9cc0bc	0.30615795
218	0x3e98e7b9	0.2986429
219	0xbf1bfca8	-0.609324
220	0xbf266c43	-0.65008944
221	0x3f6aa8fa	0.9166409
222	0xbe2fb09a	-0.17157212
223	0xbd3b9bed	-0.045803
224	0x3f2e630f	0.681199
225	0xbe86cb80	-0.26327133
226	0x3eda6877	0.42657825
227	0x3ec34f35	0.38146368
228	0xbf4b6ab6	-0.794597
229	0xbf03afc5	-0.5144008
230	0x3e88f64b	0.26750407
231	0x3ed025df	0.40653893
232	0xbe3cf5cb	-0.18453138
233	0x3fa52a6e	1.2903574
234	0xbf5d2a12	-0.8639232
235	0x3f0d66b9	0.5523487
236	0xbf86fb71	-1.0545484
237	0xbf54a906	-0.8307041
238	0x3ef6bc82	0.48190695
239	0x3f12071d	0.57042104
240	0xbe07bc58	-0.13255441
241	0x3db83510	0.08994496
242	0x3e8fbc62	0.28073412
243	0xbe1ad4fd	-0.15120311
244	0x3eb08697	0.34477684
245	0x3f11f41e	0.5701312
246	0x3ed8e06e	0.42358726
247	0x3d83c400	0.064338684
248	0x3ec0b6b9	0.37639406
249	0xbe87abf0	-0.26498365
250	0xbdf4202d	-0.119201995
251	0x3f4e1424	0.8049948
252	0xbd894700	-0.06702995
253	0x3c2e1c8b	0.010626922
254	0x3e8e740b	0.2782291
255	0x3d9233b6	0.07138769

2.bias f4 [30]
0	0xbef41f97	-0.4768035
1	0xbf0f4269	-0.5596071
2	0xbe554681	-0.20827676
3	0xbf880a9d	-1.0628239
4	0x3e4c02dc	0.19922966
5	0x3e221020	0.15826464
6	0x3d3c991c	0.046044454
7	0x3de2540a	0.110511854
8	0x3e408cca	0.18803707
9	0x3f8bb529	1.0914661
10	0x3d725f11	0.059172694
11	0x3f261039	0.64868504
12	0x3d66cb4a	0.056346215
13	0xbed41764	-0.41424096
14	0x3f3e451e	0.74324214
15	0xbdde6ba5	-0.10860375
16	0x3e04a464	0.12953335
17	0xbdbef0b7	-0.093232565
18	0xbe4524b1	-0.19252278
19	0x3ed08c98	0.40732265
20	0x3ea7650c	0.3269428
21	0xbe952654	-0.29130805
22	0xbd7fd693	-0.062460493
23	0xbcf7e4ac	-0.030260406
24	0xbf2c8c0b	-0.6740119
25	0xbf1f23b0	-0.6216383
26	0xbea19662	-0.31560045
27	0xbe266f5b	-0.16253416
28	0xbea62cdc	-0.324561
29	0x3dbd167a	0.09232803

4.weight f4 [5, 30]
0	0xbdb2e65d	-0.087353446
1	0xbc82e658	-0.015978977
2	0xbe67b232	-0.2262657
3	0xbe97a4cb	-0.29617915
4	0x3e96526e	0.29359764
5	0xbcfb0d62	-0.03064603
6	0x39af54ad	0.0003344169
7	0x3dae490e	0.08510028
8	0xbd8f94a1	-0.070107706
9	0xbdd01a4d	-0.101612665
10	0xbcfbc661	-0.030734243
11	0xbdc759ba	-0.09733911
12	0x3e6da23d	0.2320642
13	0x3e5d54e8	0.2161442
14	0xbebe755e	-0.3719892
15	0x3ce4488a	0.02786662
16	0x3c4fb0ac	0.012676399
17	0xbcf03455	-0.029321829
18	0x3a47e29c	0.0007625015
19	0xbeb4fd03	-0.35349283
20	0x3e882dcd	0.26597443
21	0xbdf62c5e	-0.12020181
22	0xbedaf230	-0.427629
23	0xbcea612e	-0.028610792
24	0xbdabb0e2	-0.08383347
25	0xbdde74e5	-0.108621396
26	0xbe9ebb49	-0.31002262
27	0xbe6acf9d	-0.2293076
28	0x3e34e0e3	0.17663912
29	0xbdb68971	-0.089129336
30	0x3f2843eb	0.65728635
31	0xbe210079	-0.15722837
32	0xbc851c80	-0.016248941
33	0x3efc634f	0.49294516
34	0xbe18885a	-0.14895764
35	0xbdc48cb8	-0.095971525
36	0x3d72af99	0.059249494
37	0xbc6e835f	-0.0145576885
38	0xbe18bae3	-0.14915042
39	0x3df22c07	0.11824804
40	0xbe74bfdb	-0.23901312
41	0xbf09f620	-0.5389118
42	0x3d0b0dc8	0.03394869
43	0xbe8e85ed	-0.27836552
44	0x3c9df157	0.019280119
45	0xbd14007d	-0.03613328
46	0xbea57fe1	-0.32324126
47	0xbed864aa	-0.422643
48	0x3bcfda18	0.0063431375
49	0xbe712a03	-0.23551182
50	0x3e427074	0.1898821
51	0xbea95873	-0.33075294
52	0xbdfe851c	-0.12427732
53	0x3e39b198	0.18134153
54	0xbe849b0f	-0.2589955
55	0xbed0fe99	-0.40819243
56	0xbdf0477e	-0.11732386
57	0xbe15b1eb	-0.14618652
58	0x3ea11a58	0.3146541
59	0x3d4ebb49	0.050471578
60	0xbe1681d4	-0.14697963
61	0xbec59a83	-0.38594446
62	0x3f02a251	0.51028925
63	0xbdaf97f6	-0.08573906
64	0xbf48242d	-0.781802
65	0x3e85fb18	0.26168132
66	0xbd96c7e0	-0.07362342
67	0xbc8ed52b	-0.01743563
68	0x3ddf721d	0.10910437
69	0xbf02917e	-0.51003253
70	0x3ef3f217	0.47645637
71	0x3e432d46	0.19060239
72	0xbee8ac34	-0.4544388
73	0xbe503d40	-0.20335865
74	0xbd16f3b1	-0.036853496
75	0x3e33836c	0.17530602
76	0x3df1d3dc	0.11807987
77	0x3f78b3c3	0.97149295
78	0xbe17eef0	-0.14837241
79	0x3cadce31	0.021216484
80	0x3e3ae00a	0.18249527
81	0x3db73388	0.08945376
82	0xbf77058b	-0.9649283
83	0xbf40c527	-0.7530083
84	0xbe423593	-0.1896575
85	0xbf334335	-0.70024425
86	0xbe39c838	-0.18142784
87	0x3ec88fb4	0.39172137
88	0x3e3f5edc	0.1868853
89	0x3e481adc	0.19541496
90	0x3e3704e4	0.1787296
91	0x3e084171	0.13306214
92	0xbf0ebf24	-0.5576041
93	0xbda187f5	-0.0788726
94	0x3da01718	0.07816905
95	0x3dbff357	0.09372585
96	0xbe3c1096	-0.18365702
97	0xbf168b08	-0.58805895
98	0xbecbac1f	-0.39779755
99	0x3e6b0b6d	0.22953577
100	0xbd466e18	-0.048444837
101	0xbd6201ac	-0.055177376
102	0xbf16beeb	-0.5888507
103	0xbee5acfb	-0.44858536
104	0xbea19341	-0.31557658
105	0x3dad8889	0.08473308
106	0xbed827a1	-0.42217734
107	0xbf091016	-0.5354017
108	0xbda728f5	-0.08162109
109	0x3e863829	0.26214722
110	0xbf11a05a	-0.568853
111	0xbddc04f2	-0.10743131
112	0xbf03c3f8	-0.514709
113	0xbe8d03bf	-0.2754192
114	0xbe081f9e	-0.13293311
115	0x3e937fd3	0.2880846
116	0x3e924909	0.28571346
117	0xbe7f0280	-0.24903297
118	0x3f8e5a1f	1.1121253
119	0x3f13aa26	0.576815
120	0xbc0709ea	-0.00824211
121	0xbdf73d5c	-0.1207225
122	0x3e59d63e	0.21273133
123	0x3ec7022e	0.3886885
124	0xbd5f2448	-0.05447796
125	0xbda92fb9	-0.082610555
126	0xbea85cf9	-0.32883433
127	0x3dbf0737	0.09327548
128	0x3ec4da52	0.38447815
129	0x3d83fc1e	0.06444572
130	0x3b8fca36	0.004388119
131	0xbd95fe69	-0.073239155
132	0x3e4e5475	0.20149405
133	0xbe963a7f	-0.29341504
134	0x3e81e2d5	0.25368372
135	0xbe8e622c	-0.27809274
136	0xbda53a91	-0.08067811
137	0xbeef65d3	-0.46757373
138	0x3e88df6d	0.2673296
139	0x3ba4f641	0.0050342386
140	0x3d00bc15	0.03142937
141	0xbd8c9e48	-0.06866127
142	0xbe1561fa	-0.14588156
143	0xbe86a375	-0.26296583
144	0xbd38d84e	-0.04512816
145	0xbd919fdb	-0.07110568
146	0xbde25ab7	-0.11052459
147	0xbe8b86f5	-0.27251402
148	0xbe62bcfa	-0.22142401
149	0xbd4778e2	-0.048699267

4.bias f4 [5]
0	0x3e6100df	0.21972989
1	0xbf059bf8	-0.52191114
2	0x3e2bde91	0.16784121
3	0xbdad1474	-0.08451167
4	0x3d0dd7a8	0.034629494

0.weight f4 [30, 2]
0	0xbec4fb0b	-0.3847278
1	0x3e726b56	0.23673758
2	0x3e0b1c85	0.13585098
3	0x3f95883a	1.1682198
4	0xbe62b702	-0.22140124
5	0x3d62d410	0.05537802
6	0x3f510be8	0.8165879
7	0x3fd13fd4	1.6347604
8	0xbe2717b2	-0.16317633
9	0x3f3b9fbd	0.73290616
10	0x3f0d282a	0.5513941
11	0xbfc408ff	-1.5315245
12	0x3d5b75b3	0.053579044
13	0xbeff0ea5	-0.4981586
14	0x3ee82756	0.4534251
15	0x3fcac795	1.5842158
16	0xbd929556	-0.0715739
17	0x3fd627d1	1.6730901
18	0xbf8c4662	-1.0958979
19	0x3ff42a86	1.9075477
20	0x3f790efa	0.9728848
21	0xbed35721	-0.41277412
22	0xbf70f147	-0.9411816
23	0x3d2481ed	0.04016297
24	0xbf17d9d3	-0.5931675
25	0xbe72daa8	-0.23716223
26	0xc00e33a5	-2.2219021
27	0xbeba9b50	-0.3644662
28	0xbef255e9	-0.4733117
29	0xbe4f8a5d	-0.20267625
30	0xbfc7100a	-1.555177
31	0xbf9ac129	-1.2090198
32	0xbf927cbe	-1.1444318
33	0xbf31e11f	-0.6948413
34	0x3e6714b2	0.22566488
35	0x3fb2cf20	1.396946
36	0x3fec6c98	1.847064
37	0xbfd38025	-1.6523482
38	0x3f253c6e	0.64545333
39	0xbf63c0ba	-0.8896595
40	0xbf8ef0b8	-1.1167212
41	0xbf22b3b8	-0.6355548
42	0xbe40674a	-0.18789402
43	0xbfc0c0c2	-1.5058825
44	0xbff20424	-1.8907514
45	0xbf6f4e52	-0.9347888
46	0x3f4fcf9e	0.81176174
47	0x3e331a85	0.17490585
48	0xbe74092a	-0.23831621
49	0xbef8f785	-0.48626342
50	0xbf54b9e4	-0.83096147
51	0xbef69f6d	-0.48168507
52	0xbe58e846	-0.21182355
53	0x3f19fb42	0.60149014
54	0x3de33e57	0.11095875
55	0xbede2bd5	-0.43392816
56	0xbe7f7c69	-0.24949802
57	0xbfb593e3	-1.4185756
58	0xbfbc1a74	-1.4695573
59	0x3ed98ef7	0.42491886

0.bias f4 [30]
0	0xbf986510	-1.1905842
1	0x3f393e9a	0.7236115
2	0x3fb5a66a	1.419141
3	0xbe9f9e6a	-0.31175548
4	0xbfaa0a62	-1.3284419
5	0x3f0e1d9a	0.5551392
6	0xbf5f2768	-0.87169504
7	0x3fa028e4	1.2512479
8	0xbf4a3391	-0.78984934
9	0x3f4f3596	0.8094114
10	0xbf9035b0	-1.1266384
11	0xbf813836	-1.0095279
12	0x3e55d604	0.20882422
13	0x3f0e3ea6	0.55564344
14	0x3f67e6ff	0.9058685
15	0x3ec62846	0.387026
16	0x3eab6854	0.33478034
17	0xbf979a95	-1.184405
18	0x3e8f24a7	0.2795765
19	0xbf7388a9	-0.951304
20	0x3ec94cd0	0.39316416
21	0xbf9a64dd	-1.2062031
22	0xbf129c52	-0.57269776
23	0x3fa3ca6f	1.2796153
24	0xbf1d0c35	-0.6134675
25	0x3f8058fc	1.0027156
26	0x3ede4152	0.4340921
27	0x3f1f3c67	0.6220154
28	0x3f9b5bcb	1.2137388
29	0xbf57dd13	-0.8432171

2.weight f4 [30, 30]
0	0x3efae4a2	0.49002558
1	0xbe7bf52d	-0.24605246
2	0x3f127116	0.57203805
3	0xbf7ab446	-0.97931325
4	0x3d8babec	0.06819901
5	0x3eb109a8	0.3457768
6	0xbe1e7bee	-0.15476963
7	0x3e629c2c	0.22129887
8	0xbef3572f	-0.47527453
9	0xbef6cd0e	-0.4820332
10	0xbc986438	-0.018602476
11	0x3f435a82	0.7630998
12	0x3f58173e	0.84410465
13	0xbe478a41	-0.19486333
14	0x3f65ed85	0.8981555
15	0x3f7cddde	0.9877604
16	0x3f64262e	0.8912076
17	0xbe427ea2	-0.18993619
18	0x3f352e36	0.7077364
19	0x3e447930	0.19186854
20	0x3f74a8a5	0.9556983
21	0x3dee6444	0.11640218
22	0x3f81b29a	1.013263
23	0xbe93387d	-0.28754035
24	0xbb5e0202	-0.0033875708
25	0x3f57eed4	0.843488
26	0xbd7693d6	-0.06019958
27	0xbd95edb6	-0.073207304
28	0x3f0e5aa0	0.5560703
29	0xbdba62cf	-0.091008775
30	0x3f27b7e2	0.6551496
31	0xbf91dc19	-1.1395293
32	0xbf036bea	-0.5133654
33	0xbf40478a	-0.7510916
34	0xbd0c8444	-0.034305826
35	0x3c6f431f	0.014603405
36	0x3f108b5d	0.5646265
37	0xbefe3563	-0.49650106
38	0xbe85ac4a	-0.2610801
39	0xbf865458	-1.049449
40	0x3e3b2b0a	0.18278137
41	0x3da3e001	0.0800171
42	0x3e481453	0.19539003
43	0xbf3dea62	-0.74185765
44	0x3ddd68e2	0.108110204
45	0x3ee61fc4	0.4494611
46	0x3d6ce26e	0.057833128
47	0xbdd11010	-0.10208142
48	0x3f7e6308	0.9936986
49	0x3f5c9618	0.86166525
50	0xbdca7f31	-0.09887541
51	0x3fa1ecb1	1.2650357
52	0xbeeb518a	-0.45960647
53	0xbeedfab6	-0.4648034
54	0x3f2a2219	0.6645828
55	0x3ef6d23d	0.48207274
56	0xbef2994d	-0.47382584
57	0x3dfe37ca	0.12412985
58	0x3e2697e5	0.1626888
59	0xbefb1607	-0.49040243
60	0x3e9219e0	0.28535366
61	0xbea677e6	-0.3251335
62	0xbf4da35f	-0.8032741
63	0xbe0988bf	-0.1343107
64	0xbeb283cd	-0.3486618
65	0xbe259765	-0.16171034
66	0x3ef1895e	0.47175115
67	0xbefb134a	-0.49038154
68	0x3e1e782a	0.15475526
69	0xbe1ca93b	-0.15298931
70	0xbbf5a375	-0.0074962922
71	0x3f15afd0	0.58471394
72	0xbe1b2fe8	-0.15154994
73	0x3e9a2142	0.301035
74	0xbee1fa3d	-0.4413623
75	0xbe35a900	-0.1774025
76	0xbc77d25d	-0.015125838
77	0x3e458bfd	0.19291683
78	0x3a2ef71b	0.0006674395
79	0x3e893ce9	0.26804283
80	0x3d176a6a	0.03696672
81	0x3e6b1ce3	0.22960238
82	0xbe642bfa	-0.222824
83	0xbe9dbade	-0.3080663
84	0x3efce3a4	0.49392426
85	0xbea8b4bf	-0.32950398
86	0xbe713afc	-0.23557657
87	0x3e43ddb6	0.19127545
88	0x3d4c6d2f	0.049908813
89	0x3f47f3ce	0.7810639
90	0x3f812919	1.0090667
91	0xbd6eb3ec	-0.058277056
92	0xbd05d759	-0.032676075
93	0x3e0b3681	0.1359501
94	0x3f97fc92	1.1873953
95	0xbce99948	-0.028515473
96	0xbdb781ad	-0.089602806
97	0x3e58c0eb	0.21167342
98	0x3de45bac	0.111502975
99	0xbe386658	-0.18007791
100	0x3f2614bf	0.64875406
101	0x3efc9705	0.4933397
102	0x3dacc59f	0.08436131
103	0xbe8b619a	-0.27222902
104	0xbec056b1	-0.3756614
105	0xbefb54a0	-0.49088
106	0xbe61a4a8	-0.22035468
107	0x3ec607ac	0.38677728
108	0xbe25a713	-0.16177015
109	0x3d17308c	0.036911532
110	0x3e06ee5b	0.13176863
111	0xbdb4213b	-0.08795401
112	0x3f04d6e3	0.5189039
113	0xbf69e72a	-0.91368353
114	0xbd728760	-0.059211135
115	0xbef4b70b	-0.477959
116	0x3e2a8564	0.16652447
117	0xbf6d57ea	-0.9271227
118	0xbf2ddf42	-0.6791879
119	0xbe83690b	-0.2566608
120	0xbec371f9	-0.38172892
121	0x3f85f621	1.0465738
122	0x3f08dfc6	0.5346645
123	0x3efeab39	0.49740008
124	0xbdd058e3	-0.10173204
125	0x3e521cba	0.20518771
126	0xbf20a0be	-0.62745273
127	0x3f9d69e3	1.2297939
128	0x3d921884	0.07133582
129	0x3e7f2dda	0.24919835
130	0xbf70af4c	-0.9401748
131	0xbd0748cc	-0.03302841
132	0x3ee0f34f	0.4393563
133	0x3ed5b8be	0.4174251
134	0x3ef22d71	0.47300294
135	0x3daf566b	0.08561405
136	0xbeb72a5c	-0.35774505
137	0x3dac99aa	0.084277466
138	0xbe900f00	-0.28136444
139	0xbf2fb3ab	-0.68633527
140	0x3e9d4536	0.30716866
141	0xbf95f1b2	-1.1714385
142	0xbe388ec4	-0.18023211
143	0x3e85b822	0.26117045
144	0xbf580c7f	-0.8439407
145	0x3df911c8	0.12161595
146	0x3ed871a1	0.42274192
147	0xbe949903	-0.2902299
148	0x3e3900c5	0.180667
149	0x3ea2afef	0.31774852
150	0x3efa5f6e	0.48900932
151	0xbe5c4792	-0.21511677
152	0x3e0a034a	0.13477817
153	0xbed22ef2	-0.4105144
154	0x3e9c1796	0.30486745
155	0x3e737f7c	0.237791
156	0x3e4040f2	0.18774775
157	0xbdc08694	-0.09400669
158	0xbe03285f	-0.12808369
159	0xbe241827	-0.16024838
160	0xbd08e2af	-0.033419307
161	0x3efaeeda	0.49010354
162	0x3f1ecf83	0.6203539
163	0x3e6c3790	0.2306807
164	0x3e3dee2e	0.1854789
165	0x3f5d6c69	0.86493546
166	0x3f36284d	0.71155244
167	0xbdeaafbe	-0.114593014
168	0x3d8f40ef	0.06994807
169	0x3e2b8639	0.1675042
170	0x3f5112b8	0.8166919
171	0x3e5602bb	0.20899479
172	0x3f7ab01a	0.9792496
173	0xbf1ab2ee	-0.60429275
174	0x3d054824	0.0325395
175	0x3ef9ce0e	0.4879002
176	0x3c893d35	0.016752819
177	0xbccfc3f1	-0.025361987
178	0x3e67ec89	0.22648825
179	0x3db5216d	0.08844266
180	0x3e5946d3	0.21218424
181	0xbe98c6ca	-0.29839164
182	0x3e912ccf	0.283545
183	0xbe84f1bb	-0.25965676
184	0xbf0daa63	-0.55338115
185	0xbe84c9a7	-0.259351
186	0xbe80e1b7	-0.25172207
187	0xbf22aca6	-0.6354469
188	0x3ef827b5	0.48467794
189	0x3e15a57f	0.14613913
190	0xbcd2d244	-0.025735028
191	0x3ed370be	0.41296953
192	0x3f70ea45	0.94107467
193	0x3fae1344	1.3599629
194	0x3f39ed62	0.7262784
195	0x3f92e126	1.147496
196	0x3fa8ea2b	1.3196462
197	0xbd41e7b5	-0.047340114
198	0xbf18b0e4	-0.59644914
199	0x3e1c36d1	0.15255286
200	0x3f9970dd	1.1987568
201	0x3ee6d219	0.45082167
202	0x3f3d5f19	0.7397323
203	0xbda6735f	-0.08127474
204	0x3e56065b	0.20900862
205	0x3f55acc9	0.83466774
206	0xbe021884	-0.12704664
207	0x3c5c2d89	0.013438591
208	0x3e4d0d72	0.2002466
209	0x3f36ba84	0.7137835
210	0xbf39d9e9	-0.7259813
211	0xbd3fadcb	-0.0467966
212	0x3c8f2fce	0.01747885
213	0x3e93d691	0.2887464
214	0xbec1d34a	-0.37856513
215	0xbe439b43	-0.19102196
216	0x3da5840d	0.08081827
217	0xbdbd1e40	-0.09234285
218	0x3d16b136	0.036790095
219	0xbe03c0cc	-0.12866515
220	0x3e3b067a	0.1826419
221	0xbf1a7639	-0.60336643
222	0xbf90d872	-1.1316054
223	0xbf9d92e0	-1.2310448
224	0xbe86caab	-0.26326498
225	0xbf597308	-0.8494115
226	0xbf715951	-0.9427691
227	0x3dd6d66d	0.10490117
228	0xbd132e9d	-0.035933126
229	0x3dd43e87	0.10363489
230	0xbf8ef467	-1.1168336
231	0x3e36d523	0.17854743
232	0xbf47bd62	-0.7802335
233	0x3e1368d4	0.14395458
234	0xbe72cf30	-0.23711848
235	0xbeba77c6	-0.36419505
236	0xbe4c485d	-0.1994948
237	0x3e02c170	0.12769103
238	0x3e7eadce	0.24870989
239	0xbf754781	-0.9581223
240	0xbdd60fed	-0.10452256
241	0xbecab0af	-0.39587924
242	0x3ce07f1f	0.027404366
243	0xbf276a41	-0.65396506
244	0xbf46aafd	-0.7760466
245	0x3f645e37	0.8920626
246	0xbdac1209	-0.084018774
247	0xbe42c0e1	-0.1901889
248	0xbf3de733	-0.74180907
249	0xbe2cc73c	-0.16872877
250	0x3ec0e700	0.3767624
251	0xbc21fddd	-0.009887186
252	0xbe98e243	-0.29860124
253	0xbdd465a2	-0.103709474
254	0x3e1349bf	0.143836
255	0x3e0b2222	0.1358724

2.bias f4 [30]
0	0x3eeb73e4	0.45986855
1	0xbe5189c6	-0.20462713
2	0xbea3b5aa	-0.31974536
3	0xbf5692b3	-0.83817595
4	0x3e8618b9	0.26190737
5	0x3d643412	0.05571372
6	0x3ed9cfd7	0.42541382
7	0xbd849921	-0.064745195
8	0xbb950d49	-0.004548703
9	0x3e893afb	0.2680281
10	0xbe7bc47e	-0.24586675
11	0xbf085ab8	-0.53263426
12	0x3d035461	0.032062892
13	0x3d697143	0.05699278
14	0xbedf5cb3	-0.4362541
15	0x3e50c878	0.20388973
16	0xbe9f78f8	-0.3114698
17	0x3ea3b921	0.3197718
18	0x3e62b212	0.22138241
19	0xbeedc30f	-0.4643788
20	0x3ec8cf73	0.3922077
21	0xbf417ec4	-0.75584054
22	0x3ec7b2bb	0.39003548
23	0x3ebdee2e	0.3709578
24	0xbe2d67d9	-0.16934146
25	0x3f1ee6d2	0.62070954
26	0xbe2ed2da	-0.17072621
27	0xbeeeb696	-0.46623677
28	0x3e207c47	0.15672408
29	0xbebc5c22	-0.36789042

4.weight f4 [5, 30]
0	0x3e93cd4c	0.28867567
1	0xbbfa699a	-0.007641983
2	0x3dbfcb6a	0.0936497
3	0x3edb55a3	0.42838773
4	0x3d69fe36	0.0571272
5	0x3e2de677	0.16982447
6	0xbe5863ed	-0.21131869
7	0xbbfaaec4	-0.007650228
8	0x3e324243	0.1740809
9	0x3db9a1dd	0.09064076
10	0x3c165171	0.009174691
11	0xbdb067f7	-0.0861358
12	0xbc72bdd7	-0.014815769
13	0x39d9b4fd	0.00041524312
14	0xbc6959d5	-0.014242609
15	0xbe2fd474	-0.17170888
16	0xbe411062	-0.18853906
17	0x3d60eec5	0.05491521
18	0xb9692809	-0.00022235526
19	0xbf4550c1	-0.77076346
20	0xbc201f9f	-0.009773164
21	0x3e16f436	0.14741597
22	0x3de415eb	0.11136993
23	0xbef64db5	-0.4810616
24	0x3eaf1bb2	0.34200817
25	0x3ea62033	0.3244644
26	0x3d3c7e04	0.046018615
27	0x3c05a02e	0.008155866
28	0x3e3d6b36	0.18497929
29	0x3c41a296	0.011818549
30	0xbd53f761	-0.05174959
31	0xbf043e3a	-0.5165745
32	0x3e3424b8	0.17592132
33	0xbe680fc5	-0.22662266
34	0x3eaf6d9a	0.34263307
35	0xbd532d07	-0.051556613
36	0x3bc9a8dc	0.006154163
37	0xbd1786b6	-0.036993705
38	0x3e9565c3	0.291792
39	0xbe7b1879	-0.24521054
40	0x3b3f8a13	0.0029226586
41	0x3e948df5	0.29014555
42	0x3b8442b7	0.0040362733
43	0xbb10f2f2	-0.0022117463
44	0xbdbfd503	-0.09366801
45	0xbe8b7440	-0.2723713
46	0xbe062e28	-0.13103545
47	0xbcc1186a	-0.023571212
48	0xb9312bc1	-0.00016896335
49	0xbe99b6ca	-0.3002227
50	0x3c243b10	0.010023847
51	0x3e97afb9	0.29626253
52	0x3e2d079d	0.16897435
53	0xbe821bd4	-0.25411856
54	0x3e761438	0.2403115
55	0xbded6f92	-0.11593546
56	0xbda3e4b3	-0.08002605
57	0xbea8663e	-0.32890505
58	0x3e525d20	0.20543337
59	0x3d197da6	0.037473343
60	0xbf36101a	-0.7111832
61	0xbdbf7225	-0.09347943
62	0x3ea6d8cf	0.32587287
63	0x3e348135	0.17627414
64	0x3e6c7658	0.2309202
65	0xbee48473	-0.446323
66	0x3f5a2961	0.8521939
67	0xbf4d6738	-0.80235624
68	0xbeca50f4	-0.39514887
69	0xbe3b2922	-0.1827741
70	0x3b5f0de2	0.0034035374
71	0xbe39b808	-0.18136609
72	0xbb86f058	-0.0041180067
73	0x3bbbd812	0.0057325447
74	0x3e571353	0.21003465
75	0x3f1c13af	0.60967535
76	0x3d9799ba	0.07402368
77	0x3e1eb732	0.15499571
78	0x3d3a6269	0.045504007
79	0xbedda7c3	-0.43292055
80	0x3db4d68c	0.08829984
81	0xbf28fd48	-0.66011477
82	0xbe7d55cc	-0.2473976
83	0x3e965b48	0.29366517
84	0xbf053a41	-0.52042013
85	0x3e645e93	0.22301702
86	0xbcce6286	-0.025193464
87	0x3d9eab7f	0.07747554
88	0xbd71ecc0	-0.059063673
89	0x3f5dcd1c	0.866411
90	0x3ee04d07	0.43808767
91	0x3e787d46	0.24266538
92	0x3e8bbcfe	0.27292627
93	0xbf1c9340	-0.61162186
94	0x3f8c48c9	1.0959712
95	0xbd62d041	-0.055374388
96	0xbef2e19b	-0.47437748
97	0xbe6059cd	-0.21909256
98	0xbd8048f0	-0.06263912
99	0x3f022012	0.50830185
100	0xbba32b16	-0.0049795015
101	0x3f2eac17	0.6823134
102	0x3d108120	0.035279393
103	0xb83ada7c	-4.4549335e-05
104	0x3ec940d5	0.39307275
105	0x3e96c156	0.2944438
106	0xbdcc90b7	-0.0998854
107	0xbe96957e	-0.29410928
108	0xbd87daf0	-0.06633556
109	0xbe3f3ec4	-0.18676287
110	0xbcc737b7	-0.02431856
111	0xbe9c9a1c	-0.30586326
112	0x3e39db91	0.18150164
113	0xbd515960	-0.051110625
114	0xbe12cdc5	-0.14336307
115	0x3da3673d	0.079786755
116	0x3eaf66b4	0.34258044
117	0x3ec1e68d	0.3787121
118	0x3c8ffe4c	0.017577313
119	0x3e31c5ac	0.17360562
120	0xbf13ef9e	-0.577875
121	0xbdb9e91b	-0.090776645
122	0x3db6f279	0.08932967
123	0xbeb02a47	-0.34407255
124	0xbf186718	-0.5953231
125	0xbe3db22f	-0.18525003
126	0x3f019c1e	0.5062884
127	0xbdc69eef	-0.09698283
128	0xbe47434f	-0.1945927
129	0xbe58730b	-0.21137635
130	0xbe1740fc	-0.14770883
131	0x3d8ab9c6	0.06773715
132	0x3d88327f	0.06650256
133	0xbd09dcf2	-0.033657975
134	0xbf07753a	-0.5291325
135	0x3cc1650f	0.023607759
136	0x3e70af73	0.23504429
137	0xbe5c063b	-0.21486752
138	0xbdc9ada2	-0.09847571
139	0x3ea9c3f5	0.33157316
140	0xbe9a3aa8	-0.30122876
141	0xbecd3956	-0.40082806
142	0xbe5e0438	-0.21681297
143	0x3eed8295	0.4638869
144	0xbdb2321c	-0.08700964
145	0xbe4abdca	-0.19798961
146	0xbdc671b2	-0.096896544
147	0xbed0ae75	-0.407581
148	0xbe9fcbdb	-0.31210217
149	0x3d071d1e	0.032986753

4.bias f4 [5]
0	0x3d483940	0.048882723
1	0x3d402e5e	0.04691922
2	0x3da57418	0.08078784
3	0xbf1327fd	-0.5748289
4	0xbd133794	-0.035941675

0.weight f4 [30, 2]
0	0xbf105f8e	-0.56395805
1	0x400ae121	2.1699908
2	0x3eaed083	0.34143457
3	0x3e0ee214	0.1395343
4	0xbdcb1f2b	-0.09918054
5	0xbef74a2f	-0.48298785
6	0x3d554151	0.052064244
7	0x3f96e6d1	1.178919
8	0x3f0c0f15	0.54710513
9	0x3f3d82fd	0.74028
10	0x3ea81644	0.32829487
11	0xbef104e5	-0.47074047
12	0x3efe4af5	0.49666563
13	0x402f963b	2.7435443
14	0xbfc3f9ff	-1.5310668
15	0x3f0859b4	0.53261876
16	0x3de2a58a	0.1106673
17	0x3fd8c555	1.6935221
18	0x3f06d1d3	0.52663916
19	0x3e664f2c	0.22491139
20	0xc026e7b6	-2.6078925
21	0xbf0ba136	-0.54542863
22	0xbff032a3	-1.8765453
23	0xbea41d08	-0.320534
24	0x3e0efa9a	0.13962784
25	0x3f5c1050	0.8596239
26	0xbd7981aa	-0.060914673
27	0xbfd9b432	-1.7008116
28	0xbf6748bc	-0.9034536
29	0xbf17ed06	-0.59346044
30	0x3de0343b	0.10947462
31	0xbed13173	-0.4085804
32	0xbe343d09	-0.17601408
33	0xbf0cdce5	-0.5502456
34	0xc02fe966	-2.7486205
35	0x3f5c21f0	0.85989285
36	0x3f21d26c	0.63211703
37	0x3f3535c7	0.7078518
38	0x3ff98ff7	1.949706
39	0xbed4ce51	-0.41563657
40	0xbf272927	-0.6529717
41	0xbe8f4496	-0.27982014
42	0x3f22eae8	0.6363969
43	0x3ecaedd3	0.3963457
44	0x3f388e60	0.72092247
45	0xbff78633	-1.9337829
46	0xbf8a60aa	-1.081075
47	0x3fbd473c	1.4787364
48	0xbf28840a	-0.65826476
49	0xbf5a128a	-0.8518454
50	0xbdc5615f	-0.09637713
51	0xc004dd7b	-2.076018
52	0x3dd7e7f0	0.105422854
53	0x3ec8817a	0.39161283
54	0x3f4809cc	0.7813995
55	0x3cd56afb	0.026051989
56	0xbf8dcb87	-1.1077737
57	0x3fcb0c73	1.5863174
58	0x3f9abc45	1.2088705
59	0xc0137341	-2.3039095

0.bias f4 [30]
0	0xbfb16778	-1.3859701
1	0xbfae59d5	-1.3621165
2	0xbf12a1e6	-0.5727829
3	0x3f7d9c00	0.9906616
4	0xbeefe801	-0.46856692
5	0x3ff2424b	1.8926481
6	0xc006402b	-2.0976665
7	0xbf4d5ade	-0.8021678
8	0x3f8bd8b6	1.092551
9	0xbf201b7b	-0.6254193
10	0xbfdd7261	-1.7300531
11	0xbfc23655	-1.5172831
12	0x3fa092e1	1.2544824
13	0xbfc27a93	-1.5193657
14	0xbfce6d6f	-1.6127146
15	0x3fc6ecb0	1.5540981
16	0xbf96aa1c	-1.1770663
17	0x3f5ed0b8	0.8703723
18	0xbf348672	-0.7051765
19	0xbfe06b65	-1.7532774
20	0x3f1744d1	0.5908938
21	0x3fb04732	1.3771727
22	0x3fdcfb4b	1.7264189
23	0x3f3e73b8	0.7439532
24	0x3f7cb365	0.98711234
25	0xbfbcf2cf	-1.4761599
26	0xbf5a8ab9	-0.85367924
27	0x3fea61b8	1.8311071
28	0x3cefa6bb	0.029254308
29	0x3fb39347	1.402932

2.weight f4 [30, 30]
0	0xbf083ebc	-0.53220725
1	0xbd4e200d	-0.050323535
2	0x3ee26b5f	0.44222543
3	0xbf12dd46	-0.57368886
4	0xbe339d16	-0.17540392
5	0x3e9368e1	0.28790954
6	0xbf220e94	-0.63303494
7	0xbd057530	-0.03258246
8	0xbede3367	-0.43398592
9	0x3ea4fac6	0.32222575
10	0x3ea711fa	0.32630903
11	0x3e167a12	0.14695004
12	0xbef16eef	-0.47154948
13	0x3e867e34	0.2626816
14	0x3f571a50	0.84024525
15	0x3f391d13	0.7230999
16	0xbdc2708f	-0.09494125
17	0xbf2fdd7d	-0.6869734
18	0xbe21a728	-0.15786421
19	0x3f40c5a6	0.7530159
20	0x3e859397	0.26089165
21	0xbec48e9c	-0.38390052
22	0x3ed73541	0.42032817
23	0xbec95640	-0.39323616
24	0x3e986de9	0.29771355
25	0x3f05ef94	0.5231869
26	0xbf0d6b0f	-0.55241483
27	0xbea23bd5	-0.31686273
28	0xbf426579	-0.75936085
29	0x3e7f7d76	0.24950203
30	0x3e811979	0.25214747
31	0xbea09c5c	-0.31369293
32	0xbe6e8935	-0.23294528
33	0x3edf136d	0.43569508
34	0x3ed1097c	0.40827549
35	0xbdf386b3	-0.11890926
36	0x3c81caf1	0.01584384
37	0x3e5e69ae	0.21720001
38	0x3e98fc00	0.2987976
39	0xbd59cccc	-0.053173825
40	0x3d246b84	0.040141597
41	0x3d933bd7	0.07189148
42	0x3e371525	0.1787916
43	0xbe73d49a	-0.2381157
44	0xbec13af1	-0.3774028
45	0xbd92cc8d	-0.07167921
46	0xbf0b74b3	-0.54474944
47	0x3c371427	0.011174238
48	0x3e27c338	0.16383064
49	0xbefbff9d	-0.49218455
50	0x3e267793	0.16256551
51	0x3e883ece	0.26610416
52	0xbe4f81f5	-0.20264418
53	0x3ed80624	0.42192185
54	0xbe84c09f	-0.25928208
55	0xbf0cce9f	-0.5500278
56	0x3dae6556	0.08515422
57	0x3dd8a3c8	0.10578114
58	0x3e53c479	0.20680417
59	0xbd507684	-0.050894275
60	0xba8d259f	-0.0010768658
61	0xbe901a9e	-0.28145307
62	0xbda3f63f	-0.08005952
63	0xbc27ecf2	-0.010249363
64	0xbde8569d	-0.11344645
65	0x3d1e6922	0.03867448
66	0xbd374c77	-0.044750657
67	0x3f0371fe	0.51345813
68	0x3e31e2b8	0.17371643
69	0xbe861d06	-0.26194018
70	0x3ee01691	0.43767217
71	0x3ed933bc	0.42422283
72	0x3dff5ba3	0.1246865
73	0xbdd91bcd	-0.10601006
74	0xbd32012d	-0.043458153
75	0x3e323993	0.17404775
76	0x3cc215e9	0.023692088
77	0x3ea25c52	0.3171106
78	0xbe4819b5	-0.19541056
79	0xbe50405a	-0.20337048
80	0x3ee268e7	0.4422066
81	0xbeb0e153	-0.3454691
82	0xbe6c9b5c	-0.2310614
83	0x3b60369f	0.0034212244
84	0x3e212b25	0.15739115
85	0xbe1c1a0b	-0.1524431
86	0xbd4c61e5	-0.049898047
87	0xbce2690c	-0.02763798
88	0xbc9c7cfa	-0.019102562
89	0xbdf96890	-0.12178147
90	0xbe5a708f	-0.21332
91	0x3efffa64	0.4999572
92	0x3f14dc19	0.5814834
93	0xbf981aa2	-1.1883128
94	0xbee634b3	-0.4496208
95	0x3c64250b	0.013924847
96	0x3ea9c21e	0.33155912
97	0xbd31105c	-0.043228492
98	0xbf994741	-1.197487
99	0x3ee7eec9	0.45299366
100	0x3e93431e	0.28762144
101	0x3d9eab53	0.07747521
102	0xbf7ca63d	-0.9869116
103	0x3fde10ed	1.7348915
104	0x3ef4860f	0.4775853
105	0x3d7136a9	0.05889002
106	0x3ee0c5ed	0.43901005
107	0xbe2da9cd	-0.16959305
108	0xbc5b1617	-0.013371966
109	0x3f266711	0.65001017
110	0x3ee32794	0.44366133
111	0xbea458b8	-0.32098937
112	0xbe4314b3	-0.19050865
113	0xbf447dbf	-0.76754373
114	0x3eba5897	0.36395714
115	0x3fb6b9d5	1.4275461
116	0xbe45c545	-0.19313534
117	0xbe212842	-0.15738013
118	0xbecc4747	-0.3989813
119	0xbd1bd119	-0.038041208
120	0xbf5a14b4	-0.8518784
121	0xbce2b6ac	-0.027674995
122	0x3f262216	0.6489576
123	0xbf1cbd0d	-0.6122597
124	0xbedb51e2	-0.4283591
125	0x3f160139	0.58595616
126	0xbf78e287	-0.97220653
127	0xbb30fb80	-0.0027005374
128	0xbf817bd5	-1.0115916
129	0x3e0d8143	0.1381884
130	0x3eeaa44f	0.45828483
131	0x3e2ee7c9	0.17080607
132	0xbf1e9883	-0.61951464
133	0x3f66ffc2	0.90234005
134	0x3f30277f	0.68810266
135	0x3f57b062	0.84253514
136	0xbe222246	-0.15833387
137	0xbf41b436	-0.75665605
138	0xbea7c939	-0.32770708
139	0x3eba03cd	0.36331025
140	0x3f222590	0.63338566
141	0xbf1b0c10	-0.6056528
142	0xbd2ffb8f	-0.042964514
143	0xbeb54674	-0.35405314
144	0x3ec73d55	0.3891398
145	0x3f2c8408	0.67388964
146	0xbf56f2d2	-0.83964264
147	0xbe5cd1cc	-0.21564406
148	0xbf063158	-0.5241904
149	0x3ef4a959	0.47785452
150	0x3e6cbfdf	0.23120068
151	0x3e68c330	0.22730708
152	0x3d7a5271	0.06111378
153	0xbb2ef346	-0.0026695295
154	0xbf32a01b	-0.6977555
155	0x3ecd835e	0.40139288
156	0x3ee87e8f	0.45409057
157	0xbd248c3b	-0.040172797
158	0xbd3e0fec	-0.046401903
159	0x3d87546d	0.066079
160	0x3eb7e8df	0.35919854
161	0x3eaf9561	0.34293655
162	0xbe4e2bb5	-0.2013386
163	0x3edb35df	0.42814538
164	0x3e4561da	0.19275609
165	0x3edf6f59	0.4363964
166	0x3e8baf4c	0.27282178
167	0x3ef85402	0.48501593
168	0xbf6ffa91	-0.9374171
169	0x3ea57655	0.32316843
170	0x3dc9fef7	0.09863084
171	0xbe56c426	-0.20973262
172	0xbe83281d	-0.25616542
173	0xbad0ee7a	-0.0015940212
174	0x3f4339b2	0.7625991
175	0x3e8ff068	0.28113103
176	0xbf0960a3	-0.5366308
177	0x3ecb9bc7	0.39767286
178	0x3e5d3143	0.21600823
179	0xbebcda67	-0.36885378
180	0x3e2c3931	0.16818692
181	0x3f66aee0	0.9011059
182	0xbe7ae988	-0.24503148
183	0x3ea9c0b7	0.33154842
184	0x3e5d2919	0.21597709
185	0x3f2e0eef	0.67991537
186	0xbe131149	-0.14362063
187	0xbea9eab7	-0.33186886
188	0x3f0fc6bd	0.56162626
189	0x3f2372de	0.6384715
190	0xbf34564c	-0.7044418
191	0xbf52cea3	-0.8234655
192	0xbd0bfaa2	-0.03417457
193	0xbf041040	-0.51587296
194	0xbd950c59	-0.07277746
195	0x3f0b1ef2	0.54344094
196	0x3e93269e	0.287404
197	0x3cd323e2	0.025773946
198	0xbd4cb224	-0.049974576
199	0xbeff15f6	-0.49821442
200	0xbe070c66	-0.13188323
201	0x3ef1979d	0.47185984
202	0xbe0f6a15	-0.14005311
203	0x3de70475	0.11280147
204	0xbd14134d	-0.03615122
205	0xbf5eb2cd	-0.8699158
206	0xbea342c9	-0.3188689
207	0x3f95448d	1.1661545
208	0x3e4e7d24	0.20164925
209	0xbec73ac7	-0.3891203
210	0x3efc430e	0.4926991
211	0x3e3b6224	0.18299156
212	0x3ced863e	0.028994676
213	0x3dd059c8	0.101733744
214	0x3f3e669f	0.7437534
215	0xbdceeda9	-0.10103924
216	0x3f3a6dce	0.728238
217	0x3e6cad19	0.23112907
218	0xbd58b896	-0.05291041
219	0x3e75f9d7	0.24021088
220	0xbf73b9a6	-0.9520515
221	0xbf52147c	-0.82062507
222	0xbd082514	-0.033238485
223	0x3e448382	0.19190791
224	0xbe788e3a	-0.24273005
225	0xbf35d184	-0.7102282
226	0x3e1dba34	0.15403062
227	0x3dee3993	0.11632075
228	0x3f8f3ec0	1.1191025
229	0xbe118108	-0.14209378
230	0xbe591229	-0.21198334
231	0x3dea2ac2	0.11433937
232	0xbeddaf97	-0.43298027
233	0x3d82a3fc	0.06378934
234	0xbf7a69ee	-0.97817886
235	0x3e43939a	0.19099274
236	0x3f78fb72	0.97258675
237	0x3e9ef775	0.3104817
238	0x3e8e57f8	0.2780149
239	0xbed1f049	-0.41003636
240	0x3e8d6346	0.27614802
241	0xbf085338	-0.5325198
242	0xbf1e812d	-0.61915857
243	0x3f656b87	0.896172
244	0x3ece8ca4	0.40341675
245	0xbd617681	-0.055044655
246	0xbd90d0b3	-0.07071056
247	0x3ee9d1bb	0.45667824
248	0x3faaaa26	1.3333175
249	0xbe9052f1	-0.2818828
250	0x3eb450aa	0.35217792
251	0x3ebb09f6	0.36531037
252	0x3f1b7e89	0.6073995
253	0xbfacdff6	-1.3505847
254	0xbcffd018	-0.031227157
255	0xbe1d75b1	-0.15376927
