model_summon/ReconstructORI/Checkpoint_SEED42_LR0.001_HD30_HL2_Epoch1000_WithPhysics0_WithBatch0.pth (torch, 101687 bytes, 80 tensors)

0.weight f4 [30, 2]
0.25746217 0.88428766 -0.22954452 1.0013775 -0.27575666 0.23495296 -0.21094987 0.722842
0.39214435 -0.65754986 1.1367152 0.31207177 1.0637918 -0.016604787 0.16385923 -0.5457599
1.3644454 0.32825932 -0.64884454 0.26210153 -0.040739976 -0.44390193 -0.32200193 0.6912397
-0.70117193 -0.7846236 -0.5940961 -0.7893265 0.1858973 -0.99034417 0.95650893 -0.83511144
0.2247836 0.576959 0.014383537 0.6104107 0.3103862 0.7128446 0.28907454 -0.47731125
0.07501419 -0.33567804 0.09687752 0.8191612 0.35180333 -0.5406027 0.5347802 0.4565101
0.3221311 -0.6696722 -1.0760216 -0.2956986 -0.85184187 0.82826674 0.030383136 0.70681626
0.2378511 -0.048978906 0.120722555 -0.84804004
00000000: 15d2 833e ad60 623f b80d 6bbe 232d 803f
00000010: fa2f 8dbe 8297 703e 3e03 58be 2c0c 393f
00000020: 25c7 c83e 3055 28bf e27f 913f dfc7 9f3e
00000030: 542a 883f c306 88bc b7ca 273e ecb6 0bbf
00000040: 26a6 ae3f 9b11 a83e ad1a 26bf 2c32 863e
00000050: f6de 26bd 1d47 e3be 70dd a4be 16f5 303f
00000060: 0180 33bf 18dd 48bf af16 18bf 4d11 4abf
00000070: dd5b 3e3e 3287 7dbf c5dd 743f ddc9 55bf
00000080: ac2d 663e 96b3 133f eda8 6b3c e043 1c3f
00000090: f1ea 9e3e fc7c 363f 9401 943e 2462 f4be
000000a0: 0aa1 993d fedd abbe b967 c63d 8cb4 513f
000000b0: 911f b43e f064 0abf 5be7 083f b1bb e93e
000000c0: 5eee a43e a36f 2bbf 13bb 89bf cf65 97be
000000d0: 4f12 5abf 4a09 543f 0ee6 f83c e9f1 343f
000000e0: 3d8f 733e 1b9e 48bd 633d f73d 2719 59bf

0.bias f4 [30]
-0.41321844 -0.7138305 0.02677643 -0.62490076 0.5359153 -0.5158978 1.008949 -0.71662176
-0.49187878 -0.848601 0.8656528 -0.004229523 1.1286786 -0.3311658 -0.9818195 -0.42637196
-0.72565866 0.30825695 0.16571261 0.52612346 -0.3445637 -0.5751024 0.7417129 -0.6134518
0.5094684 -0.08959433 0.11572633 -0.52107775 -0.6770794 0.45646724
00000000: 5e91 d3be 98bd 36bf 3e5a db3c 7ff9 1fbf
00000010: bf31 093f e111 04bf 3e25 813f 8674 37bf
00000020: 89d7 fbbe ea3d 59bf 6c9b 5d3f cf97 8abb
00000030: 8a78 903f 908e a9be 8658 7bbf 6d4d dabe
00000040: c4c4 39bf dbd3 9d3e 91b0 293e 07b0 063f
00000050: a76a b0be e939 13bf e6e0 3d3f 2d0b 1dbf
00000060: 856c 023f 3b7d b7bd ed01 ed3d 5a65 05bf
00000070: 1355 2dbf 13b6 e93e

2.weight f4 [30, 30]
0.0066792476 0.008071798 0.03519166 0.18559557 -0.19788457 -0.081069045 0.10608814 0.15555847
-0.035111837 -0.07520663 0.0055110096 0.026272893 0.08075041 -0.11873916 0.15414667 -0.12634853
-0.2570799 -0.1665251 -0.20399144 -0.17805919 0.2798664 0.02869403 -0.027875196 -0.25318232
-0.17611052 -0.06856055 0.037389908 -0.17879838 -0.12037279 -0.18257663 -0.12823898 0.324002
-0.09018602 0.10973563 -0.31946236 -0.086406104 0.3802567 -0.23556246 0.066521265 -0.39545196
0.49916184 0.27881768 0.17020717 0.28390107 0.31296095 -0.5079571 -0.4653259 -0.31434473
-0.19408819 0.11384804 0.11667097 0.11428267 0.25596514 -0.5001752 -0.21918593 -0.4359858
0.48474485 0.048415326 -0.18164106 -0.4515239 -0.23080789 -0.32198632 -0.09507012 -0.35565048
0.33728716 -0.3214127 0.50217587 -0.013912975 -0.19125357 -0.3598876 0.419303 -0.040876403
0.31164277 -0.13594632 -0.033089645 -0.06931187 -0.25056976 0.10008251 -0.06454484 0.23376891
-0.082572 -0.33505479 0.32031393 -0.23120323 0.11308053 -0.04367707 -0.12648603 -0.45742753
0.017966567 0.021594843 0.0021793789 0.10663097 0.046888363 -0.10484403 0.097665004 0.53571075
0.31351715 -0.1869087 0.70307684 -0.21267194 0.49389255 -0.029763356 -0.17255503 0.25476295
-0.023385141 -0.17752852 0.020017715 -0.021836298 -0.01771852 0.22816466 -0.20613237 -0.07604478
0.27856004 0.25724164 0.03642022 -0.32863694 0.021295248 -0.22224562 -0.2915005 0.0825979
0.38836598 0.2811706 -0.16256563 0.033885393 -0.10017968 0.22147882 -0.051331624 -0.059693217
0.14580224 0.0509712 -0.112768754 0.107108615 -0.08267962 -0.60482836 -0.002708497 0.36116302
0.15783073 0.15967155 0.25658175 -0.35845917 -0.21177801 0.38105032 -0.04365796 0.20262888
-0.056649137 0.0011757346 -0.23048973 0.018888809 -0.17046843 -0.2986043 0.047566265 -0.110352516
0.06324342 -0.07930677 -0.06463389 -0.6375426 -0.68078303 -0.015922524 -0.554008 0.4722304
0.11370967 -0.13074583 0.3731298 -0.16061611 -0.1277371 -0.050603196 -0.29890907 -0.08754487
0.14376616 -0.077558465 0.071953855 -0.19228044 -0.024884187 -0.4920478 0.015205665 0.5347333
-0.12901102 -0.13582121 -0.12974538 -0.16214763 0.2409214 -0.13149704 0.17724566 0.16913392
0.17622113 0.11685191 0.1772059 -0.10678394 0.27521795 -0.20631655 0.009080664 -0.08001539
-0.086336724 -0.27970037 -0.16754115 0.0013098837 0.045387685 0.24041323 0.28431916 -0.07653855
-0.13623634 0.031093188 -0.18656613 0.02526935 0.026736232 -0.23108116 -0.18960933 0.1080892
-0.21267927 -0.09025104 0.05766074 -0.002452762 0.005325672 -0.051582154 -0.17706917 0.13786611
-0.26538074 -0.09033754 -0.013958509 0.15373741 0.29573935 0.08650852 -0.2249248 0.031065822
0.1195073 0.13014436 0.16396542 0.2260809 0.018715434 -0.021789048 -0.21519816 -0.0031365713
0.059732184 0.13122262 -0.16045342 -0.069135755 -0.18812522 -0.15945077 -0.29531518 -0.06911884
0.15670167 0.0328826 -0.08567554 -0.10823695 0.043511372 0.061856203 0.3956961 0.06877138
-0.060923513 -0.107825615 -0.47659317 0.05147219 -0.532346 -0.16406438 -0.26551792 -0.2930291
00000000: 97dd da3b 933f 043c 2125 103d c40c 3e3e
00000010: 41a2 4abe 8707 a6bd bd44 d93d b84a 1f3e
00000020: 6ed1 0fbd ef05 9abd b395 b43b 403a d73c
00000030: 7960 a53d 842d f3bd a0d8 1d3e 8261 01be
00000040: fa9f 83be 8e85 2abe 22e3 50be 2655 36be
00000050: a64a 8f3e be0f eb3c 865a e4bc 1da1 81be
00000060: 5156 34be 7969 8cbd 2926 193d ec16 37be
00000070: 0286 f6bd 5ef5 3abe 1451 03be 97e3 a53e
00000080: 73b3 b8bd 13bd e03d 9290 a3be aff5 b0bd
00000090: 02b1 c23e 4937 71be 4d3c 883d ae78 cabe
000000a0: 2492 ff3e 31c1 8e3e ca4a 2e3e 7b5b 913e
000000b0: 6b3c a03e 7a09 02bf 323f eebe cbf1 a0be
000000c0: 0ebf 46be 2929 e93d 31f1 ee3d 080d ea3d
000000d0: dd0d 833e 7b0b 00bf 4772 60be 8839 dfbe
000000e0: 7a30 f83e 264f 463d 1d00 3abe 242e e7be
000000f0: e758 6cbe 64db a4be 20b4 c2bd d217 b6be
00000100: e7b0 ac3e 3590 a4be 998e 003f 3ff3 63bc
00000110: fad7 43be 3043 b8be e2ae d63e 046e 27bd
00000120: a48f 9f3e 8335 0bbe 0289 07bd 62f3 8dbd
00000130: ae4a 80be 0ff8 cc3d 1630 84bd 1e61 6f3e
00000140: 821b a9bd 4d8c abbe 3000 a43e 8ac0 6cbe
00000150: c496 e73d bae6 32bd 8e85 01be f133 eabe
00000160: 9f2e 933c abe7 b03c e9d3 0e3b 5761 da3d
00000170: 030e 403d 78b8 d6bd 9704 c83d 5724 093f
00000180: 5285 a03e ff64 3fbe d8fc 333f acc6 59be
00000190: 7cdf fc3e 48d2 f3bc 44b2 30be 4a70 823e
000001a0: 3292 bfbc 09ca 35be 31fc a33c 09e2 b2bc
000001b0: 6e26 91bc ffa3 693e 5d14 53be 5ebd 9bbd
000001c0: 6c9f 8e3e 2db5 833e 5e2d 153d 1a43 a8be
000001d0: 5f73 ae3c 5b94 63be 8e3f 95be 1629 a93d
000001e0: e8d7 c63e 98f5 8f3e 9b77 26be 69cb 0a3d
000001f0: 012b cdbd 58cb 623e 1c41 52bd e080 74bd
00000200: 2f4d 153e 2dc7 503d 4ef3 e6bd c35b db3d
00000210: ef53 a9bd 08d6 1abf 0a81 31bb 5cea b83e
00000220: 619e 213e f080 233e af5e 833e f687 b7be
00000230: 56dc 58be 0719 c33e b0d2 32bd f27d 4f3e
00000240: ed08 68bd 1b1b 9a3a 8005 6cbe b4bc 9a3c
00000250: 478f 2ebe aae2 98be d8d4 423d 8000 e2bd
00000260: c485 813d 966b a2bd c65e 84bd fe35 23bf
00000270: cc47 2ebf f46f 82bc 78d3 0dbf 2fc8 f13e
00000280: 9ee0 e83d 3ce2 05be df0a bf3e 8d78 24be
00000290: 84cd 02be 4c45 4fbd 9c0a 99be ba4a b3bd
000002a0: 7037 133e f9d6 9ebd 8b5c 933d 2ae5 44be
000002b0: ecd9 cbbc b0ed fbbe 2e21 793c 48e4 083f
000002c0: 771b 04be b714 0bbe f9db 04be 070a 26be
000002d0: 19b4 763e 29a7 06be e37f 353e 7131 2d3e
000002e0: 5073 343e 0e50 ef3d 7775 353e 8ab1 dabd
000002f0: 5ee9 8c3e a544 53be 11c7 143c 1cdf a3bd
00000300: 4fd1 b0bd e334 8fbe e88f 2bbe 67b0 ab3a
00000310: 70e8 393d e32e 763e 4892 913e 3ec0 9cbd
00000320: 8a81 0bbe 24b7 fe3c 310b 3fbe ab01 cf3c
00000330: f105 db3c 8aa0 6cbe f328 42be df5d dd3d
00000340: 98c8 59be 8ad5 b8bd ab2d 6c3d 85be 20bb
00000350: fa82 ae3b cf47 53bd 9f51 35be c62c 0d3e
00000360: fcdf 87be e302 b9bd 3bb2 64bc 576d 1d3e
00000370: 266b 973e 612b b13d b052 66be c07d fe3c
00000380: 3ec0 f43d 9044 053e 8de6 273e c081 673e
00000390: 1c51 993c f27e b2bc e85c 5cbe ef8e 4dbb
000003a0: bca9 743d 395f 063e e74d 24be 0c97 8dbd
000003b0: e6a3 40be 1047 23be 8d33 97be 2e8e 8dbd
000003c0: 6776 203e e8af 063d a876 afbd 56ab ddbd
000003d0: fb38 323d ee5c 7d3d ae98 ca3e 02d8 8c3d
000003e0: ef8a 79bd add3 dcbd 0504 f4be 81d4 523d
000003f0: d447 08bf 7e00 28be f7f1 87be e907 96be

2.bias f4 [30]
0.016463421 0.43090543 0.22976577 0.12847316 0.22027421 -0.11523207 0.24529335 0.19537261
-0.31448928 -0.32010263 0.30629635 -0.2441474 -0.10690384 -0.06758243 -0.14887753 -0.1971818
0.2369288 0.15572484 0.101390816 0.09042735 -0.3471043 -0.4014109 -0.41205305 -0.2877938
0.005045509 -0.06718727 0.16854 -0.24057126 0.21642877 0.29769498
00000000: 4cde 863c a39f dc3e b847 6b3e 788e 033e
00000010: 908f 613e cbfe ebbd 2e2e 7b3e c20f 483e
00000020: bd04 a1be 7ee4 a3be e0d2 9c3e c701 7abe
00000030: 67f0 dabd a868 8abd 5a73 18be 07ea 49be
00000040: 779d 723e 5576 1f3e fda5 cf3d f931 b93d
00000050: a8b7 b1be bb85 cdbe 9ef8 d2be b559 93be
00000060: cc54 a53b 7b99 89bd c095 2c3e 5058 76be
00000070: 819f 5d3e 7a6b 983e

4.weight f4 [5, 30]
-0.0033641672 0.17778836 -0.31899917 0.02610541 0.18744266 -0.00793707 0.10129826 0.045352224
-0.1640884 -0.3219772 0.28436175 -0.17293566 -0.14354087 -0.28560612 -0.12054953 0.2562712
-0.049293075 -0.181017 0.2701269 -0.11823717 0.16488919 -0.064732514 -0.082138404 0.024622208
0.055264097 -0.2443031 0.20203374 0.2149212 0.029548433 -0.06281557 0.32324585 0.068353884
-0.4104667 -0.20573947 0.26630938 0.0469729 0.054194417 -0.0067197424 -0.29451865 -0.49931064
0.005598577 -0.045077674 0.25834593 0.44628608 -0.34517208 0.24776477 -0.11178685 0.047460634
0.2224399 0.19980419 0.1912243 0.2596315 -0.021969471 0.23491432 -0.021559542 -0.14790648
0.19478402 0.007900671 -0.2945243 0.17618245 -0.4221425 -0.48282024 -0.6300284 -0.5965182
0.26405916 0.7509235 0.5924946 0.25075817 -0.41328484 0.25918272 -0.036415447 0.7228765
-0.10763649 0.3543517 0.0869896 0.25146163 -0.23970969 0.21792425 0.4287545 0.3341245
-0.72692 0.5273195 -0.34391445 0.44744217 -0.23204277 0.52972245 -0.24252121 -0.33468965
-0.08148969 0.66978323 -0.45844227 -0.8223723 -0.5884057 0.93548054 0.019777488 -0.51403105
-0.4196335 0.5484837 0.21422501 -0.02149497 0.042184204 -0.8688599 -0.09921157 0.01068979
0.46264657 -0.7793666 -0.255125 0.7737138 -0.4104904 0.481702 -0.78999543 1.0746866
0.005468503 -0.72523886 1.0379202 0.101239555 0.16646214 0.9086954 0.1590458 0.04334129
-0.027921252 -0.060572684 0.28954765 -0.055992734 -0.10602782 -0.12297466 -0.13727985 -0.33669925
0.33231795 0.22185251 -0.28173083 0.16183257 0.12647013 0.062447943 -0.004220072 -0.078572616
0.28156382 0.17199582 -0.18571718 0.20091276 -0.014984946 0.08764324 0.2138796 0.09603231
-0.22501968 0.26668602 -0.19686092 -0.046860978 -0.05824939 -0.17618705
00000000: 5c79 5cbb 270e 363e dc53 a3be 03db d53c
00000010: f8f0 3f3e 7c0a 02bc 7675 cf3d 41c3 393d
00000020: ca06 28be 32da a4be dd97 913e 0c16 31be
00000030: 61fc 12be f73a 92be ace2 f6bd fb35 833e
00000040: 89e7 49bd 855c 39be 134e 8a3e 5426 f2bd
00000050: b6d8 283e 7b92 84bd 2e38 a8bd 83b4 c93c
00000060: 9b5c 623d 982a 7abe efe1 4e3e 4e14 5c3e
00000070: 8e0f f23c 73a5 80bd 7b80 a53e 1ffd 8b3d
00000080: b128 d2be 5ead 52be b459 883e a866 403d
00000090: f7fa 5d3d 4931 dcbb 26cb 96be a5a5 ffbe
000000a0: 4574 b73b 5ea3 38bd eb45 843e 9c7f e43e
000000b0: 65ba b0be 0cb6 7d3e 81f0 e4bd 1566 423d
000000c0: 49c7 633e 7899 4c3e 4ed0 433e 6cee 843e
000000d0: 52f9 b3bc 618d 703e a39d b0bc cc74 17be
000000e0: 7675 473e d171 013c e4cb 96be 2c69 343e
000000f0: 1023 d8be 3734 f7be 8b49 21bf 6bb5 18bf
00000100: c332 873e 863c 403f baad 173f 6063 803e
00000110: 129a d3be 99b3 843e 5d28 15bd 6f0e 393f
00000120: 8570 dcbd 966d b53e 9a27 b23d 94bf 803e
00000130: 7576 75be 8927 5f3e b685 db3e 5e12 ab3e
00000140: 6e17 3abf 69fe 063f 8e15 b0be 2417 e53e
00000150: 9f9c 6dbe e49b 073f 7b57 78be 715c abbe
00000160: 11e4 a6bd ea76 2b3f f2b8 eabe fe86 52bf
00000170: c2a1 16bf a77b 6f3f 6604 a23c 8a97 03bf
00000180: 34da d6be 6e69 0c3f cd5d 5b3e 3816 b0bc
00000190: 58c9 2c3d 9a6d 5ebf 702f cbbd 3b24 2f3c
000001a0: 03e0 ec3e 9284 47bf be9f 82be 1c12 463f
000001b0: cc2b d2be a5a1 f63e 243d 4abf 558f 893f
000001c0: 2131 b33b 41a9 39bf 92da 843f af56 cf3d
000001d0: 0d75 2a3e 43a0 683f e7dc 223e a386 313d
000001e0: 1cbb e4bc 101b 78bd 973f 943e a358 65bd
000001f0: 1d25 d9bd 23da fbbd 1793 0cbe d863 acbe
00000200: 9425 aa3e 4e2d 633e 063f 90be 70b7 253e
00000210: 6381 013e 6ac9 7f3d 8848 8abb aeea a0bd
00000220: 2229 903e ac1f 303e a52c 3ebe 13bc 4d3e
00000230: 6b83 75bc 4d7e b33d 4103 5b3e 96ac c43d
00000240: 8f6b 66be 128b 883e e995 49be 4cf1 3fbd
00000250: ea96 6ebd 616a 34be

4.bias f4 [5]
0.20793559 0.33563766 0.24273857 0.24221706 -0.022508543
00000000: 11ed 543e b3d8 ab3e 7690 783e c007 783e
00000010: d663 b8bc

0.weight f4 [30, 2]
0.5297347 0.49675542 0.01920416 0.65020114 -0.1862649 0.5586793 -0.14174029 -0.7953312
-0.7509888 0.4795865 -0.34215534 -0.07681679 -0.20470247 0.44639984 0.58750683 -0.5338806
0.7528423 0.94548666 -0.47225016 -0.5263912 -0.88108295 -0.5273008 -0.5660396 0.30540395
-0.02223292 -0.5551301 -0.15552595 -0.5355074 0.6451195 -0.19138488 -0.43350318 0.4137726
-0.043872755 0.7427091 0.23047668 0.7549174 -0.61048204 0.73187643 0.7856383 -0.86562467
0.3515743 0.82555676 0.1454426 0.5068496 -0.21136545 -0.73406357 -0.14025854 0.45823896
-0.32948574 0.7084369 -0.41130292 0.8447706 0.61228776 0.22749689 -0.37315616 0.46854463
0.14263348 0.44916272 -0.014929505 1.0153702
00000000: b19c 073f ba56 fe3e 0b52 9d3c 9573 263f
00000010: 3abc 3ebe 9b05 0f3f 5e24 11be d39a 4bbf
00000020: cd40 40bf 5d8c f53e fc2e afbe 1f52 9dbd
00000030: 869d 51be 858e e43e d966 163f 66ac 08bf
00000040: 46ba 403f 6a0b 723f c6ca f1be 93c1 06bf
00000050: a78e 61bf 2ffd 06bf f9e7 10bf e85d 9c3e
00000060: d021 b6bc 021d 0ebf 3242 1fbe 0317 09bf
00000070: 8d26 253f 66fa 43be 21f4 ddbe 01da d33e
00000080: ebb3 33bd 2f22 3e3f 1402 6c3e 4442 413f
00000090: 8d48 1cbf 415c 3b3f 971f 493f 9499 5dbf
000000a0: 8c01 b43e b057 533f e8ee 143e e5c0 013f
000000b0: 2f70 58be 97eb 3bbf ef9f 0fbe 4c9e ea3e
000000c0: 5bb2 a8be 1f5c 353f 4c96 d2be e342 583f
000000d0: e4be 1c3f f2f4 683e 530e bfbe 15e5 ef3e
000000e0: 830e 123e a8f8 e53e e29a 74bc a7f7 813f

0.bias f4 [30]
-0.4054489 -0.05116536 0.63821524 -0.07233528 1.0526805 -0.94679666 0.29453218 0.10564589
-0.36659035 0.8541876 0.2280258 -0.8475656 -0.13916458 -0.70607924 0.57832897 -0.10487838
-0.7493749 0.06017917 -0.0056038294 -0.26379192 0.76438826 -0.16125709 0.77372646 -0.13661602
-0.97554296 0.4957021 1.0068983 -0.7414061 -0.625541 1.033872
00000000: 0097 cfbe c592 51bd 1362 233f 8524 94bd
00000010: 3cbe 863f 4461 72bf eccc 963e df5c d83d
00000020: bbb1 bbbe 0aac 5a3f 987f 693e 0ffa 58bf
00000030: 2981 0ebe 9cc1 34bf 5e0d 143f 7aca d6bd
00000040: 09d7 3fbf 6f7e 763d 54a0 b7bb bc0f 87be
00000050: f3ae 433f 9420 25be f012 463f 12e5 0bbe
00000060: 2fbd 79bf aacc fd3e 0be2 803f cacc 3dbf
00000070: 7423 20bf eb55 843f

2.weight f4 [30, 30]
0.11758103 -0.11302177 0.24290137 -0.028394606 -0.077628 -0.037925478 0.12139884 -0.08116959
0.046475027 -0.11679593 0.15001549 0.13045558 0.115190186 0.035952985 0.050271865 -0.12047891
-0.029223181 -0.028012067 -0.104454644 -0.2043669 0.10332153 0.11944881 -0.15386955 0.04200173
0.16213262 0.17912245 0.111913726 0.20646307 -0.11623819 0.07867655 0.092742674 -0.29030663
-0.58810794 0.1820109 -0.16983867 0.26655605 -0.26353657 0.18615656 -0.030147363 -0.051393088
0.17274274 0.46061692 0.02922705 0.22390394 0.12870412 -0.10731582 0.16454859 -0.07014428
-0.1564455 0.3793549 -0.27543995 -0.15882508 0.06807972 -0.28053853 0.058930956 -0.31496313
-0.18682285 -0.011137478 0.020560531 -0.40698406 -0.18911184 0.041935857 0.08253647 -0.1255683
0.01702894 0.07059167 -0.035034448 0.14029942 0.1188252 -0.12655303 0.1305125 0.21448347
0.05595551 0.26016924 -0.13405603 -0.040227983 -0.10482404 -0.01842516 0.07160673 -0.015010146
-0.17797156 -0.12277766 0.088346295 -0.20627522 -0.045813646 -0.014087092 -0.2154768 0.071554035
0.055700514 0.054599244 0.2053891 -0.017290102 0.31489918 -0.0627177 -0.03775162 0.3512246
0.1879107 0.15594138 0.24579501 -0.10864697 -0.3836078 0.20223743 -0.29319322 -0.049004186
0.4303719 -0.23914249 0.16399786 0.07163813 -0.6352442 0.57624745 0.39874262 0.34854966
-0.12603039 0.29861194 -0.20879413 -0.07706085 -0.34710738 -0.15120322 0.10328179 0.68059874
-0.083678134 -0.19396985 0.095182404 -0.015135408 -0.04953006 -0.08170443 0.047197722 0.07771466
-0.12437316 0.20255706 0.080825806 0.01730618 0.063855655 -0.10587142 -0.29638255 -0.046842262
-0.18842022 -0.11648936 0.02685521 -0.11251056 -0.077811435 -0.06391996 0.039616957 -0.1361297
0.23091651 -0.06423259 0.053699665 0.13476056 -0.27403724 -0.11044843 -0.12502602 -0.14311336
0.15910071 0.030757459 0.28592196 -0.08076224 0.19942681 0.037178513 -0.2426141 0.24980977
-0.07728152 -0.07357574 -0.05174162 -0.12849046 0.15100594 0.117291555 0.08176117 0.030499455
0.11361565 -0.04237387 0.13294348 0.07921124 0.21424086 -0.12246975 0.4153552 -0.24548152
0.080694824 0.10726547 -0.37203225 -0.20389877 -0.07547355 0.18102892 0.39997387 -0.30415687
-0.05090595 0.07495581 0.35592148 -0.32227728 0.19514397 -0.03225006 -0.15040657 0.19863807
-0.03050279 0.08670237 -0.3835614 0.2668216 0.3319836 0.07913969 0.40010393 -0.48606804
-0.07194059 0.30405495 -0.16993721 0.27384228 0.59038424 0.27244705 -0.005268623 0.43574205
0.26595312 -0.15748641 0.13005124 -0.019304853 0.076813884 -0.016171932 -0.13252582 -0.08085093
0.08358793 -0.121331304 -0.0753572 -0.11905329 -0.09721004 -0.035957772 0.108261436 -0.032781556
0.26096913 -0.07669482 -0.12960427 -0.079182826 -0.09361972 -0.19654596 -0.18262652 -0.15468368
0.014542138 0.12036137 -0.08779227 0.23051096 0.0272972 -0.105641305 -0.05988137 0.112057984
-0.13990232 0.14106904 0.29489848 -0.014514389 0.3623723 -0.18819724 0.33953792 -0.06791571
0.15351675 -0.0093653165 0.09826532 0.04575219 0.011073057 0.051398814 -0.16749121 0.24092817
00000000: 53ce f03d f577 e7bd 23bb 783e ce9b e8bc
00000010: 6efb 9ebd bf57 1bbd f49f f83d 3e3c a6bd
00000020: 995c 3e3d b432 efbd a99d 193e 2696 053e
00000030: d5e8 eb3d 7043 133d dfe9 4d3d a6bd f6bd
00000040: 7465 efbc 9079 e5bc 51ec d5bd 8e45 51be
00000050: 3d9a d33d 94a1 f43d fb8f 1dbe 020a 2c3d
00000060: 1806 263e e06b 373e 0633 e53d 0e6b 533e
00000070: 4a0e eebd 2c21 a13d dfef bd3d 12a3 94be
00000080: 3e8e 16bf 1161 3a3e 30ea 2dbe 097a 883e
00000090: 44ee 86be d39f 3e3e 9af7 f6bc 8f81 52bd
000000a0: 79e3 303e fbd5 eb3e 916d ef3c 1347 653e
000000b0: 03cb 033e 66c8 dbbd 6d7f 283e cea7 8fbd
000000c0: 4033 20be ce3a c23e 7706 8dbe 0ba3 22be
000000d0: 616d 8b3d bfa2 8fbe 9661 713d d942 a1be
000000e0: 7d4e 3fbe f879 36bc 8f6e a83c 3760 d0be
000000f0: 89a6 41be efc4 2b3d e108 a93d fa94 00be
00000100: 4780 8b3c 5e92 903d 4880 0fbd a7aa 0f3e
00000110: a05a f33d 1e97 01be 12a5 053e 8ea1 5b3e
00000120: 9b31 653d e734 853e fc45 09be 19c6 24bd
00000130: fcad d6bd 5cf0 96bc 8da6 923d 1eed 75bc
00000140: 2d3e 36be db72 fbbd e7ee b43d d039 53be
00000150: 17a7 3bbd 8ccd 66bc f3a5 5cbe ec8a 923d
00000160: 3926 643d 75a3 5f3d 8551 523e f9a3 8dbc
00000170: 773a a13e 2372 80bd 71a1 1abd b6d3 b33e
00000180: aa6b 403e 19af 1f3e b0b1 7b3e 4d82 debd
00000190: 3e68 c4be 5417 4f3e 6c1d 96be 9db8 48bd
000001a0: b559 dc3e c5e1 74be 0eef 273e 03b7 923d
000001b0: 5d9f 22bf f484 133f fe27 cc3e 1a75 b23e
000001c0: 1c0e 01be aae3 983e 21ce 55be 14d2 9dbd
000001d0: 0fb8 b1be 04d5 1abe 6785 d33d b83b 2e3f
000001e0: 715f abbd 08a0 46be feee c23d 81fa 77bc
000001f0: 08e0 4abd a754 a7bd 6652 413d dd28 9f3d
00000200: 5bb7 febd 1e6b 4f3e 0088 a53d b1c5 8d3c
00000210: c1c6 823d 1dd3 d8bd 74bf 97be acdd 3fbd
00000220: 3bf1 40be f991 eebd 75ff db3c f06b e6bd
00000230: 9a5b 9fbd 78e8 82bd 6445 223d 9665 0bbe
00000240: 6175 6c3e 608c 83bd 2ef4 5b3d acfe 093e
00000250: 9c4e 8cbe c932 e2bd d206 00be 4f8c 12be
00000260: 4ceb 223e 11f7 fb3c 5d64 923e ac66 a5bd
00000270: 8b36 4c3e 7f48 183d d56f 78be 22ce 7f3e
00000280: c645 9ebd e1ae 96bd 05ef 53bd 0193 03be
00000290: 4da1 1a3e 8e36 f03d 6672 a73d fed9 f93c
000002a0: 52af e83d 3990 2dbd 5622 083e 8139 a23d
000002b0: f561 5b3e 6cd1 fabd 70a9 d43e 825f 7bbe
000002c0: 5443 a53d 00ae db3d 037b bebe d7ca 50be
000002d0: e091 9abd a55f 393e 60c9 cc3e 73ba 9bbe
000002e0: c282 50bd 6f82 993d 573b b63e 8701 a5be
000002f0: d2d3 473e a418 04bd 2e04 1abe c767 4b3e
00000300: fde0 f9bc 0391 b13d 2962 c4be d79c 883e
00000310: c1f9 a93e fd13 a23d 6cda cc3e e9dd f8be
00000320: 9755 93bd 17ad 9b3e 0504 2ebe 0e35 8c3e
00000330: 6c23 173f 2e7e 8b3e 6aa4 acbb 9519 df3e
00000340: 022b 883e 1e44 21be 272c 053e 3625 9ebc
00000350: 9950 9d3d 007b 84bc d9b4 07be 2c95 a5bd
00000360: 2630 ab3d 8c7c f8bd e054 9abd 36d2 f3bd
00000370: 0f16 c7bd 7548 13bd 2cb8 dd3d f445 06bd
00000380: bf9d 853e 2c12 9dbd fbb6 04be 9b2a a2bd
00000390: b2bb bfbd 5843 49be 7202 3bbe 6665 1ebe
000003a0: 2642 6e3c 0680 f63d 6fcc b3bd 110b 6c3e
000003b0: 619e df3c 785a d8bd 2b46 75bd a87e e53d
000003c0: 8e42 0fbe 6774 103e effc 963e c3cd 6dbc
000003d0: dd88 b93e c7b6 40be ead7 ad3e 6417 8bbd
000003e0: 7f33 1d3e fc70 19bc 543f c93d a666 3b3d
000003f0: c46b 353c 9087 523d d182 2bbe e0b5 763e

2.bias f4 [30]
0.2159461 -0.434644 -0.2091683 -0.24198113 0.14022627 0.20897207 -0.06871735 -0.14870448
0.04298394 0.38604987 0.15457954 -0.0789413 -0.14535238 -0.37235057 0.26704177 -0.4142825
0.1939717 -0.19864823 -0.41412956 0.080327824 0.19342822 -0.44960007 -0.30499098 -0.58922833
-0.4214222 -0.38074484 -0.15696763 0.1027125 -0.3689642 -0.022212822
00000000: f920 5d3e a989 debe 3730 56be e7c9 77be
00000010: 7a97 0f3e c6fc 553e afbb 8cbd fd45 18be
00000020: ee0f 303d 54a8 c53e 194a 1e3e faab a1bd
00000030: 41d7 14be bca4 bebe b3b9 883e d61c d4be
00000040: 84a0 463e 716a 4bbe ca08 d4be ea82 a43d
00000050: 0c12 463e fb31 e6be c727 9cbe abd7 16bf
00000060: a7c4 d7be fdf0 c2be 1fbc 20be ee5a d23d
00000070: e0e8 bcbe aaf7 b5bc

4.weight f4 [5, 30]
-0.22245325 0.014949091 0.083733805 0.10149892 0.19896609 0.025325686 -0.24872449 -0.14805076
-0.10984437 -0.1160191 0.025946982 0.09828676 0.24631935 0.13682085 -0.083561234 -0.1399491
0.12825151 0.01477904 0.27762017 -0.22748135 0.17618152 0.044527404 -0.31070185 0.15519568
0.13077958 0.054603405 0.05687068 -0.08837499 -0.17633586 -0.038437378 -0.0015318136 -0.4333388
0.19271584 0.31397 -0.2573301 -0.15627575 -0.34147584 0.052360248 -0.25132644 0.27806735
-0.2601487 0.2764791 0.3031948 -0.18174124 -0.22051787 -0.5759053 -0.056522418 -0.1534937
0.038173582 0.11530332 -0.20207651 0.2005642 -0.17549033 0.5617344 -0.022240179 -0.12720148
0.111950025 -0.29454646 -0.3293469 0.25945085 0.12834615 0.098079994 -0.23512046 -0.6381908
-0.10835376 -0.042051945 -0.43147677 -0.018775987 0.46526086 -0.14815393 -0.25213805 -0.43553624
-0.59980375 0.17741491 0.03562516 0.26272497 0.10821688 0.7263447 -0.06952355 0.07022613
-0.2611091 -0.39775896 -1.1107467 -0.62083703 -1.0121765 -0.25291896 -0.31669816 -0.1648483
0.1094273 0.46914184 0.11074338 -0.09933539 -0.37183392 0.15664962 0.10049963 0.6109962
-0.40128314 -0.48553443 -0.17437774 0.26702848 0.63438547 0.18458892 -0.45989084 -0.42112803
-0.4291554 -0.24363373 -0.41135645 -0.4679541 -0.6232005 0.18528032 -0.5817324 -0.055563718
-0.7929342 -0.5912933 0.3563266 0.3977844 0.5253588 -0.17869845 0.7312699 0.3792219
-0.11434383 -0.2625005 -0.1579272 0.028258746 -0.22603814 -0.1429892 -0.13367064 0.21627459
0.171064 0.17951976 -0.082882844 -0.07597171 0.12452635 -0.15012237 -0.034046248 -0.059364382
-0.032150093 -0.24281453 0.19067475 0.17438719 0.020424407 0.097474895 0.015434984 0.12667254
-0.03616755 0.17024088 0.09821974 -0.2494069 -0.09641496 0.12568937
00000000: c9ca 63be 08ed 743c a17c ab3d aade cf3d
00000010: c4bd 4b3e d077 cf3c a2b1 7ebe 9e9a 17be
00000020: 16f6 e0bd 6c9b edbd c48e d43c 924a c93d
00000030: 243b 7c3e c41a 0c3e 2722 abbd d14e 0fbe
00000040: 5d54 033e c923 723c 3b24 8e3e dff0 68be
00000050: ee68 343e 5e62 363d 5014 9fbe 9eeb 1e3e
00000060: 15eb 053e d2a7 5f3d 3bf1 683d f2fd b4bd
00000070: 6391 34be 8370 1dbd 23c7 c8ba 95de ddbe
00000080: 4d57 453e adc0 a03e c5c0 83be c006 20be
00000090: ecd5 aebe b377 563d dcad 80be d85e 8e3e
000000a0: 3632 85be ab8e 8d3e 593c 9b3e 601a 3abe
000000b0: 70cf 61be 886e 13bf 0d84 67bd 742d 1dbe
000000c0: e75b 1c3d 2624 ec3d 25ed 4ebe b460 4d3e
000000d0: bdb3 33be d3cd 0f3f 0931 b6bc 1b41 02be
000000e0: 0e46 e53d cbce 96be 28a0 a8be bed6 843e
000000f0: 2c6d 033e 2ade c83d 6bc3 70be 7960 23bf
00000100: 93e8 ddbd a93e 2cbd 86ea dcbe 19d0 99bc
00000110: ac36 ee3e aab5 17be 3d18 81be 9bfe debe
00000120: bd8c 19bf 41ac 353e b0eb 113d e383 863e
00000130: d0a0 dd3d baf1 393f 5d62 8ebd b8d2 8f3d
00000140: 18b0 85be 10a7 cbbe f32c 8ebf 2def 1ebf
00000150: 008f 81bf 987e 81be 4326 a2be fecd 28be
00000160: 6c1b e03d 5c33 f03e 6dcd e23d 5a70 cbbd
00000170: 0461 bebe c268 203e c0d2 cd3d 3f6a 1c3f
00000180: fc74 cdbe f897 f8be 1490 32be f5b7 883e
00000190: 1667 223f e104 3d3e d076 ebbe 189e d7be
000001a0: 42ba dbbe 1f7b 79be 509d d2be ae97 efbe
000001b0: 118a 1fbf 20ba 3d3e 6aec 14bf c896 63bd
000001c0: bcfd 4abf ff5e 17bf 7170 b63e 66aa cb3e
000001d0: ea7d 063f bafc 36be 8134 3b3f 5f29 c23e
000001e0: 192d eabd 7766 86be abb7 21be e37e e73c
000001f0: 8b76 67be c36b 12be f5e0 08be 1677 5d3e
00000200: 672b 2f3e 07d4 373e 7bbe a9bd 0e97 9bbd
00000210: ac07 ff3d aeb9 19be 1474 0bbd 1128 73bd
00000220: d1af 03bd 5fa4 78be 3e40 433e 8e92 323e
00000230: 1651 a73c eba0 c73d 04e3 7c3c 72b6 013e
00000240: 6d24 14bd a053 2e3e 6e27 c93d 8664 7fbe
00000250: 3575 c5bd b7b4 003e

4.bias f4 [5]
-0.095771685 -0.31578532 0.11252039 0.022747565 -0.20029375
00000000: f223 c4bd 9dae a1be 1771 e63d 1a59 ba3c
00000010: ce19 4dbe

0.weight f4 [30, 2]
-1.2076217 0.067105226 -0.06317713 0.79346377 -0.116605766 0.11230206 0.5338797 0.87104875
0.040419918 0.7950757 0.37592503 -1.1273786 0.6132963 -0.4191201 0.86718035 1.0545368
-0.25000876 1.1033037 -0.5672921 1.0763112 1.1732051 -0.11722557 -1.3531986 -0.08844001
-0.58932215 0.054468684 -1.339556 -0.19398086 0.18079095 -0.46650133 -1.032775 -0.6259191
-0.97710884 -0.68250865 -0.21389629 0.9597698 1.2983146 -0.96545905 0.17202745 -0.8641331
-0.7333295 -0.07877208 -0.0023132982 -1.0167705 -1.4448185 -0.97768825 1.0632173 0.5162325
-0.5851215 -0.5966219 -1.3062191 -1.0022253 -0.10808646 0.6064289 0.5717664 -0.33590242
0.037554715 -0.95288014 -1.2687749 0.2805138
00000000: 5993 9abf 776e 893d 0363 81bd 7120 4b3f
00000010: 01cf eebd 9ffe e53d 57ac 083f 0dfd 5e3f
00000020: 5b8f 253d 158a 4b3f 3f79 c03e f14d 90bf
00000030: fc00 1d3f e996 d6be 88ff 5d3f 10fb 863f
00000040: 2601 80be 0e39 8d3f 0e3a 11bf 91c4 893f
00000050: 962b 963f f613 f0bd 9d35 adbf 0920 b5bd
00000060: d1dd 16bf 8e1a 5f3d 9276 abbf eba2 46be
00000070: 4321 393e 43d9 eebe f931 84bf 3c3c 20bf
00000080: ce23 7abf e3b8 2ebf a107 5bbe 79b3 753f
00000090: 2c2f a63f 5328 77bf f727 303e d437 5dbf
000000a0: 7bbb 3bbf 4253 a1bd b49a 17bb 8925 82bf
000000b0: d0ef b8bf c749 7abf 8117 883f d027 043f
000000c0: 86ca 15bf 36bc 18bf 3032 a7bf eb48 80bf
000000d0: 6f5c ddbd ed3e 1b3f 485f 123f 67fb abbe
000000e0: f9d2 193d f4ef 73bf 3767 a2bf 819f 8f3e

0.bias f4 [30]
-0.9308149 0.5012838 0.9473872 -0.4895596 -0.78488296 0.35658753 -0.91147876 0.8161902
-0.49111882 0.39916617 -1.1129832 -0.6667869 -0.03358236 0.31282216 0.8578643 0.98407054
0.23728755 -0.49348208 -0.054168552 -0.7368358 0.20064963 -1.075017 0.0047990936 0.40291446
-0.35138166 0.88973874 0.08623411 0.58786535 0.66742235 -0.52267504
00000000: e349 6ebf 2354 003f f887 723f 8ea7 fabe
00000010: 17ee 48bf a492 b63e ac56 69bf d7f1 503f
00000020: ed73 fbbe 825f cc3e 3c76 8ebf 8cb2 2abf
00000030: a88d 09bd 3a2a a03e ff9c 5b3f 0cec 7b3f
00000040: 82fb 723e afa9 fcbe d8df 5dbd 45a1 3cbf
00000050: 1977 4d3e 289a 89bf b741 9d3b ce4a ce3e
00000060: 4ce8 b3be ebc5 633f 829b b03d 587e 163f
00000070: 31dc 2a3f 08ce 05bf

2.weight f4 [30, 30]
0.5459353 -0.02404304 -0.030883435 -0.4936056 -0.083853565 0.13582128 0.010644264 0.1931846
-0.23604134 -0.20773442 -0.14781612 0.42118424 0.65144336 -0.13477226 -0.14031239 0.39773753
0.4221293 -0.056504086 0.38791463 -0.08479597 0.7358997 -0.08837217 0.4514465 -0.07474082
0.096052244 0.24111137 0.06273912 -0.104123525 0.44603118 -0.45422095 0.20133603 -0.45706123
-0.30835882 -0.28000322 0.09902169 -0.0835489 0.34508818 0.09274651 -0.05201923 -0.4122297
-0.02858669 -0.07839524 0.12161618 -0.29803112 -0.2780887 0.2886769 0.06879356 0.02855588
0.34870416 0.401517 -0.12682821 0.5192867 -0.021974962 -0.028793255 0.07359474 0.58259845
-0.1355483 0.08691362 0.06842295 -0.12982544 0.13227928 -0.110153124 -0.12103232 -0.10207769
-0.312833 -0.16122681 -0.15540005 -0.15503053 0.03300262 -0.021300191 0.11094492 0.1720297
-0.39670655 0.109730184 0.31189027 -0.35670578 -0.007869948 0.10259423 0.18895513 -0.006683265
-0.21813475 -0.076003306 -0.17615393 0.1527434 0.048963152 0.18682615 -0.0069966777 -0.010725955
0.18325856 0.3567463 0.2187729 0.0124951815 -0.32798135 0.4157003 0.62582266 -0.24320787
0.19599432 0.26858005 0.3980756 -0.16361633 0.40957567 0.14676732 0.020090235 -0.08450235
-0.3766151 -0.5417519 -0.4745113 0.2771057 -0.028348923 0.10966394 0.049520344 -0.07055119
-0.060918126 0.09637082 -0.15700512 -0.4926952 0.15748313 -0.10989842 -0.29801375 0.090178326
-0.4172371 0.51186097 0.4052241 0.5508107 0.18852009 0.04035163 -0.4360874 0.6108231
0.052133337 0.25797212 -0.46539167 -0.4323105 0.37241516 0.30474117 0.1220861 0.17480569
-0.3976463 -0.017805304 -0.23877479 -0.3919659 0.23212606 -0.45853323 -0.24909653 0.30951118
-0.44954953 0.05506199 0.32560584 -0.15213794 0.20132421 -0.20720114 0.056343284 0.016978446
0.117922686 0.17652328 0.39426073 0.1564632 0.19247136 0.19246621 0.027299393 -0.1023699
-0.21834566 -0.037943594 0.24147484 0.020235112 -0.21998256 0.14960046 0.06654232 -0.04678417
0.044282246 -0.013027947 0.3255213 -0.022213789 0.25440705 -0.21839103 -0.11927077 -0.3691914
0.13016804 0.009838845 0.11392894 -0.50015193 0.5248427 -0.3062415 0.2015637 -0.59313357
-0.56253904 -0.039627515 -0.3343389 -0.37529644 0.24138248 0.021279072 -0.27083215 0.41371438
0.6418628 0.7625224 0.50796807 0.62152255 0.77316433 0.10906636 -0.3648037 0.2966885
0.52382386 0.3328986 0.68409336 -0.32515988 0.21897319 0.77673864 -0.17111635 -0.3928681
-0.091955446 0.5257937 -0.5691279 0.06451224 -0.028624052 0.2447743 -0.03129152 -0.16820374
0.06580341 -0.0049977344 0.017275764 -0.024950044 0.042494733 -0.41133937 -0.60030836 -0.47348598
-0.26801595 -0.76783085 -0.57727987 0.13873762 0.040040415 -0.12648651 -0.5460311 0.050240707
-0.44720054 0.08956778 -0.24072316 -0.520261 0.00836333 0.012378457 0.1690204 -0.5633418
0.11045609 -0.26406708 -0.11360693 -0.26508304 -0.3987491 0.39783463 -0.023828615 -0.115218155
-0.36760965 -0.09623786 0.2875781 0.23649657 -0.15985148 -0.18959667 0.23620604 -0.0054988125
00000000: 6ac2 0b3f e9f5 c4bc 42ff fcbc e0b9 fcbe
00000010: 6bbb abbd bc14 0b3e 4765 2e3c 2fd2 453e
00000020: d2b4 71be 55b8 54be 1c5d 17be 76a5 d73e
00000030: fec4 263f bd01 0abe 0dae 0fbe 41a4 cb3e
00000040: 5521 d83e d470 67bd bf9c c63e 82a9 adbd
00000050: ec63 3c3f 78fc b4bd ff23 e73e b711 99bd
00000060: 0ab7 c43d e6e5 763e 5e7d 803d b73e d5bd
00000070: 335e e43e a68f e8be 082b 4e3e ee03 eabe
00000080: 35e1 9dbe 955c 8fbe e2cb ca3d b01b abbd
00000090: 66af b03e e2f1 bd3d 1e12 55bd c50f d3be
000000a0: a22e eabc af8d a0bd e711 f93d 8997 98be
000000b0: a461 8ebe 75cd 933e a3e3 8c3d 05ee e93c
000000c0: 5a89 b23e a393 cd3e 41df 01be f9ef 043f
000000d0: d604 b4bc d5df ebbc d7b8 963d 2c25 153f
000000e0: 2ccd 0abe c5ff b13d 5521 8c3d f6f0 04be
000000f0: 3874 073e f697 e1bd cbdf f7bd 1c0e d1bd
00000100: a62b a0be a418 25be 3121 1fbe 53c0 1ebe
00000110: c12d 073d bd7d aebc 1737 e33d 8e28 303e
00000120: 1f1d cbbe 38ba e03d 15b0 9f3e 24a2 b6be
00000130: f4f0 00bc ec1c d23d 747d 413e 4aff dabb
00000140: b75e 5fbe 9fa7 9bbd b261 34be c468 1c3e
00000150: 968d 483d 5b4f 3f3e 6344 e5bb eabb 2fbc
00000160: 22a8 3b3e 73a7 b63e 0106 603e 97b8 4c3c
00000170: 2ced a7be abd6 d43e ea35 203f 7c0b 79be
00000180: bcb2 483e 5383 893e 91d0 cb3e 0a8b 27be
00000190: e7b3 d13e 2c4a 163e 4794 a43c 910f adbd
000001a0: b2d3 c0be 41b0 0abf 25f3 f2be cce0 8d3e
000001b0: 003c e8bc 7d97 e03d d8d5 4a3d 247d 90bd
000001c0: 4985 79bd 115e c53d f3c5 20be 8c42 fcbe
000001d0: 4243 213e 6c12 e1bd 4295 98be 6aaf b83d
000001e0: 1aa0 d5be 5209 033f 8979 cf3e ee01 0d3f
000001f0: 690b 413e c047 253d d946 dfbe e75e 1c3f
00000200: c489 553d ec14 843e d147 eebe cd57 ddbe
00000210: 33ad be3e 0907 9c3e 4708 fa3d 4300 333e
00000220: 4c98 cbbe 6edc 91bc 6181 74be c1af c8be
00000230: 74b2 6d3e dec4 eabe 2913 7fbe 4078 9e3e
00000240: 5b2b e6be ae88 613d cfb5 a63e 0cca 1bbe
00000250: ef27 4e3e 892c 54be 37c8 663d 6216 8b3c
00000260: 7381 f13d 85c2 343e 8bdc c93e e437 203e
00000270: 3617 453e dd15 453e faa2 df3c 4fa7 d1bd
00000280: 0196 5fbe be6a 1bbd 2e45 773e 1bc4 a53c
00000290: 1c43 61be dd30 193e 5747 883d c2a0 3fbd
000002a0: 4d61 353d 2c73 55bc baaa a63e b1f9 b5bc
000002b0: a441 823e e6a1 5fbe 3c44 f4bd a806 bdbe
000002c0: c54a 053e 1b33 213c 9353 e93d f509 00bf
000002d0: 175c 063f b0cb 9cbe b766 4e3e 9ad7 17bf
000002e0: 8f02 10bf 7650 22bd 782e abbe db26 c0be
000002f0: f82c 773e 7351 ae3c 83aa 8abe 5fd2 d33e
00000300: 1f51 243f ab34 433f 320a 023f 1a1c 1f3f
00000310: 19ee 453f 2f5e df3d 8dc7 babe 8ee7 973e
00000320: 5219 063f af71 aa3e be20 2f3f 5b7b a6be
00000330: 823a 603e 58d8 463f 2039 2fbe 0226 c9be
00000340: 2353 bcbd 6a9a 063f 5eb2 11bf fe1e 843d
00000350: fd7c eabc 1da6 7a3e 892b 00bd 9a3d 2cbe
00000360: f0c3 863d 09c4 a3bb e785 8d3c 0964 ccbc
00000370: f50e 2e3d 139b d2be cfad 19bf c16c f2be
00000380: 6339 89be 9090 44bf 9dc8 13bf 3c11 0e3e
00000390: 6b01 243d ae85 01be b2c8 0bbf 33c9 4d3d
000003a0: 78f7 e4be 506f b73d 2280 76be d32f 05bf
000003b0: 5906 093c 03cf 4a3c af13 2d3e 2b37 10bf
000003c0: cd36 e23d cd33 87be c0aa e8bd f7b8 87be
000003d0: d828 ccbe fbb0 cb3e 3a34 c3bc 7ff7 ebbd
000003e0: 5537 bcbe 5b18 c5bd 703d 933e 282c 723e
000003f0: 1bb0 23be a125 42be ffdf 713e 622f b4bb

2.bias f4 [30]
-0.14807703 -0.16014093 0.08264939 -0.36683846 0.15228426 0.029979426 0.31696248 -0.19652124
-0.15779765 -0.14273362 -0.035135645 -0.11453993 0.13559462 -0.008541017 -0.3045225 0.21781299
-0.19249135 -0.11707478 0.3028409 -0.25798917 -0.035888307 -0.4307971 0.21396671 0.28596574
-0.26056388 0.23678109 0.08053304 -0.08143331 -0.021376085 0.049690578
00000000: 81a1 17be fcfb 23be 1544 a93d 40d2 bbbe
00000010: 68f0 1b3e 6a97 f53c e848 a23e dd3c 49be
00000020: b595 21be c328 12be 65ea 0fbd e993 eabd
00000030: 51d9 0a3e 9fef 0bbc 60ea 9bbe 5e0a 5f3e
00000040: 741c 45be e7c4 efbd f60d 9b3e 2817 84be
00000050: 9eff 12bd 7091 dcbe 171a 5b3e 1a6a 923e
00000060: a168 85be be76 723e 82ee a43d 82c6 a6bd
00000070: e61c afbc 5988 4b3d

4.weight f4 [5, 30]
0.21077049 -0.08690898 -0.23320778 0.00832394 0.1301526 0.30575264 -0.26580554 0.38796985
0.13122952 -0.56711 0.10570944 -0.02183292 0.07579645 0.15635857 -0.034849685 -0.5365909
-0.28430322 0.053604707 -0.36370307 -0.41337606 0.08736656 0.21370415 -0.03697162 -0.2512111
0.21965612 0.112433694 0.110141344 0.06714263 0.20348446 0.17777662 -0.04952618 -0.56914735
-0.035866324 -0.055314086 0.40936708 0.26176852 0.18086293 -0.0098472 0.41315672 -0.34331006
-0.47266006 0.3089781 -0.36459154 -0.2794581 -0.21182272 -0.33181274 -0.12510584 0.17468458
-0.19814509 -0.2361449 0.28749588 0.4887722 0.1907378 -0.09439284 0.34420818 -0.35651678
-0.2230101 -0.36201966 0.6024669 -0.2324497 -0.8424482 -0.24344276 0.31668946 -0.12325686
-0.03457655 -0.49395725 0.8722966 -0.75945747 -0.27894515 0.21027566 0.19809824 -0.8806764
-0.35301036 0.14303531 0.15601467 1.0399958 -0.11580671 -0.06531924 -0.5283344 -0.55082995
0.56985545 -0.42119312 -0.986506 0.3114731 -0.35836908 0.04892355 -0.1519253 -0.011718211
-0.08716293 0.308155 0.49773854 0.3996247 0.20417875 0.44820026 0.67312026 -0.19696699
-0.70710176 0.2333317 -0.08495713 0.087535374 0.56227255 -0.018149126 -0.25663123 -0.32855842
0.57497555 0.24592586 -0.25912964 0.29110566 -0.6525147 -0.23192625 0.15868932 -0.7369573
-0.09890266 -0.075606644 0.24077274 0.34537128 0.65851605 0.2634357 -0.033995647 0.055446725
-0.44828665 -0.29780334 0.20938 -0.23588973 -0.3535646 -0.31056127 0.43510115 -0.50372255
-0.4148865 0.14676394 -0.36753613 -0.11005926 -0.07513605 0.22974798 -0.4050592 0.65391284
0.2700353 -0.42897108 0.4508825 0.34467024 -0.39050126 -0.4177834 -0.021378884 0.5270085
0.14704838 -0.47292665 -0.32190606 -0.36516452 -0.1567744 -0.33691013
00000000: 38d4 573e 56fd b1bd 05ce 6ebe 2361 083c
00000010: b946 053e 9c8b 9c3e aa17 88be fca3 c63e
00000020: 0861 063e 1f2e 11bf 317e d83d f4da b2bc
00000030: 2b3b 9b3d 761c 203e 8bbe 0ebd 055e 09bf
00000040: 3190 91be 9c90 5b3d 4a37 babe 07a6 d3be
00000050: 3ded b23d 43d5 5a3e 8e6f 17bd be9e 80be
00000060: 89ed 603e a343 e63d c991 e13d 1382 893d
00000070: 3b5e 503e 130b 363e f7db 4abd a4b3 11bf
00000080: 91e8 12bd 0691 62bd 9098 d13e 8606 863e
00000090: 2234 393e 2656 21bc 4789 d33e 56c6 afbe
000000a0: 8000 f2be 6132 9e3e beab babe 2215 8fbe
000000b0: 0ee8 58be 5ce3 a9be bf1b 00be 84e0 323e
000000c0: 8ce6 4abe f8cf 71be a932 933e 5a40 fa3e
000000d0: c550 433e 0951 c1bd 0e3c b03e 5e89 b6be
000000e0: c25c 64be a45a b9be 453b 1a3f 4b07 6ebe
000000f0: afaa 57bf 0f49 79be 1f25 a23e 186e fcbd
00000100: 24a0 0dbd f7e7 fcbe d44e 5f3f ce6b 42bf
00000110: e6d1 8ebe 8152 573e 44da 4a3e 0274 61bf
00000120: c6bd b4be d977 123e 4fc2 1f3e 951e 853f
00000130: 122c edbd 18c6 85bd ec40 07bf 3103 0dbf
00000140: 0ce2 113f a0a6 d7be a88b 7cbf 6779 9f3e
00000150: 277c b7be 0f64 483d 4e92 1bbe bdfd 3fbc
00000160: 7a82 b2bd 7ec6 9d3e 96d7 fe3e 9c9b cc3e
00000170: 3c14 513e 817a e53e 9c51 2c3f b7b1 49be
00000180: 9f04 35bf 81ee 6e3e 01fe adbd bf45 b33d
00000190: 18f1 0f3f 7aad 94bc 2b65 83be cf38 a8be
000001a0: 9931 133f fdd3 7b3e a4ac 84be cd0b 953e
000001b0: 340b 27bf 137e 6dbe 747f 223e 3ca9 3cbf
000001c0: 7a8d cabd a8d7 9abd 218d 763e 81d4 b03e
000001d0: 8294 283f 0be1 863e 053f 0bbd 1b1c 633d
000001e0: d485 e5be ae79 98be b667 563e 148d 71be
000001f0: 6b06 b5be e301 9fbe 94c5 de3e f6f3 00bf
00000200: 016c d4be 4949 163e b22d bcbe c066 e1bd
00000210: eee0 99bd 0e43 6b3e eb63 cfbe d566 273f
00000220: 1142 8a3e 19a2 dbbe 12da e63e 9e78 b03e
00000230: c8ef c7be b5e7 d5be c522 afbc 07ea 063f
00000240: da93 163e 7123 f2be dfd0 a4be d8f6 babe
00000250: 7889 20be 7c7f acbe

4.bias f4 [5]
-0.15036128 -0.002573189 -0.047753554 -0.36089364 -0.0706348
00000000: 4ff8 19be f3a2 28bb 3b99 43bd 0dc7 b8be
00000010: faa8 90bd

0.weight f4 [30, 2]
-0.067044914 1.036968 0.8722764 -0.34812826 -0.25163752 -0.7329174 -0.29803693 0.5732084
0.2524098 0.6521482 0.1026191 -0.4184299 0.04227287 1.1303029 -0.5533039 0.26338568
-0.18091746 0.9614171 0.47592884 -0.17450507 -0.7345959 0.2922879 -0.9592164 -0.087811716
-0.036305953 0.5605314 0.06520392 -0.86286366 -0.84057015 -0.87942785 0.015175212 -0.675234
-0.109395854 -0.39355153 -0.5526768 0.7070576 0.80241644 0.8117973 0.5513306 -0.6788926
-0.13924682 -0.75012094 0.46607882 0.7129131 0.41136977 -0.73313856 -0.3702925 0.8100108
-0.39304623 -0.64137113 0.14911602 -0.889354 -0.16933659 0.4638737 0.77544767 0.059360784
-0.4792249 0.8553785 0.47475258 -0.77197903
00000000: d84e 89bd 5ebb 843f 824d 5f3f de3d b2be
00000010: a2d6 80be 7aa0 3bbf 4c98 98be c9bd 123f
00000020: db3b 813e 2ff3 263f f629 d23d 723c d6be
00000030: 5126 2d3d c4ad 903f 53a5 0dbf 7dda 863e
00000040: 6d42 39be 6e1f 763f f2ac f33e 75b1 32be
00000050: 7a0e 3cbf c2a6 953e 358f 75bf a1d6 b3bd
00000060: 8db5 14bd fc7e 0f3f a289 853d a2e4 5cbf
00000070: 9b2f 57bf 2f22 61bf 74a1 783c 23dc 2cbf
00000080: ef0a e0bd 967f c9be 3a7c 0dbf ba01 353f
00000090: 2a6b 4d3f f3d1 4f3f 0124 0d3f e8cb 2dbf
000000a0: b896 0ebe ed07 40bf e2a1 ee3e 7981 363f
000000b0: 0f9f d23e f8ae 3bbf fb96 bdbe de5c 4f3f
000000c0: 5b3d c9be e630 24bf dfb1 183e b4ac 63bf
000000d0: 9266 2dbe db80 ed3e bd83 463f 4b24 733d
000000e0: f75c f5be 16fa 5a3f c512 f33e 6ba0 45bf

0.bias f4 [30]
-0.30441588 -0.74258393 -0.25532195 0.30885988 0.0776758 0.33729663 -0.6681726 -0.7711246
0.69931924 -0.25962448 -1.0590799 -0.78257704 0.6406701 -0.88804525 -0.8164938 0.5466365
-0.6850066 0.47699815 -0.85663307 -0.5018817 -0.28958374 0.49355265 1.0613693 0.44134155
0.355883 -0.6065154 -0.517167 -0.28495872 0.6559685 -0.12086614
00000000: 66dc 9bbe fb19 3ebf 8fb9 82be e222 9e3e
00000010: 7d14 9f3d 25b2 ac3e 5c0d 2bbf 6c68 45bf
00000020: 9606 333f 80ed 84be ee8f 87bf f856 48bf
00000030: f502 243f ef56 63bf bd05 51bf 5ff0 0b3f
00000040: 985c 2fbf 1a39 f43e 4e4c 5bbf 527b 00bf
00000050: 5244 94be efb2 fc3e f3da 873f 85f7 e13e
00000060: 4c36 b63e 9844 1bbf 0e65 04bf 1ce6 91be
00000070: 8ded 273f ab88 f7bd

2.weight f4 [30, 30]
0.046649445 -0.03985905 -0.0008647916 -0.16392395 0.0828728 -0.13507628 -0.015865315 0.2229025
-0.0069788154 0.12800865 0.4905564 0.051849693 -0.09662282 -0.18260407 0.041616946 0.15193704
-0.16281906 -0.03969902 -0.15092197 0.24270189 -0.06337242 0.21406579 0.12260469 0.026964765
0.16535497 0.10530167 0.03362742 -0.104020365 -0.15769657 0.0688541 0.12594627 0.010402681
0.023485469 0.24499485 0.095651396 0.10276783 -0.13367893 -0.011137636 0.088161506 0.20683043
-0.21524337 -0.1328501 -0.09109746 0.019104064 -0.059142217 0.20850454 -0.10453884 0.008428331
0.12396817 -0.2835816 -0.021496946 0.01443942 0.060468588 0.23922104 0.04850248 -0.2989542
-0.1994768 0.31599036 0.10270176 -0.10334828 -0.08551976 -0.19316342 -0.17255507 0.054612834
-0.0022182458 -0.12013117 -0.13372177 0.08371124 0.18130116 -0.08505532 0.068181954 0.085930504
0.2795917 -0.16225268 -0.20944023 0.032956697 -0.049979888 -0.12095516 -0.13670819 0.011024952
0.11174197 -0.071380764 -0.118950486 -0.062166505 -0.20210893 -0.15651098 0.1794821 0.12715837
-0.13540103 0.009496783 -0.1508847 0.6153871 0.09170664 -0.31935793 -0.23790552 0.047344726
0.23812218 0.21950127 -0.21907134 0.4224128 0.37473756 0.19898322 -0.3595175 0.35416684
0.27800778 0.063206606 0.21722554 -0.06970007 0.08394429 0.17367268 0.34353647 -0.24394098
-0.0038511024 -0.30824402 0.23199347 0.401046 -0.10814532 -0.16140994 -0.38955528 0.033971854
-0.12900329 0.28889433 0.10475468 -0.05068579 -0.11056783 0.09548542 -0.35322797 0.027733702
-0.3323624 0.21523865 0.44083917 0.038071234 -0.056679994 0.15447442 0.19073322 0.30185252
-0.049208887 -0.36118972 -0.16732524 0.105837665 0.18585294 -0.20656928 -0.045808554 -0.13730991
0.22461596 0.115157306 -0.35988858 0.36077788 -0.19976915 0.36453962 -0.0011314125 0.3068929
-0.10313038 0.10807759 -0.16626762 -0.067767695 0.1120098 -0.12936287 0.051603638 0.0068863197
0.011734633 0.21813473 -0.02821377 0.23659171 -0.070064195 0.001954041 0.13099699 0.042503383
-0.09147531 0.1724402 -0.0054779816 -0.16348258 0.1016056 -0.18492654 -0.14597912 0.11772891
-0.0027444693 0.30222046 -0.07539504 -0.087580584 -0.091269895 0.19829792 -0.20527598 0.12204661
0.18545529 0.085260056 -0.071444 0.0049509397 -0.07886054 0.08947816 -0.14159285 -0.18994987
-0.07422048 0.083672024 0.11140621 0.06729289 0.109612435 -0.015320854 -0.016906286 -0.17738824
0.016123768 0.08400587 -0.0068105767 -0.07850605 -0.04384392 -0.16275193 0.021281019 0.13089226
0.094766036 -0.22809458 0.3617562 -0.0057940655 -0.011020241 0.25394177 0.13596326 -0.02394963
0.36803392 0.70218587 0.10858073 -0.048268247 0.27538386 0.02486307 0.13427018 0.008627148
-0.011529953 -0.34874588 0.012264741 0.24302901 0.05044361 -0.1010624 0.012114004 -0.15937026
-0.30316648 0.059784718 -0.16476545 0.022481566 0.3875987 -0.105191804 0.2870201 -0.3299017
0.27954343 -0.3622908 -0.38577417 0.31681195 0.29454663 -0.18399738 0.22188635 0.18107899
0.45057845 -0.2969165 -0.06102254 -0.26538092 0.31825918 -0.42156196 -0.18730068 -0.31645474
00000000: 7d13 3f3d 3e43 23bd 2fb3 62ba aedb 27be
00000010: 37b9 a93d 7051 0abe faf7 81bc 8e40 643e
00000020: 8cae e4bb b314 033e 352a fb3e 5860 543d
00000030: 2fe2 c5bd 90fc 3abe 8876 2a3d 6295 1b3e
00000040: 0aba 26be 719b 22bd 4a8b 1abe d886 783e
00000050: 66c9 81bd 1034 5b3e 2b18 fb3d 36e5 dc3c
00000060: d052 293e 67a8 d73d e8bc 093d a108 d5bd
00000070: 367b 21be 6103 8d3d 0ff8 003e 0270 2a3c
00000080: 9964 c03c eedf 7a3e e1e4 c33d f177 d23d
00000090: 21e3 08be a27a 36bc 058e b43d 5bcb 533e
000000a0: c268 5cbe db09 08be 4e91 babd 2080 9c3c
000000b0: 1c3f 72bd 3782 553e 7618 d6bd fc16 0a3c
000000c0: 06e3 fd3d 9c31 91be 5d1a b0bc 5193 6c3c
000000d0: e9ad 773d 5cf6 743e 89aa 463d 8610 99be
000000e0: a543 4cbe 7dc9 a13e 4d55 d23d 43a8 d3bd
000000f0: fc24 afbd a2cc 45be 47b2 30be b5b1 5f3d
00000100: fd5f 11bb 5507 f6bd 5cee 08be cc70 ab3d
00000110: 03a7 393e 7c31 aebd fba2 8b3d 55fc af3d
00000120: a526 8f3e 9125 26be 8077 56be 9afd 063d
00000130: b6b7 4cbd 57b7 f7bd 3bfd 0bbe 00a2 343c
00000140: f9d8 e43d 1430 92bd 509c f3bd 4ea2 7ebd
00000150: a5f5 4ebe 6a44 20be 28ca 373e ce35 023e
00000160: 91a6 0abe 6598 1b3c 8581 1abe 028a 1d3f
00000170: b1d0 bb3d e282 a3be 819d 73be 8bec 413d
00000180: 4dd6 733e f1c4 603e 3d54 60be 7e46 d83e
00000190: 9add bf3e 42c2 4b3e ae12 b8be 5b55 b53e
000001a0: 0957 8e3e 7772 813d 5f70 5e3e e9be 8ebd
000001b0: fcea ab3d 40d7 313e 03e4 af3e aacb 79be
000001c0: c762 7cbb 29d2 9dbe b28f 6d3e e755 cd3e
000001d0: 4b7b ddbd a648 25be ca73 c7be 1226 0b3d
000001e0: 7019 04be f5e9 933e 9f89 d63d e79b 4fbd
000001f0: 6371 e2bd dc8d c33d 4cda b4be ca31 e33c
00000200: 682b aabe 8567 5c3e acb5 e13e 95f0 1b3d
00000210: 4829 68bd 8b2e 1e3e 924f 433e 6a8c 9a3e
00000220: 428f 49bd dced b8be 4f57 2bbe 6bc1 d83d
00000230: 3c50 3e3e e686 53be c0a1 3bbd f89a 0cbe
00000240: ba01 663e 98d7 eb3d 5143 b8be e1b7 b83e
00000250: 4990 4cbe f0a4 ba3e e74b 94ba 1121 9d3e
00000260: 0536 d3bd c957 dd3d 0f42 2abe cac9 8abd
00000270: 6565 e53d b377 04be 565e 533d a3a6 e13b
00000280: 9e42 403c b65e 5f3e 9020 e7bc 1945 723e
00000290: d17d 8fbd 5e0f 003b 1324 063e 0718 2e3d
000002a0: 6857 bbbd 2a94 303e a480 b3bb fa67 27be
000002b0: 9916 d03d 625d 3dbe 8d7b 15be db1b f13d
000002c0: 8edc 33bb a4bc 9a3e b768 9abd 735d b3bd
000002d0: b6eb babd 9c0e 4b3e de33 52be 93f3 f93d
000002e0: fee7 3d3e d39c ae3d 3b51 92bd 7e3b a23b
000002f0: a381 a1bd 5340 b73d b7fd 10be 3882 42be
00000300: e800 98bd 3d5c ab3d f028 e43d dbd0 893d
00000310: 7c7c e03d 5204 7bbc 0d7f 8abc 43a5 35be
00000320: fe15 843c 450b ac3d 422b dfbb c8c7 a0bd
00000330: af95 33bd 71a8 26be 8855 ae3c 9f08 063e
00000340: b214 c23d a091 69be 1c38 b93e 25dc bdbb
00000350: 3e8e 34bc a804 823e f439 0b3e 0432 c4bc
00000360: f16e bc3e 74c2 333f 935f de3d edb4 45bd
00000370: 1dff 8c3e a3ad cb3c 1f7e 093e e258 0d3c
00000380: 21e8 3cbc d28e b2be 0df2 483c 99dc 783e
00000390: f59d 4e3d cef9 cebd d179 463c f531 23be
000003a0: a338 9bbe d2e0 743d 46b8 28be 432b b83c
000003b0: 5673 c63e cd6e d7bd 4cf4 923e e0e8 a8be
000003c0: 5120 8f3e 2e7e b9be 3184 c5be 2d35 a23e
000003d0: d1ce 963e cf69 3cbe 2d36 633e c56c 393e
000003e0: 38b2 e63e 7105 98be c5f2 79bd 02e0 87be
000003f0: def2 a23e f8d6 d7be c0cb 3fbe 5b06 a2be

2.bias f4 [30]
0.094084255 -0.54287136 0.09411113 -0.45623407 0.27478957 -0.21115004 -0.42960224 -0.35091424
0.11464226 0.33546445 -0.2631918 0.14716545 -0.18081602 -0.07261942 -0.10978648 -0.13457777
-0.034413826 0.15177853 0.43111953 0.57418185 0.31445307 -0.09257739 -0.4334148 -0.22671342
0.24784963 0.21736331 0.4759117 -0.11938453 0.23076196 0.21858443
00000000: 3faf c03d 9ef9 0abf 56bd c03d 8397 e9be
00000010: 38b1 8c3e b737 58be d3f4 dbbe 08ab b3be
00000020: 90c9 ea3d ffc1 ab3e 13c1 86be 8ab2 163e
00000030: d627 39be 7eb9 94bd bcd7 e0bd c1ce 09be
00000040: 83f5 0cbd d56b 1b3e b3bb dc3e 95fd 123f
00000050: feff a03e 3799 bdbd 8be8 ddbe 9027 68be
00000060: 4bcc 7d3e 7d94 5e3e b3aa f33e e07f f4bd
00000070: dd4c 6c3e 99d4 5f3e
