model_summon/ReconstructORI/Checkpoint_SEED42_LR0.001_HD30_HL2_Epoch100_WithPhysics0_WithBatch0.pth (torch, 101441 bytes, 80 tensors)

0.weight f4 [30, 2]
0	0x3ef5e72f	0.48027942
1	0x3f23e5bc	0.6402242
2	0xbe7bd462	-0.24592736
3	0x3f3bab1a	0.73307955
4	0xbe3abac9	-0.18235315
5	0x3e368f49	0.17828096
6	0xbec7f699	-0.39055327
7	0x3ee8b833	0.45453033
8	0x3f0b083a	0.5430943
9	0xbf106abf	-0.5641288
10	0x3f151f4b	0.58250874
11	0x3e369bb9	0.17832841
12	0x3f16e56a	0.5894381
13	0x3d4713cb	0.04860286
14	0x3e7d9eb6	0.24767575
15	0xbdfd9112	-0.123811856
16	0x3f19e598	0.6011596
17	0x3e0f8b08	0.1401788
18	0xbeac4f8c	-0.3365444
19	0x3e1f2d4e	0.15544626
20	0xbe8716c7	-0.26384565
21	0xbe0d24ce	-0.13783571
22	0xbe4c4d6e	-0.19951412
23	0x3f0115fb	0.50424165
24	0xbf1b9cee	-0.6078633
25	0xbebaa164	-0.36451256
26	0xbe9c1966	-0.30488127
27	0xbecea2ca	-0.40358573
28	0x3dfdf006	0.123992965
29	0xbf2c3b54	-0.6727803
30	0x3f238130	0.63869
31	0xbf1c078e	-0.6094903
32	0x3f116d45	0.5680736
33	0x3e32f114	0.17474777
34	0xbe0bc529	-0.1364943
35	0x3eef7f88	0.46776986
36	0x3e4c6037	0.19958578
37	0x3f1b25d3	0.6060459
38	0x3e1a9e6e	0.15099499
39	0xbe926eb3	-0.28600082
40	0x3dc3d9a3	0.09562995
41	0xbe6743ae	-0.22584412
42	0x3e8e43ce	0.27786106
43	0x3f1c7880	0.6112137
44	0x3ec544fe	0.385292
45	0xbea51373	-0.322414
46	0x3ef2c5ea	0.4741662
47	0x3e3658b1	0.1780727
48	0x3ea9a21b	0.3313149
49	0xbed8a685	-0.42314544
50	0xbf293ce3	-0.6610853
51	0xbea33d5e	-0.31882757
52	0xbf184135	-0.594745
53	0x3f0b80e6	0.5449356
54	0x3e7bc5e5	0.2458721
55	0x3ea43013	0.32067928
56	0x3e835e17	0.25657722
57	0xbd146a90	-0.03623444
58	0x3efc70df	0.49304864
59	0xbf0065b6	-0.501552

0.bias f4 [30]
0	0xbdaab6ee	-0.08335672
1	0xbf07d909	-0.53065544
2	0x3e0befbb	0.13665669
3	0xbeb79b23	-0.35860547
4	0x3ead7be8	0.33883595
5	0xbdb71f7d	-0.08941553
6	0x3f081619	0.5315872
7	0xbeeff76d	-0.46868458
8	0xbeb57f03	-0.35448465
9	0xbef67d59	-0.48142508
10	0x3f2e4e3e	0.6808814
11	0x3e03cd4b	0.12871282
12	0x3f293902	0.6610261
13	0xbf04684c	-0.51721644
14	0xbf3771cd	-0.7165802
15	0xbef20144	-0.4726659
16	0xbef25e7d	-0.47337714
17	0x3e506da0	0.20354319
18	0x3e3013f8	0.17195117
19	0x3f0e9617	0.5569777
20	0xbe981476	-0.2970311
21	0xbf033336	-0.51250017
22	0x3edec087	0.43506262
23	0xbe7a6659	-0.24453105
24	0x3ee99c62	0.45627123
25	0xbe801e1c	-0.25022972
26	0x3eaac3ea	0.33352596
27	0xbf0e861d	-0.5567339
28	0xbed1f96e	-0.41010612
29	0x3ea9cb92	0.33163124

2.weight f4 [30, 30]
0	0xbc166eb8	-0.009181671
1	0xbdae0713	-0.08497443
2	0x3d8508b8	0.064958036
3	0x3db65a9a	0.089039996
4	0xbdcab075	-0.09896938
5	0xbe19a35a	-0.1500372
6	0x3df5f576	0.120097086
7	0xbc9832b2	-0.01857886
8	0xbdf9928c	-0.12186155
9	0xbe4e2512	-0.20131329
10	0xbd2db7d5	-0.042411644
11	0x3a922cc0	0.0011152253
12	0x3cf7c025	0.030242989
13	0xbdb31fa3	-0.087462686
14	0x3d57967b	0.052633744
15	0xbda38153	-0.07983651
16	0xbe59ff9f	-0.21288918
17	0xbe15be29	-0.14623322
18	0xbe532efd	-0.20623393
19	0xbd9b0a6d	-0.07570348
20	0x3e6a9ec4	0.22912127
21	0xbc3940e7	-0.011306978
22	0x3db45fa0	0.088073015
23	0xbe66368d	-0.22481747
24	0xbdae4e25	-0.08510999
25	0xbc5d478a	-0.013505826
26	0xbc570b39	-0.013125234
27	0xbe56e085	-0.20984085
28	0xbd92bf8e	-0.071654424
29	0xbd9cdee3	-0.076597
30	0xbcd84b61	-0.026403131
31	0xbaa917e3	-0.0012900796
32	0x3c84120b	0.016121885
33	0xbdb4ca7d	-0.08827684
34	0xbe248cc0	-0.16069317
35	0xbe39a32d	-0.18128653
36	0xbc46ee30	-0.012141749
37	0xbe4c2146	-0.19934568
38	0x3d9a1f44	0.07525495
39	0xbd460122	-0.048340924
40	0x3e7117b4	0.23544198
41	0x3da57118	0.080782115
42	0xbd963144	-0.073336154
43	0x3dee3abe	0.11632298
44	0xbc6d58f2	-0.014486538
45	0xbdcf4e1b	-0.10122319
46	0xbe6ec23f	-0.23316287
47	0xbe28edf8	-0.16497028
48	0x3d4b4574	0.049626783
49	0xbcb6bbb8	-0.022306308
50	0x3d24f875	0.04027601
51	0xbe087c40	-0.13328648
52	0x3defaedc	0.11703274
53	0xbe5a9bcd	-0.21348496
54	0xbd8382e0	-0.06421447
55	0x3db57d5d	0.08861802
56	0x3e009319	0.12556113
57	0x3dc01814	0.093795925
58	0x3dcefad3	0.10106435
59	0xbe3674f7	-0.17818056
60	0xbbc9ffe6	-0.0061645387
61	0xbe1be168	-0.15222704
62	0xbd91ab93	-0.07112803
63	0xbe50e7d5	-0.20400937
64	0x3e6d123d	0.23151489
65	0xbd996b0d	-0.074911214
66	0x3e40ad73	0.18816166
67	0x3dda144f	0.10648405
68	0x3de9e89b	0.11421319
69	0xbe2f9f65	-0.17150648
70	0x3e0636ee	0.13106892
71	0xbbc0ab00	-0.00587976
72	0xbd11b954	-0.035577133
73	0xbdf7b97c	-0.12095925
74	0x3dc9b8de	0.09849714
75	0xbb086bc8	-0.0020816196
76	0xbcf06537	-0.029345138
77	0x3de753dd	0.112952925
78	0xbbd31f50	-0.0064429417
79	0xbc0d876b	-0.008638243
80	0xbd4862bb	-0.04892228
81	0xbd977a2a	-0.07396348
82	0x3e3013f0	0.17195106
83	0x3c32cdea	0.010913352
84	0xbd091bb1	-0.033473674
85	0xbe0627a5	-0.1310106
86	0xbe2dae8f	-0.1696112
87	0xbd20d5f9	-0.03926656
88	0x3e3fa0c8	0.18713677
89	0xbddb8fbe	-0.10720776
90	0x3d8b77ec	0.06809983
91	0x3e00fb0b	0.12595765
92	0x3d62b74b	0.055350583
93	0xbd2d900a	-0.042373694
94	0x3d8fa3aa	0.07013638
95	0x3e1b3c7d	0.15159793
96	0x3e0c09f7	0.13675676
97	0xbd76b13c	-0.060227618
98	0x3bd7d4de	0.006586655
99	0x3ca0ea88	0.019643083
100	0x3d837881	0.06419469
101	0xbd087bc4	-0.033321157
102	0x3db90d9a	0.090357974
103	0x3e066310	0.13123727
104	0xbcff4637	-0.03116141
105	0xbd74de23	-0.05978216
106	0x3d2e568d	0.04256301
107	0x3c1ed47d	0.009694216
108	0x3d840006	0.06445317
109	0x3d232574	0.03983064
110	0xbe435697	-0.19076
111	0xbd17593d	-0.03695034
112	0x3e0d53af	0.13801454
113	0x3de6dcb3	0.11272564
114	0xbd020fc1	-0.031753305
115	0xbe1cb4e5	-0.15303381
116	0xbdba19c6	-0.09086947
117	0xbe1010da	-0.14068928
118	0xbdbd3cf5	-0.09240142
119	0x3d1be3d2	0.038059063
120	0x3dc45f90	0.095885396
121	0x3e24d73a	0.16097727
122	0xbdef4883	-0.116837524
123	0xbd133ab8	-0.03594467
124	0xbdc46b8f	-0.09590828
125	0x3e07c2a5	0.13257845
126	0xbd0fe6c8	-0.0351322
127	0xbda39748	-0.07987839
128	0x3d096167	0.033540156
129	0x3b9e8363	0.00483744
130	0xbdb12341	-0.08649302
131	0x3e341702	0.17586902
132	0xbd201876	-0.039085828
133	0xbd6ad5c6	-0.057332776
134	0xbe1c0304	-0.15235525
135	0x3dee26a2	0.116284624
136	0x3dc53dc9	0.09630925
137	0x3dd7a7cd	0.10530052
138	0xbdd71cf7	-0.105035715
139	0xbe736165	-0.23767622
140	0xbe3c275e	-0.18374392
141	0x3e068cd3	0.13139658
142	0x3c696cd3	0.014247137
143	0x3de3d478	0.111245096
144	0x3c837749	0.01604809
145	0x3db08d00	0.086206436
146	0x3c83dcc3	0.016096478
147	0xbe25d3f1	-0.1619413
148	0xbe43883f	-0.19094943
149	0xbe73d15e	-0.23810336
150	0x3dd6c517	0.10486811
151	0xbd518c43	-0.051159155
152	0xb93f2a8c	-0.0001823103
153	0xbd89672e	-0.06709133
154	0xbd9029fd	-0.07039259
155	0xbe1e6b85	-0.15470703
156	0xbdf14d69	-0.11782343
157	0x3caec394	0.021333493
158	0xbdf9eac8	-0.12202984
159	0x3e1ced52	0.15324906
160	0x3d1d7f9a	0.03845177
161	0xbdd7f18a	-0.10544117
162	0xbca2a73d	-0.019855136
163	0xbe007820	-0.12545824
164	0xbda8cfed	-0.08242784
165	0xbe405139	-0.18780984
166	0x3d3f5bdb	0.04671846
167	0xbdc847db	-0.0977933
168	0x3dfe7c9a	0.124261096
169	0x3d3d6a12	0.046243735
170	0x3dc2e53c	0.09516379
171	0xbde9a5e6	-0.11408596
172	0x3db7c6ce	0.08973466
173	0xbdd3e522	-0.10346438
174	0x3ce1b493	0.027551925
175	0x3e1b2acd	0.15153046
176	0xbbf476e2	-0.007460461
177	0x3c247a65	0.010038947
178	0xbdc5cefe	-0.09658621
179	0xbe421e59	-0.18956889
180	0x3e087796	0.13326868
181	0xbe0993db	-0.13435309
182	0x3e1bb180	0.1520443
183	0x3e35aed9	0.1774248
184	0x3e09300f	0.13397239
185	0x3c645d3a	0.013938243
186	0xbda98d0f	-0.08278858
187	0x3b883bb8	0.0041575097
188	0x3e12de29	0.1434256
189	0xbe147790	-0.14498734
190	0xbd0efb93	-0.03490789
191	0xbd964503	-0.07337382
192	0xbd421982	-0.047387607
193	0xbe0ca4b2	-0.13734701
194	0xbddc9c8e	-0.10772048
195	0xbda0ca23	-0.078510545
196	0xbe08471b	-0.13308375
197	0x3e3f64dd	0.1869082
198	0x3e48f115	0.19623215
199	0xbd93c19c	-0.072146624
200	0xbd7b502c	-0.061355755
201	0xbd0307c8	-0.031989843
202	0xbe535019	-0.20636024
203	0xbe05890d	-0.13040562
204	0x3cc601bb	0.024170747
205	0xbe1ddba8	-0.15415823
206	0xbdc0bf99	-0.09411544
207	0x3cb9c6d8	0.022677824
208	0xbdd1a182	-0.10235883
209	0xbdc79643	-0.09745457
210	0x3d2aa84c	0.041664407
211	0x3b07bec4	0.002071307
212	0xbcdc6a47	-0.026906146
213	0xbd53178c	-0.051536128
214	0xbe3cb149	-0.18427004
215	0x3e3ee4c5	0.18641956
216	0xbcbed941	-0.023296954
217	0x3bf7d9ab	0.00756379
218	0xbd3c13cf	-0.04591733
219	0x3d2a73a7	0.0416142
220	0x3e5c1224	0.21491295
221	0x3de8a158	0.11358899
222	0xbe32f2c1	-0.17475416
223	0x3d02bafd	0.031916607
224	0x3e15da61	0.14634086
225	0x3d050674	0.032476857
226	0x3e0aaae3	0.1354175
227	0x3e5787d6	0.21047911
228	0x3bd0413b	0.0063554323
229	0x3bf7c2ae	0.0075610494
230	0xbe28537c	-0.16438097
231	0xbb899a86	-0.004199329
232	0x3dcb8cc7	0.099389605
233	0x3df5289e	0.11970638
234	0xbe1d1344	-0.1533938
235	0xbe3f19f9	-0.18662252
236	0xbdd7c7b3	-0.105361365
237	0xbe21c27a	-0.15796843
238	0xbe4bb1c2	-0.19892028
239	0xbda419fd	-0.08012769
240	0x3dc259bf	0.09489774
241	0xbc8c4298	-0.017121598
242	0xbe2a0492	-0.16603306
243	0xbe3f0001	-0.18652345
244	0x3e04232e	0.12904045
245	0xbd9459e3	-0.07243707
246	0x3c4af861	0.01238832
247	0x3de55304	0.111974746
248	0xbcde3b6d	-0.027127946
249	0xbd7de33f	-0.061984297
250	0xbd9e6d5e	-0.07735704
251	0xbd86a4af	-0.0657438
252	0xbdfff9b2	-0.124987975
253	0xbe08e6ad	-0.13369246
254	0xbe1000a0	-0.14062738
255	0xbdc15fda	-0.0944211

2.bias f4 [30]
0	0xbd6f0df4	-0.058362916
1	0x3e1a9f49	0.15099825
2	0xbd31dfe2	-0.043426402
3	0xbdb7f0dd	-0.08981488
4	0x3e1b1aaf	0.15146898
5	0xbcf11df4	-0.029433228
6	0x3d54cab3	0.05195112
7	0x3dc687d1	0.09693874
8	0xbd3aebdd	-0.045635093
9	0xbe3d3c33	-0.18479995
10	0x3e1e5836	0.15463337
11	0xbdef664a	-0.11689432
12	0xbe18c980	-0.14920616
13	0xbc81d8bc	-0.015850417
14	0xbd290403	-0.04126359
15	0xbd15dfad	-0.036590267
16	0x3c892201	0.016739847
17	0x3ced88e1	0.028995933
18	0xbc01ece9	-0.007930019
19	0x3ce33f3d	0.027740115
20	0xbc48ecbb	-0.012263472
21	0xbe0a02c2	-0.13477615
22	0xbe160843	-0.14651589
23	0xbda2c56c	-0.079478115
24	0x3d41f3a5	0.0473515
25	0x3d483d04	0.048886314
26	0xbcbcc578	-0.02304338
27	0x3d3f92df	0.046770927
28	0x3e296ad6	0.16544661
29	0x3e2eedca	0.17082897

4.weight f4 [5, 30]
0	0xbdfc4cda	-0.12319346
1	0x3c7a1280	0.0152632
2	0xbe717695	-0.23580392
3	0xbdff1c7e	-0.12456606
4	0x3e36a5c2	0.17836669
5	0x3b51bde5	0.0032004055
6	0x3e1a59ed	0.15073366
7	0xbd21f4f8	-0.03954026
8	0xbd631a21	-0.05544484
9	0xbe4de2f8	-0.20106113
10	0x3e33dda0	0.17565012
11	0xbe1e8b74	-0.15482885
12	0xbdf3461f	-0.11878609
13	0xbe6fb05b	-0.23407118
14	0xbd2fe3e1	-0.04294193
15	0x3e820f82	0.25402457
16	0x3ca99394	0.020700254
17	0xbe297aae	-0.16550705
18	0x3cd0ae86	0.025473844
19	0xbdb1be16	-0.08678834
20	0xbdf23405	-0.11826328
21	0x3d9c5383	0.07633116
22	0xbd88b88e	-0.06675826
23	0x3d9feaac	0.07808432
24	0x3aea45c7	0.0017873578
25	0xbe2e502f	-0.17022775
26	0x3d0fec6e	0.035137586
27	0x3e171af6	0.14756379
28	0xbb73dabe	-0.0037209238
29	0xb73c9a23	-1.1241561e-05
30	0x3e821c9a	0.25412446
31	0x3d21497e	0.03937673
32	0xbe50a2f3	-0.2037466
33	0xbe157eaa	-0.145991
34	0x3e10915f	0.14117955
35	0x3d48bd43	0.04900862
36	0xbd9fe4d6	-0.07807319
37	0xbe01c4b0	-0.12672687
38	0xbdfb92b1	-0.122838385
39	0xbe5295f6	-0.20565018
40	0xbe006887	-0.12539874
41	0x3d5dab24	0.05411829
42	0x3e480b14	0.19535476
43	0x3e6c8681	0.23098184
44	0xbe4e15d3	-0.20125513
45	0x3da8d1ac	0.08243117
46	0xbd95ccd3	-0.07314458
47	0x3e22192c	0.15829915
48	0x3e445502	0.19173053
49	0x3e4735e9	0.19454159
50	0x3e513677	0.20430933
51	0x3e366a3a	0.1781396
52	0x3d6e0f17	0.05811986
53	0x3e1bbefe	0.15209576
54	0xbd5020a5	-0.050812382
55	0x3d7373f1	0.059436742
56	0x3b68b05e	0.0035505514
57	0xbd24ea38	-0.04026243
58	0xbe701360	-0.23444891
59	0xbdcfa76f	-0.10139357
60	0xbe258808	-0.16165173
61	0xbe03f37e	-0.12885854
62	0xbd83dd61	-0.06438709
63	0xbe25789e	-0.16159293
64	0x3d76cead	0.060255695
65	0x3e095f86	0.13415346
66	0x3e814b00	0.25252533
67	0x3e13e37c	0.14442247
68	0xbd5031c2	-0.050828703
69	0xbdbca499	-0.09211082
70	0x3d001797	0.031272497
71	0x3e3e434e	0.18580362
72	0xbe34cff9	-0.1765746
73	0x3d95a800	0.07307434
74	0x3dfa7933	0.12230148
75	0x3caaacd6	0.020834368
76	0xbe121d33	-0.14268951
77	0x3dbb4f30	0.09145963
78	0x3d5e4876	0.054268323
79	0x3d983285	0.07431511
80	0xbe372a99	-0.17887343
81	0x3d266751	0.040625874
82	0xbdf76c8b	-0.1208125
83	0x3e0ffc8c	0.14061183
84	0xbcfc1510	-0.030771762
85	0x3e1cfc60	0.15330648
86	0xbc8b5103	-0.017006403
87	0x3d8804d4	0.06641546
88	0x3bc02f77	0.0058650333
89	0x3e0288c3	0.12747483
90	0xbd391ec0	-0.04519534
91	0xbe34efce	-0.17669603
92	0xbdf76e0f	-0.12081539
93	0x3df0a66d	0.11750493
94	0xbd01dcc5	-0.031704683
95	0x3c50dec7	0.012748427
96	0xbda6585b	-0.08122321
97	0x3e52e4e6	0.2059513
98	0x3d56a89a	0.052406885
99	0xbc981c2b	-0.018568119
100	0xbe3ab43f	-0.18232821
101	0xbe1a1ea8	-0.15050757
102	0xbcd6fa9c	-0.026242547
103	0xbd90c531	-0.07068861
104	0x3dd8d39e	0.10587238
105	0xbe27feee	-0.16405842
106	0x3dab85ad	0.08375106
107	0x3e4876ba	0.1957654
108	0x3d171e89	0.036894355
109	0x3da5e003	0.080993675
110	0xbe2fb441	-0.17158605
111	0x3e59cf7f	0.2127056
112	0xbbece181	-0.0072290306
113	0xbe165434	-0.14680558
114	0x3e796c73	0.24357776
115	0xbdf9f867	-0.12205582
116	0x3c99ed29	0.018789845
117	0x3e26eb0d	0.16300602
118	0xbdc5c18b	-0.09656056
119	0xbdb3c902	-0.087785736
120	0xbcaa17d0	-0.020763308
121	0xbda4e6fc	-0.08051869
122	0x3db7e9ce	0.089801416
123	0xbe0b2e2b	-0.1359183
124	0xbd094b0e	-0.033518843
125	0xbd4ed617	-0.05049714
126	0xbe00f1a2	-0.12592176
127	0xbe5aa37b	-0.21351425
128	0x3e287e8e	0.16454527
129	0x3dd5c143	0.10437252
130	0xbe38a046	-0.1802989
131	0x3e46013e	0.19336411
132	0x3dcf399c	0.1011841
133	0x3d9d4baa	0.076804474
134	0xbd83017f	-0.0639677
135	0xbcc4437d	-0.023957962
136	0x3e5db3ee	0.21650669
137	0x3e23d365	0.1599861
138	0xbe02917d	-0.12750812
139	0x3e4d404d	0.2004406
140	0xbcdb8371	-0.026796075
141	0x3df2b920	0.11851716
142	0x3e390f87	0.1807233
143	0x3dfcf362	0.12351109
144	0xbe45b33a	-0.19306651
145	0x3e6686c0	0.2251234
146	0xbdf0a4ce	-0.11750184
147	0xbd1997fa	-0.03749845
148	0xbdb94fcf	-0.090484254
149	0xbdccc51f	-0.09998535

4.bias f4 [5]
0	0x3d8e6b3b	0.06954046
1	0x3d2563ca	0.04037837
2	0x3c93d7e0	0.018047273
3	0x3d6b3651	0.057424847
4	0x3dcbb55a	0.099466994

0.weight f4 [30, 2]
0	0x3ed7015a	0.4199322
1	0x3ec396ce	0.38200992
2	0x3eabc76e	0.3355059
3	0x3f1754ff	0.5911407
4	0xbdc77238	-0.097385824
5	0x3dc98f28	0.09841758
6	0x3de309f2	0.11085881
7	0xbf1abc84	-0.604439
8	0xbf134cda	-0.5753914
9	0xbbb97603	-0.00565982
10	0xbe91e732	-0.284967
11	0xbd6a413a	-0.05719111
12	0xbe2a8730	-0.16653132
13	0x3e2d6efa	0.16936865
14	0x3ed146b9	0.4087427
15	0xbe96773c	-0.29387844
16	0x3f15c441	0.58502585
17	0x3f11a16b	0.5688693
18	0xbf234252	-0.6377307
19	0xbf038834	-0.51379704
20	0xbf12d5a9	-0.5735727
21	0xbee403e4	-0.44534218
22	0xbea25670	-0.31706572
23	0xbd938588	-0.072032034
24	0xbe4df0c4	-0.20111376
25	0xbed2c5bf	-0.41166493
26	0xbe3091f6	-0.1724318
27	0xbe8fca9f	-0.28084275
28	0x3f3bf265	0.7341674
29	0xbe75865c	-0.23977035
30	0xbeeb0555	-0.45902506
31	0x3ead8a98	0.338948
32	0x3d401a1a	0.046899892
33	0x3f0d45ce	0.5518464
34	0x3ec21e96	0.3791396
35	0x3f334cfe	0.70039356
36	0xbf0c2747	-0.5474743
37	0x3edee25c	0.43532073
38	0x3f21daae	0.63224304
39	0xbeba1b9f	-0.36349198
40	0x3f095813	0.53650016
41	0x3f1b97aa	0.60778296
42	0xbc3d32c9	-0.011547753
43	0x3ea4c549	0.32181767
44	0xbea4347f	-0.320713
45	0xbf1bde5d	-0.60886174
46	0x3df1d5b6	0.1180834
47	0x3e4fbe2e	0.20287392
48	0xbf0c29bd	-0.5475119
49	0x3eca71af	0.3953986
50	0xbf0d04ad	-0.5508526
51	0x3f2bb5c8	0.6707425
52	0x3f1ac197	0.60451645
53	0x3e437f6c	0.19091576
54	0xbec63fe5	-0.38720623
55	0x3ebe4400	0.37161255
56	0x3e34a035	0.17639239
57	0x3e5d9f1f	0.21642731
58	0x3e09ac1e	0.13444564
59	0x3f223209	0.633576

0.bias f4 [30]
0	0xbe9c33de	-0.30508322
1	0xbdce4fb7	-0.10073798
2	0x3e936944	0.2879125
3	0xbbbbc5bc	-0.005730359
4	0x3f1cc1c2	0.6123315
5	0xbecf2b72	-0.40462834
6	0x3d963d28	0.073358834
7	0x3d61dab8	0.055140227
8	0xbe8b3d07	-0.27194998
9	0x3f0f06af	0.55869573
10	0x3e4dc4b4	0.20094568
11	0xbf1b0a5b	-0.60562676
12	0xbd24e36e	-0.040255956
13	0xbe994f52	-0.2994333
14	0x3de5c6b6	0.11219542
15	0x3bc701c0	0.0060732067
16	0xbf2653ef	-0.6497182
17	0xbd435b03	-0.047694217
18	0xbd976852	-0.073929444
19	0xbe30a187	-0.17249118
20	0x3f2159da	0.6302773
21	0xbe345f09	-0.17614378
22	0x3ee5bd81	0.44871143
23	0x3de8527a	0.11343856
24	0xbf0bb1db	-0.5456826
25	0x3e8f57d5	0.27996698
26	0x3f25b89e	0.6473483
27	0xbec0a043	-0.3762227
28	0xbed402b4	-0.41408312
29	0x3f211cba	0.6293446

2.weight f4 [30, 30]
0	0x3dde504f	0.108551614
1	0xbe0b4228	-0.13599455
2	0x3dd9c924	0.10634068
3	0x3b32388e	0.0027194354
4	0xbde3bedc	-0.11120388
5	0x3d43f9cc	0.047845647
6	0x3d368645	0.044561643
7	0xbdaeca39	-0.08534665
8	0x3cd47dbd	0.025938863
9	0xbdec836d	-0.11548505
10	0x3e291b46	0.1651431
11	0x3e3a51b1	0.18195225
12	0x3e09f5af	0.13472627
13	0x3d805012	0.06265272
14	0xbcb8cda9	-0.022559004
15	0xbdfcbbdd	-0.123405196
16	0xbd87b96e	-0.06627165
17	0xbd531e26	-0.051542424
18	0xbddbef97	-0.107390575
19	0xbe0f527a	-0.13996306
20	0x3dbb92da	0.09158869
21	0x3dc1ba32	0.09459342
22	0xbe098b06	-0.1343194
23	0x3cd4c174	0.025971152
24	0x3dd7229e	0.105046496
25	0x3e179f3a	0.14806834
26	0x3d99621f	0.07489418
27	0x3e39adaa	0.18132654
28	0xbdcd50c5	-0.10025171
29	0x3dbb8ff3	0.091583155
30	0x3dd42239	0.1035809
31	0xbe63cdee	-0.22246525
32	0xbe795d11	-0.24351908
33	0x3dbe5431	0.09293402
34	0x3d9748b4	0.07386914
35	0xbd7aa66f	-0.06119388
36	0xbd78b04f	-0.060715016
37	0x3dab6ecb	0.083707415
38	0x3972ee96	0.00023167799
39	0xbd53f4e0	-0.051747203
40	0x3e1632fd	0.14667888
41	0x3e2c1ecd	0.16808625
42	0xbd991507	-0.07474714
43	0x3d58aafe	0.052897446
44	0x3ddc0706	0.10743527
45	0xbcb86e3f	-0.022513507
46	0x3e040e20	0.12896013
47	0x3b502d0d	0.0031765134
48	0xbde0dafc	-0.10979268
49	0x3e80fdec	0.25193727
50	0xbde932f4	-0.11386672
51	0xbdd3ea60	-0.10347438
52	0x3d73773d	0.059439886
53	0xbe415e2a	-0.18883577
54	0xbcfbb335	-0.030725101
55	0xbe4a56c2	-0.19759658
56	0xbbde7335	-0.006788636
57	0xbd1c9e22	-0.038236745
58	0xbc8cddde	-0.017195638
59	0xbe5e9dde	-0.21739909
60	0xbe59ee85	-0.21282394
61	0x3d256875	0.04038282
62	0x3dce4d57	0.10073345
63	0xbdeeb9d6	-0.11656539
64	0x3b7f3f20	0.0038947538
65	0xbdc8bf48	-0.09802109
66	0xbd3d5e4c	-0.046232507
67	0x3e67e525	0.22646005
68	0x3dc9f6c0	0.09861517
69	0xbdc19077	-0.094513826
70	0x3e1b2c71	0.15153672
71	0x3e0d12d2	0.1377671
72	0x3d374ef4	0.04475303
73	0x3e62bd95	0.22142632
74	0xbc2df0d3	-0.010616499
75	0xbdc6cc2f	-0.09706914
76	0xbe01e12c	-0.12683553
77	0xbc90e80f	-0.01768878
78	0xb8803d87	-6.114976e-05
79	0x3d8cf3fd	0.068824746
80	0xbe15d34a	-0.14631382
81	0xbe008ef3	-0.12554531
82	0x3dd04ed5	0.10171286
83	0xbe50d9d0	-0.20395589
84	0xbd97ede5	-0.07418422
85	0xbd63c424	-0.055606976
86	0xbddc086c	-0.10743794
87	0x3ca762f9	0.020432936
88	0xbcc8867e	-0.024478193
89	0x3d9cfefd	0.07665823
90	0x3d4e3a21	0.050348405
91	0xbd49d7b8	-0.04927799
92	0x3d828a31	0.06374014
93	0xbc6e9fff	-0.014564513
94	0xbddef0cf	-0.10885774
95	0xbe1870e0	-0.14886808
96	0x3d2be38b	0.04196505
97	0xbe0e806c	-0.13916177
98	0x3debf377	0.115210466
99	0x3ca32e36	0.019919496
100	0xbe674a90	-0.22587037
101	0xbc60890d	-0.01370455
102	0xbe4b0f70	-0.19830108
103	0x3dc5e96e	0.09663664
104	0x3e51b15b	0.20477812
105	0xbc91b2c3	-0.017785436
106	0x3e615621	0.22005512
107	0x3b72d196	0.0037051192
108	0xbe5608b9	-0.20901765
109	0x3db351ea	0.08755858
110	0x3de317fb	0.11088558
111	0x3e75420d	0.23950978
112	0xbd82ddf6	-0.06389992
113	0x3e4c27c2	0.19937041
114	0x3d27d1fc	0.04097174
115	0x3e27a8cf	0.16372989
116	0xbe19e444	-0.15028483
117	0x3dcd6785	0.100295104
118	0xbdaf5c1a	-0.08562489
119	0x3e6984ad	0.22804518
120	0xbd5863fc	-0.052829728
121	0xbe5227c2	-0.20522979
122	0x3c017389	0.007901081
123	0x3b2242de	0.0024759094
124	0xbe4a029c	-0.19727558
125	0xbc9b8889	-0.018986003
126	0xbcc64427	-0.02420242
127	0x3e288452	0.16456726
128	0xbdcf9343	-0.1013551
129	0x3e208849	0.15676989
130	0x3d8cc1f2	0.0687293
131	0x3d51f971	0.051263276
132	0x3da10e79	0.078640886
133	0xbd9cff02	-0.076658264
134	0xbe5b452e	-0.21413109
135	0xbdbb3c7c	-0.09142396
136	0xbe44c7ea	-0.19216886
137	0xbe038667	-0.12844239
138	0xbcb4bc80	-0.02206254
139	0xbda10373	-0.07861986
140	0xbdedcfd8	-0.11611909
141	0xbd8fff24	-0.07031086
142	0x3c9e5dd9	0.01933186
143	0xbe1315a0	-0.14363718
144	0x3e009bd9	0.12559451
145	0xbd9688af	-0.07350289
146	0x3c2beb56	0.01049312
147	0x3d2500e7	0.040284064
148	0xbe0b3ef8	-0.1359824
149	0xbde12f12	-0.10995306
150	0xbd865762	-0.06559636
151	0xbe26a6fc	-0.16274637
152	0x3c634b48	0.013872929
153	0x3d07ebb5	0.033183772
154	0x3d982b4b	0.074301325
155	0x3d3b2eae	0.045698814
156	0x3dbfe4d7	0.093698196
157	0x3d2c276c	0.042029783
158	0xbe446449	-0.19178881
159	0x3e1e121e	0.15436599
160	0xbd89226b	-0.06696018
161	0xbce0792c	-0.02740153
162	0xbc7cb20a	-0.015423307
163	0xbd37a3ab	-0.04483382
164	0xbcb4a7f4	-0.022052743
165	0x3df16988	0.117877066
166	0x3d42876b	0.047492426
167	0x3b80ddd0	0.003932692
168	0x3e0072cc	0.12543792
169	0xbde5192b	-0.11186441
170	0x3ca84efa	0.020545471
171	0x3d88d47a	0.06681152
172	0x3e37bd7d	0.17943378
173	0xbe35f9bf	-0.17771052
174	0x3dcca66c	0.0999268
175	0xbe277860	-0.16354513
176	0xbc4b7975	-0.012419094
177	0xbd86d418	-0.065834224
178	0xbe7971e9	-0.2435986
179	0xbe522eb4	-0.20525628
180	0xbe219c01	-0.15782167
181	0x3d581b4a	0.0527604
182	0x3e0870bc	0.13324255
183	0xbe15a97e	-0.14615437
184	0xbbc44a0b	-0.005990272
185	0x3cd23443	0.025659686
186	0xbd58056c	-0.052739546
187	0x3cdd25b7	0.026995523
188	0x3e03f549	0.12886538
189	0x3d980ac1	0.07423926
190	0xbdc92a52	-0.09822525
191	0x3d4636dc	0.04839216
192	0x3dc2126c	0.0947617
193	0x3e2ae84f	0.16690181
194	0xbe1d2734	-0.15346986
195	0xbd9d6fcb	-0.076873384
196	0x3d934fcb	0.07192954
197	0xbc9938bd	-0.018703813
198	0x3bc4cb7d	0.006005703
199	0xbe20e60f	-0.1571276
200	0xbdec5acd	-0.115407564
201	0x3e0088c5	0.12552173
202	0xbb6d7b98	-0.0036236998
203	0x3ddb0f81	0.106963165
204	0x3e86d8f1	0.26337388
205	0x3cab1b74	0.020887114
206	0x3c9262b3	0.01786933
207	0x3dc95ede	0.098325476
208	0x3da6b24b	0.081394754
209	0xbe455000	-0.19268799
210	0x3de43db9	0.11144585
211	0x3c11b6ff	0.008893727
212	0x3e0718ee	0.13193104
213	0xbd248ad2	-0.040171452
214	0xbc195f0d	-0.009361041
215	0xbd82e140	-0.06390619
216	0x3e139f14	0.14416152
217	0xbe2c7731	-0.16842343
218	0xbd9ca24b	-0.076481424
219	0xbda8c1e4	-0.08240107
220	0xbdd760e0	-0.10516524
221	0x3ce04df2	0.027380917
222	0x3daad725	0.08341817
223	0xbd7295f4	-0.059225038
224	0x3e05cd43	0.13066582
225	0xbd03c767	-0.032172587
226	0xbd9a4310	-0.075323224
227	0xbd3130d9	-0.043259475
228	0xbdb1273d	-0.08650062
229	0xbe34e61d	-0.17665906
230	0xbe02f0ea	-0.12787214
231	0xbe00db3e	-0.12583634
232	0x3c3098cf	0.01077862
233	0x3e1a9f90	0.15099931
234	0x3e2ec954	0.17068988
235	0x3e51ed3f	0.20500658
236	0x3ccc4986	0.024937402
237	0x3d5eb653	0.054373097
238	0xbd9cfceb	-0.07665428
239	0x3de9b98e	0.11412345
240	0xbe0cd387	-0.13752566
241	0x3e007cf3	0.12547664
242	0x3dbe9e14	0.09307495
243	0x3c5fd413	0.013661402
244	0x3e24dda8	0.1610018
245	0xbe06919d	-0.13141485
246	0x3e567d28	0.20946181
247	0x3d13e854	0.036110237
248	0x3e213c03	0.15745549
249	0xbc5d6b93	-0.013514417
250	0x3d9df338	0.07712406
251	0x3d93ceae	0.072171554
252	0x3d291ee4	0.041289225
253	0x3dc49e3d	0.09600494
254	0xbdb513e5	-0.08841685
255	0x3e2f484b	0.17117421

2.bias f4 [30]
0	0x3c4bd99b	0.012442018
1	0xbe341c39	-0.17588891
2	0xbdd6afbc	-0.104827374
3	0x3d5d4a7e	0.05402612
4	0x3d87ca55	0.06630389
5	0x3d9c80f2	0.07641782
6	0x3c6115f6	0.013738146
7	0xbdee66c2	-0.11640693
8	0xbcc59567	-0.024119092
9	0x3e32961b	0.17440073
10	0xbb896798	-0.0041932575
11	0x3d07c080	0.033142567
12	0xbc80b73f	-0.015712379
13	0xbc8c999f	-0.017163096
14	0x3e2ddf97	0.16979824
15	0xbdcb659b	-0.09931489
16	0x3d538d90	0.051648676
17	0xbc2d359d	-0.010571864
18	0xbe4d073b	-0.2002229
19	0x3dc16ec0	0.09444952
20	0x3a248b0d	0.00062768237
21	0xbe122e94	-0.1427558
22	0x3d1b41a5	0.0379044
23	0xbe1b33f9	-0.15156545
24	0xbe6ec9fe	-0.23319241
25	0xbe0f5bf9	-0.13999929
26	0xbdffa356	-0.12482326
27	0xbab11132	-0.0013509153
28	0xbd1a6a2c	-0.03769891
29	0x3dce8819	0.10084552

4.weight f4 [5, 30]
0	0xbe4f27c5	-0.20230015
1	0x3db91c6b	0.090386234
2	0x3d964805	0.073379554
3	0xbc3e050d	-0.011597884
4	0x3e7a0645	0.24416454
5	0x3ddc9333	0.107702635
6	0xbe232046	-0.1593028
7	0xbe389cfd	-0.18028636
8	0xbdf44df1	-0.11928929
9	0xbe21cd3c	-0.15800947
10	0x3dfd4d49	0.123682566
11	0x3d96a805	0.07356266
12	0x3dc8c6fc	0.09803578
13	0x3e1b0858	0.15139902
14	0xbd8ad0b2	-0.06778087
15	0x3d301aaf	0.042994197
16	0x3dd8ec94	0.10591999
17	0x3d452e3a	0.04813979
18	0x3e4ed283	0.20197491
19	0xbe645fa7	-0.22302113
20	0x3e2eb05e	0.17059466
21	0xbde7af57	-0.1131274
22	0xbe73d327	-0.23811017
23	0x3d51424e	0.051088624
24	0x3e206e73	0.15667133
25	0x3d3cf619	0.046133135
26	0xba01314f	-0.0004928307
27	0xbd540cb5	-0.05176993
28	0xbda2feb8	-0.0795874
29	0xbdb298bc	-0.08720538
30	0x3ccffe95	0.025389949
31	0xbdc59bd5	-0.09648863
32	0x3db6e116	0.089296505
33	0x3e39269d	0.18081136
34	0xbe57b722	-0.21065953
35	0xbd927c42	-0.071526065
36	0xbdc802cf	-0.09766161
37	0xbcb74f27	-0.02237661
38	0xbdd356bb	-0.10319277
39	0x3deec0d5	0.116578735
40	0xbe570ecb	-0.21001737
41	0x3dee284a	0.11628778
42	0x3e5c8eb5	0.21538813
43	0xbddc63be	-0.10761212
44	0xbe048981	-0.12943079
45	0xbd0689e9	-0.032846365
46	0xbdebef39	-0.115202375
47	0xbc77fa05	-0.015135293
48	0xbd52816e	-0.051392965
49	0x3e02de0d	0.12780018
50	0xbddc34bf	-0.10752248
51	0xbcad220f	-0.021134404
52	0xbd1c9817	-0.03823098
53	0x3e142bc8	0.14469826
54	0xbda67e26	-0.0812953
55	0xbe251154	-0.16119891
56	0xbd021a18	-0.031763166
57	0xbe210def	-0.15727971
58	0xbe369cfe	-0.17833325
59	0x3dd34df9	0.103176065
60	0x3cd7fe5b	0.026366403
61	0xbdad89f9	-0.08473582
62	0xbbf0d0a5	-0.007349091
63	0xbd239d02	-0.039944656
64	0xbdd48e0b	-0.10378655
65	0xbd851178	-0.064974725
66	0xbd3dbc24	-0.046322003
67	0x3ddb6c05	0.107139625
68	0xbdd98c1d	-0.106224276
69	0x3d73606a	0.05941812
70	0xbd15b61b	-0.036550622
71	0xbb9bf5f6	-0.0047595454
72	0xbe6a357f	-0.2287197
73	0x3de2584b	0.11051997
74	0x3e06b309	0.13154234
75	0xbd398553	-0.045293164
76	0x3e3f4e7a	0.1868228
77	0x3e0cbfb8	0.1374501
78	0x3d40d629	0.04707924
79	0x3d333d97	0.04375991
80	0xbde32f16	-0.11092965
81	0xbe0a3c3f	-0.13499545
82	0xbe3d3be3	-0.18479876
83	0x3c12f4cf	0.0089695
84	0xbe23e450	-0.16005063
85	0xbe4dd166	-0.2009941
86	0xbe142e9e	-0.14470908
87	0xbde99de1	-0.11407066
88	0xbd1a2129	-0.03762928
89	0x3d5db866	0.054130934
90	0xbd829cf4	-0.06377593
91	0x3d708e39	0.058729384
92	0xbe18847b	-0.14894287
93	0x3caaf4e0	0.020868719
94	0x3d984c58	0.074364364
95	0x3e482004	0.19543463
96	0xbc26c1ae	-0.010178013
97	0xbe0b5f1e	-0.13610503
98	0xbd1d56ac	-0.038412735
99	0x3dbf9fd5	0.093566574
100	0x3e2f568b	0.17122857
101	0x3cda7dbd	0.026671285
102	0xbd826728	-0.06367332
103	0xbe72234a	-0.23646274
104	0xbe04f1c8	-0.12982857
105	0xbd0c13d7	-0.03419861
106	0xbd85a491	-0.06525529
107	0xbe19e9fa	-0.15030661
108	0xbe31d29f	-0.17365502
109	0x3dc637b7	0.096785955
110	0xbe6f2a52	-0.23355988
111	0xbdafd806	-0.08586125
112	0xbda353ce	-0.07974969
113	0xbe0b2a78	-0.1359042
114	0x3dc8afe4	0.097991735
115	0x3e1d3a42	0.15354255
116	0x3ca3d99f	0.02000123
117	0x3d0ea222	0.03482259
118	0x3e23c0aa	0.15991464
119	0x3da116b1	0.07865656
120	0xbde907d2	-0.11378445
121	0xbe306268	-0.17225039
122	0xbe2eb5c4	-0.17061526
123	0x3d20c6fb	0.039252263
124	0xbe58d298	-0.21174085
125	0xbdb6778e	-0.08909522
126	0xbd5b1f50	-0.05349666
127	0x3e2f3f94	0.17114097
128	0x3e4c93e0	0.19978285
129	0x3e1c3b1e	0.15256926
130	0xbd3896b7	-0.045065608
131	0xbdd84c0e	-0.10561381
132	0x3dc84668	0.09779054
133	0xbe08a77a	-0.13345137
134	0xbd35b41b	-0.044361215
135	0xbd5f3984	-0.05449821
136	0xbda07af5	-0.07835952
137	0xbe618cef	-0.22026418
138	0x3e01137f	0.12605093
139	0x3e39f6a0	0.18160486
140	0xbd9e5fd5	-0.07733122
141	0x3d756fe3	0.059921157
142	0x3c9beea9	0.0190347
143	0xbd3950f9	-0.045243237
144	0xbd05564e	-0.03255301
145	0x3e3595b5	0.1773289
146	0x3d9fb8c5	0.07798914
147	0xbe1fac57	-0.15593086
148	0xbd2f9c75	-0.04287382
149	0x3dd9ce7a	0.106350854

4.bias f4 [5]
0	0x3b3c802c	0.002876292
1	0xbd8ff30f	-0.070287816
2	0x3cb3c79f	0.021945773
3	0xbcd2df27	-0.025741173
4	0xbd554e37	-0.052076545

0.weight f4 [30, 2]
0	0xbee26555	-0.44217935
1	0x3da5ea45	0.08101324
2	0x3de144eb	0.10999473
3	0x3f146153	0.57961005
4	0xbe0a1315	-0.13483842
5	0x3c90c509	0.017672079
6	0x3ec274f8	0.37979865
7	0x3ebb872d	0.36626568
8	0x3c3f1d94	0.011664767
9	0x3e9246df	0.28569695
10	0x3e0a86f4	0.13528043
11	0xbf345fc0	-0.704586
12	0x3d91dfde	0.071227774
13	0xbe3f8718	-0.18703878
14	0x3f117755	0.5682271
15	0x3f34c5e3	0.7061445
16	0x3d23301d	0.039840806
17	0x3f35c752	0.71007264
18	0xbeefcac3	-0.46834382
19	0x3f22c62a	0.63583624
20	0x3f2c3425	0.67267066
21	0xbdb9907e	-0.09060763
22	0xbf25fb42	-0.64836514
23	0xbe0adf9c	-0.13561863
24	0xbe9442f1	-0.28957322
25	0x3d1d8a33	0.038461875
26	0xbf36293a	-0.71156657
27	0x3dbc731b	0.09201642
28	0xbe8e5050	-0.2779565
29	0xbe1c6dfc	-0.1527633
30	0xbed7f9f4	-0.42182887
31	0xbe389d60	-0.18028784
32	0xbf1d2ca7	-0.6139626
33	0xbecfcff9	-0.40588358
34	0xbd0b585a	-0.034019805
35	0x3f09528b	0.53641576
36	0x3f1f8787	0.62316173
37	0xbf20b80d	-0.6278084
38	0x3eb63404	0.3558656
39	0xbee40ab3	-0.44539413
40	0xbf07d0d5	-0.5305303
41	0xbd602012	-0.054718085
42	0xbeaa4dda	-0.3326252
43	0xbf24beeb	-0.6435382
44	0xbf38a6a4	-0.72129273
45	0xbeebf081	-0.46081927
46	0x3f0ff124	0.56227326
47	0x3ebb0bdb	0.36532483
48	0xbeadae1c	-0.33921897
49	0xbee54f64	-0.44787133
50	0xbefb6e0a	-0.4910739
51	0xbedcbe9b	-0.4311417
52	0xbead6ca5	-0.33871952
53	0x3ed63623	0.41838178
54	0x3e96193b	0.29316124
55	0xbe784243	-0.24244027
56	0x3ecfcae9	0.40584496
57	0xbf07bf91	-0.5302668
58	0xbf2857aa	-0.65758765
59	0x3e51465f	0.20437

0.bias f4 [30]
0	0xbebe41d9	-0.37159613
1	0x3e127e84	0.14306074
2	0x3f151132	0.5822936
3	0xbeafe25a	-0.3435238
4	0xbef2fba6	-0.47457618
5	0x3ea5aa5a	0.3235653
6	0xbf20bcf1	-0.627883
7	0x3f1027f5	0.5631097
8	0xbebf5c24	-0.37374985
9	0x3e9b1abb	0.3029383
10	0xbf0d7c3a	-0.5526768
11	0xbee25725	-0.4420711
12	0x3d23e920	0.040017247
13	0x3e370fe2	0.17877153
14	0x3f157e81	0.58396155
15	0x3f0f458d	0.559655
16	0xbbfe4243	-0.007759364
17	0xbe356cfb	-0.17717354
18	0x3d4b3000	0.049606323
19	0xbe43a1c5	-0.19104679
20	0xbbdba563	-0.0067030652
21	0xbf1e70b8	-0.61890745
22	0xbf228b54	-0.6349385
23	0x3f0913e8	0.53546
24	0xbee7e63e	-0.45292848
25	0x3f178ee0	0.59202385
26	0x3d7068da	0.058693744
27	0x3e43426e	0.1906831
28	0x3f151649	0.5823713
29	0xbebaf688	-0.36516213

2.weight f4 [30, 30]
0	0xbbe1c6dd	-0.0068901614
1	0x3b2c1de2	0.0026262929
2	0x3d0a1669	0.03371278
3	0xbe605de9	-0.21910824
4	0x3cc124b5	0.023577074
5	0xbd8c4073	-0.0684823
6	0x3d611aab	0.054957073
7	0x3dd6a640	0.104809284
8	0xbd677006	-0.05650332
9	0xbd35a37f	-0.044345375
10	0x3cab3fb2	0.020904396
11	0x3e3ec489	0.1862966
12	0x3dddbe3a	0.108272985
13	0xbb30c818	-0.0026974734
14	0xbd776a4d	-0.06040411
15	0xbd7dad80	-0.06193304
16	0x3e357030	0.17718577
17	0x3dc436c6	0.0958076
18	0x3e18dfac	0.14929074
19	0xbdd8873b	-0.10572668
20	0x3e56bf53	0.20971422
21	0x3b8bb638	0.0042636655
22	0x3e22743e	0.15864655
23	0x3e07a5e2	0.13246873
24	0x3d3ca55c	0.046056136
25	0xbcf6ad66	-0.03011198
26	0x3e0abebe	0.13549325
27	0xbd827938	-0.06370777
28	0x3e1ba79b	0.15200655
29	0xbe41180a	-0.18856826
30	0xbd352d25	-0.044232506
31	0xbe426d32	-0.18986967
32	0xbde4f6fd	-0.11179922
33	0x3d271779	0.04079387
34	0xbe046a0f	-0.12931083
35	0xbdf43021	-0.11923242
36	0x3e259a17	0.16172062
37	0x3da25432	0.07926215
38	0xbd239daf	-0.0399453
39	0xbe29391a	-0.16525689
40	0xbce68e7e	-0.028144117
41	0xbd21f6e1	-0.039542083
42	0x3dc4883f	0.095962994
43	0xbdbc4627	-0.09193068
44	0xbd8c8abc	-0.06862399
45	0xbe0fb392	-0.14033344
46	0xbd8cfc25	-0.0688403
47	0x3d82848d	0.06372938
48	0x3e227f98	0.15868986
49	0x3d79cce0	0.0609864
50	0xbdc99c11	-0.098442204
51	0x3e4c0732	0.1992462
52	0x3d61f0fd	0.055161465
53	0xbdbde6ec	-0.092725605
54	0xbd161a6b	-0.036646288
55	0x3cad2444	0.021135457
56	0x3d54a03e	0.05191063
57	0x3dc93bfd	0.09825895
58	0x3e2f556e	0.17122433
59	0xbd150ce7	-0.036389258
60	0x3e2ab419	0.16670264
61	0xbd381e95	-0.04495104
62	0xbd760508	-0.060063392
63	0xbcfb104f	-0.030647425
64	0xbdfabdd6	-0.122432396
65	0xbe296406	-0.16542062
66	0xbe4358ce	-0.19076845
67	0x3c0b3eff	0.008498906
68	0x3d3b5b86	0.04574158
69	0xbc59398f	-0.013258352
70	0xbe187b19	-0.14890708
71	0x3e107855	0.14108403
72	0xbd2a63c4	-0.04159905
73	0x3df96028	0.121765435
74	0x3dd79c9e	0.10527919
75	0xbe04f636	-0.12984547
76	0xbd3c3f2e	-0.04595869
77	0x3e14078e	0.14456007
78	0x3e060308	0.13087094
79	0xbd6f07c5	-0.05835702
80	0x3e108853	0.14114504
81	0xbe27a176	-0.16370186
82	0xbe11c1b9	-0.14234056
83	0x3e335a1d	0.17514844
84	0xbd2de2fa	-0.04245279
85	0x3e0e76c9	0.139125
86	0x3d4e49d4	0.050363377
87	0xbdec9f0e	-0.11553775
88	0x3ded790b	0.11595353
89	0x3e4f2568	0.20229113
90	0x3dbfe194	0.093691975
91	0xbda3f6b9	-0.08006043
92	0xbcb732b7	-0.02236305
93	0xbdc187cb	-0.094497286
94	0x3e2e5318	0.17023885
95	0xbcc21b38	-0.02369462
96	0x3d1534fa	0.036427476
97	0x3e2b7cc8	0.16746819
98	0x3dbaa765	0.09113959
99	0xbdfb7c86	-0.1227961
100	0x3d8ee8f5	0.06978027
101	0x3defc9ea	0.11708434
102	0xbc829b48	-0.015943184
103	0x3e4bc37d	0.19898792
104	0x3d91e2d4	0.07123342
105	0x3c2052c8	0.009785362
106	0xbe1c6f43	-0.15276818
107	0x3a6b5fbc	0.0008978804
108	0xbe463b65	-0.19358595
109	0x3db09781	0.08622647
110	0x3e49ecdc	0.19719261
111	0xbdc67e22	-0.09692027
112	0x3dfb160b	0.12260064
113	0xbce743ab	-0.028230509
114	0xbb22cf74	-0.002484289
115	0xbdc63d33	-0.096796416
116	0x3c790f06	0.015201336
117	0x3cd926c7	0.026507748
118	0xbc04eb10	-0.008112684
119	0x3d8a370c	0.067487806
120	0xbd636624	-0.05551733
121	0x3e3cf451	0.18452574
122	0x3e2c7b2a	0.16843858
123	0x3db4b227	0.08823042
124	0xbd983c09	-0.07433326
125	0x3c025039	0.007953697
126	0xbd665b8c	-0.05623965
127	0x3e6f42ed	0.23365374
128	0x3d7413b3	0.0595891
129	0x3d846b81	0.06465817
130	0xbcc784ec	-0.024355374
131	0x3d211557	0.039326992
132	0x3d044ebf	0.03230166
133	0x3e49a463	0.19691615
134	0x3e0d1717	0.1377834
135	0xbdd68553	-0.10474648
136	0xbd8dc8eb	-0.06923088
137	0xbde418f0	-0.11137569
138	0xbe343fc0	-0.17602444
139	0xbc45824d	-0.012054992
140	0x3d99accd	0.07503662
141	0xbda83c53	-0.08214631
142	0x3dde6836	0.108597204
143	0xbd0436fe	-0.032279007
144	0xbe0cde11	-0.13756587
145	0xbd3f3912	-0.046685286
146	0x3d3c5af0	0.045985162
147	0xbd6422a7	-0.05569711
148	0x3e0eb430	0.13935924
149	0xbcfdac3d	-0.030965919
150	0xbd78c098	-0.060730547
151	0xbc8927d9	-0.016742634
152	0x3dcefb4a	0.10106523
153	0x3c7b2e5c	0.015330877
154	0x3deb87be	0.115005
155	0x3da8b87c	0.082383126
156	0x3e432d33	0.19060211
157	0x3da0c3b7	0.0784983
158	0x3dae8391	0.08521188
159	0xbd77de35	-0.060514648
160	0xbde71751	-0.11283744
161	0xbd44f6f0	-0.04808706
162	0x3d038074	0.032104924
163	0x3db4cbb0	0.08827913
164	0xbde419c0	-0.11137724
165	0x3de76d4a	0.11300142
166	0x3d6d04c9	0.05786589
167	0xbd20ce83	-0.039259445
168	0x3d5fadaf	0.054608997
169	0x3ba5e901	0.0050631766
170	0x3e0ae248	0.13562882
171	0x3d19d571	0.03755707
172	0x3e1972f3	0.14985256
173	0xbe4414e3	-0.19148593
174	0xbd7b1b33	-0.061305236
175	0xbc851895	-0.016247073
176	0x3ddbc18f	0.10730278
177	0x3e008e7e	0.12554356
178	0x3dcb888c	0.099381536
179	0xbe512ef3	-0.20428066
180	0x3cd97fa6	0.026550125
181	0xbdeb1a28	-0.11479598
182	0xbe063791	-0.13107134
183	0x3c4c8161	0.012482018
184	0xbe1c4a3c	-0.15262693
185	0x3e0821e2	0.13294175
186	0xbdeb4185	-0.11487106
187	0x3d400f2d	0.046889473
188	0x3e0ddfc2	0.13854888
189	0xbe0a7aac	-0.13523358
190	0x3dbf7014	0.09347549
191	0xbc9e0f7f	-0.019294498
192	0x3de1313c	0.10995719
193	0x3e4b8a25	0.19876917
194	0xbd226094	-0.039642885
195	0xbd540997	-0.051766958
196	0x3e261e07	0.16222392
197	0x3d20b76c	0.039237425
198	0xbd51f1b6	-0.051255904
199	0x3e01cafe	0.12675092
200	0xbd3de4ce	-0.046360783
201	0xbaa24d61	-0.001238268
202	0x3e043c26	0.1291357
203	0x3d8fcca7	0.07021456
204	0xbdf8b787	-0.1214438
205	0x3d525d69	0.051358614
206	0xbdfc2b1f	-0.12312912
207	0xbdf21019	-0.11819477
208	0x3d7937ed	0.06084435
209	0x3c182226	0.009285485
210	0xbe26c9ae	-0.16287872
211	0xbcd7c814	-0.026340522
212	0x3cb9f973	0.022701954
213	0xbe24820f	-0.16065238
214	0xbe4662bb	-0.193736
215	0xbe028696	-0.12746653
216	0x3d999ac9	0.07500226
217	0xbe1b62d0	-0.15174413
218	0xbd1004ce	-0.035160832
219	0xbda0caeb	-0.078512035
220	0xbdb4899a	-0.08815308
221	0xbd2f6daf	-0.04282921
222	0xbe3d131e	-0.18464324
223	0xbe0fb74e	-0.14034769
224	0x3cb1564f	0.0216476
225	0xbe1f467e	-0.15554234
226	0xbe034e6e	-0.12822887
227	0x3db9e0ac	0.09076056
228	0x3d85bb08	0.06529814
229	0xbd2391c8	-0.03993395
230	0xbd87882d	-0.0661777
231	0x3e2ca1b6	0.16858563
232	0xbdf82d21	-0.12117983
233	0xbe041de6	-0.1290203
234	0xbdc90ef9	-0.09817309
235	0x3d0f6f3f	0.035018202
236	0xbd482cd5	-0.04887088
237	0xbdbec00b	-0.09313973
238	0x3e42860e	0.1899645
239	0xbe5566f5	-0.20840056
240	0x3dfa995e	0.12236284
241	0xbe2013b3	-0.15632515
242	0xbd4b95c3	-0.04970337
243	0xbc291df5	-0.010322084
244	0xbe0454a3	-0.12922911
245	0x3e626ceb	0.22111861
246	0xbdcdd2dd	-0.100499846
247	0xbcd17d12	-0.025572333
248	0xbe3da2eb	-0.1851918
249	0x3c1ca30a	0.009560356
250	0x3e48554e	0.19563791
251	0x3e3cad82	0.18425563
252	0xbccb9d23	-0.024855202
253	0xbe105f8a	-0.14098945
254	0x3e280a29	0.16410126
255	0xbbf7d792	-0.00756354

2.bias f4 [30]
0	0xbd5592b5	-0.052141864
1	0x3c4de5bf	0.012566983
2	0x3df21e5e	0.11822198
3	0xbde35208	-0.110996306
4	0xbd452349	-0.048129354
5	0x3cf757ae	0.030193176
6	0xbd14e4b7	-0.036350932
7	0xbe0ae068	-0.13562167
8	0xbde549a4	-0.111956865
9	0xbd6be160	-0.05758798
10	0x3e177ba0	0.14793253
11	0xbc3c79fa	-0.011503691
12	0x3d38a140	0.045075655
13	0x3d5a58e0	0.053307414
14	0xbe2778c3	-0.1635466
15	0x3e29d636	0.16585621
16	0xbc33043f	-0.010926305
17	0xbd9591f2	-0.073032275
18	0x3e430394	0.19044334
19	0xbdad338d	-0.08457098
20	0x3b9f8794	0.004868457
21	0xbe54f17e	-0.20795247
22	0x3e0c89a3	0.13724379
23	0x3df08cc9	0.11745603
24	0xbe02aaf2	-0.12760523
25	0x3db860b9	0.090028234
26	0xbcbad0b0	-0.022804588
27	0xbdec4b1b	-0.11537763
28	0x3de2ff00	0.11083794
29	0x3da5c427	0.08094054

4.weight f4 [5, 30]
0	0x3d83eb2c	0.0644134
1	0x3ad9ffe2	0.0016632045
2	0xbe2df941	-0.16989614
3	0xbd8fdd8b	-0.07024678
4	0xbbf22ceb	-0.0073906085
5	0x3da13e70	0.07873237
6	0xbd6d2c24	-0.057903424
7	0x3e594f9b	0.21221773
8	0x3e3979b5	0.18112834
9	0xbdfbca7f	-0.122944824
10	0x3e0fbe98	0.1403755
11	0xbe21038a	-0.15724006
12	0x3d4c10ae	0.049820594
13	0x3e639412	0.22224453
14	0xbe021500	-0.12703323
15	0xbe095851	-0.13412596
16	0xbd9df645	-0.07712988
17	0x3da36035	0.079773344
18	0xbe3fe81b	-0.18740885
19	0xbe46e828	-0.19424498
20	0x3d25b5cd	0.04045658
21	0xbdc2d605	-0.09513477
22	0xbd0cdf2d	-0.034392525
23	0xbd02f2e1	-0.03196991
24	0x3d8ddb40	0.06926584
25	0x3d9d030e	0.07666598
26	0xbcfd4d4a	-0.030920643
27	0x3d672270	0.056429327
28	0x3cda7786	0.026668321
29	0x3e36a9dd	0.17838235
30	0xbcfd1a0e	-0.030896213
31	0xbe25c9d1	-0.16190268
32	0x3d652a11	0.05594832
33	0xbdd9cf06	-0.1063519
34	0x3e56c11b	0.20972101
35	0x3d87d027	0.06631499
36	0x3ba0e204	0.0049097557
37	0xbd7aea4e	-0.061258607
38	0x3bc63635	0.0060489425
39	0xbde77941	-0.11302424
40	0xbe4e030b	-0.20118348
41	0x3e2545ac	0.16139859
42	0xbe32da95	-0.17466195
43	0xbe29a2bc	-0.16565984
44	0xbe28f6a4	-0.16500336
45	0xbd8bae2f	-0.06820332
46	0x3d7a5cf9	0.061123822
47	0xbd8470ae	-0.064668044
48	0xbd7f6693	-0.06235368
49	0xbd2c9d5b	-0.042142253
50	0x3e0062bf	0.12537669
51	0x3e451843	0.19247536
52	0x3ddd9c9e	0.10820888
53	0xbd61cd50	-0.055127442
54	0x3e628a7c	0.2212314
55	0xbe40c8b4	-0.18826562
56	0x3cc97ec9	0.024596589
57	0xbe2b4572	-0.1672571
58	0x3e621efc	0.22082132
59	0xbe1e473e	-0.15456864
60	0x3d06482f	0.032783683
61	0xbe2e7c25	-0.17039545
62	0x3e1044b6	0.14088711
63	0x3ce852bc	0.028359763
64	0x3e1e455c	0.15456146
65	0xbe06ece0	-0.13176298
66	0x3e1ac8c0	0.15115643
67	0xbe38ac95	-0.18034585
68	0xbd67f42b	-0.05662934
69	0x3cf9c895	0.030491153
70	0x3d145c4c	0.036220834
71	0xbe3fef70	-0.18743682
72	0xbe1ae929	-0.15128006
73	0xbd739ea2	-0.059477456
74	0x3e173bf5	0.14768966
75	0x3e6a183c	0.22860807
76	0x3d5c9d10	0.053860724
77	0x3d1c797b	0.03820179
78	0xbe718729	-0.23586716
79	0xbe801a5a	-0.25020105
80	0x3e803546	0.25040644
81	0xbe16583c	-0.14682096
82	0xbdb0d799	-0.08634872
83	0xbdedda71	-0.1161393
84	0xbe2e1c82	-0.17003062
85	0x3d83c5b4	0.06434193
86	0xbc61cbae	-0.013781471
87	0x3d0a184c	0.033714578
88	0x3ba455b1	0.005015098
89	0x3dcc45f2	0.099742785
90	0xbc99828b	-0.018739006
91	0xbd886dd7	-0.06661575
92	0x3e0fd511	0.14046122
93	0x3dbab164	0.09115866
94	0x3e61ffc5	0.22070225
95	0xbe1a1299	-0.15046157
96	0xbe48f5b9	-0.19624986
97	0xbd8d18fc	-0.06889531
98	0xbd90f08f	-0.07077133
99	0x3e00e9b2	0.12589148
100	0x3e2d360e	0.16915151
101	0x3de4c511	0.111704
102	0xbdddab99	-0.10823745
103	0xbd9b0997	-0.075701885
104	0x3d96343b	0.07334181
105	0x3defb4fc	0.11704442
106	0xbd9ee385	-0.0775824
107	0xbc501ad3	-0.012701708
108	0xbe5800ee	-0.21094105
109	0xbcb1df73	-0.021712994
110	0x3d9a6ca0	0.0754025
111	0xbcbf595f	-0.023358045
112	0x3e31a0bd	0.17346473
113	0xbdd3e12a	-0.10345681
114	0x3e027503	0.12739949
115	0x3cc30f8f	0.02381113
116	0x3e28db87	0.16489993
117	0xbb64bfc4	-0.003490434
118	0x3d5d765e	0.054067962
119	0xbddd6aab	-0.10811361
120	0xbdba1389	-0.09085757
121	0xbe2149e3	-0.15750842
122	0x3e32064d	0.17385216
123	0xbdce809c	-0.10083124
124	0x3cf702d1	0.03015271
125	0xbe161972	-0.14658144
126	0x3c8cfb8e	0.017209794
127	0xbcd201ed	-0.025635684
128	0xbe3e82bc	-0.18604559
129	0xbbae027a	-0.005310354
130	0xbe1d914a	-0.15387455
131	0x39e03b81	0.00042768943
132	0xbdeddee9	-0.11614782
133	0x3dbd1e51	0.09234298
134	0xbe49da31	-0.1971214
135	0x3ce07561	0.02739972
136	0x3e069981	0.13144495
137	0xbe0c986a	-0.13730016
138	0x3e0687b9	0.13137712
139	0x3e4c0d49	0.19926943
140	0xbe19b793	-0.15011434
141	0x3a5d32ab	0.0008438031
142	0x3da97c38	0.08275646
143	0x3e497245	0.19672497
144	0x3de1183d	0.10990951
145	0xbe27fa78	-0.1640414
146	0xbdf9e650	-0.12202132
147	0xbe4a245b	-0.19740431
148	0xbd6efc19	-0.058345888
149	0xbd8baa56	-0.068195984

4.bias f4 [5]
0	0xbdbc493e	-0.09193657
1	0x3d93d564	0.072184354
2	0xbdb770e1	-0.08957077
3	0xbdf29044	-0.11843923
4	0xbdd33a32	-0.10313834

0.weight f4 [30, 2]
0	0xbeda6146	-0.4265234
1	0x3f29b08a	0.66285
2	0x3d734834	0.05939503
3	0xbe2f073d	-0.17092605
4	0xbe06c4fb	-0.1316108
5	0xbf186511	-0.59529215
6	0xbe430f14	-0.1904872
7	0x3ed9549d	0.42447367
8	0x3ed07c67	0.4071991
9	0x3f0fa325	0.56108314
10	0x3dd72bb8	0.105063856
11	0xbeb32d9e	-0.3499574
12	0xbeb2e820	-0.34942722
13	0x3f3f83a1	0.74810225
14	0xbf17df2e	-0.5932492
15	0x3e58a738	0.21157539
16	0xbdd44979	-0.10365576
17	0x3f269eae	0.65085876
18	0x3eec81f8	0.46192908
19	0xbe11839f	-0.14210366
20	0xbf28ea4a	-0.65982497
21	0x3e1444cf	0.14479373
22	0xbf121f13	-0.57078665
23	0xbde72842	-0.112869754
24	0x3e022c59	0.1271223
25	0x3eccd8c9	0.40009144
26	0xbdaf20f6	-0.08551209
27	0xbf0490ce	-0.51783454
28	0xbf211a78	-0.62931013
29	0xbf2254a9	-0.6341043
30	0x3c046b5a	0.008082235
31	0xbef695aa	-0.4816106
32	0x3d8adc8f	0.067803495
33	0xbe9bcda4	-0.3043033
34	0xbf036291	-0.51322275
35	0x3ee7c800	0.45269775
36	0x3ef30291	0.47462896
37	0x3efba048	0.49145722
38	0x3f200a49	0.62515694
39	0xbf0de730	-0.5543089
40	0xbeb8375e	-0.35979742
41	0xbf0a84c5	-0.5410884
42	0x3ed43065	0.41443172
43	0x3eec3663	0.46135244
44	0x3f039860	0.5140438
45	0xbf0a6efd	-0.54075605
46	0xbed4ad49	-0.41538456
47	0x3f26e187	0.6518788
48	0xbf00e791	-0.5035334
49	0xbf060291	-0.52347666
50	0x3e4303aa	0.19044366
51	0xbf2d3edb	-0.67674035
52	0xbe08c495	-0.1335624
53	0x3eb23d75	0.34812513
54	0x3f2601b7	0.64846367
55	0xbd27c7a9	-0.040961895
56	0xbf1aa5fe	-0.60409534
57	0x3edd2e40	0.43199348
58	0x3f26066d	0.64853555
59	0xbf13e496	-0.5777067

0.bias f4 [30]
0	0xbe0d6603	-0.13808446
1	0xbef2e923	-0.47443494
2	0xbea5f8c1	-0.32416347
3	0x3e44f289	0.19233145
4	0x3e81acc3	0.2532712
5	0x3ea0fae1	0.31441405
6	0xbf2386df	-0.6387767
7	0xbe54c333	-0.20777588
8	0x3eb22eed	0.34801427
9	0xbd7340c7	-0.05938795
10	0xbea88db0	-0.329206
11	0xbea05c7a	-0.31320554
12	0x3f1cbaea	0.6122271
13	0xbf0d1aaa	-0.5511881
14	0xbf1bdbcd	-0.60882264
15	0x3ef50f6e	0.47863334
16	0xbef49bb7	-0.4777505
17	0x3ed7daa7	0.42159006
18	0xbeebe764	-0.46074975
19	0xbd830b00	-0.063985825
20	0xbe829765	-0.2550613
21	0x3f0d9061	0.5529843
22	0x3ee179d3	0.44038257
23	0x3dd94491	0.10608781
24	0x3db503c1	0.088386066
25	0xbe582086	-0.21106157
26	0xbeaec95b	-0.34137997
27	0xbe299b7e	-0.16563222
28	0x3e371561	0.17879249
29	0xbd3907ce	-0.04517346
