FullOrderReconstruct/FullOrder_20251114_110204_MLP_modified_deeponet_NoPhys_NoBatch_HD64_HL5_LR0.01_checkpoint.pth (torch, 749882 bytes, 90 tensors)

branch.net.net.0.weight f4 [64, 2]
00000000: fcef 823e 9f4c 823e 8c2e babe edd6 d9be
00000010: d61b 9d3e 23bb d53d 8f9e 11be b5a9 babd
00000020: e20d 46be d07b c83d bf63 e3bd 3174 acbe
00000030: efef 01bf 5f97 123e 939c aa3d 8105 173f
00000040: db41 c73d 505c b9be c572 a23d 46fc 553e
00000050: 7e11 a83e 10b0 023f 603f 173f d864 21be
00000060: ed95 943e ee06 d7be d70b b9be e7d5 32bf
00000070: b117 c93e 75d7 d43e 5b5b 343f 3adf 793e
00000080: 7ba8 5ebe 82b4 c83e a7fe 5cbe 0fc8 623d
00000090: d993 b4bc 29a7 bdbe b4bd 2bbf 648f 1dbf
000000a0: bc46 68bd dcd0 fd3e 2c2a 183f 7d8a d1be
000000b0: 265e c43e 184d 733e 5e45 9dbe a5f0 dd3e
000000c0: 57d8 e0bd bc1a 333e 5ee2 aa3c f27a 07bf
000000d0: 4857 b73e 03f5 02bf 5aa3 6d3d 387b 163e
000000e0: 1be7 653d 2c79 4abe 1851 893e 4924 763e
000000f0: f08a f73e 0f3d 333f fff9 b7be 690f 803e
00000100: fc65 683d 3c3d b63e 0872 883e 1203 2cbf
00000110: 4173 853d 1b14 d33d aaf2 8bbe 9f52 7a3e
00000120: 9dea 9dbe 2e86 bdbe bf1b cc3e d2b4 223e
00000130: 382f e63e d11b d3be 4290 103f c9f9 ff3e
00000140: 8bc2 103f 7882 f9be 53c1 06bf b653 663e
00000150: a74d 47bd 3038 28bf b325 2a3f e9db 03bf
00000160: b0e1 c1be edec fd3e 406e f1be 799d 173f
00000170: d1a7 ba3c 5558 ea3e 8b09 15be 4b09 45be
00000180: 9e48 ecbd 2516 22bf 8ec6 cbbd 07f0 023f
00000190: 2fd0 1e3d c04d 893e 7b09 3e3f cb16 ab3e
000001a0: ae4b 80bd 96ef d43e 5fd8 283f f887 80be
000001b0: 12bb f43e df33 383f 1a9d 1f3f 55ab 82be
000001c0: 02ae 1f3f 76a1 28bf 2e79 26bf 495f 22bf
000001d0: 6e30 72be 60f1 303f 4e1f 003f 7174 38bf
000001e0: a741 c23d 8b6b 40be 6e7c a6bd 0df6 bdbe
000001f0: f52e 14be 2888 293e a637 593e 69ad bb3e
0.2557372 0.25449082 -0.36363637 -0.42546788 0.306853 0.10436084 -0.14220642 -0.091144
-0.19341233 0.0978924 -0.111030094 -0.33682397 -0.50756735 0.14315556 0.083306454 0.58992773
0.09729358 -0.3620324 0.07932047 0.20897016 0.32825845 0.510499 0.5908108 -0.15761125
0.29020634 -0.41997474 -0.36141846 -0.6985764 0.39275888 0.4157063 0.704519 0.2440156
-0.21743958 0.39200217 -0.21581517 0.055366572 -0.022043156 -0.37041596 -0.6708634 -0.6154692
-0.056708083 0.4957341 0.5943935 -0.4092597 0.3835308 0.23759878 -0.30716985 0.4334766
-0.109787636 0.17490667 0.020859893 -0.52921975 0.35808778 -0.5115511 0.058017112 0.14695442
0.056128602 -0.19772786 0.26819682 0.24037279 0.48348188 0.70015043 -0.3593292 0.25011757
0.056737885 0.35593593 0.266495 -0.67192185 0.065161236 0.10306569 -0.27333575 0.2444558
-0.30843058 -0.37016433 0.3986492 0.1588929 0.449579 -0.4123216 0.5647012 0.49995258
0.5654685 -0.48732352 -0.5263874 0.2249287 -0.04865804 -0.65710735 0.66463774 -0.5150743
-0.37867498 0.49594823 -0.47154427 0.5922466 0.0227851 0.45770517 -0.14554422 -0.19241826
-0.11537288 -0.6331504 -0.09949981 0.511475 0.038772758 0.2681713 0.74233216 0.33415827
-0.06264435 0.4158904 0.65955156 -0.25103736 0.47798973 0.7195415 0.6234909 -0.2552134
0.6237489 -0.6587137 -0.65028656 -0.63426644 -0.23651287 0.6911831 0.5004777 -0.72052675
0.094851784 -0.18791024 -0.08129202 -0.37101784 -0.14471038 0.16555846 0.21212634 0.3665574

branch.net.net.0.bias f4 [64]
00000000: 01bc 973e 5fc4 193f d055 80be 366b 81bd
00000010: c64f 003f 485f 92be bfec 6ebe 1a2e a3be
00000020: ab5b dfbe 313d 153f 9e42 c83e 62f8 5dbe
00000030: 7ff2 9b3e 69e0 5fbe 80ea 183e bdef 073f
00000040: 7218 90be e164 0cbf 549f 65be b3a2 cbbd
00000050: fac3 f53e 12df 99be 030f 2b3e 0582 823e
00000060: 383d 0a3f 8a86 cabe 4e27 063f 3052 dd3e
00000070: fd09 f5be 4109 b43d e8e2 8cbe 9e3e 533e
00000080: 9c41 223f ec6f 74be f6b6 f63e 763c cdbd
00000090: 3e29 ed3e f994 0b3f 0f34 d0be 8541 963e
000000a0: c5a5 f2be e1d4 b33d 5d1c aebe 4ee4 db3e
000000b0: 1192 c73e b0af 16bf 9ee6 0c3e ba75 a03d
000000c0: e26a b8bd 327e edbd 8a18 19bf ca48 05bd
000000d0: fadc 123f b2b7 e3bd 53c1 18bf e730 113d
000000e0: d5e9 e9be 43ab 453e 6854 ef3e 5580 1abf
000000f0: 6b5d 5d3e 7f1f c63e ae7e b23e 0864 1fbf
0.29635623 0.60065264 -0.2506547 -0.06319277 0.50121725 -0.2858832 -0.23332499 -0.3187111
-0.43624625 0.58296496 0.39113325 -0.21676782 0.30458447 -0.2186295 0.14933205 0.53100187
-0.2814365 -0.5484143 -0.2242406 -0.09943142 0.4800108 -0.30053002 0.16704945 0.25489822
0.5399966 -0.3955577 0.52403724 0.43226767 -0.47859183 0.087908275 -0.27516866 0.20629355
0.6338136 -0.2387082 0.48186463 -0.10021298 0.46320528 0.5452419 -0.40664718 0.29346862
-0.47392097 0.08780838 -0.34006014 0.4294762 0.38978627 -0.5886183 0.13759848 0.078349546
-0.09004761 -0.115963355 -0.5980307 -0.03254012 0.57368433 -0.111190215 -0.5966999 0.035447028
-0.45686212 0.19303612 0.46744084 -0.6035207 0.21617667 0.38695905 0.34862274 -0.6226201

branch.net.net.2.weight f4 [64, 64]
00000000: a3ba 803d b3cc 4ebe 8070 1f3e 9ba5 d0bd
00000010: af8b 78bd 5db1 7cbd 551d 0a3e 0e46 173e
00000020: 1d08 6cbd 5ef9 1b3d 2ea0 c9bd 9e22 4b3d
00000030: 0d24 20be db8b c3bd bed3 a23d bdaa fdbc
00000040: 9f5c 013c 10c8 55bd fab5 de3d fe19 813d
00000050: ee14 9c3d f947 a0bd a600 4bbd 83f1 bbbd
00000060: 25b3 f9bd 002e 0a3d 8eb3 4abe 9c0e 1cbe
00000070: 921d b8bd ef20 62bd c1a4 5d3d 3c13 e4ba
00000080: 2ed3 85bd 2343 ba3d b8d0 07be 7837 ba3d
00000090: 21b2 19be c4ae 02be 5c0a c73d 5a56 35bd
000000a0: 02e5 f1bc cac2 09be 883d 8abd 5647 883d
000000b0: a649 823d 46a8 493d 74d3 c63c 0612 2d3d
000000c0: 2f29 82bd 378e 183e b9ea 453e 490d e1bd
000000d0: 9b10 973d ded2 e63d 1215 6f3e f3d3 cfbb
000000e0: 63c3 883b 0a57 4fbd 879e 81bd 4b25 d13c
000000f0: 50b5 36be 7ee1 5bbe 1166 7fbd 1f10 ef3d
00000100: 0d71 b73d 8550 c43b 2271 f7bd a5f7 c13c
00000110: 3447 093e b389 e8bd 51b1 95bd a81c 31be
00000120: e9c8 873c 7a3f d23d 5a24 bcbd 01f4 8a3c
00000130: fac6 673e 7f94 b0bd 5ece 813d 5389 013d
00000140: bdbe f9bc a52d 32bd dbdb dfbc c413 bcbd
00000150: 63dd 133e 5a52 7abd 62f6 71bd a603 b1bd
00000160: d550 493d a5b0 123d 926c 443e 301a 82bd
00000170: 2fe8 3d3d 0e20 033e f65d af3c 4c9f 033c
00000180: 06c4 763c 1d79 a3bd 2c4b fe3d 5acd 0dbe
00000190: d41f 9a3d 4073 393e 0acf 983c a90e 023e
000001a0: 4a67 bd3d 38b1 483d fdfc 903d 0506 043e
000001b0: d4f3 bbbd 06e0 ebbd 677b 113d 6d6f 933a
000001c0: fd72 4b3d 31fd 4abd a610 853c 3fc9 443e
000001d0: b597 4c3d aff3 573b 7638 c23d 5cbe 033e
000001e0: e36d cc3d 5458 993d 5366 dc3c 4bbd e1bc
000001f0: 71d6 543e b836 0a3e aeca e83c 4ad0 e2bd
00000200: a043 d43c c69c 44be 27a6 043e 952b ed3d
00000210: 899e 253d f401 96bd ef54 333e a2bd ae3d
00000220: f859 9f3d 1cd5 753d 3373 753d aa4b 973d
00000230: fc00 a4bd e559 b9bd a50d f33d cecd 9a3d
00000240: 7d97 2e3e c13e 3d3d 395d b53d 62ed 903d
00000250: 629c 2a3d 3b14 b7bc c5c6 ce3d 14c8 f13c
00000260: 45ff 003d e029 47bc 8949 4abd d9a9 3ebc
00000270: aad4 b5bc f2db 0a3e 4044 013e 9b71 483d
00000280: a8c2 03bd c950 5d3d d2c2 8cbd a72f 473d
00000290: b629 83bd dd2b 263d f38f db3d fb01 0a3e
000002a0: 15ca b8bd 3f4e a63d 1bea ba3d a8d9 a6bd
000002b0: cbc9 833d 0061 1e3e 17c6 83bd 605d b4bc
000002c0: 1072 20be 0020 f43c a653 8f3c c00e 91bd
000002d0: a5dd d2bd 65ef 7fbd a4ce 1a3e 031b dfbd
000002e0: d1ee d9bc 0707 26be dcf6 a33d c970 883d
000002f0: ce6d 803c 17fa 80bc 7260 9cbd 7935 333e
00000300: c655 0b3d f4d2 0c3e 3d2c 21be 1d42 0d3d
00000310: 4fc5 f33d 1828 773d 0f46 533d c5f5 66be
00000320: 6417 0c3d 1389 7fbd a04f 4f3d acd5 64bd
00000330: 2c20 3e3e 768b bc3d a1ee 663d 17c2 883c
00000340: 5d66 2bbe 2843 86bd 368b 41bd fceb 6a3c
00000350: c120 4ebd 8d9a ae3c 69d0 ad3d 934b 44bd
00000360: 70a7 cabc 800d 233c a830 613e 78d3 70bb
00000370: 2df7 c2bd 2df1 39bd 5ea5 91bc 3c49 7ebd
00000380: 8bed a23c e1d6 5dbd 469c 27bd cd36 52bd
00000390: e09b e73d 0e95 ad3c eb18 043c c286 063d
000003a0: bb83 863d 1f13 eebd 346d 9cbd b933 8f3d
000003b0: e260 8fbc 058f 4ebe 5aab b0bc 9da5 283e
000003c0: 4e4f 28bd 7fee 8ebd b746 1ebe 03cd d9bb
000003d0: da1d 2c3c 6b2d 843c 8656 1ebe 9c68 7cbb
000003e0: 5245 923d de42 6f3d 00b8 bebd 3c05 a43d
000003f0: bacc 903d 5060 483e 4137 a7bd 01fc 4abe
0.06285598 -0.20195274 0.15570259 -0.10187837 -0.060680088 -0.061692584 0.13487752 0.14772817
-0.057624925 0.038079612 -0.09845005 0.04959356 -0.15638752 -0.0954816 0.07950543 -0.030965203
0.007895618 -0.052192748 0.10874553 0.06303786 0.076211795 -0.07826228 -0.049561165 -0.09176924
-0.12192372 0.033735275 -0.19795057 -0.15239948 -0.08990015 -0.05520719 0.0541122 -0.0017400752
-0.0653442 0.090948366 -0.13263214 0.09092611 -0.15009357 -0.1276198 0.09718773 -0.044271804
-0.029528145 -0.13453212 -0.067500174 0.06654231 0.063617036 0.049232744 0.02427075 0.042253517
-0.063555114 0.14898 0.19327821 -0.10988862 0.07376214 0.112706885 0.23347881 -0.006342405
0.0041736825 -0.050620116 -0.06329065 0.025530478 -0.17842603 -0.21472737 -0.062353197 0.11672997
0.089571096 0.005991044 -0.12082125 0.023677656 0.13406068 -0.11354389 -0.07309211 -0.17296088
0.016575294 0.102660134 -0.09186621 0.016962053 0.22634497 -0.086220734 0.063381895 0.031625103
-0.030486459 -0.04350056 -0.027326515 -0.091834575 0.14439921 -0.061113693 -0.05907286 -0.08643274
0.049149353 0.035812993 0.19182041 -0.06352651 0.046364006 0.12805197 0.021407109 0.008033585
0.015061384 -0.07982085 0.12416682 -0.13847867 0.07525602 0.1811037 0.018653411 0.12700905
0.092482165 0.048997134 0.07079504 0.12892921 -0.09177366 -0.115173385 0.035518076 0.0011248417
0.04967021 -0.04955787 0.01624329 0.19217394 0.049949367 0.0032951643 0.09483425 0.12865585
0.09981897 0.074875504 0.02690426 -0.027556082 0.20784928 0.13497436 0.028416958 -0.11074884
0.025911152 -0.1920043 0.12954007 0.11580578 0.040434394 -0.07324591 0.17512868 0.08532263
0.07780832 0.06001769 0.059924316 0.07387479 -0.08008 -0.09050349 0.11867837 0.075587854
0.17049976 0.046202425 0.088556714 0.07076527 0.041653045 -0.022348514 0.10096506 0.02951435
0.031493444 -0.01215598 -0.049386535 -0.0116371745 -0.022196133 0.13560465 0.12623692 0.048936468
-0.03216806 0.05403212 -0.068730965 0.04862943 -0.0640444 0.040569175 0.107208155 0.13477318
-0.09022919 0.08120393 0.09126683 -0.081469834 0.06434973 0.1546669 -0.06434267 -0.02201718
-0.15668511 0.029800415 0.017495941 -0.070828915 -0.102961816 -0.062484164 0.1511789 -0.10893824
-0.026603134 -0.16213618 0.08006069 0.06662137 0.015677359 -0.015744252 -0.07635583 0.17500867
0.034017347 0.13752347 -0.15739532 0.03448688 0.11902868 0.06034097 0.051580485 -0.22554691
0.034201995 -0.062386584 0.050613046 -0.055867836 0.1856696 0.092062876 0.056379918 0.016694112
-0.16738267 -0.06555778 -0.047251903 0.01433849 -0.050324205 0.02131393 0.08487017 -0.047923636
-0.024738044 0.009951949 0.21991217 -0.003674714 -0.09519801 -0.04539602 -0.017779049 -0.06208156
0.01988866 -0.054160003 -0.04092052 -0.051321793 0.11309028 0.021189239 0.0080625815 0.03284336
0.06568094 -0.11624741 -0.07638016 0.06992287 -0.017502252 -0.20171745 -0.021566082 0.16469426
-0.041091256 -0.06979083 -0.15456663 -0.0066467538 0.010505164 0.016134938 -0.15462694 -0.00385145
0.07142128 0.05841338 -0.09312439 0.08008811 0.070702985 0.1956799 -0.08164836 -0.19822694

branch.net.net.2.bias f4 [64]
00000000: 4056 9fbc 6b10 3bbd e335 803c 9f02 df3d
00000010: 68ee 75bd 25d7 debd 0894 d2bc dfad fcbc
00000020: c6b9 cabd 1c23 66bd 52b4 2cbe 9935 4abd
00000030: 35f8 703d c27e c2bd f43c ebbd ab2a eabc
00000040: 83ec f23c 39bc e2bc ff80 00bb 09a2 0fbe
00000050: 9cac a3bd 3421 2ebd 01b2 893d e48b 09bd
00000060: 7e38 613d 6ad8 d53d b52e eabc 5fd9 9c3d
00000070: eeb1 60bd f623 023d f95b b43c fc5c fd3c
00000080: 1733 ad3d 4ec8 0bbe 7ad2 edbb d0a3 84bd
00000090: 7e5d 54bc af77 133c 5450 e13d 127a 273d
000000a0: 79d9 e5bc 8a27 f7ba a0b3 0cbe 6ed6 5cbd
000000b0: b0e4 843d d627 893d 37a2 bb3d dc8c 15bb
000000c0: a3ed c7bb 8a6c 423e 3179 83bd 02ec d7bc
000000d0: 99c7 5a3d b3ac bb3b 9d81 78bd 2b3d 113d
000000e0: f93a 063e 8ed1 17bc 4baa 673d 6335 d63c
000000f0: d6fa c13c 5fe2 253d 2574 4a3d 313e b8bc
-0.019450307 -0.045669954 0.015650695 0.10889172 -0.060041815 -0.10880879 -0.025705352 -0.030844627
-0.09898715 -0.056185827 -0.16865662 -0.04936752 0.05883046 -0.094968334 -0.11486235 -0.028584799
0.029653793 -0.027677642 -0.0019608138 -0.14026655 -0.07991907 -0.042512134 0.06723405 -0.033580676
0.054985516 0.10441668 -0.028586725 0.07658648 -0.054857187 0.031772576 0.022016512 0.030928127
0.0845701 -0.13650629 -0.007257757 -0.06476557 -0.012961743 0.009000703 0.110016495 0.0408879
-0.0280578 -0.0018856388 -0.13740396 -0.053915434 0.06488931 0.06697051 0.091617994 -0.0022819554
-0.0061013266 0.18986717 -0.064196 -0.026357654 0.053413007 0.0057273745 -0.060670484 0.035458725
0.13108434 -0.00926627 0.05655889 0.026148504 0.023679178 0.040499087 0.04942717 -0.022490593

branch.net.net.4.weight f4 [64, 64]
00000000: 0947 b6bc 0012 093e d5cd 28ba 811a 3dbe
00000010: 828e 2ebe ffd8 0f3e c671 8c3d 6ee4 04be
00000020: 173b 253d 7a71 cdbb 43b3 61ba 4077 1bbc
00000030: 8de3 2fbc 9530 b43d b3b6 0c3e d599 dcbc
00000040: 1c24 383c fb20 0a3c 5d0c 24bd ef04 043e
00000050: 678c d53d 8b8a 393d 665a 823c 469f 453c
00000060: 8956 b53d e26e 943d 32cf b43c 35c7 3dbe
00000070: fc39 aabd 5927 cabd cedc c43b 99e3 03be
00000080: 57b1 cfbd f5aa 943d c9ca e53d 3519 26bd
00000090: 95fe d03d a69b f13c 00f8 803c 2215 c6bc
000000a0: 5679 e2bd 00d6 a8bd 377d 153d c0bb 3bbd
000000b0: c325 fabd 4cc0 bf3c 17bb 023e 08bd 5fbd
000000c0: 366b 9fbd 128a 78bd 6984 453b 5aab fb3c
000000d0: e222 d7bd 889d 2fbd 096a 233c f1e2 b23d
000000e0: dcf4 91bd ef3f 81bb 8504 c6bd e9cf cc3b
000000f0: c3a6 28bd 1c19 d93d 90f4 adbd b85e 80bd
00000100: a30a 15bc 14c1 b83d 0541 bc3d fbc8 3cbe
00000110: fa80 13be f99c 343d 0782 a23d 3a49 89bd
00000120: ea6e bdbc 1440 2bbc 24b2 a8bd c29c e8bc
00000130: 347d 353e 29f8 0b3d 204b 0e3c f0e9 063d
00000140: 6eef 463d cd97 8bbc 830c 3abd 1c58 88bc
00000150: 69fd 8bbc 8720 363e f0e0 96bd f284 c53d
00000160: 2d98 1b3e e4f0 393d ca49 833d f139 c8bd
00000170: e8c6 163d f3a8 0fbd 4e25 69bd 28fb 403d
00000180: 9d77 2cbd 22f4 e83d 24c4 bb3d f9de 773b
00000190: f17c af3d 0064 cf3d b782 9dbd e306 0e3e
000001a0: c9ed 93bd 6f89 36bd 0074 6c3d a60c 92bd
000001b0: 587e 67bd 6f90 673d 3015 a43c 5432 9b3b
000001c0: 386c 1d3d 5154 323d d0ac 9a3d bb93 9e3d
000001d0: c74f c7bd baf5 0d3e a224 cbbd 39ad 73bd
000001e0: ffc5 ecbd 7707 7f3d c307 3dbd 513f d83d
000001f0: bdd4 9d3d b5a3 003e e826 7bbd 78c9 6fbd
00000200: 010d efbc b1b9 073d 4855 913d 7f0c d4bd
00000210: 0da8 bb3d a8e3 98bd df3a 013e 5dfa 0bbe
00000220: ea8e 49bd 5e65 8c3d 4dd5 fabd c86f d23d
00000230: a611 3c3e 5739 81bd c77f 013c 13fd 08be
00000240: f287 b13d c683 83bd c721 95bd 4518 e4bb
00000250: b48a d4bd c9b2 a23d 5cb1 29bd e046 b53d
00000260: 05fe 193e 02f7 d6bc 2d34 00be 861b 91bd
00000270: 873b ab3b 582b 243d 8241 433d d018 98bd
00000280: ab1c 0a3d 1667 8a3d 0bce 673d ef0a 013e
00000290: 4798 8b3d 1f0a 78bd 1791 97bd be5a cb3d
000002a0: ab8a 8c3d 1fcc a1bd 804a 59bc fbcf 053e
000002b0: 93ab d7bd e223 46bd ec3a 0f3e 8fc3 983d
000002c0: 5628 fe3d 1b2e 8d3d 4d2d 90bd 8993 ab3d
000002d0: 6322 5fbd 3882 87bd 8fcd ef3c 771c 163e
000002e0: 25ff ef3d 2c09 9fbd c13a 3ebc 1cbb 4abd
000002f0: e985 edbd b567 75bc a944 eabd 397b 78bd
00000300: 099b 2d3e ea89 69bd 7b73 e73d a591 293b
00000310: 4778 f43c 76bc 603d a8fe 123e 5ec8 19be
00000320: d1d0 3a3c 1e50 1dba dfba 1d3e 6084 023e
00000330: 8430 1d3e ec02 90bb a1fe 063d 8e5f 49bc
00000340: 73ce e13d 8972 c6bc bbf1 23bd 9eff 5bbb
00000350: b399 e63d 627d 76bd 5353 e53d 7d74 0c3c
00000360: 3222 1e3e e826 d9bd 27c7 cf3d b42e 86bc
00000370: f4ac 53bd 91ca cebb c473 6bbd 6eb8 01be
00000380: dfb2 bfbd dbc2 c73b 3307 86bd 05a6 823d
00000390: ec48 833d 0544 9bbc 8ba1 00be c51f 053d
000003a0: d47c 34bd 6663 17be 3844 003e 4dfe 93bd
000003b0: 1540 8bbd 9832 05be 90a6 443d ca39 923d
000003c0: 4ca4 ab3c e0bb 01ba f9d6 c8bd 179f 943d
000003d0: b277 52bd d794 693d fb0b 66bd 43a7 8d3d
000003e0: 3665 5bbd 7b88 96bd a254 d0bd b75e f73d
000003f0: fdd8 b63c a1d9 f73d 38d0 3cbc 996f 963c
-0.02225067 0.13385773 -0.0006439363 -0.18467142 -0.1704655 0.14047621 0.06857638 -0.12977764
0.040339556 -0.006269631 -0.0008609781 -0.009488881 -0.010735405 0.08798329 0.13741569 -0.026928822
0.011239078 0.008430715 -0.040050853 0.12892507 0.1042717 0.04529814 0.015912246 0.0120618995
0.08854396 0.07247712 0.022071455 -0.18533023 -0.08311841 -0.09870786 0.0060077673 -0.1287979
-0.10141247 0.0725917 0.11220319 -0.040551383 0.10204808 0.029493164 0.015743256 -0.024179999
-0.11058299 -0.08243942 0.036496367 -0.04583335 -0.12214234 0.023407124 0.12766682 -0.054623634
-0.07784121 -0.06067855 0.0030138737 0.030721355 -0.105047 -0.042874843 0.009974011 0.08734692
-0.07126781 -0.003944389 -0.09668831 0.0062503708 -0.04117466 0.10600492 -0.08493912 -0.06268066
-0.009096774 0.09021202 0.09192089 -0.18436043 -0.1440467 0.044095013 0.07934957 -0.0670342
-0.023124177 -0.010452289 -0.08237103 -0.02839506 0.17723542 0.03417221 0.008684903 0.032937944
0.04856818 -0.017040158 -0.04542209 -0.016643576 -0.017088609 0.17785846 -0.07367122 0.09644498
0.15194769 0.045395747 0.064105585 -0.097766764 0.036810786 -0.035073232 -0.056920342 0.04711452
-0.04210626 0.1137469 0.0916827 0.003782211 0.085687526 0.10126495 -0.076909475 0.13869815
-0.07223088 -0.04456466 0.057727814 -0.07131319 -0.056516975 0.056534227 0.020029634 0.004736224
0.038433284 0.04353744 0.075524926 0.07743021 -0.09732013 0.13863268 -0.099190965 -0.05949137
-0.11561202 0.06226298 -0.04614998 0.10558952 0.07706592 0.1256245 -0.0613164 -0.058541745
-0.029181005 0.033136073 0.07096344 -0.10353946 0.091629125 -0.07465297 0.12620114 -0.13669725
-0.04920856 0.06855272 -0.12247715 0.10275227 0.18366107 -0.06309765 0.007904 -0.1337779
0.08668508 -0.06421618 -0.07281833 -0.006960901 -0.10378018 0.07944257 -0.04142891 0.08851409
0.15038307 -0.02624083 -0.12519903 -0.07085328 0.005225602 0.0400804 0.047669895 -0.074266076
0.033718746 0.06757943 0.056592982 0.12601827 0.06816154 -0.060556527 -0.074007206 0.09929417
0.06862386 -0.07900261 -0.013262391 0.1306762 -0.10530772 -0.048374064 0.1398732 0.07459175
0.12410037 0.068935595 -0.070398904 0.083777495 -0.054476153 -0.06616634 0.029272823 0.14659296
0.11718587 -0.07765421 -0.011610688 -0.049494848 -0.11597807 -0.014978339 -0.11438877 -0.06066439
0.16953672 -0.05701629 0.11301323 0.0025874164 0.029842509 0.05486723 0.14354956 -0.1501784
0.011402325 -0.0006001013 0.15403317 0.1274581 0.15350538 -0.0043948796 0.032957677 -0.012290848
0.11025705 -0.024224536 -0.040025454 -0.0033569108 0.112597845 -0.060178168 0.111975335 0.008572695
0.15442732 -0.10603124 0.10145407 -0.016379692 -0.051678613 -0.006310769 -0.05748345 -0.1266801
-0.09360289 0.0060962266 -0.06544342 0.06379322 0.06410393 -0.018953333 -0.12561624 0.032501
-0.044064358 -0.14784011 0.12526023 -0.072262384 -0.06799332 -0.13007581 0.04801041 0.07139929
0.020952366 -0.0004948955 -0.09806628 0.072569065 -0.05138368 0.05702671 -0.05616377 0.06916668
-0.05356332 -0.0735025 -0.101723924 0.12078612 0.022320265 0.12102056 -0.011524253 0.01836376

branch.net.net.4.bias f4 [64]
00000000: 0b6f fb3c a178 04bd dfac 2dbd ee00 b0bd
00000010: 51b8 e53d 8ca1 0bbe 8879 2f3e be46 3b3d
00000020: 89f2 a53d 527d e53c c048 263e a696 103d
00000030: 1658 443d 932b 853c 00ba 91bd cc17 14bd
00000040: 3cac 38be cc04 1c3d a155 a4bc fd76 8ebd
00000050: 6525 113e af3c c83c 6523 89bd 82ef fcbb
00000060: 46c8 3a3d 1e08 77bd be88 8dbd 3fc8 24be
00000070: f206 dfbd 2cf2 3dbd 3987 42be 791a 933c
00000080: 185f ca3d d4f3 80bd 0ca9 233e 55ae 85bd
00000090: 7740 19be 8d49 023e aa59 24bd 4dee a73b
000000a0: 434f 93bd f321 c8bc 786a aabd 5dd5 ef3c
000000b0: f3f5 193e 55d8 cfbd e2db 09bd 8b84 17be
000000c0: 994b 01be 3c24 f9bd d1ab 16bd e1cd c83c
000000d0: 3d7b 3abd 90a2 92bd 28f5 62bd 3eb5 1cbe
000000e0: 1532 fdbd b30b 36be c0a6 a6bd e1f7 d23d
000000f0: 0c7b 65bd 95dc 79bd 0494 d4bc e183 a03d
0.030692598 -0.032341603 -0.04240119 -0.08593927 0.11216796 -0.13635844 0.17136204 0.045721762
0.081029005 0.028013859 0.1623869 0.03529992 0.047935568 0.01625613 -0.07115555 -0.036155507
-0.18034452 0.038090512 -0.020060362 -0.06956289 0.14174421 0.024442999 -0.06696204 -0.0077189812
0.045601152 -0.060310476 -0.06910847 -0.16092013 -0.108899966 -0.04637353 -0.18996896 0.01795696
0.09881419 -0.062965065 0.15982455 -0.06527392 -0.14965998 0.1272337 -0.040124573 0.005124843
-0.07192852 -0.02443025 -0.083210886 0.029276544 0.15035228 -0.10148684 -0.033656962 -0.14796655
-0.12626494 -0.12165114 -0.03678495 0.024512233 -0.045527685 -0.071599126 -0.05540958 -0.15303513
-0.12363068 -0.177779 -0.08137274 0.103011854 -0.05602555 -0.06100138 -0.025949486 0.07837654

branch.net.net.6.weight f4 [64, 64]
00000000: 2b34 16be bfcf 0fbe 6593 f4bd 10b3 a13d
00000010: 476a ddbd e17d 833e 8f06 213e 7cf2 dabd
00000020: 77e2 bebd f80f 093e e464 783e b325 44be
00000030: b898 3a3d fc71 7e3d bd79 33bd 14fa 30bd
00000040: d7dc 263e 23a6 7f3e 440f 233e 8c41 b0bd
00000050: 182e 3ebc 1212 57bb 1e4d 87bd cf64 163e
00000060: 9e2c 8c3c 613b 933e affb cdbd 580d 34be
00000070: eb6f 17bd 0308 7abe e15d 0b3d 0ffc e53c
00000080: 2b0d 333d fe9d 87bd b8b0 02be 6fa1 c63d
00000090: 3359 89be dcc9 323e 9d06 873d d714 32bc
000000a0: 4eb3 9f3d 6df5 92be 4e79 ebbd fdf7 113d
000000b0: 68b4 5cbd 6fb3 33be 8772 3a3e 858a 30be
000000c0: d3eb 40be fa69 4a3d 617d 483b 0571 443d
000000d0: d187 bebc 9429 dbba 46f9 ff3d e910 39be
000000e0: 4190 173d ab18 f73c 05c4 c9be d25f 6d3c
000000f0: 7cef fb3d eecb cc3d aa37 303d d0ed ac3d
00000100: 512e 8cbd daf3 3cbd 2ee5 a9bd 8897 83bd
00000110: 613e fcbd 0b88 94be f4a9 983b d53b 073d
00000120: 6235 c1bd ae66 00be 679a 5abd 6f9c 96bb
00000130: 38fd f13d 7727 a6bc 8e34 263e 2189 c1bd
00000140: d903 6a3d 63ce b63d 3a9a 7fbd 4c1a 8f3d
00000150: 9afe d8bd 2f8f fa3d 9a79 023e d53c 893d
00000160: 5dc1 de3b f44a e13d 6b3c a8b9 5cfb 12be
00000170: ed30 0a3e e687 80bc 94da 8abb d666 3e3d
00000180: a1d0 babb a202 b4bd 5caa bf3d 583a 08be
00000190: 5c9a aa3d 8345 d0bd fe52 55bd c206 95bd
000001a0: 0bae c13d 5c2c 29bc e92d 0bbe 4366 dbbd
000001b0: 2c9b 2e3c 82a6 04be 3f1b cb3c 9236 153d
000001c0: 66f1 e63d b3d5 593b 8a91 023a aeed 7c3c
000001d0: b097 963c 57dc aabd a2a0 4c3d 6f3f fcbd
000001e0: 7bb7 0cbe de78 993d 8920 f03c 438c 043d
000001f0: 46e8 1b3c da90 2ebc 5d8e 293d e780 c73c
00000200: 0bf3 dabb 1f15 49bd 98a6 d1bd f3b8 4fbd
00000210: 3989 ab3d 6252 6abe 2224 07bd a687 9e3e
00000220: 859a 043d 5eb9 4fbe f5eb d5bd 551f 0cbd
00000230: 9bfa 653d 0006 ee3d 80b8 843e cf54 07be
00000240: 1524 77be 8818 bbbd eb5e ed3b b46e 03bd
00000250: 9383 bf3d b5c4 bfbc 327a 2ebd bb7f a13d
00000260: f39d f63d 559b 89bd 8121 a93d 851a ae3d
00000270: f423 583e 096b ebbd 7ac8 38be fc93 cc3d
00000280: 1e30 033c 834b 373d 1888 8dbd 844c d23a
00000290: f9a7 663e 3edd b43d bc73 923c 2c1e 403d
000002a0: 5c15 373d e2b5 333d a78a e0ba 33e8 edbd
000002b0: d0c8 a73c 4acc b0bd cc52 1fbd 46d6 47bd
000002c0: c9f5 3d3d db13 a4bd 5d7d 363d c333 093e
000002d0: 938b 263e 6b7a e13d 8894 d73d 7424 2fbe
000002e0: af00 61bd 1ec5 413e 9983 5bbd 7203 163e
000002f0: 0448 b6bd 9817 40be d4f8 623d 5788 973d
00000300: def3 9c3d 5f11 f0bd 2e7f 213d fd6e e8bd
00000310: c102 873d b050 0cbb fa76 143e 126e f73d
00000320: c462 2cbd 2601 42be caad 5a3d 6b23 a3bd
00000330: 2ce3 863c 6e1d 6fbd 742a 853d 4da1 6fbc
00000340: 4378 20be e7fa bb3d f316 efbc 3cc5 12be
00000350: 3c33 febc 557a 8dbd d745 183c e7f0 c73c
00000360: eaa6 cd3c 0932 a43d 3dc9 eebd ee29 cc3d
00000370: cc24 a2bd d922 1dbe 718f cb3d e668 573d
00000380: ff5d 273e 3955 013d 48f4 643d 48ec 0cbe
00000390: e7ba 2d3e 6b9d 50bd 6028 20be 64d1 c1bd
000003a0: 4e34 d9bd 1876 003d 40e4 19be 3526 9fbd
000003b0: 9dd7 8c3d 0ece abbd 3dfe a73d cf36 eebd
000003c0: b4b0 263c 2b44 6f3c 64d7 3dbd 615b 9b3c
000003d0: 6971 01bc 5885 733d 62e8 25be 36e9 6abb
000003e0: 5393 adbd e359 cc3c 2c28 96bc a32e cc3d
000003f0: 0539 9f3d 998e febd 8180 efbd 90f4 953d
-0.14668338 -0.14044093 -0.11942176 0.078954816 -0.108112864 0.25681975 0.15725158 -0.106907815
-0.093205385 0.13384998 0.24257237 -0.19155006 0.0455558 0.062120423 -0.04381727 -0.043207243
0.16295181 0.2496572 0.15923792 -0.08606252 -0.011607669 -0.0032817167 -0.06606506 0.14686893
0.017111119 0.2875624 -0.100577705 -0.17583215 -0.036971968 -0.24417119 0.034025077 0.028074292
0.04371373 -0.066219315 -0.12762725 0.0969876 -0.26825866 0.17459816 0.06593058 -0.010869226
0.077978715 -0.2870287 -0.114977464 0.03563689 -0.053882986 -0.17548917 0.18207751 -0.17240341
-0.1883996 0.049417473 0.003059231 0.047959346 -0.023258122 -0.0016720765 0.12498717 -0.18072857
0.037002806 0.03016313 -0.39407364 0.014488177 0.123015374 0.09999834 0.043021835 0.08443797
-0.06844772 -0.046130992 -0.08295666 -0.06425387 -0.12316585 -0.29010043 0.004658932 0.033016045
-0.0943401 -0.12539169 -0.053369906 -0.004596285 0.11815876 -0.02028249 0.16230986 -0.094499834
0.057132576 0.08926084 -0.06240294 0.069874376 -0.105954364 0.12234341 0.127417 0.06701056
0.006797953 0.11000624 -0.00032088472 -0.14353698 0.13495226 -0.015689801 -0.0042374823 0.04648479
-0.00570114 -0.08789565 0.09358665 -0.13303506 0.08330223 -0.10169508 -0.0520811 -0.072766796
0.09457024 -0.0103255175 -0.13591732 -0.10712864 0.010657113 -0.12954143 0.024793265 0.036428995
0.11276512 0.0033238947 0.00049807935 0.015437527 0.018382877 -0.08342808 0.04995788 -0.123167865
-0.13741867 0.07493757 0.029312389 0.032360326 0.0095158275 -0.0106546525 0.041395534 0.024353458
-0.006681805 -0.04909241 -0.10236853 -0.05071349 0.083757825 -0.22882989 -0.032993443 0.30962867
0.032373924 -0.20285556 -0.10445396 -0.034209568 0.0561472 0.11622238 0.25922012 -0.13215946
-0.24134858 -0.09135538 0.007243981 -0.032087997 0.09351268 -0.023409227 -0.042597003 0.07885691
0.12041845 -0.0671908 0.082583435 0.08501152 0.21107465 -0.11495025 -0.18045226 0.09989163
0.0080070775 0.044749748 -0.069107234 0.0016044532 0.22525014 0.08831261 0.017877452 0.046903774
0.044698104 0.04387463 -0.0017131165 -0.11616554 0.020481497 -0.08632715 -0.03889732 -0.04878833
0.046376977 -0.080116 0.04455315 0.13398652 0.16264181 0.110096775 0.10526377 -0.1710375
-0.054932293 0.1892285 -0.0535923 0.14649752 -0.08900455 -0.18759 0.055413082 0.07399052
0.076637015 -0.11722063 0.03942793 -0.11349294 0.06592322 -0.0021410398 0.14498511 0.12081541
-0.042086378 -0.1894575 0.053388394 -0.0796574 0.016465746 -0.058377676 0.06502238 -0.014625859
-0.15670876 0.09178715 -0.029185748 -0.14333051 -0.03103029 -0.069080986 0.009293995 0.024406863
0.025104005 0.08017356 -0.11659477 0.09968935 -0.07917175 -0.15345325 0.09939469 0.052590273
0.1634445 0.031575415 0.055897027 -0.13762009 0.16965829 -0.050931375 -0.15640402 -0.09463766
-0.106056795 0.031362623 -0.15028477 -0.07770959 0.068770625 -0.08388911 0.08202789 -0.11631548
0.010173965 0.014603655 -0.04634799 0.018964471 -0.007900574 0.05945334 -0.16201928 -0.003584457
-0.084753655 0.024945205 -0.018329702 0.09969833 0.077745475 -0.12429542 -0.11694432 0.07322037

branch.net.net.6.bias f4 [64]
00000000: 747a 153e 24c3 643c a7ab 833d a489 abbc
00000010: 70b9 56bd 3eaf 67bd d829 8f3d fdf0 aabd
00000020: 56e2 383d ea0e 173e 1882 33bd 25f9 a63d
00000030: 286d e0bc 949d ae3d e775 11bc 8a48 d93d
00000040: c9c9 bcbd 166a d83c b714 b03b a6ed 6ebd
00000050: 327e 173d 8f10 233d c6e3 81bd 6cd0 e03d
00000060: 91f2 d6bd 63bf fe3d 191b cc3c 8ba6 d2bb
00000070: 78a5 913d 7cbd a03d d869 413d e06c bc3d
00000080: 87e7 993d 76dc 0abd f00f 0b3e 1edb e9bc
00000090: f9f2 cdbd ef57 7cbd 07be d4bd e9d4 043d
000000a0: 11cf acbd ff1c fd3c 1155 4b3e 8d6a 383d
000000b0: 5c31 603d 5bd9 713c d264 c0bd 1eed e23c
000000c0: f091 89bd 86ba 953d b00d e7bd 0c4a 843d
000000d0: 42fc 88bd 29a6 a43d 285f 6f3d 00ef 2cbb
000000e0: 56a2 0a3e 73b1 2ebe 7636 133e 1a9a 733d
000000f0: 439a bc3d 7e52 773d 7716 cfbd 617b b0bb
0.14597493 0.013962541 0.064292245 -0.020939656 -0.05242294 -0.05656361 0.06990403 -0.08346746
0.045137726 0.14751783 -0.04382524 0.08152989 -0.0273958 0.085261494 -0.008878208 0.10609539
-0.09218175 0.026417773 0.005373563 -0.058332108 0.036985584 0.039810713 -0.063422725 0.10977253
-0.104954846 0.12438848 0.024915265 -0.006428545 0.07111639 0.07848641 0.04722008 0.09200454
0.075148635 -0.033901654 0.13580298 -0.028546866 -0.10056109 -0.061607298 -0.10387807 0.03242961
-0.08437932 0.030897615 0.19856669 0.04502349 0.054734573 0.014761294 -0.0939423 0.027700957
-0.067172885 0.07310967 -0.112819076 0.06459436 -0.06688739 0.08039505 0.058440357 -0.0026387572
0.13538489 -0.17059879 0.14376244 0.059473135 0.092091106 0.060381405 -0.10111707 -0.0053858017

branch.net.net.8.weight f4 [64, 64]
00000000: 1e2b 43be 5bfa ca3c f762 c0bd 0652 153e
00000010: 814b a9bd a92a 5b3d 4784 343d 0ed1 cb3c
00000020: 0931 073d fbc9 383d 70db 42bd 3968 fc3d
00000030: 3d54 8d3c 143e 673c 3db1 b33c 6ff0 33bc
00000040: c3ef d53c b009 303e 28e8 0f3e 3aaa 34be
00000050: d9f3 273b 74e0 243c 0eca 99be 40d8 153e
00000060: 9b61 65bd c664 b13d 106d 953e d527 0cbe
00000070: 77ff 683d 4e80 17be 9647 303d bdd1 a8bd
00000080: 1342 263e 8087 3cbc 3bef f6bb 7f33 cdbc
00000090: 2f66 e7bd 4097 d03d 941c a53e 85a2 3c3e
000000a0: 16f7 49be a6ac d93d d776 4abd 93b9 8cbd
000000b0: 75bd 74be 670d cfbd f418 f93d 7fe7 7a3d
000000c0: 81c0 1d3d 2764 0a3d 27d1 65bd 42ea 0c3d
000000d0: b171 9e3d 9cbc 8abb 9bad 6c3c 2621 a9bc
000000e0: f762 9f3d 4314 21be 3a95 093e 5cc7 d6bd
000000f0: 980d 4e3e d4fd f63d 5bc4 78bc 2f98 4bbd
00000100: 677e a03d 9beb 4a3d dc0b 3c3d ef9b 9cbc
00000110: 8d79 373d 70db ddbc e742 aabd 52da 923c
00000120: cc68 97ba 8d2b 353e 13e4 973b 48b4 8fbd
00000130: 9dc9 a4bd 733a 2ebd 645a 1e3e 6d34 cebd
00000140: ce7f 2d3d 37a7 2bbe 6193 7c3b 1fe2 d4bd
00000150: 3772 e0bd d959 f63d 4f95 9f3d 0f64 bf3d
00000160: 5be2 c63d d2a2 c83d c9cb 61bd 019a d3bd
00000170: 4f0d 5e3d 1e7f 763d a8ee b63d 66aa 1d3e
00000180: 8452 773d aa0b e23d ae43 10bd 18d1 1cbd
00000190: d048 76bd 7b83 e43c d378 b3bd 48b8 7bbc
000001a0: deca 44bd 3a89 c63d b5a1 b8bd d970 233e
000001b0: 6d57 0d3e 6a2b 133d 08c2 e53d b471 823d
000001c0: 0810 ba3c 40a2 71bc 37be ee3d 2094 0bbd
000001d0: 278a 283e c6cd ff3d 73f4 8e3d d134 85bd
000001e0: e125 acbd 5791 10bd 99f9 e6bd 417d a43d
000001f0: 304f 9c3c cd86 34bc b0b7 90bc 1267 2dbc
00000200: fb67 bd3d 5452 c03d 3e82 553e 9b42 fc3d
00000210: 78f1 753c 59ff 4c3e b103 603e 892e d8bd
00000220: a752 c73d 1324 1f3e 0643 3c3e 43dd d5bd
00000230: 251d 673d 8aff 8bbd d32e 973d 0a46 19bd
00000240: 5901 debd 5884 fabc 8058 adbd 7c1d b03d
00000250: 7fa9 9fbe 7df5 98bc 7271 873d af8b d4bd
00000260: 2f5c e6bd 4461 19bd 2e2a 05bc f7de c43d
00000270: dea6 05be 42e6 1cbd f122 993d 839a bb3d
00000280: 9b05 a4bd 4330 193e 01f0 fcbd 27e8 b33d
00000290: eb5a 913b e772 7b3c 1368 2b3d cc58 c6bd
000002a0: 39bd 393d 90bc 523d 53b0 cf3d 6ef4 113e
000002b0: 5a8f 8b3b 3c39 183e ef9d efbd cfc9 f93c
000002c0: 2956 413e 591f a03d 2b4c d53d aa7d 0bbd
000002d0: 5c9a 733e 67bd 79bd 8f69 113d 6333 6c3c
000002e0: 1cd2 12bd 4204 0abe b9c6 75bb 5366 f53d
000002f0: 9443 49bd fd23 90be ee16 683d cd6c 3ebd
00000300: 0e2e 183e fe89 bb3d eb18 2a3e be44 683d
00000310: b24a aa3d 0ca7 bd3c 6302 df3c 4261 383d
00000320: 6c0e ba3d 4ecd f83c 0818 9b3c e001 0ebe
00000330: 47dc 51bd 54cf 2d3e ff12 61bd 3de1 983d
00000340: 04fb 50be 834e 5fbe 28b0 0abc 2592 0d3e
00000350: 240a 48be b532 bbbd 0942 093d 100b 25bc
00000360: 94b2 2dbe e7b2 7dbd f65c d23d e508 24bc
00000370: 7080 ecbd 84ec 0c3e 60fd a23c e8de 7b3d
00000380: 7592 2e3d 98df f6bb 301d a4bc c9ed 3b3d
00000390: 23b8 fd3d e140 2e3d 720b cb3d 4e59 8bbd
000003a0: a06e b23d 2f26 083d 1077 8a3d 4a02 423b
000003b0: 138c 253d 49c4 a23d 255f 4cbd 182c c1bd
000003c0: a163 ce3b 7bbb 0dbd 7b39 4abd b4ef c1bd
000003d0: e730 4abc 4958 203d 6ea6 febb b6c7 bdbc
000003e0: 170b b2bd 967d 09bc f10c d4bd b849 6dbd
000003f0: 7601 afba 0203 12be cb94 1a3e affa 713d
-0.19059417 0.024777582 -0.09393876 0.1458207 -0.08266354 0.05350748 0.044071462 0.024879958
0.033005748 0.0451145 -0.047572553 0.123245664 0.017252082 0.014113922 0.0219351 -0.010982617
0.026115304 0.17191195 0.14053404 -0.17643061 0.0025627522 0.010063279 -0.30036968 0.14633274
-0.056001287 0.08661799 0.2918477 -0.1368707 0.056884255 -0.14795038 0.04303702 -0.082431294
0.16236143 -0.011506915 -0.0075358427 -0.02504897 -0.11298787 0.10185099 0.32248366 0.18421371
-0.19723162 0.10628633 -0.04942974 -0.06871333 -0.23900397 -0.10109978 0.121629626 0.061255928
0.038513664 0.03378692 -0.056107666 0.034403093 0.07736529 -0.00423391 0.014445688 -0.02064569
0.07782548 -0.15730385 0.13435832 -0.104872435 0.20122373 0.120601326 -0.015183534 -0.04970568
0.07836609 0.049541097 0.045909747 -0.019117324 0.044793654 -0.027082175 -0.08313542 0.017926369
-0.0011551618 0.17692395 0.004635343 -0.07016808 -0.08046267 -0.04253621 0.15464169 -0.10068593
0.042358212 -0.16763006 0.0038539993 -0.10394692 -0.10959285 0.12028856 0.0779215 0.093452565
0.09711143 0.097966805 -0.055125985 -0.10332108 0.05421191 0.060179822 0.08932239 0.15397033
0.060381427 0.11037381 -0.035220794 -0.038285345 -0.060128033 0.027894726 -0.0876328 -0.01536376
-0.04804503 0.09694143 -0.09015218 0.15961017 0.13802882 0.035930075 0.11218649 0.063693434
0.022712722 -0.014748156 0.11657374 -0.03407681 0.16458951 0.1249042 0.06980219 -0.065042146
-0.08405662 -0.035294857 -0.11278076 0.08031703 0.019080728 -0.011018467 -0.017665714 -0.010583656
0.09248348 0.09390703 0.20850465 0.123173915 0.015011184 0.20019282 0.21876408 -0.10555751
0.097325616 0.15541105 0.18384942 -0.10442593 0.05642428 -0.068358496 0.07381978 -0.03742031
-0.10840101 -0.030580685 -0.08464146 0.08599374 -0.31184003 -0.018671745 0.06613435 -0.10378205
-0.112480514 -0.037446275 -0.008127732 0.0961284 -0.13051936 -0.03830553 0.07477368 0.0916033
-0.08008882 0.14959817 -0.123504646 0.08784514 0.004435887 0.015347219 0.0418473 -0.096849054
0.045346472 0.05144936 0.10141053 0.14253399 0.004259032 0.14865583 -0.11700045 0.030491738
0.18880524 0.07818479 0.104149185 -0.03405539 0.23789352 -0.060971644 0.03550106 0.014416548
-0.035844907 -0.13478187 -0.003750248 0.119824074 -0.049136713 -0.28152457 0.056662492 -0.04649048
0.14861318 0.09157179 0.16611068 0.056706183 0.08315028 0.023150943 0.027222818 0.045014627
0.09084782 0.030371334 0.018932357 -0.13867903 -0.051235463 0.1697362 -0.054949757 0.07464836
-0.20408255 -0.21807294 -0.0084648505 0.13825281 -0.19535118 -0.09140531 0.03351024 -0.010073438
-0.16962653 -0.061938193 0.10271637 -0.010011886 -0.11547935 0.13762099 0.01989621 0.061491877
0.04262014 -0.0075339787 -0.020033449 0.045881066 0.12388637 0.042542342 0.099142924 -0.06804143
0.08712506 0.03323954 0.067609906 0.0029603415 0.04041679 0.07947595 -0.049895424 -0.09432238
0.006298498 -0.034602623 -0.049371224 -0.09469548 -0.012340761 0.039146695 -0.007771305 -0.023166519
-0.086935215 -0.008391758 -0.10354031 -0.05793163 -0.0013351876 -0.1425896 0.15095823 0.05907696

branch.net.net.8.bias f4 [64]
00000000: 881b 483d 6c3e 303e b00a fc3d 1428 643d
00000010: 09b8 993d 7d35 c5bd 4385 cebd fc37 883d
00000020: 578c 93bd 2874 b4bc 8f54 e53d 3bab cbbc
00000030: dcbc 173e 5404 583d f33e 003e 4f43 67bd
00000040: 870f d8bd 3900 29bd ceb0 df3d a42a 59bd
00000050: 3ee6 9cbd 0547 273d e4f3 523d 2002 febc
00000060: 8c2b 683d a6b3 bc3d a453 283a 9a93 5f3c
00000070: d1ac 013e 83fd b33d 354a 27bd 6e5e 97bc
00000080: e7d2 04be 126b 933c e807 e2bc 8951 913d
00000090: 9389 0cbe ccbf 84bd 02bf 443d 8d96 a0bd
000000a0: e2c0 26bd 671d a2bc 2c66 af3d aa91 64bc
000000b0: f0e1 a7bc 68d9 53bd 5768 3d3c f0b1 9a3d
000000c0: b253 29bd 492a 853d 492d adbd ff30 4a3d
000000d0: 52bd 7fbd b9d3 413d ea9f e23c 834a 333e
000000e0: 4e0c 1ebd bf65 d73d d7ed 38be 5883 023d
000000f0: 5b90 af3d b223 bdbc b106 49bd 5a83 e33c
0.04885438 0.17211312 0.12306726 0.055702284 0.07505805 -0.09629343 -0.100840114 0.06651303
-0.07204502 -0.022028044 0.11197769 -0.024861922 0.14818138 0.052738503 0.12524013 -0.056460675
-0.105498366 -0.041259978 0.10922395 -0.05301918 -0.07661103 0.040839214 0.051502123 -0.031006873
0.056682155 0.09213953 0.0006421155 0.013646031 0.1266358 0.08788588 -0.040842254 -0.018477645
-0.12971078 0.017995391 -0.02759166 0.0709563 -0.13724355 -0.06481895 0.04803372 -0.07841215
-0.04071129 -0.01978941 0.085644096 -0.013950745 -0.020493478 -0.051721007 0.011560521 0.0755347
-0.041339584 0.06502206 -0.08455903 0.049363133 -0.06243641 0.047321055 0.027664144 0.17508893
-0.038585953 0.105174534 -0.18059479 0.03186354 0.085724555 -0.02308831 -0.049078647 0.027772594

branch.net.net.10.weight f4 [64, 64]
00000000: 7a20 033d 536c 203d 90cd 7f3d 4940 c6bd
00000010: ef64 9ebe 3b11 553e 775b afbd 340a b4bd
00000020: f599 6bbe 1d47 e8bd 9739 7bbd 39ec 1dbe
00000030: 365a 623d 6298 713d 1dc4 553d 4fe5 c4bd
00000040: b3cb 11be f763 833e b5a2 223c 3cb0 5dbd
00000050: 653d 353e 4f42 e13d 4f20 bbb9 95f1 c7bd
00000060: 6590 8abc 9c0b fbbd b462 0a3d 06ee 543e
00000070: 1cb8 163e f345 62bd c3ff b1bd f2c4 9dbd
00000080: 03a5 2c3c 2a41 0c3c 7c3e f23d b07c 0fbe
00000090: f33c 24be 6361 e2bd 8059 30bd db34 b3bd
000000a0: a016 323c cd89 173d 8489 933c 4fef 013e
000000b0: 8b43 a93d 4a15 b13d 90b1 453c 409e 453c
000000c0: 0dbf 2fbd fa29 ecbd 26c7 d8bd 04f8 59bd
000000d0: ccdc 683b 6a28 abbd a2ab c83d b407 1fbe
000000e0: c723 fd3d a269 ff3c fdda 6cbd d638 7fbe
000000f0: b4de 74bd c622 633d 2ecf 4fbd bfe1 013e
00000100: 13de debc 7dd5 053e dbbc 86bd 6461 5dbd
00000110: 8ae3 c2bd 5545 06bd 6a97 19bd 93f5 a2bd
00000120: 2ac6 b73d 6343 913d 5af5 cbbd 33e1 f8bc
00000130: f71f f2bd cc54 b93d 8d96 4d3d 4ae5 0dbd
00000140: da5a 2b3e dad2 9c3d 72c1 c3bd 065b b1bd
00000150: e2fe 233e d256 a8bc 0ab2 87bd 6d91 a33d
00000160: 1b9f b33c 2e3c 00bd 6c6b e8bc 91ae 48bd
00000170: 070d 1bbe 9372 043d 7da6 303d 2fd5 28bd
00000180: f317 23bc 985b a4bd b16c b6bd c7e0 573d
00000190: d263 0d3e 3df5 2ebd 5a50 75bd 3e93 9fbd
000001a0: a4a8 653d 8859 133e 11f9 ce3d 5b6f babd
000001b0: 214c 55bc af35 2c3e b1f5 87bd 723f 59be
000001c0: 1718 d5bd 9a12 9fbd 6c4f 0a3e 8802 20be
000001d0: c67b fcbd 210f f2bd f46b 8e3d a1e8 07be
000001e0: a35f e7bb e7f0 53bd 1a89 e8bd a043 e43d
000001f0: e38c 5f3c 99d0 44bd 3986 733d 5ff6 02be
00000200: 4df3 86be 9d55 843d bd07 1fbd 28aa 453e
00000210: 9b9f a13d b4a3 f83c 078e b23c 8dba d93d
00000220: ffb6 75bb 6ed4 53be 8eb6 bebc c74d 78bd
00000230: cad9 1e3e 1567 98bd 7ca3 1cbe 4854 ad3d
00000240: 11ec d5bd b0c7 6ebe 1358 95bd a769 bcbc
00000250: f05c 2abe e008 20bb f495 d2bc 0e05 853d
00000260: 8dad d3bd dcfc e83d c7a0 9fbc d9a2 6bbd
00000270: 46fa 84bc e870 d43d 4c82 49bd 044c 493d
00000280: ba8b d7bd fa31 ac3d 1af1 97bd a3c8 6e3d
00000290: dc4f b3bc fe48 a5bd 3f8f 963e f7de 563e
000002a0: 47cf 87bc b86f 0fbe 8910 55be 9065 efbd
000002b0: 2c36 413e dbf8 96be e12b a6bd b7d2 bfbd
000002c0: 7b92 91bc 3689 033e 4199 b93d 3ed6 823e
000002d0: 24ad db3d abd4 463d 782c a53d 082f 00bc
000002e0: 9511 83bd 4882 d83c e613 023c d0b9 543e
000002f0: fb62 053e d6da 0e3e 9b24 babd cd2e ee3d
00000300: 2e23 85bd 0da4 16bc ab7d e4bc e425 fabd
00000310: bb4e 99bd 6f1e a33b 6838 0e3e 90ed fcba
00000320: 5e2d 7fbd ab7a 0d3d c62a 023e 4cff 6f3d
00000330: 07a3 b5bd d0fc 07bd b81f 68bd 33bd e0bd
00000340: f571 e03d 7980 cdbd 2c3c c23c 4cd6 19be
00000350: 9983 2bbc cead 01be 592d 173d f243 dcbd
00000360: 2bc0 e53d e00b 443d 101c 9c3d 5a6e 263d
00000370: 695e 88bd 330f 9fbd 97c8 f73d 1896 8e3d
00000380: 7a07 143d ae74 ad3d a30e 9f3b 372b cb3d
00000390: 93be 66bd 36ad 513d 382f cabd 404b 49bd
000003a0: fee0 253e a98d 86bc 2632 293e 75b4 a1bd
000003b0: 0aa7 a2bd 41b6 6f3d 4e34 ba3c 7a22 c9bd
000003c0: 3363 35bd c84d b33c 4494 62bd 7a5a 9fbd
000003d0: bb9e 06be ad62 b43d 4a35 62bd fbb7 b53d
000003e0: 73d3 87bc 9279 083c 22a3 0ebd 88d1 f43b
000003f0: 3808 083d aaff abbd ec61 c03d 06ba 42bd
0.032013394 0.039165806 0.0624519 -0.0968023 -0.3093638 0.20807354 -0.085623674 -0.087910086
-0.23007949 -0.11341689 -0.06133422 -0.15422143 0.055261813 0.058983214 0.05218898 -0.0961405
-0.14237861 0.25662205 0.009926488 -0.05412315 0.17699201 0.109989755 -0.0003569149 -0.09762875
-0.016914556 -0.12258074 0.033785537 0.20793924 0.1471867 -0.05524249 -0.08691361 -0.0770358
0.010537389 0.008560458 0.11828324 -0.14012408 -0.16038875 -0.11053731 -0.043054104 -0.08750316
0.010869652 0.03699665 0.018009908 0.12688945 0.08264836 0.08646639 0.01206626 0.0120616555
-0.04290681 -0.11531444 -0.105848595 -0.05321504 0.0035531996 -0.08357318 0.09798361 -0.15530282
0.123603396 0.0311783 -0.05782603 -0.24924025 -0.0597827 0.055453084 -0.05073469 0.12683772
-0.027205503 0.1306972 -0.0657899 -0.054047957 -0.09516056 -0.032780964 -0.037497915 -0.07956996
0.08973344 0.07092931 -0.099589065 -0.03038082 -0.11822503 0.09049377 0.050192405 -0.034642495
0.16733876 0.07657404 -0.09558381 -0.086599395 0.16015199 -0.020549212 -0.06625755 0.07986722
0.021926453 -0.03130739 -0.028371535 -0.048994604 -0.15141688 0.03233583 0.043127526 -0.041218933
-0.00995444 -0.080252826 -0.0890745 0.0527046 0.1380761 -0.042714346 -0.059891082 -0.07791756
0.05606903 0.14389622 0.101060994 -0.091032706 -0.013018639 0.16817354 -0.06638659 -0.21215609
-0.104049854 -0.0776722 0.1350686 -0.15625966 -0.123282954 -0.11819292 0.06954184 -0.13272335
-0.0070609613 -0.051743414 -0.11354275 0.11145711 0.01364443 -0.048050497 0.059454177 -0.12789296
-0.263575 0.06461642 -0.03882574 0.1930319 0.078917705 0.030351497 0.02179624 0.10631285
-0.0037493107 -0.20686504 -0.023280408 -0.06062105 0.15512767 -0.07441536 -0.1529674 0.08463341
-0.10445417 -0.23318362 -0.072921894 -0.022999598 -0.16637015 -0.0024419352 -0.025706269 0.06495105
-0.103358366 0.11376354 -0.019485844 -0.05752835 -0.01623262 0.10373098 -0.049196526 0.04914476
-0.105246976 0.0840797 -0.07419033 0.05829681 -0.021888666 -0.08070563 0.29406163 0.20983492
-0.01657833 -0.14007461 -0.20807089 -0.116892934 0.18868321 -0.29486737 -0.08113838 -0.093663625
-0.017770043 0.1284531 0.09062434 0.2555408 0.10726383 0.04854266 0.08065122 -0.007823713
-0.06399838 0.02642931 0.0079393145 0.20774007 0.1302604 0.13950667 -0.09089013 0.1163002
-0.065008506 -0.009194386 -0.027891954 -0.12214258 -0.0748572 0.004977993 0.13888705 -0.0019296873
-0.062299125 0.034540813 0.1271163 0.05859308 -0.088689856 -0.033200085 -0.056670874 -0.10973587
0.109592356 -0.1003427 0.023710333 -0.15023154 -0.010468387 -0.12663957 0.03690848 -0.10755147
0.11218294 0.047862887 0.0762254 0.040632583 -0.06658632 -0.07766571 0.12098806 0.06962222
0.036139943 0.084695205 0.0048540398 0.09920352 -0.05633409 0.051190577 -0.098722875 -0.04914403
0.16199109 -0.01642497 0.16523036 -0.078957476 -0.079420164 0.05852342 0.022730019 -0.09821029
-0.044284057 0.021887675 -0.05531718 -0.07780929 -0.13146488 0.088078834 -0.0552266 0.08872982
-0.016580319 0.008329766 -0.034823544 0.007471267 0.033210963 -0.083983734 0.09393677 -0.047540687

branch.net.net.10.bias f4 [64]
00000000: 0e5a 1a3e dfc9 f93c c10a 86bd b0a0 50bd
00000010: c0ba 843c a11c 923c e618 e33d 4b3e dc3d
00000020: be8d cc3c d724 c13c d327 3fbd a555 8cbd
00000030: 5c90 143c 0c31 9d3d 9993 8ebd 4fc0 e2bc
00000040: a98a 96bd 901c 03be a211 953b e2a2 1cbd
00000050: 51e5 0b3e 9a48 d33d b661 993d b25f d1bc
00000060: bc72 1fbe 49a1 acbd 9340 91bd 9c2b e53d
00000070: ef8f a3bd 9dfd b23c 5a1e f1bc d1dd 0c3e
00000080: 46a3 94bd 91f4 d9bd dbdb 28bd 0a20 0cbd
00000090: 5ee0 3cbd 49c3 aebd 6230 bdbd 7bd4 9f3d
000000a0: e966 69bd 6925 27bd 80e1 043e f44d 053e
000000b0: a3ac 95bd 5c5b a83d f25d d9bd 0c4d 14be
000000c0: 27a7 a83d c93b 63bd fb96 2b3d d29c 91bd
000000d0: 112f 00be c092 f03d 743e 8f3d 856a 2fbd
000000e0: f44f 27bd 51d9 e6bc 8192 e13c a515 8bbd
000000f0: 47f1 6a3d 22e1 d837 e2be a9bb 810c 4abe
0.15073416 0.030491767 -0.0654502 -0.050934494 0.01620233 0.017835917 0.110887334 0.10754069
0.024969932 0.023577137 -0.04666884 -0.06852273 0.009067621 0.076753706 -0.06961746 -0.02767959
-0.07350666 -0.12803864 0.004549221 -0.038241275 0.13661696 0.10316582 0.0748934 -0.025558326
-0.15571111 -0.084292 -0.07092395 0.111899585 -0.079864375 0.021849448 -0.029433418 0.13756491
-0.072577044 -0.106423505 -0.041225296 -0.034210242 -0.04611241 -0.085333414 -0.09237744 0.07804199
-0.05698291 -0.04080716 0.12976646 0.13018018 -0.073083185 0.082205504 -0.10613622 -0.14482516
0.08235007 -0.055476937 0.041892033 -0.07109989 -0.12517954 0.1174674 0.06994334 -0.042826194
-0.040847734 -0.028179796 0.027535679 -0.06791238 0.057359006 2.5854042e-05 -0.0051802257 -0.19731332

trunk.net.0.weight f4 [64, 3]
00000000: b6cb 473e 243a 0a3c 5e43 2dbe 0817 b8be
00000010: 8bed 1d3e bcef 23bf 6060 d0be 6601 08bf
00000020: e564 03be 1aeb a9bd 0efe bebe 787c 2a3e
00000030: e81e eb3d 032e 063f 44c5 1cbf d4b3 a2be
00000040: 9326 0f3f ca8c 383e 85c8 1cbd 1a67 16bf
00000050: d1ed 04bf 891a 6ebc 0f26 393f f551 cebe
00000060: e17c e33e dc51 7ebe 8460 243f e2b4 aa3d
00000070: 8f2c 18bf 2db9 d53e 39c6 01bf a7a5 513e
00000080: 05a3 45be 3dc5 5ebe 2836 4dbd 410b fabd
00000090: be7b 99be 473e 12bf cdb1 3dbe 8f31 85be
000000a0: da46 483c 3fd7 593e 0707 91be 09fd 283e
000000b0: a5f5 cd3e 0b38 c1be e0af 0abf 27a8 083f
000000c0: 8118 653e eb4f b9bd f78c 273f 290d 85be
000000d0: d9dd 323e 9317 943c 593a e73e 417d 1bbf
000000e0: cef9 d8be cf4f 993e 59a1 d8be 4458 afbe
000000f0: f8f6 933e ff9b b83e a9cc a5bd 963f f73d
00000100: 45d6 e33d fd17 21be 39b0 20be bcb7 8ebe
00000110: d5e0 213e 1a36 d03d 5494 86be a0df cd3e
00000120: c254 083d 5031 cebe 2557 a33e 5a76 cdbb
00000130: 3aaf 603e 49ab dabe 54d8 b63e 0446 a6be
00000140: ecf9 013f 09d9 263d e3dd c33d 2cec f93e
00000150: 80f9 b13e 8d12 f63e e305 b0bd 87f0 5e3e
00000160: a9cb 1c3f 26a1 07bf 19a8 afbe e657 013d
00000170: fd61 403e 5f44 afbc fdc4 bcbe c6a2 cb3e
00000180: aca9 143f 331e be3c c6f5 273f ea6f 073f
00000190: f206 903d 661e 8abe e7ea e03e d11c 8ebe
000001a0: 4c75 d7be 83f6 713c 9065 dcbe 9372 aabe
000001b0: 7bc0 ef3c e418 39be 40d1 22bd e263 05bf
000001c0: 41aa 0b3f ced6 e73e 24ec 00be 6e4b 743e
000001d0: ccbf c3be 692f 03be 3566 c2be fd48 7fbe
000001e0: e061 bbbe 5b6d e3be 74a6 80be d7c5 1fbf
000001f0: 4ab4 11bf b216 7f3e 0270 5cbe f0ac c1be
00000200: 7c12 55be c61b ccbc 10f9 58be 94bc e03a
00000210: 5bde 7bbe ae78 ecbd faf8 25be e01f e2bd
00000220: 05a0 c8bd abfc d93e 9c5c a53b 3992 4e3e
00000230: dd9c b4be ca4a a53e 58b3 8b3b db27 b8be
00000240: 9502 2dbe 9670 233f 6e81 233e fd7b c3be
00000250: 67da 15bf 9b75 193f 7dd9 8cbe 2241 0abf
00000260: 7f10 d4bd a152 90bd 8e27 483e 2f61 bb3e
00000270: 7e0f bfbd f245 85be 09d6 00bf 7554 ba3e
00000280: a3cb 91be da67 223f 5bdd e53e aab9 24bf
00000290: 28d3 eebe 6f9b d83c b692 c73e ce6c ab3e
000002a0: 105d 80be 3529 15bf 1600 3fbd 741c a8be
000002b0: bd03 ffbd a459 c43e 16f6 703e 053b c63e
000002c0: 8f94 21bf a73c bfbe 020b 203f 6c5b d0bd
000002d0: ae70 f33e 0c6c 0cbf 9ff6 f8bd 6c3d c6be
000002e0: 9002 e93e 2dc2 f0be 3ca7 ccbe 70f0 893e
000002f0: 3a48 0b3f c96e a63e 051b 923d affd 2ebe
0.19511303 0.008436713 -0.1692023 -0.3595507 0.15422647 -0.6403768 -0.40698528 -0.53127134
-0.12831457 -0.08296795 -0.37303203 0.16649044 0.11480504 0.5241396 -0.61238503 -0.31777823
0.55918235 0.18022457 -0.038277168 -0.5875107 -0.5192538 -0.014532694 0.723237 -0.40296903
0.44431213 -0.24835914 0.6420977 0.08335282 -0.5944299 0.4174284 -0.5069309 0.20473348
-0.19300468 -0.21754928 -0.050100476 -0.12209178 -0.2997722 -0.5712628 -0.18524857 -0.26014373
0.012223924 0.21273516 -0.28325674 0.16502775 0.40226474 -0.3773807 -0.54174614 0.5338158
0.22372629 -0.09048446 0.6544947 -0.25986603 0.1746744 0.018077647 0.45161703 -0.60738
-0.42378086 0.29943702 -0.42310598 -0.3424703 0.2889936 0.36056516 -0.080956765 0.12072675
0.11124853 -0.15731807 -0.15692224 -0.27874553 0.15808423 0.10166569 -0.2628504 0.40209675
0.033283956 -0.40271997 0.31902424 -0.006270212 0.21941844 -0.42708805 0.3571192 -0.32475293
0.50771976 0.040734325 0.09563806 0.48812997 0.34760666 0.48061028 -0.08594873 0.21771441
0.6124826 -0.5298027 -0.34307936 0.031577967 0.1878738 -0.021394907 -0.3686904 0.39772624
0.580714 0.02320776 0.65609396 0.5290514 0.07032575 -0.26976317 0.43929216 -0.2775636
-0.42081678 0.014768246 -0.43046236 -0.33290538 0.029266587 -0.18075901 -0.039750338 -0.52105534
0.5455666 0.4528107 -0.1259008 0.23856899 -0.38232267 -0.12811054 -0.37968603 -0.24930187
-0.3659811 -0.4441937 -0.25126994 -0.62411255 -0.56915724 0.24911001 -0.21527103 -0.37827253
-0.20807832 -0.024915587 -0.2118876 0.0017146044 -0.2459654 -0.11546455 -0.16208258 -0.11041236
-0.09796146 0.42575583 0.0050464403 0.20172967 -0.35275927 0.32283622 0.004263323 -0.35967907
-0.16895516 0.6384367 0.15967342 -0.38180533 -0.5853638 0.59945077 -0.2750968 -0.54005635
-0.10354709 -0.0704701 0.19546339 0.36597583 -0.09329127 -0.26029927 -0.5032659 0.3639256
-0.28475675 0.63439715 0.44895443 -0.643458 -0.46645474 0.026441304 0.3897912 0.3348145
-0.25071 -0.58266 -0.04663094 -0.32834208 -0.12451885 0.3834964 0.23531374 0.38716903
-0.6311731 -0.37350962 0.62516797 -0.10173687 0.47546905 -0.54852366 -0.12156414 -0.38718736
0.45509768 -0.47023144 -0.3997134 0.26941252 0.54407084 0.32506397 0.0713406 -0.1708896

trunk.net.0.bias f4 [64]
00000000: a241 dfbd ba94 bebd 07f7 00bf 16a8 5bbc
00000010: afd9 0cbe fad1 503d 5d4f f23e f2e1 8bbe
00000020: 65f4 903e 2e13 e5bd 2745 3a3e 5c78 44be
00000030: 3860 9e3c 9d58 753e 379d c83e ba1b 843e
00000040: e6d0 163e 9f37 cfbe afe5 7cbe 7abb 273d
00000050: 628b abbe a580 ab3e 469b 4d3e 7e06 3b3e
00000060: d8a7 ac3d cbec 2ebd 83eb e83e 0e72 f8be
00000070: 5755 07be 0068 bfbe ed22 3bbe cf0f 68be
00000080: 3d76 b3bd d76a 68be 8a89 b5be 0555 b3be
00000090: a4f4 083c 19f5 3cbd e0d7 e33e ea4e 0c3e
000000a0: 2a70 bebd d36b fe3e cd4e 07bf 0151 ad3e
000000b0: 1477 5e3e 69d8 893e c759 aa3e fef1 da3e
000000c0: 6e62 f43e 4eff 573d c2dd c53e 99f3 2fbe
000000d0: 3aeb f73e d807 9e3e 95dd af3d f751 c63e
000000e0: 2fe1 623e 619f 82be d189 e8be 34cd 69bd
000000f0: ad14 e1bc d278 dd3e a7ff 02bf f6ac cdbe
-0.1090119 -0.09305711 -0.50376934 -0.013406774 -0.13754915 0.0509815 0.47326174 -0.2732082
0.28311458 -0.11185299 0.18190442 -0.19186538 0.01933299 0.23959585 0.39182445 0.25802404
0.14728126 -0.40472123 -0.24696992 0.040950276 -0.33504778 0.33496585 0.20078763 0.18264195
0.08430451 -0.042706292 0.4549218 -0.48524517 -0.13216148 -0.37384033 -0.18275042 -0.2266228
-0.087627865 -0.22697006 -0.35456496 -0.35025802 0.008359108 -0.04613218 0.44500637 0.13701978
-0.09298737 0.49691638 -0.52854615 0.33850864 0.21725112 0.2692292 0.3327162 0.4276275
0.47731346 0.052733712 0.3864575 -0.17182769 0.4842165 0.3086536 0.08587185 0.3873441
0.22156213 -0.2551222 -0.45417646 -0.057080463 -0.02747568 0.4325624 -0.51171345 -0.4017102
