model_summon/ReconstructORI/Step/Checkpoint_SEED42_LR0.01_HD30_HL2_Epoch4_WithPhysics1_WithBatch1_Pretrain50.pth (torch, 107953 bytes, 80 tensors)

0.weight f4 [30, 2]
000000 0f c6 1f 3f 0a ab 32 3f 0b 48 d7 bd 82 92 7f 3f
       0.6241159 0.69792235 -0.10511788 0.9983293
000010 3b 66 a0 bd 6b b1 2e bd f1 42 96 bd 13 cb 26 3f
       -0.07831999 -0.042649668 -0.07336987 0.65153617
000020 6d da 62 3f da 3a 2d be a8 f9 41 3f d8 95 4c 3e
       0.8861454 -0.16916981 0.7577157 0.19979036
000030 b6 26 04 3f db 5e 3d bd 6b 84 55 3e 5e 61 2f 3d
       0.5162157 -0.04623304 0.20851295 0.042817466
000040 07 a6 21 3f 89 64 cd 3d c8 79 51 bf e0 86 08 be
       0.6314396 0.10028941 -0.8182645 -0.133327
000050 29 3b 3f be 06 5b b6 be 42 61 a3 3d 3a 69 47 3f
       -0.18674912 -0.3561632 0.07977535 0.7789494
000060 46 f6 3a bf 8f 22 9c be b4 e6 e1 be 6a ea 99 be
       -0.73032033 -0.30495116 -0.44121325 -0.30061656
000070 95 02 ff 3c e4 00 6e bf 8c b4 54 3f 0c 29 9c be
       0.03112916 -0.9297011 0.8308799 -0.30500066
000080 5c 5b f4 3e c3 04 a2 3e 82 31 5d 3e 21 fe 9d 3e
       0.47725952 0.31644258 0.21600917 0.30857947
000090 51 9d c6 3e c3 44 d2 3e c2 3e 8e 3d 75 36 f8 be
       0.38791898 0.41068086 0.06945564 -0.48479047
0000a0 e6 a6 81 bd 44 d4 b0 bd c0 e8 65 3e af 8e 39 3f
       -0.063306615 -0.086342365 0.22452068 0.7248334
0000b0 4b a0 11 3e 8c f2 04 bf a9 57 d9 3e c8 c4 c2 3e
       0.14221303 -0.519326 0.42449692 0.38040757
0000c0 27 f2 de 3d f4 4f 0d bf 72 af 51 bf 0c fb 40 be
       0.10886031 -0.55200124 -0.81908333 -0.18845767
0000d0 97 15 39 bf 67 c6 01 3d e8 2c 82 3e 4c 6f cc 3e
       -0.7229857 0.03168335 0.25424886 0.39928663
0000e0 7e 41 55 3e 48 f6 38 3e ac 6c 12 3e 0f 02 c9 be
       0.20825765 0.18062699 0.14299268 -0.39259383

0.bias f4 [30]
000000 bd a9 a8 be f1 ea 27 bf f9 ed 9d ba 11 cd 24 bf
       -0.32942 -0.6559287 -0.0012049071 -0.64375407
000010 a3 a7 dc 3e d4 9a 49 bf 2a 1d 47 3f eb 3d bc be
       0.43096647 -0.78751874 0.77778876 -0.3676599
000020 82 d4 52 bf d5 a4 0a bf 90 2f 71 3f df ae 3c be
       -0.8235551 -0.54157764 0.942132 -0.18426083
000030 a2 3a 3e 3f ca fa cb be c2 fb 22 bf d1 8c 4c bf
       0.74308217 -0.39839774 -0.636654 -0.7990237
000040 f0 d0 0f bf 87 be 67 bd c9 1a 45 be ff 54 45 3f
       -0.5617819 -0.056578185 -0.19248499 0.7708282
000050 4c 9e 66 be eb 96 69 bf c1 1a 48 3f b0 f7 91 be
       -0.22521323 -0.9124591 0.78165823 -0.28509283
000060 c1 22 45 3f 56 96 f1 3d 52 14 a9 3f 1a 3c 4d bf
       0.77006155 0.117962524 1.3209326 -0.8016983
000070 3d a8 fc be 41 7a 6c 3f
       -0.49347106 0.92374045

2.weight f4 [30, 30]
000000 b8 d9 a5 be 86 be df bd a2 cf de 3c 09 da 8f 3d
       -0.3239267 -0.10925011 0.027198616 0.07024009
000010 89 f5 cc bd 2f 3b 82 be 81 d7 25 3e aa 63 fd bd
       -0.100077696 -0.25435778 0.1619549 -0.12372525
000020 df b7 90 be 9c 7e 92 be 89 8d 8c 3e 0b ad 58 bd
       -0.28265283 -0.2861222 0.27451733 -0.0528994
000030 9f 3e 16 3e 1a ab 27 3e eb 79 0d 3e 89 ab e3 bc
       0.14672326 0.16373864 0.1381604 -0.027791755
000040 32 3b c0 be 3e c3 7f be 97 b1 b1 be 21 12 34 3c
       -0.37545162 -0.24976823 -0.34705803 0.01099065
000050 cb 6b 8e 3e 45 d6 10 be 81 97 bd 3d d4 ce fd be
       0.27816615 -0.14144237 0.09257413 -0.4957186
000060 24 c5 4e bd 41 9a 9f 3c 2f 99 6c bd da ea b2 be
       -0.050480977 0.019482734 -0.057763275 -0.34944803
000070 aa 00 cc be 82 8e 82 bd 88 3a 3e bd 03 bd 9a bd
       -0.39844257 -0.063748375 -0.04644254 -0.075555824
000080 29 e3 27 3e 3f b8 c8 bd 0d be a3 be a8 ad ab be
       0.16395248 -0.09800767 -0.31980935 -0.33530927
000090 39 06 08 bf 35 41 a6 be 35 1b 93 bd 24 ef 4c 3e
       -0.53134495 -0.32471624 -0.07182924 0.200131
0000a0 da e9 a7 3d fe 8d eb 3d 0f 09 bf 3d d8 bb 0d 3e
       0.081989005 0.11501692 0.093279 0.13841188
0000b0 19 40 03 be ac f2 9c be 44 35 ae be 8b 43 f7 bd
       -0.1281742 -0.30653894 -0.34025013 -0.1207343
0000c0 21 3e ba 3d 53 f1 ca bd 46 ba 56 3d a7 05 0f be
       0.090938814 -0.0990931 0.052423738 -0.13967
0000d0 21 e9 d0 3d 9d f9 b2 be bd 30 4e bd 30 9c bf 3e
       0.10200716 -0.34956065 -0.05033945 0.3742385
0000e0 4e 8f c8 3e bb cf 56 3e e1 45 a8 3d 8b 40 40 be
       0.39171833 0.2097768 0.08216453 -0.18774621
0000f0 e8 3e cc 3d 97 35 09 bd 3a a7 6e be f6 fc dc bd
       0.09972936 -0.033498373 -0.2330598 -0.10790436
000100 2e f8 be 3e 1b 05 c9 3d f8 89 07 3f 36 e7 74 3e
       0.3729872 0.09815427 0.529449 0.23916325
000110 ea d6 92 3e db ce c3 be d5 1d 39 3e 83 34 43 3d
       0.2867959 -0.38243756 0.18077786 0.0476575
000120 44 9b 24 be 29 cd 56 be 0e 91 be 3c 44 a2 39 3e
       -0.16074854 -0.209767 0.023262527 0.18128306
000130 7c 5b 0d 3e 68 84 1d 3e a1 d9 40 3d f5 d9 b9 bd
       0.1380443 0.1538254 0.047082547 -0.09074775
000140 a8 8b af bd 99 a7 6a 3c 0f 2f 82 3d 2b c8 15 3e
       -0.08571559 0.014322185 0.06356632 0.1462714
000150 55 ef 13 be 63 c0 bd be b2 cd c7 be 70 a0 07 3d
       -0.14446767 -0.37060842 -0.3902412 0.03311199
000160 cd d8 3e 3e 20 43 77 be ca 96 44 be 59 bc 34 3e
       0.1863739 -0.241467 -0.19198146 0.17649974
000170 bb 21 63 3d a6 10 bb bc 0e f0 99 bc 4c 02 2c 3e
       0.05545209 -0.022835087 -0.018791225 0.16797751
000180 f4 93 3e 3e 58 a8 56 be 79 76 2f be 6e be c1 3c
       0.18611127 -0.20962656 -0.17135037 0.023650374
000190 81 0e d1 3e 36 6a 47 bc e0 ec 49 3e 36 27 79 3e
       0.40831378 -0.012171319 0.19719267 0.24331364
0001a0 67 35 b2 bd 05 36 47 be 51 59 11 be c2 3d 91 bd
       -0.08701592 -0.194542 -0.14194228 -0.070918575
0001b0 75 90 d7 bd 2c 42 c9 3d 5f ee 83 be c2 6b 7e bd
       -0.105256 0.098270744 -0.257678 -0.062114485
0001c0 b4 c4 07 3e 33 b7 4a be 5d 47 35 bd 8a 07 30 be
       0.1325863 -0.19796447 -0.04425751 -0.17190376
0001d0 99 18 82 3d 17 ea 9b be 07 70 0e bf e0 7c b5 bb
       0.06352348 -0.30452034 -0.5563969 -0.005538568
0001e0 1a a6 5d be e7 a3 3d 3c c4 63 62 be 45 f5 1f be
       -0.21645394 0.011574722 -0.2210837 -0.15620907
0001f0 f0 55 61 bd 16 77 de 3d 24 7c 85 be 30 85 1f bd
       -0.055013597 0.108625576 -0.26071274 -0.038945377
000200 dd f4 a1 3d 9c f8 06 3c 8a c7 ab 3a b1 b6 99 3d
       0.07908032 0.008237984 0.0013105732 0.07505549
000210 4e a8 bb bc 65 b3 b5 3e ea 80 2e be 6d e3 cf 3d
       -0.022907402 0.3548843 -0.17041364 0.101508
000220 25 23 62 3d a3 ec 44 be 11 d3 cd be bc c6 f3 bd
       0.055209298 -0.19230895 -0.40200093 -0.1190314
000230 9e 19 58 bd d7 97 cf bd 1f af ef 3d 86 3d a2 be
       -0.052758805 -0.10136383 0.117033236 -0.31687564
000240 3e 16 0c 3e 4d e6 2a 3e 57 5e be 3b fa 92 c6 be
       0.1368036 0.16689415 0.005809586 -0.3878401
000250 e0 19 bf be 5d b9 cc bd 29 56 93 3e 6d 8c 8a be
       -0.3732443 -0.09996293 0.28776672 -0.2706026
000260 c4 6e 92 3d 89 4d 70 be 47 a6 98 bc 9e 3b ce bd
       0.07150033 -0.23467077 -0.018633975 -0.10069965
000270 9c 39 6d be 1e 86 21 3d d3 b8 f4 bd 94 06 f8 3d
       -0.23166507 0.039434545 -0.11949315 0.1211063
000280 8b d0 fd bd f7 d1 51 be ae 95 c6 bb c9 01 7e be
       -0.12393292 -0.20490251 -0.0060603237 -0.24805368
000290 4d 6b 46 bd 11 24 81 be a8 cf 70 3d ec be 34 bd
       -0.048442174 -0.2522283 0.058791786 -0.04412739
0002a0 b9 48 56 3e 06 f3 26 3e e6 a4 d2 bc 91 4b 34 be
       0.20926179 0.16303644 -0.025713395 -0.17606951
0002b0 0a 8f 81 3e fe 31 1e bd 3f b9 57 3e 2c 11 29 3e
       0.25304443 -0.038621895 0.2106676 0.16510457
0002c0 f7 02 7a 3d 88 e1 e8 3d 14 55 b5 bd 59 f2 34 bd
       0.061037984 0.11371142 -0.08854118 -0.044176433
0002d0 c8 ec d1 3d 4c 26 7d be 6f 83 5d 3d 1f c0 40 3d
       0.102502406 -0.2472164 0.054080423 0.04705822
0002e0 1f b9 8e 3e 5b 53 4b 3e f1 0a 16 3e 4f 02 8a 3d
       0.2787561 0.19856016 0.14652611 0.067387216
0002f0 4a e5 cb 3e 70 99 91 be 17 3b cc 3d 60 1f 52 be
       0.3982337 -0.28437376 0.09972208 -0.20519781
000300 3e 14 69 be f8 d1 7a bd 43 33 66 3c b3 4a 07 3e
       -0.22761628 -0.061235398 0.014050308 0.13212089
000310 b4 30 2c bd dc 4e 75 3d ec b4 bc 3d f5 1f 92 3d
       -0.042038634 0.05988966 0.092141956 0.071350016
000320 26 fb 78 bd 70 9f 16 be b1 43 99 bd 25 d3 84 bc
       -0.06078639 -0.14709258 -0.07483614 -0.016213963
000330 10 0e 15 3e 45 74 b9 be 0a a4 95 be ec 33 f0 bd
       0.14556146 -0.3622152 -0.29226714 -0.11728653
000340 80 67 15 be a8 a2 3d 3d d5 39 22 3e 20 e3 0a be
       -0.14590263 0.0462977 0.15842374 -0.13563204
000350 ca 4a 0b 3d e1 d8 11 be 31 fa 5f bd 42 55 b3 3e
       0.03400687 -0.14242889 -0.05468196 0.35025984
000360 47 2a 05 3d db 6b 27 3e b0 16 d8 3d a7 af aa bd
       0.032511022 0.16349737 0.10551202 -0.08334284
000370 74 32 86 bd 62 69 af 3d 4f e0 92 be 60 1b 8e bc
       -0.06552592 0.08565022 -0.2868676 -0.017347038
000380 39 32 cc 3d 63 fc 05 3d 3c e6 9a 3e 24 85 49 3e
       0.09970517 0.032711398 0.3025378 0.19679695
000390 5d ff af 3b a4 f7 5a 3d 56 93 58 be 35 97 9e bd
       0.005371018 0.053458825 -0.21149954 -0.07743684
0003a0 5f 2b 47 3e d4 5d 8b 3e e2 6f 08 bd d8 de 8f be
       0.19450139 0.27220023 -0.033309825 -0.28099704
0003b0 3d 70 0c be 77 28 25 be 58 48 5f bd ab 29 8b 3b
       -0.1371469 -0.16128717 -0.05451235 0.0042469106
0003c0 49 42 11 3f 60 6b 41 3d 60 1c 07 bd 2a c0 17 be
       0.5674177 0.04722154 -0.032986045 -0.14819399
0003d0 30 8d a2 3d fd cc 54 bd 91 95 0e 3e d3 53 64 3d
       0.07937086 -0.051953305 0.13924243 0.055744004
0003e0 c4 a2 f2 bd bf 16 e3 bd e6 28 a3 be f0 38 8f 3c
       -0.11847451 -0.11088323 -0.3186714 0.017483205
0003f0 7f 33 6f be ab b2 bb be 51 f7 7a be 8c a3 88 be
       -0.23359488 -0.3665975 -0.24508406 -0.26687276

2.bias f4 [30]
000000 c6 36 1e 3e dd 51 f6 3d d6 02 73 bd f1 f9 06 3e
       0.15450582 0.12027333 -0.059328876 0.13181283
000010 7c 0c 95 bd f0 77 48 be c5 57 a5 bd 45 24 06 be
       -0.07277772 -0.19577003 -0.08073381 -0.13099773
000020 54 26 a1 b9 bf b4 45 3e 83 15 91 3c c9 1b b5 be
       -0.0003073687 0.1930723 0.017710453 -0.3537276
000030 11 20 75 3e 38 70 90 3e 25 84 87 3e cb 71 f9 be
       0.23938014 0.28210616 0.26468006 -0.4871963
000040 9a 2d b7 3d df d2 ab 3d 56 7f fb bd 5a a2 27 be
       0.08944245 0.0838983 -0.12280147 -0.16370526
000050 fe 6f aa 3e 29 64 a2 be 5e e2 a5 be fb 12 61 be
       0.33288568 -0.3171704 -0.32399267 -0.21979897
000060 e7 62 c1 3e 37 5f 62 3e c2 a4 bf 3d 11 28 f7 bd
       0.3777077 0.22106634 0.09357597 -0.12068189
000070 4a 7a 43 3e 7c 29 84 3d
       0.19089618 0.06453225

4.weight f4 [9, 30]
000000 aa 15 0b 3e ae d0 95 bd 63 9c 0f bd a1 85 0b 3d
       0.13582483 -0.07315193 -0.03506125 0.034062985
000010 e8 de e9 3d 78 c9 10 be 9c 44 e8 3c b4 07 c6 bd
       0.11419469 -0.14139354 0.028353028 -0.09669438
000020 e6 fa e5 bd 1d 47 c7 bd 0a ef 16 be fa 1f 3e be
       -0.11229496 -0.09730361 -0.14739624 -0.18566886
000030 41 26 8f bd 15 de a7 bd 50 57 4b be 5c db a1 3d
       -0.06989718 -0.08196656 -0.19857526 0.079031676
000040 db 29 8b bd 25 e4 cc bb 45 02 83 3b 98 d8 6c 3d
       -0.06795093 -0.006252783 0.0039980733 0.057823747
000050 59 d2 be bd be e7 f5 3d f1 b8 28 be 13 ad 3a 3e
       -0.093174644 0.12007092 -0.164768 0.18230085
000060 6b f7 78 3d 35 9a 23 be a2 42 84 3d ba 96 2e 3e
       0.06078283 -0.15976794 0.06458022 0.17049685
000070 6c 43 db bd f5 49 36 be 10 44 94 3e 24 3e f8 bd
       -0.10706219 -0.1780165 0.28958178 -0.121212274
000080 7f 07 8e 3b 9b 01 0d bd 3d b4 24 bc 04 d2 66 bc
       0.0043343897 -0.03442536 -0.010052738 -0.014088158
000090 aa f9 7d bd 68 9a 18 be c4 19 12 be df f0 51 bd
       -0.062005676 -0.14902651 -0.14267641 -0.051255103
0000a0 bf 2f 7d be db d0 88 bc 80 cd b5 3e 87 55 56 3c
       -0.24725245 -0.016701153 0.35508347 0.013081915
0000b0 91 7b bb bd fc 2c 63 be 04 11 0e be 27 3b 07 bd
       -0.09154428 -0.22185129 -0.13873678 -0.033015396
0000c0 0b 85 e9 3d 39 e2 7e 3d 18 40 03 3e 77 e1 73 3e
       0.11402329 0.06222746 0.12817419 0.23816477
0000d0 64 93 d5 bd 1a d3 ba 3e 23 4a 30 3e 9a f6 1d be
       -0.10428503 0.36489183 0.17215781 -0.15426102
0000e0 43 40 b1 bc 26 2d e3 3d ce 7f 0f bf 03 dd c3 3b
       -0.021637088 0.11092596 -0.5605439 0.0059772744
0000f0 72 d2 6f 3c 06 55 98 be cb 71 03 3e d7 8f 9e be
       0.014637576 -0.29752368 0.12836377 -0.30969116
000100 e0 1d 29 3e 6a fc c7 bc 9d 39 e5 3e ff 9a 96 bd
       0.16515303 -0.024412353 0.44770518 -0.07353782
000110 e0 28 1b be 10 70 f2 3d 09 83 92 3c 85 35 04 3e
       -0.15152311 0.118377805 0.017884748 0.12911041
000120 44 9e 01 be e3 25 81 bc 94 0f 81 3e 30 9d 0e be
       -0.1265803 -0.015765136 0.25207198 -0.1392715
000130 66 14 8c bd 31 dd 7a bc 14 63 0a be 4e 8a aa bc
       -0.06839828 -0.015311525 -0.13514358 -0.020817902
000140 e6 25 ae bc 1d 3d 3f b9 17 6c 62 be 75 3e 40 3e
       -0.021258306 -0.00018237946 -0.22111546 0.18773825
000150 f2 a4 c4 bd c4 a7 4b 3e c0 2d 5d 3c 93 4e fc bc
       -0.09601773 0.19888216 0.013499677 -0.030799186
000160 5c 13 68 be 33 a9 64 bc 29 6f bf bd ba f1 9f be
       -0.22663635 -0.013956356 -0.09347374 -0.3123911
000170 f7 91 b0 3d d8 6a 8e 3e 88 52 d2 bc f6 68 8c bd
       0.086215906 0.2781589 -0.02567412 -0.06855957
000180 00 73 21 be 69 de d9 3d 23 89 77 3d a0 17 8a bd
       -0.15766525 0.106381245 0.06043352 -0.06742787
000190 50 da b7 be fe 8f 81 be d1 7b 99 be 08 1a 8d be
       -0.35908747 -0.2530517 -0.29977277 -0.27558923
0001a0 fb 07 46 3d d9 5d 78 be a3 f6 d8 bc ec 24 c8 3d
       0.048347455 -0.2425455 -0.026484793 0.09772667
0001b0 e2 b4 da 3c 81 6c 9c 3c c8 e9 80 bb 17 c9 af 3e
       0.02669758 0.019094707 -0.003934119 0.34333107
0001c0 cd 9f 4a be b2 c2 3e 3d 25 b7 a5 3e a8 a7 7d be
       -0.19787522 0.046572395 0.3236629 -0.24770987
0001d0 05 8a 98 3d 19 00 9b 3e e0 80 9c be b5 02 d3 bb
       0.074482 0.30273512 -0.30567074 -0.0064395317
0001e0 57 0b 4b 3c ae cb 08 be 45 a8 6f 3e d6 c1 b9 bc
       0.01239284 -0.13358948 0.23404033 -0.022675436
0001f0 6e 4d d5 3b 26 4a fb bd 2b 36 fb 3d df ee 03 bf
       0.0065094745 -0.12270002 0.12266191 -0.51536363
000200 1a 4c 82 3e 4d a9 ba bd 1c 62 9f be fc 10 7c 3d
       0.25448686 -0.09114323 -0.3112954 0.061539635
000210 19 97 87 3d 52 5d 7c 3c bf fd 42 3d 75 f5 2b be
       0.066206165 0.015403109 0.047605272 -0.16792853
000220 ae 7d c0 3e df 7a 5f bd b1 2c 32 bf a9 42 78 bd
       0.37595886 -0.05456054 -0.69599444 -0.060610447
000230 c0 29 87 3e 06 a7 fd 3e 6e 0a 08 3e 8a 60 31 3e
       0.2639904 0.4954149 0.13285229 0.17321983
000240 64 c1 df be 2f 0c 57 3e c8 0e 7c be 84 25 13 bd
       -0.43702233 0.21000741 -0.24615014 -0.03592445
000250 ca 14 88 be 46 c3 86 be 3b b2 2a 3e df 5b 1c be
       -0.2657836 -0.26320857 0.16669552 -0.15269421
000260 9b d5 0c be f8 dd 99 3d c0 98 6b bc 02 3b 32 3e
       -0.13753359 0.0751304 -0.01437968 0.17405322
000270 06 87 00 be a9 ef 91 be da 4e d4 3d 3c 3d 04 be
       -0.12551507 -0.2850316 0.10366602 -0.12913984
000280 94 be 80 be 1e bf 9e bd dc 1d 18 3d 2c 7b 82 be
       -0.251454 -0.077512965 0.03713785 -0.25484598
000290 7a 0b 0e bd 23 e0 14 bd ec 34 b1 3d 59 2d 0c 3e
       -0.034678914 -0.036346566 0.08652672 0.13689174
0002a0 e7 b1 65 be c2 6c 83 3e 67 b7 ef bd e8 b6 20 3e
       -0.22431146 0.25668913 -0.11704903 0.15694773
0002b0 49 eb 4d 3e 20 15 3e be a8 ab 66 be 61 0a ba be
       0.20109285 -0.18562746 -0.22526419 -0.36336043
0002c0 11 ef aa bb b0 38 0c 3e 1b 57 15 3e 6d 0b 06 bf
       -0.005216487 0.136935 0.1458401 -0.52361184
0002d0 a6 01 b5 bd bd af 1f 3e b0 bb e6 bd 9b b5 69 bd
       -0.08838205 0.15594383 -0.11266267 -0.057057958
0002e0 b4 2b 4c be ca 9c 3b bd 9a d1 b0 bd 3c 37 83 bd
       -0.19938546 -0.045803823 -0.08633728 -0.064070195
0002f0 14 42 cf 3d dd 6b a3 bd 20 31 2b 3e a0 e4 5b be
       0.10120025 -0.07979558 0.16717958 -0.21473932
000300 ca ad cd 3d 8f f7 8b 3d 10 d2 8c bd e9 96 01 3e
       0.10042913 0.068343274 -0.06876004 0.12655224
000310 ec e8 ce bc ce a2 1a bc c2 cc 48 bc db b4 fd bd
       -0.02525755 -0.00943823 -0.012255849 -0.12388011
000320 3d 84 44 be ed 40 97 3c c7 00 2d be 0d 52 89 bc
       -0.1919107 0.018463576 -0.16894828 -0.016762758
000330 69 f7 ce 3d e3 78 a6 be 7f eb 14 be 65 b1 e4 3e
       0.101057835 -0.32514104 -0.1454296 0.4466659
000340 b6 a2 54 3e 0a fc de be 78 c4 47 3e b5 0f 7d 3d
       0.20765194 -0.43551666 0.1950854 0.061782558
000350 02 39 6a 3e bf 04 cc 3e c6 5d ae bd e2 c1 32 3c
       0.22873309 0.3984737 -0.085139796 0.010910483
000360 34 c0 0b ba b3 7e cf bd 21 0d 79 3e fc 8f 4c be
       -0.00053310697 -0.10131588 0.24321415 -0.199768
000370 58 3f 1f be f5 9c b6 3c 75 87 9a bd 31 ab 1d be
       -0.15551507 0.02229164 -0.07545368 -0.15397336
000380 67 cc 05 3e 32 60 bf bd 83 51 7a bd c7 e4 d9 bd
       0.13066255 -0.0934452 -0.061112892 -0.10639339
000390 a0 b4 cd be 75 d4 fe bc 1e 77 b6 3d ee f0 f0 ba
       -0.40176868 -0.031107167 0.089094386 -0.001838235
0003a0 e8 e2 21 3d 78 d5 c4 3d bf 82 78 be d6 cb a0 3d
       0.039523035 0.096110284 -0.24268626 0.078513786
0003b0 ca a9 96 bd 3d 04 09 3e 06 dc fe bd da ac d2 bd
       -0.073566034 0.13380523 -0.1244431 -0.10286875
0003c0 f6 02 16 be 56 c7 0e 3e e4 63 25 bb a0 14 a8 bd
       -0.14649567 0.13943228 -0.0025236541 -0.08207059
0003d0 14 f7 1c be b7 7c 8f 3e ca d4 34 be e2 f5 e1 bd
       -0.15328628 0.28024837 -0.17659298 -0.110332265
0003e0 0d 54 95 3d 23 1d 73 be 5c 62 a7 be a6 22 1c be
       0.07291422 -0.23741584 -0.3269223 -0.15247592
0003f0 1b b9 0b 3d 59 08 be bd 98 5e ad bd 9c 3b 61 3d
       0.034112077 -0.09278936 -0.08465308 0.05498849

4.bias f4 [9]
000000 5d bd d0 3e 3a 32 a4 3e ff f2 4b 3e b1 0b 95 3d
       0.40769473 0.3206957 0.19916914 0.072776206
000010 bd ac f1 3d 53 80 3a 3e d5 ed 53 3d ff 43 80 be
       0.11800525 0.18213014 0.051740486 -0.25051877
000020 5e b2 58 bf
       -0.84647167

0.weight f4 [30, 2]
000000 32 b6 88 3d 8d 57 4e bf 6e 25 8d 3c 5f 97 04 be
       0.06675376 -0.8060234 0.017229762 -0.12948368
000010 79 3f d7 3d 42 2d e1 be 07 41 27 3f ea 2a b5 3e
       0.10510153 -0.4397984 0.653336 0.35384303
000020 3b c1 5b be af 2b a9 be c8 03 8d 3b 1c 3c ef 3e
       -0.2146043 -0.3304114 0.0043034293 0.46725547
000030 36 04 fa 3e 0e 25 07 3f b7 31 06 be 99 da 18 3f
       0.48831338 0.52790916 -0.13104902 0.59708554
000040 ae 06 58 be 95 35 b9 be 63 c6 41 3e ea 5e 28 bf
       -0.21096298 -0.36173692 0.18923335 -0.6576983
000050 0e 03 2c 3d d7 05 03 bf 02 b7 94 bb 16 05 54 be
       0.0419951 -0.51180786 -0.004538418 -0.20705065
000060 33 91 c5 3c e1 e8 e5 be a7 14 4b bf 53 8e 9e be
       0.024117088 -0.44904235 -0.7932839 -0.3096796
000070 b1 6c eb 3e 25 9b 2f bf d4 a9 01 3e 31 3a 2e bf
       0.45981362 -0.68596107 0.1266244 -0.68057543
000080 02 99 06 3d 1b 46 25 3f b7 e9 84 3f 37 0a b8 bd
       0.032860763 0.645601 1.0383824 -0.08986323
000090 f8 d5 90 3e e4 c3 f6 3e 32 b4 21 bd fc 1c 5f 3f
       0.28288245 0.48196328 -0.03947849 0.871536
0000a0 00 2d 50 be 2a 0b 97 be 68 aa f7 3d 88 4f 36 be
       -0.20329666 -0.29500705 0.12093049 -0.17803776
0000b0 26 93 ef bd fe be 13 3c 1f 29 28 bf c1 8b 59 be
       -0.11697988 0.009017704 -0.65687746 -0.21244718
0000c0 23 9f e5 3d a5 9c 70 bf f5 91 dc bc 41 df cd 3d
       0.112119935 -0.9398902 -0.026925066 0.10052348
0000d0 2b 89 d4 be b4 ca 62 bc 43 d9 a6 3d 40 ab 2a 3f
       -0.415109 -0.0138422735 0.08146908 0.66667557
0000e0 87 1d 22 be 4b 1d d1 be c1 1a b6 3e 6b 54 88 3e
       -0.15831576 -0.4084266 0.35567287 0.26626906

0.bias f4 [30]
000000 18 71 8e bd 6c 0e 00 bf e9 57 32 3d 54 56 4e bf
       -0.06955165 -0.50022006 0.04354087 -0.80600476
000010 54 96 9c be ec ac 90 3e 74 6e f0 be 02 f8 3a bf
       -0.3058344 0.2825693 -0.4695927 -0.7303468
000020 23 09 04 bf 00 4f 1d 3f 29 71 28 3f 95 ab 8e be
       -0.5157644 0.6144867 0.6579767 -0.27865282
000030 8b 74 43 3f ea 0c a8 bf 91 99 ae bf 60 5f d0 3e
       0.76349705 -1.3128941 -1.3640615 0.40697765
000040 b0 a4 81 3e 98 55 b8 3f 11 93 84 3e 96 93 72 3f
       0.2532096 1.4401121 0.25893453 0.9475645
000050 ff 43 ac 3e f8 d1 70 3e 70 d8 31 bf fe e2 3f 3f
       0.33645627 0.23517597 -0.6947088 0.7495574
000060 2b df 2c bf e6 02 4d 3f 7c d2 b1 3d 19 b3 bf be
       -0.6752803 0.8008255 0.08682725 -0.37441328
000070 05 3b ea ba 8d 89 d7 3d
       -0.0017870372 0.105242826

2.weight f4 [30, 30]
000000 fd fb df be 9b 80 4d be 8d 9f 80 be d8 d7 4f 3e
       -0.4374694 -0.2006859 -0.25121728 0.20297182
000010 f0 11 bf 3d a4 a0 a5 3e a3 79 ce bd d3 cd 83 3e
       0.09329593 0.32349122 -0.10081794 0.2574297
000020 f0 6c 4c be ff 99 fc be d7 37 f2 be 25 cc 13 be
       -0.19963431 -0.4933624 -0.47308227 -0.14433344
000030 b8 6d d0 be 3c bd 56 3e 32 c9 37 be 40 22 b3 be
       -0.4070871 0.20970625 -0.17947844 -0.34987068
000040 9e 6c 23 3e 71 7a 8d be ba 94 7e ba dd c2 9b 3d
       0.15959403 -0.27632478 -0.0009711493 0.076055266
000050 1b 76 c7 3b 08 24 d4 bc 02 d0 e1 3d 1e 78 25 bc
       0.0060870773 -0.025896087 0.110260025 -0.010099439
000060 7b cd 85 be b1 2a 14 3d a4 d0 8d 3e 28 b1 6e 3d
       -0.26133332 0.036173526 0.27698243 0.058274418
000070 04 b3 cf bd 40 c2 e7 bd 38 f8 13 3e 3e 16 99 3e
       -0.101415664 -0.11316347 0.14450157 0.29899782
000080 a1 32 1e 3e 9a 7c 3f 3d 30 e3 1b 3a b6 dd cd bc
       0.15449001 0.04674969 0.00059466343 -0.025130134
000090 01 e0 52 be 96 7e ed 3b a2 41 5f 3e 75 ac d3 bd
       -0.20593263 0.0072477562 0.2180238 -0.10335628
0000a0 db e1 d4 bd ff 5e 1c 3e 0a 14 1f 3d 72 78 13 3e
       -0.10394641 0.15270613 0.03883747 0.14401415
0000b0 60 55 c1 3e 80 cf 34 be 1f fc a2 bd 39 04 5b 3d
       0.37760448 -0.1765728 -0.079582445 0.053470824
0000c0 cd 97 ca 3c 43 b2 9c be 1c d1 e1 3d a9 cb 0b be
       0.024730587 -0.30604753 0.110262126 -0.13651909
0000d0 7d 6e 95 bd a5 bc 8c 3c 64 46 b5 3c cb 79 4e be
       -0.072964646 0.017179796 0.022128291 -0.20163648
0000e0 28 be 06 be 4f 0e 56 3e 0f 54 8f 3d 8c 37 7e be
       -0.13158476 0.20903896 0.06998455 -0.24825877
0000f0 49 35 d5 bd b6 23 ba 3e e1 1d 29 be 54 cf 9c 3e
       -0.10410554 0.3635537 -0.16515304 0.3062693
000100 a2 40 4f 3d 9d 81 93 3d 3e 97 8a 3c 21 9c 11 3d
       0.050598748 0.07202456 0.016917821 0.035549287
000110 95 69 90 3e 5e 28 28 3e 25 91 b9 bd 80 37 e5 3d
       0.28205553 0.16421649 -0.09060887 0.111922264
000120 09 8e ad 3d d3 ad 81 3d a3 24 fb bd 74 1e 99 bd
       0.08474357 0.063319825 -0.12262847 -0.074765116
000130 4c 6b 54 bd 0d e1 0f 3e 9a 43 90 3c ba 3f 43 3e
       -0.05186014 0.14050694 0.01761036 0.19067279
000140 73 9b 1e 3e 08 97 9b 3d e5 93 f2 3d 43 e1 0d be
       0.15488987 0.07597166 0.11844615 -0.13855462
000150 aa 6f 79 3d ac 9f 80 be 63 4a c7 3d bf 66 f2 3d
       0.060897507 -0.2512182 0.09730985 0.118360035
000160 af 55 b1 3c 84 29 f4 3d 70 72 08 be 9e 46 58 be
       0.021647302 0.11921981 -0.13324904 -0.21120688
000170 9c 81 5d 3d 21 5f 23 be bd b5 75 be 0c 8d 82 3d
       0.054078683 -0.15954258 -0.23995109 0.06374559
000180 b8 b6 1b bd a5 13 a7 3d a1 d7 3e be 24 8b 57 bd
       -0.03801605 0.08158044 -0.18636943 -0.05262293
000190 42 5b 1d 3e ac 0d 69 bd 06 55 aa bd 38 e1 27 be
       0.15366843 -0.056897804 -0.08316998 -0.16394508
0001a0 a6 9a 97 be ec 6a 16 be f3 d8 21 bd 70 28 1b be
       -0.29610175 -0.14689225 -0.03951354 -0.15152144
0001b0 29 09 dc 3d 3c 13 94 3e 7a 5c 33 3e 0a 67 f0 3d
       0.10743935 0.28920925 0.17515746 0.11738403
0001c0 64 da 05 3e ad 0c 50 3c 08 cc 8f be a7 36 74 3d
       0.1307159 0.012698335 -0.2808535 0.059622433
0001d0 dd 61 1f be b0 70 6e bd 40 91 4b 3d fb 29 05 3e
       -0.15564676 -0.058212936 0.049699068 0.13004296
0001e0 e8 26 2c 3e f2 c4 9f bd 84 f8 8a 3e 6d 21 fc 3e
       0.16811717 -0.07801236 0.27142727 0.49244252
0001f0 a2 5b 11 3d 05 ec 07 be 00 f0 a7 3e 5d 0e ca 3a
       0.03548778 -0.13273628 0.32800293 0.0015415658
000200 f6 4d f6 bc 8f 41 2d 3e 1f 9b 52 3c 57 ef 59 3e
       -0.030066472 0.1691954 0.012854367 0.21282707
000210 f7 f5 ec 3d 41 40 1d be a6 3c 0c 3e f1 cd 31 3e
       0.115703516 -0.15356542 0.1369501 0.17363717
000220 1e 6e f7 bd fa c8 6a 3e e4 98 dc 3d a2 55 9d 3b
       -0.1208155 0.22928229 0.10771349 0.004801468
000230 e4 13 b4 be 72 9d f6 bd ca 76 ac 3e 3c 96 01 bf
       -0.35171425 -0.12041749 0.3368438 -0.50619864
000240 fe 72 fa bb ee 70 a6 be dc 35 ac be 49 ea 4d bc
       -0.0076431027 -0.32508034 -0.3363484 -0.012568065
000250 0d 68 dd 3c a8 6e 05 3e b2 9e 92 bd 29 8d f1 bd
       0.027027154 0.13030493 -0.07159175 -0.11794502
000260 f8 bb 9a 3d bd be a5 be 6a 00 c9 3e 09 8d a4 3d
       0.075553834 -0.32372084 0.39258128 0.08034713
000270 fe b1 5b be 8b 0e 79 3e 82 cf b6 3e 93 80 9e be
       -0.21454617 0.24321954 0.3570519 -0.3095747
000280 14 f4 90 be ea be e2 3d 02 d9 48 be ab a0 b9 3e
       -0.28311217 0.1107157 -0.19614032 0.36255392
000290 aa 62 02 3e 33 29 f5 3c 6d 2a 6a 3d 69 a8 c9 be
       0.1273295 0.029926872 0.057169367 -0.393863
0002a0 ca db fa be 55 4d 22 be 67 3e 14 3e 24 8a 05 3e
       -0.4899581 -0.15849812 0.1447693 0.13040978
0002b0 6a 89 fb bc 41 b9 04 3f a1 f1 48 bc c0 ef 47 3e
       -0.030705173 0.51845175 -0.01226464 0.19525051
0002c0 24 be b0 3d ab 83 ba 3d 9d a8 ad bc fd d9 c4 be
       0.086300164 0.09107145 -0.021198565 -0.38447562
0002d0 bc 64 2c be 0a 51 5b be 58 58 7a bd 65 34 c8 bc
       -0.16835302 -0.21417633 -0.061119407 -0.024439046
0002e0 ca 9e 1d be 9c b5 37 3e 85 62 92 3d 6e 59 18 bc
       -0.15392604 0.17940372 0.07147697 -0.009298665
0002f0 1c ac 8b be 88 52 b0 bd eb 4b 13 be 0c 5c 75 be
       -0.27279747 -0.086094916 -0.14384429 -0.23960894
000300 24 4f ef bd 67 57 ff bd d8 50 61 be 7d c6 ce bd
       -0.11685017 -0.124678425 -0.22003496 -0.100964524
000310 30 52 8f 3e c9 6e 14 bc 8c 73 6f 3e cc 67 84 3e
       0.27992392 -0.009059616 0.23383921 0.2586044
000320 d1 d0 0f be 25 8b a9 3d 24 62 e8 3d 59 48 30 bd
       -0.14044501 0.08278493 0.11346844 -0.043037746
000330 bb ab b1 be 4e 1f b9 3d a8 98 81 3c 86 66 6e 3e
       -0.34701332 0.09039174 0.015819862 0.23281297
000340 d6 57 8b be b4 9b 64 bd 08 4f 84 3d 01 5f 05 bf
       -0.2721545 -0.055812553 0.064603865 -0.5209809
000350 a7 50 fe 3d 02 21 a4 3c 7d d0 b2 be 62 3a 8d 3e
       0.12417727 0.02003527 -0.3492469 0.27583605
000360 ad 0c e2 3e 7a 96 88 be ea 00 10 be 10 a1 28 3e
       0.44150296 -0.26677305 -0.14062849 0.1646769
000370 fb ff 78 3e e1 4a 91 bd 70 c8 79 3e 7f 6b c9 be
       0.24316399 -0.0709436 0.24392867 -0.39339826
000380 82 ac db be 25 ad 94 3e 7a c8 f2 3d 24 55 c2 3e
       -0.4290505 0.2903835 0.11854644 0.37955582
000390 ba 68 12 3e c3 f3 ba 3e 91 b7 31 be bd f5 8a be
       0.14297763 0.365141 -0.17355181 -0.27140608
0003a0 88 0a e8 bd aa fc 7a bd 60 e9 54 be 53 27 c8 3e
       -0.11330134 -0.061276115 -0.2079215 0.39092502
0003b0 f1 ad 20 be b2 d7 3b 3e eb 6f 87 be ba ae 7d 3e
       -0.15691353 0.18344 -0.26452574 0.24773684
0003c0 f3 c1 ba bd 53 32 dc bc fa 69 89 be 9d e4 14 bd
       -0.09119024 -0.026879465 -0.26838666 -0.036350835
0003d0 fc 5e 16 3d 26 7f 2f 3d aa 67 21 be d3 26 b4 bc
       0.036711678 0.042845868 -0.15762201 -0.02199117
0003e0 8e 38 87 be 49 d2 83 bd 7c d7 f8 bd 6a 5b f9 3d
       -0.26410335 -0.06436593 -0.121504754 0.12175639
0003f0 a4 7f 9e bd 62 78 f8 3b a0 c9 6f be 45 c6 48 be
       -0.07739189 0.00758271 -0.23416758 -0.19606884

2.bias f4 [30]
000000 0a b9 48 3e 53 c3 c1 3d ea 9c b4 bd 97 b7 e1 bd
       0.19601837 0.09461083 -0.088189915 -0.11021345
000010 5d 50 e0 be 3c 4d 97 3e ad ac 3b 3e 57 c5 6d 3e
       -0.43811312 0.29551113 0.1832759 0.2321981
000020 1e 92 aa bd 5e be 25 be d8 0a 23 bc c4 6a 80 3e
       -0.08328651 -0.161859 -0.009951316 0.25081456
000030 83 d5 38 be 1b 9f 0d bc 28 a4 d0 bd fa 61 c8 bd
       -0.18050198 -0.008643891 -0.1018756 -0.097843125
000040 c5 5d 8e 3c 9c ae 05 bd b7 91 3b be b5 b2 46 3e
       0.017378697 -0.032637224 -0.18317305 0.19404109
000050 e3 14 59 be ed 00 5a be 62 19 88 3e d5 b2 31 be
       -0.21199374 -0.21289416 0.26581866 -0.17353375
000060 7a dd cc 3e c3 23 80 3d c0 95 06 be 60 36 4a be
       0.40012723 0.06256821 -0.13143063 -0.19747305
000070 94 b7 0a be cd b4 04 bd
       -0.13546592 -0.032398988

4.weight f4 [9, 30]
000000 2c 02 4f be 2e fa e3 3d 5c 21 8e 3d 19 3a 46 3c
       -0.20215672 0.11131702 0.069399565 0.0120988125
000010 f1 6b f7 3c f5 34 cc 3d 39 64 10 3c 43 b2 59 3d
       0.030202838 0.09971038 0.008812957 0.05314852
000020 24 fd 0c bd 42 57 30 3d 7f 60 ba bd 83 3e 33 3e
       -0.0344211 0.043051966 -0.091004364 0.17504315
000030 a0 5b 4b bd 5c 34 60 be 6f 98 38 3e 23 db 2e bd
       -0.049647927 -0.21894974 0.18026899 -0.042689454
000040 fd 73 12 be 2b fc 84 3d 56 8e 97 bd 5e b5 42 3d
       -0.14302059 0.0649341 -0.07400195 0.047536246
000050 6f eb ab bd 35 ad 6d 3b 37 db 8f 3d 5f e7 8d 3c
       -0.08394515 0.003626657 0.07024234 0.01732224
000060 c7 2c c1 bc 74 70 59 3d 0a 69 a4 3d 5d b1 cd bc
       -0.023580922 0.05308576 0.08027847 -0.025108987
000070 4d 77 d5 bd 69 b9 05 be 0e 92 83 be 4e 7b 4e bd
       -0.104231454 -0.1305901 -0.25697368 -0.05041056
000080 9a 29 15 3d 7e 57 a1 bd 5b 92 bf 3e 2d c0 86 be
       0.036416627 -0.07878016 0.37416348 -0.26318493
000090 97 0a 45 3c e7 4b 90 3e fe 7d aa 3d 6e 53 30 be
       0.012026451 0.2818291 0.08324812 -0.17219326
0000a0 8b 3e 17 3e a5 37 4e bd 56 bc d6 bb c0 4a a2 be
       0.14769952 -0.050346036 -0.006553213 -0.31697655
0000b0 9f 15 44 3b 8d a6 28 3e d9 45 ea 3a f2 fb a2 3e
       0.0029920114 0.16469784 0.00178736 0.31832844
0000c0 ef 71 4a 3e c7 c0 bd be 77 c9 ce 3e bb ab 4a 3e
       0.19770025 -0.3706114 0.4038808 0.19792072
0000d0 be 31 47 3e 9b b5 ea 3d 1d 20 68 be ac 92 69 3d
       0.19452569 0.1146042 -0.226685 0.057024643
0000e0 d6 b0 04 3d 04 d2 c1 be 54 98 e9 3c 7f 86 a3 bd
       0.032395206 -0.37855542 0.028515019 -0.079846375
0000f0 9f 60 29 be fd 5f 2a be f7 45 f1 bd 51 90 d0 bd
       -0.16540764 -0.16638179 -0.11780923 -0.10183776
000100 cb d3 83 3d ba 8a 3b 3c 41 4e 5b 3e 83 d7 bc bc
       0.06436881 0.011446649 0.2141657 -0.023051983
000110 f7 86 8c 3b 2e 28 60 3d 04 b1 9d bd ae 14 c7 be
       0.00428855 0.05472582 -0.07699779 -0.38882965
000120 c5 d7 9f 3c ec b6 90 be b3 9e 74 bd 4d 6c b8 b9
       0.019512067 -0.28264558 -0.05972166 -0.00035175905
000130 65 7a 40 be 15 cf a7 3e 3f bd 77 3c 16 d3 80 bd
       -0.1879669 0.3277518 0.015120803 -0.062902614
000140 d0 b2 4d be f1 c4 7a 3e 2d b9 90 3b 0d 71 c4 bd
       -0.20087743 0.2448919 0.004416606 -0.09591875
000150 67 b7 03 bd 8f d0 eb 3d 76 d1 67 3d 0f 7e 85 bb
       -0.032157328 0.11514389 0.056596242 -0.0040738652
000160 61 2b ee bd 70 d9 86 3d 28 ae a4 be c6 24 1f be
       -0.116293676 0.06584442 -0.3216412 -0.15541372
000170 2a 23 32 be ab 52 34 3e 76 94 c3 bc 12 c5 c0 be
       -0.17396227 0.1760966 -0.023874503 -0.37650353
000180 07 e1 47 3e 7c e7 3d be 63 a6 f8 bd fb 98 c3 be
       0.19519435 -0.18545336 -0.12141111 -0.38202652
000190 54 9f 52 bc 1d 47 8a be dd 06 88 bc 6a b4 e6 3d
       -0.01285537 -0.2700738 -0.016604835 0.1126488
0001a0 1e 83 4d be 99 06 60 3e b1 11 e9 3e 2a 5f 78 bc
       -0.20069548 0.21877517 0.4552131 -0.015159408
0001b0 11 f5 70 3d f6 b8 0c 3d 3b 25 e9 3c 84 49 12 be
       0.058827464 0.03435608 0.028460136 -0.14285856
0001c0 23 17 a3 be 5f 88 05 be 9e 45 91 3e 19 11 b5 be
       -0.3185359 -0.13040303 0.28373426 -0.35364607
0001d0 d5 ce 0c be 01 ce 01 3c f1 c1 36 3e 5f 08 0b 3e
       -0.13750775 0.00792265 0.1784742 0.13577412
0001e0 e0 7a 90 be 7a 6a 05 be 88 2e 27 3d 9a 04 17 be
       -0.28218746 -0.13028899 0.04081586 -0.14747849
0001f0 43 a9 ae 3c 46 b1 d0 3d d1 1d 12 be e9 4b 99 be
       0.021320945 0.10190062 -0.14269187 -0.29940727
000200 1e 87 9b be 92 a9 ff bd 71 55 6e 3e 10 0c f0 bc
       -0.30376524 -0.12483515 0.23274781 -0.029302627
000210 d2 d9 ab 3d 77 d9 48 3e 9c ab 42 3d 24 96 c7 3c
       0.08391155 0.19614206 0.04752694 0.024363585
000220 dc 3a a2 bd f1 1f ea 3e 3f 34 95 3e 85 f3 6d bd
       -0.07921383 0.45727494 0.29141423 -0.058093566
000230 97 11 31 be 3d f6 9c bd 3d 59 99 bd ef ea e8 3d
       -0.17291866 -0.07664154 -0.07487724 0.11372935
000240 ed 99 b0 3e 52 ed 15 be 89 e8 14 bc 44 ff 16 bc
       0.34492436 -0.14641312 -0.009088644 -0.0092161335
000250 6d 15 92 3c 34 c7 ae 3e 39 ac 78 bd 4f 06 28 bd
       0.017832482 0.34136355 -0.06071112 -0.04102164
000260 8f ea 35 be 91 fa 20 be 39 cb 89 3e bf e8 12 be
       -0.17765258 -0.15720583 0.2691286 -0.14346598
000270 7a ba 05 be 5d cd a4 3e 0c 0d 10 bd fa 17 42 3e
       -0.13059416 0.3218793 -0.035168692 0.18954459
000280 b3 75 09 be 6f 11 f1 bc 66 51 52 be 0e a4 6a 3e
       -0.13423805 -0.029427258 -0.20538864 0.22914144
000290 79 8a 61 be ae c4 83 3c 55 a3 6b bd 1e ad 33 bd
       -0.2202548 0.016084995 -0.057528812 -0.04386627
0002a0 3b d0 b8 3e 95 42 ff 3d d1 4d 8f 3d 4e bf 35 be
       0.36096367 0.124638714 0.06997264 -0.17748758
0002b0 8f 02 f7 3e 98 7e ab 3d d4 7f 8b be ad 7b 84 be
       0.4824414 0.08373755 -0.27245963 -0.25875607
0002c0 96 57 30 3d a9 ef 12 3e 1c 0a 89 3e d1 85 3e 3e
       0.04305228 0.14349236 0.26765525 0.18605734
0002d0 8c de 80 be 5a e4 77 3d 90 a6 d3 bd 8d de cf bc
       -0.2516979 0.060520507 -0.10334504 -0.025374675
0002e0 f0 1a 0f 3e 53 63 b0 3a 15 87 21 be b2 5c bc be
       0.1397512 0.0013457335 -0.15774186 -0.3678947
0002f0 c9 56 84 3e c8 a7 ef bc 78 59 f9 bc 3a 20 d7 be
       0.25847462 -0.029254809 -0.03043817 -0.42016774
000300 ae a3 e3 3d 54 78 68 be fa 8f 07 3e b2 d4 3e bd
       0.11115204 -0.22702152 0.13238516 -0.04658956
000310 d3 f8 12 be 1a 40 43 3e 24 e0 90 3e b8 10 f3 3e
       -0.14352731 0.19067422 0.28296006 0.47473693
000320 e3 ad 9b 3d 9d a5 9c 3e fa ca 3b 3d 4a a3 ae bd
       0.07601526 0.30595103 0.04584787 -0.08527239
000330 2f 3a f1 bd 4b b1 4e 3d 97 88 d5 3e 0f a0 3c bd
       -0.11778676 0.05046205 0.41705772 -0.04605108
000340 6a 81 9f bd 2b 23 8a 3e 6f 04 cf 3d 89 41 89 3e
       -0.07788356 0.26979956 0.101082675 0.26807812
000350 a6 23 96 be 9c 7e 86 be 68 fb 70 3d ec 87 ee bd
       -0.29324073 -0.2626847 0.05883351 -0.11647019
000360 76 56 7d be 1f 95 c0 3e 2e e4 11 be 1f 37 9c be
       -0.24740013 0.3761377 -0.142472 -0.30510804
000370 fa 6d 5f b8 6e 32 6a 3e d0 a5 b5 3d e4 0a 8f bd
       -5.3269767e-05 0.228708 0.08869517 -0.06984499
000380 96 7f 50 be f5 ca 53 3e 05 1d 9e 3e 8e a9 b2 be
       -0.2036117 0.2068289 0.30881515 -0.34894985
000390 5f 79 c4 be 27 27 14 bf e5 cb 05 3f 9c 0c 4b be
       -0.3837385 -0.5787224 0.52264243 -0.19829029
0003a0 d8 3b 83 3e 2d b4 a5 3e 98 8e 27 3e 69 8e 85 3e
       0.25631595 0.32364026 0.16362989 0.26085213
0003b0 6c fd 84 be 08 e0 74 3e e5 b0 9b 3e 55 97 8f 3d
       -0.25974596 0.23913586 0.30408397 0.07011286
0003c0 0e 96 88 bd 07 d9 dc be 9e 54 cb 3e 1b ec 94 3e
       -0.06669246 -0.4313433 0.39712995 0.29086384
0003d0 14 4b 8e be 84 fe 07 bd 43 07 a5 bd 36 0f 14 be
       -0.27791655 -0.03320171 -0.08058026 -0.14458928
0003e0 45 28 61 3e 40 8c b3 be 22 b4 bc 3e cb 00 bc 3c
       0.21988018 -0.3506794 0.3685618 0.022949597
0003f0 7e 51 06 3e 20 4e 28 3e 77 84 8d 3e 90 80 1c 3e
       0.13117024 0.16436052 0.27640125 0.15283418

4.bias f4 [9]
000000 2a f7 3a bd 05 c8 d7 be 56 58 bf bc 69 50 df 3d
       -0.04564587 -0.4214479 -0.023357552 0.10904009
000010 2b b3 92 3d 80 5d 0d bd 02 cc b6 bd 46 48 1f 3d
       0.0716308 -0.034512997 -0.0892563 0.038887285
000020 54 9c 69 be
       -0.2281354

0.weight f4 [30, 2]
000000 c9 5b b0 3f 42 f2 78 bd f1 da 86 bf 3a 84 17 bf
       1.3778011 -0.06077791 -1.0535566 -0.59186137
000010 78 ac a8 3d 97 f3 6d 3f 39 cb 9c bd 81 bd 7d 3f
       0.08236021 0.92949814 -0.07655949 0.99117285
000020 43 8c 10 be 01 64 39 be e0 15 39 be ac 3d 28 be
       -0.14116006 -0.18104555 -0.18074751 -0.16429776
000030 ee 81 6b 3f 70 c6 f4 3e 8f 19 8c 3f 0c e5 ea be
       0.9199513 0.47807646 1.09453 -0.45877874
000040 db ec 00 bf ce 26 f6 bd 3b e7 63 3f 7d a8 9a 3e
       -0.5036141 -0.1201912 0.89024705 0.3020667
000050 52 ef 14 3f dd 5b a9 bf 98 b9 0c be 37 5b 19 bf
       0.58177674 -1.323116 -0.13742673 -0.5990481
000060 38 48 4a bf ea 7c 90 3e 2f e4 d1 be f7 d2 86 3f
       -0.7901645 0.28220302 -0.40994403 1.0533131
000070 41 ad 85 be 2b b3 72 3e c0 9c 97 3f 77 b6 ba bf
       -0.26108745 0.2370116 1.1844711 -1.4586934
000080 40 c4 ca bd 59 e4 22 be 61 43 d2 3e fc a2 6f 3f
       -0.09900713 -0.1590742 0.4106703 0.9360807
000090 4d 87 d2 be db 84 0b bf 35 d2 67 3f eb 1d e8 3e
       -0.4111885 -0.54499596 0.90555125 0.45335326
0000a0 9f d4 5f bd 06 d3 39 3f 68 f5 14 bf d5 44 b3 bd
       -0.05464613 0.7258762 -0.5818696 -0.08753363
0000b0 4d 25 00 3f 1d ef 8c 3d 37 19 ec be c2 2e ca 3e
       0.50056916 0.06881545 -0.46112987 0.39488798
0000c0 a2 47 94 bf 8e 28 d6 be 0e 2d 92 3e 96 72 15 bf
       -1.1584361 -0.41827816 0.2855 -0.5837797
0000d0 c1 60 b1 be ab f3 51 3f 18 90 8c 3e c6 c8 ad bf
       -0.3464413 0.8201243 0.27453685 -1.3576896
0000e0 ec 2e 1b bf aa 51 7f bf ec 20 a4 3e 49 79 3b bf
       -0.6061847 -0.99733984 0.32056367 -0.7323194

0.bias f4 [30]
000000 76 f9 4e bf c4 38 36 3e 92 e0 43 bf 3a 0e 50 bd
       -0.808494 0.17795092 -0.7651454 -0.050794818
000010 11 14 4e bf f2 f3 24 bf f9 f4 4f be 15 4b a2 bf
       -0.8049937 -0.6443473 -0.20308293 -1.2679163
000020 b7 cb 3a bf 41 7d 66 3f ed a8 b9 3e 1f 95 b5 be
       -0.72967094 0.9003487 0.36261693 -0.35465333
000030 12 69 3f be 04 3e 8a 3f a8 bf 9d bf 0d 90 5e be
       -0.18692425 1.0800176 -1.2324114 -0.21734639
000040 a2 f2 3b bf fa 62 10 bf 1e 2d b9 3d f9 da 78 bf
       -0.73417103 -0.56401026 0.090418085 -0.97209126
000050 be 2f f6 3e 37 b5 9a bf f5 a3 80 3f 44 59 85 bf
       0.480833 -1.2086552 1.0050036 -1.0417867
000060 28 53 b5 be 98 d2 6d 3f 50 06 89 bf 09 00 ac 3f
       -0.35415006 0.92899466 -1.0705051 1.3437511
000070 f3 27 20 bf 9f ac ae 3c
       -0.6256096 0.021322547

2.weight f4 [30, 30]
000000 b2 9d e1 bd c7 9d fa bc 7d c8 27 3d d1 91 7b 3e
       -0.11016406 -0.030592812 0.040962685 0.24567343
000010 59 05 7e bd 90 e3 00 be 45 e7 96 3e 73 fc 7f 3d
       -0.06201682 -0.12586808 0.2947332 0.062496614
000020 58 05 09 be 6b 28 07 3e 01 18 45 be 51 ad 10 be
       -0.13380945 0.13199012 -0.19247438 -0.14128615
000030 30 2c e3 3d bb ac d0 3c 01 67 d9 be e1 cf 83 bd
       0.110924125 0.02547299 -0.42461398 -0.06436134
000040 0c 48 8f bc 9a 8c 70 bd 8d fc 9a bd 54 f1 1b bd
       -0.01749041 -0.058727838 -0.075677015 -0.038071945
000050 88 eb 24 3d b0 04 de be 7f 42 b9 3e 22 5c 94 be
       0.040263683 -0.4336295 0.36183545 -0.28976542
000060 72 02 08 bd 96 66 81 3e 95 14 1b bb f6 da 5b 3d
       -0.033205457 0.2527358 -0.002366339 0.053675614
000070 36 a2 f1 3d 47 d8 ef 3d eb be 8c 3e 22 58 dc 3e
       0.117985174 0.117111735 0.2748941 0.4303599
000080 84 7c 64 bd 29 d7 de 3d 4b 50 88 3d 6f 54 37 be
       -0.05578281 0.10880882 0.0665594 -0.17903303
000090 ab 26 ed bd f4 12 d8 be 34 39 9b 3e 9b b5 14 bf
       -0.11579641 -0.4220196 0.3031708 -0.5808961
0000a0 5a 6f fe 3d 64 62 82 be 5b 3e 21 3d 29 55 cd 3e
       0.124235824 -0.2546569 0.039366107 0.40104035
0000b0 7f 26 11 3e 45 c9 ad bd 15 c2 81 ba 7e 03 54 be
       0.14174841 -0.08485655 -0.000989976 -0.20704457
0000c0 e8 34 ba 3e 19 bc 47 3e 90 09 b1 3e b4 cd ae 3e
       0.3636849 0.19505347 0.34577608 0.34141314
0000d0 8a ca 8b be 36 90 1f 3e 6c c4 97 3e 2e df 30 3d
       -0.27302963 0.15582356 0.29642045 0.04318159
0000e0 8e ff 7c 3c 6b 8c 9e 3e 18 1a 9a be d5 6a 1c 3e
       0.015441788 0.30966505 -0.30098033 0.15275128
0000f0 a7 66 35 be 5b be 8c bd 74 53 e6 3e 80 de 93 3e
       -0.1771494 -0.06872245 0.44985545 0.28880692
000100 c0 d4 e6 bd 51 f9 a0 be 2d aa 39 3e 11 33 d0 be
       -0.112710476 -0.31440213 0.18131323 -0.4066396
000110 51 97 4a ba 55 88 9a 3e 1a 2d e1 bd b8 ba be be
       -0.00077282364 0.30182138 -0.109949306 -0.3725183
000120 57 f2 20 3e 93 72 09 3f 73 30 19 be c7 33 23 bd
       0.15717445 0.5369045 -0.14959888 -0.0398443
000130 75 fe dc be d9 b8 47 3e aa c2 a1 be 28 d8 26 be
       -0.43162885 0.19504108 -0.3159383 -0.16293395
000140 ac 87 3b 3e a9 79 95 be bc bb ef 3d a5 36 1f bd
       0.18313473 -0.29194382 0.11705729 -0.038870472
000150 88 b1 da be f8 83 14 be a3 0e 34 bd a3 6e 31 be
       -0.4271357 -0.14503467 -0.04395927 -0.17327361
000160 ad 07 48 bf 3c 7c fe bd 7c 5e 05 bf 91 95 72 be
       -0.7813671 -0.124260396 -0.52097297 -0.23689868
000170 1e e4 e0 3e ef ee 7c 3e c6 c7 98 3e bd b4 87 bd
       0.4392404 0.24700521 0.29839915 -0.0662627
000180 8c 2c 33 be 37 27 3c be 50 62 52 3e 50 7e 50 bc
       -0.17497462 -0.18374334 0.20545316 -0.012725428
000190 14 86 49 bf a5 12 11 be 45 01 9b 3e 4b 61 0a 3e
       -0.7872021 -0.14167269 0.30274406 0.13513677
0001a0 37 dc 89 3e 77 b3 29 bf 3c 3b e1 3c a6 b8 af 3e
       0.26925823 -0.66289467 0.027494065 0.34320563
0001b0 c8 59 de 3d 55 16 5b 3e 44 0f 9f 3e 93 89 b8 3e
       0.10856968 0.21395238 0.31066334 0.3604246
0001c0 84 bf a9 bd 0c b5 21 3f b5 ad 0f 3e ba f8 11 bf
       -0.08288482 0.6316688 0.14031108 -0.5702015
0001d0 d2 34 31 3f af b2 4f bf 15 77 94 3c d4 85 16 bf
       0.6922122 -0.81132025 0.018123189 -0.58797956
0001e0 85 93 33 3e 59 3e d3 3e e3 04 2e be 4e 82 48 be
       0.17536743 0.41258505 -0.16994052 -0.19580957
0001f0 99 83 a4 be cf 41 ad bd 51 9e ae be c2 32 08 be
       -0.3213165 -0.084598176 -0.3410516 -0.13300613
000200 88 02 3f 3e e7 18 b4 be cb d9 ec bd a2 b8 3d 3e
       0.1865331 -0.3517525 -0.11564978 0.18527463
000210 0e 6e 16 3c e5 3a 14 be 46 8e 07 3d 36 f0 a0 bc
       0.0091815125 -0.14475591 0.033094667 -0.019645792
000220 e2 bd 59 be d4 d8 31 be a8 59 a9 3e f3 e2 03 be
       -0.21263841 -0.1736787 0.33076215 -0.12879543
000230 60 4b fc 3d 09 42 15 bd 74 a2 8a bd 9d a0 b1 bd
       0.12319064 -0.03643993 -0.06769267 -0.08673213
000240 09 f5 27 3e 2c 3d e1 3d 1b d5 7e be ed af 20 3e
       0.16402067 0.10997996 -0.24885981 0.1569211
000250 da 2f 82 3e a2 39 11 be ab aa a6 be d3 ff 20 3e
       0.25427133 -0.14182141 -0.32552084 0.15722589
000260 09 9b bf 3e 5a fb c2 3d 02 16 00 3d 8e 5f 39 bd
       0.3742297 0.09520598 0.03127099 -0.045257144
000270 70 4d 1f be 88 f8 4f be b4 45 63 3e ea a3 45 bd
       -0.15556884 -0.20309651 0.22194558 -0.048252024
000280 21 17 dc bd 75 f6 bd 3d 0e 9f 88 3b e1 b9 85 3d
       -0.10746599 0.092755236 0.0041693514 0.06529594
000290 ee 93 a6 3c 04 69 e1 bd 30 1e 8a bc 76 dc 3d 3e
       0.02033421 -0.11006358 -0.016860098 0.1854113
0002a0 2b 42 26 3d 79 21 a4 be 53 db c6 bd 01 2b 26 3d
       0.040590446 -0.32056788 -0.097098015 0.040568355
0002b0 25 60 2a be fe c2 a6 bd c5 03 87 3e 3b 5b a8 bd
       -0.16638239 -0.081426606 0.26370063 -0.08220526
0002c0 da 75 8f bd ba 77 ce bd 3d 1b f9 3d aa 5a 42 be
       -0.070049 -0.1008143 0.121633984 -0.18979898
0002d0 aa 88 27 be 48 5b 88 be 7c 81 d8 3d 07 c8 f4 3e
       -0.16360727 -0.26632142 0.10571572 0.4780886
0002e0 6b d1 c7 be 32 00 af be 67 f7 d6 bc ca 81 0d bf
       -0.3902696 -0.34179837 -0.026241018 -0.5527617
0002f0 7a 8d 97 bd b4 44 7a 3e 18 14 7e be 37 17 20 bf
       -0.074000314 0.2444027 -0.24812353 -0.62535423
000300 1a 55 ae 3a c5 97 1d 3f 5f df 6c be d8 d1 13 bf
       0.0013300509 0.61559707 -0.23132084 -0.5774207
000310 ce fd 18 bf d6 e5 af 3e ef b3 c0 bd 15 3a 5d be
       -0.59762275 0.34355038 -0.094093196 -0.21604188
000320 62 d1 f8 3e d2 45 00 be 25 09 1a 3e 72 c2 16 be
       0.48597246 -0.12526634 0.15042551 -0.14722613
000330 96 07 5a be 5c bd 9b bd e4 0c ac ba 32 d3 98 3d
       -0.21291956 -0.07604477 -0.00131264 0.07462157
000340 bd c2 be be 2a bc 50 be e2 87 04 3f 6c e8 b2 be
       -0.3725795 -0.20384279 0.5176984 -0.3494295
000350 5f d0 54 3e 2e 1f b8 3d 30 74 ef 3d 30 23 3d 3e
       0.20782612 0.08990322 0.11692083 0.18470454
000360 88 ca f6 3e 9f 3d bb 3e de 0b 29 be 3e 42 cc bd
       0.48201394 0.3657045 -0.16508433 -0.09973572
000370 ca bd 9b 3d eb 53 d4 3d 21 f3 7f be 68 e8 30 3d
       0.07604559 0.103675686 -0.2499509 0.04319039
000380 ca d4 8c bd 84 dd f4 bd 45 06 14 3e c0 28 ba 3e
       -0.06876524 -0.11956313 0.14455517 0.36359215
000390 98 e6 50 bf 74 22 95 3f 18 93 ab 3d 40 ca 1d 3e
       -0.8160186 1.1651139 0.08377665 0.15409184
0003a0 c0 30 76 bd e3 90 52 3d 7b 48 53 3d 60 3b 35 3e
       -0.060105085 0.051407706 0.051582795 0.17698431
0003b0 38 54 0a be 02 c6 70 be c0 d9 29 bb fc a0 de 3d
       -0.1350869 -0.23513034 -0.0025917143 0.10870549
0003c0 24 77 8f be e4 31 72 3e 1b 43 22 be 70 c6 05 3e
       -0.28020585 0.23651844 -0.15845911 0.13063979
0003d0 20 da f4 be 99 f7 1b be 10 f3 d6 be 29 f7 3d bf
       -0.47822666 -0.1523117 -0.41982317 -0.7420526
0003e0 d4 c8 aa 3e a0 90 38 bd eb cf 1a 3e 9b b7 ef be
       0.33356345 -0.0450598 0.15118377 -0.46819767
0003f0 99 45 27 3e 92 81 34 3f 3d 08 5f be 9a 49 50 3e
       0.16335143 0.7051021 -0.21780486 0.20340577

2.bias f4 [30]
000000 13 97 47 3e 88 30 6a 3e 10 72 6c 3e 38 8c 76 be
       0.19491224 0.22870076 0.23090386 -0.24076927
000010 08 a3 94 3e eb 45 78 3e 3b a6 59 3e 7a e2 9b be
       0.29030633 0.24245422 0.21254818 -0.30446225
000020 19 39 b0 3e 57 e1 00 3f d6 02 ef be 4f 91 f4 bd
       0.34418562 0.5034384 -0.4668185 -0.11941778
000030 dc d5 10 3e c8 62 96 be 14 3a 63 3e aa ee 88 be
       0.14144081 -0.2937224 0.22190124 -0.26744586
000040 81 3a 15 be ec 31 8b be 45 0c b3 3e a9 1d 9a 3e
       -0.14573099 -0.27186525 0.34970298 0.30100754
000050 a0 20 86 3e 61 18 d1 3c 49 f7 91 be 09 09 7e be
       0.26196766 0.02552432 -0.28508976 -0.24808134
000060 d6 7a b1 3e 70 dc 02 3d d9 0d 41 be c3 f7 9d 3e
       0.3466403 0.031948507 -0.18852939 0.3085309
000070 16 f4 13 3e af 48 36 bc
       0.1444858 -0.011125728
