model_summon/ReconstructORI/Step/Checkpoint_SEED42_LR0.01_HD30_HL2_Epoch2_WithPhysics1_WithBatch1_Pretrain50.pth (torch, 107953 bytes, 80 tensors)

0.weight f4 [30, 2]
000000 a3 56 25 3f 6e e4 2f 3f cb 43 ae bd 3b ed 7a 3f
       0.6458532 0.6870793 -0.08509024 0.98018235
000010 a1 77 89 bd d5 b1 a3 bd 7f 52 6e bd 20 20 1d 3f
       -0.067122705 -0.07992903 -0.058184143 0.61377144
000020 6b f1 5f 3f 3b 30 49 be c0 c3 4d 3f e9 1d 18 3e
       0.8747775 -0.19647305 0.80376816 0.1485516
000030 b9 d8 01 3f 84 de 82 bd 59 82 2c 3e 53 ec b4 3d
       0.5072132 -0.06390098 0.16846599 0.08834138
000040 cb 13 24 3f 5b 28 ba 3d 3e 77 48 bf 21 19 18 bd
       0.640927 0.090897284 -0.7830695 -0.03713334
000050 2f 15 40 be b2 40 c3 be dc 4c bd 3d d9 34 42 3f
       -0.18758081 -0.38135296 0.092431754 0.7586189
000060 3f 29 3b bf 4c c7 9b be 17 c0 e2 be 59 c0 9e be
       -0.7310981 -0.3042549 -0.44287178 -0.31006125
000070 bd 54 86 3d fd 16 67 bf e0 fd 49 3f 5b 33 c9 be
       0.06559131 -0.9026945 0.7890301 -0.39296994
000080 f0 cb ec 3e be 60 aa 3e 5d 43 68 3e 8a cd 9d 3e
       0.46249342 0.33276933 0.22681947 0.30820876
000090 b5 16 c9 3e 04 85 d3 3e 47 2e 4b 3d 9f 75 e9 be
       0.39275137 0.4131242 0.04960468 -0.4559755
0000a0 d6 34 99 bd cd 96 83 bd 4d 73 80 3e f6 e7 32 3f
       -0.07480781 -0.06425247 0.25087968 0.69885194
0000b0 1c 8b 14 3e eb 7e f1 be 0f de d0 3e ba 0f cf 3e
       0.14506191 -0.47167143 0.40794417 0.40441686
0000c0 ac ee b9 3d 62 2c 06 bf 6e 70 56 bf a2 46 25 be
       0.09078726 -0.5241147 -0.83765304 -0.16140226
0000d0 34 32 4e bf 01 5f 13 3e f7 c7 89 3e 85 20 cb 3e
       -0.80545354 0.1439171 0.26910374 0.39673248
0000e0 ae c1 41 3e 1c 4b 66 3e 99 b1 07 3e 84 3d bb be
       0.18921539 0.2248959 0.13251342 -0.3657037

0.bias f4 [30]
000000 20 be aa be a2 29 2e bf 4d 2a b4 bc b4 9e 2d bf
       -0.3334818 -0.68032277 -0.021992827 -0.67820287
000010 a2 e4 dc 3e 02 ab 17 bf 8d 28 49 3f 20 c8 a4 be
       0.43143183 -0.5924531 0.785775 -0.32183933
000020 59 b9 48 bf b8 55 19 bf 0a 38 70 3f cf c1 67 be
       -0.7840782 -0.5989642 0.9383551 -0.22632526
000030 8d f4 3c 3f 8a f8 ca be 12 b8 25 bf 32 4f 2c bf
       0.73810655 -0.39642745 -0.64733994 -0.6730834
000040 9c f5 0a bf 10 46 95 bd 2b 03 4d be 34 f7 4b 3f
       -0.5428102 -0.07288754 -0.2002074 0.7967408
000050 7a 0b 5b be 68 84 70 bf 57 2b 49 3f 4d b1 86 be
       -0.21391097 -0.93952036 0.78581756 -0.26307145
000060 d6 14 4d 3f 5c 49 b1 3d 05 af 5a 3f dd 11 50 bf
       0.8010992 0.0865657 0.8542331 -0.8127726
000070 51 75 f2 be 20 9d 71 3f
       -0.4735513 0.9438038

2.weight f4 [30, 30]
000000 99 47 a6 be 01 e0 da bd ed 2d db 3c 63 e7 94 3d
       -0.324765 -0.106872566 0.026755298 0.07270696
000010 54 ed d2 bd 7b 98 83 be 06 57 22 3e fa 20 01 be
       -0.10299173 -0.2570227 0.1585351 -0.12610236
000020 fc 04 92 be 29 d7 90 be f6 74 8c 3e 2e 46 50 bd
       -0.28519428 -0.28289154 0.27432984 -0.05084818
000030 3e 31 19 3e 4f 15 2d 3e db a4 0b 3e f3 21 f8 bc
       0.1496019 0.1690266 0.13637106 -0.030289626
000040 07 98 c1 be be 43 7f be 23 fc b1 be cf 6f 08 3c
       -0.378113 -0.24928185 -0.34762678 0.0083274385
000050 2a b1 8e 3e f2 5c 0f be 9d 3c b8 3d 3e 7d fe be
       0.2786954 -0.140003 0.08995936 -0.49704927
000060 36 15 59 bd 3e fe b7 3c d4 8a 62 bd a9 44 b3 be
       -0.052998744 0.0224601 -0.055308178 -0.3501332
000070 0a a8 cc be 40 b2 87 bd 32 3d 1e bd dd 8d 7e bd
       -0.39971954 -0.06625795 -0.03863258 -0.06214701
000080 9f 05 2c 3e 2e 8e b4 bd bc 98 a6 be aa df a5 be
       0.1679902 -0.08816181 -0.32538402 -0.32397205
000090 2c 45 09 bf fd 98 a1 be 7d d7 73 bd 69 d9 4e 3e
       -0.5362117 -0.31562033 -0.059531678 0.20200123
0000a0 14 fc 91 3d c3 8a fe 3d 24 0b 9f 3d e8 9c 17 3e
       0.07128158 0.124288104 0.07765797 0.14805949
0000b0 60 78 06 be cb a9 9b be d2 63 a7 be 79 07 f8 bd
       -0.13131857 -0.3040298 -0.32693344 -0.121108
0000c0 2b f0 bf 3d e6 2f db bd 84 91 6c 3d e7 42 05 be
       0.0937198 -0.10702495 0.057755962 -0.13013802
0000d0 78 92 bf 3d 07 b1 b0 be ef e1 71 bd 4b fb bc 3e
       0.093541086 -0.3451006 -0.059053358 0.3691047
0000e0 98 99 c2 3e ef 64 5e 3e 8b a7 b7 3d 38 b8 47 be
       0.38007808 0.2171819 0.08967503 -0.19503868
0000f0 d0 d2 e3 3d 95 b9 c3 bc 0f c4 78 be df 8a c5 bd
       0.11124194 -0.023892203 -0.2429354 -0.09645628
000100 4c 04 ba 3e ec 98 af 3d 7a 80 04 3f b5 7d 6d 3e
       0.36331403 0.085740894 0.5175854 0.23192485
000110 4b 43 8c 3e 44 64 be be bb 67 2e 3e 45 6f 6e 3d
       0.2739509 -0.37185872 0.17031758 0.058211584
000120 c6 d3 16 be 2f e1 60 be b0 1a 0d 3c 43 c5 2e 3e
       -0.14729223 -0.219609 0.00861232 0.17067437
000130 a9 0c 09 3e e0 3d 2a 3e ea 3e 6b 3d 0b a8 d2 bd
       0.13383736 0.16625166 0.057433046 -0.10285958
000140 b1 08 c1 bd 27 39 d1 3c fc 65 48 3d 78 8e 1f 3e
       -0.09425486 0.025539948 0.048925385 0.15581691
000150 f4 a4 22 be f3 e7 b7 be 9e 9c c1 be 96 ef 36 3d
       -0.15883237 -0.3591915 -0.37814802 0.04466208
000160 25 4e 47 3e c3 b3 84 be d9 16 47 be 2d 9f 33 3e
       0.19463404 -0.25918397 -0.1944231 0.1754119
000170 13 ae 6a 3d 1f c8 c2 bc 98 18 b9 bc 4b 46 28 3e
       0.057294916 -0.023777066 -0.022594735 0.16433065
000180 73 5e 3a 3e 58 ed 5a be 6a 45 33 be 53 b3 e4 3c
       0.18200092 -0.21379602 -0.17506948 0.02791754
000190 72 3b d3 3e 14 04 55 bc a1 de 4d 3e fc 46 7e 3e
       0.4125629 -0.013001461 0.20104457 0.24831766
0001a0 6e 89 b1 bd 0e 87 4a be 4e 22 15 be 6b 67 9c bd
       -0.08668791 -0.19778082 -0.14563867 -0.07636913
0001b0 26 3c e1 bd 20 ae cb 3d 19 98 82 be f5 07 86 bd
       -0.109978005 0.09945321 -0.25506666 -0.065444864
0001c0 a2 93 08 3e 6e 90 4d be 02 99 31 bd ab fc 2b be
       0.13337567 -0.20074627 -0.04335881 -0.16795604
0001d0 c4 a9 89 3d 8d 1f 9f be de d6 10 bf 14 33 98 bb
       0.06721833 -0.3107876 -0.5657786 -0.004644761
0001e0 48 22 60 be 79 08 63 bc a9 40 64 be 71 27 38 be
       -0.21888077 -0.0138570005 -0.22290291 -0.17983796
0001f0 02 c4 24 bd 87 03 f6 3d 5b 80 7c be a4 de d1 bc
       -0.04022599 0.120123915 -0.24658339 -0.025618859
000200 c6 34 b9 3d c0 f3 b2 bb 15 68 f7 3a 20 ff 51 3d
       0.09043269 -0.005461186 0.0018875623 0.051268697
000210 03 a7 0c bd 7b 0b b5 3e 3c 1c 16 be a3 c9 ed 3d
       -0.034338962 0.3536032 -0.14659208 0.11610725
000220 fe 0c 86 3d 59 70 4e be fd 5e cf be 94 f2 cf bd
       0.06545447 -0.20160045 -0.40502158 -0.1015369
000230 22 40 47 bd 0a 90 e0 bd 29 5d 0e 3e 13 95 a1 be
       -0.048645146 -0.10964973 0.13902725 -0.31559047
000240 9e 0a 23 3e f0 cd 1d 3e 16 19 c4 bb 4e e3 c6 be
       0.15922019 0.1541059 -0.005984436 -0.38845295
000250 30 9b bb be df c6 a5 bd b3 21 9b 3e 09 e7 7d be
       -0.36641836 -0.08094572 0.30299148 -0.24795164
000260 c0 4b 7b 3d f2 23 5c be f3 7d d0 3c 32 c0 61 bd
       0.061351538 -0.21498087 0.025450682 -0.055114932
000270 66 b7 3b be b8 c6 94 3d 6f 3d 98 bd 49 de 98 3d
       -0.1833168 0.07264465 -0.074335925 0.074642725
000280 5d f5 10 be 27 41 38 be 62 78 58 bd 22 9d 90 be
       -0.14156099 -0.17993604 -0.05284918 -0.28244883
000290 7a 17 8b bd ed d2 5e be f0 a1 ba 3d ba 2b ac bc
       -0.06791587 -0.2176015 0.091129184 -0.021016944
0002a0 2c d4 6c 3e 04 1f 13 3e 19 b7 2d bd 31 a5 23 be
       0.23127812 0.143673 -0.042410944 -0.15980984
0002b0 3c 55 72 3e ad d1 95 bc 20 2a 45 3e f1 d4 ed 3d
       0.23665327 -0.018288458 0.1925435 0.11612881
0002c0 87 94 88 3c bf 11 00 3e 2b 7b 92 bd 85 70 78 bd
       0.016672386 0.1250677 -0.07152399 -0.060654182
0002d0 44 52 a7 3d 5b 65 87 be 08 f4 93 3d 36 d4 f4 3c
       0.08169988 -0.26444516 0.0722428 0.029886346
0002e0 e8 f5 87 3e 80 ff 3b 3e 31 8b 0a 3e 6e 65 f7 3c
       0.265548 0.18359184 0.1352966 0.030199733
0002f0 5f cd c3 3e c4 a6 8a be 96 89 04 3e dd c4 63 be
       0.38242623 -0.27080357 0.1294311 -0.22243066
000300 30 00 53 be 8e 5f 24 bd 67 b3 fa 3c 35 ec f3 3d
       -0.2060554 -0.04013019 0.030603124 0.11910287
000310 c1 94 bf bd 61 48 2b 3d ae 13 98 3d 69 87 b7 3d
       -0.093545444 0.041817073 0.074256286 0.08961374
000320 ad 59 19 bd b5 1e 2a be b7 ea 6d bd 0d a4 22 bd
       -0.037439037 -0.16613276 -0.05808517 -0.039707232
000330 57 77 26 3e 0f 19 b2 be 99 cb 8d be e3 10 0b be
       0.16256462 -0.34784743 -0.27694395 -0.1358066
000340 75 45 2b be b4 59 81 3d c3 bc 29 3e 65 37 05 be
       -0.16725715 0.06315938 0.16575913 -0.13009413
000350 b7 58 47 3d 97 8a 0d be 3c 1e 99 bd 88 73 ac 3e
       0.04866859 -0.13822399 -0.0747647 0.33681893
000360 10 18 64 3c 1b 9a 17 3e cc 69 bf 3d d1 5c 85 bd
       0.013921753 0.1480488 0.09346351 -0.06511844
000370 23 97 92 bd f6 30 b7 3d bd a5 8c be 1b cc 3f bb
       -0.07157733 0.089448854 -0.27470198 -0.0029265943
000380 49 3e c8 3d 3b b2 7d 3c 64 ca 94 3e 0b c7 47 3e
       0.09777505 0.015484388 0.29060662 0.19509523
000390 3d 70 b0 3b de d8 49 3d af 1c 55 be b2 c9 91 bd
       0.0053844736 0.049279086 -0.20811723 -0.071185485
0003a0 8e 08 43 3e 47 97 8b 3e e6 e3 18 bd c4 36 87 be
       0.19046232 0.27263853 -0.037326716 -0.2640897
0003b0 1d 60 ff bd 5d 1a 21 be 36 82 84 bd e2 3e a3 39
       -0.12469504 -0.15732713 -0.06470148 0.00031136634
0003c0 95 9e 17 3f 0a 85 46 3d aa ad 28 bd 2e 3f 15 be
       0.5922635 0.04846672 -0.041181244 -0.14574882
0003d0 35 31 bd 3d 56 34 1e bd ab eb 1a 3e 36 ab 90 3d
       0.09237901 -0.03862413 0.15128963 0.07063906
0003e0 a6 1e d8 bd b1 e7 fc bd 4b a0 b7 be 4a 88 a1 3c
       -0.10552721 -0.12348879 -0.3586448 0.019718308
0003f0 d4 e1 7c be d9 0a c9 be d8 81 7b be 88 93 81 be
       -0.24695522 -0.3926609 -0.2456125 -0.2530787

2.bias f4 [30]
000000 4e 5e 20 3e 15 36 cf 3d 3a 5c 37 bd 0f 3f 0b 3e
       0.15660974 0.10117737 -0.04476569 0.13598274
000010 69 2e aa bd fb 2b 76 be 2a 8c 84 bd b4 be ff bd
       -0.08309633 -0.24040215 -0.06472047 -0.124875456
000020 26 76 45 bc 81 bb a0 3d ac 08 bd 3c e9 83 bf be
       -0.012052095 0.078482635 0.023075424 -0.37405327
000030 ff 78 63 3e aa 10 8d 3e cf 8a 80 3e 8e f5 f3 be
       0.22214125 0.27551776 0.25105903 -0.4764828
000040 ad 3b c5 3d 1a 17 a7 3d 36 52 00 be 9f b0 0f be
       0.09630523 0.08158703 -0.12531361 -0.1403222
000050 f6 d7 a6 3e 08 48 ab be 33 eb a4 be e8 74 68 be
       0.3258664 -0.33453393 -0.32210693 -0.22700846
000060 7c e8 ac 3e 07 31 5e 3e 88 86 b0 3d da 14 e7 bd
       0.33771122 0.2169839 0.0861941 -0.11283274
000070 b6 18 52 3e ec a9 af 3d
       0.20517239 0.08577332

4.weight f4 [9, 30]
000000 a1 07 06 3e 76 0b 89 bd 04 7b 2b bd 0c 32 d7 3c
       0.13088848 -0.06691639 -0.041865364 0.026268981
000010 8f 58 e9 3d 3a 76 26 be 82 85 9d 3c dd 03 cd bd
       0.11393844 -0.16256037 0.0192287 -0.100105025
000020 cc 20 e1 bd 5d 97 e6 bd e6 19 04 be 00 c3 38 be
       -0.10992584 -0.11259339 -0.12900504 -0.18043137
000030 5a 5f 82 bd 94 04 84 bd 57 13 46 be 03 71 96 3d
       -0.06365843 -0.06446186 -0.19343315 0.07345774
000040 e6 62 93 bd 01 8c 33 bc 09 97 30 3c e4 ab c3 3c
       -0.07196598 -0.0109586725 0.010778197 0.023885675
000050 fe af ad bd 1b 93 cd 3d 7e 5d 14 be 44 cf 4c 3e
       -0.084808335 0.10037824 -0.1448879 0.2000094
000060 a3 1a 84 3d 24 ee 29 be f7 7e 7a 3d 0d d2 33 3e
       0.06450393 -0.1659475 0.06115624 0.17560597
000070 e4 82 fe bd de 25 25 be b1 99 6d 3e 90 d5 d4 bd
       -0.12427309 -0.16127726 0.2320316 -0.10392296
000080 64 4b 43 bc c4 80 64 bd 9c f1 0b bd 80 72 c6 bc
       -0.01191983 -0.055786863 -0.034165964 -0.02422452
000090 56 f2 a5 bd 41 f8 34 be bc ff af bd dd c2 0f bd
       -0.081028625 -0.17672826 -0.08593699 -0.035097945
0000a0 cf d0 58 be 3c 27 a1 3b 46 bd be 3e b9 02 04 3d
       -0.21173404 0.004918007 0.3725378 0.03222916
0000b0 f2 b9 96 bd 42 ce 75 be 97 3b 3e be 04 06 bc bd
       -0.07359685 -0.24004462 -0.18577419 -0.09180835
0000c0 3b fc 06 3e f3 e8 26 3d 69 87 1d 3e 53 53 53 3e
       0.13182156 0.0407495 0.15383686 0.20637254
0000d0 34 42 94 bd 05 2b cd 3e 0c 4d 44 3e 75 c1 4f be
       -0.0723919 0.40071884 0.19170016 -0.20288642
0000e0 e4 ef 4e bd 2c 19 2a 3e 5c 4a 18 bf 27 1d c7 3c
       -0.050521746 0.16611165 -0.59488463 0.024305893
0000f0 db d2 5c 3c cf 3c 9d be de c2 0e 3e ca fc a4 be
       0.013478006 -0.30710456 0.13941523 -0.32224113
000100 17 61 21 3e db 3e 2b bd 41 15 ee 3e c3 0d 8e bd
       0.15759693 -0.04180799 0.4650059 -0.069362186
000110 76 1d 1c be 95 b2 eb 3d 6a e6 76 3c c6 1e 0f 3e
       -0.15245613 0.11508671 0.015069583 0.13976583
000120 ee 42 0b be f0 f6 10 bd f3 4f 79 3e fc f5 05 be
       -0.1359975 -0.035391748 0.24346904 -0.13082117
000130 ba 84 93 bd c5 d1 5e bc 7c cc 15 be 8f e3 01 3d
       -0.0720305 -0.013599818 -0.14628786 0.031711157
000140 6a 92 17 bd bf 9b b9 3b 88 98 66 be 89 15 3f 3e
       -0.037004866 0.0056643183 -0.22519124 0.18660559
000150 2d 6c d6 bd 55 8c 4a 3e 7d e4 47 bb 03 68 03 bd
       -0.10469852 0.19780095 -0.003050118 -0.032081615
000160 f2 d4 66 be 2a f9 7c bd 25 b4 fb bd 38 78 9d be
       -0.2254217 -0.06176106 -0.12290219 -0.30755782
000170 51 89 a8 3d 49 f9 84 3e 5f 37 2b bd 4f 9f ab bd
       0.08229316 0.2597144 -0.041800853 -0.08379995
000180 79 f9 22 be 46 d9 b6 3d 41 0b b9 3d 4a 2c 7c bd
       -0.15915479 0.0892816 0.0903535 -0.061565675
000190 b3 5d b0 be fb 4b 6e be 14 09 97 be 58 39 8d be
       -0.34446487 -0.23271172 -0.29499114 -0.27582812
0001a0 d8 86 5b 3d 8c 0d 7e be 6c 2d 65 bd d9 e5 8c 3d
       0.053595394 -0.24809855 -0.05595152 0.068797775
0001b0 b6 ce 03 3d 12 cc 26 3d 02 33 ba 3b da c6 a9 3e
       0.032179557 0.04072196 0.00568235 0.33159524
0001c0 15 db 3c be e8 de 80 3d 25 9f a8 3e 14 23 8d be
       -0.18442948 0.06292516 0.32933918 -0.27565825
0001d0 9d fa 46 3d 81 30 aa 3e fa 59 a4 be 67 2c f0 bc
       0.048578847 0.3324013 -0.32099897 -0.029318048
0001e0 b6 83 ba 3d fa ba 12 be fc dd 79 3e 2a a6 3c 3b
       0.09107153 -0.14329138 0.24401087 0.0028785565
0001f0 d5 13 01 3d b8 3b 08 be 5f 28 14 3e d6 1b 04 bf
       0.031513054 -0.13304031 0.14468525 -0.51604974
000200 6b b3 2b 3e 80 db b2 bd e9 74 b6 be 32 b8 6c 3c
       0.16767661 -0.087332726 -0.3563607 0.014448212
000210 7b 3a 69 3d 40 f7 93 bb 2f d6 26 3d 23 b4 23 be
       0.056940537 -0.0045155585 0.040731605 -0.15986685
000220 8e 37 e5 3e b5 e0 0a 3d 72 f1 34 bf 9e d8 38 3d
       0.44768947 0.033905704 -0.70680916 0.045128457
000230 62 e6 7f 3e 72 9f 0b 3f 6a 77 ad 3d 21 0f 05 3e
       0.24990228 0.5454017 0.08470042 0.12994052
000240 87 81 e4 be 5c 41 98 3e 99 df 55 be 6e 27 03 be
       -0.44630072 0.29737365 -0.20886077 -0.1280801
000250 c7 ca 63 be 55 7c c3 be be 8e 42 3d 2e 36 24 be
       -0.22245322 -0.38180795 0.04749941 -0.16036293
000260 9a ca 06 be 19 04 02 3d 47 60 58 bd 23 2c 43 3e
       -0.13163224 0.03174219 -0.052826192 0.19059806
000270 96 2c fc bd 98 e8 86 be 10 83 67 3e 00 9c 12 be
       -0.123131916 -0.2634933 0.2260859 -0.14317322
000280 0f af 66 be 53 0c ad bc 6e 03 05 3d d0 9f 7d be
       -0.22527717 -0.02112404 0.032473974 -0.24767995
000290 5e de 19 bd 99 44 06 bd f4 98 87 3c eb 67 54 3c
       -0.03756558 -0.032780264 0.016552426 0.012964229
0002a0 fb 60 6d be bc 16 3a 3e e0 54 07 be a9 f2 02 3e
       -0.23181526 0.18172735 -0.13215971 0.1278788
0002b0 5a 55 6a 3e 5c 29 27 be b7 45 6c be ba ac f3 be
       0.22884122 -0.16324371 -0.23073469 -0.47592717
0002c0 70 2d 93 bd c1 1a 86 3e 2e 97 01 3e c6 ab c0 be
       -0.07186401 0.26192287 0.12655327 -0.37631053
0002d0 8d ae 37 be 0c b9 1a 3e 26 7b da bd 2d d3 77 bd
       -0.1793768 0.15109652 -0.1066802 -0.060504127
0002e0 b1 85 53 be 55 d8 2e bc 27 55 bb bd 0a f7 b5 bc
       -0.20656468 -0.010671695 -0.09147101 -0.022212524
0002f0 28 28 41 3e 28 37 ab bd bf d9 24 3e c9 76 48 be
       0.18862975 -0.083601296 0.16098689 -0.19576563
000300 c8 f5 c2 3d d8 6f 92 3d 7a ff 94 bd cf 5d 05 3e
       0.09519535 0.07150239 -0.07275291 0.13024066
000310 6d 20 81 bd b5 ff d2 bd 4f d6 bb bc 59 13 39 be
       -0.06305013 -0.103026785 -0.022929339 -0.18073787
000320 d3 d3 5a be 96 f5 d1 3c 72 99 37 be 79 2b 03 bd
       -0.21369867 0.0256298 -0.17929628 -0.03202388
000330 2d 57 c7 3d 55 f9 c9 be de e0 33 be 0d 1d 08 3f
       0.09733424 -0.39448038 -0.17566249 0.5316933
000340 82 9d 63 3e 90 db a6 be 09 a8 92 3e c2 ab 98 3d
       0.22228053 -0.32589388 0.28643826 0.07454635
000350 8b b3 5c 3e f4 84 e2 3e 6f 7e 4a bd 11 83 49 3c
       0.21552865 0.4424206 -0.049436983 0.012299315
000360 76 89 fb bb 8d 11 0c be 7a 42 14 3e 65 be 33 be
       -0.0076762987 -0.1367857 0.14478484 -0.17553098
000370 0c 51 47 be 63 26 e2 bc cf 93 80 bd 36 20 16 be
       -0.1946451 -0.027606195 -0.06278192 -0.14660725
000380 f9 74 15 3e b0 fe db bd cb d3 79 3b 41 fc 1e bc
       0.14595403 -0.10741937 0.0038120623 -0.009703697
000390 c7 b4 c6 be 1b aa 3f 3d 22 d1 e6 3d 4c c3 20 3d
       -0.38809797 0.046793085 0.11270358 0.03924875
0003a0 ad 3e c5 b9 c0 50 6d 3d 3e 02 6b be f1 3d 28 3e
       -0.00037621465 0.057938337 -0.22950074 0.16429879
0003b0 9b 75 93 bc 12 7f 2e 3d 0d ed b0 bd 70 ad 62 be
       -0.018000415 0.042601652 -0.08638964 -0.22136474
0003c0 19 c1 52 be 2b cd 39 3e b9 14 34 bd 49 73 eb bd
       -0.20581473 0.18144672 -0.043965075 -0.11496598
0003d0 32 4d 88 bd 1a 47 8a 3e ee 34 88 be 71 98 41 bd
       -0.06655349 0.2700737 -0.26602882 -0.04726452
0003e0 0d 14 7e bc bd 4f 86 be bd 3e b4 be e2 e2 01 be
       -0.01550771 -0.2623271 -0.35204116 -0.12684205
0003f0 ad 9d 67 bc aa cb fd bd e6 b1 2e be d0 ea 11 3e
       -0.014136714 -0.123923615 -0.1706005 0.1424973

4.bias f4 [9]
000000 bf ff d3 3e cb d2 ac 3e 4a 52 43 3e 8f ae 9f 3d
       0.41406056 0.33754572 0.1907436 0.07796966
000010 13 5d e5 3d 45 22 41 3e f0 24 47 3d 17 0d 71 be
       0.11199393 0.18860729 0.04861921 -0.2354015
000020 97 99 4b bf
       -0.79531235

0.weight f4 [30, 2]
000000 13 02 78 3d c0 ab 58 bf 79 b2 57 3c e8 b3 0b be
       0.060548853 -0.8463707 0.01316511 -0.13642848
000010 75 6e db 3d a8 01 f5 be 5e 69 28 3f 68 ba b1 3e
       0.107144274 -0.47852826 0.6578578 0.3471253
000020 0d 13 6b be 4c 8a a1 be 80 34 75 3b 4f 27 f8 3e
       -0.22956486 -0.31550825 0.0037415326 0.4846749
000030 f5 87 ff 3e 11 0d 05 3f e1 0c 01 be e0 1a 20 3f
       0.49908414 0.5197306 -0.12602569 0.6254101
000040 aa 42 5b be 60 5e b8 be f5 a6 3e 3e 56 ef 2b bf
       -0.21412149 -0.36009502 0.18618377 -0.6716207
000050 a3 35 0a 3d 6c fd 01 bf 0c b2 af bb cc 64 55 be
       0.03374256 -0.50777316 -0.005361801 -0.20839232
000060 01 1f b3 3c ad 33 e6 be 76 e3 65 bf 0a 5c ad bd
       0.02186537 -0.449613 -0.898002 -0.08464821
000070 3c b1 f2 3e a2 b6 2b bf 08 4a 05 3e 6c 77 3b bf
       0.47400844 -0.6707555 0.13016522 -0.732291
000080 ff 7f 0e 3d 2e 52 33 3f 6b 81 89 3f ab e2 26 be
       0.034790035 0.7004727 1.074262 -0.16297404
000090 af 14 98 3e 8b 99 f0 3e fb 44 08 bd a3 38 6e 3f
       0.2970328 0.46992144 -0.03326891 0.9305517
0000a0 6d 94 55 be 7a 7e 93 be 5e 0b f1 3d 82 9a 25 be
       -0.20857401 -0.2880743 0.11769746 -0.16172221
0000b0 bd 85 05 be fa bf be bb 40 1f 2b bf 6b 2f 48 be
       -0.13039298 -0.0058212252 -0.6684456 -0.19549339
0000c0 10 b2 dd 3d de e4 6f bf 1b ec 96 bc 72 d8 19 3e
       0.10824978 -0.937086 -0.01842313 0.15023974
0000d0 1d 9f bf be 56 82 0d 3e 30 e9 c8 3d 4b 86 27 3f
       -0.3742608 0.1381925 0.09810102 0.6543929
0000e0 65 a9 25 be 97 73 d0 be 16 2b dd 3e e0 ab 45 3e
       -0.161779 -0.40713188 0.43196934 0.19303846

0.bias f4 [30]
000000 5e 78 c4 bd 1c da fb be b6 1c 41 3c 2e 43 4c bf
       -0.09593271 -0.49189842 0.01178663 -0.7979001
000010 af f6 95 be cf 2b 90 3e be 44 f6 be 2b 2b 2c bf
       -0.29289767 0.28158423 -0.4809932 -0.6725337
000020 1d c1 02 bf fc 9e 11 3f f8 32 27 3f 18 84 8e be
       -0.5107592 0.56883216 0.6531215 -0.27835155
000030 cf 67 42 3f c4 dd 57 bf 9c 88 9d bf 05 f8 a1 3e
       0.7593965 -0.8432276 -1.2307315 0.31634536
000040 01 98 5e 3e 6a 83 7c 3f 14 47 81 3e 86 6b 5d 3f
       0.21737672 0.9863802 0.2524954 0.8649219
000050 a6 63 ad 3e fb f3 6e 3e 95 a0 2d bf d4 4d 3a 3f
       0.33865088 0.23335259 -0.67823154 0.72775006
000060 a2 21 2e bf be fb 47 3f 09 ec b1 3d 60 5a c5 be
       -0.6802007 0.78118503 0.08687598 -0.38545513
000070 3b 62 29 ba 7e dc 98 3c
       -0.0006461476 0.018659826

2.weight f4 [30, 30]
000000 3f 4c db be 89 a9 4e be 47 a9 7a be fc 8d 4c 3e
       -0.4283161 -0.2018186 -0.24478637 0.19976038
000010 cb ef ca 3d fd d7 a1 3e 7d 7a d5 bd ec b8 79 3e
       0.09909018 0.31610098 -0.104237534 0.24386948
000020 0d 3d 3f be d8 45 f6 be 84 a7 e7 be e4 b2 0f be
       -0.18675633 -0.48100162 -0.45244992 -0.14033085
000030 1a 74 c6 be 98 0e 55 3e 08 df 3b be 1b cc ad be
       -0.38760453 0.20806348 -0.18346798 -0.33944783
000040 c0 d8 19 3e 30 da 8c be ee 2b 5d bb 36 08 97 3d
       0.1502409 -0.27510214 -0.0033748108 0.07374613
000050 5b 23 72 3c 7e de a7 bc 01 17 bd 3d 28 bd e4 bb
       0.014778937 -0.020491835 0.09232903 -0.006980557
000060 8f 95 84 be e3 e6 23 3d f7 d5 8e 3e 2f 23 4c 3d
       -0.25895354 0.040015113 0.27897617 0.04983824
000070 29 89 b7 bd dd ff e8 bd dd 3a 1a 3e e8 e5 9c 3e
       -0.08961708 -0.11376927 0.15061517 0.30644155
000080 f6 fe 23 3e f1 44 61 3d 92 8f c9 3a f4 a5 fc bc
       0.16015229 0.05499739 0.001537787 -0.030840851
000090 63 04 4d be a0 14 e3 3a 58 17 65 3e 01 63 c6 bd
       -0.20021205 0.0017324872 0.22372186 -0.09686852
0000a0 c0 44 c7 bd c0 7c 23 3e 30 55 36 3d 36 c9 0c 3e
       -0.0972991 0.15965557 0.044514835 0.13748631
0000b0 ad ed c3 3e 87 a6 2e be 65 97 ae bd 51 28 75 3d
       0.3826727 -0.17055713 -0.0852497 0.0598529
0000c0 07 09 a9 3c 21 93 9f be 67 6a db 3d 17 6e 07 be
       0.020634187 -0.31166938 0.10713654 -0.1322559
0000d0 06 74 8d bd 42 44 29 3c 1a a3 e4 3c 1c e8 54 be
       -0.06906895 0.010331215 0.027909804 -0.20791668
0000e0 cb a6 0d be db 5b 36 3e 8e 1d 9f 3d 9f ec 77 be
       -0.13833158 0.17808478 0.07769309 -0.24211358
0000f0 a1 a8 ce bd 22 e1 be 3e 28 b7 23 be 44 49 a0 3e
       -0.10090757 0.37281138 -0.15987837 0.31305897
000100 d4 91 4e 3d c3 cb 89 3d 06 db eb 3c c3 b5 eb 3c
       0.05043204 0.067283176 0.028790962 0.028773194
000110 bf 21 92 3e 72 ee 2e 3e 6e 57 a8 bd d3 84 f4 3d
       0.2854137 0.17083147 -0.08219801 0.11939397
000120 ef 81 bd 3d c2 ff 5c 3d c3 b7 f4 bd 49 3f 8f bd
       0.092532985 0.053954847 -0.11949112 -0.069944926
000130 76 1e 63 bd 66 07 16 3e af 7a 96 3c 4b 7b 3f 3e
       -0.05544897 0.1465126 0.018369047 0.18699376
000140 49 41 19 3e 87 e2 ab 3d 44 8d f4 3d fe 39 12 be
       0.1496631 0.08392816 0.11941007 -0.14279935
000150 cb 0e 83 3d e8 50 85 be 4b 14 b5 3d 46 cb c2 3d
       0.06399306 -0.2603829 0.08841761 0.095114276
000160 60 ce cc 3c 36 ad 08 3e 86 fe 0f be da eb 5f be
       0.025000751 0.13347325 -0.14061937 -0.21867314
000170 00 3b 42 3d c2 18 27 be e1 a1 7a be eb c3 90 3d
       0.047419548 -0.16318038 -0.24475814 0.070686184
000180 0a 8e 12 bd 0f 45 b5 3d a2 3c 49 be 94 49 78 bd
       -0.03577999 0.088510625 -0.19652036 -0.060617045
000190 30 56 13 3e 07 42 87 bd 23 77 bd bd d2 b4 24 be
       0.14388347 -0.066043906 -0.09251239 -0.16084602
0001a0 9f 0c 9a be 5a cc 1d be 10 81 05 bd 20 51 1f be
       -0.30087754 -0.15409985 -0.032593787 -0.1555829
0001b0 ea e6 ef 3d 85 74 97 3e 51 b4 2f 3e ba 0b e5 3d
       0.11713965 0.29581085 0.17158629 0.11183877
0001c0 c1 d3 02 3e f2 c0 83 3c d8 4d 93 be 49 53 83 3d
       0.1277609 0.016083214 -0.28770328 0.0641237
0001d0 e1 21 1b be 42 6a 13 bc e0 9e 0d 3d 08 5d 03 3e
       -0.15149643 -0.008997502 0.034575343 0.12828457
0001e0 b4 73 3b 3e 76 4c 92 bd 72 cc 91 3e 03 3b e9 3e
       0.18305856 -0.0714349 0.28476292 0.45552835
0001f0 12 c5 43 3d 8f c3 14 be 76 31 9c 3e 99 a0 4d bc
       0.047795363 -0.14527725 0.30506486 -0.0125504965
000200 61 48 80 bc 8e 59 3c 3e eb 81 e6 3c 60 c4 66 3e
       -0.015659513 0.18393537 0.028138122 0.22535849
000210 51 61 06 3e 69 2b 0e be b8 18 16 3e 83 df 40 3e
       0.13123061 -0.13883747 0.14657867 0.18835263
000220 68 b6 09 be ce 89 5c 3e d7 77 bd 3d 77 7f fc bb
       -0.13448489 0.21536943 0.09251373 -0.0077056247
000230 b1 be aa be fa 68 e1 bd 33 2b ad 3e a5 8f f7 be
       -0.3334861 -0.11006351 0.3382202 -0.4835178
000240 8d c2 cd 3b 27 bc a7 be 6f 85 ab be 96 a3 0b bd
       0.006279296 -0.32760736 -0.3350024 -0.034091555
000250 46 f0 31 3d a5 d8 e4 3d cf 79 06 be a5 03 21 be
       0.043442033 0.11174134 -0.13132404 -0.15724047
000260 c7 63 f7 3c 12 93 a4 be 9c 6a b8 3e 07 2e 03 3e
       0.030198945 -0.32143456 0.36018836 0.12810527
000270 d3 09 45 be 6b e8 8d 3e 4d fd 97 3e 9c b0 b5 be
       -0.19242029 0.27716383 0.2968544 -0.35486305
000280 ac e6 a1 be 65 b1 8e 3d 0e 61 61 be 43 5a b0 3e
       -0.316213 0.06967429 -0.2200968 0.34443864
000290 c1 8e a3 3d ea 53 9a bc b9 a2 e5 3d 29 48 c8 be
       0.079862125 -0.018838841 0.112126775 -0.39117554
0002a0 b0 03 e2 be fb 04 cb bd bd 10 00 3e 03 00 e1 3d
       -0.44143438 -0.09913059 0.12506385 0.1098633
0002b0 b3 89 44 bd e1 14 06 3f 5b 93 9b bd 0b be 60 3e
       -0.047982883 0.5237561 -0.07596465 0.21947496
0002c0 70 6d db 3d 27 67 2d 3e 45 03 90 bd 68 7e bd be
       0.10714233 0.16933881 -0.070318736 -0.37010503
0002d0 5e 9a 2f be de 78 5d be d9 f3 82 bd b2 aa db bc
       -0.1714873 -0.21628138 -0.063941665 -0.026814792
0002e0 59 b1 1d be 31 77 3a 3e 8e 9f 8e 3d 3b 78 e0 bb
       -0.15399684 0.1820953 0.069640264 -0.00685027
0002f0 09 53 8c be c3 28 b6 bd 4a 94 15 be 15 cf 77 be
       -0.274071 -0.088944934 -0.14607349 -0.2420009
000300 51 6d f2 bd 54 53 fa bd 95 a7 64 be 7b 8f d4 bd
       -0.11837257 -0.12222925 -0.22329552 -0.10378929
000310 da ce 90 3e cc 9f 3f bc 4f 4f 6f 3e 40 1e 86 3e
       0.28282815 -0.011695813 0.23370098 0.26194954
000320 72 66 0e be 9b 8b a4 3d df 7a e9 3d a2 e5 25 bd
       -0.13906267 0.0803444 0.11400389 -0.040502198
000330 c9 75 b3 be 1f da bc 3d ba b3 98 3c fe 4e 73 3e
       -0.350508 0.09221291 0.018640388 0.23760602
000340 7b fc 8b be dd 89 6d bd e9 c2 ad 3d 8d 98 02 bf
       -0.27341065 -0.057992805 0.08484442 -0.51014024
000350 89 3e 10 3e ac ee fa 3c 85 f6 ae be 1b 3b 84 3e
       0.14086355 0.030631386 -0.34172454 0.25826344
000360 5a ad e9 3e 05 78 92 be 46 d3 02 be 48 b8 3c 3e
       0.4564007 -0.28607193 -0.12775907 0.18429673
000370 e2 47 86 3e 93 19 6b bd 1b dd 84 3e c7 a9 ce be
       0.26226717 -0.057397436 0.2594994 -0.40363905
000380 c3 96 d5 be e4 c5 9e 3e 8b 49 ca 3d c3 c0 c7 3e
       -0.41716585 0.31010354 0.098773085 0.39014253
000390 86 f6 04 3e 89 b1 b1 3e af 20 36 be c4 b7 84 be
       0.12984666 0.3470576 -0.17785905 -0.25921452
0003a0 1d 67 ec bd 09 0d 93 bd 9a cd 42 be f1 3b c3 3e
       -0.11543105 -0.07180221 -0.19023743 0.3813167
0003b0 e7 b8 2b be 1b 23 21 3e af d5 80 be 2e 2d 84 3e
       -0.16769753 0.15736048 -0.25163028 0.2581572
0003c0 fa 9f bd bd e7 f8 0c bd f6 83 8a be ee e5 26 bd
       -0.09259029 -0.03441706 -0.27053803 -0.04074662
0003d0 32 42 12 3d 87 49 38 3d 4d 99 22 be 8d c9 a8 bc
       0.03570766 0.044991996 -0.15878792 -0.02060392
0003e0 dc e8 88 be 0f a6 87 bd dc 9c fd bd df 60 ea 3d
       -0.26740158 -0.0662347 -0.12383434 0.11444258
0003f0 90 9c a3 bd 1c b3 2b 3c 39 e0 72 be 32 52 4a be
       -0.07988846 0.010479715 -0.23718347 -0.19757918

2.bias f4 [30]
000000 78 95 4e 3e 74 52 b5 3d 4d f2 ba bd c0 af dc bd
       0.20174205 0.08853617 -0.091282465 -0.10775709
000010 8c 64 d5 be ad 05 9a 3e 63 4c 3d 3e a2 8f 64 3e
       -0.41678274 0.30082455 0.1848617 0.22320417
000020 8a 03 a4 bd d8 c8 1c be d4 e4 8c bc 16 1d 7a 3e
       -0.080084875 -0.15310991 -0.017198958 0.24425158
000030 da 45 36 be 08 44 04 bc 99 60 db bd 57 60 02 be
       -0.17800084 -0.008072861 -0.10711784 -0.12732063
000040 2c 78 50 bb c5 0b 0e bd 7b a9 37 be 42 c7 3e 3e
       -0.003180991 -0.034679193 -0.17935745 0.18630698
000050 2e 0f 4b be 7e f7 5d be 1f 1c 68 3e d1 fb 2f be
       -0.1983001 -0.21676442 0.22666977 -0.17185904
000060 c7 f7 b1 3e 85 50 70 3d fd 4f 0b be 6a c3 47 be
       0.34759352 0.05867054 -0.13604732 -0.19508138
000070 c2 e9 07 be a5 8a 0f bd
       -0.13272765 -0.03504433

4.weight f4 [9, 30]
000000 0f cc 55 be 9e 09 f5 3d 81 48 b1 3d 08 8f d2 3a
       -0.20878623 0.11964725 0.08656407 0.0016064355
000010 03 a9 30 3d 01 3c b3 3d a6 0c 75 3a ff 79 55 3d
       0.043129932 0.08751679 0.0009347893 0.052118298
000020 76 f0 2f bd e4 fc 16 3d bd a8 d1 bd d7 c3 2a 3e
       -0.04295393 0.03686227 -0.102372624 0.1667627
000030 96 8c 0c bd 3f 58 67 be 4e ad 31 3e 68 8e 46 bd
       -0.03431376 -0.22592257 0.17351267 -0.048475653
000040 c0 39 0c be 49 0e 6e 3d 51 69 7b bd 89 5f dc 3c
       -0.13693905 0.058119092 -0.061379734 0.026901023
000050 b1 67 93 bd 7a f1 6a 3c 1d 2a a1 3d fc 17 22 3d
       -0.07197512 0.014339799 0.078693606 0.039573655
000060 d8 2d 0f bd 7c 99 81 3d d6 ef c3 3d 5f 57 93 bc
       -0.03495583 0.06328103 0.095672294 -0.017985998
000070 5f 2e df bd ff 10 0c be ba 17 92 be 5c ee 7d bc
       -0.108975165 -0.13678358 -0.28533727 -0.015498724
000080 1e 60 67 3d 9f c0 fb bd 2a b1 c8 3e 9d cf 8d be
       0.05648815 -0.12292599 0.39197665 -0.2769746
000090 27 84 ab bc c3 ec 88 3e 57 a5 46 3d 38 b8 4c be
       -0.020937039 0.26743135 0.048497524 -0.19992149
0000a0 dd 22 d3 3d d5 81 9f bd 1a 47 67 3c 1a 58 b2 be
       0.10309384 -0.07788435 0.014116073 -0.3483284
0000b0 2a 7c cd bc f6 7c 0e 3e e1 4b f0 3c ce e2 93 3e
       -0.02508362 0.13914856 0.029333057 0.28883976
0000c0 21 77 82 3e 9c d7 c7 be 7e a8 d5 3e 3b b1 65 3e
       0.25481513 -0.39031684 0.41730112 0.2243089
0000d0 03 1f 63 3e 29 4f 14 3e d4 32 7d be fb 9e b9 3d
       0.22179799 0.14483322 -0.2472642 0.09063526
0000e0 a2 01 c2 3d 0b 63 b2 be c8 90 ae 3b 62 d0 de bd
       0.09472968 -0.3484119 0.005327318 -0.108795896
0000f0 5b ff 1b be 0e ee 3f be 15 6d f7 bd 2e 0a a2 bd
       -0.15234129 -0.18743154 -0.120813526 -0.07912098
000100 a7 60 79 3d 06 9f 58 3c c9 35 68 3e 9b 3c 91 bc
       0.06088319 0.013221508 0.22676767 -0.017729094
000110 f0 4d 9c 3c 62 7d 88 3d fe 00 54 bd 3d 8b c1 be
       0.019080132 0.0666454 -0.05175876 -0.37801543
000120 8d 49 7c 3c 36 83 88 be 20 55 44 bd a2 8b fd 3b
       0.015398395 -0.26662606 -0.047932744 0.007737593
000130 e0 94 4c be 9a ea ad 3e b9 f4 84 bc 68 10 76 bd
       -0.19978666 0.3396805 -0.016229974 -0.06007424
000140 03 25 4f be eb d1 73 3e 55 fc df bb cc e3 d6 bd
       -0.20228963 0.23810546 -0.0068355002 -0.104926676
000150 d7 cc e0 bc 8b 6d d0 3d 3a b8 b5 3c a7 41 86 bc
       -0.027441425 0.10177144 0.022182573 -0.016388727
000160 bd a4 e0 bd ed 73 9f 3d e9 4d b7 be 28 c6 d0 bd
       -0.10968921 0.07785783 -0.35801628 -0.10194045
000170 21 9a 11 be c9 ac e8 3d 6f 9e ea 3b 69 c1 cd be
       -0.14218952 0.11361081 0.00716 -0.40186623
000180 e5 44 22 3e f1 a7 4b be 2d 37 27 be cd 54 d5 be
       0.15846594 -0.19888283 -0.16329642 -0.4166626
000190 55 2e 9d bd cd f4 9a be 70 0a 45 3c e4 23 90 3d
       -0.07674853 -0.30264893 0.012026414 0.070380956
0001a0 e9 71 70 be d0 e6 45 3e 83 b6 fa 3e 52 97 4c bd
       -0.23480953 0.19326329 0.4896737 -0.049948998
0001b0 97 c0 12 3e 4e 88 3a 3b ea 21 56 3d 84 db d9 bd
       0.1433128 0.0028462592 0.052278437 -0.106375724
0001c0 88 fd 90 be 01 f6 9c bd 29 c7 7c 3e 72 2c a2 be
       -0.2831843 -0.07664109 0.24685349 -0.31674534
0001d0 4a 4f 1b bd e3 45 2f 3d 2d c8 18 3e 55 dd ce 3d
       -0.037917413 0.04279126 0.14920111 0.101008095
0001e0 1c 88 9b be cb 1c d5 bd f2 a8 8d 3d da 16 38 be
       -0.3037728 -0.104058824 0.069169894 -0.17977467
0001f0 a4 66 38 3d 17 56 a3 3d a0 f3 2d be 4a 28 9e be
       0.04501976 0.07975405 -0.16987467 -0.30890113
000200 82 c3 a9 be 32 2d 15 be c9 fe 4a 3e 68 0c 5e bd
       -0.33156973 -0.14568022 0.19823755 -0.05421105
000210 28 e7 e5 3d e6 56 31 3e f4 38 cc 3c 96 7b 05 3c
       0.1122573 0.17318305 0.024929501 0.008147141
000220 94 23 70 bd 1c 1a de 3e 92 31 ab 3e 7a 05 bd bd
       -0.05862768 0.43379295 0.33436257 -0.0922956
000230 82 b5 1a be 2c 86 56 bd 69 45 53 bd e9 28 1b 3e
       -0.15108302 -0.05237405 -0.051579867 0.15152325
000240 19 52 a5 3e fc 24 ed bd 53 f9 08 3d 2e df 7a 3c
       0.32289198 -0.1157932 0.0334409 0.015311999
000250 3b 1e ce 3a ac c8 a3 3e 67 27 9f bd d7 a7 f1 bc
       0.0015725562 0.31989038 -0.07771187 -0.029498978
000260 b2 a7 2a be ef 0a 32 be 9e 31 8f 3e 37 85 23 be
       -0.16665533 -0.17386983 0.27967542 -0.15968786
000270 de 74 17 be 4a a3 a5 3e 61 f5 57 bd 9e 21 31 3e
       -0.14790675 0.32351142 -0.052724246 0.1729798
000280 8a 5b 19 be b8 b3 28 bd 0e 01 39 be 63 d2 59 3e
       -0.14976326 -0.04118702 -0.18066809 0.21271662
000290 9a 8f 72 be 13 35 1b 3a 6e e3 29 bd 94 ee 76 bd
       -0.23687592 0.00059206894 -0.04147666 -0.06028612
0002a0 a3 d9 c3 3e 4a bf d4 3d 60 09 a9 3d 14 fe 2c be
       0.3825198 0.10388048 0.08253741 -0.16893798
0002b0 71 df ff 3e ea 90 d4 3d a1 81 91 be 78 bb 6a be
       0.4997516 0.10379203 -0.28419212 -0.22923076
0002c0 95 fa b2 3d bd 7c 22 3e 7f 9c 84 3e 9b dd 2e 3e
       0.08739201 0.15867896 0.25900647 0.17076723
0002d0 f3 cc 6b be 8e c5 f0 3c 54 38 fa bd c8 4f 21 3c
       -0.230274 0.029391076 -0.12217775 0.0098456815
0002e0 83 93 16 3e c5 f6 18 3c c5 80 0e be 52 39 ba be
       0.14704709 0.009336178 -0.13916309 -0.36371857
0002f0 0b 0b 90 3e f3 ab 5a bc c9 3d b5 39 99 5a cd be
       0.28133425 -0.01334666 0.00034569044 -0.40108183
000300 1d 4d d4 3d 58 47 45 be fd a3 19 3e 40 b8 03 bd
       0.10366271 -0.19265497 0.15003963 -0.032158136
000310 cd 5d 22 be f6 a0 52 3e dc b3 83 3e 10 0d f2 3e
       -0.15856095 0.20569214 0.2572316 0.4727559
000320 fe 20 99 3d 39 8c 90 3e 23 78 dc 3a 04 1f c3 bd
       0.07476996 0.2823198 0.0016820472 -0.095274
000330 a5 54 08 be 73 3e 40 3b f6 0e b2 3e 2f af 81 bd
       -0.1331354 0.0029334098 0.3477704 -0.06332242
000340 24 ee 88 bd 39 35 96 3e 07 0b 26 3d 5a 61 ad 3e
       -0.06686047 0.2933748 0.04053786 0.33863336
000350 b0 85 8c be da bd b1 be ea 8d bc 3d 67 18 0c be
       -0.27445745 -0.34715158 0.092067555 -0.13681184
000360 1b ac 9c be ae 44 b0 3e 22 3d 55 be 10 14 ba be
       -0.30600056 0.34427398 -0.20824102 -0.3634343
000370 3e 9c bf bd b1 5f 39 3e 8a c0 f9 3d b7 45 0b be
       -0.09355973 0.1810291 0.12194927 -0.13600813
000380 cb e3 84 be 03 37 24 3e 55 ea bb 3e 4b 7a d0 be
       -0.25955042 0.1603661 0.3670222 -0.40718302
000390 15 ae 77 be 73 87 1d bf a1 bc 0b 3f 8b 04 1e be
       -0.24187501 -0.61534804 0.545847 -0.1543142
0003a0 8e 52 9b 3e 51 14 be 3e cc 81 fc 3d a6 ea a1 3e
       0.30336422 0.37124875 0.12329444 0.31624335
0003b0 68 4d e1 bd a6 4c 97 3e fe 3b 7d 3e d9 85 8a 3c
       -0.11001092 0.29550666 0.24729916 0.016909527
0003c0 77 66 31 bc 32 6b bf be a1 c9 64 3e 1d 91 6c 3e
       -0.010827652 -0.3738647 0.2234254 0.23102231
0003d0 2e d4 0c bc 44 1e 86 3d 01 65 4a 3a 1a 82 51 3c
       -0.008595509 0.065487415 0.0007720739 0.012787366
0003e0 3c 9e 14 3e 6e 97 83 be 11 4a 97 3e 2b ff 87 bc
       0.14513487 -0.2570147 0.29548696 -0.016601166
0003f0 2d 17 49 3e 5c d9 eb 3d 04 94 6d 3e 7c 52 0c be
       0.19637747 0.115160674 0.23200995 -0.1370334

4.bias f4 [9]
000000 11 21 6b bd 04 4c de be 69 e9 bb bc 33 99 b2 3d
       -0.05740458 -0.4341737 -0.022938447 0.08720627
000010 e1 02 4d 3d a5 62 26 bd 65 03 cb bd 35 37 a1 3c
       0.050051574 -0.04062142 -0.09912757 0.019679645
000020 a1 06 17 be
       -0.14748622

0.weight f4 [30, 2]
000000 f5 12 8c 3f f0 80 13 bd 71 8d 84 bf 17 54 fb be
       1.0943285 -0.036011636 -1.0355664 -0.49087593
000010 95 8b b2 3d ed 39 3f 3f ae 0f 46 bd 4f 0e 55 3f
       0.087180294 0.7469776 -0.048354797 0.8322496
000020 ec cb dd bd 0e ea 65 be d1 62 2d be 5f 3a 4c be
       -0.10829911 -0.22452566 -0.16932227 -0.19944142
000030 f9 8c 6b 3f b7 23 8b 3e 92 4b 5f 3f 08 31 c4 be
       0.9201198 0.27175686 0.87224686 -0.38318658
000040 54 49 ef be 31 6a 18 be 13 37 62 3f 80 2d 93 3e
       -0.46735632 -0.14884259 0.88365287 0.2874565
000050 60 d3 09 3f 95 7a a5 bf 60 f1 0d be 6b 25 12 bf
       0.5383816 -1.2928034 -0.13861609 -0.57088345
000060 fe d8 3f bf fb 2e 4f 3e 7e 07 c0 be 8e de 78 3f
       -0.7494048 0.20232765 -0.37505716 0.9721459
000070 bc f9 8f be c7 b6 75 3e 4b c3 6d 3f 18 b7 a4 bf
       -0.2812022 0.23995505 0.9287612 -1.2868376
000080 e7 0c b8 bd 31 79 33 be fb db c9 3e b3 29 53 3f
       -0.08986836 -0.175267 0.39425644 0.824855
000090 80 a8 cc be aa 98 ec be 39 b8 63 3f 43 c0 b6 3e
       -0.39972305 -0.46210223 0.88952976 0.3569356
0000a0 33 05 33 bd 80 7b 2a 3f 46 7c 12 bf b7 dc d2 bd
       -0.04370613 0.66594696 -0.57220876 -0.10296004
0000b0 01 b7 01 3f 8c 47 86 3d 96 e9 e5 be db 80 c0 3e
       0.50669867 0.06556615 -0.44904774 0.3759831
0000c0 ce 8f 8d bf 66 15 ca be 88 4a 77 3e 88 f5 f5 be
       -1.1059511 -0.3946945 0.24149525 -0.48038888
0000d0 4d 8c a2 be ff e8 2d 3f 32 a5 42 3e ee 1b 96 bf
       -0.31747666 0.6793365 0.1900833 -1.1727273
0000e0 71 2e 14 bf 85 e4 7f bf 2f b4 a4 3e f5 dd 17 bf
       -0.57883364 -0.9995807 0.3216872 -0.59323055

0.bias f4 [30]
000000 80 2b 0b bf 9d 12 f1 3d e1 2d 5a bf 0a 1f 70 3d
       -0.5436325 0.11771128 -0.85226256 0.05862335
000010 bb c9 38 bf a2 fa 08 bf a6 b4 fd bd f8 41 9f bf
       -0.72182816 -0.53507435 -0.123879716 -1.2442007
000020 d2 75 3e bf b6 34 5e 3f 66 58 77 3e b4 e4 b0 be
       -0.7439853 0.8679918 0.24154815 -0.34549487
000030 57 70 d3 bd fd 38 8b 3f 6f d9 91 bf cc e8 6c be
       -0.103241615 1.0876766 -1.139448 -0.2313568
000040 ec aa 20 bf bd f7 f4 be ae 15 cd 3c 57 d4 6e bf
       -0.62760806 -0.4784526 0.025034752 -0.93292755
000050 56 1a f2 3e be 97 91 bf 20 25 74 3f 1b 7a 65 bf
       0.47285718 -1.1374433 0.9536915 -0.89639443
000060 c9 9b 8d be 67 20 50 3f 46 2f 80 bf aa d9 78 3f
       -0.27657917 0.8129944 -1.0014427 0.9720713
000070 9e 12 16 bf b7 c5 1e 3d
       -0.5862216 0.038762774

2.weight f4 [30, 30]
000000 8b 08 a1 bd 51 89 67 bd f5 dd 62 3c 81 4f 4d 3e
       -0.078629576 -0.05652744 0.013846864 0.2004986
000010 52 5a da bc 8a 12 bc bd 15 34 a4 3e b1 ab c0 3d
       -0.026654396 -0.091832235 0.32070985 0.094077475
000020 2f 8e fa bd cd df 02 3e 4a 52 14 be 4a 5d d0 bd
       -0.122341506 0.12780686 -0.14484516 -0.101740435
000030 4e ec 9a 3d ba fd 9e bc 6b 68 d3 be 14 99 7e bc
       0.07564603 -0.019408096 -0.41290602 -0.015539426
000040 63 6a 2c 3c ed 80 a3 bd 50 65 3e bd e4 b3 db bb
       0.010523411 -0.07983575 -0.046483338 -0.0067047942
000050 23 68 5b bb 19 d5 d4 be fb 65 a9 3e 13 b7 9e be
       -0.0033478818 -0.4156883 0.33085617 -0.3099905
000060 f6 8d 66 bd ae f9 8c 3e 41 0c 12 bd cc b0 cf 3d
       -0.05628773 0.2753424 -0.035656217 0.10141143
000070 6b 18 2e 3e fb e4 24 3e 7a 1a 8e 3e 6a b2 d5 3e
       0.17001502 0.16102974 0.27754575 0.41737682
000080 1d fb 83 bd ed 2e c1 3d b6 77 63 3d 1a 22 4b be
       -0.064443804 0.094327785 0.055534087 -0.19837227
000090 0e 02 dd bd 49 15 df be 77 0e 98 3e 74 7d 11 bf
       -0.107914075 -0.43570927 0.29698536 -0.5683205
0000a0 e5 ce 34 3e 92 5a 84 be 85 05 0e 3d 9f a1 d3 3e
       0.17657049 -0.2585035 0.034673233 0.41334245
0000b0 1b 91 ef 3d c3 dd a3 bc f8 39 1c bc 4d e1 44 be
       0.116975985 -0.020003205 -0.009535305 -0.1922657
0000c0 c9 cc b5 3e bf cb 53 3e f9 26 b2 3e bf 70 a7 3e
       0.355078 0.20683192 0.3479536 0.32703206
0000d0 79 82 79 be f7 aa 10 3e 12 8c 97 3e f4 c4 67 3d
       -0.24366178 0.14127718 0.29599053 0.056584314
0000e0 c3 6c 0a 3c 55 90 9f 3e c8 02 9c be 53 c3 2d 3e
       0.008448782 0.31164804 -0.30470872 0.16969042
0000f0 c4 8b 47 be e7 05 42 bd 63 00 04 3f 4a e2 99 3e
       -0.1948691 -0.04736891 0.5156309 0.30055457
000100 66 cf a3 bd 5c 56 87 be 47 0b 27 3e 71 d0 c5 be
       -0.079985425 -0.26433074 0.16312896 -0.3863559
000110 35 b8 b3 3c 4c 1a 8d 3e ab de 0b be 3f 40 b5 be
       0.021938423 0.27559125 -0.1365916 -0.35400578
000120 d9 b5 33 3e 7b 82 01 3f 4b 25 e6 bd 72 04 56 bd
       0.17549838 0.5058972 -0.11237582 -0.052250333
000130 36 12 d1 be 86 a3 64 3e ed 04 9e be e5 e7 14 be
       -0.40834206 0.22328004 -0.30863133 -0.14541586
000140 8b 20 28 3e c2 e2 87 be 73 e4 b4 3d 4f 4b 43 bc
       0.16418664 -0.2654019 0.08832636 -0.01191981
000150 e4 96 c6 be 56 32 32 be b6 13 1f bc 17 3c 65 be
       -0.38786995 -0.17402014 -0.009709289 -0.22386204
000160 37 13 36 bf 50 ac 08 be 0a 67 04 bf 31 6c 53 be
       -0.7112307 -0.13346982 -0.51719725 -0.2064674
000170 03 55 b7 3e 35 bc 5a 3e 18 1d 70 3e a4 98 ce bd
       0.35807046 0.21360858 0.23448598 -0.10087708
000180 35 07 4c be c4 e1 21 be a9 03 25 3e 80 ff 08 3d
       -0.19924624 -0.15808779 0.16114677 0.03344679
000190 8d 62 25 bf dc 39 25 be 28 e4 82 3e 00 6c 0e 3e
       -0.646035 -0.16135353 0.25564694 0.13908386
0001a0 c4 5d 42 3e c7 ca 19 bf 05 b3 a9 3b 1c f1 93 3e
       0.18981081 -0.6007504 0.0051788115 0.2889489
0001b0 a3 5f f6 3d 1f 40 32 3e ec b6 a2 3e 18 96 9d 3e
       0.1202996 0.17407273 0.31780183 0.30778575
0001c0 d5 ae 09 bd e2 b7 0d 3f 16 97 04 3e 88 17 f1 be
       -0.033614 0.5535871 0.1294826 -0.47088265
0001d0 96 56 f2 3e f4 da 2b bf 81 1e 9c bc cc 9c 01 bf
       0.47331685 -0.6713097 -0.019057514 -0.5062988
0001e0 3e a8 59 3d 90 d1 a7 3e 27 e0 a6 bd 30 0c 8b bd
       0.053138964 0.3277707 -0.081482224 -0.06789434
0001f0 5a 9b 9b be 00 cd 8d bd e1 3d 9d be a1 53 4d be
       -0.3039196 -0.06923866 -0.30711272 -0.20051433
000200 a1 1d 24 3e fd 8c 93 be 0e c1 56 be 7a 59 d8 3d
       0.16026928 -0.28818503 -0.20972082 0.10563941
000210 7e e2 ef 3d d3 33 b7 bc 22 b6 28 3c ab 3c c3 bd
       0.11713122 -0.022363579 0.01029733 -0.09533056
000220 64 fa 4a be 07 ec 0d bd 06 a4 74 3e fe c5 d7 bd
       -0.19822079 -0.03464892 0.23890695 -0.10535811
000230 83 26 63 3e c1 5f a0 bd 37 3a c2 bc 1d 41 8a bd
       0.2218266 -0.078307636 -0.0237094 -0.067507006
000240 37 77 de 3d 57 ea 85 3d a7 bd 38 be 12 f9 85 3d
       0.10862582 0.065388374 -0.18041097 0.06541647
000250 3e 6e 13 3e 64 40 76 be be d5 8b be b7 76 07 3e
       0.14397523 -0.24048 -0.2731151 0.1322888
000260 9e 76 b9 3e f5 9b b2 3d 76 56 62 3c 32 6a 91 bd
       0.3622331 0.08721153 0.013814559 -0.07100333
000270 8b 40 00 be 56 13 2e be 14 2e 4a 3e 9d 72 98 bc
       -0.12524621 -0.16999564 0.1974414 -0.01860934
000280 1d 9f c1 bd 7f ed b4 3d ea a6 33 bd 42 94 7c 3d
       -0.094541766 0.08834361 -0.043860354 0.061664827
000290 24 b0 c3 3c bf 2b d4 bd 15 eb ec bc 93 d3 32 3e
       0.023887701 -0.103599064 -0.02892069 0.17463522
0002a0 99 ad d4 3c 3d 19 99 be 8d ff c7 bd ad 96 85 3c
       0.025961684 -0.29902068 -0.09765539 0.0163072
0002b0 bc ec 09 be 8e ef b3 bd df e5 67 3e 11 db 97 bd
       -0.13469213 -0.08785926 0.22646283 -0.074148305
0002c0 be cd ad bd b7 49 99 bd fe cf d8 3d a3 4d 37 be
       -0.08486508 -0.07484763 0.10586546 -0.1790071
0002d0 82 42 fb bd b3 76 8f be 44 ca 03 3e 9f 49 dc 3e
       -0.12268545 -0.28020248 0.12870127 0.43024918
0002e0 cf 88 a4 be a9 c8 9c be 6c 06 de bb b8 46 f0 be
       -0.32135627 -0.30621842 -0.006775668 -0.46928954
0002f0 8d 85 8b bd be ae 71 3e 3d e8 5e be 1e f7 f9 be
       -0.06812582 0.23601815 -0.2176828 -0.48821348
000300 3d 1a d2 bc a0 86 ef 3e 51 5c 51 be 10 bd 04 bf
       -0.025647277 0.46782398 -0.20445372 -0.51850986
000310 88 95 10 bf 53 04 b4 3e 2e 88 ac bd 76 5b 36 be
       -0.56478167 0.3515955 -0.08424412 -0.17808327
000320 92 dc c2 3e 3b 0f ee bd c4 93 13 3e eb d8 14 be
       0.38058907 -0.11623999 0.14411837 -0.14535873
000330 50 c1 57 be 5a 47 b5 bd 46 60 cb 3c 43 24 14 3d
       -0.21069837 -0.088515 0.02482618 0.036167394
000340 9b 3f 9c be e1 e2 1a be db 35 d2 3e 9c dc 61 be
       -0.30517277 -0.1512561 0.41056713 -0.22056812
000350 9f d3 27 3e 52 5b cb 3c 8b 46 f0 3d 28 ad 53 3e
       0.16389321 0.024823818 0.11732205 0.20671523
000360 5b 72 bf 3e 13 58 93 3e 7b 4e 28 be 88 49 b8 bd
       0.37391934 0.28778133 -0.16436188 -0.089984
000370 7b e2 83 3c c4 50 65 3e 83 00 63 be 10 cf a8 bd
       0.016099205 0.22394091 -0.22168164 -0.08242619
000380 e5 14 b1 bd bc e3 55 be fe 17 12 3e 2d 31 52 3e
       -0.086465634 -0.20887655 0.14266965 0.20526572
000390 ce c9 19 bf 90 27 6c 3f 01 21 97 bc c9 c8 0a 3e
       -0.60073555 0.9224787 -0.018448355 0.13553156
0003a0 97 76 3d bd db 06 2c 3d 3a bc 9a 3d 90 cf 45 3e
       -0.046255674 0.041998725 0.075554326 0.1931746
0003b0 c5 7e 1a be 91 3c 67 be 32 62 50 3e 4a e9 e4 3d
       -0.15087421 -0.22581698 0.20349959 0.11177309
0003c0 8a d8 76 be 38 85 57 3e fa 65 b5 bd 0b 2f 16 3e
       -0.2410604 0.21046913 -0.08857341 0.14666383
0003d0 c6 22 fc be d5 7c 3d be c1 f2 c7 be 18 8c 1c bf
       -0.4924528 -0.18504651 -0.39052394 -0.61151266
0003e0 c7 58 a1 3e 5a f6 13 bd ac 1e b5 3d 9f f0 eb be
       0.31513044 -0.03612361 0.08843741 -0.46082017
0003f0 d9 4b 0e 3e 4a 44 26 3f bd 9d 0d be 85 a9 17 3e
       0.13896121 0.6494795 -0.13829704 0.1481076

2.bias f4 [30]
000000 66 20 25 3e f9 4e 79 3e 23 74 4b 3e c5 f8 68 be
       0.1612564 0.24346532 0.19868521 -0.22751148
000010 61 ba 80 3e 7f f5 6e 3e 85 be 37 3e 7e f2 86 be
       0.25142196 0.23335837 0.17943771 -0.26356882
000020 41 1f 84 3e 2e 9e eb 3e 58 94 e0 be 22 3f 99 bd
       0.25805095 0.4601912 -0.43863177 -0.07482745
000030 6d e3 18 3d 29 36 9b be fe f9 8a 3e b4 12 51 be
       0.037326265 -0.30314758 0.27143854 -0.20417291
000040 de d1 1a be 34 ff 88 be 30 13 ac 3e 40 2d 99 3e
       -0.1511912 -0.26757205 0.3360839 0.29917336
000050 1d 3f 5a 3e 4c 97 f3 3c c4 35 70 be ba 5d 81 be
       0.21313138 0.02973523 -0.2345801 -0.2526682
000060 df 6b a3 3e fd 09 68 3d eb d9 2b be 01 c9 8e 3e
       0.31918237 0.05665015 -0.16782348 0.2788773
000070 36 9a ae 3d cd 0b b3 bc
       0.08525507 -0.021856213
