model_summon/ReconstructORI/Step/Checkpoint_SEED42_LR0.01_HD30_HL2_Epoch3_WithPhysics1_WithBatch1_Pretrain50.pth (torch, 107953 bytes, 80 tensors)

0.weight f4 [30, 2]
0.6237379 0.70615053 -0.09139221 0.98982793 -0.0710698 -0.05249098 -0.05586216 0.62778956
0.8818476 -0.1802841 0.7794885 0.17259483 0.51321995 -0.056535758 0.20070753 0.047441024
0.6359834 0.09534606 -0.8176851 -0.07857899 -0.18358237 -0.37654075 0.087080754 0.77158713
-0.7304269 -0.30478498 -0.4301702 -0.32126182 0.029873526 -0.93421024 0.8081011 -0.35089892
0.4704902 0.32374477 0.21867901 0.31298327 0.3825496 0.4289614 0.054955397 -0.47077423
-0.07376783 -0.09119352 0.23972833 0.7093972 0.13146485 -0.49367645 0.41040656 0.3988487
0.092415296 -0.5337495 -0.8291257 -0.17442921 -0.7557904 0.0821447 0.25405183 0.417417
0.1981545 0.20441058 0.12929943 -0.3840365
00000000: 49ad 1f3f 48c6 343f d72b bbbd 5d65 7d3f
00000010: 0b8d 91bd c800 57bd b8cf 64bd d1b6 203f
00000020: c4c0 613f 659c 38be 8f8c 473f b3bc 303e
00000030: 6262 033f 0a92 67bd 4686 4d3e 8551 423d
00000040: cfcf 223f cc44 c33d d053 51bf 06ee a0bd
00000050: 04fd 3bbe f3c9 c0be 6557 b23d bc86 453f
00000060: 42fd 3abf c70c 9cbe 453f dcbe 6e7c a4be
00000070: 53b9 f43c 6728 6fbf b7df 4e3f 06a9 b3be
00000080: 17e4 f03e e0c1 a53e 64ed 5f3e 583f a03e
00000090: 8bdd c33e d4a0 db3e e918 613d 5209 f1be
000000a0: 9713 97bd abc3 babd 587b 753e 0e9b 353f
000000b0: b99e 063e 29c3 fcbe cf20 d23e e635 cc3e
000000c0: 3b44 bd3d cfa3 08bf 9541 54bf 929d 32be
000000d0: 7b7b 41bf 7b3b a83d 1513 823e aeb7 d53e
000000e0: 03e9 4a3e 0251 513e 1267 043e 6fa0 c4be

0.bias f4 [30]
-0.3250827 -0.67193645 -0.012485938 -0.67012715 0.42486066 -0.7199204 0.7776831 -0.3575017
-0.8120646 -0.5033472 0.93759006 -0.20726585 0.7414504 -0.40833303 -0.6242097 -0.7370004
-0.55356836 -0.06298967 -0.18912736 0.78887445 -0.21402769 -0.9287798 0.79596925 -0.2694708
0.79320467 0.11859592 1.1653515 -0.8007371 -0.48357084 0.94233686
00000000: 3d71 a6be 0704 2cbf d291 4cbc 748d 2bbf
00000010: 5687 d93e b44c 38bf 3d16 473f 760a b7be
00000020: 77e3 4fbf 5ddb 00bf e705 703f 803d 54be
00000030: b2cf 3d3f 0711 d1be 35cc 1fbf 0fac 3cbf
00000040: a8b6 0dbf ba00 81bd 9aaa 41be adf3 493f
00000050: 132a 5bbe 83c4 6dbf a4c4 4b3f 14f8 89be
00000060: 760f 4b3f 6be2 f23d 3d2a 953f 1bfd 4cbf
00000070: 9996 f7be fd3c 713f

2.weight f4 [30, 30]
-0.32722118 -0.11088949 0.027499828 0.0686655 -0.09878869 -0.25299793 0.16304621 -0.1223095
-0.28127894 -0.28725466 0.2763658 -0.054632347 0.14530697 0.17146233 0.13987947 -0.026407681
-0.37484324 -0.2530424 -0.34969658 0.012735313 0.27978277 -0.14365588 0.09407762 -0.49961585
-0.04896972 0.018203799 -0.059155703 -0.35154828 -0.39899617 -0.062275585 -0.03455507 -0.063395366
0.16382794 -0.08790677 -0.32621124 -0.33185813 -0.537758 -0.3214585 -0.068124846 0.20423003
0.06958262 0.12481722 0.08795504 0.13960187 -0.13405113 -0.30837747 -0.33322603 -0.116496965
0.09701107 -0.10811948 0.053196657 -0.12907381 0.09278879 -0.3415331 -0.059707467 0.37473512
0.38763425 0.218951 0.09051315 -0.19634894 0.09905989 -0.034939386 -0.23339705 -0.108767375
0.37376645 0.098616555 0.5293895 0.23947456 0.28723964 -0.38259092 0.18063796 0.046270397
-0.16088134 -0.20950797 0.025219087 0.18268375 0.13803716 0.1535457 0.046680134 -0.09041278
-0.08559465 0.013866816 0.06410781 0.14604697 -0.14384502 -0.37104627 -0.3908614 0.03315931
0.18659428 -0.24143563 -0.19729078 0.17167911 0.0584463 -0.02745136 -0.017809365 0.16901939
0.18699592 -0.20939608 -0.17038395 0.022919774 0.41454047 -0.016999152 0.19624925 0.24965419
-0.08308851 -0.19336502 -0.14250383 -0.082771726 -0.11376679 0.10384212 -0.253987 -0.071685486
0.13717857 -0.20239869 -0.03963843 -0.17282477 0.06260818 -0.31210825 -0.56191707 -0.0009410688
-0.23018226 0.0010604906 -0.21890154 -0.16635358 -0.052173786 0.10986246 -0.25812268 -0.03811921
0.08031591 0.005958889 0.011497413 0.0640335 -0.023806464 0.3665289 -0.16094898 0.10432871
0.053177495 -0.20698054 -0.41365242 -0.10843735 -0.0440446 -0.11326 0.12652475 -0.32857904
0.14649889 0.16503671 0.004487712 -0.39786622 -0.37920305 -0.0906647 0.30802315 -0.2468199
0.067470804 -0.21185263 -0.024683405 -0.107160926 -0.2372492 0.03344959 -0.1259312 0.12591524
-0.14285688 -0.17845625 0.00010751979 -0.2675704 -0.0726963 -0.26167858 0.05675671 -0.021686094
0.2276681 0.13749798 -0.045699194 -0.15311165 0.23093688 -0.024209093 0.18854694 0.17133226
0.06773244 0.1284118 -0.08369006 -0.06643156 0.09288228 -0.2546236 0.061375223 0.039658964
0.27234605 0.19171062 0.14080474 0.050494347 0.39102024 -0.27776587 0.113124385 -0.2127835
-0.21783018 -0.05108944 0.021217706 0.1262761 -0.06483283 0.051522527 0.0838082 0.079282105
-0.050089512 -0.15560308 -0.06774381 -0.027099095 0.15285937 -0.35553384 -0.28523058 -0.12577944
-0.15576178 0.05347306 0.16789614 -0.1300885 0.040428348 -0.13748728 -0.06716005 0.34062275
0.020696934 0.15298975 0.09637845 -0.0717371 -0.07283956 0.09051069 -0.27733713 -0.016972164
0.0961073 0.02143479 0.29477987 0.20020777 0.009233241 0.048300195 -0.2121027 -0.07088229
0.18975462 0.27856654 -0.03813342 -0.26964676 -0.12843716 -0.15554295 -0.05745684 -0.00037436772
0.5833969 0.053152457 -0.03865379 -0.1419161 0.08499932 -0.045509126 0.1439429 0.06355542
-0.11215375 -0.11633798 -0.34590015 0.02379873 -0.2401477 -0.38225207 -0.24973917 -0.26031512
00000000: 8989 a7be 071a e3bd 5247 e13c 7fa0 8c3d
00000010: ba51 cabd f288 81be 96f5 263e 677d fabd
00000020: cb03 90be 0b13 93be d17f 8d3e 2bc6 5fbd
00000030: 5acb 143e d293 2f3e 903c 0f3e ec54 d8bc
00000040: 74eb bfbe c68e 81be 6e0b b3be c6a7 503c
00000050: b03f 8f3e 871a 13be c4ab c03d a6cd ffbe
00000060: 7994 48bd 2220 953c 404d 72bd 23fe b3be
00000070: 3a49 ccbe af14 7fbd 9e89 0dbd 6ed5 81bd
00000080: 83c2 273e 7708 b4bd 2905 a7be 4fe9 a9be
00000090: 82aa 09bf 3596 a4be 0a85 8bbd ad21 513e
000000a0: 5581 8e3d 2ca0 ff3d c621 b43d cbf3 0e3e
000000b0: b344 09be a7e3 9dbe 9a9c aabe f695 eebd
000000c0: bdad c63d bf6d ddbd bde4 593d ed2b 04be
000000d0: 0d08 be3d 6ddd aebe d18f 74bd 48dd bf3e
000000e0: ff77 c63e b134 603e f55e b93d b20f 49be
000000f0: e9df ca3d 9a1c 0fbd a3ff 6ebe 6ec1 debd
00000100: 515e bf3e 7af7 c93d 1286 073f d238 753e
00000110: 1311 933e f5e2 c3be 28f9 383e 0786 3d3d
00000120: 14be 24be 4289 56be 4298 ce3c 7311 3b3e
00000130: 9d59 0d3e 153b 1d3e ab33 3f3d 562a b9bd
00000140: 3f4c afbd a431 633c f54a 833d 568d 153e
00000150: 1c4c 13be c7f9 bdbe fc1e c8be 0fd2 073d
00000160: 9212 3f3e e73a 77be 9806 4abe a6cc 2f3e
00000170: 6365 6f3d ade1 e0bc f2e4 91bc 6b13 2d3e
00000180: dc7b 3f3e ed6b 56be 2179 2ebe 40c2 bb3c
00000190: a63e d43e ce41 8bbc 90f5 483e 59a5 7f3e
000001a0: 4f2a aabd 7b01 46be 86ec 11be 3984 a9bd
000001b0: 90fe e8bd 2dab d43d 960a 82be d7cf 92bd
000001c0: 8a78 0c3e 9a41 4fbe e85b 22bd faf8 30be
000001d0: b838 803d a7cc 9fbe ccd9 0fbf 0fb2 76ba
000001e0: e6b4 6bbe 2900 8b3a ba27 60be 9858 2abe
000001f0: 2eb4 55bd 92ff e03d a828 84be e422 1cbd
00000200: ab7c a43d c942 c33b a55f 3c3c ff23 833d
00000210: c605 c3bc ada9 bb3e cfcf 24be 4aaa d53d
00000220: a5d0 593d b5f2 53be 40ca d3be 6714 debd
00000230: 1c68 34bd dcf4 e7bd b48f 013e 833b a8be
00000240: ce03 163e 62ff 283e a80d 933b 1fb5 cbbe
00000250: e726 c2be 6aae b9bd 36b5 9d3e 5bbe 7cbe
00000260: 222e 8a3d e5ef 58be da34 cabc 3077 dbbd
00000270: 74f1 72be 7002 093d 1cf4 00be edef 003e
00000280: 1349 12be 3cbd 36be 3f7c e138 fdfe 88be
00000290: cce1 94bd bcfa 85be b979 683d 09a7 b1bc
000002a0: d421 693e 45cc 0c3e 142f 3bbd 4dc9 1cbe
000002b0: b87a 6c3e 2652 c6bc 7312 413e b971 2f3e
000002c0: 4eb7 8a3d 627e 033e b265 abbd 450d 88bd
000002d0: 1139 be3d 065e 82be 9664 7b3d 7071 223d
000002e0: f170 8b3e ca4f 443e 1e2f 103e 29d3 4e3d
000002f0: ce33 c83e 5437 8ebe c2ad e73d ebe3 59be
00000300: e00e 5fbe 2943 51bd c1d0 ad3c 864e 013e
00000310: 13c7 84bd 4909 533d a2a3 ab3d a85e a23d
00000320: a92a 4dbd 6a56 1fbe 44bd 8abd ecfe ddbc
00000330: 2b87 1c3e 8808 b6be be09 92be 53cc 00be
00000340: 0480 1fbe 9106 5b3d f7ec 2b3e eb35 05be
00000350: 3298 253d 77c9 0cbe 358b 89bd 1b66 ae3e
00000360: 9e8c a93c 58a9 1c3e 1162 c53d e7ea 92bd
00000370: e82c 95bd ab5d b93d 22ff 8dbe 3509 8bbc
00000380: e7d3 c43d 0398 af3c 63ed 963e 4403 4d3e
00000390: 0547 173c 6dd6 453d 7331 59be bc2a 91bd
000003a0: 094f 423e 46a0 8e3e ca31 1cbd 240f 8abe
000003b0: 0885 03be a746 1fbe dd57 6bbd c946 c4b9
000003c0: 8059 153f 64b6 593d 7053 1ebd 7452 11be
000003d0: 2014 ae3d c767 3abd c465 133e 5829 823d
000003e0: deb0 e5bd 9b42 eebd d319 b1be 8ef5 c23c
000003f0: 47e9 75be 8bb6 c3be a0bb 7fbe 0648 85be

2.bias f4 [30]
0.15306376 0.112677805 -0.05943518 0.1312047 -0.073523216 -0.18904442 -0.073472396 -0.12466676
-0.006236262 0.14946936 0.015016735 -0.35424963 0.23907746 0.27595744 0.26308084 -0.4841741
0.09746216 0.08412624 -0.12333681 -0.14997518 0.3306988 -0.3154596 -0.32500473 -0.22282854
0.38418716 0.22136045 0.08637236 -0.118046574 0.19337313 0.091804
00000000: bfbc 1c3e 9fc3 e63d 4e72 73bd 865a 063e
00000010: 5793 96bd dc94 41be b278 96bd 4951 ffbd
00000020: 8f59 ccbb 7f0e 193e c008 763c 3560 b5be
00000030: b9d0 743e 4b4a 8d3e 88b2 863e abe5 f7be
00000040: 3e9a c73d 614a ac3d 0298 fcbd 1893 19be
00000050: 5a51 a93e ec83 a1be 0567 a6be 2a2d 64be
00000060: 2eb4 c43e 50ac 623e fee3 b03d 67c2 f1bd
00000070: 9b03 463e bc03 bc3d

4.weight f4 [9, 30]
0.12736778 -0.08318599 -0.024943504 0.023361303 0.10863985 -0.14943986 0.037686322 -0.080751985
-0.10565045 -0.11579115 -0.14828326 -0.17944185 -0.08003746 -0.09053691 -0.20945625 0.08950407
-0.07256111 -0.014345084 -0.0065005305 0.046667278 -0.10806855 0.120637394 -0.1640622 0.18190163
0.050669152 -0.16681103 0.05448923 0.17818998 -0.10653278 -0.1545298 0.29289895 -0.10939169
-0.007513749 -0.026156915 -0.0062849433 -0.009847027 -0.07343544 -0.16756043 -0.1445817 -0.034867737
-0.24260156 -0.02074767 0.3669809 0.02487435 -0.078910425 -0.2340662 -0.13846019 -0.030221777
0.12619016 0.065093614 0.14507134 0.23389874 -0.10078915 0.36935744 0.18407406 -0.15158366
-0.01235959 0.108285315 -0.5647979 -0.016574845 0.023760853 -0.29856098 0.12939931 -0.3055479
0.1677571 -0.031803872 0.4519776 -0.08220213 -0.16074282 0.120365426 0.019831568 0.12387503
-0.1274931 -0.022451062 0.25149095 -0.13873738 -0.062974095 -0.0060525304 -0.13608673 0.02550972
-0.019351672 -0.0019425694 -0.2202343 0.19019002 -0.09692878 0.20701067 0.019471169 -0.039736018
-0.22896123 -0.074530154 -0.08946223 -0.30922866 0.082920186 0.2816569 -0.023959178 -0.071675986
-0.15874235 0.09536465 0.05720425 -0.061242487 -0.35588256 -0.25486392 -0.2965983 -0.27668998
0.05185134 -0.24601482 -0.025730882 0.10167063 0.030259991 0.048905008 0.0019720334 0.34039652
-0.19540414 0.050321992 0.3268589 -0.24470362 0.07864152 0.29934025 -0.3089972 -0.055081204
0.03718421 -0.13668746 0.23693472 -0.009760392 0.017657079 -0.13087903 0.130472 -0.5224845
0.22819057 -0.09051258 -0.32197753 0.041777488 0.06329671 0.006319041 0.04537527 -0.16557142
0.3978911 -0.028661722 -0.6992018 0.00160198 0.2629414 0.5069467 0.12097742 0.16336438
-0.43978918 0.23556888 -0.22960241 -0.061766345 -0.25561205 -0.33507326 0.15475044 -0.15017161
-0.14109713 0.071673214 -0.0205263 0.18926948 -0.1290468 -0.2842033 0.11831574 -0.124576055
-0.25724146 -0.0713956 0.04146848 -0.24285555 -0.028976178 -0.041333932 0.0833609 0.12561126
-0.22044703 0.22559501 -0.11461404 0.16201614 0.19535975 -0.19376534 -0.22172762 -0.3725189
-0.0103972815 0.14806023 0.1546565 -0.4634669 -0.12009655 0.15153342 -0.10702926 -0.068707086
-0.20759623 -0.036105596 -0.0859223 -0.031582903 0.12934372 -0.08160539 0.16910699 -0.19688226
0.09574766 0.06891819 -0.072526395 0.13032113 -0.042719875 -0.040563814 -0.020103866 -0.18256722
-0.21398589 0.017482191 -0.16931586 -0.019513922 0.09634157 -0.35271248 -0.16899738 0.47584313
0.20988363 -0.3503735 0.23492715 0.071118094 0.21883725 0.42386505 -0.06421649 0.015021077
-0.008354822 -0.12492922 0.19919236 -0.18681759 -0.17404006 -0.0050883894 -0.0662881 -0.148301
0.14087054 -0.10325601 -0.028800068 -0.06512191 -0.3919359 0.018695705 0.10592901 0.016985692
0.02072151 0.077932745 -0.23327671 0.1164695 -0.04287302 0.094797514 -0.10614828 -0.18082236
-0.1714352 0.15608028 -0.016513683 -0.09709249 -0.12905861 0.28031665 -0.21106046 -0.08150141
0.055653132 -0.25972235 -0.35883886 -0.14705059 0.014838727 -0.109708376 -0.11975288 0.09206269
00000000: b36c 023e 6b5d aabd 5256 ccbc 3460 bf3c
00000010: 927e de3d c306 19be f95c 1a3d 4c61 a5bd
00000020: 435f d8bd e923 edbd 91d7 17be 9bbf 37be
00000030: aeea a3bd 6a6b b9bd b37b 56be e94d b73d
00000040: eb9a 94bd a507 6bbc 6702 d5bb 3026 3f3d
00000050: 0b53 ddbd bd10 f73d ecff 27be 6c44 3a3e
00000060: 758a 4f3d 83d0 2abe 1930 5f3d 6f77 363e
00000070: dc2d dabd 0f3d 1ebe daf6 953e c008 e0bd
00000080: e535 f6bb 0747 d6bc edf1 cdbb 6d55 21bc
00000090: 5265 96bd f694 2bbe 3a0d 14be 79d1 0ebd
000000a0: 8b6c 78be 05f7 a9bc ece4 bb3e 4bc5 cb3c
000000b0: ca9b a1bd 0daf 6fbe 82c8 0dbe a993 f7bc
000000c0: fe37 013e cd4f 853d 958d 143e 2783 6f3e
000000d0: 8b6a cebd 6b1c bd3e e97d 3c3e bf38 1bbe
000000e0: e17f 4abc b1c4 dd3d 9896 10bf f8c7 87bc
000000f0: 1fa6 c23c fcdc 98be 4181 043e c670 9cbe
00000100: 84c8 2b3e c744 02bd 9c69 e73e 9759 a8bd
00000110: c499 24be 2682 f63d d075 a23c 31b2 fd3d
00000120: 8d8d 02be 4aeb b7bc 6cc3 803e 2c11 0ebe
00000130: 90f8 80bd 4e54 c6bb 525a 0bbe c3f9 d03c
00000140: 6687 9ebc d09d feba 1a85 61be 2cc1 423e
00000150: 9982 c6bd 9bfa 533e 0082 9f3c 3cc2 22bd
00000160: d074 6abe 44a3 98bd f937 b7bd 3853 9ebe
00000170: 0fd2 a93d 5535 903e 0a46 c4bc dcca 92bd
00000180: 5b8d 22be 8b4e c33d 014f 6a3d 67d9 7abd
00000190: 3d36 b6be 867d 82be bbdb 97be 4faa 8dbe
000001a0: 1262 543d 4feb 7bbe 92c9 d2bc b138 d03d
000001b0: cde3 f73c 9e50 483d 3b3d 013b 7448 ae3e
000001c0: 0618 48be 6f1e 4e3d 0d5a a73e 9693 7abe
000001d0: ce0e a13d 2043 993e e234 9ebe d49c 61bd
000001e0: 784e 183d ccf7 0bbe 049f 723e 0dea 1fbc
000001f0: 94a5 903c 2705 06be 749a 053e 8bc1 05bf
00000200: caaa 693e a95e b9bd 3dda a4be df1e 2b3d
00000210: b5a1 813d f50f cf3b 6bdb 393d 8e8b 29be
00000220: 62b8 cb3e fdcb eabc e4fe 32bf 87f9 d13a
00000230: 41a0 863e 42c7 013f 02c3 f73d fe48 273e
00000240: 0c2c e1be f838 713e e51c 6bbe b5fe 7cbd
00000250: 95df 82be b98e abbe e676 1e3e 96c6 19be
00000260: c47b 10be 68c9 923d c526 a8bc dccf 413e
00000270: d824 04be 1883 91be 864f f23d bb21 ffbd
00000280: 27b5 83be db37 92bd dada 293d 20af 78be
00000290: 735f edbc c54d 29bd 1fb9 aa3d 3da0 003e
000002a0: debc 61be 6102 673e c4ba eabd 8fe7 253e
000002b0: 630c 483e 6c6a 46be 910c 63be ccba bebe
000002c0: 5c59 2abc 1a9d 173e 465e 1e3e 894b edbe
000002d0: 2ef5 f5bd 942b 1b3e 2832 dbbd 4db6 8cbd
000002e0: 1b94 54be 76e3 13bd 08f8 afbd 135d 01bd
000002f0: ae72 043e ba20 a7bd 622a 2d3e 819b 49be
00000300: 5917 c43d fb24 8d3d b888 94bd e772 053e
00000310: 09fb 2ebd 3e26 26bd ddb0 a4bc e7f2 3abe
00000320: 1e1f 5bbe d036 8f3c 2361 2dbe a9db 9fbc
00000330: bb4e c53d bb96 b4be a60d 2dbe b6a1 f33e
00000340: bceb 563e 2864 b3be be90 703e 5da6 913d
00000350: df16 603e d704 d93e ef83 83bd f71a 763c
00000360: aae2 08bc e4da ffbd 15f9 4b3e 1c4d 3fbe
00000370: 8f37 32be 81bc a6bb 0ec2 87bd 38dc 17be
00000380: 5e40 103e e377 d3bd 1fee ebbc a35e 85bd
00000390: d3ab c8be bc27 993c 4ff1 d83d 9425 8b3c
000003a0: 28c0 a93c 349b 9f3d 17e0 6ebe 9087 ee3d
000003b0: 9f9b 2fbd 3325 c23d 4564 d9bd 7f29 39be
000003c0: b68c 2fbe 82d3 1f3e b447 87bc 6dd8 c6bd
000003d0: f127 04be aa85 8f3e 3c20 58be 36ea a6bd
000003e0: 8af4 633d 54fa 84be bab9 b7be 6e94 16be
000003f0: 221e 733c c9ae e0bd ff40 f5bd 5d8b bc3d

4.bias f4 [9]
0.39790866 0.3323508 0.19858134 0.076118186 0.11636373 0.19221734 0.04833514 -0.24035823
-0.8305307
00000000: afba cb3e e229 aa3e e858 4b3e dae3 9b3d
00000010: 1b50 ee3d 9fd4 443e 11fb 453d 7820 76be
00000020: a99d 54bf

0.weight f4 [30, 2]
0.06405731 -0.8245832 0.017107928 -0.12692428 0.10546971 -0.45403498 0.6570587 0.34992602
-0.21988174 -0.32478318 0.004391814 0.47448835 0.49162754 0.5250398 -0.12974945 0.6122019
-0.21274151 -0.36043558 0.18859315 -0.6656981 0.04210399 -0.5141124 -0.0052826586 -0.20572604
0.024308447 -0.4504462 -0.8022662 -0.28589973 0.44371256 -0.6928638 0.12529208 -0.70466787
0.03096025 0.66915816 1.0631957 -0.10603316 0.28842092 0.47658807 -0.035334177 0.8837929
-0.20769945 -0.2890358 0.11840541 -0.17151465 -0.11784231 0.008238515 -0.666335 -0.20289241
0.1114775 -0.9308217 -0.028356465 0.1020725 -0.42775866 0.0153072355 0.08299882 0.6657911
-0.15959646 -0.40787318 0.39332572 0.23259644
00000000: 7b30 833d e217 53bf ed25 8c3c 70f8 01be
00000010: 8100 d83d 4677 e8be 0035 283f 8129 b33e
00000020: ae28 61be fb49 a6be 35e9 8f3b 23f0 f23e
00000030: 9bb6 fb3e 0269 063f 0add 04be 44b9 1c3f
00000040: e9d8 59be 038b b8be 901e 413e 316b 2abf
00000050: 3c75 2c3d df9c 03bf 271a adbb d9a9 52be
00000060: 8222 c73c e2a0 e6be 5161 4dbf 7361 92be
00000070: 4b2e e33e 865f 31bf 914c 003e 1d65 34bf
00000080: 5aa0 fd3c f34d 2b3f cc16 883f ea27 d9bd
00000090: e8ab 933e 5a03 f43e 92ba 10bd 4040 623f
000000a0: 2aaf 54be 80fc 93be 897e f23d 89a1 2fbe
000000b0: 4f57 f1bd d6fa 063c ee94 2abf 07c3 4fbe
000000c0: 514e e43d 554a 6ebf d14b e8bc 630b d13d
000000d0: 2f03 dbbe 33cb 7a3c 49fb a93d 4971 2a3f
000000e0: 416d 23be c1d4 d0be fd61 c93e c32d 6e3e

0.bias f4 [30]
-0.07249822 -0.49859983 0.037496153 -0.8015837 -0.3026288 0.2797344 -0.471867 -0.7067693
-0.51335585 0.5986019 0.65263313 -0.27836987 0.7610362 -1.2796013 -1.3243413 0.3806364
0.23094797 1.2518718 0.2575631 0.9224634 0.33866128 0.23551548 -0.69252145 0.73649627
-0.6820673 0.79715294 0.10075846 -0.37339318 -0.0012961269 0.07830003
00000000: f279 94bd 7a48 ffbe 9195 193d 9734 4dbf
00000010: 29f2 9abe 5939 8f3e 8d98 f1be d5ee 34bf
00000020: 4a6b 03bf f93d 193f f712 273f 7f86 8ebe
00000030: 45d3 423f fac9 a3bf 0484 a9bf c6e2 c23e
00000040: a07d 6c3e 563d a03f 50df 833e 9026 6c3f
00000050: 0365 ad3e f82a 713e 1649 31bf 058b 3c3f
00000060: f69b 2ebf 3712 4c3f 745a ce3d 642d bfbe
00000070: cde2 a9ba c45b a03d

2.weight f4 [30, 30]
-0.43727052 -0.20174797 -0.2509609 0.2019298 0.09329066 0.32361954 -0.10175371 0.25606984
-0.20027995 -0.4920954 -0.4703544 -0.14480242 -0.4038852 0.20925787 -0.18062347 -0.34907874
0.15954827 -0.27606422 -0.0011053807 0.07707013 0.0075326855 -0.0253366 0.10707133 -0.009115124
-0.26209307 0.037612144 0.27750608 0.056767095 -0.10028675 -0.11346393 0.14363524 0.29762322
0.15344028 0.04649688 -0.00017865811 -0.024047924 -0.20561552 0.008157784 0.2164499 -0.10435524
-0.10511439 0.15107198 0.037737817 0.14420392 0.37633657 -0.17743924 -0.07867754 0.05315833
0.025719743 -0.30498043 0.109731585 -0.13759223 -0.07291148 0.017384037 0.021082759 -0.20091236
-0.13136268 0.21309766 0.068352856 -0.24816589 -0.11201522 0.3565428 -0.17219673 0.30796444
0.043941315 0.07947623 0.022740355 0.041958734 0.27023795 0.15663816 -0.09846369 0.10340995
0.07788444 0.059973255 -0.12968647 -0.082030594 -0.04439128 0.1420105 0.026764203 0.1981302
0.14879595 0.0698405 0.11844169 -0.13940829 0.0530324 -0.24860606 0.09648469 0.14218344
0.010655678 0.123026796 -0.13442712 -0.21181425 0.053131208 -0.15977669 -0.24052757 0.064694814
-0.037521187 0.08263085 -0.18753977 -0.053819984 0.15237042 -0.05784711 -0.084320135 -0.16372396
-0.29658914 -0.14802313 -0.038461383 -0.15205468 0.10840173 0.29013377 0.17453216 0.1166375
0.13106623 0.013027946 -0.28189102 0.05989984 -0.15515688 -0.052524313 0.04798611 0.12995729
0.1710564 -0.078192145 0.27372676 0.4891512 0.03625908 -0.13450876 0.32464957 -0.0011730016
-0.029501637 0.17209038 0.015678365 0.21376355 0.11844484 -0.15476772 0.13805066 0.17657292
-0.12311593 0.23069045 0.106309496 0.0030888412 -0.3493519 -0.118714444 0.3341334 -0.5047842
-0.005170852 -0.32419047 -0.3366633 -0.01658571 0.029157039 0.12988847 -0.09508628 -0.12997594
0.0588251 -0.3317089 0.3839249 0.09765057 -0.21346115 0.25464308 0.33952084 -0.3266074
-0.29303667 0.098471686 -0.20135878 0.35813117 0.10910842 0.011575586 0.077835865 -0.39741117
-0.47543728 -0.13584475 0.14276014 0.12422926 -0.03588196 0.52674735 -0.037756328 0.20227881
0.09408651 0.11837472 -0.03566432 -0.38519752 -0.16863069 -0.21447565 -0.061435476 -0.024992144
-0.15379989 0.17968225 0.07104884 -0.009258297 -0.2727227 -0.08621953 -0.14384742 -0.23988299
-0.11678835 -0.124331035 -0.22090402 -0.10111753 0.28016657 -0.009429882 0.23343335 0.25917992
-0.1400278 0.08251288 0.11344044 -0.042405665 -0.3476207 0.09066446 0.016453508 0.23285137
-0.27205414 -0.056249868 0.072711945 -0.5162497 0.13098374 0.025352255 -0.3462194 0.26862875
0.44911632 -0.27453697 -0.13547719 0.17266116 0.25101152 -0.06503095 0.25050396 -0.3977572
-0.4237324 0.29832375 0.11065382 0.38392413 0.13734901 0.35778663 -0.17630059 -0.2662905
-0.11258386 -0.06655126 -0.20072895 0.38663298 -0.16165154 0.17209433 -0.25899774 0.25145242
-0.09038397 -0.027256398 -0.26797327 -0.03730306 0.037230335 0.042345867 -0.15845416 -0.022588938
-0.2630669 -0.06372846 -0.12077581 0.12216745 -0.07673022 0.008144556 -0.23431814 -0.19537933
00000000: ece1 dfbe 0597 4ebe f27d 80be afc6 4e3e
00000010: 2c0f bf3d 76b1 a53e 4064 d0bd 961b 833e
00000020: 3016 4dbe eef3 fbbe 4bd2 f0be 1647 14be
00000030: 0aca cebe b247 563e 5cf5 38be 73ba b2be
00000040: 9f60 233e 4a58 8dbe 6ce2 90ba f2d6 9d3d
00000050: bfd4 f63b b48e cfbc 3748 db3d 9a57 15bc
00000060: 1031 86be 310f 1a3d 4715 8e3e 9d84 683d
00000070: 2463 cdbd c75f e8bd 1e15 133e 1262 983e
00000080: 731f 1d3e 8373 3e3d 2c56 3bb9 2700 c5bc
00000090: e08c 52be 3aa8 053c 0ba5 5d3e 33b8 d5bd
000000a0: 3746 d7bd 9db2 1a3e f892 1a3d 31aa 133e
000000b0: 30af c03e a2b2 35be b121 a1bd 8dbc 593d
000000c0: 36b2 d23c 6526 9cbe f4ba e03d fae4 0cbe
000000d0: 9d52 95bd f868 8e3c c0b5 ac3c f8bb 4dbe
000000e0: f083 06be 4636 5a3e 95fc 8b3d 331f 7ebe
000000f0: 3c68 e5bd c78c b63e 5754 30be 84ad 9d3e
00000100: cffb 333d 6fc4 a23d fb49 ba3c ecdc 2b3d
00000110: a15c 8a3e c165 203e 55a7 c9bd 99c8 d33d
00000120: e181 9f3d 84a6 753d 88cc 04be a8ff a7bd
00000130: a1d3 35bd 336b 113e 9a40 db3c a5e2 4a3e
00000140: f75d 183e 8908 8f3d 8f91 f23d 0cc1 0ebe
00000150: 8038 593d 9692 7ebe c499 c53d 8998 113e
00000160: 2795 2e3c 79f5 fb3d 43a7 09be d6e5 58be
00000170: 1ca0 593d 809c 23be dc4c 76be b77e 843d
00000180: d1af 19bd 5d3a a93d 6d0a 40be 5872 5cbd
00000190: fe06 1c3e 17f1 6cbd 09b0 acbd 41a7 27be
000001a0: 88da 97be 6093 17be af89 1dbd 39b4 1bbe
000001b0: ba01 de3d 6a8c 943e 8fb8 323e a4df ee3d
000001c0: 3a36 063e 2b73 553c 0554 90be 8959 753d
000001d0: 72e1 1ebe bc23 57bd 158d 443d 8613 053e
000001e0: 6929 2f3e 3423 a0bd ea25 8c3e 0772 fa3e
000001f0: 6784 143d aabc 09be 7838 a63e 67bf 99ba
00000200: 6bad f1bc 7638 303e ea6f 803c d5e4 5a3e
00000210: 3593 f23d 6e7b 1ebe 275d 0d3e 88cf 343e
00000220: 3424 fcbd 1e3a 6c3e cbb8 d93d 286e 4a3b
00000230: 41de b2be 8f20 f3bd 8813 ab3e 8a39 01bf
00000240: 4070 a9bb 4bfc a5be 225f acbe c1de 87bc
00000250: beda ee3c 7c01 053e 98bc c2bd 6a18 05be
00000260: 97f2 703d c0d5 a9be ce91 c43e 06fd c73d
00000270: 8f95 5abe 9460 823e add5 ad3e 1639 a7be
00000280: e708 96be 86ab c93d ff30 4ebe f85c b73e
00000290: 3c74 df3d 87a7 3d3c 6968 9f3d 7a79 cbbe
000002a0: 846c f3be e31a 0bbe b72f 123e e96b fe3d
000002b0: f6f8 12bd ead8 063f 61a6 1abd 2d22 4f3e
000002c0: 6eb0 c03d 726e f23d c014 12bd 9c38 c5be
000002d0: 86ad 2cbe 819f 5bbe c4a3 7bbd 53bc ccbc
000002e0: b87d 1dbe a0fe 373e 0e82 913d 1db0 17bc
000002f0: 4fa2 8bbe dd93 b0bd bd4c 13be e3a3 75be
00000300: bb2e efbd 45a1 febd aa34 62be b516 cfbd
00000310: fe71 8f3e cb7f 1abc 2709 6f3e 3bb3 843e
00000320: 7363 0fbe 83fc a83d 7653 e83d 90b1 2dbd
00000330: 57fb b1be 4aae b93d 82c9 863c 9770 6e3e
00000340: ae4a 8bbe 4366 66bd 00ea 943d f128 04bf
00000350: 9a20 063e 88af cf3c ab43 b1be b589 893e
00000360: 93f2 e53e 1c90 8cbe 88ba 0abe 16ce 303e
00000370: 9584 803e f22e 85bd 0e42 803e d5a6 cbbe
00000380: 74f3 d8be e4bd 983e 789e e23d b491 c43e
00000390: 38a5 0c3e cf2f b73e 2488 34be 3a57 88be
000003a0: 5e92 e6bd 074c 88bd e48b 4dbe c2f4 c53e
000003b0: fb87 25be 7f39 303e 5a9b 84be 5fbe 803e
000003c0: 3b1b b9bd cf48 dfbc cb33 89be 18cb 18bd
000003d0: d67e 183d dc72 2d3d cf41 22be 700c b9bc
000003e0: b4b0 86be 1184 82bd 4f59 f7bd ee32 fa3d
000003f0: bc24 9dbd be70 053c 18f1 6fbe 8511 48be

2.bias f4 [30]
0.19787318 0.09485013 -0.08891761 -0.110205896 -0.43593743 0.30101174 0.18354265 0.2280434
-0.082713045 -0.15993538 -0.010432855 0.2476372 -0.18066064 -0.0065376894 -0.103321664 -0.09950264
0.0229272 -0.03331805 -0.18363939 0.19199917 -0.21175297 -0.21643412 0.25761232 -0.173222
0.39943174 0.06062244 -0.13508727 -0.19660926 -0.13644674 -0.034866594
00000000: 449f 4a3e c940 c23d 701a b6bd a1b3 e1bd
00000010: 3133 dfbe 361e 9a3e 9bf2 3b3e 3684 693e
00000020: 7565 a9bd 1ac6 23be 91ee 2abc 9b94 7d3e
00000030: 1aff 38be 1d3a d6bb 4f9a d3bd 0ac8 cbbd
00000040: d3d1 bb3c 8278 08bd f70b 3cbe 6e9b 443e
00000050: c5d5 58be e8a0 5dbe c3e5 833e 1c61 31be
00000060: 5182 cc3e 3c4f 783d 5154 0abe f053 49be
00000070: b2b8 0bbe 46d0 0ebd

4.weight f4 [9, 30]
-0.199544 0.108440265 0.07113215 0.015325917 0.031902887 0.09776631 0.012087388 0.055544056
-0.03127513 0.045697715 -0.08754118 0.17729503 -0.048473433 -0.21629049 0.18302445 -0.040050168
-0.14565131 0.0678123 -0.07881185 0.044375636 -0.08204759 0.0030444912 0.06807112 0.020222876
-0.024976816 0.04925817 0.07615841 -0.02806645 -0.10152102 -0.12782626 -0.26173627 -0.04503243
0.036725715 -0.08543947 0.3745102 -0.26325595 0.006348352 0.27842575 0.07750859 -0.17694137
0.14146028 -0.054330114 -0.005392346 -0.32204896 -0.0017442489 0.15977554 0.006500318 0.31315827
0.20655088 -0.37094694 0.40393144 0.20089334 0.198804 0.114753425 -0.22735198 0.06246601
0.041256305 -0.37330493 0.023729734 -0.08496317 -0.16256084 -0.17128053 -0.113320746 -0.09697028
0.068994895 0.0075861746 0.21673074 -0.020677114 0.0073242174 0.057149686 -0.071994245 -0.38734475
0.02223752 -0.27917188 -0.05725467 0.0029980831 -0.19033729 0.33018535 0.009806637 -0.067623734
-0.19701079 0.24653962 0.0018917844 -0.08937652 -0.037889164 0.11217477 0.05023065 -0.006669122
-0.112235315 0.06862077 -0.326915 -0.14837399 -0.17433232 0.16802563 -0.023997119 -0.37694114
0.18991531 -0.18884689 -0.12727249 -0.3870919 -0.020747084 -0.27362496 -0.015476849 0.106611215
-0.20556322 0.21292277 0.4602442 -0.020224983 0.07009377 0.034192197 0.028516555 -0.14049229
-0.3134489 -0.13080436 0.2833277 -0.34841177 -0.12495635 0.012919751 0.17210051 0.13049506
-0.28201637 -0.13005541 0.04297596 -0.14772074 0.023253994 0.09978397 -0.142595 -0.2994353
-0.3037254 -0.1245324 0.23257113 -0.029682593 0.08594342 0.19622916 0.047596958 0.024476202
-0.07954966 0.45730668 0.29101306 -0.061199702 -0.1708145 -0.075627245 -0.07461576 0.11686141
0.34302446 -0.14636455 -0.0089789815 -0.009192724 0.018085057 0.3414877 -0.06616157 -0.03833805
-0.18005076 -0.16158672 0.26841667 -0.14634363 -0.13600093 0.322491 -0.04071906 0.18418536
-0.13823634 -0.031958736 -0.20193303 0.2239679 -0.22571707 0.011190608 -0.05235264 -0.049176548
0.36778766 0.12361275 0.07099386 -0.17729624 0.48828924 0.080141895 -0.2728625 -0.2482419
0.056605715 0.14816731 0.26504007 0.18121235 -0.26209766 0.06914136 -0.086595 -0.03806031
0.16290276 -0.010887563 -0.1718611 -0.37095717 0.24592188 -0.0421015 -0.040548943 -0.43056569
0.12956744 -0.2337148 0.12114116 -0.049023587 -0.13047105 0.17742267 0.30105546 0.45193237
0.09177202 0.31623778 0.043684453 -0.05366108 -0.14628275 0.05080271 0.42788705 -0.033805624
-0.085008934 0.26026094 0.08146666 0.2892211 -0.2938915 -0.2877249 0.06319092 -0.11711146
-0.26572904 0.36469716 -0.16309677 -0.32366672 -0.02671101 0.21500152 0.09511986 -0.09139847
-0.2212866 0.18783352 0.3272147 -0.3672383 -0.34164461 -0.5837694 0.52477163 -0.18756315
0.2713933 0.32537577 0.1572627 0.27816603 -0.21578842 0.25662735 0.2829481 0.053043786
-0.025491232 -0.41748646 0.3486468 0.28129196 -0.18270235 0.02542794 -0.04394691 -0.081022546
0.20309396 -0.31487232 0.34291255 0.0129541075 0.15738031 0.16817318 0.2651898 0.0344503
00000000: 4355 4cbe ee15 de3d bcad 913d 8e19 7b3c
00000010: 9aac 023d b439 c83d 2e0a 463c 2a82 633d
00000020: 5a1a 00bd 872d 3b3d ca48 b3bd d48c 353e
00000030: 148c 46bd 417b 5dbe c36a 3b3e a50b 24bd
00000040: 9e25 15be 2de1 8a3d 1b68 a1bd 3ac3 353d
00000050: 9108 a8bd 1686 473b df68 8b3d 72aa a53c
00000060: 2e9c ccbc efc2 493d f1f8 9b3d 9deb e5bc
00000070: 41ea cfbd e3e4 02be 4c02 86be ed73 38bd
00000080: b46d 163d e4fa aebd cdbf bf3e 7cc9 86be
00000090: d605 d03b d28d 8e3e d3bc 9e3d 1e30 35be
000000a0: f7da 103e 4189 5ebd 47b2 b0bb 9ae3 a4be
000000b0: 489f e4ba 339c 233e 9f00 d53b 4856 a03e
000000c0: 1382 533e c2ec bdbe 1ad0 ce3e fcb6 4d3e
000000d0: 4793 4b3e d803 eb3d f5ce 68be 5cdc 7f3d
000000e0: 5ffc 283d d321 bfbe dc64 c23c 2c01 aebd
000000f0: 5976 26be 2a64 2fbe b514 e8bd 5b98 c6bd
00000100: 324d 8d3d 7295 f83b aaee 5d3e 0d63 a9bc
00000110: fdff ef3b ca15 6a3d b871 93bd 0d52 c6be
00000120: 762b b63c 9eef 8ebe df83 6abd 7d7b 443b
00000130: c7e7 42be 0e0e a93e 04ac 203c 507e 8abd
00000140: 32bd 49be e274 7c3e c0f5 f73a 090b b7bd
00000150: ab31 1bbd e3bb e53d a7be 4d3d a688 dabb
00000160: a1db e5bd 0c89 8c3d 6761 a7be 5aef 17be
00000170: 2c84 32be e90e 2c3e 9b95 c4bc 6efe c0be
00000180: 2979 423e 1461 41be b853 02be e930 c6be
00000190: caf5 a9bc 9218 8cbe 9c92 7dbc fb56 da3d
000001a0: 2a7f 52be 6d08 5a3e 21a5 eb3e ddae a5bc
000001b0: 538d 8f3d 1e0d 0c3d 8d9b e93c 36dd 0fbe
000001c0: 607c a0be 94f1 05be 5410 913e 0763 b2be
000001d0: 1de9 ffbd 5dad 533c 1e3b 303e 7fa0 053e
000001e0: 7364 90be 3f2d 05be 8f07 303d 1b44 17be
000001f0: 297f be3c 8a5b cc3d 6c04 12be 954f 99be
00000200: e581 9bbe d80a ffbd 2027 6e3e e928 f3bc
00000210: 1b03 b03d 4cf0 483e 07f5 423d 5182 c83c
00000220: efea a2bd 1a24 ea3e aaff 943e 8aac 7abd
00000230: ffe9 2ebe 75e2 9abd 26d0 98bd 0955 ef3d
00000240: e7a0 af3e 97e0 15be 941c 13bc 149d 16bc
00000250: 1d27 943c 7ad7 ae3e b87f 87bd 5c08 1dbd
00000260: 3a5f 38be fd76 25be e96d 893e 1bdb 15be
00000270: d443 0bbe 8a1d a53e 07c9 26bd 169b 3c3e
00000280: d48d 0dbe 2ae7 02bd 88c7 4ebe d757 653e
00000290: 6022 67be d058 373c b96f 56bd 596d 49bd
000002a0: aa4e bc3e ae28 fd3d 3b65 913d 258d 35be
000002b0: 0c01 fa3e 6f21 a43d a2b4 8bbe 2033 7ebe
000002c0: 65db 673d 2cb9 173e 55b3 873e bb8f 393e
000002d0: aa31 86be fc99 8d3d b858 b1bd 21e5 1bbd
000002e0: fbcf 263e c061 32bc 5bfc 2fbe 19ee bdbe
000002f0: f2d2 7b3e 9f72 2cbd a616 26bd 1b73 dcbe
00000300: 54ad 043e ef52 6fbe db18 f83d f5cc 48bd
00000310: 349a 05be 4aae 353e f123 9a3e ae63 e73e
00000320: f8f2 bb3d ebe9 a13e 78ee 323d b8cb 5bbd
00000330: 25cb 15be 8116 503d 0314 db3e c477 0abd
00000340: 2a19 aebd ec40 853e fed7 a63d ca14 943e
00000350: f278 96be ae50 93be 3e6a 813d 22d8 efbd
00000360: a30d 88be 96b9 ba3e d702 27be a5b7 a5be
00000370: 0cd1 dabc 5c29 5c3e 33ce c23d 1f2f bbbd
00000380: f498 62be 6e57 403e af88 a73e a906 bcbe
00000390: 0bec aebe e971 15bf 6f57 063f 8e10 40be
000003a0: 10f4 8a3e a797 a63e 7909 213e c76b 8e3e
000003b0: a4f7 5cbe a964 833e 93de 903e 7144 593d
000003c0: fdd2 d0bc c9c0 d5be d581 b23e 8005 903e
000003d0: 5316 3bbe 414e d03c ad01 34bd 26ef a5bd
000003e0: ddf7 4f3e f236 a1be 3c92 af3e 773d 543c
000003f0: 4e28 213e 9735 2c3e f5c6 873e c21b 0d3d

4.bias f4 [9]
-0.04744057 -0.42133728 -0.027518243 0.10972011 0.06963852 -0.03225193 -0.11080094 0.03854691
-0.2030851
00000000: 0b51 42bd 85b9 d7be f06d e1bc f0b4 e03d
00000010: a49e 8e3d 9a1a 04bd 9aeb e2bd 5de3 1d3d
00000020: 8af5 4fbe

0.weight f4 [30, 2]
1.2915657 -0.06060715 -1.0342692 -0.5653502 0.079140134 0.863806 -0.05317199 0.9226532
-0.13283753 -0.18589088 -0.18277223 -0.17251314 0.8891938 0.41091752 0.99845034 -0.4299423
-0.49451107 -0.12119623 0.8819064 0.3014264 0.5724443 -1.2927109 -0.15155825 -0.5600199
-0.7818783 0.2318892 -0.3937516 1.0222821 -0.2649557 0.23920824 1.0938768 -1.3578393
-0.094451316 -0.13262494 0.40597525 0.9037055 -0.4048009 -0.5129301 0.8920304 0.42818946
-0.038677096 0.66881776 -0.5827708 -0.09241577 0.50240946 0.06899435 -0.44685233 0.36751324
-1.1210368 -0.42130953 0.2607567 -0.5405776 -0.33343402 0.7666929 0.24428266 -1.2965118
-0.6009433 -0.9898833 0.3119921 -0.67436063
00000000: 0652 a53f 343f 78bd ef62 84bf caba 10bf
00000010: 3914 a23d 6422 5d3f dfca 59bd 0033 6c3f
00000020: 9006 08be 2e5a 3ebe a528 3bbe 49a7 30be
00000030: 34a2 633f c863 d23e 719a 7f3f 6621 dcbe
00000040: 8e30 fdbe bb35 f8bd 9ec4 613f 9054 9a3e
00000050: b68b 123f 8d77 a5bf 1632 1bbe 775d 0fbf
00000060: 2d29 48bf 5d74 6d3e cf99 c9be 24da 823f
00000070: 46a8 87be 01f3 743e 2804 8c3f aecd adbf
00000080: b16f c1bd d5ce 07be fddb cf3e 3e59 673f
00000090: 1042 cfbe 634f 03bf 1b5c 643f a63b db3e
000000a0: e06b 1ebd a437 2b3f 7830 15bf 7b44 bdbd
000000b0: e89d 003f e94c 8d3d d4c9 e4be b22a bc3e
000000c0: 227e 8fbf e2b5 d7be e781 853e 4b63 0abf
000000d0: ddb7 aabe fc45 443f 3c25 7a3e 19f4 a5bf
000000e0: 6cd7 19bf fe68 7dbf 6ebd 9f3e e6a2 2cbf

0.bias f4 [30]
-0.62262315 0.18650025 -0.77386755 -0.014808573 -0.77276796 -0.59043455 -0.17178993 -1.2221382
-0.73522264 0.8893318 0.3288164 -0.337154 -0.18222946 1.069594 -1.2025838 -0.20854722
-0.6913028 -0.48114878 0.058036663 -0.9584858 0.47921556 -1.1812446 0.9845438 -1.0085081
-0.33234146 0.8894746 -1.0432371 1.1703651 -0.6095899 0.038470022
00000000: 3b64 1fbf ecf9 3e3e 2f1c 46bf a89f 72bc
00000010: 1fd4 45bf b826 17bf b3e9 2fbe 066f 9cbf
00000020: 8d37 3cbf 40ab 633f a05a a83e 739f acbe
00000030: 5c9a 3abe 75e8 883f 44ee 99bf 678d 55be
00000040: 38f9 30bf 2259 f6be dab7 6d3d 535f 75bf
00000050: be5b f53e 0633 97bf 100b 7c3f cb16 81bf
00000060: a928 aabe 9bb4 633f cb88 85bf 86ce 953f
00000070: 150e 1cbf be92 1d3d

2.weight f4 [30, 30]
-0.10090037 -0.037567526 0.026926361 0.22755231 -0.04685316 -0.11044281 0.3011846 0.07212264
-0.12730238 0.1269762 -0.17419367 -0.124785244 0.09975236 0.006678773 -0.42011067 -0.04415821
-0.005280262 -0.069058634 -0.0604895 -0.02860145 0.022410603 -0.4235891 0.34202117 -0.29734224
-0.038662724 0.26248717 -0.016575295 0.072798654 0.13936749 0.13489689 0.28943843 0.42162785
-0.063262366 0.090888165 0.06695569 -0.17850932 -0.10745765 -0.41736594 0.3026539 -0.5855634
0.1624317 -0.24782991 0.029141298 0.39763978 0.1400131 -0.04231742 -0.0008692445 -0.20802121
0.36380774 0.20946263 0.33734712 0.34102017 -0.27177614 0.1516368 0.29812118 0.048265968
0.010466479 0.31783283 -0.2883439 0.16995761 -0.17519334 -0.06804602 0.48685083 0.2961361
-0.09771922 -0.29319596 0.18170196 -0.38799465 0.006677154 0.29591498 -0.1246135 -0.36451614
0.15917361 0.5138716 -0.130307 -0.041284587 -0.42050776 0.21211633 -0.31707108 -0.14963323
0.17150001 -0.2807383 0.10528741 -0.025221162 -0.41787064 -0.16063382 -0.02513401 -0.20199287
-0.76011115 -0.12667944 -0.5117802 -0.22914384 0.409537 0.23483126 0.28555068 -0.07915407
-0.18118206 -0.1585769 0.18533678 0.0098490715 -0.71568364 -0.15231825 0.27497947 0.123388335
0.25365046 -0.62447274 0.026224189 0.32477877 0.10957166 0.201919 0.30873582 0.33854333
-0.061985914 0.6000769 0.12802246 -0.5333457 0.6059376 -0.75266105 -0.0008728707 -0.546771
0.12381573 0.35827172 -0.119994484 -0.13336247 -0.3283124 -0.09607075 -0.3073889 -0.16936532
0.15741034 -0.30011418 -0.1599453 0.14043374 0.05194259 -0.0838842 0.011195991 -0.05248034
-0.21777348 -0.09807017 0.26622814 -0.115268014 0.17505264 -0.074025944 -0.023894269 -0.09042529
0.12006933 0.093978204 -0.2192519 0.11019988 0.19407487 -0.18914892 -0.3053408 0.14379138
0.37217873 0.09850764 0.02154613 -0.058877297 -0.14223698 -0.19196673 0.2105069 -0.033957757
-0.10955943 0.085770145 -0.014156605 0.0701412 0.021378113 -0.115580134 -0.023375574 0.18610303
0.028730385 -0.3113196 -0.09178028 0.02946701 -0.15193361 -0.08353522 0.24506295 -0.07944703
-0.075832196 -0.091952816 0.106744796 -0.19045593 -0.15357894 -0.26606834 0.11483135 0.45532042
-0.34988293 -0.314928 -0.026083382 -0.5186651 -0.06193567 0.22607222 -0.24274915 -0.54179984
0.002303532 0.5512077 -0.2147616 -0.5600572 -0.57744044 0.34458858 -0.08336792 -0.2012065
0.43143976 -0.11254924 0.13827074 -0.14005753 -0.19825482 -0.08437161 0.013032501 0.056414843
-0.3292224 -0.18424645 0.47662228 -0.3022702 0.19442378 0.07331715 0.111181214 0.18533121
0.4404719 0.313764 -0.16713707 -0.092980646 0.05350762 0.14030164 -0.24412942 0.011540995
-0.07967291 -0.15707172 0.13950345 0.30999234 -0.7403179 1.0760467 0.054330844 0.14416225
-0.05164257 0.04308457 0.055811923 0.18565072 -0.14438063 -0.22881263 0.057990648 0.10592719
-0.2591021 0.22702815 -0.17123625 0.103322595 -0.46174252 -0.13405457 -0.41163668 -0.6863283
0.34092426 -0.055308778 0.15473895 -0.42813465 0.16548452 0.6422335 -0.21414988 0.20351586
00000000: daa4 cebd 68e0 19bd ac94 dc3c 7903 693e
00000010: 19e9 3fbd d72f e2bd de34 9a3e 09b5 933d
00000020: 8e5b 02be 0d06 023e d35f 32be 688f ffbd
00000030: f74a cc3d 9cd9 da3b bf18 d7be 3ddf 34bd
00000040: 0c06 adbb 9d6e 8dbd d7c3 77bd 974d eabc
00000050: 7196 b73c ace0 d8be 661d af3e 3e3d 98be
00000060: ce5c 1ebd b864 863e eac8 87bc 7617 953d
00000070: 5ab6 0e3e 6922 0a3e 4631 943e 9bdf d73e
00000080: b38f 81bd 9323 ba3d 1120 893d 26cb 36be
00000090: c212 dcbd fdb0 d5be 74f5 9a3e 7ce7 15bf
000000a0: 7f54 263e 20c7 7dbe bbb9 ee3c 7197 cb3e
000000b0: 985f 0f3e 0855 2dbd 03de 63ba 8303 55be
000000c0: 0245 ba3e 5f7d 563e c3b8 ac3e 329a ae3e
000000d0: 3e26 8bbe ad46 1b3e 57a3 983e 89b2 453d
000000e0: 987b 2b3c fcba a23e d0a1 93be 5e09 2e3e
000000f0: e265 33be b65b 8bbd 8344 f93e 279f 973e
00000100: 0421 c8bd c81d 96be 1410 3a3e 3ca7 c6be
00000110: 07cc da3b 2b82 973e 5d35 ffbd dca1 babe
00000120: 68fe 223e 178d 033f 336f 05be 071a 29bd
00000130: cb4c d7be 0635 593e 2457 a2be 7439 19be
00000140: b39d 2f3e eebc 8fbe eda0 d73d 9c9c cebc
00000150: 24f3 d5be 317d 24be d7e5 cdbc 38d7 4ebe
00000160: a596 42bf 41b8 01be 0704 03bf afa4 6abe
00000170: d5ae d13e 9b77 703e b333 923e 871b a2bd
00000180: ca87 39be fc61 22be edc8 3d3e 005e 213c
00000190: 0b37 37bf 51f9 1bbe 1cca 8c3e 06b3 fc3d
000001a0: 79de 813e 72dd 1fbf 1cd4 d63c 6749 a63e
000001b0: 1b67 e03d dbc3 4e3e 9f12 9e3e 8d55 ad3e
000001c0: f1e4 7dbd a49e 193f 5218 033e 5889 08bf
000001d0: ba1e 1b3f 65ae 40bf 5cd1 64ba 2ff9 0bbf
000001e0: 1a93 fd3d 646f b73e abbf f5bd 2c90 08be
000001f0: 9018 a8be bec0 c4bd 1462 9dbe 1a6e 2dbe
00000200: 2d30 213e 91a8 99be b3c8 23be ddcd 0f3e
00000210: c1c1 543d 7bcb abbd 646f 373c a0f5 56bd
00000220: 0300 5fbe 03d9 c8bd 0e4f 883e a311 ecbd
00000230: 0041 333e ea9a 97bd eabd c3bc e530 b9bd
00000240: e9e6 f53d a577 c03d 9283 60be 7ab0 e13d
00000250: 90bb 463e 41b0 41be a155 9cbe 0c3e 133e
00000260: 368e be3e 60be c93d 8281 b03c 5229 71bd
00000270: 92a6 11be ed92 44be 1f8f 573e 4a17 0bbd
00000280: b260 e0bd 42a8 af3d 1bf1 67bc 31a6 8f3d
00000290: 2721 af3c 47b5 ecbd 227e bfbc cb91 3e3e
000002a0: fc5b eb3c 4865 9fbe 4df7 bbbd cd64 f13c
000002b0: 7c94 1bbe 8314 abbd c8f1 7a3e 20b5 a2bd
000002c0: e94d 9bbd c251 bcbd 049d da3d e106 43be
000002d0: cc43 1dbe 1c3a 88be b32c eb3d c21f e93e
000002e0: db23 b3be 3e3e a1be d1ac d5bc 3cc7 04bf
000002f0: 42b0 7dbd 7a7f 673e 3c93 78be 65b3 0abf
00000300: dbf6 163b f31b 0d3f 77ea 5bbe e95f 0fbf
00000310: 23d3 13bf ea6d b03e cdbc aabd 1409 4ebe
00000320: ace5 dc3e 3780 e6bd d896 0d3e 3e6b 0fbe
00000330: 5003 4bbe 06cb acbd 4586 553c 4013 673d
00000340: d78f a8be 1aab 3cbe d607 f43e 29c3 9abe
00000350: 0717 473e 4d27 963d fab2 e33d 77c7 3d3e
00000360: 8885 e13e ada5 a03e fb25 2bbe a36c bebd
00000370: ce2a 5b3d 3cab 0f3e 10fd 79be 7116 3d3c
00000380: 8d2b a3bd 69d7 20be fed9 0e3e 51b7 9e3e
00000390: 7985 3dbf e6bb 893f 058a 5e3d 459f 133e
000003a0: 2987 53bd 7279 303d 0b9b 643d 391b 3e3e
000003b0: 84d8 13be dc4d 6abe 9a87 6d3d 5bf0 d83d
000003c0: 08a9 84be 117a 683e 8e58 2fbe cc9a d33d
000003d0: 8469 ecbe 9a45 09be 0bc2 d2be 36b3 2fbf
000003e0: a08d ae3e 758b 62bd e373 1e3e 7734 dbbe
000003f0: c674 293e 6a69 243f 1b4a 5bbe 7666 503e

2.bias f4 [30]
0.18395129 0.22864732 0.214837 -0.2480903 0.2893528 0.24005377 0.19732304 -0.28532302
0.3380349 0.48768765 -0.4574664 -0.1318249 0.10716295 -0.29056156 0.2386664 -0.25388396
-0.15268174 -0.27017397 0.3420176 0.29627413 0.2147877 0.026165916 -0.26327744 -0.24333362
0.341992 0.040778663 -0.18570843 0.2960703 0.118335344 -0.016318541
00000000: ba5d 3c3e 8622 6a3e 3bfe 5b3e 620b 7ebe
00000010: 0d26 943e a8d0 753e 0d0f 4a3e dc15 92be
00000020: e912 ad3e 32b2 f93e 0939 eabe 1bfd 06be
00000030: 4078 db3d 7cc4 94be f764 743e 14fd 81be
00000040: 9a58 1cbe 3e54 8abe ee1c af3e 3eb1 973e
00000050: 4ff1 5b3e e759 d63c 4dcc 86be 732c 79be
00000060: 9319 af3e 8707 273d 5a2a 3ebe 8796 973e
00000070: cd59 f23d 76ae 85bc

4.weight f4 [9, 30]
-0.015760498 0.43566638 0.066390716 -0.1867638 -0.029089928 -0.29410678 0.24709669 -0.18080351
0.1213505 -0.5089364 -0.16187155 0.23443758 0.14265503 -0.106662534 0.00029138086 -0.17829764
-0.010789644 0.20450291 -0.32286432 -0.000810914 -0.23677224 0.3163676 0.042150702 0.39419082
-0.26712605 -0.23255965 -0.26007056 0.30857107 0.024762647 -0.1056972 -0.011166482 0.49509215
0.39013433 -0.26131964 -0.12277427 -0.024440376 0.42370054 0.21264249 0.18907572 -0.17417575
0.28383663 0.100631654 0.019443024 -0.29477173 -0.07031481 0.19581953 -0.5381429 0.07215567
-0.03636257 -0.049771316 -0.016483594 0.23599946 -0.19083424 0.21235454 0.105509795 -0.31299978
-0.19114761 0.1160881 -0.005566018 -0.10371989 -0.032933954 -0.1373004 0.07059551 -0.35599902
-0.1174088 0.10047083 -0.010733509 -0.15669635 0.173569 0.20696422 -0.28540644 -0.8851893
-0.055703547 0.09105775 0.22896653 -0.267646 -0.2782507 0.18255799 -0.2357817 -0.13160415
-0.32762343 -0.11084013 0.290124 -0.11889934 0.060261205 -0.012321591 -0.26823264 0.009366947
0.19548228 -0.1573637 0.08675659 -0.057158 0.21701638 0.11293037 0.02097805 -0.10744795
0.28470823 -0.0929783 0.08513124 0.08832334 0.14929412 -0.075781055 0.102347024 -0.10886831
0.16857333 0.20514198 -0.1590378 0.2698172 0.0936136 -0.066034056 -0.40626815 0.1469293
0.29359984 -0.110964924 -0.0832581 -0.12855777 -0.13050362 0.025406262 0.2809822 0.10700769
-0.018244023 0.10092658 0.02929349 0.035320982 -0.072564654 -0.14269036 0.058819097 -0.0066671446
0.07506684 0.002471401 -0.1562251 -0.023982214 -0.035780728 0.027035091 0.04553645 -0.008804265
0.009195484 0.02930423 -0.19957775 -0.097594045 0.05030794 -0.06577347 -0.053573556 -0.07428127
-0.014201212 0.08848705 0.15431182 -0.17169549 0.27058712 -0.42404455 0.1653533 -0.50514996
-0.086313926 0.27730575 -0.04456432 0.04359706 0.015732843 0.042698666 0.06779373 0.13147151
-0.096054845 -0.3754792 -0.061619926 0.23243427 0.0054507186 -0.13347791 0.017365763 0.2745274
-0.2567978 0.06192386 -0.3951281 -0.03122966 0.5661834 -0.25474566 0.499337 -0.012094849
-0.28692126 -0.047363732 0.43249932 -0.05778409 -0.07813328 -0.1889353 -0.024010738 -0.187782
-0.052827477 -0.03942817 -0.069395564 -0.29656157 -0.27446085 -0.108059 0.23408666 0.10067625
0.268324 0.050563525 0.08145085 -0.22394069 -0.2880889 0.11738694 0.17302994 -0.021006031
-0.21601714 0.15045291 0.004840359 -0.08196873 -0.04367799 0.18055406 -0.28335235 0.2879021
-0.30121306 0.3886886 0.25346124 0.27616066 0.04601518 0.045071434 0.22699037 -0.40988752
-0.06597756 0.13290578 0.079914175 0.26844364 -0.28329095 -0.06557883 0.14413185 0.053313952
0.35253727 0.0853436 -0.08941876 0.03317874 0.29891223 -0.14540443 0.20286451 0.039139684
-0.18131772 0.72930586 -0.3527483 0.24513285 0.019513013 -0.12960692 -0.018754622 -0.20118049
0.2322408 -0.077379026 -0.40954152 0.082457855 0.11169601 -0.085271955 -0.064021185 0.5718418
-0.5606744 0.19451876 0.07011752 -0.8406673 -0.38258013 -0.1550171 -0.03190922 0.11424374
00000000: 291c 81bc aa0f df3e dbf7 873d 023f 3fbe
00000010: 004e eebc 2a95 96be ea06 7d3e 8e24 39be
00000020: 9c86 f83d a849 02bf a8c1 25be 6810 703e
00000030: 2914 123e e371 dabd 7ac4 9839 a893 36be
00000040: 0cc7 30bc 3669 513e 794e a5be 8493 54ba
00000050: 6c74 72be effa a13e 37a6 2c3d 61d3 c93e
00000060: bfc4 88be 1e24 6ebe f827 85be 07fd 9d3e
00000070: 09db ca3c c677 d8bd 9ff3 36bc b87c fd3e
00000080: b0bf c73e b0cb 85be 1471 fbbd 2f37 c8bc
00000090: 47ef d83e f4be 593e 119d 413e 215b 32be
000000a0: 0953 913e f817 ce3d fa46 9f3c 52ec 96be
000000b0: 3601 90bd ea84 483e bcc3 09bf 5ac6 933d
000000c0: ebf0 14bd 02dd 4bbd 9a08 87bc d8a9 713e
000000d0: 0d6a 43be 7873 593e 8515 d83d 8241 a0be
000000e0: 33bc 43be 99bf ed3d 2563 b6bb 186b d4bd
000000f0: c1e5 06bd 7a98 0cbe 6194 903d 8145 b6be
00000100: 0674 f0bd a7c3 cd3d 9adb 2fbc 0275 20be
00000110: 12bc 313e 6eee 533e cb20 92be c49b 62bf
00000120: 6729 64bd 7c7c ba3d 3476 6a3e e608 89be
00000130: e076 8ebe 7bf0 3a3e c270 71be 3dc3 06be
00000140: 42be a7be 2600 e3bd 228b 943e 7f81 f3bd
00000150: 74d4 763d 80e0 49bc ca55 89be d377 193c
00000160: 822c 483e f323 21be 70ad b13d 821e 6abd
00000170: 8b39 5e3e 0a48 e73d 29da ab3c ac0d dcbd
00000180: 47c5 913e 686b bebd 4a59 ae3d dee2 b43d
00000190: 8fe0 183e 1933 9bbd 519b d13d 59f6 debd
000001a0: 7d9e 2c3e bd10 523e ceda 22be 7b25 8a3e
000001b0: 7db8 bf3d dd3c 87bd 6102 d0be a274 163e
000001c0: b852 963e 9441 e3bd 3983 aabd a6a4 03be
000001d0: bea2 05be cb20 d03c e6dc 8f3e d926 db3d
000001e0: 7d74 95bc 98b2 ce3d e7f8 ef3c bcac 103d
000001f0: c79c 94bd 6c1d 12be 4bec 703d 1078 dabb
00000200: a5bc 993d 3af7 213b 79f9 1fbe 5976 c4bc
00000210: d08e 12bd b278 dd3c 6e84 3a3d c43f 10bc
00000220: a8a8 163c 6d0f f03c 1c5e 4cbe 63df c7bd
00000230: b30f 4e3d 3eb4 86bd f26f 5bbd c720 98bd
00000240: 33ac 68bc b338 b53d eb03 1e3e f1d0 2fbe
00000250: 658a 8a3e 5e1c d9be 6052 293e 8251 01bf
00000260: 5bc5 b0bd 05fb 8d3e 1489 36bd d592 323d
00000270: 2ae2 803c cce4 2e3d 70d7 8a3d 78a0 063e
00000280: 67b8 c4bd cf3e c0be 2d65 7cbd 4003 6e3e
00000290: f19b b23b 6fae 08be a542 8e3c db8e 8c3e
000002a0: 007b 83be e0a3 7d3d 3b4e cabe 58d5 ffbc
000002b0: 65f1 103f 066e 82be 19a9 ff3e 7929 46bc
000002c0: 58e7 92be 7900 42bd 8d70 dd3e 03af 6cbd
000002d0: 5704 a0bd 4178 41be 2bb2 c4bc ed49 40be
000002e0: a061 58bd 6f7f 21bd 431f 8ebd ebd6 97be
000002f0: 2286 8cbe 094e ddbd 6ab4 6f3e 5a2f ce3d
00000300: c361 893e b31b 4f3d b4cf a63d b550 65be
00000310: 6380 93be 9068 f03d c32e 313e d714 acbc
00000320: 9933 5dbe 5410 1a3e e09b 9e3b 39df a7bd
00000330: b1e7 32bd 2ae3 383e 8f13 91be e767 933e
00000340: 9938 9abe 3102 c73e acc5 813e ee64 8d3e
00000350: 6a7a 3c3d d39c 383d 2a70 683e c7dc d1be
00000360: 3e1f 87bd 7418 083e 0baa a33d 7271 893e
00000370: 830b 91be 324e 86bd 4d97 133e bb5f 5a3d
00000380: c47f b43e a0c8 ae3d 2f21 b7bd 6ee6 073d
00000390: 060b 993e e6e4 14be b7bb 4f3e ef50 203d
000003a0: 5aab 39be cab3 3a3f 6d9b b4be 1b04 7b3e
000003b0: c1d9 9f3c adb7 04be 4ba3 99bc 4202 4ebe
000003c0: 88d0 6d3e e578 9ebd 6daf d1be aadf a83d
000003d0: e1c0 e43d 10a3 aebd 8a1d 83bd 3964 123f
000003e0: 5c88 0fbf ed2f 473e c699 8f3d f935 57bf
000003f0: 8be1 c3be cdbc 1ebe 3eb3 02bd 9ff8 e93d

4.bias f4 [9]
0.08499023 -0.3579866 -0.069683336 -0.37891224 0.10862336 0.19369921 0.07323915 0.19142966
-0.25204116
00000000: 5c0f ae3d 054a b7be 23b6 8ebd c900 c2be
00000010: ed75 de3d 1659 463e 68fe 953d 2306 443e
00000020: 8a0b 81be

0.weight f4 [30, 2]
-0.38971543 -0.4757319 0.19557561 -0.086661756 -0.71239346 -0.15774184 -0.55754596 -0.5505954
-0.14787261 -0.3848833 -0.18180253 0.19992703 0.47250897 0.5163984 -0.019847255 0.19191867
-0.25076517 0.6223534 -0.21539228 0.6323118 -0.67659664 -0.74371696 0.045618314 -0.22323199
0.35224032 0.47216156 0.59218085 0.5898866 -0.3260133 -0.42888325 -0.20878558 -0.19604947
-0.36865857 -0.065914385 0.51792485 0.03479018 0.46452445 0.42159653 0.11963373 0.2077115
-0.022786058 -0.2715848 -0.46802077 -0.3330485 0.6783958 0.64231837 -0.35266235 0.8363092
0.31817627 0.09055082 2.0135894 0.4098987 0.21920902 0.1005923 -0.084578976 0.026471836
-0.06991004 1.1107354 0.044780694 0.12028295
00000000: c888 c7be 2293 f3be f944 483e b87b b1bd
00000010: 6b5f 36bf 1487 21be 55bb 0ebf d2f3 0cbf
00000020: eb6b 17be 6d0f c5be 712a 3abe acb9 4c3e
00000030: b2ec f13e af32 043f b696 a2bc 5486 443e
00000040: 4b64 80be 8d52 1f3f cb8f 5cbe 30df 213f
00000050: 7035 2dbf 3c64 3ebf 45da 3a3d ed96 64be
00000060: d858 b43e 29bf f13e 2a99 173f cf02 173f
00000070: 37eb a6be 9696 dbbe e3cb 55be 31c1 48be
00000080: d1c0 bcbe 1ffe 86bd b996 043f 2680 0e3d
00000090: 26d6 ed3e 80db d73e 8702 f53d 53b2 543e
000000a0: d4a9 babc 2a0d 8bbe 6ba0 efbe 5585 aabe
000000b0: 59ab 2d3f fa6e 243f 2990 b4be 5c18 563f
000000c0: 00e8 a23e b572 b93d a6de 0040 3ede d13e
000000d0: 5478 603e 5603 ce3d be37 adbd 77db d83c
000000e0: ff2c 8fbd 942c 8e3f f66b 373d e856 f63d

0.bias f4 [30]
0.329418 -0.24558268 -0.2985579 0.06235516 -0.6628875 -0.28705966 -0.2765644 0.13478053
0.802283 -0.122923434 0.54848844 -0.5818433 -0.21875155 0.055537276 0.5899211 0.036568493
-0.2613144 -1.7291552 0.5109577 0.8041139 -0.0977844 0.633609 0.42763552 1.1511574
-0.12821296 0.12849297 -0.13430136 -0.3520532 -0.27827933 0.52374756
00000000: 7aa9 a83e 077a 7bbe 95dc 98be 2068 7f3d
00000010: ffb2 29bf 7cf9 92be d999 8dbe e803 0a3e
00000020: 6b62 4d3f 48bf fbbd bd69 0c3f aff3 14bf
00000030: 6800 60be 0e7b 633d 1205 173f d8c8 153d
00000040: 00cb 85be f554 ddbf 20ce 023f 69da 4d3f
00000050: 3043 c8bd 3334 223f 0bf3 da3e 2059 933f
00000060: 424a 03be a993 033e 4c86 09be 5140 b4be
00000070: a17a 8ebe 5214 063f
